model/model.ckpt-7000.pt (torch, 107133 bytes, 30 tensors)

linears.0.weight f4 [50, 2]
00000000: bb6c 1abe fe24 ed3e 4468 f73d 523a 4f3e
00000010: 8ec5 a53e 2702 98be aca5 643e ccb7 213e
00000020: 1cc3 24be f90b 63be 205e a03e 5ca2 323e
00000030: 8869 6c3e 3088 c0bc 26b6 99be b8ba 8c3f
00000040: df2a a0be c2ad f7be 374e 62be c273 62be
00000050: 50ef 16bf 1681 8c3d 3905 2b3e b6b4 51be
00000060: 7f0c 313d a5aa 683e 73fe 01be eb21 583e
00000070: b6cb 953c d1f2 c33e 1d64 a6bd 8180 8dbe
00000080: 8476 923e 140f a03e 3f01 003e aee1 303e
00000090: a227 e93d 239a 333c cfda 523d 7ae5 87be
000000a0: 9db3 e7bd c5af dbbe 4b4f 81be fdd6 86be
000000b0: d21d 6c3e 3643 523d 820b 1dbe 34c8 173e
000000c0: 9e02 f13d c1be 8d3e 77b1 e2bd b3b7 543e
000000d0: 078d d4be ba25 87be 5873 37bd 1b7b 1bbf
000000e0: 13c2 093f 9b25 4b3c 5447 2bbd 85df 6b3e
000000f0: 1d54 80be f429 533e ce5c 24bd c067 b5be
00000100: 73d7 7c3d 82d6 1cbe 5139 89bd 8e27 94be
00000110: a3b9 b4bd 0bf3 82be 485a 493e 17e7 a6be
00000120: d0a7 c33e 03d9 503d 1bb4 b03d c38c e7bd
00000130: 9cf1 553e d571 883e 4566 c5be b222 18be
00000140: 522f 3fbd 24e8 e6be 838f 6c3d 530e 87bf
00000150: 7a29 1a3e bde6 983e 324e 0cbe 3674 743e
00000160: 19c3 b3be e5ab 6ebe ff8f d6bd 61ab 8fbe
00000170: dcab d7be 489c 2c3e 7cbe 163f 1008 b53e
00000180: 7d65 043e 7c65 273e 62fd e63e e15f 4ebd
-0.1508054 0.46317285 0.12080434 0.20237091 0.32377285 -0.29689142 0.22328824 0.15792769
-0.16090053 -0.22172536 0.31321812 0.17444748 0.23087132 -0.02350244 -0.3002178 1.0994482
-0.31282708 -0.48374754 -0.22100149 -0.2211447 -0.5895891 0.06860559 0.16701211 -0.20479092
0.043224808 0.22721346 -0.12694721 0.21106689 0.018285614 0.38271192 -0.08124564 -0.27637103
0.28606045 0.31261504 0.12500475 0.1727359 0.113845125 0.010962042 0.051478203 -0.26542264
-0.113135554 -0.4290754 -0.25255808 -0.26335898 0.2305825 0.05133363 -0.15336421 0.14822465
0.11768077 0.27684596 -0.11069005 0.207732 -0.41513845 -0.2639597 -0.044787735 -0.6073472
0.5381176 0.012399103 -0.04181607 0.23034485 -0.25064173 0.20621473 -0.040127568 -0.35430717
0.061728906 -0.15316203 -0.06700385 -0.28936428 -0.0882447 -0.25576052 0.19663346 -0.32598183
0.38213968 0.05098821 0.086281024 -0.11306145 0.20892948 0.26649347 -0.38554588 -0.14856985
-0.046675988 -0.45098984 0.05775405 -1.0551246 0.15054885 0.2986354 -0.13701704 0.23872456
-0.35109785 -0.2330776 -0.10476684 -0.2806044 -0.42123306 0.16856492 0.58884406 0.35357714
0.1292934 0.16347307 0.4511519 -0.050384406

linears.0.bias f4 [50]
00000000: 77f7 2a3d e21d cb3c 4153 033e 9d90 7bbd
00000010: 4ae0 38bd dc76 06bc ddb7 9c3d 5910 67be
00000020: b18e 6ebe d78e 34be 4d61 0dbe cd46 7c3a
00000030: 9ffb e5bd 9d0b 8b3d 6332 d3be 2a86 0b3e
00000040: ff77 c53a b015 c5bc 7d58 ee3e 5acb 143d
00000050: 8b11 483e 20f3 debd 2e86 64be 0ace 5fbc
00000060: 38b8 033d 34d3 fbbc fa15 2cbe b554 773d
00000070: 2afd ce3c a268 c0bd 0039 e5bd 36b5 5a3c
00000080: 0a9f 843d ba51 193c c6bb fd3c 78f5 633d
00000090: cd68 87bd 3ad6 d5bb 09db 1c3d 0469 02bf
000000a0: 3749 6abe 4f3c 05bd 697b 8bbd bbd5 efbd
000000b0: 6e6d d2bc 8f03 a53d 275d 073e 3a48 b83e
000000c0: 013d 683e b755 983c
0.041739907 0.024794523 0.12824728 -0.06141721 -0.045135774 -0.008207049 0.07652257 -0.2256483
-0.2329662 -0.17632614 -0.13806649 0.0009623587 -0.112296335 0.067893244 -0.4124938 0.13625398
0.0015065669 -0.024058193 0.46551886 0.036326744 0.19537942 -0.10886216 -0.2231681 -0.013659963
0.032158107 -0.030740358 -0.16805258 0.060383517 0.025267202 -0.09394957 -0.111925125 0.013348868
0.06475647 0.009357864 0.030973326 0.05565402 -0.06611786 -0.006525782 0.038294826 -0.5094149
-0.22879492 -0.032528218 -0.06810648 -0.11710688 -0.025686946 0.080573194 0.13219129 0.35992604
0.22679521 0.01859556

linears.1.weight f4 [50, 50]
00000000: 0047 613e cb52 cfbc 58d7 5c3d 0919 d5bd
00000010: 839d 573d f0df a6bc 2de1 1abe bb43 ba3d
00000020: 4366 3fbd 21df 143d 87fd b6bd b62a 4f3e
00000030: 5b8c 0e3e 2719 abbd e835 d5bd d364 a53c
00000040: ecf6 84be 153d 563c 61a0 f23d f133 1d3e
00000050: 1434 673e c750 6d3e a6c1 96be 05ba 223c
00000060: 1aea 1ebe 40c4 41bc 472d 8f3e 0868 6bbd
00000070: f2e6 823e 9564 a8be c14d 4bbe 7a5f 9b3e
00000080: 67b5 963c 1378 623d 4d7b 3b3d e108 4abc
00000090: c2e9 3e3e 545c 5a3e 04e0 b03b 24b2 45bd
000000a0: 6117 76be 2340 77be 2330 8abe 0b69 bcbe
000000b0: 7ba0 c63d 18f1 313d 3012 253e fee6 a1bd
000000c0: 811a 413d b38c 9f3d 97f0 b8bc 8d68 a53e
000000d0: 10a8 3e3e 0240 28be 82af 96be 0cec eabd
000000e0: c0ab c1bc 731b 0ebf 4874 8a3c 4377 92be
000000f0: 49dd 773d 04c9 83bd 4448 043d 07c3 e7bc
00000100: d093 a4bd 32ea fdbd 1748 c43d 3f62 013e
00000110: 5fd2 dc3e 20a0 1fbd 2e70 123e a63c 33be
00000120: c6e2 97bd 3702 9c3e 9daa 8c3e 240e b33e
00000130: 974c 82bd 875f 4dbe 8c93 fc3d 4e88 12bb
00000140: cc07 453e db42 e2be 5f3d 38bd 165c aebd
00000150: f22c c8bb 218d f03d ebaf dcbd c206 ab3d
00000160: c42c a83e 85ee a6be 9658 783e 67a5 293d
00000170: a9f3 813e 7f9f 0cbe 9900 a6be 4875 3ebe
00000180: efed 4abd aa88 88be 3453 8ebc da61 833c
00000190: 40ea fd3d eeff 5e3e cf2e 54be 2c66 f13d
000001a0: 27d6 abbd a72d ce3e ae64 9f3d c1d9 9bbd
000001b0: ac92 da3d 0afa 173e 07a5 b4bd 6831 723d
000001c0: 9770 913d 9ecc 913d 0ad2 b43d 1561 a2be
000001d0: d67e 623e cb2d 81bd 93d4 e8be 6bc1 47be
000001e0: 025c 9bbd 594e 9f3d c0e2 6e3d 0f63 07bb
000001f0: ae55 5d3e abf3 b8bd 1009 433d c5dd 143d
00000200: f729 4a3e ff74 d6bc 8867 1c3e 9f4b 11bc
00000210: b44a 073d ec06 fd3d 740d 2bbe 86e8 133d
00000220: 4d9d beba 76ae e6bc 6836 66bd 1499 213d
00000230: b880 66be ba13 263e 51e7 b83e c436 013e
00000240: f4ca cfbd 340e 26bd f4d8 5b3d 1d14 3bbd
00000250: 91e2 6b3c 9ccc 863a f621 123e e13c d73d
00000260: 2210 553d 362b c6bd 7c15 51bd af54 223e
00000270: afe9 c6bd 5752 a1be e6ed 4cbd c958 4abe
00000280: a2de 6a3c 1690 c8bb c2ba 3d3e f4e8 46be
00000290: 270d ab3e a514 93be 0982 153e 0f9a 1dbd
000002a0: 8786 b6bd e94f a3be ed1d febd e554 04be
000002b0: 0020 55bd bf3d 0c3e 06a1 663e 9553 0d3e
000002c0: 7a44 61be 58aa 9bbd 80ad b8bd 1912 313d
000002d0: 523a 77be 2b4f a0bd 2f71 93bd d4ff c1bd
000002e0: b842 74bb d962 96be d47c 0a3e 610d 67bd
000002f0: 8ccc 2d3e ddd3 b2bd fbc8 c63c 5856 b43e
00000300: eb03 d4ba c43d a5bc a6aa 4c3e d9c4 693d
00000310: 64dd 86bd 919f 543d ce34 803e 0f50 aa3d
00000320: fc87 88bd 2f1c 083e a955 403c 08f2 dcbd
00000330: b606 dcbd 1b98 62bd 56ca 46bd 3cd8 dabe
00000340: 8f08 ec3c c472 ab3d fed8 ffbc 7c12 18be
00000350: 0d9e 6fbe 2838 f33d a7af 28be 0b2d d53d
00000360: 5f27 063d 8fa2 eb3d 169c 263e c2b2 b83d
00000370: b1d6 483e cd32 1b3d ed75 b5bd 9fd7 8f3e
00000380: 2f6e c2be 6da1 babd ca33 ec3d c449 853e
00000390: 4062 ba3d dd2e 51bb 3f9f b63b 3018 8b3e
000003a0: 41e7 fa3e 59bc ea3c f51b ed3d a0db c93d
000003b0: f8cd 3bbe 24b0 743d 1dd9 a7be c549 483c
000003c0: af65 363e f8f7 f33c 8bd3 98be f3df 90be
000003d0: a9ec 8f3e 1e97 0f3e aa50 bcbc f187 c1bd
000003e0: e33d b2bc 3b8b 0fbe d69c c0bd 8ec3 a93d
000003f0: ad6f 893e 1ed6 aa3d b39e d9bd eef8 ddbd
0.2199974 -0.025308033 0.053916305 -0.10405166 0.05264045 -0.020370454 -0.1512496 0.0909495
-0.046728384 0.036345605 -0.08935075 0.20231137 0.13920729 -0.08354407 -0.104106724 0.020189678
-0.25969636 0.0130760865 0.11846996 0.15351845 0.2257846 0.23175345 -0.29444617 0.009932046
-0.1551899 -0.011826575 0.2796423 -0.05747226 0.25566822 -0.32889238 -0.1985388 0.3034628
0.018397046 0.055290293 0.045771886 -0.012331218 0.18643859 0.21324283 0.0053977985 -0.04826559
-0.24032356 -0.2414556 -0.2698985 -0.3679889 0.09698578 0.043442816 0.16120219 -0.079053864
0.047144417 0.07790508 -0.02257566 0.32306328 0.18618798 -0.16430667 -0.29430777 -0.114708036
-0.023641467 -0.55510634 0.01690115 -0.28606614 0.06051377 -0.06434825 0.03229548 -0.028291238
-0.080360055 -0.12398185 0.095840625 0.12635134 0.4312925 -0.038971066 0.14300606 -0.17503604
-0.074163005 0.3047044 0.27473918 0.34971726 -0.063622646 -0.20055972 0.1233283 -0.0022359076
0.19241256 -0.44191632 -0.044980403 -0.08513658 -0.0061088735 0.11745668 -0.10775741 0.08350898
0.32846653 -0.3260385 0.24252543 0.041417506 0.2538121 -0.13732718 -0.3242233 -0.18599427
-0.049543317 -0.26666766 -0.017373659 0.01603787 0.12398195 0.21777317 -0.20720981 0.11787066
-0.08390456 0.40269205 0.07782875 -0.07609893 0.10672507 0.14841476 -0.08820539 0.05912915
0.07101553 0.07119106 0.08829124 -0.31714693 0.22118697 -0.063075624 -0.4547468 -0.19507377
-0.075859085 0.077786155 0.058321714 -0.0020658409 0.21614715 -0.09030851 0.047616065 0.03634431
0.19742571 -0.026178835 0.15273869 -0.008868127 0.033030227 0.12354836 -0.1670435 0.036110424
-0.0014542729 -0.028159361 -0.05620423 0.039452627 -0.2251004 0.16218463 0.3611398 0.12618548
-0.10146132 -0.04054089 0.0536737 -0.04567348 0.014397279 0.0010284367 0.14270768 0.105096586
0.05201734 -0.096762106 -0.05104588 0.15852617 -0.0971254 -0.31508133 -0.050031565 -0.19760431
0.014335306 -0.006120692 0.18528274 -0.19424802 0.33408472 -0.28726688 0.14600386 -0.038477
-0.08912378 -0.31896904 -0.12408052 -0.1292301 -0.05203247 0.1369543 0.22522363 0.13801415
-0.21998778 -0.0760085 -0.090174675 0.04323015 -0.24143341 -0.078276 -0.071993224 -0.094726235
-0.0037271213 -0.2937229 0.1352418 -0.056409243 0.1697256 -0.08731816 0.024265757 0.35222125
-0.0016175484 -0.020171054 0.19986972 0.057072494 -0.06585196 0.051909987 0.25040287 0.08316051
-0.06666562 0.13292001 0.011739173 -0.10788351 -0.107434675 -0.05532084 -0.048532806 -0.427431
0.028812675 0.08371499 -0.0312314 -0.14850801 -0.23400135 0.11875945 -0.16473256 0.10408982
0.03275239 0.11505615 0.1627048 0.0901847 0.19613148 0.037890244 -0.08860383 0.28094193
-0.37974688 -0.09112821 0.115333155 0.2603284 0.09100771 -0.0031918802 0.005573183 0.2716689
0.49004558 0.028654264 0.11577598 0.09856343 -0.1834029 0.059738293 -0.32782832 0.012224619
0.17812227 0.029781327 -0.29848894 -0.2829586 0.28110245 0.1402249 -0.022987682 -0.09449757
-0.021758026 -0.14017956 -0.09404914 0.08289252 0.26843014 0.08341621 -0.106259726 -0.10838495

linears.1.bias f4 [50]
00000000: b466 8b3c c303 2c3d 48d6 1fbd de11 af3b
00000010: 9687 603d 6e21 02bd c763 da3d ca76 e63d
00000020: 2d64 dfbc 2810 55bc 835c 693d 1238 27bc
00000030: bad4 803b 01db 46bd 6577 20be 5c39 99bd
00000040: af8f 25bd 11c0 cf3c 17c1 653d a823 b33c
00000050: 9677 b73c 3fde 42bc 97c4 5d3d 045e 933c
00000060: bfb2 18bc b253 153d b7a2 86bd 1560 93bc
00000070: 4d20 1cbd 4573 723d 2d30 7c3d cee7 a43d
00000080: d70f 6f3d 3505 1c3d f6df ebbd ef89 89bc
00000090: 3768 4fbe a786 3cbd 3a8e f3bd cba0 a73c
000000a0: 4d0a bfbe dc9c cd3d 1b01 ce3d 44e5 cebc
000000b0: 2c4f bf3b ca20 113d 603d 583d de34 59bc
000000c0: 29ff 793d 674a f93d
0.017016746 0.041995775 -0.039022714 0.005342706 0.054816805 -0.031770162 0.10663562 0.11253126
-0.027269447 -0.01300434 0.05697299 -0.010206239 0.003931609 -0.048548702 -0.15670545 -0.074816436
-0.04042023 0.02536014 0.056092348 0.021867588 0.02239589 -0.011893808 0.05414256 0.017989166
-0.00931996 0.03645677 -0.06574004 -0.017990151 -0.038116742 0.05919196 0.06156938 0.08052026
0.058364715 0.038090903 -0.115173265 -0.016789405 -0.20254599 -0.046026852 -0.11892362 0.020462414
-0.37312546 0.10039684 0.100588046 -0.025255807 0.0058382954 0.03543166 0.052792907 -0.013257233
0.061034355 0.12172394

linears.2.weight f4 [50, 50]
00000000: 1044 38bf 1286 7b3e 5abf 623e 0320 063f
00000010: d7c1 7fbc 54a5 963d c21d bebd da5a 36bd
00000020: 54be 32bf f57c a33c 66a6 8e3e 8295 1c3e
00000030: 854b 5b3d e84d 863d 1c63 063e d341 063e
00000040: f5b2 9cbe f172 a2bd 472b 873d ceeb 693c
00000050: bebf e03e cbc6 5abe 5490 c5bd 8c9b 4cbb
00000060: 8d99 d0be a05a 353d 5fc1 e93c c318 23be
00000070: 5aa8 fdbe 91f4 83bd 9468 103e c1a7 5f3e
00000080: 189a 13be 7e28 873e dc3a 6bbd 4ff1 2f3f
00000090: aecf c0be 57a7 4fbd 7bce 533f f851 7f3d
000000a0: 244c d8bd f944 4dbe 7cab a7be bb09 38be
000000b0: 3b78 00be 52ed d2bd cd69 0bbe 4293 35be
000000c0: 3eda c93e 94af b13b 0dd7 253a 774e cdbd
000000d0: ad73 033d 6467 bcbb aa72 01be 46db 9b3e
000000e0: 2def 533d 46a0 f6bd a200 64bb ba41 6e3e
000000f0: 0171 1fbe 6a3e 72bd bc52 20bf 1eb6 453e
00000100: 0de8 893d 586c d43b e774 9ebc f827 743d
00000110: ae92 ca3d 395e da3d e4da 7fbc e654 f3bd
00000120: 2897 313e 3648 0b3e a067 293e a9f8 613d
00000130: b6b7 cebc d3d5 68be d132 2ebe abcd ea3c
00000140: 5ec5 8ebe b709 b5bd 546e 1dbe dae0 db3e
00000150: 7e2b d8bc 7460 a1bd 1005 253e 7516 2a3d
00000160: 6621 873e 73f1 883d 57ed 513e 23ce d13d
00000170: f34e adbe 5bb6 02bd 594c f2bc 0cef 3ebd
00000180: 3bb5 5a3e 85e8 023d 3721 273e ae3e 413d
00000190: 29c4 dcbb 039d 7a3d 98fa 073d 08fd 3ebe
000001a0: e46a 9c3d d8d6 4d3d 53f1 80be 035f 1f3e
000001b0: 3eef 8ebe 3412 85be 3e95 113d afdd 5ebe
000001c0: 4739 1ebe 1d8a 89bd bd87 223e 446a 053e
000001d0: 13ac 03bd d706 7d3c d405 363e 2f01 0a3e
000001e0: 02b2 26ba 6eef efbd 2010 393d 65e1 a5bd
000001f0: c994 a53e 04d7 c5bd 8810 00be 1a78 a0bd
00000200: 1664 d5bc ff66 31bd 8c54 12be 3227 4d3b
00000210: 396b f1bd de9c 44be cffa a13e c97c 1c3f
00000220: ddf7 473d 592a 743e 66a7 813e 01b6 0dbe
00000230: 6dc8 b63d 441a 99bd d4a1 03be 8e5a 603d
00000240: 107a 753e 0dcb b13c cf62 1c3e 64ff b93d
00000250: 1577 4fbd b1a4 09bf 6467 8c3e 10bd b6bc
00000260: 6924 cdbd 1e35 803b 1f39 05be b720 06be
00000270: 9007 193d 25c4 6b3c ba4d 603d 2b6a 993d
00000280: 7149 163e e682 e43d baee fbbd bc52 01be
00000290: 7a6c 5bbd 154d 50be 4d1b 83bd 30eb 1a3e
000002a0: 5043 993d 8011 133d cd26 4c3e 84f2 733d
000002b0: 95d6 ff3d c657 7c3c fffd a7bd 5486 ee3d
000002c0: 44d3 8ebe 3dc5 9f3c 5e15 7b3d f5da 933d
000002d0: 8432 88be 53dc 043e f408 06be 708d 2a3c
000002e0: f760 1c3e b651 763c 52d8 5d3d 7605 84bd
000002f0: 4670 813e b4fc 89be 92ed e23d 666d 24bd
00000300: a364 7f3e fa8b 3ebd be6b 67bd 2e80 313c
00000310: 3cc1 f43d f43c 6a3e d74e 6dbe 6daa d83d
00000320: 4746 fb3c a315 53bd ae94 83bd ab95 a3be
00000330: e88a 84bd e797 48bd cd90 863d 2446 36be
00000340: 16ab 433e fa24 1abe 8210 313c 6118 033e
00000350: 2c97 543e df8b 1cbe 4eac 5c3e 4c42 d53c
00000360: 3648 ad3d fce0 73bd 8a37 8fbe 6234 95bd
00000370: adc3 c1bd 74ad bcbc 61da 973c fdfb 2bbd
00000380: 7597 dfbd 8121 24be 16ee 6bbe 9cae 6b3d
00000390: f86c a0bd ae83 b13d b38a 86be f9c5 4dbe
000003a0: 2d2c 083e e7d9 88bd cea1 c33d 4e15 99be
000003b0: 3de8 823d 7356 a43d d42f 9fbe 85c1 453e
000003c0: eee0 3ebe 84c4 ff3d 800d c63c d0a8 063e
000003d0: e93d a2bc fed2 d4bc a82c 2c3b eda3 4d3e
000003e0: 85a1 82be c6f7 86bd 8a3e 21be 97ce d03e
000003f0: 8d38 a23d 7dab 803e 2501 573d f009 633e
-0.71978855 0.24562863 0.22143307 0.52392596 -0.01561018 0.073557526 -0.092830196 -0.044520237
-0.6982167 0.019957045 0.27861327 0.15291408 0.053538818 0.06557828 0.13123745 0.13111047
-0.30605283 -0.079320796 0.066000514 0.014277412 0.43896288 -0.21364896 -0.09646669 -0.0031220643
-0.4074215 0.04427588 0.02853459 -0.15927415 -0.49542505 -0.06443132 0.14102393 0.21841337
-0.14414251 0.2639808 -0.05742918 0.6872758 -0.37658447 -0.050696697 0.8273694 0.06233403
-0.10561398 -0.20045842 -0.3274802 -0.17972462 -0.12545864 -0.102991715 -0.13614579 -0.17731956
0.39424318 0.005422542 0.00063262956 -0.100247316 0.03209274 -0.00574963 -0.12641397 0.3044073
0.051741768 -0.120422885 -0.0034790416 0.2326726 -0.15570451 -0.059141554 -0.6262624 0.19307753
0.06733713 0.006482642 -0.019342853 0.05960843 0.09891258 0.10662503 -0.015616152 -0.118814275
0.17342818 0.13601765 0.16543436 0.05516878 -0.025234085 -0.22737817 -0.17011572 0.028662523
-0.27884954 -0.088397436 -0.15374118 0.42944986 -0.026387926 -0.07879725 0.16115212 0.041525323
0.26392668 0.06686678 0.20500694 0.102443956 -0.33849296 -0.03191219 -0.029577421 -0.04661469
0.21358196 0.03196003 0.16321264 0.047178917 -0.0067372513 0.061184894 0.03319797 -0.18651211
0.07637575 0.05025372 -0.25184116 0.15563588 -0.27916902 -0.2599045 0.03554272 -0.21764253
-0.15451537 -0.06715796 0.15872093 0.13028818 -0.032146525 0.015443525 0.17775661 0.13477014
-0.00063589227 -0.117155895 0.045181394 -0.08099631 0.32340077 -0.096601516 -0.12506306 -0.078354076
-0.026048701 -0.043311115 -0.14290065 0.003130388 -0.11788029 -0.19200465 0.31636664 0.6112791
0.048820365 0.2384428 0.25323027 -0.1383896 0.08924947 -0.07475713 -0.12854701 0.05477386
0.23972344 0.021703267 0.15272067 0.09081915 -0.050650675 -0.53766924 0.2742263 -0.022306949
-0.1001671 0.003912582 -0.13010071 -0.13098417 0.037360728 0.014390026 0.054761626 0.07490953
0.14676453 0.111577794 -0.12301393 -0.12629217 -0.05357025 -0.20341904 -0.064016916 0.1512878
0.07483542 0.03590536 0.19936676 0.059557453 0.124921 0.015401786 -0.08202743 0.11646715
-0.27895558 0.01950323 0.061299674 0.07219497 -0.2660104 0.12974672 -0.13089353 0.010409698
0.15271364 0.01503413 0.054161377 -0.06446354 0.2528097 -0.2695061 0.11080469 -0.040143393
0.24940734 -0.04652021 -0.056499235 0.010833783 0.11950919 0.22874814 -0.23174606 0.10579381
0.03067316 -0.051534306 -0.06424843 -0.31950125 -0.06471807 -0.04897299 0.06570587 -0.17800194
0.19108233 -0.15053168 0.010807158 0.12802269 0.20760792 -0.15287732 0.21550104 0.02603259
0.08461039 -0.059540734 -0.2797206 -0.07285382 -0.0946115 -0.023031928 0.018536748 -0.04198836
-0.1091756 -0.16028406 -0.23040041 0.057539567 -0.07833284 0.08667694 -0.26277694 -0.20095052
0.13298102 -0.066821866 0.09552346 -0.29899067 0.06391952 0.080243014 -0.31091177 0.19312103
-0.18640491 0.12488654 0.02417636 0.13150334 -0.019804912 -0.025979515 0.0026271734 0.20082064
-0.25513855 -0.06590228 -0.15746513 0.40782616 0.079209425 0.25130835 0.052491326 0.2217176

linears.2.bias f4 [50]
00000000: 07ce d83c 7753 e53c bbe8 223c 04c1 003d
00000010: 02e1 86bd 13ea 733d e552 5b3d 9c3d a8bd
00000020: 1b31 86bd 6921 293d efe0 45bd 0b80 bdbd
00000030: fe2a 86bd 6e78 233d eb61 b53c 0bff 22bd
00000040: 962c 02bd 1f98 2e3d 6d75 7fbc 74d2 363d
00000050: d5f7 743d c559 84bc 2253 bbbd f386 a6bb
00000060: b2a9 a83e 6584 ca3d ec3d 7b3d 0455 aabc
00000070: 8f85 893d 309e 203e 9f21 54bd a9ed b4bc
00000080: 24f5 beba 1c57 573d ee9c 58bd 4ef5 4bbd
00000090: 8a62 0a3c 9434 62bd 5161 72bc 522f adbd
000000a0: d6cc 123d bae2 803d ca9c d4bd 0f2f 74bd
000000b0: e628 29bd 35b3 5e3d b31e 4c3d 266a c9bd
000000c0: c98c 283d 3ef9 b4bb
0.026465429 0.0279939 0.009943183 0.031434074 -0.065858856 0.059549402 0.05354585 -0.08214876
-0.06552335 0.041291628 -0.048310217 -0.09252938 -0.06551169 0.039909773 0.022141417 -0.03979401
-0.0317808 0.042625543 -0.015591961 0.044634297 0.059806664 -0.016156087 -0.09146716 -0.005082005
0.32941967 0.098885335 0.06133835 -0.020792492 0.067149274 0.15685344 -0.051789876 -0.022085981
-0.0014568907 0.05257331 -0.052884035 -0.049794488 0.008446345 -0.055225924 -0.01479371 -0.08456291
0.035839878 0.06293245 -0.10381468 -0.05961519 -0.04129877 0.054370124 0.049833965 -0.09834699
0.04114989 -0.005522876

linears.3.weight f4 [50, 50]
00000000: 39a3 313c f37d 953e 5c97 9dbe 2559 4ebe
00000010: dd01 c1bd d5eb 9bbd f478 143b ff57 063e
00000020: 4cc6 853d f414 a2be 282d 3b3d 0d56 f03d
00000030: f957 eebd 56f4 553c a0ff 263e 0061 413e
00000040: 3c2d 3a3d 6ce6 6e3d 7c95 5cbe 2f5a 88bd
00000050: 59d0 633d f733 753e 1866 d2bd 46cd 29be
00000060: 1521 0bbd f48e 66bd a487 573d 08ee 78bd
00000070: 9b24 44be 52d0 21be 775f f53d 2249 c53d
00000080: 38cc 85be d2f2 06be 904f 803e 14e8 623d
00000090: a23f 3bbc 91a6 f93d 96c1 b13e 37d9 183e
000000a0: 8241 afbd 5c25 ba3c aa62 eebc f7d5 593e
000000b0: 350c bebd 000b 14be acac 343e 9a30 dc3c
000000c0: 6e72 e6bd a772 873e 4b72 243f 35b4 213e
000000d0: 8ee1 893e 5428 04be 2338 fbbd 2c01 863e
000000e0: 491b 023e c6f5 c53d d1eb 003d 1418 a7bd
000000f0: d4e2 5cbe 3821 35bc ebc6 ee3d d154 183e
00000100: 7eed 57bc 1714 843e 7cc9 8f3c f332 dabc
00000110: 3069 0e3d 3678 0abe 76bd 013e cf37 91bd
00000120: a692 ab3d 2806 c0be c9cd a6be cbce 37be
00000130: 99db e6bd fe49 35be be57 40bd 1915 a4bd
00000140: f92a a93d 07f6 fd3d e361 6abe 8c13 34be
00000150: c8e3 333d 8031 a0be 1ba5 31be e91e 0d3d
00000160: 5d36 adbd 2cab 09be 0854 953e 19c9 9dbe
00000170: b92b dc3d 7795 b23d be06 a1be 1a82 0b3e
00000180: 3753 7bbd 5157 803e e09b 263e 4949 41bc
00000190: be5e f1be 24dc 0e3e 5ac2 6e3e 1052 49be
000001a0: 1f3f cabd 630c 763e 95b9 ef3d 6423 3cbd
000001b0: e2b8 e33d 8253 1d3e 4ba6 04be a2db 90bd
000001c0: f6d6 c7bd 20f1 0dbe cd8d 5fbc 12b0 2d3e
000001d0: 64d7 08bd bf69 66be 6db8 4ebe 2f92 35be
000001e0: 540e 95bd 343e bdbe df81 22bd 3f2d c4bd
000001f0: 5657 b53b f32b 363c d5da 5a3c 28c2 c1bd
00000200: 6a4e ff3d 7e3b e43c 8d53 f33c d021 16be
00000210: ad93 c03d 8f8b 30be cd6f 93bd 2a0d 9cbd
00000220: 68a4 5ebc d127 81be e702 aeba 6e20 2dbe
00000230: a09c 2f3a 6005 20be d254 873d 4fe8 22be
00000240: c0da 4b3d 2480 5d3c b71b d1bd 21b4 c2bd
00000250: 969b 99bd 09ab 2cbe cf4c 383e 8863 5bbe
00000260: d52d 24bd 23da 953d 4680 f5bd 7c8d de3d
00000270: 0049 c13c f55f e7bd 91e9 9bbe 08ca c43e
00000280: b1a8 013c d280 2f3d 2642 983d 9560 613e
00000290: 4075 423e b1ff c0bc 780c 1cbe ce1b 133e
000002a0: 5472 cf3d c6bf 943e 4746 a83e 4d3b e13e
000002b0: 9ff9 9b3e 2773 dfbd bafc c2bb cac7 fabd
000002c0: 0991 a13e 40d1 60bc 19b4 a2bc 53dd 603d
000002d0: 6f21 183e c8a7 c7bd dce6 6ebe 5c93 adbd
000002e0: dad7 3ebd a44d d03d 5b98 563e d958 2e3c
000002f0: 51c4 04bd 1694 cbbd ca63 95bd 4534 c4bd
00000300: ab12 ed3d 837d 25be fd49 ab3d d57a df3b
00000310: 9bbc 46bd 184a 75be ba4c d4bd 68cd be3d
00000320: 33c0 db3e 5deb 023e f9e2 b53e 8c33 413e
00000330: 5cac 21bf 6073 023e 37ac cc3d 7467 5fbe
00000340: f259 2e3d fb07 853d dfac 9cbe 03fd 82bd
00000350: 1590 84be 730b 82be 6dcb 1ebd 47a8 dd3c
00000360: b9ae db3c e2bc 093e b39e a33c fef4 75be
00000370: 038a a33e 4a60 9bbe c0b4 60be eb6d 34be
00000380: 5682 d03d 5893 2fbe bc4f 873c d09c b4be
00000390: 7cf5 a8be a2c3 373e 1d45 c63e 8a90 e23d
000003a0: 38b3 e7be 76ee c6be 0ad9 c43d 7290 63be
000003b0: 5f8f 7ebe 5f5c bdbd d0f9 f23d 2320 79be
000003c0: af62 1fbe 54ea b63d 821a b9bc e9a7 0abe
000003d0: fd75 c8be be4b 8b3e 9878 e8bd 4d9e 02be
000003e0: d9be 603e 2e58 3cbd 8c62 2f3e f766 913e
000003f0: 6ecc 093e 0902 7a3e f28b f03d bd37 f53d
0.010842138 0.29197654 -0.3077954 -0.20151193 -0.094241835 -0.07613341 0.0022655101 0.13119505
0.06531963 -0.3165661 0.04569736 0.11735163 -0.11637873 0.0130587425 0.1630845 0.18884659
0.045453295 0.058325216 -0.21541399 -0.06657826 0.055618618 0.23945604 -0.10273379 -0.16582212
-0.033967096 -0.056288674 0.05261959 -0.06077388 -0.19154589 -0.15802124 0.11981099 0.096330896
-0.2613237 -0.13178566 0.250607 0.05539711 -0.011428745 0.12189973 0.34718007 0.14926611
-0.085574165 0.022722892 -0.029099781 0.21273027 -0.09279672 -0.14457321 0.17643994 0.026878644
-0.112522945 0.2645466 0.642369 0.157914 0.26929897 -0.12906009 -0.122665666 0.2617277
0.12705721 0.09666018 0.031474892 -0.081588894 -0.21570903 -0.011055283 0.11659034 0.14876105
-0.013179181 0.25796577 0.01755213 -0.026635623 0.034768283 -0.1352242 0.1266993 -0.07090723
0.0837758 -0.37504697 -0.32578877 -0.17949979 -0.11272354 -0.17704007 -0.046958677 -0.080118366
0.082601495 0.124004416 -0.22888903 -0.17585582 0.0439184 -0.31287766 -0.17348139 0.034453306
-0.084576346 -0.13444203 0.29165673 -0.30817488 0.10750527 0.087199144 -0.31450456 0.13623849
-0.061358657 0.25066617 0.16270399 -0.011797258 -0.47142595 0.13951164 0.23316327 -0.1966021
-0.09875321 0.24028163 0.11705319 -0.04593219 0.11119248 0.15363887 -0.1295406 -0.07073142
-0.097577974 -0.13861513 -0.013644648 0.16961697 -0.033408538 -0.22501276 -0.2018754 -0.17731546
-0.072781235 -0.3696152 -0.039674636 -0.095789425 0.005534093 0.011118877 0.013357838 -0.094608605
0.12466128 0.0278604 0.029702926 -0.14661336 0.09403167 -0.17240737 -0.07199059 -0.07619698
-0.013589002 -0.2522569 -0.0013276011 -0.16906902 0.0006699059 -0.1562705 0.06607975 -0.15908931
0.049769163 0.013519321 -0.10210364 -0.09507013 -0.07500379 -0.1686212 0.1799805 -0.21424687
-0.04008277 0.07316997 -0.11987357 0.1086683 0.02359438 -0.11297599 -0.30451635 0.38435388
0.007913754 0.042847462 0.07434492 0.220095 0.1899004 -0.023559423 -0.15239131 0.14366075
0.10129228 0.29052562 0.32866117 0.43990555 0.30463883 -0.109106354 -0.0059505375 -0.12245138
0.31555966 -0.013721764 -0.019861268 0.05489857 0.14856504 -0.097487986 -0.23330253 -0.08475372
-0.04659257 0.10171059 0.20956556 0.0106413 -0.032413784 -0.099403545 -0.07294424 -0.09580282
0.11575826 -0.1616116 0.083637215 0.0068200626 -0.048519712 -0.23954046 -0.10366197 0.09316522
0.42920074 0.12785096 0.3552473 0.1886732 -0.63153625 0.12739325 0.09993785 -0.21816808
0.042566247 0.06495663 -0.3060064 -0.063959144 -0.25891176 -0.2539936 -0.03876822 0.02705778
0.026816713 0.1345096 0.019973135 -0.24019238 0.31941232 -0.303469 -0.2194395 -0.17620055
0.101811096 -0.17146051 0.016517513 -0.35275888 -0.3299979 0.17945722 0.38724604 0.11062725
-0.4525392 -0.38853806 0.096117094 -0.2222307 -0.24859379 -0.09246134 0.11864054 -0.24328665
-0.15564989 0.08931413 -0.022595648 -0.13540615 -0.39152518 0.27206224 -0.113511264 -0.127557
0.21947803 -0.045982532 0.17127436 0.28398868 0.1345689 0.24414839 0.117454425 0.11973522

linears.3.bias f4 [50]
00000000: 9adf 04be 89bb d7bc 41f5 0ebd b63b 3bbc
00000010: a05f 983d f9ae 39bb 779d 313d 9c1c 783d
00000020: 88e4 56bc 0c9b ccbc 4bda 87bb bc2d a43c
00000030: 4565 3abd 63f7 3ebd b595 77bd 8d8e c5bc
00000040: b37c 5c3d c1aa 46bc 5831 4dbd 8b82 84bd
00000050: 82ba 983b d051 263d 47bb a4bd 9f7f c0bc
00000060: fbc3 36bd c787 52bb e015 f23c 170d ec3c
00000070: 3295 1dbd 2fe2 e2bc b18c 483d eb1c 983d
00000080: d33c 7e3d b6ed 9c3c 585d e43a 9a5b 70bd
00000090: 85e3 983c c8f0 733d 91a5 9bbd 2faf ccbc
000000a0: 63dd 853d 5e1c 0a3d a132 ec3c 0a65 b4bc
000000b0: 4662 b9bb c420 ccbc 3a89 88bd 9697 bd3d
000000c0: 6317 52bd 0e2b 18bd
-0.12975922 -0.02633454 -0.03490186 -0.01142781 0.07440114 -0.0028333052 0.04336306 0.06057416
-0.0131160095 -0.024976276 -0.0041458956 0.02004134 -0.045506734 -0.046622645 -0.060445506 -0.024115825
0.05382986 -0.012125672 -0.050095886 -0.064702116 0.0046609053 0.040605366 -0.08043533 -0.023498354
-0.044620495 -0.0032124387 0.029551446 0.028814835 -0.038472362 -0.027695743 0.0489623 0.07427391
0.062069725 0.019156318 0.0017422838 -0.058681108 0.018663177 0.0595558 -0.07599939 -0.024985878
0.06536367 0.03371846 0.028832735 -0.022020835 -0.005657467 -0.024917968 -0.06666799 0.09257428
-0.051291835 -0.037150435

linears.4.weight f4 [3, 50]
00000000: 6f4c 10be ccf1 463e c56e dfbd 8e2b cf3e
00000010: bca4 6f3f b754 eb3e e99c eb3e e231 70be
00000020: f947 b4be 1cfa 7bbe 7e87 15bf 809c a23e
00000030: 2058 c0be 0514 e3be fbe9 d7be 95b5 6cbf
00000040: 1741 5cbe c2c1 09bf 86ec 04bf 6b49 3c3e
00000050: df2c 1cbe 2228 ed3e 8c78 9abc edc9 8d3e
00000060: c284 a9be 4c7c e13e ab57 8b3d 9ff1 293e
00000070: 06eb b4be 17d5 49be 8819 d33e 514d 103e
00000080: cefb 7e3f ff52 233e 4d77 be3d 7f52 adbe
00000090: 6aaf f23d f592 76be b210 08bf c5e9 1ebe
000000a0: 423d d63d dafa ecbd bb7b 233f b365 ba3d
000000b0: fa33 0ebf 6eb1 ca3c 8ccf 97be a900 363f
000000c0: 3def bdbe 6162 c3be f20f 683e 14eb ca3e
000000d0: 555a d13d 8593 523e 61b5 8a3e 43ba 933e
000000e0: 8cc2 963d b09f 56bd 121e f0be 5ff4 9f3e
000000f0: 188d 3ebe 4792 64be baff 45be f972 903e
00000100: ce60 2f3e 9958 cbbc 5fd3 a63d 9221 8abd
00000110: 5fc3 3fba a771 b53d ba86 2bbe 5806 82be
00000120: 0502 353e 740b 1f3e 84b7 953e b8f8 8b3c
00000130: 3260 973e d822 f13d 52e4 473d d56f 7f3e
00000140: 3c69 61be 20fc 35bd 9ef7 03be cfd3 6e3e
00000150: 9ae8 cfbe 7705 0ebc c915 94bc 9e1d d5bc
00000160: 6383 483e 6b2a 5a3e 9db8 debe 8fe5 00bf
00000170: 37ad bcbd 7729 513e bf55 18bd b17c 933e
00000180: 1909 6e3e 0053 3bbe 2dcd 2bbe 799c 333e
00000190: fb9a e33e c51c 6cbb 4a9c 1fbe 82ba 27bd
000001a0: d97b a2bd 4901 ca3e 8e8c 92bd 6bc9 88bf
000001b0: 2c47 bb3d 2656 20bf a7cb 18bf 6c45 143e
000001c0: 7c9a 763e 62ff a03e 76d4 87bd 37d0 63be
000001d0: 1430 02bf 9b3e 7dbe e1ab eabe b948 3e3f
000001e0: f276 76bc bc2d ce3d 3df0 7d3d 9661 983e
000001f0: 24a3 383e 6d80 75bd 8ac3 bd3d a35a c23e
00000200: 4479 c6bc e597 b6be a201 153e f148 0cbe
00000210: 6c08 b1be 0d44 f4be 49cb bc3c b7e8 533f
00000220: 7c7f 8e3e ef08 bebe 80a3 f13e 7f75 1bbe
00000230: 7e26 353c e4db d9bd 59a6 823e 408c 8b3d
00000240: 6534 363e 5098 4fbe dc72 acbd 460d debd
00000250: 8d34 0d3f db2f 7a3d
-0.14091657 0.19428176 -0.109097995 0.40462917 0.9361074 0.4596307 0.4601815 -0.23456529
-0.3521116 -0.24607128 -0.5840987 0.31760025 -0.37567234 -0.4435121 -0.421707 -0.9246457
-0.21509205 -0.53811276 -0.51923406 0.18387382 -0.15251492 0.4631968 -0.01885631 0.2769312
-0.331091 0.44040143 0.06803831 0.16596077 -0.3533556 -0.19710194 0.41230416 0.14091994
0.99602973 0.15949629 0.093000986 -0.33852002 0.11849864 -0.24079497 -0.53150475 -0.15518863
0.10460903 -0.11571284 0.6386067 0.09101429 -0.5554806 0.024742808 -0.29650533 0.7109476
-0.37096587 -0.38160995 0.22662333 0.39632475 0.102223076 0.20564087 0.27091506 0.28853044
0.073613256 -0.052398384 -0.46897942 0.31241128 -0.1860851 -0.22321425 -0.19335833 0.28212717
0.17126772 -0.02482252 0.081457846 -0.06744684 -0.00073151843 0.08859568 -0.16750613 -0.25395465
0.17676552 0.15531713 0.29241574 0.017086372 0.2956558 0.11774224 0.048801728 0.24945004
-0.220128 -0.0444299 -0.12887427 0.23322986 -0.40607148 -0.008668295 -0.018076794 -0.0260151
0.1958137 0.21305244 -0.43500224 -0.5035028 -0.092127256 0.20425974 -0.03719115 0.2880607
0.23245658 -0.1829338 -0.16777487 0.17540158 0.44454178 -0.003602789 -0.15586963 -0.040949352
-0.07933778 0.39454105 -0.07155715 -1.0686468 0.09144434 -0.6263145 -0.5968575 0.14479607
0.24082369 0.31444842 -0.066323206 -0.22247396 -0.5085461 -0.24730913 -0.45834258 0.74329716
-0.015043007 0.10067317 0.061996687 0.29761952 0.18030983 -0.05993693 0.09265812 0.37959775
-0.024227746 -0.3566276 0.14551404 -0.136997 -0.34576738 -0.4770817 0.023046153 0.8277697
0.27831638 -0.3711619 0.47195053 -0.1518154 0.0110565405 -0.10637644 0.25517538 0.0681386
0.17793424 -0.20272946 -0.08420345 -0.108423755 0.5515831 0.061080795

linears.4.bias f4 [3]
00000000: 2883 d33c e4a9 50bd a18f 58be
0.025819376 -0.05094327 -0.2114854

exp_avg f4 [50, 2]
00000000: f69f 47bb 3625 ffba 376d b83a ec5e 043b
00000010: 4880 293a b288 f83a 2602 8cb9 f400 daba
00000020: c9b6 b1ba 3d1e 42bb f50b 043b 66a2 153b
00000030: 72b3 2c3a 07e2 79b9 bd2e eabb 8c36 0abc
00000040: b254 9c3a 9df5 3b3a ce44 9039 c85a f2ba
00000050: d47c 31b8 a00a aa3a 833a a9ba 6fb1 2dbb
00000060: df38 0f3a 9f82 36ba be17 aa3a ea14 fc3a
00000070: 221e 263b 4d50 973a 4f02 e9ba 3abd 53bb
00000080: 4011 ba3a 6579 ea3a 9e32 b53a 291a b537
00000090: 1150 a8ba ed27 263b e5de 07bb 3ac9 8abb
000000a0: 721c 8539 d803 8cb9 72a3 abb8 3db0 0fbb
000000b0: 191a a33a 0717 9cba e462 ed3a 932a 393b
000000c0: 1299 113b f91a 953b f193 c43a 163c 0f3b
000000d0: 5c21 543a dfcb ad3a 5a22 033b 0e03 083b
000000e0: e516 acba 7deb 98bb da98 0c3b 510c 473b
000000f0: 7baf 153a 4034 c73a 8eb8 4cba c814 3bbb
00000100: 9327 cbb9 86c0 f9ba d0ae 24bb 103a 80bb
00000110: f48d 2abb 4b4b 94bb 7c77 b1b9 ee1a 2b39
00000120: 6d36 96ba ab22 83bb ee49 f2ba f524 83bb
00000130: 9325 9139 195c 103a 0f26 ed3a 6419 acb8
00000140: b7e7 0c3b 2658 9c39 5b52 9f3b d7fa 7f3b
00000150: 7a7c 3c3b 553e 7e3b 8785 7a3a 7a7b c43a
00000160: 828f 67ba b6b9 c4b9 e098 69ba 55ac 8aba
00000170: 8ccc ce37 0b6a e13a bf18 c7ba 4db1 24ba
00000180: 485c f0ba d56c be3a b929 94ba 4ad4 29bb
-0.0030460334 -0.0019466046 0.0014070634 0.002019818 0.0006465954 0.0018961637 -0.00026704482 -0.0016632364
-0.0013558503 -0.0029620074 0.0020148729 0.0022832393 0.0006588019 -0.00023830692 -0.007146685 -0.008435857
0.0011927097 0.0007170083 0.00027517084 -0.001849019 -4.2316344e-05 0.0012973137 -0.0012911115 -0.0026503464
0.00054634915 -0.0006962213 0.0012977046 0.0019232307 0.002534755 0.0011544317 -0.0017777177 -0.0032308833
0.0014195815 0.0017888962 0.0013824289 2.1589063e-05 -0.0012841244 0.0025353387 -0.002073222 -0.004235414
0.0002538893 -0.00026705745 -8.1843595e-05 -0.0021925115 0.0012443691 -0.0011908718 0.0018111137 0.0028254136
0.002221648 0.0045503345 0.0014997703 0.0021855882 0.0008092129 0.0013259611 0.0020009489 0.0020753774
-0.0013129382 -0.0046667443 0.0021453411 0.0030372331 0.00057100476 0.0015198067 -0.0007809483 -0.0028546322
-0.00038748662 -0.0019054569 -0.002512861 -0.0039131716 -0.0026024552 -0.004525577 -0.00033849094 0.00016317863
-0.0011460312 -0.0040019355 -0.0018485168 -0.0040022084 0.0002768455 0.00055068877 0.0018093007 -8.2063285e-05
0.0021500417 0.00029820314 0.0048621125 0.0039059424 0.0028760717 0.0038794477 0.000955664 0.0014990412
-0.0008833335 -0.000375224 -0.0008911025 -0.0010579923 2.4652363e-05 0.0017197741 -0.001518987 -0.00062825234
-0.0018338049 0.0014528284 -0.0011303938 -0.0025913888

exp_avg_sq f4 [50, 2]
00000000: 552d fe3c 7967 0d3c 2ef5 963c 14fb f43b
00000010: 54ce bb3b 9682 fc3b 9334 5f3b 7760 ed3b
00000020: 2d1f d63c d214 5f3c 64f1 023d f5a8 443c
00000030: 70ca 513a cbc6 0139 ff87 773e 3d9d cc3d
00000040: 3bd8 953b 300d 983a 8b02 7c3b df36 f93b
00000050: 3c56 253b 8489 463b 5c4e d73c 5872 5f3c
00000060: 644c 273a 59ae 873b ef6e 743c 6158 123c
00000070: 72c0 313d f9f6 443c d9ea 303d dece 7e3c
00000080: fc00 a33c 5f7b c43b 226b ae3b 3434 e93a
00000090: 6c81 0a3b b6cb bc3c 48ac 743d 8abb eb3c
000000a0: a8ea e33a d166 8a3a bd07 043c a34f 043c
000000b0: dbc0 183b 1f13 a53b 758a fc3c 5eab 533c
000000c0: daea 753d 15d8 0d3d 15da 983c ab5e 143c
000000d0: bcee 8b3b 02c9 4d3b 0451 a73c 118c 213c
000000e0: 9482 403d 6832 123d 2c6c 2e3d a4c7 843c
000000f0: 264e bd3b 3571 4f3b 7ffa d83c dc2b 593c
00000100: 65ad 053c 68b0 bf3b 360e 803d 0b22 ca3c
00000110: 774f 8d3d 988f 083d 3b53 943a 9dc6 023b
00000120: ae72 f23c 2539 e73c 1611 4b3d 49fd f33c
00000130: 2f88 ce3a c940 153a b082 bb3b a32d 673b
00000140: 3961 283c 5847 e23a 86a7 af3d 8f01 b23c
00000150: 7873 873d f5dd cb3c 4388 503c 7dc2 203c
00000160: d24f 203b 7364 8a3a a6f5 e83b 0b8f 423b
00000170: 3b28 923b dc41 fd3b 420b c93b 267a 973a
00000180: 75d2 843b 4699 003c e08b 913c 27a3 333c
0.031027475 0.008630627 0.018427458 0.00747622 0.0057313833 0.0077059967 0.0034058436 0.0072441655
0.026137913 0.013615804 0.03196849 0.012003173 0.0008002883 0.00012376455 0.24172972 0.09990928
0.004572896 0.001160061 0.0038453664 0.007605418 0.0025228402 0.0030294368 0.026282482 0.0136381015
0.00063819275 0.004140657 0.014919027 0.008932204 0.04339642 0.0120217735 0.04319272 0.015552251
0.01989793 0.0059961523 0.00532283 0.0017792047 0.002113427 0.023046356 0.059734613 0.028775949
0.0017388659 0.0010559206 0.008058486 0.0080756275 0.002330831 0.00503768 0.03082774 0.012919275
0.060038425 0.0346299 0.018658677 0.009055774 0.0042704027 0.0031400328 0.020424373 0.009860055
0.04699953 0.035692602 0.04258363 0.016208477 0.0057771383 0.003165317 0.026486633 0.013255086
0.008159016 0.0058498867 0.062527105 0.024674436 0.06899922 0.033340067 0.0011316309 0.0019954809
0.0295957 0.02822549 0.04957684 0.029783862 0.0015757139 0.00056935527 0.0057223663 0.0035275004
0.010277086 0.0017263694 0.085768744 0.021729259 0.06613821 0.02488611 0.0127278 0.009811995
0.002446164 0.0010558501 0.0071093617 0.002968731 0.0044603623 0.0077287983 0.0061353752 0.0011556789
0.0040534087 0.007849043 0.017766893 0.0109641915

exp_avg f4 [50]
00000000: 1084 2a3b 32e3 c1ba ac09 8b3a 0956 96ba
00000010: 8555 293a e793 22bb 0002 3ab9 09d9 c93b
00000020: 6931 a7ba af19 8eba 3faf 68b8 b89d de3a
00000030: c9a0 f3ba 240a 07bb d54f 96bb f773 b53a
00000040: bf6b efba cdd9 09bb 2948 673b dbf6 1c3b
00000050: d5ef b838 e08d 3bba 2e53 1bbb 3472 13bb
00000060: 17de e8ba 38e1 faba 7ca0 9a35 ebc7 d2ba
00000070: a54b 10ba 9fe0 0dbb a24a 8eba 671b c13a
00000080: 726f 293a a268 203b 3687 243b fa8d f23a
00000090: 5ef8 3fba c7d3 e23a e81a 5fba efea 16bb
000000a0: f7cc 1bbb 44f3 96bb 5319 30bb 22e4 25bb
000000b0: c614 9d3a e8e7 043b 806d 98b9 3d41 a63a
000000c0: 5625 413b dc1f 913a
0.0026018657 -0.0014792441 0.0010607741 -0.0011469732 0.0006459582 -0.0024807395 -0.00017739087 0.006159906
-0.0012755814 -0.0010841395 -5.547632e-05 0.001698426 -0.0018587346 -0.002060541 -0.0045871534 0.0013843764
-0.0018266364 -0.002103436 0.0035290814 0.0023950848 8.818476e-05 -0.0007154625 -0.0023700702 -0.002249849
-0.0017766383 -0.0019140607 1.1520601e-06 -0.0016081309 -0.0005504436 -0.0021648777 -0.0010855983 0.0014732898
0.0006463445 0.0024476429 0.0025105006 0.0018505447 -0.00073230814 0.0017305546 -0.0008510784 -0.0023028215
-0.0023773292 -0.0046066362 -0.0026870563 -0.002531298 0.001198434 0.0020279828 -0.00029073283 0.0012684237
0.0029471717 0.0011072117

exp_avg_sq f4 [50]
00000000: 04c4 d63c 4d60 d43c 1e07 ef3b 5782 013c
00000010: 4b58 f33c 794a 273d b4a2 2638 86f4 9d3e
00000020: f691 af3b 6c5e 433c 6892 963b eeb2 033d
00000030: f32e fa3b 1213 d33c 779f 6b3d c38c 273d
00000040: 0271 c33c df1d 2d3c 9486 d13c 8269 aa3d
00000050: ff2b de38 f79c 253c 639e f93b e8ca 353d
00000060: 7c10 b13d f08d d63c 25d1 a23b 17a0 b93c
00000070: e749 403d a1b1 283d 4ab6 1d3c 485b 1c3d
00000080: 48cb 8b3c 89ac 983d 9a75 c63d f71b c23b
00000090: 9a40 1a3d 6476 6c3d f124 a13b 2403 033c
000000a0: 544f 393c d4e8 bc3d 1646 9f3d 69ab ed3c
000000b0: c860 893b 01cf 913c b6a7 0b3c 3f3c ad3b
000000c0: 4865 653c 10a2 bd3c
0.026216514 0.025924826 0.0072945496 0.007904611 0.029705187 0.040842507 3.9729013e-05 0.3085062
0.005357976 0.011924367 0.0045950897 0.032153063 0.0076349913 0.02576593 0.057525124 0.040905725
0.023857597 0.010566204 0.025576867 0.08320905 0.0001059398 0.010108224 0.007617758 0.04438296
0.08645722 0.026190728 0.0049687796 0.022659345 0.04694548 0.041185025 0.009625981 0.03817299
0.017064705 0.074547835 0.096903995 0.005923744 0.037659265 0.057730094 0.004917734 0.007996354
0.011310417 0.09224096 0.0777704 0.029012399 0.0041924454 0.017798902 0.008523872 0.005286723
0.014001198 0.023148566

exp_avg f4 [50, 50]
00000000: a9b0 5eba 8bd7 1fba 9dc3 a639 f67f 20ba
00000010: f084 363a cc50 43ba 598e 5db9 5d4f 02bb
00000020: 67c4 b03a 79c7 423a 31ef fb39 14a3 9239
00000030: c251 17ba ae21 afb9 dbc1 58ba e1e8 3e3a
00000040: 93cb 85ba 0732 0fba 128c 09b9 deee 123a
00000050: 126f 8e3a ec5a 663a 9978 bdb9 3832 2fb9
00000060: 4f97 4aba cd3d bbb9 8d18 873a f8f3 b73a
00000070: 1d6b 1fba 5a0e 01ba cfe0 4bb9 7f27 623a
00000080: a54c 9739 920e 443a 3d6e 363a 8f19 0a3a
00000090: ac3c 0cba 1837 2c39 bfda 5dba 6579 293a
000000a0: b279 803a 9033 013b bf47 60ba 5248 d3b9
000000b0: b0ba 6e3a 2f3a 493a 392c ff38 931e aeba
000000c0: e384 04ba 91e6 ccb9 0faa 093a ea0e 0d3a
000000d0: 9041 a4b9 f20d 4f3a 8877 1cba 1ba5 603a
000000e0: c5ea 3339 06ea ff3a a319 6eba c2a6 d5b9
000000f0: 2450 0dba 0216 feb8 fb62 433a f1ce 4938
00000100: 4ece c53a ed8f 77ba fa62 8a3a f9d7 1a3a
00000110: 3094 46ba 7113 05ba 36f8 b4ba 2160 34ba
00000120: 2c9d 6e3a 90ee 8538 81d8 2c3a 803f 9639
00000130: c918 58ba ec8a b0ba 9745 5a3a f8c3 173a
00000140: 68e0 6e39 31ce 4bba f4aa afb9 84c6 34ba
00000150: c0d8 38ba f0c4 ddb9 8c66 5c3a 1075 85b8
00000160: 29fd 4a3a 13b7 5839 7ad8 cfb9 2945 daba
00000170: 2984 7b3a 3a4c 003a 5061 7bba 269b 66ba
00000180: 7804 29ba 64ab 5e3a a736 0638 ae5c 1c3a
00000190: 6721 9739 ef84 7639 504a 1bb9 1d91 9a39
000001a0: 5243 8ab9 8f5e ad39 8a9e 9438 beef 653a
000001b0: a7a8 f3b9 4d3c 6ab9 bb2b 43b9 6eeb adb8
000001c0: 06b9 9439 9212 9738 271a 073a d0af bbb9
000001d0: f2ca e139 697e 7839 c6d2 36b9 7ef9 6bb9
000001e0: a780 0aba 32d2 a5b9 be46 9539 7748 4c38
000001f0: d691 9a39 3baa 0e39 a345 c2b9 5dd2 1aba
00000200: d042 9739 b4ad 7139 b00d d238 5244 b4b9
00000210: 7d68 0db9 360d 9db9 d4a3 99b9 b27c 56b9
00000220: 905c 9739 9d18 40b8 1d93 ae39 eec5 45b8
00000230: a6d9 90b9 bf85 52ba b44f c839 e226 4e39
00000240: d217 c9b9 539c b6b9 8f4a 34b9 147c e139
00000250: 5ae6 bc38 2fad 4f39 0317 663a 96ab 183a
00000260: b423 adb9 7cc8 0b3a 0845 2fba 87ca 2f3a
00000270: 09ee 4539 e602 ff3a f4a9 b4ba 5840 46ba
00000280: 52dd ddb9 f4e3 a0b9 71e8 063a 124a c539
00000290: 3f59 2d3a 64a1 29ba 58ad 7a3a 223a 033a
000002a0: fe59 8c39 aed7 0eba 8baf 7fba 04bc 61ba
000002b0: 8694 6c39 f6a5 4639 48e6 433a 31bd bc39
000002c0: a58e 85ba 37eb b1ba d2b8 053a 5aa6 ee39
000002d0: e3a4 5139 d581 5aba 60eb 8db9 4abf 3bba
000002e0: 631b 2bba f72f 0cba 75b6 de39 c6df 3cb9
000002f0: 17a5 533a 9ee4 48ba ae4b 88ba 12c2 02bb
00000300: b4ed 4d3a 69a2 c639 6ba1 5dba 6905 38ba
00000310: 037c 9a37 09df b53a c40e 113a 227e 9e39
00000320: 33bc 9939 b663 4a39 e18d 24b9 e1a4 4239
00000330: 729f 63b9 b1b3 6539 2659 1738 649e 1f3a
00000340: 2390 d5b9 850f 66b9 e8a4 abb8 86a9 f9b8
00000350: 8329 5139 2c46 0639 2ecb a239 9a85 82b9
00000360: 158a a839 1d8d 3539 0125 4b37 d9e2 51b9
00000370: f62d c5b9 2fed 8bb9 c3c0 d738 e239 a838
00000380: 2b80 8239 2600 1239 b426 9eb9 0c2a f4b9
00000390: a61a 0f39 4f69 3c39 3d40 e038 02cc 97b9
000003a0: 81aa e9b8 2442 82b9 a718 71b9 e4d6 57b9
000003b0: ff7a 0d39 396c 90b8 5eb3 8a39 0725 29b9
000003c0: 9fe3 9fb9 6205 19ba e971 9339 3a77 2a39
000003d0: ff4c 8fb9 a158 86b9 3f8b 7037 c56c c639
000003e0: 5a31 1939 fb78 9138 8f5c 6bb9 2bc0 1fb8
000003f0: da86 ec38 1b2a c538 3458 3f38 a7b0 a438
-0.00084949523 -0.0006097487 0.0003180773 -0.0006122583 0.0006962558 -0.00074506993 -0.00021129231 -0.001988373
0.0013486267 0.00074302364 0.00048052662 0.00027968793 -0.0005772376 -0.00033403694 -0.0008268633 0.00072826265
-0.0010207765 -0.0005462472 -0.00013117518 0.0005605052 0.0010866842 0.0008787352 -0.0003613874 -0.00016708008
-0.0007728235 -0.00035713465 0.0010306999 0.00140345 -0.000608133 -0.0004923098 -0.00019443336 0.0008627101
0.0002885807 0.0007478978 0.0006959176 0.0005268091 -0.0005349617 0.00016423722 -0.00084630767 0.00064649276
0.0009801893 0.0019714572 -0.0008555613 -0.0004029894 0.0009106798 0.00076762115 0.00012167585 -0.0013284258
-0.0005055202 -0.00039081697 0.0005251476 0.00053809455 -0.00031329365 0.00078985014 -0.0005968739 0.00085695245
0.00017158229 0.00195247 -0.00090827997 -0.0004075077 -0.0005390665 -0.00012115763 0.0007453409 4.8114864e-05
0.0015091391 -0.0009443749 0.0010558062 0.0005906816 -0.0007575182 -0.00050764444 -0.0013806883 -0.00068807794
0.00091024 6.38637e-05 0.0006593541 0.0002865754 -0.00082434394 -0.0013469136 0.000832641 0.00057893945
0.00022781047 -0.00077745604 -0.0003350597 -0.0006896036 -0.0007051341 -0.00042299135 0.00084076147 -6.363739e-05
0.0007743412 0.00020667566 -0.00039643404 -0.0016652691 0.00095945835 0.0004894171 -0.0009589391 -0.00087969226
-0.0006447504 0.0008494167 3.199899e-05 0.0005964738 0.0002882585 0.0002350991 -0.00014809635 0.00029481287
-0.0002637157 0.00033067583 7.08672e-05 0.0008771381 -0.00046474228 -0.00022338443 -0.0001861294 -8.293135e-05
0.00028366613 7.2037e-05 0.00051537383 -0.0003579841 0.0004306655 0.00023698214 -0.00017435392 -0.0002250429
-0.0005283453 -0.0003162786 0.00028472202 4.870488e-05 0.00029481825 0.00013605591 -0.00037054447 -0.00059059804
0.00028850744 0.0002304826 0.0001001613 -0.00034383178 -0.00013485733 -0.00029955216 -0.00029304496 -0.00020455083
0.0002886993 -4.579929e-05 0.00033297474 -4.7152796e-05 -0.0002762798 -0.0008030794 0.00038206356 0.00019660176
-0.00038355455 -0.00034830216 -0.00017193913 0.0004300779 9.007445e-05 0.00019805574 0.0008777233 0.0005823908
-0.00033023732 0.00053323037 -0.00066860067 0.0006705899 0.00018876059 0.001945582 -0.001378356 -0.00075626886
-0.000423173 -0.00030687416 0.0005146331 0.00037629955 0.0006612725 -0.00064708875 0.00095625734 0.0005005916
0.0002676993 -0.0005449009 -0.0009753636 -0.00086110854 0.00022562043 0.00018944577 0.0007472974 0.00035999113
-0.0010189606 -0.0013574128 0.0005101088 0.0004551884 0.00019993218 -0.00083353865 -0.00027068984 -0.0007161988
-0.0006527213 -0.00053477235 0.0004247908 -0.00018012439 0.00080736115 -0.0007663461 -0.0010398531 -0.00199521
0.000785555 0.00037886508 -0.0008454534 -0.0007019849 1.8415978e-05 0.0013875674 0.0005533511 0.00030230085
0.00029322653 0.00019301366 -0.00015693113 0.00018562704 -0.00021707805 0.00021906082 3.608423e-05 0.00060889707
-0.00040733916 -0.00021940291 -8.1846316e-05 -0.000119048214 0.00019947258 0.00012805377 0.00031050429 -0.00024895073
0.00032146336 0.00017314074 1.21083585e-05 -0.000200163 -0.00037609012 -0.00026688862 0.000102879036 8.021646e-05
0.00024891025 0.000139237 -0.00030164944 -0.00046570634 0.0001364747 0.00017968308 0.00010693118 -0.00028952962
-0.000111420646 -0.0002484481 -0.00022992735 -0.00020584051 0.00013492627 -6.886613e-05 0.0002645505 -0.0001613089
-0.00030496434 -0.0005837289 0.00028122895 0.00016256879 -0.00027332452 -0.00025624505 1.43375355e-05 0.00037846543
0.00014609602 6.936673e-05 -0.00022445827 -3.8087524e-05 0.00011278475 9.401535e-05 4.5620094e-05 7.8530335e-05
