model/model.ckpt-22000.pt (torch, 107175 bytes, 30 tensors)

linears.0.weight f4 [50, 2]
000000 53 fe 17 be 6d bd ee 3e 10 76 ee 3d 32 61 4b 3e
       -0.1484311 0.46628895 0.116436124 0.19861296
000010 5f 5c a3 3e 6f f0 93 be d3 83 5f 3e f6 a9 1a 3e
       0.3190641 -0.28894374 0.2182763 0.15103897
000020 44 e5 21 be 15 97 66 be da 68 9e 3e 23 a7 35 3e
       -0.15810114 -0.2251857 0.3093937 0.17739539
000030 84 34 63 3e 87 ad 9b bd 9f 87 98 be c6 62 90 3f
       0.22188002 -0.07601457 -0.2979097 1.1280143
000040 1c fa 9e be d5 74 f4 be 1d 12 6b be 8e c2 62 be
       -0.31050193 -0.47745386 -0.22956128 -0.22144529
000050 86 f7 14 bf 13 03 b2 3d d0 2a 27 3e e8 4d 5c be
       -0.5819019 0.086919926 0.16324925 -0.21514094
000060 1e f2 b4 3c 4c 8a 66 3e c9 ea 01 be b3 ab 61 3e
       0.022088107 0.22513694 -0.1268722 0.22038154
000070 8d 4b 93 3c ab 27 c6 3e 5b 29 a0 bd 1c 59 8e be
       0.017980361 0.3870214 -0.07820388 -0.2780236
000080 b9 3b 93 3e 56 ae a0 3e 12 7f f0 3d 17 d2 26 3e
       0.28756502 0.31383008 0.11742987 0.1629108
000090 46 9c 0d 3e 0e 67 39 3c 43 01 5e 3d 9d 0e 8a be
       0.13829145 0.011316074 0.054200422 -0.26964274
0000a0 be b9 ee bd 2a 3e d4 be d0 83 7e be a5 3d 89 be
       -0.11656521 -0.41453677 -0.2485497 -0.26804844
0000b0 81 51 59 3e 3d 2e 59 3d ee 15 1b be 04 ab 20 3e
       0.21222498 0.053022612 -0.15145084 0.15690237
0000c0 a3 15 eb 3d b8 f8 8e 3e bf da e4 bd 63 18 5b 3e
       0.11478736 0.27924132 -0.11174535 0.21396022
0000d0 de 61 d5 be 29 bc 82 be 10 de 32 bd e7 2d 1b bf
       -0.4167623 -0.2553418 -0.043668807 -0.60616916
0000e0 31 be 07 3f 11 fd 43 3b 6d 95 38 bd 7b 00 6d 3e
       0.53024584 0.0029905478 -0.04506438 0.23144715
0000f0 9c a8 7e be d3 dc 53 3e d3 5a 1a bd 57 be b6 be
       -0.24869007 0.20689707 -0.037684273 -0.35692093
000100 84 57 99 3d bf 5c 20 be d4 d8 81 bd 47 cc 95 be
       0.074873954 -0.1566038 -0.06340185 -0.29257414
000110 1b b0 a9 bd 7f 6f 83 be 08 d7 41 3e 93 0c a6 be
       -0.082855426 -0.25671002 0.18929684 -0.32431468
000120 a9 22 c1 3e b1 25 31 3d 77 9e af 3d 35 da f9 bd
       0.37721756 0.043248836 0.08575147 -0.12199823
000130 48 c3 50 3e 54 b7 84 3e d7 99 c9 be da 7d 1b be
       0.20386994 0.25921118 -0.39375183 -0.15184727
000140 c1 f5 54 bd ce 71 ea be ab 13 60 3d d3 28 8b bf
       -0.05199218 -0.4578995 0.054706257 -1.0871834
000150 63 bd 17 3e f1 8f 98 3e a3 c5 0f be 47 bc 79 3e
       0.14818339 0.2979732 -0.14040236 0.24388228
000160 e1 33 b0 be 19 0c 64 be 40 06 c2 bd 2b e8 8d be
       -0.3441458 -0.2227024 -0.09473848 -0.27716193
000170 43 1b d0 be 5c 12 3c 3e 19 7c 14 3f 8a 8d b3 3e
       -0.406458 0.18366379 0.5800186 0.35068923
000180 c5 a6 0d 3e 3d 97 2e 3e 8d 10 e3 3e a0 ae 80 bd
       0.13833149 0.1704988 0.44348565 -0.06283307

linears.0.bias f4 [50]
000000 7c e2 37 3d 50 6b b6 3c 28 2b 17 3e d1 37 68 bd
       0.044893727 0.022267967 0.14762557 -0.056693856
000010 17 4f 42 bd 67 7f c0 bb 60 17 d9 3d b3 10 71 be
       -0.047438707 -0.0058745625 0.106001616 -0.23541526
000020 c2 68 83 be 82 88 38 be 85 4d 21 be 5c 74 a0 3b
       -0.2566586 -0.18020824 -0.15752228 0.0048966836
000030 fb 66 e8 bd 09 d8 89 3d 04 e5 d6 be d3 86 0e 3e
       -0.11347767 0.067306586 -0.419716 0.13918619
000040 d9 22 e6 3a 43 ec d5 bc 10 b2 ef 3e c1 a9 0f 3d
       0.0017557993 -0.026113635 0.46815538 0.035074
000050 f2 c6 64 3e f0 15 ee bd 2c 84 62 be 5d 3e 93 bc
       0.22341517 -0.11625278 -0.22120732 -0.017974073
000060 4a ee 09 3d 0e 1e ff bc 42 1c 3f be 87 bb 68 3d
       0.033674516 -0.03114226 -0.18663123 0.056819465
000070 bf 1a 07 3d e0 69 c2 bd 64 5c f4 bd 11 53 f0 3b
       0.03298449 -0.0949285 -0.119316846 0.007334121
000080 ac f3 76 3d af de db 3b c4 a7 ef 3c b1 9e 61 3d
       0.060290977 0.0067098956 0.029254802 0.05508298
000090 64 0b 85 bd 6d 0d 54 bb ee 38 63 3d 29 1b 04 bf
       -0.06496313 -0.0032356635 0.055474214 -0.51603943
0000a0 17 fe 75 be 19 c1 c7 bc dd 27 90 bd b7 05 f4 bd
       -0.24022709 -0.024384068 -0.07038853 -0.119151525
0000b0 65 74 05 bd 39 6c a2 3d b7 36 ff 3d 2a aa c7 3e
       -0.032581706 0.07930798 0.12461608 0.38997012
0000c0 58 d7 71 3e b4 91 ba 3c
       0.23617303 0.022774555

linears.1.weight f4 [50, 50]
000000 d1 09 5a 3e 33 24 e1 bc 04 43 82 3d e8 7b e3 bd
       0.21292807 -0.027483081 0.063604385 -0.111076176
000010 a6 91 61 3d e4 34 bd bc 87 29 1a be 89 11 cd 3d
       0.05507054 -0.02309651 -0.15054904 0.1001311
000020 a8 79 2c bd 24 d6 19 3d b0 a4 af bd ef 6f 50 3e
       -0.042108208 0.037557736 -0.085763335 0.203552
000030 a5 0d 06 3e 2b fa ab bd 09 15 e4 bd df 35 cd 3c
       0.13091142 -0.08397325 -0.11136825 0.025050102
000040 1d 04 87 be e3 94 19 3c c8 ef fd 3d ca 81 21 3e
       -0.26370326 0.009373876 0.1239925 0.15772167
000050 4f bf 6d 3e 16 ec 6f 3e d2 74 98 be 0e 0f 21 3c
       0.2321751 0.23429903 -0.29776627 0.0098302495
000060 90 fd 21 be 11 f6 74 bc 83 55 92 3e 70 aa 57 bd
       -0.15819383 -0.014951245 0.28580865 -0.052652776
000070 d0 77 80 3e cc 32 ab be 87 90 4d be ce 45 9d 3e
       0.2509141 -0.33437192 -0.20074664 0.3071732
000080 41 4b ba 3c 2e 6d 71 3d 1e 68 4a 3d 5f e8 f4 bb
       0.022740962 0.058942012 0.0494157 -0.00747399
000090 8f d7 39 3e 5f 04 58 3e d5 b4 0d 3b 5b 68 42 bd
       0.18148635 0.21095417 0.0021622677 -0.047462802
0000a0 db 21 71 be fd fa 7b be 26 59 8c be 9d e1 bf be
       -0.23548071 -0.24607463 -0.27411765 -0.37476817
0000b0 14 a1 ce 3d 09 b1 44 3d e3 ec 26 3e 1d 40 aa bd
       0.10089317 0.048020396 0.16301303 -0.0831301
0000c0 3a 4e 39 3d 88 4a 98 3d bf b0 01 bb 4e ea a5 3e
       0.04524062 0.07436091 -0.0019789187 0.32405323
0000d0 9e d0 1e 3e 43 68 23 be 8d 3a 97 be 37 fe ea bd
       0.15509269 -0.15957741 -0.29536858 -0.11474269
0000e0 a2 47 01 bd 3b 23 0f bf d2 f5 02 3c 05 d4 92 be
       -0.031562455 -0.5591313 0.007993178 -0.28677383
0000f0 65 d9 80 3d d4 9e 90 bd 1c 4b 15 3d 7a 22 cc bc
       0.06291465 -0.07061544 0.036448583 -0.024918783
000100 7c e1 9f bd 2e 52 01 be b8 d7 c6 3d 9b b0 02 3e
       -0.078066796 -0.12629005 0.09709114 0.12762682
000110 3c 7d db 3e 17 42 36 bd 17 ba 0f 3e 15 e7 34 be
       0.42868984 -0.044496622 0.14035831 -0.17666276
000120 23 19 96 bd bb 8f 9d 3e 9e f5 8d 3e 35 cb b6 3e
       -0.07329013 0.3077372 0.27726454 0.3570191
000130 a9 01 8d bd 49 c1 52 be b6 37 fe 3d 53 f7 cb 3a
       -0.06885082 -0.20581545 0.1241297 0.0015561379
000140 7a cc 52 3e 73 4a e4 be 29 52 47 bd 09 c6 b4 bd
       0.20585814 -0.4458805 -0.04866234 -0.08826835
000150 ad a5 0b bc 52 e0 d6 3d b6 d7 d7 bd 06 83 ac 3d
       -0.008523387 0.104920045 -0.105391905 0.08423428
000160 c9 e4 a8 3e 02 b7 a6 be 68 2f 68 3e 90 39 2a 3d
       0.3298705 -0.325615 0.22674334 0.041558802
000170 e9 fa 82 3e ac 94 05 be 4b 4b a6 be f1 da 40 be
       0.25582054 -0.13044995 -0.3247932 -0.1883352
000180 04 46 46 bd 9b 75 86 be f0 93 43 bc 5c 7c 85 3c
       -0.048406616 -0.262616 -0.0119371265 0.01629465
000190 79 40 01 3e 33 5b 59 3e e9 0e 68 be 2e 69 f4 3d
       0.1262225 0.21226196 -0.22661938 0.11934124
0001a0 81 4a a0 bd 10 6e cc 3e a3 c4 85 3d 96 bb d1 bd
       -0.078267105 0.3992772 0.06531646 -0.10240857
0001b0 f6 dd e1 3d 63 a6 22 3e 53 72 b5 bd 88 8d 65 3d
       0.11028664 0.15883784 -0.08859696 0.056043178
0001c0 7c f8 96 3d 7a 0d 91 3d be 98 bb 3d 24 67 a2 be
       0.073716134 0.070826486 0.09159993 -0.31719315
0001d0 68 ca 5f 3e d0 45 87 bd 0f da eb be 4b a8 47 be
       0.21854556 -0.066051126 -0.46064803 -0.19497792
0001e0 c6 07 9d bd 6d 08 ab 3d 16 44 6b 3d 23 4c d6 3a
       -0.07667498 0.083512165 0.05743798 0.0016349595
0001f0 cb 5a 58 3e a4 03 b2 bd 16 6c 3f 3d 59 a4 26 3d
       0.21128385 -0.08692101 0.04673394 0.040684078
000200 6d b7 4a 3e 89 cc c6 bc e2 fd 27 3e a3 88 ab bb
       0.19796534 -0.024267452 0.16405442 -0.005234794
000210 32 dc ef 3c d1 d2 01 3e 4a 71 28 be 33 24 04 3d
       0.029279802 0.12678076 -0.16449466 0.032261085
000220 09 66 cd ba 3c 03 e1 bc 01 53 78 bd 1e da 3a 3d
       -0.0015670668 -0.027467363 -0.060626034 0.04561817
000230 35 62 63 be e5 e3 3d 3e 03 02 b8 3e ab 47 08 3e
       -0.22205432 0.18543966 0.35939035 0.13308589
000240 69 85 ca bd 82 43 21 bd 74 ed 62 3d 68 e1 3c bd
       -0.09888727 -0.03937102 0.055402234 -0.0461134
000250 a9 85 0e 3c b1 ca 0d b8 8b 95 16 3e 7e f2 db 3d
       0.008698859 -3.380579e-05 0.14705484 0.10739611
000260 d8 4a 40 3d cd 90 b4 bd 4e 6a 5a bd 94 0b 26 3e
       0.046946377 -0.08816681 -0.053324036 0.16215354
000270 3f 96 c0 bd 83 b0 a6 be ff 32 5e bd 55 bd 4b be
       -0.09403657 -0.32556543 -0.054247852 -0.19896443
000280 51 97 18 3c 51 e6 98 bb e4 07 45 3e f6 12 48 be
       0.00931342 -0.0046661277 0.19241291 -0.19538483
000290 c8 c6 ad 3e 65 19 95 be a8 a8 19 3e c8 16 0b bd
       0.3394072 -0.29120937 0.15005744 -0.033957273
0002a0 78 07 bf bd c0 25 a4 be 53 f3 03 be 80 ee 06 be
       -0.093275964 -0.3206005 -0.1288579 -0.13176918
0002b0 28 9c 43 bd 84 40 09 3e 85 51 69 3e 4d 06 0d 3e
       -0.047756344 0.13403517 0.22785003 0.13771935
0002c0 72 0a 68 be ae ba a1 bd d3 89 ac bd 67 09 3d 3d
       -0.22660235 -0.078969344 -0.084247254 0.046151545
0002d0 09 35 79 be 93 21 a5 bd 62 53 92 bd 66 89 c7 bd
       -0.24336638 -0.080630444 -0.0714481 -0.097430035
0002e0 14 f1 df bb c2 29 97 be aa 05 11 3e 9e 8f 56 bd
       -0.0068341587 -0.29524046 0.14162317 -0.052383058
0002f0 07 40 31 3e 06 5b b4 bd 5a da a4 3c 7e 44 b7 3e
       0.1730958 -0.08806424 0.02012365 0.35794443
000300 f4 93 15 3b c4 06 90 bc 43 fc 47 3e 5c 86 58 3d
       0.0022823783 -0.017581351 0.19529824 0.05286251
000310 49 81 8d bd 77 b3 61 3d 2e 57 81 3e e1 e3 b4 3d
       -0.06909425 0.05510279 0.25261825 0.08832527
000320 60 7b a1 bd 20 c3 dd 3d 65 ba 84 3c fe 87 e1 bd
       -0.0788486 0.10828233 0.016202161 -0.110122666
000330 9b 6e a9 bd 35 e7 89 bd 9e 78 58 bd 0a f1 de be
       -0.082730494 -0.06733552 -0.052849405 -0.43543273
000340 4b 78 47 3d 0a f1 e1 3d 09 3f 0a bd 94 87 09 be
       0.048698705 0.11032303 -0.03375152 -0.13430625
000350 d6 a0 77 be a2 5e d4 3d 28 3d 27 be db f6 ec 3d
       -0.24182448 0.10369612 -0.16331923 0.115705214
000360 94 74 73 3c 1f 98 ca 3d 65 02 17 3e 93 3e df 3d
       0.014859337 0.09892296 0.14747007 0.10900607
000370 db ce 50 3e ca 9f 81 3d 56 76 a9 bd f4 bb 88 3e
       0.20391409 0.063293055 -0.08274524 0.26705897
000380 14 58 ce be 98 d5 dc bd bb 3a 08 3e 42 7e 8c 3e
       -0.40301573 -0.10782927 0.13303654 0.27440077
000390 e9 39 c0 3d 7d 72 a5 bc 77 ee a9 bb 8c 4c 95 3e
       0.093860455 -0.020196194 -0.005185898 0.29159963
0003a0 5e 4b 02 3f 5d 9b 4c 3d 10 e0 0b 3e ab 10 e4 3d
       0.5089625 0.049952853 0.13659692 0.11135992
0003b0 d6 0d 38 be 24 77 9e 3d 95 52 b3 be 62 ca 02 3d
       -0.17974028 0.07737568 -0.35023943 0.03193129
0003c0 53 5d 47 3e 16 bc 33 3d 1c 42 a1 be 77 2d 98 be
       0.19469194 0.043880545 -0.3149575 -0.29722187
0003d0 e9 67 97 3e ab a6 1f 3e 45 4b 01 bd 27 91 ed bd
       0.29571465 0.15590923 -0.031565923 -0.11599951
0003e0 3a c2 2a bd 65 b1 0a be 9a d9 ba bd f4 9b a7 3d
       -0.041689135 -0.13544233 -0.091235355 0.081840426
0003f0 35 a8 86 3e ba 9b a3 3d 60 7b d6 bd a8 1e e7 bd
       0.26300207 0.07988687 -0.10472751 -0.11285144

linears.1.bias f4 [50]
000000 e1 5c b1 3c 9c 44 23 3d 4c 65 2f bd 45 61 da 3a
       0.021650733 0.039860353 -0.042821214 0.0016661069
000010 80 d0 2e 3d 8f 59 f6 bc ae 63 e3 3d bf 14 e7 3d
       0.04267931 -0.030072002 0.11102997 0.11283254
000020 a5 7e dc bc 1d 64 6e bc 40 c9 9a 3d af 13 42 bc
       -0.026915858 -0.014550236 0.07557917 -0.011845513
000030 73 d5 90 3b 5e 8b 4a bd ae c3 21 be 8e f9 9b bd
       0.0044199764 -0.049449317 -0.15797302 -0.07615958
000040 32 c2 33 bd c5 8c a1 3d e2 75 61 3d 26 e5 c6 3c
       -0.04388637 0.07888178 0.055044062 0.024279188
000050 ac 13 9c 3c 38 f8 4e bc 8f 42 54 3d 76 cf ba 3c
       0.019052349 -0.012632422 0.051821288 0.022804003
000060 58 5d 03 39 b1 e4 c9 3c b3 96 38 bd f7 6a d3 bc
       0.00012527907 0.024645181 -0.045065593 -0.02580784
000070 1f 7a 23 bd 36 b0 90 3d 12 5a 4f 3d e9 22 a8 3d
       -0.039911386 0.070648596 0.050623007 0.082097836
000080 ce a1 83 3d eb 6d ac 3c 23 1a df bd 16 d3 91 bc
       0.06427346 0.021048507 -0.10893657 -0.017800849
000090 e9 90 55 be 70 42 41 bd ac 02 09 be 9c b0 04 3d
       -0.2085606 -0.0471825 -0.13379925 0.03239499
0000a0 4d 7f c9 be c9 15 e2 3d c3 e7 da 3d 2e 74 c8 bc
       -0.39354935 0.110393114 0.10688736 -0.024469461
0000b0 48 bd cd 3b 7e 38 10 3d 84 89 83 3d 5e b3 0d bc
       0.0062786676 0.035210125 0.064227134 -0.0086487215
0000c0 0c db 7d 3d c6 59 fc 3d
       0.061976478 0.123218104

linears.2.weight f4 [50, 50]
000000 00 0e 37 bf de 53 78 3e cd 91 63 3e 1c 90 06 3f
       -0.7150574 0.24250743 0.22223587 0.52563643
000010 b2 5f 73 bc 5e 41 9d 3d 77 5a b3 bd ed 09 5e bd
       -0.0148543585 0.076784834 -0.08757489 -0.054208685
000020 06 a6 2c bf 9d e3 db 3c b8 ca 91 3e f3 81 27 3e
       -0.6744083 0.026841933 0.28474975 0.16358165
000030 6f b6 4a 3d 0d 9f 92 3d 24 36 fe 3d 4d 08 0f 3e
       0.04949039 0.07159243 0.1241267 0.1396801
000040 41 2e 99 be 8f 81 9d bd 92 93 6e 3d cc e9 ed 3c
       -0.299181 -0.07690727 0.058246203 0.029042147
000050 c3 1d de 3e f9 b4 54 be b6 94 c3 bd ef 43 16 37
       0.4338208 -0.2077216 -0.09549849 8.956514e-06
000060 23 b7 cf be 70 98 d2 3c 7f 4a 0b 3d 42 3d 22 be
       -0.4056941 0.025707453 0.034006592 -0.1584368
000070 df dc fe be 86 0c 6f bd 2a c9 17 3e c2 47 56 3e
       -0.49777886 -0.058361553 0.14822832 0.20925811
000080 b9 b5 17 be c2 3b 86 3e 0c 65 50 bd e9 5a 2d 3f
       -0.14815415 0.26217467 -0.050877616 0.6771684
000090 8c 8c bf be 4e 70 4a bd 2d 8c 56 3f 1b 4e 80 3d
       -0.37411916 -0.04942351 0.8380764 0.062648974
0000a0 92 64 cf bd 68 40 4c be e1 c0 a9 be b9 98 31 be
       -0.10126604 -0.19946444 -0.33154967 -0.17343415
0000b0 91 f0 fb bd 0d 47 e4 bd be 18 0f be cf 08 32 be
       -0.12301744 -0.11146364 -0.13974282 -0.17386173
0000c0 b5 74 c9 3e 61 4c e8 3b ae ea ec bb 10 c1 c2 bd
       0.39346853 0.007089183 -0.0072301244 -0.0950948
0000d0 2f 04 c1 3c 5f c7 f7 b8 18 6c 01 be 0c 92 99 3e
       0.023561565 -0.000118150136 -0.1263889 0.29994237
0000e0 71 6e 53 3d 69 c5 f0 bd ee a4 be bc d5 fe 2f 3e
       0.051618997 -0.11756403 -0.023272004 0.17187054
0000f0 33 96 1c be 8a db 87 bd 53 20 1f bf 42 5c 42 3e
       -0.15291671 -0.06633671 -0.621587 0.18980506
000100 8e a7 81 3d 6c 50 c0 3a d0 04 bd bc 85 c2 4e 3d
       0.06330787 0.0014672405 -0.023073584 0.050478477
000110 9e 85 d9 3d 98 9b e0 3d eb d9 45 bb cc a7 fb bd
       0.106211886 0.10967177 -0.0030189704 -0.12287864
000120 e3 6e 28 3e e3 80 05 3e 24 4b 2d 3e 1e 83 67 3d
       0.1644855 0.13037448 0.16923195 0.056521527
000130 bf 73 db bc ca c5 86 be d6 5a 31 be aa 86 04 3d
       -0.02678859 -0.26322776 -0.17319807 0.03235499
000140 09 23 86 be 43 60 a8 bd b2 60 05 be 44 0d de 3e
       -0.26198605 -0.082214855 -0.13025168 0.43369496
000150 6e c9 f0 bc b0 24 98 bd 51 30 35 3e f8 fb f7 3c
       -0.029392924 -0.074288726 0.17694212 0.030271515
000160 3e 80 8b 3e ed d1 ad 3d d6 41 72 3e 49 b9 d9 3d
       0.2724628 0.08487306 0.23657927 0.106310435
000170 19 41 aa be d9 88 af bd 00 40 dd bc 74 b7 05 bd
       -0.3325279 -0.085710235 -0.027008057 -0.032645658
000180 c6 b7 62 3e 7c a8 ee 3c ec a6 2f 3e a6 55 72 3d
       0.22140417 0.029133074 0.1715352 0.059163712
000190 46 cf 67 ba 01 73 49 3d c8 86 dc 3c d0 20 45 be
       -0.0008842837 0.049181942 0.026919737 -0.19250798
0001a0 7c 39 9e 3d f5 e5 46 3d 84 cf 7e be f7 a9 19 3e
       0.07725808 0.048559148 -0.24883848 0.15006243
0001b0 e2 ab 88 be 53 ca 87 be 4c 8b 1f 3d db 51 59 be
       -0.26693636 -0.2652155 0.038951203 -0.21222632
0001c0 e0 ba 1c be c3 ac 65 bd df e0 25 3e 35 5f 1b 3e
       -0.15305662 -0.05607296 0.16199063 0.15173037
0001d0 ec 11 0e bd 35 ad 80 3c 23 0f 3a 3e 26 ba 36 3e
       -0.03468506 0.015707592 0.18169837 0.17844447
0001e0 7d a4 53 bc c8 da e9 bd 8e 7d 0c 3d 3a 80 b2 bd
       -0.012917635 -0.11418682 0.034299426 -0.087158635
0001f0 10 95 a9 3e 56 d0 cd bd 05 05 fa bd 75 01 b8 bd
       0.33121538 -0.100495026 -0.12207989 -0.08984653
000200 23 d5 de bc 9c 26 fb bc f6 a3 04 be 63 42 b7 39
       -0.02720124 -0.030658059 -0.12953171 0.00034953942
000210 ed b3 e2 bd 6d f9 4c be 66 05 a8 3e 8f 67 1b 3f
       -0.11069474 -0.20017023 0.3281662 0.6070489
000220 42 5d 53 3d 7e 49 6c 3e 8d 75 8e 3e f0 c8 19 be
       0.05160261 0.2307491 0.2782406 -0.15018058
000230 fb 84 bf 3d 1a 95 b3 bd f2 e2 0a be b9 6c 46 3d
       0.09351536 -0.08768673 -0.13563135 0.04844353
000240 47 33 7f 3e eb 8c a7 3c e0 dc 22 3e a1 cc 08 3e
       0.24921905 0.020452937 0.1590457 0.1335931
000250 6b 4c 70 bd b2 c7 0b bf ef 7d 96 3e 00 d0 09 bd
       -0.058666628 -0.54601586 0.29392955 -0.03364563
000260 5b 98 e3 bd 2b cd d2 bb cd 06 0e be 06 1e 05 be
       -0.11113044 -0.0064331493 -0.13869782 -0.12999734
000270 b9 7e 6f 3d 6f 50 1a 3a f4 3b af 3d 55 65 a0 3d
       0.05847046 0.00058866193 0.08556357 0.078318276
000280 63 9b 0f 3e 38 6d ef 3d 2d dd f5 bd 1e a1 05 be
       0.14024119 0.11690754 -0.120050766 -0.13049743
000290 eb 60 58 bd 44 ac 45 be d1 24 55 bd cb c1 13 3e
       -0.052826803 -0.19303995 -0.052037064 0.14429395
0002a0 75 78 7e 3d a3 a2 41 3d 87 65 35 3e 9b 74 aa 3d
       0.062126596 0.047274243 0.17714511 0.08323022
0002b0 cc 35 08 3e 83 5d 8d 3c 6c c1 92 bd 27 b1 cd 3d
       0.13301772 0.017256504 -0.071657985 0.10043555
0002c0 31 62 8d be 9e a1 cb 3c c4 a4 80 3d 2c d9 9d 3d
       -0.27613977 0.024857339 0.062814265 0.07707438
0002d0 59 20 8b be 5d c3 d4 3d a7 90 05 be 05 c7 56 3b
       -0.27173117 0.10388825 -0.13043462 0.0032772433
0002e0 bc eb 2b 3e e7 18 3a bc 87 25 7c 3d 0d 85 67 bd
       0.16789144 -0.011358476 0.061559226 -0.05652337
0002f0 bd 0b 83 3e cd fb 8c be d0 e6 ee 3d 15 45 1b bd
       0.25594893 -0.2753586 0.11665118 -0.03790768
000300 38 79 7c 3e d3 83 24 bd cb 29 80 bd fb 66 ec 3b
       0.24655616 -0.04016478 -0.062579714 0.0072144247
000310 b0 c4 e3 3d cd af 74 3e 58 42 78 be 76 0d dd 3d
       0.111214995 0.23895188 -0.24244058 0.10793583
000320 b2 24 8e 3c a1 40 37 bd 52 07 66 bd 83 1f a2 be
       0.017351482 -0.04473937 -0.056159325 -0.31664667
000330 ab 8f 93 bd 54 37 5c bd 24 bf 60 3d f9 1c 34 be
       -0.07205137 -0.053763703 0.054869786 -0.17589177
000340 68 a5 18 3e 8b bd 1f be 00 b0 b6 ba 1a 1a 04 3e
       0.14906847 -0.15599649 -0.001393795 0.12900582
000350 c9 18 4d 3e d6 42 17 be 25 e3 65 3e c3 b0 7a 3b
       0.20028986 -0.1477159 0.2244993 0.003825233
000360 ca f6 86 3d 96 4d 1e bd e4 79 8b be 3e b7 b5 bd
       0.0659004 -0.03864821 -0.27241433 -0.08872841
000370 84 d3 9f bd 68 9e 2d bd 48 8d 65 3c c8 2c 35 bd
       -0.07804015 -0.042387396 0.014010735 -0.04423216
000380 8e 28 f2 bd 77 94 1e be e4 77 76 be 0c 4f 69 3d
       -0.118241414 -0.15486322 -0.24069172 0.05696015
000390 af 10 ab bd 1d 0a a5 3d dc 9e 8d be 6f 17 49 be
       -0.083527915 0.080585696 -0.27660263 -0.19637845
0003a0 2a e9 0a 3e 4a be 89 bd 9f f9 bd 3d 73 83 90 be
       0.13565508 -0.06725748 0.09276127 -0.28225288
0003b0 bf f8 89 3d e3 9d 8c 3d da 16 b1 be e4 f0 4a 3e
       0.06736898 0.06866052 -0.34587747 0.19818455
0003c0 b8 26 3d be 98 63 fb 3d 5a 3c bd 3c 2e ce 00 3e
       -0.18471801 0.122748554 0.023100067 0.12578651
0003d0 fd 71 7e bc 87 6e 05 bd f7 4e f3 3b a4 07 49 3e
       -0.015530107 -0.03257611 0.007425185 0.19631821
0003e0 c0 23 80 be 0e 2e 85 bd c3 fc 1e be 0c 10 c8 3e
       -0.25027275 -0.06502925 -0.15526108 0.39074743
0003f0 c0 9a a3 3d 61 28 80 3e 3d 9e 67 3d 02 95 65 3e
       0.079885006 0.25030807 0.056547392 0.22420123

linears.2.bias f4 [50]
000000 b3 04 dc 3c 79 99 0c 3d b6 2a 8f 3c 6c 1c 07 3d
       0.02685771 0.03432605 0.01747642 0.03298609
000010 0b a6 8a bd 45 ca 69 3d e5 bb 76 3d 9b eb bb bd
       -0.067699514 0.057077665 0.060237784 -0.091757976
000020 fb 5b 66 bd 44 b3 14 3d 69 5a 43 bd 47 fd b2 bd
       -0.056240063 0.036303774 -0.047693644 -0.08739715
000030 df be 88 bd d7 92 1a 3d 92 bb 02 3d c6 62 59 bd
       -0.06677031 0.037737694 0.031917162 -0.053072713
000040 60 5b a9 bc e4 72 1e 3d 55 bf ec bc 6e 93 43 3d
       -0.020673454 0.038683787 -0.028899828 0.04774802
000050 84 88 64 3d b7 6d cc ba 72 59 bd bd 8e e1 e4 3b
       0.055794254 -0.0015596662 -0.09245576 0.006984896
000060 27 91 ac 3e b2 c7 c2 3d 14 92 60 3d a7 b4 f7 bc
       0.33704492 0.09510745 0.05482681 -0.030237509
000070 6d 7b 95 3d 9a 5b 31 3e 4a 93 6e bd a1 a6 8c bc
       0.07298932 0.173201 -0.058245935 -0.017169299
000080 63 27 e2 bb 6c b9 c2 3d 18 d6 99 bd b0 a3 4c bd
       -0.006901668 0.09508023 -0.07511538 -0.049960792
000090 00 2b 06 3c 7b f4 5e bd 51 60 66 bb 1e fa b9 bd
       0.008188963 -0.054432373 -0.0035152624 -0.09080909
0000a0 af 18 d7 3c 82 8e 64 3d 39 d9 df bd da d0 41 bd
       0.026256887 0.05579997 -0.10930104 -0.047318317
0000b0 82 45 50 bd 78 da 7e 3d 08 6a 80 3d e3 6e cd bd
       -0.050847538 0.062220067 0.06270224 -0.100309156
0000c0 54 97 45 3d d1 ee 13 bc
       0.04824002 -0.009029106

linears.3.weight f4 [50, 50]
000000 1b 25 84 3d 29 1a 87 3e 31 ee a4 be 7f 72 60 be
       0.0645239 0.26387146 -0.32212976 -0.21918677
000010 25 e1 c1 bd af 2a c1 bd 1b c3 c1 bb 6d 22 04 3e
       -0.09466771 -0.094319694 -0.005913151 0.12903757
000020 77 dd 7e 3d df a1 a9 be 2e 11 1d 3d 5d 31 01 3e
       0.062222924 -0.3313131 0.038346462 0.12616487
000030 94 81 11 be 7e 92 b1 3c 58 a9 15 3e 56 46 3c 3e
       -0.14209586 0.021676298 0.14615381 0.18386206
000040 4b f7 de 3d 01 21 82 3d 38 da 4e be c8 00 5d bd
       0.10887011 0.06353951 -0.20200431 -0.053955823
000050 c2 e8 31 3d 6d df 78 3e 2c ce 03 be f9 b8 2b be
       0.043434866 0.2430398 -0.12871617 -0.1676978
000060 f6 01 0a bd 37 ee 92 bd f3 ea c6 3c 9b a8 c5 bc
       -0.033693276 -0.07174342 0.024281954 -0.024128249
000070 a0 ae 48 be b8 9d 39 be fd 13 d7 3d 25 b3 d7 3d
       -0.19597864 -0.18126571 0.10501859 0.10532216
000080 ce 39 8c be ce 05 15 be 3b 05 7d 3e eb 18 e1 3d
       -0.2738785 -0.14552996 0.24709027 0.10991081
000090 d7 bb cb bc 9d b2 10 3e 1a 66 af 3e 3b cd 1e 3e
       -0.024869842 0.14130636 0.34257585 0.15507977
0000a0 1c 2c e0 bd 96 9f d8 3c 6d 82 f1 bc 09 2a 48 3e
       -0.10945913 0.026443284 -0.029481137 0.19547285
0000b0 4b 90 a7 bd 00 58 0b be 5c e5 3a 3e 28 e5 12 3d
       -0.081818186 -0.13607788 0.18251556 0.03586307
0000c0 38 83 cf bd d7 3d 7f 3e a3 1d 23 3f fd c5 29 3e
       -0.1013245 0.24925934 0.637171 0.16579433
0000d0 ee 03 87 3e 31 23 53 be 76 97 d4 bd 7a 47 76 3e
       0.26370186 -0.20618893 -0.103804514 0.24050704
0000e0 8b 9e c6 3d ef 88 e2 3d bc c7 2f 3d 1b 9e 94 bd
       0.096982084 0.11061274 0.04291509 -0.07256719
0000f0 be 53 51 be 1e b7 53 bc c9 4f 07 3e 26 21 0d 3e
       -0.20442101 -0.0129220765 0.1321403 0.13782176
000100 9e 72 cf bc 58 aa 97 3e b5 00 c0 bc 41 33 ec bc
       -0.025323208 0.2962215 -0.023437837 -0.028833034
000110 3b 93 fe 3d f2 42 05 be e5 e6 e9 3d 81 93 a7 bd
       0.12430426 -0.13013819 0.11420993 -0.08182431
000120 02 82 f2 3d 81 53 bd be 2b 04 9c be 09 cc 57 be
       0.11841203 -0.3697777 -0.3047193 -0.21073927
000130 da 42 da bd c4 0f 1f be 28 d4 7e bd ab 05 9a bd
       -0.10657282 -0.15533358 -0.062214047 -0.07520612
000140 ab 2e 03 3e a1 3a f6 3d 07 0c 80 be 9d 7b 56 be
       0.12810771 0.12022901 -0.25009176 -0.20945592
000150 81 4c 40 3d 99 2c 97 be f1 c4 25 be b8 0e cf 3c
       0.04694796 -0.29526213 -0.16188408 0.025275573
000160 27 b2 be bd d5 81 f0 bd 39 4b 57 3e fc 20 a3 be
       -0.093113236 -0.117435135 0.21024789 -0.31861103
000170 60 97 08 3e bb 0d c8 3d f0 2b 98 be 36 e5 ea 3d
       0.13338995 0.09768244 -0.29721022 0.114695
000180 9b f4 ed bd 2c 17 88 3e ba 0c 27 3e d3 fb cf 3b
       -0.116189204 0.2658018 0.16313449 0.0063471585
000190 21 ba f1 be 3f d9 1c 3e 4a 73 80 3e c3 0d 27 be
       -0.47212318 0.15317248 0.2508796 -0.16313843
0001a0 ec 06 1f be b1 2b 6d 3e 37 d1 e4 3d d2 e8 6e bd
       -0.15529984 0.23161198 0.11172717 -0.058327504
0001b0 b8 93 dd 3d 3a 77 2c 3e dd c7 cb bd a4 43 50 bd
       0.10819191 0.16842356 -0.0995023 -0.050845757
0001c0 00 64 b5 bd 2d 66 18 be 34 7e c7 bc d6 5f 31 3e
       -0.08856964 -0.14882727 -0.02435217 0.17321715
0001d0 01 9d 2b bd bc 11 66 be af ac 64 be 2e b4 31 be
       -0.041897777 -0.22467703 -0.22331499 -0.1735389
0001e0 65 5b c3 bd 9c 8d c6 be ac 04 45 bd b5 07 b3 bd
       -0.095389165 -0.38779914 -0.04810016 -0.087417044
0001f0 4f 56 4c 39 20 b3 40 3c 38 1d 5d 3c d3 9d a0 bd
       0.00019487109 0.011761457 0.013495736 -0.078426026
000200 88 99 ee 3d 3a ad d4 3c 1f b1 75 3c 91 2b 1a be
       0.116503775 0.025961507 0.014995842 -0.15055682
000210 3f c5 b8 3d ed eb 2e be d7 58 7d bd ac 7e d1 bd
       0.09021997 -0.17082186 -0.061852302 -0.10229239
000220 dd c3 8f bc 0b 12 86 be db 13 7f bc d1 03 2e be
       -0.01754945 -0.2618564 -0.015568699 -0.16993643
000230 61 62 fc 3b 17 6f 25 be 06 e1 8d 3d ea b9 19 be
       0.0077021574 -0.16155659 0.069276854 -0.15012327
000240 c5 d0 6e 3d 82 76 0e 3d 3a 15 ce bd 93 3c bd bd
       0.058304567 0.034780987 -0.100626424 -0.09240069
000250 fa 1d 5f bd 1e 17 3d be 1f 37 2d 3e 35 c2 59 be
       -0.054471947 -0.1846585 0.16915558 -0.2126549
000260 d5 c3 5a bd 59 a6 9a 3d 29 a3 f3 bd 56 e8 ec 3d
       -0.053409416 0.075512595 -0.11896355 0.11567752
000270 7e 48 df 3c 5c 54 04 be 6e 0b 97 be 3a f0 c8 3e
       0.027256247 -0.12922806 -0.29500908 0.39245778
000280 50 e4 94 3c d2 f3 34 3d ae d1 7e 3d b4 50 57 3e
       0.018175274 0.044177838 0.062211685 0.2102688
000290 04 3a 36 3e 8c 08 08 3b db 74 0a be 97 f3 1f 3e
       0.17795569 0.0020757047 -0.1352114 0.15620266
0002a0 b4 97 2e 3e 5a e8 a0 3e 1d 28 a3 3e 02 70 e5 3e
       0.17050058 0.3142727 0.31866542 0.44812018
0002b0 ae 51 a8 3e b3 6b bb bd 6d 6e 12 3d 5a c0 f3 bd
       0.32874817 -0.09151401 0.03574984 -0.119019225
0002c0 64 2c a4 3e 58 7a 10 3c 91 d3 4b bc d3 0f b6 3d
       0.32065117 0.0088182315 -0.012440578 0.08889737
0002d0 64 77 09 3e 7e c0 d1 bd eb 13 62 be 8d bf 8a bd
       0.1342445 -0.10241793 -0.2207791 -0.06774817
0002e0 15 01 79 bd 8a d9 fa 3d a1 05 57 3e 77 8a 5f 3b
       -0.060792048 0.122485235 0.20998241 0.003410963
0002f0 5d 9d b4 bc de 5b d1 bd 70 f9 b5 bd ac c6 bd bd
       -0.022047693 -0.102226004 -0.08885467 -0.09266409
000300 75 2a e6 3d 0a 40 1d be 5e 01 d7 3d af de ba bc
       0.11238567 -0.1535646 0.10498308 -0.022811262
000310 55 75 21 bd f3 eb 76 be a2 90 e7 bd 45 a5 ee 3d
       -0.039418537 -0.24113445 -0.113068834 0.116526164
000320 d6 bb c8 3e ed 81 fb 3d a6 ad b1 3e 0c ef 19 3e
       0.39205807 0.12280641 0.34702796 0.15032595
000330 57 90 1a bf 9d cd 03 3e e6 a3 c0 3d 38 86 69 be
       -0.60376495 0.12871404 0.09406261 -0.22805107
000340 a3 f2 fd 3c 57 a4 7b 3d 2a 6b a1 be 13 8b 2d bd
       0.030999487 0.061436024 -0.31527072 -0.04236896
000350 14 70 80 be c5 d9 75 be c2 5e 26 bd b9 f1 02 3d
       -0.2508551 -0.24008854 -0.04061771 0.031968806
000360 e6 01 fb 3c 46 c9 00 3e f9 64 e3 3c 14 75 50 be
       0.030640554 0.1257678 0.027758108 -0.20357162
000370 78 c4 98 3e 23 4c 98 be f1 38 41 be 38 7f 39 be
       0.29837394 -0.29745588 -0.18869378 -0.18114936
000380 cf 9a f9 3d 6e 6d 32 be cc af 06 3d c5 44 9e be
       0.121877305 -0.17424557 0.032882497 -0.30911842
000390 4b d4 af be 2e be 6a 3e cb 1e c2 3e 4d e5 da 3d
       -0.34341654 0.2292411 0.37914118 0.10688267
0003a0 1f c6 e3 be 54 ce c9 be 6a ac cf 3d f4 d2 5f be
       -0.44487092 -0.39415228 0.10140307 -0.21857816
0003b0 a4 41 83 be 98 d9 9e bd cd 33 12 3e cf 99 7b be
       -0.25636017 -0.077563465 0.14277573 -0.24570392
0003c0 1e 47 17 be e5 f7 aa 3d 0c 6f ae bc 67 b3 13 be
       -0.14773223 0.083480634 -0.021293186 -0.14423905
0003d0 5d 33 c9 be 69 9b 85 3e 6e f6 ff bd 74 08 f8 bd
       -0.39297 0.2609513 -0.124981746 -0.12110987
0003e0 89 95 60 3e a5 45 16 bd 39 e0 2e 3e 20 b9 94 3e
       0.21932043 -0.036687512 0.17077722 0.2904749
0003f0 55 bd 07 3e c1 53 6d 3e 7b 04 00 3e c5 ba fc 3d
       0.13255818 0.23176481 0.12501709 0.12340311

linears.3.bias f4 [50]
000000 9f 91 15 be fc 35 26 bd 0e 6f 0f bd f7 18 76 3b
       -0.14606331 -0.040578827 -0.03501802 0.0037551501
000010 27 80 97 3d 38 17 71 bc 9d b0 82 3d 08 ae b7 3d
       0.0739749 -0.014715008 0.063813426 0.08968741
000020 5f 9d cb bb 79 86 76 bc 5f 63 0b bc a9 00 ad 3c
       -0.0062138285 -0.015046709 -0.008507579 0.021118479
000030 ed d1 33 bd 36 66 4d bd 97 6f 6b bd 7b ab 48 bd
       -0.043901373 -0.050146304 -0.057479467 -0.04899166
000040 92 64 60 3d d4 22 52 bc d7 35 51 bd 92 7d 87 bd
       0.05478341 -0.0128256865 -0.051076736 -0.066157475
000050 11 08 88 bc 7d 27 4e 3d a2 db c0 bd 96 42 19 bd
       -0.016605409 0.050330628 -0.09416892 -0.037417017
000060 9c bb 2a bd be 78 80 bd 37 09 d2 3c 81 90 b5 3c
       -0.041682824 -0.0627303 0.02563916 0.022163631
000070 7d ed 23 bd 48 70 e1 bc f0 48 4d 3d 77 57 96 3d
       -0.04002141 -0.02751936 0.050118387 0.07340901
000080 b7 38 8d 3d 84 2f ae 3c 14 4d 8e bb f3 43 91 bd
       0.06895583 0.021262892 -0.0043426845 -0.070930384
000090 08 cd bd 39 98 8f 8d 3d 0c 7f 91 bd 0a 00 c2 bc
       0.0003620165 0.06912154 -0.071043104 -0.02368166
0000a0 8f 22 a0 3d c4 15 12 3d 5e bc 11 3d 77 7d 8f bc
       0.078190915 0.03566529 0.03558003 -0.017515881
0000b0 e2 21 03 3c 64 93 e6 bc 5f b3 85 bd 6d 95 de 3d
       0.008003684 -0.028146453 -0.06528353 0.108683445
0000c0 bf 6d 82 bd 4a b9 29 bd
       -0.06368589 -0.04143647

linears.4.weight f4 [3, 50]
000000 03 9b 15 be 58 45 2e 3e da 0e 00 be 7b 21 d0 3e
       -0.14609914 0.1701864 -0.12505665 0.40650544
000010 1a 9b 73 3f 60 68 eb 3e 2e 22 f2 3e 6b bc 64 be
       0.9515854 0.4597807 0.47291702 -0.22337501
000020 ad f3 b9 be b0 52 7e be bd 70 18 bf 72 36 ae 3e
       -0.36318722 -0.2483623 -0.59547025 0.34025913
000030 32 5a c9 be 31 1a e0 be ce 04 db be 10 bb 5f bf
       -0.39326626 -0.43769982 -0.42777103 -0.8739481
000040 e2 ec 62 be 3c 83 09 bf 97 d2 02 bf 2f 75 58 3e
       -0.22160676 -0.5371587 -0.51102585 0.21138452
000050 9f 70 1f be 57 3a 06 3f 22 19 27 bd 56 da 95 3e
       -0.15570305 0.5243277 -0.040795453 0.2926814
000060 9d 6e a5 be 75 59 eb 3e 78 14 8d 3d 6c 7b 26 3e
       -0.32310954 0.45966688 0.0688867 0.16258019
000070 2e ed bf be 49 9f 42 be 3a 6b c8 3e f7 f1 0e 3e
       -0.3748564 -0.19006075 0.39144307 0.1395949
000080 82 4c 7a 3f 7f a8 20 3e fc 09 d2 3d 56 f2 a8 be
       0.9777299 0.15689276 0.102558106 -0.32997388
000090 1e b2 0b 3e c9 15 85 be bb bf 0b bf eb 86 21 be
       0.13642165 -0.25993183 -0.5458943 -0.15774123
0000a0 27 a4 fd 3d 63 03 0e be 87 1a 23 3f a3 65 c8 3d
       0.12384825 -0.1386848 0.6371235 0.09785011
0000b0 d1 15 10 bf f8 fd c3 3c ea d9 95 be 5f 88 38 3f
       -0.5628329 0.023924813 -0.29267818 0.72083086
0000c0 0d 36 f7 be 59 98 cc be d8 80 52 3e 06 61 cb 3e
       -0.48283425 -0.39959982 0.20556962 0.3972246
0000d0 50 1b 97 3d ae 7e 4d 3e d9 cd 7d 3e 9c 80 90 3e
       0.07378256 0.20067856 0.24785556 0.2822312
0000e0 83 33 92 3d 4e bb 49 bd 76 e8 ed be bb e9 a0 3e
       0.07138731 -0.049250893 -0.46466416 0.31428322
0000f0 77 fb 3e be 7a 82 5f be 1a a8 42 be 06 0f 8d 3e
       -0.18650614 -0.21827117 -0.19009438 0.27550524
000100 9f 34 2f 3e 00 bc 10 3d cb e4 a8 3d 84 da 83 bd
       0.17109917 0.03533554 0.08246764 -0.06438163
000110 f7 d5 75 3c b6 10 a9 3d 28 2a 27 be 6a fb 41 be
       0.0150046265 0.082551405 -0.16324675 -0.18943563
000120 3c ec 23 3e c8 06 17 3e 95 cd 86 3e 8d a9 cd 3c
       0.16008085 0.1474868 0.26328722 0.025105262
000130 54 de 92 3e fb d5 d6 3d a3 c5 76 3d 50 11 81 3e
       0.28685248 0.10490032 0.060247075 0.2520852
000140 91 75 6f be 60 da 06 bd 01 2c 01 be 33 e3 65 3e
       -0.23384692 -0.032923102 -0.12614442 0.22449951
000150 cb aa be be 50 f4 7d bc 3c 44 be bc 1f 88 9e bc
       -0.3723968 -0.015500143 -0.023225896 -0.019352017
000160 1d 42 5a 3e 76 2d 5b 3e 0e 4d d0 be 75 ed fb be
       0.21314283 0.2140406 -0.40683788 -0.49204603
000170 64 58 ae bd 5a 46 4e 3e 62 78 19 bd 1d b3 8f 3e
       -0.08512953 0.20144024 -0.03746832 0.2806634
000180 d1 76 70 3e e5 39 41 be 9a d1 06 be 4d ed 33 3e
       0.23482825 -0.18869741 -0.13165894 0.17570992
000190 80 8d 08 3f 29 5f 39 bd 00 09 50 be 8b 05 0a bd
       0.5334091 -0.045256767 -0.20315933 -0.033696692
0001a0 73 5b 94 bd d3 45 be 3e 2a 19 b7 bd b5 60 a8 bf
       -0.07244005 0.37162647 -0.089403465 -1.3154513
0001b0 7b 36 04 3e c8 25 26 bf 39 cc 1e bf 45 3e fa 3d
       0.12911408 -0.649014 -0.6203037 0.12218908
0001c0 f4 35 8b 3e 6c 83 b5 3e 39 1e 3a bd cd b1 54 be
       0.271896 0.3545183 -0.04543898 -0.2077095
0001d0 73 cd 02 bf 4e d5 36 be 1c 37 ef be d8 a8 3e 3f
       -0.5109474 -0.17854807 -0.46721733 0.74476385
0001e0 9d 60 31 bd 28 5b c5 3c 92 28 9b 3d ad 04 ba 3d
       -0.04330503 0.024091318 0.075760975 0.09082923
0001f0 e8 c8 4f 3e 71 27 ea bd e5 3d 19 3d f4 43 d4 3e
       0.20291483 -0.11433304 0.037412543 0.41458094
000200 69 24 59 bd ef f8 aa be fc 01 06 3e 62 67 18 be
       -0.05301324 -0.33393046 0.13086694 -0.14883187
000210 5b fb a6 be 13 e1 02 bf 82 06 a9 3c 65 a7 5b 3f
       -0.32613644 -0.51124686 0.020632986 0.858023
000220 e2 12 86 3e 07 67 b2 be 55 2f f2 3e d2 8a 1a be
       0.2618628 -0.3484423 0.47301736 -0.15092018
000230 c1 47 a3 3c f5 e2 9e bd 85 c2 77 3e ba 92 cf 3d
       0.019931676 -0.07758132 0.24195297 0.10135408
000240 f2 86 7a 3e c7 f2 76 be 3f 24 19 be 07 cd 15 be
       0.2446554 -0.2411605 -0.14955233 -0.14628993
000250 4f bb 10 3f 01 0a c5 3d
       0.5653581 0.09621049

linears.4.bias f4 [3]
000000 c8 b1 1c 3d e0 07 4b bd e0 3d c9 be
       0.038255483 -0.049568057 -0.3930502

exp_avg f4 [50, 2]
000000 7f 4e 85 3a c3 e3 e3 39 a5 41 4f ba 2a e0 ed b9
       0.0010170488 0.0004346651 -0.0007906205 -0.00045371178
000010 9c 23 d8 b9 fa f2 0e b9 75 7a 3a 39 f7 9d ca 35
       -0.00041225262 -0.00013632691 0.00017783961 1.5096147e-06
000020 22 21 87 3a da 10 ee 39 eb cb 8a ba d6 dd 19 ba
       0.0010309557 0.00045407453 -0.0010589337 -0.0005869543
000030 c2 62 64 b9 1e 95 b9 38 0d c6 3a 3b 8c 30 ca 3a
       -0.00021780565 8.849263e-05 0.0028499395 0.0015425845
000040 dc 0c 7f b9 0c 93 11 b9 6f 01 20 3a d9 a6 c7 39
       -0.00024323486 -0.00013883057 0.0006103729 0.0003808055
000050 1a 9b 30 b8 2d 13 32 b9 7a bd 72 3a b0 43 45 3a
       -4.210612e-05 -0.00016982546 0.00092598016 0.000752504
000060 b0 d9 71 b9 46 1b b8 b8 b6 c7 33 ba 20 e6 22 ba
       -0.00023064646 -8.778884e-05 -0.00068580674 -0.0006214101
000070 cb 3d ab ba 2f ba b2 b9 f5 35 a7 3a c8 98 2d 3a
       -0.001306468 -0.00034089523 0.0012757169 0.00066221924
000080 d7 e1 82 ba 3d 17 d8 b9 05 dc 0b ba 12 9d 63 b9
       -0.0009985518 -0.00041216044 -0.00053352147 -0.0002170692
000090 ac 9d 64 37 3e 2f ad b9 44 ab b5 3a 9b 2c 79 3a
       1.362657e-05 -0.0003303233 0.0013860245 0.0009505243
0000a0 b7 4a a3 39 4b 05 df 38 84 7e fb 39 4d 94 cb 39
       0.0003114545 0.000106344545 0.00047968712 0.0003882967
0000b0 f5 8e a2 b9 a4 1d 5d 38 02 1e 83 ba 45 9d 2a ba
       -0.0003100556 5.271811e-05 -0.001000345 -0.00065084203
0000c0 2e d8 bf ba 8d 08 88 ba 18 63 63 ba 44 d7 26 ba
       -0.001463657 -0.0010378525 -0.0008674129 -0.00063644745
0000d0 b3 a5 d8 b8 e3 9a 4e b9 7a fd 28 ba 39 4e 0b ba
       -0.000103305465 -0.0001970339 -0.00064464624 -0.0005314085
0000e0 59 f7 7e 3a 5a fa 4a 3a a6 e7 a3 ba 3e 7d 4f ba
       0.0009726189 0.0007742994 -0.001250495 -0.0007915086
0000f0 65 d7 b0 b9 a3 63 9b b9 9b 5f 92 3a 12 8d 36 3a
       -0.00033729817 -0.0002963814 0.0011167409 0.000696377
000100 8c b7 8f 39 21 48 a3 39 b8 99 bf 3a e3 d2 5c 3a
       0.00027411839 0.00031143523 0.0014617955 0.00084237586
000110 0f b6 c2 3a 67 5b 81 3a 64 f5 7b 39 14 ff 09 39
       0.0014855283 0.0009869159 0.0002402864 0.00013160362
000120 40 41 57 3a 1d 8c 16 3a 94 80 97 3a 10 61 84 3a
       0.0008211322 0.00057429244 0.0011558705 0.0010099728
000130 5a 02 db b9 32 bf f6 b8 5c d2 f2 b9 9c 20 cd b8
       -0.00041772687 -0.00011765807 -0.00046314567 -9.781236e-05
000140 5f d3 26 ba 58 b3 01 b9 6f 3e e4 ba 82 d8 3d ba
       -0.0006363894 -0.0001236921 -0.0017413626 -0.000724204
000150 b5 7a bf ba 9d 0d 59 ba dc e1 24 ba b6 c1 3f ba
       -0.0014608713 -0.00082799216 -0.0006289759 -0.0007314937
000160 59 8c 0e 3a 1b 19 8a 39 c4 fe f5 39 b4 fe d8 39
       0.00054377835 0.00026340116 0.00046919857 0.000413885
000170 3b 73 3a b9 a4 d0 10 ba 2b c4 94 39 44 36 e4 38
       -0.00017781269 -0.0005524254 0.00028374916 0.00010881995
000180 08 da 89 39 96 e3 39 b9 03 56 28 3a a3 d9 07 3a
       0.00026293122 -0.00017727757 0.0006421508 0.00051822717

exp_avg_sq f4 [50, 2]
000000 16 c1 06 3c 76 ae fa 3a 0e ff a7 3b 13 d4 ad 3a
       0.008224746 0.001912548 0.0051268404 0.0013262056
000010 8f 03 27 3a 1c c8 57 3a 3c 76 40 3a 26 01 b0 3a
       0.00063710747 0.0008231418 0.0007341837 0.0013428077
000020 f3 90 eb 3b e4 47 10 3b 6e 56 02 3c 46 27 1e 3b
       0.00718891 0.0022015506 0.007955177 0.0024132296
000030 c7 98 9b 39 80 9d d4 38 3f 9f 93 3d 2a 95 b8 3c
       0.00029677732 0.000101382844 0.07208108 0.022532064
000040 e8 c1 7e 3a 65 6a 79 39 6a da ac 3a 0b 69 ac 3a
       0.00097182253 0.00023786126 0.0013187651 0.0013153864
000050 40 7c 28 3a 5e a4 3d 3a dc 26 07 3c 49 cb 4a 3b
       0.0006427206 0.00072342705 0.008249011 0.0030943921
000060 f1 94 05 3a 2f 36 92 3a 3c d1 5f 3b ad e9 06 3b
       0.00050957414 0.0011155064 0.0034151813 0.002058606
000070 ff ea 70 3c 17 b2 9f 3b d8 b6 5a 3c 87 05 59 3b
       0.014704465 0.004873525 0.013349257 0.0033114867
000080 29 da ba 3b b5 2e 93 3a 72 ad e3 3a b3 b5 0d 3a
       0.0057022762 0.001122913 0.0017370416 0.00054057984
000090 c1 dd 3a 3a 0b 62 9f 3b a5 a5 89 3c 78 86 c5 3b
       0.0007128381 0.0048639826 0.016802618 0.006027993
0000a0 9a 3c c4 3a f1 c5 c1 39 93 22 07 3b d3 d2 c1 3a
       0.0014971674 0.00036959306 0.0020619973 0.0014787562
0000b0 1f 45 56 3a ae ec 9a 3a 9d e1 1e 3c 96 4f 3b 3b
       0.0008173752 0.0011819804 0.009697345 0.0028581372
0000c0 cf b3 81 3c 6a 8b e5 3b 29 1d c9 3b 83 4c 20 3b
       0.01583281 0.007005145 0.0061375094 0.0024459667
0000d0 9e ad a8 3a 3e 08 4a 3a bf 0c 9c 3b f8 8f 17 3b
       0.0012869125 0.00077069167 0.0047622616 0.0023126584
0000e0 f7 46 3c 3c cc 10 b8 3b ea 9f 66 3c 89 63 85 3b
       0.011491529 0.0056172367 0.014076212 0.0040707034
0000f0 a2 80 d0 3a 03 09 59 3a 3d 06 0e 3c ae 2a 3d 3b
       0.0015907476 0.0008279236 0.0086684795 0.002886455
000100 38 c3 f3 3a f5 59 4c 3a 24 cb 95 3c e5 db 9d 3b
       0.0018597608 0.0007795387 0.018285342 0.0048174732
000110 d0 42 95 3c 1d 05 e9 3b 16 c0 46 3a 14 99 b7 39
       0.018220335 0.0071112053 0.00075817236 0.00035018532
000120 35 a1 ea 3b bf 5d 92 3b 5a ba 51 3c 46 36 d4 3b
       0.0071603307 0.004466742 0.012800777 0.0064761965
000130 ea 77 1b 3a f7 1c 62 39 a5 ee 72 3b 46 bc 94 3a
       0.00059306493 0.0002156383 0.0037068513 0.0011347614
000140 b5 9d 82 3b 8f 89 a5 39 71 00 e3 3c 2e f3 b1 3b
       0.0039860853 0.00031573742 0.027710171 0.0054306006
000150 3c ed 84 3c e5 dc 9a 3b f5 1c 83 3b e4 8d 57 3b
       0.016226403 0.0047260397 0.0040012547 0.003289097
000160 27 43 76 3a f4 2d 37 3a 1b 38 11 3b fa 08 88 3a
       0.0009394162 0.00069877435 0.0022158686 0.0010378652
000170 2f 46 82 3a af e5 03 3b 9d 59 e2 3a 28 12 a7 39
       0.0009939129 0.0020125916 0.0017269138 0.0003186625
000180 c3 8a 10 3b 89 1e be 3a 23 ae 95 3b bb 19 04 3b
       0.0022055365 0.001450495 0.004567878 0.0020156938

exp_avg f4 [50]
000000 0d 3d ea b9 75 c2 0d 3a d0 ea 8f b8 08 18 c5 b8
       -0.00044677444 0.00054076995 -6.8625086e-05 -9.398168e-05
000010 c5 1f 37 ba 2e df 30 3a 97 3a 3d 38 59 90 c9 ba
       -0.000698563 0.00067471236 4.5115677e-05 -0.0015378102
000020 e0 7c 1e 39 21 cc 94 b9 8b 58 4d 39 48 83 0f ba
       0.00015114574 -0.00028380848 0.00019583308 -0.00054745795
000030 d5 74 1e 3a 14 2a 09 3a de 67 96 3a e4 7e 34 ba
       0.0006044631 0.00052324054 0.0011475047 -0.0006885363
000040 82 69 4b 3a 54 9a fa 39 e2 a1 a2 b9 66 dd 80 ba
       0.00077595573 0.000477987 -0.0003101966 -0.0009831607
000050 e5 70 e5 b8 5a 4a fe b7 00 3e ca 39 de d7 69 3a
       -0.00010940599 -3.0313782e-05 0.00038574636 0.00089204113
000060 a9 ac 8a 3a f1 48 11 3a 9d 77 30 b8 a2 2d 2e 39
       0.0010580021 0.000554218 -4.207307e-05 0.00016610933
000070 69 ee 85 b9 4d 59 2d 3a c9 92 b5 39 56 78 63 ba
       -0.00025545366 0.0006612733 0.00034632374 -0.0008677294
000080 36 32 85 b9 d9 b8 82 ba 72 11 95 ba ef 66 bf b9
       -0.00025405147 -0.0009973302 -0.0011372997 -0.0003650705
000090 66 04 92 b9 e9 66 0d ba b7 7a 12 3a f6 6c c8 39
       -0.00027850567 -0.0005394058 0.0005587744 0.00038228155
0000a0 77 f7 c5 39 67 53 5a 3a f5 f0 63 3a f1 5b f0 39
       0.00037759144 0.0008328468 0.0008695268 0.0004584487
0000b0 52 11 09 ba f6 18 16 ba 18 e7 66 b8 cd a8 47 b9
       -0.0005228716 -0.00057257654 -5.5051496e-05 -0.00019041002
0000c0 25 98 f7 b9 cf 22 e9 b9
       -0.00047224868 -0.00044467158

exp_avg_sq f4 [50]
000000 da 7a a8 3b 1b f3 d1 3b e2 c6 5a 3a f0 22 b6 3a
       0.005141598 0.0064071543 0.0008345676 0.001389591
000010 17 02 e5 3b eb 44 1d 3c ef 86 6a 38 79 30 b6 3d
       0.0069887745 0.009598951 5.5915614e-05 0.08895964
000020 dc 33 2e 3a 36 fc 53 3b c6 70 51 3a 34 74 1a 3c
       0.0006645301 0.0032346374 0.0007989522 0.009427119
000030 41 63 e0 3a cb 7d e2 3b 2b 87 42 3c ab 2a 28 3c
       0.0017119424 0.0069119683 0.011873047 0.010264079
000040 58 16 c7 3b f9 4d 1c 3b ff c2 aa 3b 1c 62 b0 3c
       0.0060756616 0.0023850186 0.0052112336 0.021531157
000050 7d d3 ac 38 04 29 1c 3b ef 28 fc 3a 3f 24 4c 3c
       8.240992e-05 0.0023828158 0.0019238273 0.012459814
000060 ce c2 bb 3c e2 fc ed 3b 4b 60 6a 3a 9a f0 a2 3b
       0.022920039 0.007262812 0.00089407404 0.0049725296
000070 87 65 25 3c f5 98 38 3c 9e c3 08 3b 73 ed 29 3c
       0.010095007 0.011266937 0.002086855 0.010371554
000080 41 64 2e 3b 1b c6 9a 3c f9 1c cc 3c 80 3a b2 3a
       0.002661005 0.018893292 0.024916159 0.0013597757
000090 21 2c 12 3c 99 7a 7d 3c 0b 92 c4 3a 00 7b 36 3b
       0.008921654 0.015471124 0.0014997137 0.002784431
0000a0 62 ae 1d 3b 93 9c c3 3c 10 f2 86 3c 35 fe 03 3c
       0.002406024 0.023878371 0.016472846 0.008056213
0000b0 73 b2 b4 3a 2e 5a 80 3b af 9e 1f 3b b2 aa 88 3a
       0.0013786092 0.0039170003 0.0024356057 0.0010426848
0000c0 03 fc 73 3b 1e 36 c3 3b
       0.0037229068 0.005957379

exp_avg f4 [50, 50]
000000 84 fc 18 39 8c c3 53 39 e6 27 b8 38 0b bf 85 39
       0.00014589919 0.00020195375 8.7812354e-05 0.00025510075
000010 ca a8 81 b9 37 ca b0 39 90 59 0d 39 de af b7 39
       -0.00024730555 0.00033719998 0.00013480172 0.0003503551
000020 96 1e e6 b9 36 ba 98 b9 e0 7a d1 b9 48 fd ff 36
       -0.00043891807 -0.00029130437 -0.00039955135 7.629078e-06
000030 b7 6f 13 39 04 38 d3 37 65 3b 4b 39 46 97 5c b9
       0.0001406063 2.5179244e-05 0.00019381715 -0.00021037189
000040 61 d9 c9 39 a9 3e 40 39 d6 fb d7 38 d5 d7 e1 b8
       0.00038499667 0.0001833389 0.00010298907 -0.00010769038
000050 ca 32 9d b9 53 01 ae b9 d0 0e 42 39 64 5c 07 b8
       -0.00029983214 -0.00033188853 0.000185068 -3.2272554e-05
000060 2c d8 7d 39 77 0b 04 38 df f5 e5 b9 0b f2 b4 b9
       0.0002420849 3.148193e-05 -0.00043861472 -0.00034512611
000070 a9 48 d7 39 9f 39 c1 38 8a b7 ab b8 1d e2 6a b9
       0.00041062132 9.21369e-05 -8.188102e-05 -0.00022400213
000080 21 01 e7 b7 9b a7 5c b9 77 76 58 b9 38 f2 0d b8
       -2.7537872e-05 -0.00021043273 -0.00020643497 -3.3842603e-05
000090 37 0f a6 39 ca 0c 69 b4 6d 3a 9c 39 32 d1 a5 b9
       0.00031673323 -2.1704469e-07 0.0002979817 -0.00031627115
0000a0 0c b8 8c b9 a2 a8 ec b9 c5 a1 90 39 ae 25 c8 37
       -0.00026840006 -0.0004513907 0.00027586348 2.3859404e-05
0000b0 b9 54 c9 b9 4a e0 6b b9 dd 7c 54 b9 41 a3 0b 3a
       -0.0003840083 -0.000224949 -0.0002026441 0.0005326756
0000c0 5f cf 4d 39 c5 7d a3 39 d9 15 62 b8 35 7f 2e b9
       0.00019627575 0.00031183488 -5.3902946e-05 -0.00016641321
0000d0 bd c6 6f 37 bc b4 9e b9 ce 77 45 39 15 9d b1 b9
       1.42917825e-05 -0.00030270766 0.00018832015 -0.00033877106
0000e0 4f ba 45 b8 1e 31 df b9 ed 2b 64 39 fd 07 f5 38
       -4.7141973e-05 -0.0004257047 0.00021760138 0.00011683998
0000f0 5e 7e 96 39 69 9a 00 b8 a1 31 6f b9 30 db 8c 38
       0.0002870438 -3.0661384e-05 -0.00022811304 6.716547e-05
000100 39 46 0b ba 49 6c a6 39 8d e1 c1 b9 35 8c 4e b9
       -0.0005312893 0.00031742666 -0.00036979877 -0.00019697922
000110 09 76 a8 39 4a 07 ed 38 c7 da f3 39 84 7b 61 39
       0.000321314 0.00011302398 0.00046511574 0.00021503685
000120 ae 38 d0 b9 23 9a 17 38 b0 18 47 b9 4a 40 18 b8
       -0.0003971508 3.6144756e-05 -0.00018987316 -3.6299498e-05
000130 33 e1 91 39 f3 37 b6 39 c5 98 d2 b9 49 3a 27 b9
       0.00027824342 0.0003475543 -0.00040168143 -0.00015948074
000140 3a 96 9a b6 30 6c 51 39 c8 ee 8e 38 d8 50 49 39
       -4.6070463e-06 0.00019972096 6.815564e-05 0.0001919897
000150 b0 77 5f 39 a0 5a 46 38 e2 31 cb b9 a8 85 99 b7
       0.00021311524 4.729128e-05 -0.00038756343 -1.830126e-05
000160 2b bf 73 b9 dc 41 f4 b8 42 40 c3 37 40 5e c4 39
       -0.00023245502 -0.00011647094 2.3275734e-05 0.00037454255
000170 2c 7e a7 b9 05 65 e7 b8 5d 84 b7 39 85 31 91 39
       -0.00031946728 -0.00011033755 0.00035003098 0.0002769345
000180 a2 28 bb 39 77 5b 80 b9 44 0f 12 38 e7 79 a4 b9
       0.00035697693 -0.0002448221 3.482333e-05 -0.00031371342
000190 ce a3 b0 b7 de 1d 80 b8 25 ea 83 36 e8 ad dd b8
       -2.1057112e-05 -6.109079e-05 3.9313622e-06 -0.00010570494
0001a0 7e 0c 93 38 9d a8 fd b8 4c 1c 99 b7 76 68 0d b9
       7.011833e-05 -0.00012095387 -1.8252198e-05 -0.00013485723
0001b0 d6 eb c0 38 9e 37 52 38 08 23 dc 38 a8 e3 11 b7
       9.199201e-05 5.01197e-05 0.000104969426 -8.695679e-06
0001c0 b9 3f a5 b8 ce a6 a4 37 58 f7 3a b9 ff 1e e6 38
       -7.8796824e-05 1.9627998e-05 -0.00017830485 0.00010973028
0001d0 c2 0f 0d b9 cb 69 92 b8 ac aa cf 38 63 81 2b 38
       -0.00013452678 -6.981528e-05 9.902319e-05 4.0890078e-05
0001e0 d4 f1 27 39 1b b2 ae 38 90 0f 0a b9 99 97 3c 37
       0.00016016449 8.330141e-05 -0.00013166503 1.124097e-05
0001f0 e6 cb 93 b8 ac 1e 6a b7 ea 5d e8 38 eb 7e 00 39
       -7.047485e-05 -1.3954628e-05 0.00011080115 0.00012254312
000200 51 39 14 b9 42 42 68 b8 15 22 50 b5 d8 33 98 38
       -0.00014135732 -5.5374818e-05 -7.7535634e-07 7.2575815e-05
000210 56 61 c8 37 26 58 92 38 ed 10 a0 38 01 6a 91 37
       2.3887183e-05 6.9782414e-05 7.632547e-05 1.7334709e-05
000220 1b 6d 0b b9 46 60 a2 b6 01 b2 b5 b8 89 1f a5 b7
       -0.00013296718 -4.839184e-06 -8.6639084e-05 -1.9684217e-05
000230 7e 1c 93 37 92 16 03 39 1f e3 ec b8 0a 48 1e b8
       1.7537033e-05 0.00012501542 -0.000112956615 -3.7737227e-05
000240 c2 ed 05 39 ad 30 cc 38 a1 54 f7 38 01 f0 eb b8
       0.0001277244 9.7365446e-05 0.00011793641 -0.000112503774
000250 2a 4c 42 36 a4 f0 e3 b8 80 cf 39 b8 45 7d 14 b9
       2.8952586e-06 -0.00010869026 -4.4300687e-05 -0.00014161046
000260 ae aa d1 b8 1a 86 5f b9 eb d1 35 39 ea 16 8f b9
       -9.997688e-05 -0.00021316894 0.00017339706 -0.00027292158
000270 9b 7f ed b8 54 43 3e b9 da ae 96 39 2b cc 48 39
       -0.00011324809 -0.00018144894 0.00028740504 0.00019149545
000280 58 44 b4 39 d9 ec 39 b8 1b 31 e2 b8 9c 4c fa 37
       0.00034383195 -4.432802e-05 -0.000107856664 2.9837996e-05
000290 61 a0 41 b9 f4 b1 2d 39 0c 10 99 b9 49 45 13 b9
       -0.0001846566 0.00016564858 -0.0002919439 -0.00014044823
0002a0 38 1a 09 b6 90 ec 67 38 b3 3d 77 39 96 54 73 39
       -2.0429852e-06 5.5295008e-05 0.0002357874 0.00023205797
0002b0 06 1e 52 b9 35 05 61 38 3b ff 29 b9 04 8b 85 36
       -0.00020038345 5.364903e-05 -0.00016212177 3.9798924e-06
0002c0 33 df a8 39 bf 91 65 39 66 a6 bd b9 36 0f 7b b8
       0.00032209753 0.00021893436 -0.00036172866 -5.985723e-05
0002d0 fd d1 b4 38 a2 d8 12 39 1a 20 0f 37 38 22 11 39
       8.622182e-05 0.00014004347 8.530938e-06 0.00013841025
0002e0 a4 33 18 39 7a 94 86 b7 87 93 97 b9 25 1f bd b7
       0.00014515087 -1.6043185e-05 -0.0002891088 -2.2545059e-05
0002f0 00 d6 5e b9 5a 68 38 39 8b a3 08 39 e1 6c 88 39
       -0.00021251291 0.00017586481 0.00013030895 0.00026021063
000300 37 1a 5a b9 c1 bb da b5 c4 cb 9d 39 57 b4 2f 39
       -0.00020799866 -1.6296909e-06 0.0003009719 0.00016756482
000310 aa df 78 39 13 a9 c5 b9 42 39 d7 b8 bc 0d 96 b9
       0.00023734444 -0.00037700738 -0.00010262664 -0.00028620462
000320 36 96 17 37 34 e1 ba b7 be 4c 87 b7 6c 33 3e b8
       9.035275e-06 -2.2277796e-05 -1.612899e-05 -4.534742e-05
000330 2d f2 db 37 27 20 5f b8 90 ab 8b b7 1f d6 ee b7
       2.6219606e-05 -5.3197287e-05 -1.6649981e-05 -2.8471519e-05
000340 61 08 ed 37 a3 94 a2 37 9c f5 80 38 c0 fa 7a b7
       2.8256503e-05 1.938112e-05 6.149264e-05 -1.49595435e-05
000350 c3 de db b7 42 49 9a 37 3e d9 88 b8 c8 fe 24 38
       -2.6210566e-05 1.8392344e-05 -6.52545e-05 3.933793e-05
000360 1a 75 61 b8 67 9b e3 b7 ca cb 1b 38 26 de e9 36
       -5.375324e-05 -2.7132874e-05 3.7144673e-05 6.9698026e-06
000370 29 ca 76 38 46 ec 06 38 cf 7a 76 b8 c9 7c 6b 37
       5.8839247e-05 3.2168136e-05 -5.8765345e-05 1.4036145e-05
000380 2f 1e c5 b7 e4 c3 8c 36 a8 97 45 38 d2 1c 13 38
       -2.3498285e-05 4.19513e-06 4.71097e-05 3.5074372e-05
000390 63 b6 98 b8 ae 1b 70 b7 b4 12 61 37 f4 a1 a8 37
       -7.281897e-05 -1.4311559e-05 1.34154e-05 2.0102576e-05
0003a0 8d e4 2e 36 75 80 b4 37 7d 4b d9 37 2d cb 04 b7
       2.6061055e-06 2.151749e-05 2.5903568e-05 -7.915119e-06
0003b0 ac 2e 87 b8 74 ca 0c b7 66 ec 0a b8 42 56 b9 b6
       -6.445995e-05 -8.391788e-06 -3.3121927e-05 -5.5234714e-06
0003c0 24 15 d3 b6 76 19 b2 37 71 cd 2f b8 40 f5 82 b6
       -6.290751e-06 2.123111e-05 -4.1914584e-05 -3.9028528e-06
0003d0 e7 4d 67 38 12 d2 10 38 b7 e9 87 38 69 a9 38 b8
       5.5147244e-05 3.452792e-05 6.4808344e-05 -4.4026794e-05
0003e0 42 e9 40 36 cc bc 78 b8 27 60 35 38 8b 66 7b b7
       2.8746003e-06 -5.930364e-05 4.324331e-05 -1.4984641e-05
0003f0 34 ec bf b7 74 3e 80 b8 0a a2 82 37 4b b6 85 b8
       -2.2878965e-05 -6.1151484e-05 1.5572663e-05 -6.375889e-05
