finished_models/model/model.ckpt-3000.pt (torch, 107133 bytes, 30 tensors)

linears.0.weight f4 [50, 2]
0	0xbe1bf9c9	-0.15232004
1	0x3ee93b27	0.45552942
2	0x3e014cb3	0.12626915
3	0x3e523d6f	0.20531248
4	0x3eaa19de	0.3322286
5	0xbe970d3d	-0.29502288
6	0x3e5bd85b	0.21469252
7	0x3e1fffec	0.1562497
8	0xbe259d24	-0.16173226
9	0xbe5efa36	-0.21775135
10	0x3ea0b6f8	0.31389594
11	0x3e31104f	0.17291377
12	0x3e6360c7	0.22204886
13	0xbd009c7d	-0.03139924
14	0xbe991b4f	-0.29903647
15	0x3f8a0432	1.078253
16	0xbe9d9af3	-0.3078228
17	0xbef9f402	-0.48818976
18	0xbe586aae	-0.21134445
19	0xbe5d8d11	-0.21635844
20	0xbf16b1d4	-0.58865094
21	0x3d96f346	0.073706195
22	0x3e2cadbd	0.16863151
23	0xbe4e7ec5	-0.20165546
24	0x3d184c5f	0.03718221
25	0x3e66711f	0.2250409
26	0xbe0556fc	-0.13021463
27	0x3e54292d	0.20718832
28	0x3c86b834	0.016445257
29	0x3ec24bf4	0.37948573
30	0xbdabcfe0	-0.083892584
31	0xbe8bf8e1	-0.27338317
32	0x3e9008cb	0.28131709
33	0x3ea25c8b	0.3171123
34	0x3dfb525b	0.122715674
35	0x3e2f4d49	0.17119326
36	0x3dd550e2	0.10415818
37	0x3c13cabc	0.009020504
38	0x3d4cff06	0.050047897
39	0xbe87953f	-0.26481053
40	0xbdcfa9e2	-0.101398245
41	0xbee0be62	-0.4389525
42	0xbe820a5d	-0.25398532
43	0xbe84dd27	-0.25949976
44	0x3e5d57f7	0.21615587
45	0x3d37705b	0.044784885
46	0xbe1e7296	-0.15473399
47	0x3e14296e	0.14468929
48	0x3df23ca7	0.11827975
49	0x3e8cf09f	0.2752733
50	0xbde404a4	-0.11133698
51	0x3e50e78c	0.20400828
52	0xbecd259f	-0.40067765
53	0xbe87e521	-0.26542
54	0xbd2cf2af	-0.04222363
55	0xbf195260	-0.5989132
56	0x3f0abff8	0.5419917
57	0x3c678a39	0.014132076
58	0xbd2dde86	-0.042448543
59	0x3e66d63a	0.22542658
60	0xbe7e1241	-0.24811651
61	0x3e532b9c	0.20622104
62	0xbd214c47	-0.039379384
63	0xbeb407aa	-0.35162097
64	0x3d4d7aeb	0.05016605
65	0xbe13ce06	-0.1443406
66	0xbd87f803	-0.06639101
67	0xbe9335dc	-0.2875203
68	0xbdb9ea12	-0.090778485
69	0xbe82a62e	-0.2551741
70	0x3e59c792	0.21267536
71	0xbea59d70	-0.32346678
72	0x3ec4ba51	0.38423398
73	0x3d56d95a	0.052453376
74	0x3dae3fea	0.085082844
75	0xbddf636c	-0.10907635
76	0x3e4ebc06	0.20188913
77	0x3e7db6ca	0.2477676
78	0xbebcf709	-0.36907223
79	0xbe158b82	-0.14604
80	0xbd1f90d2	-0.03895647
81	0xbee5c838	-0.44879317
82	0x3d74b250	0.059740365
83	0xbf84032d	-1.0313469
84	0x3e1bdc00	0.15220642
85	0x3e992d8c	0.29917562
86	0xbe0ea0fc	-0.13928598
87	0x3e6e45e4	0.23268849
88	0xbeb02066	-0.34399718
89	0xbe6a4d3b	-0.22881024
90	0xbde3bac0	-0.11119604
91	0xbe916f75	-0.28405347
92	0xbeda1447	-0.42593595
93	0x3e2ae4cb	0.1668884
94	0x3f1429f0	0.5787649
95	0x3eb675d9	0.35636786
96	0x3dfd72f9	0.12375445
97	0x3e26757a	0.16255751
98	0x3ee8d3c1	0.45474055
99	0xbd486d27	-0.04893222

linears.0.bias f4 [50]
0	0x3d2e3777	0.042533364
1	0x3cd44468	0.025911525
2	0x3ded4640	0.11585665
3	0xbd786c37	-0.060650077
4	0xbd2e6f6e	-0.042586736
5	0xbc0b2e8b	-0.008494983
6	0x3d2344da	0.039860584
7	0xbe5f0ee0	-0.21783018
8	0xbe615f23	-0.22008948
9	0xbe2cf2ce	-0.16889498
10	0xbdf72b3e	-0.12068795
11	0xbb56cb46	-0.003277497
12	0xbdda1ef5	-0.10650436
13	0x3d8b9f6f	0.06817519
14	0xbecfd8ee	-0.40595192
15	0x3e09e6e9	0.13466991
16	0x3ac638b9	0.0015123106
17	0xbca1f5ba	-0.019770492
18	0x3eed3b84	0.4633447
19	0x3d0fdceb	0.035122793
20	0x3e26bc25	0.16282709
21	0xbdd8b18b	-0.10580739
22	0xbe679b0c	-0.2261774
23	0xbc17d0f1	-0.009266124
24	0x3d03dc87	0.032192733
25	0xbcfa00f8	-0.03051804
26	0xbe1b8c50	-0.15190244
27	0x3d7e10a0	0.062027574
28	0x3c975502	0.018473152
29	0xbdbe4a1d	-0.0929148
30	0xbddbc9bd	-0.10731838
31	0x3c816ea3	0.015799826
32	0x3d84916b	0.06473049
33	0x3c1f71d6	0.00973173
34	0x3cf93964	0.030422874
35	0x3d5f35eb	0.05449478
36	0xbd890e5d	-0.06692193
37	0xbc271700	-0.010198355
38	0x3cc6dc44	0.024274953
39	0xbefef6a8	-0.4979756
40	0xbe66b472	-0.22529772
41	0xbd2c004f	-0.04199248
42	0xbd890fce	-0.06692468
43	0xbde411cb	-0.11136206
44	0xbc938d93	-0.018011844
45	0x3d9eb1b0	0.07748735
46	0x3e0fe287	0.14051257
47	0x3eae4a67	0.3404114
48	0x3e62657f	0.2210903
49	0x3c79770e	0.015226139

linears.1.weight f4 [50, 50]
0	0x3e629c34	0.221299
1	0xbcb974ce	-0.022638705
2	0x3d570764	0.052497283
3	0xbdcec629	-0.1009639
4	0x3d4bfdbe	0.049802534
5	0xbc958077	-0.018249733
6	0xbe1b007a	-0.151369
7	0x3da46ebe	0.08028935
8	0xbd4d5033	-0.050125312
9	0x3d078733	0.03308792
10	0xbdbbc3b5	-0.091681875
11	0x3e4d5e9b	0.2005562
12	0x3e12429f	0.14283226
13	0xbda6d2a2	-0.08145644
14	0xbdd14a87	-0.10219293
15	0x3c915bc2	0.017743949
16	0xbe835ef6	-0.25658387
17	0x3c80d92a	0.015728552
18	0x3df57aed	0.11986337
19	0x3e1a9b96	0.15098414
20	0x3e64aafc	0.2233085
21	0x3e6a15d1	0.22859885
22	0xbe96cd2f	-0.29453418
23	0x3c3d8d39	0.011569315
24	0xbe1be95b	-0.15225737
25	0xbc199b93	-0.009375471
26	0x3e8ce730	0.27520132
27	0xbd6e79fe	-0.05822181
28	0x3e840a74	0.25789225
29	0xbea6f22f	-0.32606646
30	0xbe4a61bd	-0.19763847
31	0x3e9a27bd	0.30108443
32	0x3c798c45	0.015231197
33	0x3d5702cc	0.0524929
34	0x3d30207a	0.042999722
35	0xbc5a4cd9	-0.013323986
36	0x3e4087d8	0.1880182
37	0x3e588802	0.21145633
38	0x3c0acf93	0.008472341
39	0xbd56611c	-0.052338704
40	0xbe79369a	-0.24337235
41	0xbe726912	-0.23672894
42	0xbe88c9ef	-0.26716563
43	0xbebb3262	-0.36561877
44	0x3dc084b6	0.094003126
45	0x3d26d3ed	0.040729452
46	0x3e25439c	0.16139072
47	0xbd9a1329	-0.07523186
48	0x3d50aa4d	0.05094366
49	0x3da22098	0.07916373
50	0xbcf7518b	-0.03019025
51	0x3ea43ffd	0.3208007
52	0x3e4d66d7	0.20058762
53	0xbe2a26f2	-0.16616419
54	0xbe95b121	-0.292367
55	0xbdea6af1	-0.11446179
56	0xbc968275	-0.018372754
57	0xbf0c8405	-0.54888946
58	0x3ca968b0	0.020679802
59	0xbe91b728	-0.2846005
60	0x3d64ce21	0.055860642
61	0xbd6a4f9e	-0.057204835
62	0x3ce9c381	0.028535606
63	0xbd06d1ab	-0.0329148
64	0xbda9324e	-0.08261548
65	0xbdf8bc28	-0.12145263
66	0x3dc208f9	0.09474368
67	0x3dfed969	0.124438114
68	0x3eddc2c0	0.43312645
69	0xbd066f20	-0.03282082
70	0x3e1492e3	0.14509158
71	0xbe31d209	-0.17365278
72	0xbd984c87	-0.074364714
73	0x3e986c9e	0.29770368
74	0x3e8b1c71	0.27170137
75	0x3eae70b0	0.3407035
76	0xbd7f1588	-0.062276393
77	0xbe4b9500	-0.19881058
78	0x3e004c3d	0.12529083
79	0xbbefcb84	-0.007317962
80	0x3e379bef	0.17930578
81	0xbee0593c	-0.4381808
82	0xbd1e445a	-0.038639404
83	0xbda6fb30	-0.08153379
84	0xbb4d6891	-0.0031342844
85	0x3e015ed3	0.12633829
86	0xbddbd9f6	-0.10734932
87	0x3db6dd4c	0.08928928
88	0x3ea758e4	0.32685006
89	0xbea7d504	-0.32779706
90	0x3e7ea12d	0.24866171
91	0x3d202975	0.039102037
92	0x3e80e0e2	0.25171572
93	0xbe14d4f1	-0.14534356
94	0xbea5f733	-0.3241516
95	0xbe3be067	-0.18347321
96	0xbd51e1be	-0.051240675
97	0xbe88ebb0	-0.26742315
98	0xbc9e56fe	-0.01932859
99	0x3c973d08	0.01846172
100	0x3e05330a	0.13007751
101	0x3e66cb7a	0.22538558
102	0xbe5203ff	-0.20509337
103	0x3df88640	0.12134981
104	0xbdbcc12b	-0.09216531
105	0x3ed160ff	0.40894315
106	0x3daeaffd	0.08529661
107	0xbd59f5a4	-0.053212777
108	0x3dc8bd5c	0.098017424
109	0x3e0c8c58	0.13725412
110	0xbdbd91a6	-0.09256296
111	0x3d728a4e	0.05921393
112	0x3d964939	0.07338185
113	0x3d94d460	0.0726707
114	0x3db5eff3	0.08883657
115	0xbea44e99	-0.32091215
116	0x3e69c94f	0.228307
117	0xbd6aeb8f	-0.057353552
118	0xbee6c9a9	-0.4507573
119	0xbe4be287	-0.19910632
120	0xbda6bf47	-0.08141952
121	0x3d8c0898	0.06837577
122	0x3d74e900	0.05979252
123	0xbb72d6fd	-0.0037054413
124	0x3e6540aa	0.22387949
125	0xbdb77a29	-0.08958847
126	0x3d212703	0.039343845
127	0x3cd1eee3	0.025626605
128	0x3e4e0dfc	0.20122522
129	0xbcc2adef	-0.023764579
130	0x3e18c6a8	0.14919531
131	0xbc845d9e	-0.016157921
132	0x3d04c9e6	0.032419108
133	0x3def4ebc	0.11684939
134	0xbe313d10	-0.1730845
135	0x3d0a86da	0.03382001
136	0x3ae60039	0.0017547674
137	0xbce509bc	-0.027958743
138	0xbd462699	-0.048376653
139	0x3cf3bc07	0.029752744
140	0xbe6d831a	-0.23194543
141	0x3e132bbe	0.14372155
142	0x3ebbd977	0.3668935
143	0x3e008f94	0.1255477
144	0xbdddf568	-0.10837823
145	0xbd3aea03	-0.045633327
146	0x3d5b03d9	0.053470466
147	0xbd107f14	-0.03527744
148	0x3cb02855	0.021503607
149	0x3b908368	0.004410196
150	0x3e144614	0.14479858
151	0x3dd49d15	0.103815235
152	0x3d4cc0b5	0.049988467
153	0xbdcd9cd0	-0.10039675
154	0xbd4b8836	-0.049690448
155	0x3e203772	0.1564615
156	0xbdcaa0f6	-0.09893982
157	0xbe9a9666	-0.3019287
158	0xbd49d718	-0.049277395
159	0xbe49048a	-0.19630638
160	0x3c909027	0.017646862
161	0xbbfe23c8	-0.0077557303
162	0x3e3b36fc	0.18282694
163	0xbe45bfdc	-0.1931147
164	0x3eaa5570	0.3326831
165	0xbe92756e	-0.28605217
166	0x3e13a730	0.14419246
167	0xbd265622	-0.040609486
168	0xbdb563a3	-0.08856895
169	0xbea39efc	-0.31957233
170	0xbdfd3070	-0.12362754
171	0xbe02c6e0	-0.12771177
172	0xbd5c3423	-0.05376066
173	0x3e0e045a	0.13868847
174	0x3e65b754	0.22433215
175	0x3e0e7b23	0.1391416
176	0xbe5e23a5	-0.21693285
177	0xbda1276e	-0.07868849
178	0xbdbf63df	-0.09345221
179	0x3d306d93	0.043073248
180	0xbe747493	-0.23872595
181	0xbda112e8	-0.07864934
182	0xbd94b737	-0.07261508
183	0xbdc0f477	-0.09421628
184	0xbb30db20	-0.0026986077
185	0xbe978754	-0.29595435
186	0x3e076caf	0.13225053
187	0xbd6d21d7	-0.0578936
188	0x3e2c29c4	0.16812807
189	0xbdb0bf2a	-0.08630212
190	0x3cc50981	0.024052383
191	0x3eb02c84	0.34408963
192	0xbb4257f9	-0.0029654487
193	0xbc9c4b6d	-0.019078935
194	0x3e4f0b59	0.20219173
195	0x3d6f4ff9	0.058425877
196	0xbd817365	-0.06320838
197	0x3d50069d	0.050787557
198	0x3e7f22d7	0.24915634
199	0x3da421ce	0.0801426
200	0xbd6129de	-0.05497157
201	0x3e17756a	0.14790884
202	0x3b2f5350	0.002675254
203	0xbdcf82e1	-0.10132385
204	0xbdfab893	-0.12242236
205	0xbd3e3fac	-0.04644744
206	0xbd497770	-0.04918617
207	0xbed36238	-0.41285872
208	0x3c8813df	0.016611038
209	0x3d90828e	0.07056151
210	0xbcf07699	-0.029353427
211	0xbe229e33	-0.1588066
212	0xbe623d9a	-0.22093812
213	0x3e03b630	0.12862468
214	0xbe20e53b	-0.15712444
215	0x3db91d48	0.09038788
216	0x3d3cd76c	0.04610388
217	0x3e03c948	0.12869751
218	0x3e2b9260	0.16755056
219	0x3d9b4868	0.0758217
220	0x3e3adc3b	0.18248074
221	0x3cc2fdde	0.023802694
222	0xbdb7cfde	-0.089751944
223	0x3e94e33f	0.29079625
224	0xbebac9c4	-0.3648206
225	0xbda0a6c1	-0.07844306
226	0x3dd513f9	0.104042
227	0x3e7b55f7	0.24544512
228	0x3db8d961	0.09025837
229	0x3c510cd5	0.012759407
230	0x3c8570eb	0.016289195
231	0x3e836399	0.25661924
232	0x3ef26208	0.47340417
233	0x3c5bc981	0.0134147415
234	0x3dcd789b	0.10032769
235	0x3db2185c	0.086960524
236	0xbe3bf998	-0.18356931
237	0x3d480f96	0.04884299
238	0xbea02ace	-0.31282657
239	0x3b8d46bb	0.0043114102
240	0x3e2aee57	0.16692482
241	0x3c62367b	0.0138069345
242	0xbe91785a	-0.28412133
243	0xbe89a4f0	-0.2688365
244	0x3e8a5ed5	0.27025476
245	0x3e00d33f	0.12580584
246	0xbc8ed03b	-0.017433276
247	0xbdaa7bb9	-0.083243795
248	0xbc42f190	-0.011898413
249	0xbe124046	-0.14282331
250	0xbdbf487f	-0.093399994
251	0x3da23a2f	0.07921254
252	0x3e87e001	0.2653809
253	0x3dad8df8	0.08474344
254	0xbdcfe1a6	-0.10150461
255	0xbde59797	-0.11210554

linears.1.bias f4 [50]
0	0x3c965ee4	0.018355794
1	0x3d3120b7	0.04324409
2	0xbd175685	-0.036947746
3	0x3bc0e8e5	0.005887138
4	0x3d700b1a	0.058604337
5	0xbd186ed7	-0.03721508
6	0x3dce1c94	0.100640446
7	0x3de709cd	0.11281166
8	0xbce10191	-0.027466567
9	0xbb4536f3	-0.0030092567
10	0x3d2ca5f5	0.042150456
11	0xbc0c2fc5	-0.008556311
12	0x3b70253b	0.0036643285
13	0xbd501a77	-0.05080649
14	0xbe1c0fc7	-0.15240394
15	0xbd97e7ad	-0.074172355
16	0xbd16963b	-0.036764365
17	0x3cfdaeac	0.03096708
18	0x3d6b5e51	0.057462994
19	0x3bd8d427	0.0066170874
20	0x3cd3a49b	0.025835326
21	0xbc5a33c8	-0.01331801
22	0x3d53f7f7	0.05175015
23	0x3c832f63	0.016013807
24	0xbc6b53ad	-0.014363212
25	0x3d5afc0f	0.053463038
26	0xbda49a21	-0.0803721
27	0xbc4b8cc9	-0.0124237025
28	0xbd084ae4	-0.033274546
29	0x3d4dcc0c	0.050243422
30	0x3d8d6838	0.06904644
31	0x3da6f2e4	0.081517965
32	0x3d592904	0.05301763
33	0x3d08dc50	0.03341323
34	0xbde9e21a	-0.114200786
35	0xbc6382d5	-0.013886173
36	0xbe4e9372	-0.20173433
37	0xbd3ca92e	-0.04605978
38	0xbde2c16d	-0.11072049
39	0x3c4b65e3	0.012414428
40	0xbeba9998	-0.36445308
41	0x3db5b923	0.08873203
42	0x3dcca920	0.099931955
43	0xbcd89f85	-0.026443252
44	0x3c2a484e	0.010393215
45	0x3d042cc4	0.032269254
46	0x3d5cb30d	0.053881694
47	0xbc56ec6b	-0.01311789
48	0x3d71e893	0.05905969
49	0x3de6e2f7	0.11273759

linears.2.weight f4 [50, 50]
0	0xbf37a27e	-0.7173232
1	0x3e739293	0.23786382
2	0x3e606339	0.2191285
3	0x3f047467	0.51740116
4	0xbc678137	-0.014129928
5	0x3d90d24b	0.0707136
6	0xbdbb3f2b	-0.09142908
7	0xbd3aeec1	-0.04563785
8	0xbf307417	-0.6892714
9	0x3c889e47	0.016677035
10	0x3e8ca08a	0.27466232
11	0x3e1b4db3	0.15166359
12	0x3d671cfe	0.056424133
13	0x3d76044d	0.060062695
14	0x3e05ff2a	0.13085619
15	0x3df83726	0.12119894
16	0xbe9ace50	-0.3023553
17	0xbda983a8	-0.082770646
18	0x3d6e89f2	0.058237024
19	0x3bfdd49c	0.0077462923
20	0x3eddee6b	0.4334596
21	0xbe58e7cb	-0.21182172
22	0xbdbcd7e0	-0.092208624
23	0xbbc65b08	-0.0060533322
24	0xbecdfc27	-0.4023144
25	0x3d3cc7f0	0.046089113
26	0x3d04e01c	0.03244029
27	0xbe1f1fa6	-0.15539417
28	0xbefa3b06	-0.48873156
29	0xbd8bc659	-0.06824941
30	0x3e0cde6b	0.1375672
31	0x3e53e667	0.2069336
32	0xbe0fd35b	-0.1404547
33	0x3e86cb42	0.26326948
34	0xbd5b346b	-0.053516787
35	0x3f2a2c8c	0.66474223
36	0xbec38f23	-0.38195142
37	0xbd40e627	-0.04709449
38	0x3f52c251	0.82327753
39	0x3d81fbec	0.063468784
40	0xbdde463b	-0.10853239
41	0xbe48e3e0	-0.19618177
42	0xbea3efe9	-0.32018974
43	0xbe38514a	-0.1799976
44	0xbe063b45	-0.13108547
45	0xbdcdc909	-0.1004811
46	0xbe10e052	-0.14148071
47	0xbe31340a	-0.17305008
48	0x3ec61a59	0.38691977
49	0x3bfeb9bd	0.0077736066
50	0xbbd61546	-0.0065332977
51	0xbdd9e02b	-0.1063846
52	0x3d2f81dc	0.042848453
53	0xbb988ecd	-0.004655695
54	0xbdf81936	-0.121141836
55	0x3e9988fa	0.29987317
56	0x3d3e1815	0.046409685
57	0xbe01c700	-0.12673569
58	0x3b4045a5	0.0029338386
59	0x3e81a7c9	0.25323322
60	0xbe134cc5	-0.14384754
61	0xbd69a93c	-0.05704616
62	0xbf209bcd	-0.62737733
63	0x3e3923ea	0.18080106
64	0x3d986774	0.07441607
65	0x3c43de5d	0.011954871
66	0xbbbc7191	-0.005750843
67	0x3d52f766	0.05150547
68	0x3da800f8	0.0820331
69	0x3dce4264	0.10071257
70	0xbc2bbaa0	-0.010481507
71	0xbdf8041c	-0.12110159
72	0x3e37ac2b	0.1793677
73	0x3e0a49ea	0.13504758
74	0x3e2827c8	0.16421425
75	0x3caf6646	0.021411072
76	0xbc8c559c	-0.017130665
77	0xbe374b8f	-0.17899917
78	0xbe28df20	-0.16491365
79	0x3cb0e054	0.021591343
80	0xbe86e4fb	-0.26346573
81	0xbdc5ef39	-0.09664769
82	0xbe241307	-0.16022883
83	0x3ed6b5ed	0.41935673
84	0xbcaac97f	-0.020848034
85	0xbda242f7	-0.07922929
86	0x3e2afdc0	0.1669836
87	0x3d77e39f	0.06051981
88	0x3e882914	0.2659384
89	0x3d6df425	0.058094162
90	0x3e5885d9	0.21144809
91	0x3dc6ccef	0.09707057
92	0xbeb11b73	-0.34591255
93	0xbc4f2bab	-0.012644689
94	0xbd3fefb4	-0.046859458
95	0xbd7b3c94	-0.06133707
96	0x3e477e8a	0.19481865
97	0x3d192ab6	0.037394248
98	0x3e23f053	0.16009645
99	0x3d17b4e1	0.037037734
100	0xbc750519	-0.014954829
101	0x3dbe4656	0.09290759
102	0x3d23840b	0.039920848
103	0xbe334cc4	-0.17509753
104	0x3d9a60c1	0.075379856
105	0x3d6410e0	0.055680156
106	0xbe82826a	-0.25490123
107	0x3e1fcc8b	0.1560537
108	0xbe9a8d7a	-0.30186063
109	0xbe80048d	-0.25003472
110	0x3d0cea84	0.03440334
111	0xbe5fa5f8	-0.21840656
112	0xbe21e518	-0.15810049
113	0xbd93a115	-0.07208458
114	0x3e100698	0.14065015
115	0x3e013641	0.12618352
116	0xbd175c0b	-0.036953013
117	0x3c15a40f	0.009133353
118	0x3e3928dd	0.18081994
119	0x3e1378b4	0.14401513
120	0x3ca7e223	0.020493573
121	0xbdf73625	-0.12070874
122	0x3d5fe11e	0.054658048
123	0xbd8d2af3	-0.068929575
124	0x3e9e3765	0.30901638
125	0xbdc549b5	-0.09633199
126	0xbe024010	-0.1271975
127	0xbd962e98	-0.07333106
128	0xbceae006	-0.028671276
129	0xbd030511	-0.031987254
130	0xbe155153	-0.14581804
131	0x3c68dd49	0.014212915
132	0xbe027778	-0.12740886
133	0xbe3e1e05	-0.18566139
134	0x3e999b94	0.3000151
135	0x3f24e721	0.64415175
136	0x3d52af7f	0.051436897
137	0x3e7594f1	0.23982598
138	0x3e7f626d	0.2493989
139	0xbe00a220	-0.12561846
140	0x3dbc2e31	0.09188498
141	0xbd7f4256	-0.062319122
142	0xbdfccb1b	-0.12343427
143	0x3d7583c5	0.05994012
144	0x3e73d626	0.2381216
145	0x3c94369f	0.018092452
146	0x3e1ce2f9	0.15320958
147	0x3cd7d198	0.02634506
148	0xbd07d7c0	-0.03316474
149	0xbf03ea34	-0.5152924
150	0x3e77d648	0.24202836
151	0xbb52803f	-0.0032119898
152	0xbdba747c	-0.09104249
153	0x3ca9dfc1	0.020736577
154	0xbe059be4	-0.13047749
155	0xbdf99df5	-0.12188331
156	0x3ce4a680	0.027911425
157	0x3c8a4b94	0.016881742
158	0x3c31460a	0.010819921
159	0x3d9a4358	0.07532376
160	0x3e134f0c	0.14385623
161	0x3deeac55	0.116539635
162	0xbe0774d2	-0.13228157
163	0xbdea8be6	-0.11452465
164	0xbd6b31e9	-0.057420645
165	0xbe545523	-0.20735602
166	0xbdaa4df0	-0.08315647
167	0x3e218662	0.15773919
168	0x3dc104f5	0.094247736
169	0x3d2d6ebb	0.04234193
170	0x3e6da19c	0.2320618
171	0x3d1e2ac2	0.038614996
172	0x3df0189e	0.11723445
173	0x3cc245af	0.023714868
174	0xbdcf3d2f	-0.10119092
175	0x3e035e77	0.12829004
176	0xbe93b623	-0.28849897
177	0x3c08e3d0	0.008355096
178	0x3d4da72a	0.05020825
179	0x3da973a9	0.082740135
180	0xbe891cc6	-0.26779765
181	0x3e1f16dc	0.15536064
182	0xbe0aefcb	-0.13568036
183	0x3cd84581	0.02640033
184	0x3e0ff35e	0.14057681
185	0x3d534a1a	0.05158434
186	0x3d38d7ad	0.04512756
187	0xbda2b03c	-0.0794377
188	0x3e819698	0.25310206
189	0xbe80d1e0	-0.25160122
190	0x3de7d194	0.11319271
191	0xbd366926	-0.04453387
192	0x3e80c421	0.25149634
193	0xbd5fabf2	-0.05460734
194	0xbd3002f0	-0.04297155
195	0x3babb295	0.0052397945
196	0x3e096f9c	0.13421482
197	0x3e584991	0.21121813
198	0xbe5a1f50	-0.21301007
199	0x3de082d6	0.10962455
200	0x3d02d518	0.031941503
201	0xbd1e6c7e	-0.038677685
202	0xbd875b7f	-0.06609248
203	0xbe9fcf1f	-0.31212708
204	0xbd7afd49	-0.061276708
205	0xbd2c6dde	-0.042096965
206	0x3d8acfdc	0.06777927
207	0xbe36668c	-0.17812556
208	0x3e467d47	0.19383727
209	0xbe1460b3	-0.14490013
210	0x3cb1d912	0.021709953
211	0x3e024a9c	0.12723774
212	0x3e54b947	0.20773803
213	0xbe1c63a8	-0.15272391
214	0x3e5ba23d	0.21448608
215	0x3cedb83e	0.029018518
216	0x3db4a00c	0.08819589
217	0xbd72f7cc	-0.05931835
218	0xbe8dd73b	-0.2770327
219	0xbd73c210	-0.059511244
220	0xbdbcd7fe	-0.09220885
221	0xbc87064b	-0.016482493
222	0x3ca9f0a8	0.020744637
223	0xbd134365	-0.035952944
224	0xbde99d4b	-0.114069544
225	0xbe25221f	-0.16126297
226	0xbe7005fc	-0.23439783
227	0x3d731e24	0.059354916
228	0xbdab24ef	-0.08356654
229	0x3dc38c16	0.09548204
230	0xbe834491	-0.2563825
231	0xbe467824	-0.19381768
232	0x3e0209e3	0.12699084
233	0xbd7f7dd3	-0.062375855
234	0x3db685c8	0.089122355
235	0xbe942dcd	-0.28941193
236	0x3d80dc0b	0.0629197
237	0x3daa4f06	0.08315854
238	0xbe9ea9b2	-0.30988842
239	0x3e405ebe	0.18786141
240	0xbe4478bb	-0.1918668
241	0x3dfb14b9	0.12259812
242	0x3c88b36e	0.016687121
243	0x3e09b333	0.13447265
244	0xbc99c519	-0.018770741
245	0xbcbed1f8	-0.02329348
246	0x3b592fe8	0.0033140127
247	0x3e4531f6	0.1925734
248	0xbe7acbbf	-0.24491785
249	0xbd98bf42	-0.074583545
250	0xbe1b3e43	-0.1516047
251	0x3ecadcf6	0.39621705
252	0x3d971fc5	0.073791064
253	0x3e766173	0.24060611
254	0x3d4ab52e	0.049489193
255	0x3e5b0f34	0.21392518

linears.2.bias f4 [50]
0	0x3ca4ce29	0.020117836
1	0x3c9aac73	0.018881058
2	0x3c5c14dd	0.013432709
3	0x3d36439f	0.044498082
4	0xbd75ec6a	-0.060039915
5	0x3d779bb6	0.060451232
6	0x3d44d3df	0.04805362
7	0xbda357da	-0.07975741
8	0xbd8dcc0e	-0.06923686
9	0x3d370a23	0.0446874
10	0xbd40e097	-0.047089186
11	0xbdb9ab07	-0.09065824
12	0xbd9037c9	-0.0704189
13	0x3d4348f6	0.047677003
14	0x3caf373d	0.021388644
15	0xbd0c7854	-0.03429444
16	0xbd30e5bb	-0.043187838
17	0x3d3f4457	0.046696033
18	0xbc904c5f	-0.017614542
19	0x3d3d9cef	0.04629224
20	0x3d6f7839	0.058464263
21	0xbccacd04	-0.024755962
22	0xbdb4e860	-0.088333845
23	0x3bd5cf20	0.0065249354
24	0x3e98290c	0.29718816
25	0x3dc118ca	0.09428556
26	0x3d88e23c	0.06683776
27	0xbca67d44	-0.020323403
28	0x3d846c97	0.06466024
29	0x3e2595f7	0.16170488
30	0xbd60f7e4	-0.054923907
31	0xbcd29ae9	-0.025708633
32	0x385cf6f8	5.2682095e-05
33	0x3ca56cd9	0.020193504
34	0xbd59dcf8	-0.053189248
35	0xbd4e279b	-0.05033074
36	0x3c5a17c5	0.013311331
37	0xbd79d0b8	-0.060990065
38	0xbcee9dc8	-0.02912797
39	0xbdaaa46c	-0.08332142
40	0x3d36dd83	0.044644844
41	0x3d97718e	0.07394706
42	0xbdb7dd95	-0.0897781
43	0xbd7cd01a	-0.0617219
44	0xbd3a9319	-0.04555044
45	0x3d5570b6	0.052109443
46	0x3d2f2f0e	0.042769484
47	0xbdd124d6	-0.10212104
48	0x3d15fc24	0.036617413
49	0xbb7c4fd7	-0.0038499737

linears.3.weight f4 [50, 50]
0	0xbc3073fb	-0.010769839
1	0x3e9a2489	0.30106
2	0xbe99e44c	-0.3005699
3	0xbe4b8afa	-0.19877234
4	0xbdae4ade	-0.085103735
5	0xbda26d2a	-0.07930978
6	0x3aaf771a	0.0013386935
7	0x3e08210a	0.13293853
8	0x3d87eb1f	0.06636643
9	0xbea4f897	-0.3222091
10	0x3d2a900a	0.041641273
11	0x3de78fe6	0.11306743
12	0xbdcb2156	-0.09918468
13	0x3c3cdc9f	0.01152721
14	0x3e32a0f9	0.17444219
15	0x3e48acce	0.1959717
16	0x3bc1f352	0.0059188986
17	0x3d57d0aa	0.052689232
18	0xbe59b043	-0.21258645
19	0xbd73bf14	-0.0595084
20	0x3d8413d1	0.06449092
21	0x3e74baf1	0.23899437
22	0xbdc626dd	-0.09675381
23	0xbe1f5882	-0.15561107
24	0xbd07294c	-0.03299837
25	0xbd5187ef	-0.051155027
26	0x3d806bec	0.062705845
27	0xbd9426dd	-0.07233975
28	0xbe4a02d5	-0.19727643
29	0xbe26b131	-0.1627853
30	0x3e073184	0.13202482
31	0x3dc20a4f	0.094746225
32	0xbe82e36a	-0.25564128
33	0xbdfde5d8	-0.12397355
34	0x3e806439	0.25076464
35	0x3c945ef6	0.018111687
36	0xbc1dfc72	-0.009642707
37	0x3df9674e	0.12177907
38	0x3eaf6a56	0.34260815
39	0x3e1a96d1	0.15096594
40	0xbdc61d2e	-0.09673534
41	0x3cd532ce	0.026025202
42	0xbcd7a3c6	-0.02632321
43	0x3e587641	0.2113886
44	0xbdce5839	-0.10075421
45	0xbe1ef24c	-0.15522116
46	0x3e2ce013	0.16882353
47	0x3cd5e01b	0.026107838
48	0xbde06804	-0.109573394
49	0x3e8edb3d	0.2790164
50	0x3f24644d	0.64215547
51	0x3e24432c	0.16041249
52	0x3e7ae8b5	0.24502833
53	0xbdd7c74a	-0.10536058
54	0xbe164688	-0.14675343
55	0x3e8d4a8f	0.27595946
56	0x3e147550	0.14497876
57	0x3dba9d5d	0.09112046
58	0x3d03ba40	0.032160044
59	0xbda73c2f	-0.08165776
60	0xbe5dccd8	-0.21660173
61	0xbc95980c	-0.018260978
62	0x3dc581c3	0.09643891
63	0x3e1773d0	0.14790273
64	0xbc5228a2	-0.01282707
65	0x3e7bff6d	0.24609156
66	0x3d62c568	0.055364043
67	0xbc560ca0	-0.0130645335
68	0x3c4505cc	0.012025308
69	0xbe25726a	-0.16156927
70	0x3e03869f	0.12844323
71	0xbd8797cd	-0.066207506
72	0x3d8d5fa5	0.06903008
73	0xbec515ab	-0.38493094
74	0xbea1d256	-0.31605786
75	0xbe3e346e	-0.18574688
76	0xbde181e3	-0.11011102
77	0xbe6c7cd4	-0.23094493
78	0xbd1b6848	-0.037941247
79	0xbd9a3ec1	-0.075315006
80	0x3de6c12b	0.112673126
81	0x3e134bc4	0.14384371
82	0xbe6a74cd	-0.22896118
83	0xbe377986	-0.17917451
84	0x3d08a027	0.03335586
85	0xbe908399	-0.282254
86	0xbe46b54d	-0.19405098
87	0x3d07011a	0.032960035
88	0xbd7ceb31	-0.061747734
89	0xbe166e6b	-0.14690559
90	0x3e8f6a80	0.2801094
91	0xbea10568	-0.31449437
92	0x3db14555	0.08655802
93	0x3db0aea9	0.08627064
94	0xbea494b1	-0.32144693
95	0x3e198bab	0.14994685
96	0xbd27dde0	-0.04098308
97	0x3e71b95c	0.23605865
98	0x3e1a10fe	0.15045545
99	0xbcd2db7f	-0.02573943
100	0xbef7f016	-0.4842536
101	0x3e094120	0.1340375
102	0x3e69af26	0.2282072
103	0xbe510c52	-0.20414856
104	0xbd9348b9	-0.07191605
105	0x3e779c5a	0.24180737
106	0x3df8e937	0.12153857
107	0xbd28f6fe	-0.041251175
108	0x3df4e0a0	0.11956906
109	0x3e145e47	0.14489089
110	0xbe103c21	-0.14085437
111	0xbdc58e0a	-0.096462324
112	0xbdbd1d3c	-0.09234092
113	0xbe0c7b66	-0.13718948
114	0xbb48a632	-0.0030616638
115	0x3e3331da	0.17499486
116	0xbd1a2800	-0.037635803
117	0xbe6753b4	-0.22590524
118	0xbe47ca8f	-0.19510864
119	0xbe20dbe5	-0.15708883
120	0xbd842c82	-0.06453802
121	0xbeb9b3b7	-0.36269924
122	0xbcf89d64	-0.030348487
123	0xbdb40c19	-0.0879137
124	0x3b9bead9	0.0047582206
125	0x3bcade98	0.006191086
126	0x3cba10d9	0.022713112
127	0xbdc5b4c5	-0.0965362
128	0x3e0a80fd	0.13525768
129	0x3d0b5b16	0.034022413
130	0x3ccfbfd6	0.02536003
131	0xbe171560	-0.14754248
132	0x3dc40f92	0.09573282
133	0xbe30cc86	-0.1726552
134	0xbd9b03aa	-0.07569058
135	0xbd8f2569	-0.06989557
136	0x3b1a05a2	0.0023501893
137	0xbe7da0bb	-0.24768345
138	0x3b9e0222	0.0048220316
139	0xbe2e5d18	-0.170277
140	0xbc7d9ed5	-0.015479763
141	0xbe1a5ccc	-0.15074462
142	0x3d808d0a	0.06276901
143	0xbe28dd81	-0.16490747
144	0x3d53c6cc	0.05170326
145	0x3bdc3e87	0.006721321
146	0xbdc36e68	-0.09542543
147	0xbdbf3968	-0.09337121
148	0xbdb9c9df	-0.09071707
149	0xbe0ed271	-0.13947465
150	0x3e0ca4e7	0.1373478
151	0xbe55db90	-0.20884538
152	0xbd0d13de	-0.034442775
153	0x3da17f17	0.078855686
154	0xbe15cde8	-0.14629328
155	0x3dea6cd8	0.114465415
156	0x3d1da1a3	0.038484227
157	0xbdd069d8	-0.10176438
158	0xbe99977f	-0.29998395
159	0x3ec31d2c	0.38108194
160	0x3c100de1	0.0087923715
161	0x3d171f48	0.036895066
162	0x3d939d2d	0.07207713
163	0x3e5de8ce	0.21670839
164	0x3e5949cb	0.21219556
165	0xbcb27ae4	-0.021787114
166	0xbe2a4d01	-0.16630937
167	0x3e1fc07b	0.15600769
168	0x3d7a328f	0.061083373
169	0x3e6c8fe9	0.23101772
170	0x3ea833ef	0.32852122
171	0x3ede9ff3	0.43481407
172	0x3e86a29f	0.26295945
173	0xbe0e7c8d	-0.139147
174	0xbc737e79	-0.014861696
175	0xbdd816d6	-0.105512306
176	0x3ea2a976	0.31769913
177	0xbd1e9470	-0.03871578
178	0xbc81f6e2	-0.015864793
179	0x3d6437de	0.05571734
180	0x3e3e9ee3	0.18615298
181	0xbdf2d7bf	-0.118575566
182	0xbe8d665c	-0.27617157
183	0xbe13a8fa	-0.14419928
184	0xbd71ff53	-0.059081387
185	0x3dbdac3b	0.09261366
186	0x3e3f024a	0.18653217
187	0x3c021127	0.00793866
188	0xbce8daf6	-0.028424721
189	0xbde91cbf	-0.11382436
190	0xbd6d701b	-0.05796824
191	0xbda641ed	-0.08118043
192	0x3dd13b82	0.10216428
193	0xbe27c232	-0.16382673
194	0x3d937d9d	0.07201693
195	0x3d27acf4	0.040936425
196	0xbd0203fd	-0.031742085
197	0xbe79d8da	-0.24399129
198	0xbdc5f397	-0.09665602
199	0x3d98bfb0	0.074584365
200	0x3eff6903	0.49884805
201	0x3deef7e2	0.11668374
202	0x3eb350cf	0.3502259
203	0x3e4755d9	0.19466342
204	0xbf1f4ee0	-0.6222973
205	0x3e055276	0.13019738
206	0x3dce6b24	0.10079029
207	0xbe5ee126	-0.21765575
208	0x3d3a2b0c	0.04545121
209	0x3d85da52	0.06535782
210	0xbe9a0197	-0.30079338
211	0xbd89a34e	-0.06720601
212	0xbe89bcce	-0.2690186
213	0xbe8334a8	-0.2562611
214	0xbd846b68	-0.064657986
215	0xbc7e2119	-0.015510821
216	0x3d268f46	0.04066398
217	0x3e021b05	0.1270562
218	0x3c63e45a	0.013909424
219	0xbe4059df	-0.18784283
220	0x3ea9ae65	0.33140865
221	0xbe9f9cb8	-0.31174254
222	0xbe7ce4c6	-0.24696645
223	0xbe1cb487	-0.1530324
224	0x3d6f8ae0	0.05848205
225	0xbe027f0a	-0.12743774
226	0x3b4baf26	0.0031079738
227	0xbead3280	-0.3382759
228	0xbea80d83	-0.3282281
229	0x3e0e39c2	0.1388922
230	0x3ebc28cf	0.36749884
231	0x3d954a60	0.072895765
232	0xbede8d9a	-0.43467408
233	0xbeb70c99	-0.357518
234	0x3dd6945e	0.104775175
235	0xbe6837eb	-0.22677581
236	0xbe62267c	-0.22084993
237	0xbdc1a285	-0.09454826
238	0x3dad04ab	0.08448156
239	0xbe7000e6	-0.23437843
240	0xbe14663c	-0.14492124
241	0x3d9167a0	0.07099843
242	0xbc5cedda	-0.013484443
243	0xbe0638b5	-0.1310757
244	0xbec7d1a4	-0.3902713
245	0x3e81bd1c	0.25339592
246	0xbe0f2765	-0.13979872
247	0xbe1a71ee	-0.15082523
248	0x3e524b5a	0.20536557
249	0xbd257aed	-0.040400434
250	0x3e23f029	0.16009583
251	0x3e8d05e1	0.27543548
252	0x3e00f7b4	0.12594491
253	0x3e83eb8a	0.2576564
254	0x3dd2ed2f	0.102991454
255	0x3e03862f	0.12844156

linears.3.bias f4 [50]
0	0xbdff393b	-0.12462088
1	0xbc6990e8	-0.01425574
2	0xbd0c2202	-0.03421212
3	0xb9d2b100	-0.00040186197
4	0x3d5dab4e	0.054118447
5	0x3c752578	0.0149625465
6	0x3d10abd9	0.035320137
7	0x3d19dc94	0.037563875
8	0xbc9d334e	-0.019189503
9	0xbcf1a0d8	-0.029495642
10	0xbc63879a	-0.01388731
11	0x3cb05610	0.021525413
12	0xbd4345a4	-0.047673836
13	0xbd345ea7	-0.04403558
14	0xbd85ce22	-0.06533457
15	0xbcb54eda	-0.022132326
16	0x3d04cc64	0.032421485
17	0xbc8076c8	-0.01568164
18	0xbd6418e7	-0.05568781
19	0xbd806477	-0.06269162
20	0x3c661706	0.014043575
21	0x3d327e79	0.043577645
22	0xbd9a43d6	-0.0753247
23	0xba65dee2	-0.0008768869
24	0xbd474f93	-0.048659872
25	0x3d66ab76	0.05631586
26	0x3d096278	0.033541173
27	0x3d019fe9	0.031646643
28	0xbd2a875a	-0.041632988
29	0xbce11213	-0.027474439
30	0x3d4bf537	0.049794402
31	0x3d932752	0.07185234
32	0x3d6f2276	0.058382474
33	0x3cad306f	0.021141259
34	0x3b307629	0.0026925898
35	0xbd6a6254	-0.05722268
36	0x3ccda220	0.025101721
37	0x3d495322	0.049151547
38	0xbdaaa572	-0.083323374
39	0xbcc07004	-0.023490913
40	0x3d7804b0	0.060551345
41	0x3d136ec2	0.0359943
42	0x3d0dc49e	0.034611337
43	0xbcd13505	-0.025537977
44	0xbd029bca	-0.031886853
45	0xbcf0cce5	-0.029394576
46	0xbd8b79a6	-0.06810312
47	0x3d94fa32	0.072742835
48	0xbd398bfd	-0.04529952
49	0xbd3fd5e9	-0.04683486

linears.4.weight f4 [3, 50]
0	0xbdf703d6	-0.120612785
1	0x3e5c6987	0.2152463
2	0xbdac959c	-0.08426973
3	0x3ec48791	0.3838468
4	0x3f6306c9	0.8868223
5	0x3ee5baef	0.44869182
6	0x3ed7465d	0.4204587
7	0xbe7152ca	-0.23566738
8	0xbeae0307	-0.33986685
9	0xbe61faa5	-0.2206827
10	0xbf0346b9	-0.5127979
11	0x3e97a2d1	0.29616407
12	0xbebc39b6	-0.3676278
13	0xbede8947	-0.4346411
14	0xbed402a3	-0.41408262
15	0xbf5f6afc	-0.8727262
16	0xbe4a8221	-0.19776203
17	0xbef7ff91	-0.4843717
18	0xbf02402d	-0.50879174
19	0x3e25769d	0.16158529
20	0xbe2ad53d	-0.16682906
21	0x3ec10c9c	0.37704933
22	0xba5d525a	-0.00084427523
23	0x3e876937	0.2644746
24	0xbea535de	-0.3226766
25	0x3edc69e6	0.43049544
26	0x3d9469b3	0.07246723
27	0x3e29848a	0.16554466
28	0xbe9f2162	-0.31080157
29	0xbe4bbb11	-0.19895579
30	0x3eba8089	0.3642619
31	0x3dd8db2e	0.1058868
32	0x3f73d4d4	0.95246625
33	0x3e27e9cd	0.16397782
34	0x3d95d1e0	0.07315421
35	0xbeaf3ab1	-0.34224465
36	0x3dcfe33c	0.101507634
37	0xbe69de63	-0.2283874
38	0xbefd70aa	-0.49500018
39	0xbe069d6e	-0.13145992
40	0x3d950e74	0.07278147
41	0xbdfaf9fb	-0.12254711
42	0x3f1d98b3	0.61561126
43	0x3db02578	0.086008966
44	0xbf04ede3	-0.51925486
45	0x3cc055cc	0.023478411
46	0xbe990879	-0.29889277
47	0x3f28a72a	0.6588007
48	0xbe897bef	-0.26852366
49	0xbe8bafb7	-0.27282497
50	0x3e74b74e	0.2389805
51	0x3ec9ee78	0.3943975
52	0x3de20b4a	0.110373095
53	0x3e56486a	0.20926061
54	0x3e863370	0.2621112
55	0x3e958586	0.29203433
56	0x3d91d71a	0.071211055
57	0xbd5b09af	-0.053476032
58	0xbeefcf23	-0.4683772
59	0x3e9f7d1a	0.31150132
60	0xbe3bce15	-0.18340333
61	0xbe650e98	-0.22368848
62	0xbe45fb74	-0.19334203
63	0x3e8e141a	0.2774971
64	0x3e2a4994	0.1662963
65	0xbd4fae62	-0.050703414
66	0x3daa5637	0.083172254
67	0xbd74e89a	-0.05979214
68	0x3a1dac5b	0.00060147577
69	0x3db84476	0.08997433
70	0xbe2b759d	-0.16744085
71	0xbe7b06d6	-0.24514326
72	0x3e3ec114	0.18628341
73	0x3e1bb16c	0.152044
74	0x3e98d7f2	0.29852253
75	0x3b9d1208	0.0047934093
76	0x3e95ef21	0.29284003
77	0x3de5654f	0.11200964
78	0x3d467f48	0.04846123
79	0x3e7c726c	0.24653023
80	0xbe4ce274	-0.2000826
81	0xbd49a320	-0.049227834
82	0xbe07f553	-0.13277178
83	0x3e72d8b3	0.23715477
84	0xbed355e0	-0.41276455
85	0xba2d0227	-0.0006599747
86	0xbc900275	-0.017579297
87	0xbd02d71e	-0.031943433
88	0x3e473f80	0.19457817
89	0x3e56efad	0.20989867
90	0xbee96df2	-0.45591694
91	0xbf00e262	-0.5034543
92	0xbdbbf3a1	-0.09177328
93	0x3e4e7f29	0.20165695
94	0xbd0094e9	-0.03139201
95	0x3e90f881	0.28314593
96	0x3e7091c9	0.23493113
97	0xbe3baa22	-0.1832662
98	0xbe291ee1	-0.16515686
99	0x3e41fb37	0.18943487
100	0x3ecd15fe	0.4005584
101	0xba8f2e99	-0.0010923921
102	0xbe10ed24	-0.14152962
103	0xbd172d7a	-0.036908604
104	0xbdccb001	-0.099945076
105	0x3ecf225a	0.40455896
106	0xbd599754	-0.053122833
107	0xbf6514c6	-0.8948482
108	0x3d2e2352	0.042514153
109	0xbf112a18	-0.56704855
110	0xbf1b85e0	-0.6075115
111	0x3e44bb27	0.19212018
112	0x3e767361	0.24067451
113	0x3e973eb3	0.29540023
114	0xbd955e96	-0.072934315
115	0xbe51a010	-0.20471215
116	0xbef4c954	-0.4780985
117	0xbe899de0	-0.26878262
118	0xbed7f401	-0.42178348
119	0x3f39a130	0.7251158
120	0xbb9836e0	-0.0046452135
121	0x3e55ee44	0.20891672
122	0x3db1e773	0.086867236
123	0x3e95822c	0.29200876
124	0x3e2bcb47	0.16776763
125	0xbcfe1d95	-0.031019965
126	0x3dfba775	0.12287799
127	0x3eb19f93	0.34692058
128	0xbd1559af	-0.036462482
129	0xbea82ec2	-0.32848173
130	0x3e23d62b	0.15999667
131	0xbdff0eef	-0.1245402
132	0xbea977e8	-0.33099294
133	0xbede9523	-0.43473157
134	0x3ccb22a7	0.024796797
135	0x3f4ab1b8	0.7917743
136	0x3e975cd9	0.29563025
137	0xbec83e42	-0.3911
138	0x3ee76a26	0.45198172
139	0xbe073ded	-0.13207217
140	0x3c67a8cc	0.014139365
141	0xbe28320e	-0.16425344
142	0x3e68ef17	0.22747456
143	0x3d323e43	0.04351641
144	0x3de48b0c	0.111593336
145	0xbe386a11	-0.18009211
146	0xbd83482e	-0.064102516
147	0xbbbb893c	-0.0057231467
148	0x3f0ed881	0.5579911
149	0x3cf7c728	0.030246332

linears.4.bias f4 [3]
0	0x3cc1ef73	0.023673749
1	0xbd538bb3	-0.0516469
2	0xbe19c73d	-0.1501741

exp_avg f4 [50, 2]
0	0xbc455b00	-0.012045622
1	0xbb7b17f2	-0.0038313833
2	0x3c263a03	0.010145667
3	0x3b064988	0.0020490605
4	0x3bc12626	0.00589444
5	0xba94b95e	-0.0011346748
6	0xbb9dba79	-0.004813489
7	0x3b14bec6	0.0022696718
8	0xbc38e1b8	-0.011284284
9	0xba512312	-0.0007977943
10	0x3c54b51b	0.012982632
11	0x3b8f9992	0.0043823207
12	0x3a8e03bc	0.0010834853
13	0xb9bfad28	-0.0003655937
14	0xbd0f7e1e	-0.035032384
15	0xbc2c86f3	-0.010530221
16	0x3bae1c53	0.005313435
17	0x3aeb939f	0.0017973072
18	0xbb0ca1f2	-0.0021458832
19	0x3ac19b38	0.001477099
20	0x3b8a3e88	0.00421888
21	0xb9b30c51	-0.00034150717
22	0xbc3c7f97	-0.011505029
23	0xbb5a6922	-0.0033326824
24	0x3a0bd301	0.0005333871
25	0x3b550305	0.003250302
26	0x3c136800	0.0089969635
27	0x3b345607	0.0027517097
28	0x3c6eafb9	0.014568263
29	0x3be3c111	0.0069505055
30	0xbc6fcfb7	-0.014636925
31	0xbb278963	-0.0025564067
32	0x3c1d1592	0.009587662
33	0x3b33f4d7	0.0027459168
34	0x3b8faf6b	0.004384925
35	0x3b2b231d	0.0026113458
36	0x3a256552	0.00063093484
37	0xbbb99837	-0.0056638974
38	0xbc920fe3	-0.017829841
39	0xbb6a95e3	-0.0035794906
40	0xba736943	-0.00092853996
41	0xbb3773e5	-0.0027992663
42	0xbbce2d14	-0.006291995
43	0x39285c97	0.00016056221
44	0x3a7d1e2c	0.000965568
45	0x3b297f98	0.0025863405
46	0x3c4b09ab	0.012392442
47	0x3b1ff0bd	0.0024404966
48	0x3c90f26e	0.017693724
49	0x3b452b39	0.0030085577
50	0x3c135f43	0.00899488
51	0x3b5bf6d8	0.0033563878
52	0x3bc2c501	0.005943895
53	0xba54055d	-0.00080879574
54	0x3c3df1bb	0.011593278
55	0x3aa3f171	0.0012507868
56	0xbc87c431	-0.016573044
57	0xba5cc4c2	-0.0008421653
58	0x3c6fd271	0.0146375755
59	0x3b7d4520	0.0038645938
60	0x3bbc6ad8	0.0057500415
61	0x3acbfd83	0.0015563223
62	0xbc267cdb	-0.010161604
63	0xbb3f1c5c	-0.002916119
64	0xbbd35482	-0.006449283
65	0xb97d71b7	-0.00024170322
66	0xbc91db59	-0.017804788
67	0xbb78421f	-0.0037881208
68	0xbc9e8c71	-0.019354077
69	0xbb76c742	-0.0037655388
70	0xbae75f08	-0.0017652223
71	0xbb63123c	-0.003464832
72	0xbc55abe1	-0.013041467
73	0x3ab4a271	0.0013781321
74	0xbc86e49e	-0.016466435
75	0xbb530347	-0.0032197998
76	0x3adeb068	0.0016989829
77	0x397113a2	0.00022990865
78	0x3ba652f9	0.005075809
79	0x3b7ec4c3	0.0038874603
80	0x3bc46f18	0.0059946887
81	0x3b537dc0	0.0032270998
82	0x3ca29721	0.019847455
83	0x3be5092a	0.006989618
84	0x3c9a8868	0.018863872
85	0x3b8d78f9	0.0043173996
86	0x3bf5f732	0.0075062746
87	0x3ba6dd05	0.0050922656
88	0xbb1adf4c	-0.002363163
89	0xbae9a07e	-0.001782432
90	0xbbd55cbd	-0.0065112994
91	0xbb4e6782	-0.00314948
92	0x3bae6b91	0.0053228815
93	0x3b03bfdd	0.0020103373
94	0xbbc83962	-0.006110356
95	0xbb154f62	-0.0022782912
96	0xbaae512f	-0.0013299341
97	0xbb52e827	-0.003218183
98	0xbc1ef6ea	-0.009702424
99	0xbb0f3ded	-0.002185698

exp_avg_sq f4 [50, 2]
0	0x3ce993fa	0.028512944
1	0x3c3522fd	0.011055705
2	0x3c75baf3	0.014998185
3	0x3c03e5e0	0.008050412
4	0x3bdeadbc	0.006795613
5	0x3c2b5ee9	0.01045964
6	0x3b6d0384	0.0036165426
7	0x3c1b388b	0.00947393
8	0x3cbca2f3	0.023026919
9	0x3c8c6ed4	0.01714269
10	0x3cff46da	0.031161714
11	0x3c7f609a	0.015586996
12	0x3aaabb0a	0.0013025713
13	0x3966ca99	0.00022009983
14	0x3e4fb175	0.20282538
15	0x3def039a	0.11670609
16	0x3b99e151	0.0046960493
17	0x3aa74297	0.0012760934
18	0x3b287647	0.0025705264
19	0x3c15c9be	0.009142337
20	0x3b1f79b9	0.0024334027
21	0x3b81e7ae	0.003964386
22	0x3cb24fa6	0.021766495
23	0x3c7915fc	0.015202995
24	0x3abe4a47	0.0014517986
25	0x3ba46c97	0.0050178277
26	0x3c80104a	0.015632767
27	0x3c5e5bc3	0.013571682
28	0x3d2a3e64	0.041563407
29	0x3bedc2d2	0.0072558904
30	0x3d128b3c	0.035777315
31	0x3c851fc8	0.016250506
32	0x3c9d3a46	0.019192826
33	0x3c01c5df	0.007920711
34	0x3b846165	0.0040399306
35	0x3a7f952a	0.0009749705
36	0x3ab45d6d	0.0013760753
37	0x3cdc0360	0.026857078
38	0x3d56715b	0.052354198
39	0x3d08be5e	0.033384673
40	0x3afb02bf	0.0019150599
41	0x3a7ce458	0.0009647063
42	0x3bf3453b	0.0074240244
43	0x3c244568	0.010026313
44	0x3ad12343	0.0015955943
45	0x3b9475f9	0.004530665
46	0x3ccd20d1	0.025040062
47	0x3c6a1060	0.014286131
48	0x3d5dd9f1	0.054162923
49	0x3d349eb1	0.044096652
50	0x3c55aa1e	0.013041047
51	0x3c0b8ee3	0.008517954
52	0x3b81081d	0.0039377348
53	0x3b7e1529	0.0038769937
54	0x3cbec26a	0.023286063
55	0x3c58ddda	0.013236487
56	0x3d39cb5f	0.045359965
57	0x3d4227df	0.047401305
58	0x3d18fe95	0.037352163
59	0x3c983e09	0.018584268
60	0x3baf988a	0.0053587602
61	0x3b6dc524	0.0036280835
62	0x3cb4cfa6	0.02207167
63	0x3c62d44a	0.013844559
64	0x3bd75da3	0.0065724417
65	0x3bdc3dad	0.0067212195
66	0x3d5d8bd4	0.05408843
67	0x3cee306b	0.029075822
68	0x3d81a3c8	0.06330067
69	0x3d25d301	0.040484432
70	0x3a2da8f6	0.00066246034
71	0x3b66d122	0.0035219868
72	0x3cfd2f41	0.030906321
73	0x3d2cb528	0.04216495
74	0x3d3e7e81	0.046507362
75	0x3d142aa6	0.036173485
76	0x3aab6939	0.0013077623
77	0x3a7f4b43	0.0009738693
78	0x3b5cf1bb	0.0033713419
79	0x3b472df0	0.003039237
80	0x3bbc461e	0.0057456633
81	0x3a8be326	0.0010672554
82	0x3d83c9f7	0.06435006
83	0x3ca5d0ec	0.020241223
84	0x3d7ab930	0.061211765
85	0x3cefaf2e	0.029258337
86	0x3c31bf22	0.010848792
87	0x3c40429c	0.011734631
88	0x3b39f95d	0.0028377392
89	0x3aa5ee5a	0.0012659535
90	0x3bdb4d54	0.006692568
91	0x3b39620c	0.00282872
92	0x3b9c4ccf	0.0047698985
93	0x3c3268d7	0.010889254
94	0x3b93faf3	0.0045159995
95	0x3a62196f	0.0008625006
96	0x3b1dea2b	0.0024095874
97	0x3c21130d	0.009831202
98	0x3c8728e3	0.016498988
99	0x3c646866	0.013940906

exp_avg f4 [50]
0	0x3c30c4bf	0.010789095
1	0xbc40e63d	-0.011773643
2	0xbb8d7897	-0.004317354
3	0x3b863320	0.00409545
4	0x3c513403	0.012768748
5	0xbc71f9e8	-0.014769055
6	0x39ca88e4	0.00038630434
7	0x3d2d22bf	0.042269465
8	0xbba40f10	-0.0050066784
9	0x3ba121a7	0.0049173418
10	0xbbbdc83c	-0.005791692
11	0x3c596c85	0.013270502
12	0xbb4a8002	-0.0030899053
13	0xbc48f602	-0.012265684
14	0xbc7c4df5	-0.015399446
15	0x3c75928c	0.014988553
16	0xbc3946b7	-0.011308364
17	0xbbc5e9d8	-0.0060398392
18	0xbb53a5e9	-0.0032294935
19	0x3cb7a0fa	0.022415627
20	0xba2c51cd	-0.00065734686
21	0x3bd8d44b	0.006617104
22	0xb9defdc9	-0.00042532224
23	0xbc7d9304	-0.015476946
24	0xbcb4f6c0	-0.022090316
25	0xbc3ce08c	-0.0115281455
26	0xbbacfa7d	-0.005278884
27	0xbc403ddb	-0.0117334975
28	0x3c80aca2	0.015707318
29	0xbc7d0dab	-0.015445153
30	0xbc068fcb	-0.008212994
31	0x3c704221	0.014664204
32	0x3c2e62cf	0.010643675
33	0x3caa19ef	0.02076432
34	0x3cc26188	0.023728147
35	0x3b2f547d	0.002675324
36	0x3c60a03b	0.013710077
37	0x3c94da38	0.018170461
38	0xbb9e4a8c	-0.004830664
39	0xbb108bac	-0.0022055907
40	0xbba1c546	-0.004936847
41	0xbcb63aca	-0.02224483
42	0xbcad42bb	-0.021149984
43	0xbc3352cb	-0.010945032
44	0x3b971646	0.0046108095
45	0x3c2922e3	0.010323259
46	0xbbde03bc	-0.0067753475
47	0x3b815c24	0.0039477516
48	0x38da8341	0.00010419498
49	0x3c3bc601	0.011460782

exp_avg_sq f4 [50]
0	0x3cb16d8b	0.02165868
1	0x3cbc69f8	0.022999749
2	0x3c3958ed	0.011312705
3	0x3c48f703	0.012265923
4	0x3cf45c67	0.029829217
5	0x3d0e92bd	0.03480791
6	0x3a2deeaa	0.000663499
7	0x3e868952	0.26276642
8	0x3ba88647	0.00514296
9	0x3c5b2e83	0.0133777885
10	0x3bb78068	0.005600024
11	0x3ccfd3f0	0.025369614
12	0x3c1f8b47	0.009737796
13	0x3cba7538	0.022760972
14	0x3d443100	0.047898293
15	0x3d12d44a	0.035846986
16	0x3caabce1	0.020842018
17	0x3c059357	0.008152804
18	0x3cf5f33f	0.030023215
19	0x3d96c026	0.07360868
20	0x3a14c48d	0.00056750403
21	0x3c52354b	0.012830089
22	0x3bb757ce	0.005595184
23	0x3d0e9d3b	0.034817915
24	0x3d9f36e6	0.07774143
25	0x3c98ff95	0.018676559
26	0x3babab5c	0.0052389335
27	0x3cc7452a	0.024324972
28	0x3d5bdb49	0.053675923
29	0x3d10139d	0.035174955
30	0x3c0fc962	0.008776041
31	0x3d0745d9	0.033025596
32	0x3c8b9fe9	0.017044025
33	0x3d830125	0.06396703
34	0x3dab7dc4	0.08373597
35	0x3bd4d16d	0.006494692
36	0x3d4b0ac0	0.0495708
37	0x3d4b900e	0.049697928
38	0x3b533aa1	0.003223099
39	0x3bc255d6	0.0059306426
40	0x3c003931	0.0078261355
41	0x3d94a0b1	0.07257212
42	0x3d8d17c2	0.06889297
43	0x3cb5150d	0.022104764
44	0x3b714570	0.003681507
45	0x3c8dc20e	0.017304447
46	0x3c0df61f	0.008664637
47	0x3b5abc2b	0.0033376317
48	0x3c83f942	0.016110066
49	0x3ca5e176	0.02024911

exp_avg f4 [50, 50]
0	0x3a162aac	0.00057284045
1	0xbaaead03	-0.0013326708
2	0xbac87e89	-0.00152965
3	0xbb244f41	-0.0025071653
4	0x3acb47ee	0.0015509108
5	0xbb4af739	-0.003097011
6	0xbad9d166	-0.0016618192
7	0xbadd3179	-0.0016875706
8	0x3afdfc60	0.0019377582
9	0x3a9686da	0.0011484281
10	0x3b87267b	0.0041244603
11	0xba8cfbb5	-0.0010756167
12	0xbab56cdf	-0.001384165
13	0x3a9306e7	0.0011217267
14	0xbb476b62	-0.0030428995
15	0x3b056915	0.0020356823
16	0xbb415b73	-0.002950397
17	0xbac840c8	-0.0015278095
18	0x3af919f3	0.0019004926
19	0x399e919d	0.000302446
20	0x3b2a49a2	0.002598383
21	0x3b021e8f	0.001985464
22	0xbb557405	-0.0032570374
23	0x3a83d617	0.001005831
24	0xbab03711	-0.0013444145
25	0x39c4b947	0.00037522076
26	0x3b3a735b	0.0028450105
27	0x3af825f5	0.001893221
28	0xbb949f41	-0.004535586
29	0xba264fb1	-0.00063442724
30	0x3a8cb4e3	0.0010735061
31	0x3a924ffb	0.0011162752
32	0x39790fd4	0.00023752387
33	0x3a9b285c	0.001183759
34	0x3abee699	0.0014564573
35	0xba53a15a	-0.00080730545
36	0xbb794b6b	-0.0038039337
37	0xba1aff48	-0.00059126737
38	0xbb069ed8	-0.0020541456
39	0xb81c76aa	-3.7303813e-05
40	0xb944367e	-0.00018712317
41	0x3adc6845	0.0016815743
42	0xbb146597	-0.002264356
43	0x388abef1	6.6159184e-05
44	0x3b5570c3	0.0032568432
45	0x3b006446	0.0019591018
46	0x3b83a72a	0.0040177302
47	0xbb3c8f0e	-0.002877179
48	0x38000242	3.051968e-05
49	0xbb740e05	-0.0037239802
50	0xba6252fd	-0.0008633582
51	0x3aa0369f	0.001222331
52	0x3a512e8b	0.0007979653
53	0x3b43f99e	0.0029903422
54	0xbaaf1daa	-0.0013360281
55	0x3b55a137	0.0032597312
56	0x3aba7504	0.0014225547
57	0x3b4f8fe3	0.0031671457
58	0xba4e8f4d	-0.000787963
59	0xb8b3ef49	-8.5799555e-05
60	0xbb6508f6	-0.0034947968
61	0x3a9136c1	0.001107894
62	0x3b0f463d	0.0021861934
63	0xbad2534a	-0.0016046551
64	0x3bbe2481	0.0058026914
65	0xbb478c4e	-0.0030448618
66	0x3b4a771d	0.003089375
67	0x3ae2b75b	0.0017297076
68	0xbba311d2	-0.0049764896
69	0xba1aa8a9	-0.0005899766
70	0xbb7a2d8b	-0.0038174118
71	0xbab62b1e	-0.0013898348
72	0x3b9f99c0	0.0048706234
73	0xba785964	-0.00094737695
74	0x3a9e5f80	0.0012082905
75	0xb918f220	-0.00014586048
76	0xbb051370	-0.0020305775
77	0xbb219b82	-0.002465934
78	0x3b954a30	0.004555963
79	0x3aadff6f	0.0013274978
80	0xb9b51884	-0.00034541276
81	0xbaac1e73	-0.0013131633
82	0xba3c6fc6	-0.00071882864
83	0xbaae3255	-0.0013290147
84	0xbae48570	-0.0017434787
85	0x39e6ce7d	0.00044022864
86	0x3b8e3902	0.004340292
87	0x3a2cd3ec	0.0006592858
88	0x3b02653a	0.0019896762
89	0x3b4973ce	0.003073919
90	0x3ad50706	0.0016252703
91	0xbadec284	-0.0016995226
92	0x3b39206a	0.002824808
93	0x3a3fc07d	0.0007314755
94	0xbb567d23	-0.0032728396
95	0xbb29488a	-0.002583059
96	0xbba712ab	-0.005098661
97	0x3a9d68dc	0.00120094
98	0xbac6e377	-0.0015173991
99	0x3b74130e	0.0037242803
100	0xba157bb4	-0.0005702332
101	0x3a0647df	0.0005122404
102	0x3a42efc1	0.0007436239
103	0x3aa6ddc6	0.0012730889
104	0xba1a6cb6	-0.0005890833
105	0x3ac1848d	0.0014764235
106	0x3a4e270e	0.0007864096
107	0x3a5f3d1c	0.0008515881
108	0xb9ed6414	-0.00045278727
109	0xb941e9b3	-0.00018492974
110	0xbafc7d51	-0.0019263421
111	0x3a2d90ef	0.0006621023
112	0x3a454c48	0.00075263204
113	0xba51059d	-0.0007973554
114	0x3b021b18	0.0019852575
115	0xba906df2	-0.0011019094
116	0x3aad6c20	0.0013231076
117	0x3a38cf3a	0.0007049922
118	0xbae14c65	-0.0017188905
119	0xb88b54d8	-6.64384e-05
120	0xbab1ed17	-0.0013574687
121	0xba35ca00	-0.00069347024
122	0x3b02a5ec	0.0019935323
123	0xba16af59	-0.0005748175
124	0x39f99fa8	0.00047611934
125	0xb984be98	-0.00025319005
126	0xba8cfd2b	-0.0010756602
127	0xba536b65	-0.0008065014
128	0x3b12a1e6	0.002237433
129	0x39b7ed17	0.00035081126
130	0xb9fac006	-0.00047826784
131	0xb9d6897f	-0.00040919703
132	0xb91b1b74	-0.00014792179
133	0xb9f07b36	-0.00045868166
134	0xba29167b	-0.0006450188
135	0x3a006e0b	0.000489921
136	0x3b0223df	0.0019857807
137	0x39c732dc	0.0003799413
138	0x3a61a7e4	0.00086080865
139	0x3a58cfbc	0.0008270701
140	0x3a2a7155	0.0006501873
141	0xba05d8b4	-0.00051058386
142	0x3a8f24d5	0.0010921011
143	0x37c48e2c	2.3431225e-05
144	0xbac369fe	-0.0014908907
145	0xba7c67f0	-0.0009628525
146	0xbb189701	-0.0023283365
147	0x3a675f74	0.00088261743
148	0xb9fa86de	-0.000477842
149	0x3af4e7bd	0.0018684786
150	0xba82e349	-0.0009985949
151	0x3a65ff3e	0.0008773691
152	0x3ac57d00	0.001506716
153	0x3b05d628	0.0020421837
154	0xba872a95	-0.0010312373
155	0x3b214a5c	0.0024610972
156	0x3ab8cccc	0.001409912
157	0x3a5f9e81	0.0008530394
158	0xba8148a6	-0.000986357
159	0xba0e6d50	-0.0005433159
160	0xbb631481	-0.0034649672
161	0x3a97dec8	0.001158678
162	0x3a8bcaf3	0.0010665342
163	0xbaa8225c	-0.0012827623
164	0x3b2feb3d	0.0026843094
165	0xbad26789	-0.0016052584
166	0x3b0eabb8	0.0021769833
167	0x3a95196d	0.0011375375
168	0xbb10a44c	-0.0022070585
169	0xb6ec1d10	-7.0367314e-06
170	0xbaff9112	-0.001949819
171	0xbaa93e32	-0.0012912212
172	0x3b46749b	0.0030281905
173	0xba85a1c2	-0.0010195302
174	0x3a544f40	0.00080989674
175	0xba079002	-0.00051713
176	0xbb01e007	-0.0019817369
177	0xba92ea6f	-0.0011208783
178	0x3b7b29c8	0.0038324464
179	0x39d45a31	0.0004050299
180	0xba8640fe	-0.0010242758
181	0xba1d087a	-0.0005990338
182	0xb8fcc16d	-0.00012052325
183	0xba3a1251	-0.0007098066
184	0xba83224e	-0.001000473
185	0x3a8135a0	0.00098579
186	0x3b567349	0.0032722524
187	0x3a29e3a4	0.00064807595
188	0x3abe88d3	0.0014536626
189	0x3a3de759	0.00072442513
190	0x3a59dc5b	0.00083107286
191	0xba3830ed	-0.00070263335
192	0x3add6fa4	0.0016894233
193	0xb93f869b	-0.00018265324
194	0xbb2452e4	-0.002507382
195	0xbabeffa7	-0.001457204
196	0xbb7932ab	-0.0038024585
197	0x3aef575c	0.0018260288
198	0xb9fb63dd	-0.00047948855
199	0x3b531023	0.0032205663
200	0xba93b23f	-0.0011268331
201	0x38d5a446	0.0001018723
202	0x3a6dd84a	0.0009073062
203	0x3a621b90	0.0008625323
204	0xb9069fe2	-0.00012838797
205	0x3a77ec6d	0.00094575324
206	0x3a24553b	0.0006268804
207	0xba519279	-0.00079945434
208	0x3a0cf97e	0.00053777534
209	0x39a492b6	0.00031389826
210	0xbac79836	-0.0015227858
211	0x3a526dc9	0.00080272235
212	0x39d0b805	0.00039809957
213	0xba7f725c	-0.0009744519
214	0x3ac3b206	0.0014930374
215	0xba27d3cb	-0.0006402104
216	0x3a209389	0.00061255
217	0x39b60502	0.00034717476
218	0xbaea82fd	-0.0017891821
219	0x39914819	0.00027710272
220	0xba26809f	-0.00063515635
221	0xb8b43084	-8.5921056e-05
222	0x3ae46649	0.0017425503
223	0xba287673	-0.0006426342
224	0xb80411f2	-3.1487965e-05
225	0xb9ebe615	-0.00044994117
226	0xb9ab1f18	-0.00032638828
227	0x392ddbc2	0.00016580432
228	0x3ae494f4	0.0017439411
229	0x3880207b	6.1095656e-05
230	0xba1474c0	-0.0005663149
231	0x391becb1	0.00014870126
232	0x37749513	1.4578242e-05
233	0x37b28923	2.1283113e-05
234	0xb94b7357	-0.00019402556
235	0x3a502f36	0.0007941605
236	0x3ace8226	0.001575534
237	0x39ef9d93	0.00045703034
238	0x39a79356	0.00031962496
239	0x3aaa570d	0.0012995914
240	0x3aacf420	0.0013195314
241	0x3a8a91b1	0.0010571984
242	0x3a0a077b	0.0005265397
243	0xb94deef0	-0.00019639335
244	0xba5f1dfa	-0.0008511242
245	0xb9ee59df	-0.00045461857
246	0xbb1008e1	-0.0021977948
247	0xb91c05aa	-0.0001487943
248	0xba52abd3	-0.0008036468
249	0x3ac9d510	0.001539858
250	0x3a2f1d8e	0.0006680124
251	0x39727f2a	0.00023126291
252	0xba11f6c7	-0.0005568084
253	0x38ee186f	0.000113532755
254	0xb973c44f	-0.00023247417
255	0x38cc3c3c	9.7386976e-05
