finished_models/model/model.ckpt-27000.pt (torch, 107175 bytes, 30 tensors)

linears.0.weight f4 [50, 2]
-0.14826038 0.4677163 0.11454842 0.19800006 0.3164524 -0.2877652 0.21567184 0.14935647
-0.15745968 -0.22614442 0.3087215 0.17867635 0.21947011 -0.08805722 -0.29769522 1.1356107
-0.309334 -0.47814545 -0.22985534 -0.22354215 -0.5804535 0.09383219 0.16224971 -0.21858852
0.017465102 0.22487141 -0.12541172 0.2232871 0.018119387 0.3886425 -0.077199146 -0.27927312
0.28762463 0.31461194 0.11504479 0.15995343 0.14289322 0.011850518 0.05508942 -0.27088064
-0.1169279 -0.41336504 -0.24700068 -0.27039886 0.20779939 0.052585773 -0.1512663 0.15966816
0.11381759 0.28008446 -0.11213219 0.21536647 -0.41586694 -0.25484714 -0.04256182 -0.605093
0.528074 -0.0003878759 -0.04596901 0.23239876 -0.24749847 0.20886369 -0.036740206 -0.3584949
0.077860504 -0.15822159 -0.062381938 -0.29367635 -0.0812953 -0.25734335 0.18736605 -0.32335684
0.37528098 0.041125905 0.08528823 -0.12478806 0.20113654 0.25670618 -0.39444143 -0.15562989
-0.053276297 -0.46573323 0.053492524 -1.0970306 0.14767638 0.29753882 -0.14110525 0.24503006
-0.34176093 -0.22010344 -0.091090016 -0.27639928 -0.40201464 0.18915743 0.57669765 0.3544484
0.1407364 0.17521644 0.44157803 -0.066845804
00000000: 92d1 17be 8378 ef3e 5d98 ea3d 87c0 4a3e
00000010: 0d06 a23e f655 93be 14d9 5c3e e7f0 183e
00000020: 1c3d 21be 6792 67be bf10 9e3e eff6 363e
00000030: c6bc 603e 5857 b4bd 826b 98be b15b 913f
00000040: 0761 9ebe 7bcf f4be 335f 6bbe 3ce8 64be
00000050: 9a98 14bf 172b c03d ca24 263e abd5 5fbe
00000060: f912 8f3c b144 663e ee6b 00be 60a5 643e
00000070: 1c6f 943c 26fc c63e 961a 9ebd e3fc 8ebe
00000080: 8943 933e d114 a13e 9a9c eb3d d5ca 233e
00000090: 9a52 123e ad28 423c 72a5 613d deb0 8abe
000000a0: e577 efbd 95a4 d3be bfed 7cbe b871 8abe
000000b0: 5dc9 543e 2e64 573d 8ee5 1abe 0d80 233e
000000c0: 3219 e93d 3b67 8f3e 90a5 e5bd 0789 5c3e
000000d0: 83ec d4be 537b 82be 4e55 2ebd 60e7 1abf
000000e0: dc2f 073f d25b cbb9 004a 3cbd f1f9 6d3e
000000f0: 3d70 7dbe 5de0 553e e67c 16bd a58c b7be
00000100: 5475 9f3d d704 22be 3484 7fbd bf5c 96be
00000110: 267e a6bd 82c2 83be e3dc 3f3e 078f a5be
00000120: d424 c03e a373 283d 98ab ae3d e290 ffbd
00000130: bdf6 4d3e fe6e 833e 3af4 c9be 715d 1fbe
00000140: 3f38 5abd 9674 eebe fa1a 5b3d 806b 8cbf
00000150: 7a38 173e 0257 983e e57d 10be 29e9 7a3e
00000160: 4afb aebe cc62 61be 678d babd 3584 8dbe
00000170: ddd4 cdbe 7cb2 413e 75a2 133f 437a b53e
00000180: 341d 103e f06b 333e 8416 e23e 74e6 88bd

linears.0.bias f4 [50]
0.04695822 0.022324665 0.15199128 -0.055902153 -0.047519088 -0.0055350116 0.105825275 -0.23777492
-0.2644174 -0.18112367 -0.16203773 0.0056894594 -0.11434518 0.06737339 -0.4222105 0.14005633
0.0010439836 -0.026654555 0.4690695 0.034548156 0.22557694 -0.11864248 -0.22219737 -0.018653901
0.033918437 -0.03081632 -0.19106947 0.055734336 0.035374083 -0.09480403 -0.12029735 0.0054946896
0.058077578 0.0058917045 0.02878132 0.054968547 -0.064591564 -0.0026454986 0.059159417 -0.5179597
-0.24452168 -0.023157902 -0.071358345 -0.11907585 -0.032924257 0.078264974 0.1234233 0.39829484
0.23969965 0.024022557
00000000: 4357 403d 37e2 b63c 9aa3 1b3e a8f9 64bd
00000010: 60a3 42bd 0b5f b5bb ecba d83d 457b 73be
00000020: b861 87be 7c78 39be 38ed 25be a56e ba3b
00000030: ce2d eabd 0ffb 893d fa2b d8be ed6a 0f3e
00000040: 47d6 883a a75a dabc e129 f03e 5e82 0d3d
00000050: a4fd 663e d4fa f2bd b587 63be 11d0 98bc
00000060: 0fee 0a3d 8272 fcbc b7a7 43be b049 643d
00000070: 6ae4 103d 9e28 c2bd 755e f6bd cc0c b43b
00000080: c1e2 6d3d 330f c13b cec6 eb3c b326 613d
00000090: 9548 84bd 1a60 2dbb 2551 723d 0299 04bf
000000a0: e463 7abe a4b5 bdbc 5324 92bd 0ade f3bd
000000b0: 96db 06bd 6349 a03d 5bc5 fc3d 4ded cb3e
000000c0: d373 753e f4ca c43c

linears.1.weight f4 [50, 50]
0.2103582 -0.028348016 0.06653129 -0.11356102 0.056056492 -0.024131909 -0.15047649 0.101161815
-0.040600233 0.038044456 -0.084815025 0.20351347 0.1278909 -0.08372905 -0.114084415 0.026922042
-0.265174 0.008003796 0.12556228 0.15914838 0.23473594 0.2352334 -0.2991746 0.010313311
-0.15936859 -0.015621293 0.2876438 -0.05030168 0.24935989 -0.3362599 -0.20104654 0.3086745
0.023770325 0.06035257 0.050823856 -0.0060260845 0.17963955 0.20968404 0.00088272855 -0.04735757
-0.23384766 -0.2465172 -0.27575573 -0.37679687 0.10225844 0.04976316 0.16400899 -0.08416098
0.044482812 0.073043086 0.004755688 0.3234521 0.14446843 -0.15872219 -0.29478392 -0.11548199
-0.035986055 -0.5604778 0.0058819414 -0.28590903 0.064521596 -0.07266149 0.037133444 -0.02373813
-0.07787534 -0.12633593 0.096726246 0.12720142 0.42833647 -0.045525156 0.14006947 -0.17631637
-0.07357891 0.30873743 0.2772123 0.3588167 -0.069559164 -0.20706345 0.12372844 0.0020167797
0.21022737 -0.44642532 -0.04932452 -0.0884542 -0.008504418 0.10118568 -0.10524895 0.084556624
0.3295681 -0.32566836 0.22204404 0.042160157 0.2557218 -0.12879781 -0.32423237 -0.18835346
-0.047511425 -0.26230013 -0.010097741 0.015764302 0.12869425 0.21202694 -0.23451902 0.12077094
-0.07813448 0.39923024 0.062114708 -0.10820637 0.1097642 0.1596157 -0.08895426 0.055089667
0.07527925 0.070991114 0.09291452 -0.3179637 0.21887381 -0.0659562 -0.46162266 -0.19604345
-0.07788933 0.083567165 0.057571117 0.0023392336 0.21133272 -0.08535528 0.04513848 0.040373486
0.19869013 -0.023106731 0.16745608 -0.005557734 0.027645007 0.1264106 -0.16488087 0.030282047
-0.00082373 -0.02706076 -0.06050514 0.04579647 -0.22292323 0.19094338 0.35988316 0.13538301
-0.099172704 -0.0399571 0.055587985 -0.04537489 0.009429172 0.00029494302 0.1487419 0.10763891
0.044909246 -0.08594411 -0.053563725 0.16273166 -0.09385158 -0.32862407 -0.05508721 -0.19881307
0.008558736 -0.0042715766 0.19456859 -0.19578515 0.34119365 -0.29228047 0.15084845 -0.033017557
-0.09476153 -0.3210827 -0.1303462 -0.13198295 -0.04661486 0.13324013 0.22833699 0.13759747
-0.22783412 -0.08015077 -0.08303212 0.04704904 -0.24356486 -0.0812491 -0.0713157 -0.09803211
-0.0075373156 -0.29582638 0.14315003 -0.051081758 0.1737952 -0.0876982 0.018919846 0.35975945
0.003207885 -0.016496966 0.19444796 0.051809575 -0.069902934 0.055402115 0.2530545 0.08941205
-0.07925273 0.103347406 0.015095894 -0.10995326 -0.07808487 -0.069802724 -0.053814184 -0.4342292
0.05098912 0.1150767 -0.03430019 -0.13248615 -0.24200213 0.10170161 -0.16276342 0.11742959
0.011877552 0.096070915 0.1451395 0.11190758 0.20410876 0.0678869 -0.08220526 0.26515353
-0.4072553 -0.11023745 0.13497753 0.27497986 0.094270416 -0.022992637 -0.006433853 0.29457662
0.5120014 0.053598896 0.14047019 0.11250803 -0.17924525 0.080350466 -0.35417157 0.034529705
0.19634888 0.043671764 -0.31771395 -0.2991719 0.29822677 0.15850168 -0.032338243 -0.11863336
-0.044439364 -0.13490532 -0.088639535 0.0801651 0.25645834 0.0789036 -0.10200724 -0.115505144
00000000: 2468 573e 193a e8bc 8f41 883d ae92 e8bd
00000010: 7e9b 653d 48b0 c5bc 8216 1abe ed2d cf3d
00000020: 6e4c 26bd 81d4 1b3d 80b3 adbd d665 503e
00000030: d5f5 023e 237a abbd 17a5 e9bd 9d8b dc3c
00000040: e3c4 87be 5b22 033c 6693 003e cbf7 223e
00000050: 9e5e 703e 06e1 703e 6a2d 99be 29f9 283c
00000060: 8531 23be 74f0 7fbc 0c46 933e 2209 4ebd
00000070: 3358 7f3e 422a acbe 25df 4dbe 960a 9e3e
00000080: fcb9 c23c 4234 773d ad2c 503d 7676 c5bb
00000090: 6ef3 373e 6ab7 563e e966 673a 03fa 41bd
000000a0: c375 6fbe 016f 7cbe db2f 8dbe 85eb c0be
000000b0: df6c d13d 75d4 4b3d f9f1 273e 985c acbd
000000c0: 9c33 363d 9d97 953d 9ad5 9b3b 839b a53e
000000d0: 88ef 133e 1288 22be ebed 96be d281 ecbd
000000e0: 1d66 13bd 797b 0fbf 4dbd c03b ab62 92be
000000f0: e623 843d 8ccf 94bd 3d19 183d 7876 c2bc
00000100: 1b7d 9fbd 355e 01be 6918 c63d 1741 023e
00000110: eb4e db3e 9678 3abd 5f6e 0f3e 478c 34be
00000120: 8ab0 96bd d512 9e3e c5ee 8d3e d3b6 b73e
00000130: 0975 8ebd 7108 54be 5665 fd3d f32b 043b
00000140: d845 573e dc91 e4be 8208 4abd 7a27 b5bd
00000150: 1d56 0bbc 703a cf3d c38c d7bd 062c ad3d
00000160: 26bd a83e 01be a6be 835f 633e 21b0 2c3d
00000170: f8ed 823e 93e3 03be c901 a6be bbdf 40be
00000180: 579b 42bd 344c 86be ff70 25bc 2324 813c
00000190: 6dc8 033e 971d 593e c125 70be c156 f73d
000001a0: f804 a0bd e867 cc3e fe6b 7e3d 4d9b ddbd
000001b0: 0ecc e03d 4c72 233e a72d b6bd b4a5 613d
000001c0: 022c 9a3d ca63 913d f849 be3d 23cc a2be
000001d0: 7520 603e 0b14 87bd ce59 ecbe 9dbf 48be
000001e0: 7184 9fbd 4325 ab3d b1cf 6b3d d44d 193b
000001f0: 9b67 583e c0ce aebd 20e3 383d ab5e 253d
00000200: 6d75 4b3e 544a bdbc 9b79 2b3e a71d b6bb
00000210: c877 e23c c871 013e 88d6 28be 0e12 f83c
00000220: 96ef 57ba 87ae ddbc 3dd4 77bd 1495 3b3d
00000230: fd45 64be a986 433e 9b42 b83e d8a1 0a3e
00000240: 0f1b cbbd 0eaa 23bd 3ab0 633d 05db 39bd
00000250: d07c 1a3c 95a2 9a39 cc4f 183e ca71 dc3d
00000260: c2f2 373d 7703 b0bd a365 5bbd 21a3 263e
00000270: 4235 c0bd 6a41 a8be 20a3 61bd a795 4bbe
00000280: f139 0c3c 95f8 8bbb fd3c 473e e77b 48be
00000290: efb0 ae3e c9a5 95be 0478 1a3e 6b3d 07bd
000002a0: 5512 c2bd f464 a4be 7979 05be 8a26 07be
000002b0: 39ef 3ebd 1a70 083e 2cd1 693e 5ae6 0c3e
000002c0: 594d 69be 1626 a4bd be0c aabd 7fb6 403d
000002d0: 1169 79be ee65 a6bd f70d 92bd 0fc5 c8bd
000002e0: 96fb f6bb 8e76 97be ec95 123e 1b3b 51bd
000002f0: 5ef7 313e 1d9b b3bd cbfd 9a3c 6432 b83e
00000300: 613b 523b a524 87bc 5e1d 473e 4736 543d
00000310: 4529 8fbd 54ed 623d 5c90 813e aa1d b73d
00000320: 414f a2bd cea7 d33d c554 773c 2d2f e1bd
00000330: f6ea 9fbd bbf4 8ebd 436c 5cbd 4a53 debe
00000340: f8d9 503d 55ad eb3d 5b7e 0cbd 73aa 07be
00000350: 68cf 77be ef48 d03d 74ab 26be ed7e f03d
00000360: 109a 423c d4c0 c43d 739f 143e cd2f e53d
00000370: e301 513e 4908 8b3d 3b5b a8bd 34c2 873e
00000380: c483 d0be 2cc4 e1bd 8d37 0a3e 29ca 8c3e
00000390: d910 c13d 0e5b bcbc 12d3 d2bb bfd2 963e
000003a0: 8612 033f 848a 5b3d 6bd7 0f3e 9c6a e63d
000003b0: 118c 37be c98e a43d fa55 b5be 056f 0d3d
000003c0: ae0f 493e 2ae1 323d 67ab a2be 0f2d 99be
000003d0: 2eb1 983e 444e 223e 1b75 04bd 0cf6 f2bd
000003e0: 0d06 36bd 9f24 0abe a588 b5bd 9a2d a43d
000003f0: 824e 833e 3698 a13d 2ce9 d0bd f68d ecbd

linears.1.bias f4 [50]
0.02322787 0.0396794 -0.043558672 0.00034733696 0.041043703 -0.031797376 0.11243223 0.11276869
-0.027102789 -0.014325962 0.08012812 -0.011734851 0.003994006 -0.05028112 -0.15711883 -0.07520834
-0.044567384 0.106698796 0.055046685 0.024106408 0.017631177 -0.01296166 0.05193885 0.025093762
0.0012650377 0.023979716 -0.0412452 -0.02771353 -0.041979745 0.07126038 0.04985239 0.08273911
0.065828815 0.015373559 -0.10728817 -0.017949866 -0.21021847 -0.04739261 -0.13897195 0.033009917
-0.39997 0.11153503 0.107010335 -0.0240015 0.0067099147 0.034720335 0.067356355 -0.006488083
0.061641667 0.12243221
00000000: 6048 be3c de86 223d 946a 32bd c71a b639
00000010: 711d 283d f73d 02bd de42 e63d 45f3 e63d
00000020: ab06 debc 71b7 6abc 361a a43d 8843 40bc
00000030: 27e0 823b 93f3 4dbd c2e3 20be d506 9abd
00000040: 4a8c 36bd e684 da3d a278 613d cd7a c53c
00000050: 426f 903c 245d 54bc d5bd 543d 6f91 cd3c
00000060: 9fcf a53a 1c71 c43c baf0 28bd 7c07 e3bc
00000070: f4f2 2bbd f6f0 913d 0532 4c3d 1f73 a93d
00000080: 42d1 863d 61e1 7b3c e6b9 dbbd 990b 93bc
00000090: 8343 57be c11e 42bd aa4e 0ebe 6835 073d
000000a0: dec8 ccbe 7a6c e43d 3c28 db3d cb9e c4bc
000000b0: d8de db3b e936 0e3d 21f2 893d fc99 d4bb
000000c0: f97b 7c3d bdbd fa3d

linears.2.weight f4 [50, 50]
-0.71272147 0.24066645 0.22160384 0.5251077 -0.01491213 0.077540725 -0.08668676 -0.057345584
-0.6651972 0.028316613 0.28562203 0.16563119 0.048305 0.072288424 0.12235488 0.14141367
-0.29581428 -0.0760223 0.055408344 0.033046916 0.43052214 -0.20570397 -0.09528443 0.000549208
-0.40330228 0.021108998 0.03507353 -0.15816694 -0.49787977 -0.05652919 0.15002789 0.20569798
-0.14865041 0.26172197 -0.048073534 0.6719525 -0.3718006 -0.04863003 0.8440554 0.06209254
-0.097793385 -0.2001149 -0.33343986 -0.17180671 -0.12239939 -0.11296368 -0.14044131 -0.17222837
0.39204314 0.0062718387 -0.008579927 -0.092547424 0.021894665 0.003841258 -0.123031266 0.29914463
0.05315101 -0.11510433 -0.026291272 0.16546428 -0.14696138 -0.072259866 -0.6168952 0.18515058
0.061844327 -0.002628763 -0.019217534 0.04630017 0.10644137 0.11037564 0.0045206677 -0.12085831
0.16696627 0.13014708 0.16695009 0.043494042 -0.028380357 -0.26368654 -0.17414518 0.03396292
-0.25900844 -0.07925635 -0.12770395 0.43378198 -0.031501643 -0.07510479 0.1751791 0.031611696
0.2734219 0.08874847 0.24010311 0.10826075 -0.3298723 -0.08947207 -0.02878386 -0.02808009
0.22077689 0.027211033 0.17562759 0.06267482 -0.00040746725 0.04647783 0.026111424 -0.19324833
0.07606421 0.049119722 -0.24901977 0.14695586 -0.26500347 -0.26536557 0.037827015 -0.2097416
-0.15357211 -0.053209193 0.1627169 0.15668155 -0.036060713 0.015068288 0.18274038 0.19015263
-0.01501326 -0.11445454 0.03130723 -0.08759133 0.33324385 -0.09969441 -0.119279236 -0.092940584
-0.028175386 -0.025867555 -0.12682815 -0.00089753297 -0.10995712 -0.20156997 0.3320271 0.60783994
0.05429014 0.22866309 0.28574723 -0.15425654 0.09678868 -0.09232167 -0.1380172 0.04689633
0.2514933 0.018956028 0.1608256 0.14170274 -0.060312923 -0.5499146 0.2977537 -0.035067085
-0.11432345 -0.008583565 -0.14098151 -0.12897663 0.06259796 -0.0024414903 0.09123234 0.07915519
0.13838924 0.117122374 -0.11866131 -0.13139918 -0.053175487 -0.18972966 -0.049923815 0.14107163
0.060322974 0.052284274 0.17215224 0.086697854 0.13395408 0.018714996 -0.06832995 0.097046286
-0.2742971 0.025387194 0.06268442 0.08001617 -0.2734466 0.10099962 -0.13053639 0.0020924145
0.17059574 -0.015641052 0.062946655 -0.055255998 0.25888813 -0.27701733 0.11945573 -0.03842435
0.24638993 -0.039262384 -0.06331755 0.006748394 0.110475585 0.23969668 -0.24415118 0.10702625
0.014508788 -0.041472953 -0.05483935 -0.3154253 -0.075173035 -0.054073445 0.05409859 -0.17366275
0.13874386 -0.15717174 -0.005171053 0.12921757 0.19797823 -0.14429137 0.2264929 -0.0040610353
0.059932336 -0.027905725 -0.2688797 -0.090983704 -0.07440839 -0.04542975 0.0133571355 -0.044006962
-0.12118016 -0.15306331 -0.24581978 0.056439053 -0.086341634 0.07997498 -0.28307554 -0.19406727
0.13584766 -0.06740323 0.09222665 -0.28007898 0.06754167 0.0642003 -0.35931715 0.19962214
-0.18656416 0.12346803 0.023221955 0.124356925 -0.012292197 -0.033099197 0.010385737 0.19488439
-0.24829112 -0.06291744 -0.15449558 0.38520658 0.080237724 0.24981901 0.05768145 0.22487319
00000000: ea74 36bf 4471 763e 1eec 623e 756d 063f
00000010: 0252 74bc accd 9e3d d488 b1bd 34e3 6abd
00000020: 5d4a 2abf 3ef8 e73c 0d3d 923e 399b 293e
00000030: 77db 453d f40b 943d 3295 fa3d bfce 103e
00000040: f874 97be 94b1 9bbd dcf3 623d 345c 073d
00000050: 666d dc3e 10a4 52be 7c24 c3bd baf8 0f3a
00000060: a37d cebe c7ec ac3c 43a9 0f3d 84f6 21be
00000070: 19ea febe 278b 67bd e9a0 193e 7ea2 523e
00000080: d037 18be 6c00 863e c1e8 44bd 1405 2c3f
00000090: a65c bebe 4830 47bd 0414 583f bf54 7e3d
000000a0: e647 c8bd ecea 4cbe a1b8 aabe 19ee 2fbe
000000b0: 88ac fabd 8059 e7bd d9cf 0fbe a25c 30be
000000c0: e1b9 c83e ff83 cd3b d292 0cbc 8189 bdbd
000000d0: 715c b33c 9dbd 7b3b d1f7 fbbd 7c29 993e
000000e0: e0b4 593d d2bb ebbd cb60 d7bc 786f 293e
000000f0: 0b7d 16be fbfc 93bd d8ec 1dbf 1d98 3d3e
00000100: 7a50 7d3d 5347 2cbb 176e 9dbc 3fa5 3d3d
00000110: effd d93d a00c e23d 1c22 943b 9084 f7bd
00000120: 35f9 2a3e 4745 053e f7f4 2a3e cf26 323d
00000130: ec7d e8bc ec01 87be 1d53 32be b41c 0b3d
00000140: c19c 84be 2751 a2bd d3c4 02be ac18 de3e
00000150: de07 01bd 8ad0 99bd 2662 333e 447b 013d
00000160: f5fd 8b3e c2c1 b53d 97dd 753e d0b7 dd3d
00000170: 06e5 a8be 223d b7bd 21cc ebbc 3808 e6bc
00000180: 5613 623e ace9 de3c b8d7 333e a85b 803d
00000190: 54a1 d5b9 895f 3e3d a0e7 d53c e4e2 45be
000001a0: 8dc7 9b3d c331 493d 0aff 7ebe 997b 163e
000001b0: 89ae 87be ffdd 87be 80f0 1a3d 81c6 56be
000001c0: 0242 1dbe e2f1 59bd 429f 263e 2171 203e
000001d0: 66b4 13bd fbe0 763c 4b20 3b3e 5fb7 423e
000001e0: 2dfa 75bc 2467 eabd 033c 003d 1563 b3bd
000001f0: f09e aa3e 952c ccbd ac48 f4bd a257 bebd
00000200: 11d0 e6bc 32e8 d3bc 3ddf 01be 6b48 6bba
00000210: 3331 e1bd 5c68 4ebe 75ff a93e 669b 1b3f
00000220: 565f 5e3d a826 6a3e 764d 923e 6df5 1dbe
00000230: 2539 c63d 2513 bdbd 6254 0dbe 5e16 403d
00000240: bbc3 803e ac49 9b3c 77af 243e 861a 113e
00000250: af0a 77bd 34c7 0cbf 2c73 983e 81a2 0fbd
00000260: 6a22 eabd 15a2 0cbc 755d 10be 7312 04be
00000270: 5c33 803d 6901 20bb 05d8 ba3d 1e1c a23d
00000280: e9b5 0d3e dbdd ef3d b304 f3bd 828d 06be
00000290: 8ace 59bd 7e48 42be ea7c 4cbd 1575 103e
000002a0: 3915 773d 0928 563d ad48 303e a58e b13d
000002b0: 422b 093e 3150 993c 93f0 8bbd 34c0 c63d
000002c0: ab70 8cbe cef8 cf3c b060 803d 85df a33d
000002d0: 3101 8cbe e4d8 ce3d 55ab 05be e420 093b
000002e0: a6b0 2e3e aa21 80bc 2dea 803d 1d54 62bd
000002f0: fc8c 843e 37d5 8dbe 35a5 f43d da62 1dbd
00000300: a44d 7c3e 98d1 20bd a2ac 81bd a221 dd3b
00000310: 0641 e23d 0c73 753e c402 7abe 9430 db3d
00000320: 44b6 6d3c 8bdf 29bd 3a9f 60bd 6d7f a1be
00000330: 52f4 99bd 1e7c 5dbd 7c96 5d3d a6d4 31be
00000340: df12 0e3e a1f1 20be f071 a9bb 9c51 043e
00000350: ceba 4a3e 1ec1 13be c1ed 673e 6f12 85bb
00000360: 9c7b 753d 8c9a e4bc 9aaa 89be aa55 babd
00000370: 6d63 98bd 8c14 3abd e3d7 5a3c a540 34bd
00000380: 4e2d f8bd a1bc 1cbe 2eb8 7bbe a32c 673d
00000390: e2d3 b0bd ecc9 a33d 47ef 90be 92b9 46be
000003a0: a61b 0b3e b40a 8abd 53e1 bc3d 8366 8fbe
000003b0: 4953 8a3d 727b 833d 6bf8 b7be bf69 4c3e
000003c0: ad0a 3fbe cedc fc3d f83b be3c d8ae fe3d
000003d0: 3665 49bc 0693 07bd f028 2a3c c68f 473e
000003e0: 0740 7ebe dcda 80bd 1734 1ebe cc39 c53e
000003f0: ad53 a43d 8ed0 7f3e 6243 6c3d 2845 663e

linears.2.bias f4 [50]
0.027066365 0.036366526 0.0194706 0.035883848 -0.06713912 0.05624169 0.06349354 -0.09414032
-0.055709425 0.037492488 -0.04769374 -0.08427218 -0.06850439 0.035640642 0.03395312 -0.056786012
-0.020863714 0.037031148 -0.04560666 0.049796525 0.054770924 -0.0014767294 -0.095513575 0.011248413
0.3364637 0.09302646 0.054293603 -0.032149903 0.07545457 0.18009494 -0.062164165 -0.0142108165
-0.008153777 0.102976434 -0.08420647 -0.05098877 0.0074974257 -0.053260196 -0.0010597192 -0.09282595
0.02603156 0.055358037 -0.110529706 -0.044884246 -0.05669033 0.063743636 0.06614747 -0.10159878
0.050421335 -0.009911286
00000000: 48ba dd3c 11f5 143d cf80 9f3c f1fa 123d
00000010: 3c80 89bd b05d 663d e708 823d a4cc c0bd
00000020: 912f 64bd b991 193d 835a 43bd e596 acbd
00000030: 084c 8cbd ecfb 113d 6d12 0b3d 7398 68bd
00000040: 61ea aabc f9ad 173d 0dce 3abd 71f7 4b3d
00000050: 7a57 603d d18e c1ba 9f9c c3bd 434b 383c
00000060: f844 ac3e a884 be3d f862 5e3d 9eaf 03bd
00000070: ed87 9a3d cf6a 383e da9f 7ebd 7cd4 68bc
00000080: 6b97 05bc 4fe5 d23d 7174 acbd 9ad9 50bd
00000090: f7ac f53b 5d27 5abd 47e6 8aba 881b bebd
000000a0: 2340 d53c 1cbf 623d 665d e2bd 8bd8 37bd
000000b0: 1f34 68bd 068c 823d 5378 873d 0513 d0bd
000000c0: 9a86 4e3d f262 22bc

linears.3.weight f4 [50, 50]
0.083837934 0.25916335 -0.3278193 -0.2251649 -0.09506266 -0.1012326 -0.009760735 0.12900302
0.05951251 -0.33443907 0.03413994 0.12479046 -0.14526144 0.025304215 0.14018922 0.19050747
0.11828547 0.06537723 -0.20444092 -0.049857445 0.040625382 0.24251504 -0.13538302 -0.16597
-0.029418236 -0.074850895 0.015583073 -0.018225404 -0.19839823 -0.18366665 0.104178615 0.10701296
-0.27794883 -0.14894235 0.24544305 0.123057954 -0.032861624 0.14547555 0.33986363 0.15605272
-0.11365242 0.029080775 -0.029669 0.1912364 -0.07812081 -0.13497828 0.18541048 0.037594214
-0.09775222 0.24841401 0.6379514 0.17015015 0.2622053 -0.22388336 -0.09993069 0.23641956
0.08985021 0.11453216 0.048006058 -0.067930505 -0.1994742 -0.01589178 0.13574891 0.13277438
-0.030619176 0.30922368 -0.037861247 -0.02873653 0.14723188 -0.12782899 0.1090564 -0.08665114
0.1301945 -0.3679893 -0.31311834 -0.21624841 -0.10295656 -0.1556166 -0.06630238 -0.07076976
0.14286152 0.11749621 -0.25689226 -0.21866073 0.047827 -0.28951693 -0.15788886 0.0201882
-0.09003231 -0.11329293 0.18445404 -0.3252459 0.14158587 0.10259768 -0.290505 0.10692671
-0.10658462 0.26831254 0.16009447 0.011630169 -0.4685656 0.15516388 0.25575542 -0.15355998
-0.17862241 0.23330538 0.1112725 -0.061483942 0.117930025 0.17397662 -0.092404276 -0.046153996
-0.08566413 -0.15316513 -0.024600197 0.17252493 -0.0443677 -0.22353348 -0.22762012 -0.16956681
-0.10130893 -0.39225823 -0.05039595 -0.083175376 -0.0021434827 0.011576071 0.014293535 -0.07644302
0.11535997 0.024731353 0.0109961135 -0.15124777 0.09019256 -0.17033277 -0.059233252 -0.108302884
-0.017266596 -0.26613158 -0.018376635 -0.17185396 0.009297642 -0.16258648 0.06957378 -0.14712267
0.060174886 0.039945837 -0.10064171 -0.09105972 -0.050371766 -0.18488552 0.16319047 -0.21332064
-0.056667425 0.07538848 -0.11941193 0.11869403 0.028176304 -0.1333443 -0.29398513 0.39240623
0.017997093 0.045436904 0.058202785 0.20934525 0.17667961 0.005278229 -0.13014942 0.15951276
0.19286174 0.31666487 0.31906068 0.451292 0.33280513 -0.08733349 0.047759056 -0.117297396
0.32056996 0.012270477 -0.0110763535 0.09782746 0.1329308 -0.10312961 -0.21790498 -0.067295544
-0.06492008 0.12908141 0.20917334 0.0032483572 -0.018121878 -0.102939576 -0.09028944 -0.092648245
0.11272633 -0.15366852 0.1078239 -0.030790478 -0.0373843 -0.2398721 -0.11481086 0.12289054
0.3847061 0.117104165 0.34594122 0.13427836 -0.5938254 0.13025309 0.093782574 -0.22914766
0.025352791 0.056872703 -0.31842852 -0.03701854 -0.2487848 -0.23493555 -0.040981147 0.029803526
0.032181293 0.124068834 0.028832102 -0.1961302 0.29464373 -0.29650038 -0.18351576 -0.1850276
0.12817007 -0.17198013 0.033344515 -0.29790235 -0.34494245 0.24574813 0.37566027 0.10522356
-0.44236574 -0.40008426 0.1036343 -0.21788082 -0.258863 -0.06988233 0.1457346 -0.24679129
-0.14008343 0.08045237 -0.020573454 -0.14930914 -0.3995522 0.2573851 -0.12547079 -0.11909019
0.21921937 -0.03511794 0.16973202 0.28845102 0.13156395 0.22884126 0.12982889 0.12489007
00000000: 39b3 ab3d 0fb1 843e eed7 a7be a191 66be
00000010: 36b0 c2bd 0a53 cfbd 7deb 1fbc 5e19 043e
00000020: 64c3 733d 993b abbe 52d6 0b3d 2492 ff3d
00000030: 6abf 14be c94a cf3c c38d 0f3e 6414 433e
00000040: a73f f23d 7fe4 853d f658 51be 5237 4cbd
00000050: cd66 263d dd55 783e d9a1 0abe 0af4 29be
00000060: 83fe f0bc 6d4b 99bd 2550 7f3c 714d 95bc
00000070: e828 4bbe 1c13 3cbe 995b d53d 9c29 db3d
00000080: 4f4f 8ebe 5884 18be 6c55 7b3e cf05 fc3d
00000090: e999 06bd 8bf7 143e 9b02 ae3e 49cc 1f3e
000000a0: 9ac2 e8bd ce3a ee3c 670c f3bc 7ad3 433e
000000b0: cefd 9fbd bf37 0abe 3fdc 3d3e 64fc 193d
000000c0: 5132 c8bd 3e60 7e3e c850 233f d73b 2e3e
000000d0: c63f 863e ae41 65be 76a8 ccbd f817 723e
000000e0: 6303 b83d d68f ea3d 00a2 443d 261f 8bbd
000000f0: f742 4cbe 7a2f 82bc c301 0b3e 02f6 073e
00000100: 11d5 fabc 9152 9e3e 6514 1bbd df68 ebbc
00000110: f4c3 163e 9ae5 02be f658 df3d 2776 b1bd
00000120: b551 053e 1869 bcbe 0c51 a0be 3970 5dbe
00000130: e4da d2bd f559 1fbe 8bc9 87bd bcef 90bd
00000140: 4a4a 123e daa1 f03d 6287 83be 99e8 5fbe
00000150: 3fe6 433d 903b 94be 9ead 21be b961 a53c
00000160: dc62 b8bd 2006 e8bd 85e1 3c3e a186 a6be
00000170: e3fb 103e bc1e d23d 12bd 94be 64fc da3d
00000180: 0a49 dabd 4360 893e ceef 233e 778c 3e3c
00000190: d5e7 efbe 48e3 1e3e 60f2 823e d43e 1dbe
000001a0: cbe8 36be 9be7 6e3e d6e2 e33d 96d6 7bbd
000001b0: 4c85 f13d ed26 323e 743e bdbd f90b 3dbd
000001c0: ad70 afbd 52d7 1cbe 5a86 c9bc 60aa 303e
000001d0: e8ba 35bd f6e5 64be 4015 69be eca2 2dbe
000001e0: 0e7b cfbd 12d6 c8be fc6b 4ebd da57 aabd
000001f0: ac79 0cbb 90a9 3d3c 6e2f 6a3c 288e 9cbd
00000200: d941 ec3d 6899 ca3c 0b29 343c b2e0 1abe
00000210: e0b6 b83d b76b 2ebe 919e 72bd e7cd ddbd
00000220: ad72 8dbc 6642 88be 998a 96bc 7cfa 2fbe
00000230: 2355 183c 127d 26be b37c 8e3d 53a7 16be
00000240: f179 763d 3f9e 233d 3e1d cebd 857d babd
00000250: a052 4ebd a152 3dbe 671b 273e ba70 5abe
00000260: 1a1c 68bd 4765 9a3d 3e8e f4bd db15 f33d
00000270: fed1 e63c 688b 08be 3885 96be 78e9 c83e
00000280: a46e 933c 0c1c 3a3d 0b66 6e3d 9a5e 563e
00000290: 80eb 343e fef4 ac3b e445 05be 5057 233e
000002a0: 8c7d 453e e621 a23e ec5b a33e bf0f e73e
000002b0: 6f65 aa3e e7db b2bd 009f 433d 9e39 f0bd
000002c0: bf21 a43e 1c0a 493c 9879 35bc c359 c83d
000002d0: 031f 083e 9e35 d3bd 7c22 5fbe 3fd2 89bd
000002e0: d2f4 84bd eb2d 043e 8931 563e 64e2 543b
000002f0: 5574 94bc fcd1 d2bd abe9 b8bd 5dbe bdbd
00000300: 10dd e63d 485b 1dbe c7d2 dc3d 503c fcbc
00000310: 4820 19bd 08a1 75be f521 ebbd 09ae fb3d
00000320: 33f8 c43e 4fd4 ef3d 351f b13e 4480 093e
00000330: f104 18bf 1161 053e 1411 c03d afa5 6abe
00000340: a8b0 cf3c 5af3 683d 1009 a3be c1a0 17bd
00000350: 71c1 7ebe f292 70be d9db 27bd 8626 f43c
00000360: 88d0 033d cd17 fe3d 4d31 ec3c 5bd6 48be
00000370: 8bdb 963e e6ce 97be 8eeb 3bbe e077 3dbe
00000380: 043f 033e 8f1b 30be 4294 083d a886 98be
00000390: 4c9c b0be 66a5 7b3e 8b56 c03e 737f d73d
000003a0: c37d e2be d8d7 ccbe 383e d43d 261c 5fbe
000003b0: b189 84be 781e 8fbd 733b 153e dbb6 7cbe
000003c0: 0872 0fbe 36c4 a43d a989 a8bc 7fe4 18be
000003d0: 1b92 ccbe fbc7 833e 6a7b 00be 8fe5 f3bd
000003e0: 0b7b 603e d4d7 0fbd 3bce 2d3e daaf 933e
000003f0: b3b8 063e 5d55 6a3e ddf1 043e 5dc6 ff3d

linears.3.bias f4 [50]
-0.14994225 -0.044115692 -0.034703728 0.007694995 0.073582284 -0.016438155 0.071284376 0.10007256
-0.004601545 -0.011974672 -0.010860894 0.022549504 -0.042701263 -0.050603002 -0.05809115 -0.059053604
0.052989468 -0.014096348 -0.05195111 -0.06453348 -0.022126887 0.052959807 -0.098416984 -0.03883389
-0.040801767 -0.06705862 0.024635749 0.020744514 -0.044660177 -0.024861727 0.052640777 0.07606399
0.07171709 0.021014191 -0.0059189387 -0.07358352 -0.0028301664 0.07089248 -0.07261732 -0.022362543
0.0823126 0.036234926 0.037593003 -0.019705892 0.01113342 -0.029157607 -0.064178646 0.11266623
-0.066622145 -0.04333351
00000000: 768a 19be a8b2 34bd 7f25 0ebd 4c26 fc3b
00000010: 4fb2 963d 4fa9 86bc 8bfd 913d d8f2 cc3d
00000020: 8fc8 96bb 6a31 44bc e4f1 31bc bdb9 b83c
00000030: 85e7 2ebd 1845 4fbd fcf0 6dbd 31e2 71bd
00000040: 7c0b 593d 5ef4 66bc b0ca 54bd 212a 84bd
00000050: 7243 b5bc 62ec 583d d88e c9bd 4910 1fbd
00000060: c11f 27bd 0856 89bd e9d0 c93c 66f0 a93c
00000070: 97ed 36bd d2aa cbbc db9d 573d 70c7 9b3d
00000080: 69e0 923d f425 ac3c a8f3 c1bb f5b2 96bd
00000090: 507a 39bb 1430 913d 64b8 94bd a731 b7bc
000000a0: 8293 a83d 136b 143d 1ffb 193d 406e a1bc
000000b0: f368 363c efdb eebc 1870 83bd 8dbd e63d
000000c0: 3171 88bd 7b7e 31bd

linears.4.weight f4 [3, 50]
-0.14465435 0.16316925 -0.12735331 0.403254 0.955908 0.45752576 0.47275487 -0.22087543
-0.36323738 -0.24736172 -0.5930787 0.3456262 -0.39833102 -0.43361318 -0.42840496 -0.8626895
-0.2224915 -0.53314626 -0.50593716 0.21576473 -0.15718332 0.52183 -0.04568895 0.29418507
-0.3177526 0.46333098 0.07235894 0.16064696 -0.3762203 -0.187 0.38225326 0.13881008
0.9682161 0.15627319 0.103903785 -0.32638404 0.13806829 -0.26236087 -0.5450826 -0.15604125
0.1275619 -0.14451449 0.63709706 0.10031738 -0.5627754 0.021765595 -0.28787684 0.7218413
-0.49062446 -0.398151 0.20146419 0.39693102 0.0665688 0.19967769 0.2424464 0.28188902
0.07104687 -0.04839054 -0.46280986 0.3144742 -0.18610132 -0.21775743 -0.1895568 0.27355644
0.17235886 0.04190435 0.08356493 -0.06370125 0.018572602 0.07768116 -0.16355164 -0.18285672
0.15686134 0.14515106 0.25702268 0.026447998 0.28304598 0.1022568 0.05725585 0.2532392
-0.23382798 -0.033019304 -0.12486957 0.22137395 -0.36567423 -0.017362278 -0.024220707 -0.017771898
0.21659304 0.21276261 -0.40241653 -0.48773053 -0.08184272 0.20132802 -0.036955424 0.27834722
0.23599246 -0.18741323 -0.1220514 0.17742896 0.5556279 -0.056930646 -0.20938309 -0.031383198
-0.06284228 0.3662271 -0.0954588 -1.352167 0.13201621 -0.6548863 -0.62228805 0.11895519
0.27678654 0.36551616 -0.045185763 -0.19398843 -0.5085747 -0.15672982 -0.46866181 0.74201685
-0.048969638 0.011966436 0.081277944 0.077017255 0.20996815 -0.113505 0.028066808 0.41987696
-0.0537472 -0.321693 0.12694427 -0.15730585 -0.32071456 -0.51351994 0.020385101 0.8625041
0.26003578 -0.34088537 0.47429624 -0.14843982 0.0192649 -0.06975855 0.23611647 0.109324284
0.24965061 -0.24754998 -0.14963846 -0.14393425 0.56740654 0.10342216
00000000: 4520 14be d715 273e e868 02be 4f77 ce3e
00000010: 63b6 743f d140 ea3e ed0c f23e 2b2d 62be
00000020: 40fa b9be 644c 7dbe 01d4 17bf ebf5 b03e
00000030: 0bf2 cbbe 8c02 debe e557 dbbe 38d9 5cbf
00000040: d0d4 63be 467c 08bf 1985 01bf 6ef1 5c3e
00000050: aaf4 20be a796 053f 5624 3bbd 6d9f 963e
00000060: 78b0 a2be b839 ed3e ed30 943d a380 243e
00000070: f29f c0be ee7c 3fbe b3b6 c33e 3b24 0e3e
00000080: 03dd 773f 1406 203e 82cb d43d cf1b a7be
00000090: c661 0d3e 2a54 86be 898a 0bbf 47c9 1fbe
000000a0: 969f 023e 9bfb 13be cb18 233f 3373 cd3d
000000b0: 0c12 10bf c34d b23c 9864 93be 97ca 383f
000000c0: 2133 fbbe 73da cbbe a14c 4e3e 8b3a cb3e
000000d0: 3955 883d 4f78 4c3e de43 783e c253 903e
000000e0: 0581 913d 2935 46bd 6af5 ecbe c302 a13e
000000f0: 5891 3ebe cefb 5ebe 2e1b 42be 970f 8c3e
00000100: d77e 303e e5a3 2b3d 1724 ab3d cd75 82bd
00000110: 9225 983c 4d17 9f3d 157a 27be cb3e 3bbe
00000120: 42a0 203e 7ba2 143e 7a98 833e 79a9 d83c
00000130: 67eb 903e 036c d13d 1c85 6a3d 92a8 813e
00000140: 9a70 6fbe 403f 07bd 9ebb ffbd daaf 623e
00000150: a739 bbbe 563b 8ebc 816a c6bc 5f96 91bc
00000160: 91ca 5d3e 71de 593e 8a09 cebe d1b7 f9be
00000170: 289d a7bd ef28 4e3e 925e 17bd 8783 8e3e
00000180: 02a8 713e 41e9 3fbe 16f6 f9bd f0af 353e
00000190: a13d 0e3f 1c30 69bd 8568 56be ab8b 00bd
000001a0: 74b3 80bd 1e82 bb3e e77f c3bd cf13 adbf
000001b0: 422f 073e a1a6 27bf 454e 1fbf c79e f33d
000001c0: f7b6 8d3e ef24 bb3e b514 39bd e7a4 46be
000001d0: f431 02bf c87d 20be 71f4 efbe d1f4 3d3f
000001e0: 6394 48bd df0e 443c 0d75 a63d 39bb 9d3d
000001f0: e401 573e 4f75 e8bd 5dec e53c 1dfa d63e
00000200: 0626 5cbd f2b4 a4be aefd 013e c914 21be
00000210: b334 a4be 0b76 03bf a8fe a63c 12cd 5c3f
00000220: 6923 853e 8788 aebe f5d6 f23e 9c00 18be
00000230: 6cd1 9d3c 92dd 8ebd 84c8 713e 69e5 df3d
00000240: 69a4 7f3e be7d 7dbe d33a 19be 8063 13be
00000250: 8e41 113f ffce d33d

linears.4.bias f4 [3]
0.040983047 -0.04897714 -0.4219461
00000000: d7dd 273d 419c 48bd 5209 d8be

exp_avg f4 [50, 2]
0.00027615353 0.00016734874 -6.743955e-05 -0.00029074508 -0.00019960756 -0.00020435052 3.246188e-05 0.0001271825
0.0001495485 0.00032521022 -0.00010435348 -0.0003145322 -0.00018440705 6.599729e-05 0.00060999976 0.0009782976
-3.090537e-05 -1.7487582e-05 0.00019345782 0.00048770072 0.00010478831 -0.000121235506 5.4434408e-05 0.00046124627
7.450751e-05 0.00014810746 -8.303987e-05 -0.00039633294 5.182053e-05 0.0002452252 4.0535044e-05 0.00032826178
-0.00020680034 -0.0002269856 -0.000121922945 -8.3851855e-06 -0.00012296635 -0.00063421775 4.6992554e-05 0.00060082535
-6.2930754e-05 7.363448e-06 3.45424e-05 0.00039995872 -3.733259e-05 0.00025779274 -4.6712037e-05 -0.00037354507
-0.00010994782 -0.00068520114 -7.796998e-05 -0.0004149376 6.235577e-05 -0.000105611674 -0.0001734333 -0.00035479333
3.1697855e-05 0.0005748691 -3.7082096e-05 -0.00042611753 8.273644e-05 -0.00018667399 8.21215e-05 0.00048426836
-0.00021266897 0.00018773518 9.772936e-05 0.0005121979 6.437881e-05 0.0006303721 -2.977779e-05 -3.5763162e-06
0.00012261256 0.00053742714 2.0161668e-05 0.00065039593 -0.00010920856 -9.1991365e-05 2.4123845e-05 0.00017636448
-0.00010695697 9.9044424e-05 -0.00044025405 -0.0004224495 -0.00012532675 -0.00042987592 0.00015963231 -0.00038314777
0.00018160636 0.00016135958 -8.425648e-05 0.00019509938 4.648958e-05 -0.00043472066 6.2326384e-05 -7.9955826e-05
2.273623e-05 -0.00047389543 2.5098243e-05 0.0003582951
00000000: b3c8 9039 567a 2f39 556e 8db8 256f 98b9
00000010: bf4d 51b9 ed46 56b9 ae27 0838 4b5c 0539
00000020: 1fd0 1c39 fa80 aa39 59d8 dab8 cce7 a4b9
00000030: 645d 41b9 0668 8a38 64e8 1f3a 383a 803a
00000040: 63a0 01b8 4cb2 92b7 f0da 4a39 15b2 ff39
00000050: ccc1 db38 d13f feb8 8050 6438 6dd3 f139
00000060: ea40 9c38 4b4d 1b39 b125 aeb8 e8ca cfb9
00000070: df59 5938 9291 8039 2c04 2a38 8d1a ac39
00000080: 8bd8 58b9 fc02 6eb9 e2b0 ffb8 19ae 0cb7
00000090: 87f0 00b9 a241 26ba df19 4538 b580 1d3a
000000a0: b1f9 83b8 8913 f736 9fe1 1038 8db1 d139
000000b0: 9095 1cb8 5b28 8739 abec 43b8 5fd8 c3b9
000000c0: c993 e6b8 129f 33ba d083 a3b8 fb8b d9b9
000000d0: 00c5 8238 d67b ddb8 a6db 35b9 8e03 bab9
000000e0: 50f3 0438 d0b2 163a 9988 1bb8 8768 dfb9
000000f0: ca82 ad38 ebbd 43b9 a538 ac38 66e5 fd39
00000100: e4ff 5eb9 c7da 4439 0df4 cc38 0545 063a
00000110: 1c03 8738 8e3f 253a 51cb f9b7 a500 70b6
00000120: 8f91 0039 20e2 0c3a da20 a937 557f 2a3a
00000130: e606 e5b8 7deb c0b8 905d ca37 7bee 3839
00000140: 164e e0b8 12b6 cf38 e6d1 e6b9 367c ddb9
00000150: 256a 03b9 f860 e1b9 f962 2739 39e1 c8b9
00000160: 966d 3e39 a232 2939 dab2 b0b8 9793 4c39
00000170: cefd 4238 38eb e3b9 39b5 8238 f5ad a7b8
00000180: afb9 be37 2b75 f8b9 118a d237 8ed9 bb39

exp_avg_sq f4 [50, 2]
0.005325894 0.0010934997 0.0033110238 0.0007127468 0.00032404135 0.00040474915 0.0005007575 0.0008820097
0.0044796416 0.0013187913 0.004879853 0.0013900733 0.00025145317 9.8575074e-05 0.04773075 0.014033339
0.00061073294 0.00013892388 0.00084343826 0.00077100523 0.00049477955 0.00052362325 0.005462901 0.001840111
0.0004993174 0.0007114604 0.0020300031 0.001214863 0.010716146 0.0035199707 0.008815723 0.0019410483
0.0036041061 0.00066731626 0.001170725 0.00037701693 0.00076644006 0.0031699575 0.010705987 0.0036484287
0.0012162015 0.0002723922 0.0012575834 0.0008731872 0.00059946236 0.00082184223 0.0063797 0.0017731283
0.009796116 0.0042301943 0.003930509 0.0015433975 0.00091989833 0.0005494326 0.0030478402 0.0013241741
0.0072700237 0.0032124587 0.0094440505 0.0025325392 0.0010984909 0.00055662787 0.0057969857 0.0017989589
0.0012287352 0.00042951017 0.011765507 0.0029014116 0.011346115 0.0043442575 0.0006349722 0.0002262803
0.0044130348 0.0027395939 0.007978624 0.0037206667 0.00041364922 0.00020724953 0.0029594102 0.0008168672
0.0028559808 0.00016354237 0.01871817 0.0034285598 0.009965125 0.0027258494 0.002636771 0.0020349354
0.0006489466 0.0005478556 0.0015592594 0.000664312 0.00066263904 0.0011965748 0.001148679 0.00022812099
0.001819742 0.00087872427 0.002885787 0.0011987897
00000000: d684 ae3b c353 8f3a c3fd 583b a1d7 3a3a
00000010: 18e4 a939 8334 d439 4445 033a ab36 673a
00000020: f5c9 923b 4bdb ac3a 2de7 9f3b 1f33 b63a
00000030: 79d5 8339 17ba ce38 5281 433d 17ec 653c
00000040: 9819 203a 18ac 1139 2f1a 5d3a 491d 4a3a
00000050: 18b4 013a c343 093a 2302 b33b e12f f13a
00000060: a0e4 023a 4d81 3a3a cd09 053b 0a3c 9f3a
00000070: c692 2f3c 4faf 663b d26f 103c c66a fe3a
00000080: de32 6c3b d6ee 2e3a 0373 993a 5baa c539
00000090: ecea 483a 10bf 4f3b 2a68 2f3c 7a1a 6f3b
000000a0: f368 9f3a ddcf 8e39 7fd5 a43a 9ae6 643a
000000b0: 3d25 1d3a e670 573a cd0c d13b 5068 e83a
000000c0: e37f 203c 719d 8a3b 80cb 803b d44b ca3a
000000d0: 5525 713a cc07 103a 46be 473b e98f ad3a
000000e0: 6139 ee3b 1d88 523b 38bb 1a3c f5f8 253b
000000f0: 3dfb 8f3a aaea 113a a4f4 bd3b 0bcb eb3a
00000100: 830d a13a e12f e139 1dc4 403c 9c25 3e3b
00000110: 0ee5 393c 465a 8e3b 4374 263a a845 6d39
00000120: 389b 903b c28a 333b c6b8 023c 6ed6 733b
00000130: 0fdf d839 1f51 5939 aaf2 413b 0823 563a
00000140: 682b 3b3b 927c 2b39 d956 993c b0b1 603b
00000150: c344 233c 2aa4 323b adcd 2c3b 8d5c 053b
00000160: 121e 2a3a f89d 0f3a 1060 cc3a 3925 2e3a
00000170: f4b4 2d3a 63d6 9c3a 458f 963a c333 6f39
00000180: 6984 ee3a 305a 663a 791f 3d3b b520 9d3a

exp_avg f4 [50]
0.00018350918 -0.0003726846 -0.00019057943 0.0002233682 0.00012944205 -0.00030207873 3.842525e-05 0.0011374761
2.0802236e-05 0.00034149058 1.9935094e-05 0.0002736659 0.00017893311 -7.395564e-05 8.643934e-05 0.00042386955
-5.145818e-05 2.131036e-05 -0.00038392795 0.00035518082 8.555819e-05 0.00034094768 0.000172381 -0.00016054786
-0.00044472647 -0.00021107736 -0.00014906244 -0.0002507517 0.00053779 -0.0003966396 -2.0278623e-05 0.00026890682
0.00022770076 0.00044996923 0.00047063516 -4.870052e-05 0.00040844714 0.00043277265 0.0001022391 2.6777661e-05
-0.00010051051 -0.0005555664 -0.00033117013 -0.00021183866 -0.00010474074 9.986114e-05 -0.00016979179 -7.630136e-05
-0.0002733767 0.00019296096
00000000: 5f6c 4039 e164 c3b9 47d6 47b9 f237 6a39
00000010: d6ba 0739 5260 9eb9 cc2a 2138 5d17 953a
00000020: 7680 ae37 170a b339 4a3a a737 d17a 8f39
00000030: fe9f 3b39 a218 9bb8 c446 b538 cf3a de39
00000040: cdd4 57b8 a6c3 b237 f049 c9b9 9037 ba39
00000050: b46d b338 39c1 b239 2cc1 3439 bd58 28b9
00000060: 2d2a e9b9 a654 5db9 a54d 1cb9 5377 83b9
00000070: 7afa 0c3a 11f4 cfb9 031c aab7 10fc 8c39
00000080: f5c2 6e39 d9e9 eb39 95bf f639 c943 4cb8
00000090: d924 d639 c3e5 e239 3369 d638 97a0 e037
000000a0: 2bc9 d2b8 6ea3 11ba e7a0 adb9 0221 5eb9
000000b0: 42a8 dbb8 8b6c d138 230a 32b9 fb03 a0b8
000000c0: 0054 8fb9 9055 4a39

exp_avg_sq f4 [50]
0.0030608543 0.0043937867 0.00040937596 0.0009721039 0.0046829744 0.006225416 7.879774e-05 0.06281404
0.00032664428 0.0022850463 0.00055014645 0.0066894884 0.00096986047 0.0046797427 0.007853425 0.0071013104
0.004029301 0.0015142444 0.0034024324 0.014625375 7.422466e-05 0.0016198943 0.0012405942 0.008437061
0.015485978 0.004900893 0.000545033 0.0031450398 0.0067170626 0.007974845 0.0013588007 0.007360435
0.001644967 0.012819394 0.016529521 0.00092557253 0.006124532 0.010438839 0.0010130758 0.0019232921
0.001436743 0.01646299 0.010439409 0.0053598136 0.00093092484 0.0025433656 0.0016324376 0.0005754305
0.002459701 0.003978041
00000000: 9d98 483b c1f9 8f3b 83a1 d639 cad4 7e3a
00000010: a373 993b 93fe cb3b 3740 a538 a6a4 803d
00000020: 7441 ab39 b7c0 153b b437 103a 7f33 db3b
00000030: 3c3e 7e3a 8758 993b a7ab 003c 1cb2 e83b
00000040: 3a08 843b 9c79 c63a 58fb 5e3b 459f 6f3c
00000050: 10a9 9b38 a252 d43a 6f9b a23a 993b 0a3c
00000060: e6b8 7d3c ac97 a03b 8ce0 0e3a 031d 4e3b
00000070: ce1a dc3b eda8 023c c919 b23a ce2f f13b
00000080: ef9b d73a 6f08 523c eb68 873c 1fa2 723a
00000090: 4cb0 c83b aa07 2b3c 2fc9 843a f916 fc3a
000000a0: 1851 bc3a 64dd 863c 0e0a 2b3c 60a1 af3b
000000b0: 4f09 743a 98ae 263b 84f7 d53a 7dd8 163a
000000c0: ef32 213b 3a5a 823b

exp_avg f4 [50, 50]
0.00017998919 9.125759e-05 -2.65559e-05 5.564029e-05 -0.0001152591 9.067988e-05 2.5806059e-05 0.00026074704
-0.00029325014 -0.00017042775 -8.533154e-05 -6.5721535e-05 4.159673e-05 9.754734e-05 -2.3558137e-05 -5.5601155e-05
0.00014253263 5.7990383e-05 0.00018256645 -8.32906e-05 -7.377148e-05 -0.00016719803 -5.1461968e-05 3.935311e-05
0.00012663621 5.921044e-05 -0.00020881799 -0.00020540394 6.5875436e-05 4.6302815e-05 1.1300791e-05 -0.00013414073
-2.9944335e-05 -0.000112184294 -9.157921e-05 -8.404324e-05 2.4774163e-05 -3.973976e-05 0.00013575277 -0.00026665797
-0.00025914612 -0.0003460193 9.54288e-05 3.4564844e-05 -0.00012564128 -8.0102735e-05 8.2793136e-05 0.00031990948
0.00016759672 2.5536183e-05 -9.840058e-05 -6.934084e-05 2.9958159e-05 -8.407322e-05 8.33677e-05 -9.951688e-05
-1.3029891e-05 -0.0002040871 0.00016673678 9.029946e-05 7.264937e-05 2.6602596e-05 -6.521961e-05 -3.0965817e-05
-0.00010295554 8.865156e-05 -0.00013005988 -6.139745e-05 -5.7890375e-06 6.0807004e-05 0.00012783644 0.00010895243
-5.5900426e-05 -1.3004161e-05 -9.0383845e-05 -3.5801135e-05 0.0001368956 0.0001634301 -9.4498995e-05 -5.4426382e-05
-1.4176029e-05 9.817314e-05 2.7806378e-05 8.613215e-05 8.116506e-05 5.2252788e-05 -8.2832725e-05 1.485188e-05
-9.930673e-05 7.965015e-05 0.00012085074 0.00022952845 -0.000103815866 -4.263741e-05 0.00011560314 8.8937624e-05
2.7015049e-05 -0.00017354067 -6.2685875e-05 -6.264659e-05 -4.1287167e-05 -2.1195823e-05 1.1368248e-05 -1.871635e-05
2.6297887e-05 -2.3468341e-05 -3.3695103e-06 -6.303138e-05 6.713316e-05 3.4788332e-05 1.5272048e-05 1.3663149e-05
-1.48413765e-05 -1.8266672e-05 -1.02893455e-05 1.9430934e-05 -3.595184e-05 -1.539576e-05 -2.3996005e-05 2.0343296e-05
2.7023507e-05 3.7117257e-05 6.512016e-07 -8.007794e-06 -2.948767e-05 -1.3802547e-05 4.663354e-05 5.2955333e-05
-1.7324022e-05 -1.4284548e-05 -5.528275e-06 3.2345353e-05 8.40882e-06 2.7195818e-05 2.3406476e-05 2.0034313e-05
-1.2485793e-05 7.819548e-06 -3.1363204e-05 4.5978035e-05 5.6247885e-05 8.3634375e-05 -2.6620008e-05 -1.1864521e-05
3.0669973e-05 2.2784425e-05 -9.340613e-06 -6.9327936e-05 -3.1773823e-05 -8.650201e-06 -0.00011437393 -7.660475e-05
-2.0558304e-05 -6.1449224e-05 9.862388e-05 -9.5544834e-05 -4.6321733e-05 -0.00015029522 0.00024276643 0.00014820838
0.00012347176 2.732934e-05 -2.6672275e-05 -5.6497312e-05 3.0668612e-05 4.174971e-05 -0.00012861358 -5.1980704e-05
-0.0001552498 5.0544324e-05 5.4631706e-05 0.0001457777 2.0867514e-05 -9.346532e-06 -0.00010146292 -2.7372393e-05
0.00019233653 0.000146408 -0.000102144135 -2.3444793e-05 2.4054994e-05 9.720972e-05 9.655635e-06 8.452569e-05
7.141678e-05 3.6178906e-05 -5.6417022e-05 1.7736578e-05 -0.0001177822 0.00023366413 0.00019748343 0.0002452319
-7.9463476e-05 -3.948992e-06 0.00012392843 6.2649415e-05 -1.9136147e-05 -0.0002821354 -0.00013997967 -6.647313e-05
-1.9708652e-05 -2.0193193e-05 -3.4621416e-06 -2.4173209e-05 2.5020767e-05 -3.099434e-05 -1.066001e-05 -3.462833e-05
4.6953428e-05 3.0297611e-05 3.0906293e-05 2.6094276e-06 -1.3862881e-05 -6.317813e-06 -1.8565168e-05 2.071625e-05
-3.8286544e-05 -1.7261504e-05 -1.5403279e-05 1.2653878e-05 3.1077776e-05 3.3845085e-05 -1.2888811e-05 6.7381563e-07
-2.5330583e-05 -5.367486e-06 4.374798e-05 3.8871494e-05 -3.3090048e-05 -1.0018481e-05 5.0449867e-06 2.4481657e-05
3.6310878e-06 2.2334405e-05 2.1123187e-05 6.902883e-06 -2.6413696e-05 1.8145174e-06 -2.9937775e-05 3.460764e-05
3.2253578e-05 4.584969e-05 -2.7585105e-05 -4.232023e-06 3.6153237e-05 2.2386475e-05 1.1787629e-05 -5.2793694e-05
-2.3405239e-05 -2.4271949e-05 3.4489465e-05 -1.531214e-06 -1.9927698e-05 -2.7126287e-05 1.4271119e-06 -2.7242606e-05
00000000: 7bbb 3c39 8c61 bf38 5cc4 deb7 4e5f 6938
00000010: 42b7 f1b8 642b be38 177a d837 e0b4 8839
00000020: 5ebf 99b9 dab4 32b9 06f4 b2b8 fbd3 89b8
00000030: 2678 2e38 5492 cc38 b79e c5b7 4935 69b8
00000040: d074 1539 b33a 7338 4f6f 3f39 4dac aeb8
00000050: c3b5 9ab8 e151 2fb9 ded8 57b8 150f 2538
00000060: a6c9 0439 ba58 7838 27f6 5ab9 b361 57b9
00000070: 9b26 8a38 4535 4238 8798 3d37 21a8 0cb9
00000080: f830 fbb7 7c44 ebb8 370e c0b8 5f40 b0b8
00000090: 1cd2 cf37 3eae 26b8 db58 0e39 3ace 8bb9
000000a0: 01de 87b9 ed69 b5b9 f220 c838 b8f9 1038
000000b0: 93be 03b9 d4fc a7b8 3aa1 ad38 86b9 a739
000000c0: e7bc 2f39 8936 d637 695c ceb8 146b 91b8
000000d0: a84e fb37 7750 b0b8 b1d5 ae38 b8b3 d0b8
000000e0: f59a 5ab7 3700 56b9 10d6 2e39 275f bd38
000000f0: 555b 9838 a428 df37 83c6 88b8 4be1 01b8
00000100: d6e9 d7b8 72ea b938 af60 08b9 81c2 80b8
00000110: 743f c2b6 060b 7f38 d50b 0639 647d e438
00000120: a076 6ab8 722c 5ab7 758c bdb8 2d29 16b8
00000130: a28b 0f39 6f5e 2b39 c32d c6b8 e247 64b8
00000140: 95d5 6db7 4ee2 cd38 be41 e937 d9a1 b438
00000150: 2937 aa38 012a 5b38 7bb6 adb8 572c 7937
00000160: e542 d0b8 d909 a738 3f71 fd38 93ad 7039
00000170: b8b7 d9b8 92d5 32b8 f76f f238 0684 ba38
00000180: 609e e237 78f8 35b9 3976 83b8 2261 83b8
00000190: c22b 2db8 afcd b1b7 41ba 3e37 0e01 9db7
000001a0: 489a dc37 e1dd c4b7 bf1f 62b6 b72f 84b8
000001b0: d7c9 8c38 b0e9 1138 791c 8037 c73a 6537
000001c0: 3aff 78b7 613b 99b7 67a0 2cb7 9dff a237
000001d0: ffca 16b8 2526 81b7 074b c9b7 e5a6 aa37
000001e0: 8ab0 e237 5aae 1b38 3cce 2e35 3759 06b7
000001f0: 4a5c f7b7 7d91 67b7 6298 4338 5b1c 5e38
00000200: 0e53 91b7 aba7 6fb7 857f b9b6 8faa 0738
00000210: 9b13 0d37 9322 e437 0659 c437 5c0f a837
00000220: 137a 51b7 b430 0337 fc8b 03b8 8ad8 4038
00000230: b5eb 6b38 dd64 af38 084e dfb7 bb0d 47b7
00000240: a2a3 0038 2e21 bf37 a1b5 1cb7 2764 91b8
00000250: e244 05b8 5520 11b7 09dc efb8 dda6 a0b8
00000260: 9f74 acb7 4dde 80b8 4bd4 ce38 3e5f c8b8
00000270: 9549 42b8 9198 1db9 1e8f 7e39 6268 1b39
00000280: 3378 0139 5041 e537 46be dfb7 87f7 6cb8
00000290: 2ca2 0038 691c 2f38 72dc 06b9 db05 5ab8
000002a0: 8dca 22b9 8eff 5338 5924 6538 e7db 1839
000002b0: a50c af37 0dcf 1cb7 7ec8 d4b8 c49d e5b7
000002c0: f2ad 4939 1985 1939 3736 d6b8 4fab c4b7
000002d0: b5c9 c937 12dd cb38 a3fe 2137 6243 b138
000002e0: 98c5 9538 cebe 1738 51a1 6cb8 03c9 9437
000002f0: d601 f7b8 bd03 7539 8e13 4f39 7892 8039
00000300: a1a5 a6b8 9581 84b6 c9f2 0139 a662 8338
00000310: 9086 a0b7 93eb 93b9 82c7 12b9 7d67 8bb8
00000320: 0254 a5b7 8d64 a9b7 2457 68b6 92c7 cab7
00000330: b0e3 d137 ebff 01b8 65d8 32b7 e33d 11b8
00000340: dcef 4438 a027 fe37 61a1 0138 a01d 2f36
00000350: 9f94 68b7 9afd d3b6 65bc 9bb7 cfc7 ad37
00000360: dd95 20b8 cccc 90b7 4a36 81b7 fe4b 5437
00000370: 8259 0238 e2f4 0d38 063d 58b7 42e0 3435
00000380: 037d d4b7 5b1a b4b6 097e 3738 f309 2338
00000390: 2bca 0ab8 0c15 28b7 1b48 a936 f55d cd37
000003a0: 9dad 7336 c55a bb37 b331 b137 509f e736
000003b0: fb92 ddb7 588a f335 e222 fbb7 ac27 1138
000003c0: 0448 0738 bb4e 4038 9066 e7b7 cd00 8eb6
000003d0: 3ea3 1738 97ca bb37 7bc3 4537 cc6e 5db8
000003e0: 5e56 c4b7 9d9b cbb7 c8a8 1038 1d84 cdb5
000003f0: 682a a7b7 428d e3b7 318b bf35 0d87 e4b7
