finished_models/model/model.ckpt-1.pt (torch, 107007 bytes, 30 tensors)

linears.0.weight f4 [50, 2]
-0.119701505 0.31392708 0.088467196 0.2566127 0.27763513 -0.23020194 0.19918628 0.16198725
-0.16109435 -0.121799275 0.32406458 0.05285725 0.16303438 0.000888859 -0.14015596 0.50602776
-0.1673316 -0.34342054 -0.018126724 -0.017773688 -0.5140478 -0.008829902 0.14555608 -0.11479728
0.053830996 0.17108585 -0.117464684 0.15766543 0.0662382 0.04017666 -0.06263828 -0.17578441
0.25650266 0.2740583 0.14511497 0.09237234 -0.040780686 0.0015337627 0.03424361 -0.17674501
-0.0899585 -0.32198557 -0.2995261 -0.1347808 0.15104978 -0.025628544 -0.13593203 0.12886184
0.09935673 0.098665826 -0.09493987 0.17648037 -0.24647354 -0.041079734 -0.0496399 -0.46519357
0.4782602 0.04139933 -0.01680704 0.13114867 -0.20823708 0.2522813 0.0058400175 -0.011961681
0.035382107 0.034170542 -0.08137352 -0.17277211 -0.09680077 -0.109351255 0.20679736 -0.30432132
0.35750616 0.08848026 0.07615009 -0.057291735 0.054443967 0.07596403 0.01817021 -0.047144964
0.04647862 -0.31130394 -0.031675436 -0.30384263 0.14129879 0.30136555 -0.057108082 0.08423842
-0.23448767 -0.012004497 -0.13578112 -0.20094182 -0.34050792 0.15071732 0.3961696 0.13083526
0.061982926 -0.019130426 0.43813574 0.007948598
00000000: 1026 f5bd 0dbb a03e 4a2e b53d bd62 833e
00000010: 3126 8e3e 0fba 6bbe 7df7 4b3e fcdf 253e
00000020: ebf5 24be e671 f9bd cbeb a53e d880 583d
00000030: 7cf2 263e 5102 693a 0b85 0fbe 098b 013f
00000040: fa58 2bbe d1d4 afbe 7f7e 94bc 209a 91bc
00000050: a398 03bf 4bab 10bc a70c 153e d61a ebbd
00000060: e47d 5c3d 2131 2f3e 5391 f0bd 0c73 213e
00000070: e5a7 873d 4890 243d 8048 80bd d400 34be
00000080: 5154 833e 5f51 8c3e 0599 143e b62d bd3d
00000090: a609 27bd 8908 c93a 0743 0c3d a5fc 34be
000000a0: 293c b8bd 4bdb a4be 7c5b 99be fa03 0abe
000000b0: cbac 1a3e f4f2 d1bc c431 0bbe 5cf4 033e
000000c0: 8b7b cb3d 4f11 ca3d d66f c2bd 45b7 343e
000000d0: 8f63 7cbe 3943 28bd 3553 4bbd da2d eebe
000000e0: 85de f43e 5892 293d ebae 89bc d64b 063e
000000f0: 1a3c 55be 042b 813e 9e5d bf3b edfa 43bc
00000100: d4ec 103d 69f6 0b3d 29a7 a6bd 2ceb 30be
00000110: 7b3f c6bd 8df3 dfbd b0c2 533e 01d0 9bbe
00000120: 0c0b b73e 2335 b53d 94f4 9b3d bdaa 6abd
00000130: a300 5f3d 0893 9b3d b1d9 943c 141b 41bd
00000140: 5e60 3e3d 3b63 9fbe 1abe 01bd 4391 9bbe
00000150: a1b0 103e 964c 9a3e 2aea 69bd 3185 ac3d
00000160: 891d 70be 83ae 44bc 350a 0bbe b1c3 4dbe
00000170: 0e57 aebe a455 1a3e bed6 ca3e aef9 053e
00000180: cfe1 7d3d 69b7 9cbc 5453 e03e d63a 023c

linears.0.bias f4 [50]
-0.0009999999 0.0009999998 0.001 -0.0009999999 -0.0009999999 0.0009999999 0.0009999999 -0.0009999998
-0.0009999998 0.0009999998 0.0009999999 -0.0009999999 -0.0009999999 0.0009999998 0.001 0.0009999999
0.0009999999 0.0009999999 0.0009999998 -0.001 0.0009999998 -0.0009999999 -0.001 0.0009999999
-0.0009999998 -0.001 -0.0009999996 0.0009999999 -0.0009999999 -0.001 -0.0009999999 -0.0009999997
-0.001 -0.0009999999 0.001 -0.0009999998 -0.0009999999 -0.0009999999 -0.0009999999 -0.0009999999
0.001 0.0009999999 0.0009999999 -0.0009999998 0.0009999999 0.001 0.001 0.0009999995
0.0009999999 -0.0009999998
00000000: 6e12 83ba 6d12 833a 6f12 833a 6e12 83ba
00000010: 6e12 83ba 6e12 833a 6e12 833a 6d12 83ba
00000020: 6d12 83ba 6d12 833a 6e12 833a 6e12 83ba
00000030: 6e12 83ba 6d12 833a 6f12 833a 6e12 833a
00000040: 6e12 833a 6e12 833a 6d12 833a 6f12 83ba
00000050: 6d12 833a 6e12 83ba 6f12 83ba 6e12 833a
00000060: 6d12 83ba 6f12 83ba 6b12 83ba 6e12 833a
00000070: 6e12 83ba 6f12 83ba 6e12 83ba 6c12 83ba
00000080: 6f12 83ba 6e12 83ba 6f12 833a 6d12 83ba
00000090: 6e12 83ba 6e12 83ba 6e12 83ba 6e12 83ba
000000a0: 6f12 833a 6e12 833a 6e12 833a 6d12 83ba
000000b0: 6e12 833a 6f12 833a 6f12 833a 6a12 833a
000000c0: 6e12 833a 6d12 83ba

linears.1.weight f4 [50, 50]
0.18998246 0.00054498645 0.009541584 -0.06789113 0.029258348 -0.022345532 -0.18140599 -0.05704134
0.0029849396 0.043883886 -0.05708044 0.14209375 0.23909684 -0.04566397 0.10864322 -0.06050775
-0.24687809 0.04000473 0.03247618 0.0822702 0.2065691 0.23139289 -0.29616517 0.0726996
-0.13217175 0.05091607 0.2945153 -0.011174853 0.2365183 -0.20439103 -0.15549253 0.22390862
-0.07558291 0.005794859 -0.015559274 -0.04094842 0.18624914 0.12780961 0.025169602 0.015037567
-0.1879601 -0.08654312 -0.23173127 -0.29167655 0.10837299 -0.010545979 0.1790118 -0.11025491
0.05101816 0.05518999 0.06894431 0.27353862 0.14205696 -0.21212603 -0.22412108 -0.16120672
-0.037864607 -0.2443031 0.00058039534 -0.057394505 0.07162392 -0.06567639 -0.045322634 -0.015212173
-0.16655552 -0.048349347 0.052909862 0.061806165 0.3300665 0.0005245468 0.14116183 -0.11636409
-0.09704103 0.29671055 0.18784957 0.33377087 0.02059209 -0.30131736 0.10463381 -0.08150362
0.20994347 -0.32451287 0.017016307 -0.012773849 0.07829301 0.06733128 -0.13501856 0.09944578
0.21586736 -0.022424133 0.17265184 -0.17288268 0.20891105 -0.17497562 -0.26236516 -0.12541081
-0.008132748 -0.3214845 -0.1405707 -0.0012378019 0.20557347 0.230448 -0.21614738 0.06942343
-0.07635092 0.40066713 0.09851385 0.089375935 0.033466384 0.021049721 -0.10036857 0.036857665
-0.015211378 0.108188435 -0.10423638 -0.23924765 0.20697346 -0.082891375 -0.28722876 -0.20979315
-0.0874192 0.0680681 0.01859176 0.009885128 0.22182746 -0.07690721 0.01567849 -0.035207152
0.19595768 -0.08107861 0.15775712 -0.022346225 0.111474164 0.13133499 -0.11783347 -0.00286948
-0.02026216 -0.0347915 -0.02446891 -0.17173274 -0.31235397 0.0242423 0.33411616 0.12636644
-0.10561649 0.016862322 0.09063338 -0.010436934 0.04711382 -0.0005281278 0.17525904 0.07713774
0.062345456 -0.15148744 0.011147842 0.16436017 -0.05464153 -0.16544542 -0.066973545 -0.07064393
-0.03453333 0.02716588 0.09903329 -0.21450983 0.004786374 -0.18971443 0.10013759 -0.092964
-0.1459459 -0.2777526 -0.102233246 -0.080512345 -0.036358375 0.097988196 0.16459112 0.1026808
-0.18297513 -0.11104601 -0.044666495 -0.027177755 -0.2651221 0.047091976 0.018988851 -0.03865913
0.076212086 -0.2913265 0.1544199 -0.0058492124 0.110872425 -0.051641654 -0.00789667 0.23370735
-0.055049125 -0.07758942 0.1816029 0.12969638 -0.06526656 0.032839138 0.15861157 0.12494123
0.05706692 0.21021216 -0.0577642 -0.03545425 -0.1899869 0.008202022 -0.029063229 -0.1759434
-0.06509274 0.016700046 -0.06672692 -0.15286468 -0.091881655 0.1463275 0.02948244 -0.043224838
0.118789144 0.18939012 0.07382075 -0.017079728 0.033674803 -0.029567886 -0.0205194 0.2786062
-0.27553335 -0.034609783 0.048948493 0.0726781 0.13765186 0.13134897 0.056627635 0.12647888
0.4340421 -0.09296289 -0.016150093 -0.010324318 -0.13579266 0.09697323 -0.23814122 -0.0013014468
0.081824645 -0.1585093 -0.19083616 -0.22570889 0.20914157 0.022844646 -0.05572455 -0.04699408
0.0066965967 -0.103615925 -0.11549626 0.02675761 0.2651964 0.017277261 -0.027107233 -0.18108276
00000000: c38a 423e 6cdd 0e3a 4e54 1c3c 810a 8bbd
00000010: 34af ef3c fa0d b7bc 7ec2 39be 2ea4 69bd
00000020: fa9e 433b 97bf 333d 2ecd 69bd 0681 113e
00000030: cdd5 743e 250a 3bbd 5680 de3d f9d6 77bd
00000040: 9ccd 7cbe 00dc 233d be05 053d 477d a83d
00000050: da86 533e 42f2 6c3e f6a2 97be 87e3 943d
00000060: 0858 07be 5e8d 503d b6ca 963e bb16 37bc
00000070: da31 723e e24b 51be 6f39 1fbe 4d48 653e
00000080: 36cb 9abd cde2 bd3b 53ec 7ebc 88b9 27bd
00000090: 18b8 3e3e 86e0 023e 7b30 ce3c 2160 763c
000000a0: 9d78 40be 853d b1bd f64a 6dbe a156 95be
000000b0: a8f2 dd3d 0bc9 2cbc df4e 373e 54cd e1bd
000000c0: 6bf8 503d e60e 623d ad32 8d3d 410d 8c3e
000000d0: 6177 113e 9137 59be ff7f 65be 6013 25be
000000e0: eb17 1bbd 982a 7abe ac25 183a 8016 6bbd
000000f0: 90af 923d 5881 86bd 3aa4 39bd 7a3c 79bc
00000100: 888d 2abe f709 46bd 03b8 583d 7628 7d3d
00000110: 7afe a83e bd81 093a ba8c 103e 4c50 eebd
00000120: 73bd c6bd 72ea 973e a35b 403e 04e4 aa3e
00000130: beb0 a83c 4546 9abe 404a d63d 5feb a6bd
00000140: 6cfb 563e 8d26 a6be c865 8b3c 6849 51bc
00000150: 1658 a03d fbe4 893d 4e42 0abe 3baa cb3d
00000160: 550c 5d3e d1b2 b7bc a5cb 303e 2808 31be
00000170: c7ec 553e cf2c 33be ba54 86be b16b 00be
00000180: 383f 05bc 9e99 a4be c4f1 0fbe bd3d a2ba
00000190: da81 523e 8ffa 6b3e bd55 5dbe df2d 8e3d
000001a0: df5d 9cbd 3e24 cd3e a1c1 c93d bb0a b73d
000001b0: 0c14 093d 7770 ac3c 098e cdbd 10f8 163d
000001c0: 2539 79bc e691 dd3d e279 d5bd 56fd 74be
000001d0: daf0 533e f4c2 a9bd a60f 93be 04d4 56be
000001e0: d608 b3bd 4a67 8b3d bf4d 983c 3bf5 213c
000001f0: bd26 633e 8781 9dbd 2d70 803c 6035 10bd
00000200: 21a9 483e 8b0c a6bd 158b 213e 6e0f b7bc
00000210: 914c e43d ae7c 063e ad52 f1bd e30d 3cbb
00000220: d4fc a5bc 8881 0ebd 0673 c8bc b5da 2fbe
00000230: dcec 9fbe ca97 c63c 4611 ab3e 3466 013e
00000240: 754d d8bd da22 8a3c fe9d b93d adff 2abc
00000250: 6cfa 403d 0f72 0aba 1b77 333e 64fa 9d3d
00000260: f35d 7f3d 861f 1bbe 70a5 363c 084e 283e
00000270: cccf 5fbd 866a 29be 6d29 89bd c4ad 90bd
00000280: d272 0dbd fb8a de3c f7d1 ca3d 77a8 5bbe
00000290: 04d7 9c3b 8044 42be f014 cd3d e963 bebd
000002a0: d872 15be 9735 8ebe aa5f d1bd a8e3 a4bd
000002b0: 85ec 14bd 09ae c83d 938a 283e 504a d23d
000002c0: d55d 3bbe 176c e3bd 37f4 36bd e2a3 debc
000002d0: 15be 87be 84e3 403d 828e 9b3c 0959 1ebd
000002e0: 1515 9c3d bf28 95be 4020 1e3e c0aa bfbb
000002f0: 1511 e33d 3386 53bd 0961 01bc fb50 6f3e
00000300: 317b 61bd 34e7 9ebd 1cf6 393e 21cf 043e
00000310: 79aa 85bd 5582 063d 126b 223e 30e1 ff3d
00000320: 01bf 693d db41 573e 279a 6cbd 7a38 11bd
00000330: ed8b 42be c661 063c 0216 eebc 822a 34be
00000340: 584f 85bd 89ce 883c 20a8 88bd 8f88 1cbe
00000350: 732c bcbd e0d6 153e 2885 f13c 870c 31bd
00000360: b947 f33d 7cef 413e 552f 973d c9ea 8bbc
00000370: 97ee 093d 5a38 f2bc 4d18 a8bc 79a5 8e3e
00000380: b512 8dbe fdc2 0dbd 377e 483d 41d8 943d
00000390: 9cf4 0c3e 5880 063e 61f2 673d ae83 013e
000003a0: c43a de3e 5463 bebd 334d 84bc 5427 29bc
000003b0: 3b0d 0bbe e799 c63d 4bdb 73be 4f95 aaba
000003c0: ae93 a73d 4350 22be 8e6a 43be 3b20 67be
000003d0: 3529 563e b224 bb3c 6d3f 64bd dd7c 40bd
000003e0: 206f db3b 9634 d4bd 4e89 ecbd c632 db3c
000003f0: d3c7 873e 0b89 8d3c fd0f debc c26d 39be

linears.1.bias f4 [50]
-0.0009999999 0.0009999999 0.001 -0.0009999998 -0.0009999998 -0.0009999999 0.001 0.0009999998
-0.0009999999 0.0009999998 -0.0009999998 0.0009999999 -0.001 -0.001 -0.0009999996 -0.001
-0.0009999999 0.0009999998 0.0009999999 -0.0009999999 0.001 -0.0009999999 0.0009999998 0.001
-0.0009999999 0.0009999999 -0.0009999998 -0.0009999998 -0.0009999999 0.0009999998 0.0009999998 0.0009999998
-0.0009999998 0.0009999998 -0.001 0.0009999999 0.0009999998 -0.0009999998 0.0009999998 -0.0009999998
-0.0009999998 0.0009999999 0.001 -0.0009999999 0.0009999998 0.0009999998 0.0009999999 0.0009999998
-0.0009999998 0.001
00000000: 6e12 83ba 6e12 833a 6f12 833a 6d12 83ba
00000010: 6d12 83ba 6e12 83ba 6f12 833a 6d12 833a
00000020: 6e12 83ba 6d12 833a 6d12 83ba 6e12 833a
00000030: 6f12 83ba 6f12 83ba 6b12 83ba 6f12 83ba
00000040: 6e12 83ba 6d12 833a 6e12 833a 6e12 83ba
00000050: 6f12 833a 6e12 83ba 6d12 833a 6f12 833a
00000060: 6e12 83ba 6e12 833a 6d12 83ba 6d12 83ba
00000070: 6e12 83ba 6d12 833a 6d12 833a 6d12 833a
00000080: 6d12 83ba 6d12 833a 6f12 83ba 6e12 833a
00000090: 6d12 833a 6d12 83ba 6d12 833a 6d12 83ba
000000a0: 6d12 83ba 6e12 833a 6f12 833a 6e12 83ba
000000b0: 6d12 833a 6d12 833a 6e12 833a 6d12 833a
000000c0: 6d12 83ba 6f12 833a

linears.2.weight f4 [50, 50]
-0.21211153 0.008576094 0.06607641 0.26256707 -0.15883185 0.02893702 0.084521174 -0.19966164
-0.17487489 -0.09391254 0.19235645 0.11995335 0.19882777 -0.012530023 0.11769255 0.1258245
-0.11544862 -0.00980345 -0.2682435 0.005630076 0.07811779 0.018360924 -0.062581435 -0.07598539
-0.17251493 -0.058067966 0.052964564 -0.08432882 -0.26075375 -0.016835673 -0.18172199 -0.027658304
-0.035425816 0.107769504 0.0076130847 0.091079034 -0.20372514 -0.014315728 0.18721154 0.07146444
-0.15417154 -0.06847899 -0.22657229 -0.12522106 -0.07396575 0.050089747 -0.17681928 -0.018477159
0.03109333 0.0894955 0.031728975 -0.11552237 0.0146780275 -0.058770996 -0.0068198633 0.22653899
0.059685927 -0.09425916 0.049797807 0.24978082 -0.08546701 -0.098105885 -0.5335112 0.13486497
0.03532699 0.073574275 0.027321415 -0.014535157 0.008672382 0.07249943 -0.020879962 -0.13849124
0.20252182 0.06373601 0.18779314 -0.008026356 0.023508992 -0.13625053 -0.102730334 0.011938802
-0.09253245 -0.058847256 -0.07636372 0.24026425 -0.07232764 -0.08091183 0.03600944 0.071438
0.14310747 0.036801435 0.1183007 0.077991955 -0.2393273 -0.027039392 -0.05771624 -0.042598944
0.1684413 0.048235696 0.12135201 0.019538969 0.023430469 0.081301846 0.04966831 -0.17438112
-0.05486609 0.11832197 -0.17749816 0.17991096 -0.05944913 -0.25485954 0.050473765 -0.15775575
-0.16121559 -0.068198785 0.07560331 0.1457427 -0.014235454 0.01803586 0.10980677 0.17800017
0.005341068 -0.0716561 0.10156714 -0.034586918 0.3076852 -0.112800226 -0.11814856 0.033395834
-0.03061907 0.021285338 -0.12388845 -0.016554158 -0.16771221 -0.20553242 0.26086926 0.50454444
0.0054844446 0.27596423 0.12818673 -0.068034105 0.13225695 0.038529962 -0.044059012 0.11489689
0.22097301 0.012278311 0.11826752 0.053877678 -0.033783767 -0.38899046 0.21914758 -0.041973718
-0.066266075 0.028866218 -0.1786015 -0.10559245 0.0133580165 -0.019597614 0.024189543 0.08910238
0.14216553 0.19132058 -0.15574273 -0.09125126 -0.05322035 -0.18629593 -0.10715424 0.18011141
0.07110257 0.04040319 0.2425497 -0.012552139 0.108916245 0.027740778 -0.10882826 0.10737954
-0.26321414 0.007771336 0.049577285 0.11980448 -0.05213517 0.12919854 -0.16006435 0.010354011
0.14309262 0.03458164 -0.07007906 -0.09806632 0.11864581 -0.23587066 0.10526039 -0.062825404
0.24159303 -0.03595279 -0.03419986 -0.024283495 0.12476033 0.22506921 -0.22252835 0.057519615
-0.07059491 0.11967512 -0.035346404 -0.21949139 0.05439679 -0.020742936 -0.002365768 -0.15049721
-0.07881941 -0.08666485 0.072530575 0.055072643 0.15327255 -0.13297328 0.22112577 0.015569733
0.028631553 -0.0650218 -0.16598569 -0.040699616 0.013982108 -0.06774301 0.010645296 0.013542046
-0.18080695 -0.13618447 -0.2729349 0.019887105 -0.13674179 0.084235676 -0.11806592 -0.051595062
0.061238274 0.042094257 0.011769756 -0.045079645 0.04868204 0.06252447 -0.20749569 0.17387058
-0.18308188 0.0830385 0.004600773 0.110296324 -0.0130952615 -0.054314278 0.0484159 0.08584321
-0.11108368 -0.114229284 0.0031124754 0.2952646 0.07542283 0.15387943 -0.01118295 0.1767117
00000000: c433 59be bf82 0c3c 1253 873d 316f 863e
00000010: d1a4 22be 540d ed3c 7019 ad3d 1a74 4cbe
00000020: 6712 33be 3855 c0bd 17f9 443e 1aaa f53d
00000030: 8299 4b3e ba4a 4dbc cb08 f13d 23d8 003e
00000040: 5370 ecbd a69e 20bc 3657 89be 807c b83b
00000050: 38fc 9f3d a669 963c b22a 80bd 3a9e 9bbd
00000060: c1a7 30be add8 6dbd 5ff1 583d 97b4 acbd
00000070: 8481 85be f7ea 89bc 5415 3abe ab93 e2bc
00000080: a91a 11bd 42b6 dc3d 2f77 f93b a587 ba3d
00000090: 539d 50be 848c 6abc 62b4 3f3e f35b 923d
000000a0: 25df 1dbe b63e 8cbd 9102 68be f339 00be
000000b0: 5b7b 97bd e82a 4d3d 1d10 35be 695d 97bc
000000c0: 70b7 fe3c 6b49 b73d 3ef6 013d fe96 ecbd
000000d0: 1c7c 703c dbb9 70bd 2979 dfbb d6f9 673e
000000e0: 3b79 743d f20a c1bd c9f8 4b3d 8bc6 7f3e
000000f0: 5409 afbd bdeb c8bd 3194 08bf 0b1a 0a3e
00000100: 09b3 103d 1cae 963d 29d1 df3c de24 6ebc
00000110: 9b16 0e3c 957a 943d 740c abbc a6d0 0dbe
00000120: e161 4f3e 0688 823d d84c 403e fa80 03bc
00000130: ee95 c03c 4285 0bbe 4864 d2bd f79a 433c
00000140: a781 bdbd d209 71bd 9564 9cbd d507 763e
00000150: 8420 94bd 1ab5 a5bd a27e 133d 164e 923d
00000160: c48a 123e 1abd 163d a347 f23d 3fba 9f3d
00000170: 3712 75be b781 ddbc dd67 6cbd 3b7c 2ebd
00000180: e07b 2c3e cb92 453d 6787 f83d 3010 a03c
00000190: 41f1 bf3c 9581 a63d ff70 4b3d f790 32be
000001a0: 44bb 60bd ca52 f23d 14c2 35be 943a 383e
000001b0: ee80 73bd f37c 82be 94bd 4e3d b98a 21be
000001c0: b315 25be ceab 8bbd e8d5 9a3d 933d 153e
000001d0: d23b 69bc f1bf 933c 5fe2 e03d ad45 363e
000001e0: 2004 af3b 6fc0 92bd 6f02 d03d 03ab 0dbd
000001f0: ea88 9d3e ce03 e7bd dff7 f1bd 12ca 083d
00000200: d8d4 fabc 975e ae3c 3ab9 fdbd 969c 87bc
00000210: c0bc 2bbe 1777 52be a890 853e d329 013f
00000220: dbb6 b33b 2f4b 8d3e 6243 033e 7755 8bbd
00000230: 5e6e 073e 98d1 1d3d 3977 34bd 104f eb3d
00000240: c046 623e f82a 493c 3e36 f23d d7ae 5c3d
00000250: d960 0abd c229 c7be 3968 603e a2ec 2bbd
00000260: 82b6 87bd d978 ec3c 50e3 36be db40 d8bd
00000270: 95db 5a3c 2d8b a0bc 2629 c63c 4f7b b63d
00000280: d793 113e 8be9 433e 067b 1fbe f1e1 babd
00000290: 95fd 59bd 5cc4 3ebe af73 dbbd 206f 383e
000002a0: 399e 913d d17d 253d f35e 783e 7da7 4dbc
000002b0: 7b0f df3d a140 e33c 5ae1 debd cee9 db3d
000002c0: 01c4 86be b1a6 fe3b 8d11 4b3d 0d5c f53d
000002d0: b08b 55bd 9f4c 043e e9e7 23be dfa3 293c
000002e0: df86 123e 7aa5 0d3d 9c85 8fbd ffd6 c8bd
000002f0: 93fc f23d 1488 71be c292 d73d 9baa 80bd
00000300: 2a64 773e 3c43 13bd 2715 0cbd 2eee c6bc
00000310: 5882 ff3d 8b78 663e 79de 63be b099 6b3d
00000320: 1094 90bd 3b18 f53d 64c7 10bd 5ac2 60be
00000330: 2bcf 5e3d 17ed a9bc 000b 1bbb f11b 1abe
00000340: 126c a1bd 577d b1bd e98a 943d da93 613d
00000350: 7bf3 1c3e 262a 08be cb6e 623e 3218 7f3c
00000360: b88c ea3c 262a 85bd 27f8 29be a4b4 26bd
00000370: 3615 653c d9bc 8abd 9c69 2e3c 75df 5d3c
00000380: 7525 39be f173 0bbe 20be 8bbe 48ea a23c
00000390: 0a06 0cbe c183 ac3d 8ccc f1bd 5855 53bd
000003a0: fcd4 7a3d 076b 2c3d efd5 403c 6fa5 38bd
000003b0: d266 473d d40c 803d c079 54be 210b 323e
000003c0: d179 3bbe 1710 aa3d 15c2 963b 0ae3 e13d
000003d0: 828d 56bc a678 5ebd c04f 463d 91ce af3d
000003e0: d77f e3bd 0bf1 e9bd acfa 4b3b ec2c 973e
000003f0: 4977 9a3d 9292 1d3e b138 37bc e9f3 343e

linears.2.bias f4 [50]
0.0009999998 0.0009999999 0.0009999999 0.001 -0.001 -0.0009999996 0.001 -0.0009999998
-0.001 0.0009999998 -0.0009999999 0.0009999999 -0.0009999998 0.0009999999 -0.0009999998 -0.0009999999
-0.0009999999 0.0009999998 -0.001 0.0009999999 0.001 -0.0009999999 -0.0009999998 0.001
-0.0009999999 0.0009999998 0.0009999998 -0.0009999999 0.0009999999 0.0009999997 0.0009999998 -0.001
-0.0009999999 -0.0009999999 -0.001 -0.0009999999 -0.0009999998 0.0009999993 -0.0009999998 -0.001
0.0009999998 0.0009999999 -0.0009999999 -0.0009999998 -0.0009999999 -0.0009999996 0.0009999998 0.001
0.001 -0.001
00000000: 6d12 833a 6e12 833a 6e12 833a 6f12 833a
00000010: 6f12 83ba 6b12 83ba 6f12 833a 6d12 83ba
00000020: 6f12 83ba 6d12 833a 6e12 83ba 6e12 833a
00000030: 6d12 83ba 6e12 833a 6d12 83ba 6e12 83ba
00000040: 6e12 83ba 6d12 833a 6f12 83ba 6e12 833a
00000050: 6f12 833a 6e12 83ba 6d12 83ba 6f12 833a
00000060: 6e12 83ba 6d12 833a 6d12 833a 6e12 83ba
00000070: 6e12 833a 6c12 833a 6d12 833a 6f12 83ba
00000080: 6e12 83ba 6e12 83ba 6f12 83ba 6e12 83ba
00000090: 6d12 83ba 6912 833a 6d12 83ba 6f12 83ba
000000a0: 6d12 833a 6e12 833a 6e12 83ba 6d12 83ba
000000b0: 6e12 83ba 6b12 83ba 6d12 833a 6f12 833a
000000c0: 6f12 833a 6f12 83ba

linears.3.weight f4 [50, 50]
0.12721938 0.3390972 -0.2917103 -0.14760387 -0.15445368 0.00022726928 0.08477634 0.07947268
0.03137457 -0.26761055 0.0052529713 0.12436086 -0.0768544 0.09100765 0.1467085 0.15912274
0.03754815 0.086325556 -0.18977134 0.01762449 0.1567726 0.22684114 -0.11089965 -0.1851099
-0.11807466 -0.06088814 0.11213763 -0.10430709 -0.16410008 -0.0901745 0.06688745 0.13099822
-0.21722452 -0.09577408 0.20996507 -0.024848536 0.029460255 0.122578524 0.2975891 0.054356746
-0.03452284 0.035455354 -0.045708846 0.18034248 -0.09446601 -0.15980014 0.16288958 0.058268484
-0.050982695 0.23916483 0.05163908 0.17583825 0.03806649 -0.093816124 -0.0976124 0.08736761
0.14166829 0.08973055 0.055026848 -0.05237701 -0.19525152 -0.0716183 0.112769276 0.11401014
-0.012572733 0.26503688 0.16712931 -0.023628136 0.036411833 -0.006660283 -0.0044920943 -0.0676881
0.13888246 -0.2382572 -0.21875975 0.011914197 -0.08918868 -0.15888058 -0.008439874 -0.040874347
0.025188444 0.13568792 0.0060318056 -0.07356316 -0.05649213 -0.17729843 -0.08206254 0.0056320517
0.01793417 -0.12951426 0.23009261 -0.3357569 0.051911015 0.1414605 -0.13561305 0.0635135
0.0026648638 0.25529847 0.008012149 0.029946482 -0.45411438 0.07813772 0.17261904 -0.20882037
-0.05288435 0.26912272 0.14282049 -0.05665252 0.094082795 0.16397032 -0.14913826 -0.07611431
-0.07540515 -0.07859686 -0.006865979 0.15618636 0.01620845 -0.23410277 -0.14144015 -0.07976457
-0.049736504 -0.34064862 0.026456362 -0.0770836 -0.059327137 0.06967824 0.041661605 -0.081656024
0.15596028 0.04207864 -0.0123496605 -0.13638832 0.14549632 -0.1385235 -0.08037546 -0.028586658
0.060025953 -0.22920172 0.014833516 -0.1927832 -0.072118156 -0.11564855 0.0593027 -0.19175197
0.07882301 -0.0596189 -0.11793466 -0.09410565 -0.14205278 -0.14170979 -0.0680123 -0.15669751
-0.02532212 0.11908959 -0.19686258 0.033130176 0.020783532 -0.06944742 -0.23784217 0.36505532
0.11513713 -0.024020692 0.08708244 0.15839162 0.07588121 0.08614445 -0.15618427 0.12974268
-0.0017554768 0.25171432 0.004292932 0.2309262 0.15153322 -0.08237849 0.037648965 -0.008276669
0.27219173 -0.020897903 -0.017010188 0.09427886 0.23402774 -0.12435227 -0.24781385 -0.15455295
-0.119379126 0.059794646 0.19174922 -0.0018330943 0.011528918 -0.15362191 -0.026494052 -0.049343374
0.07175124 -0.11437659 0.07659192 -0.016062435 0.007800642 -0.065584145 -0.10061129 0.0957893
-0.008781202 -0.0061361087 0.21044807 0.1384273 -0.47103527 -0.11455975 -0.0668844 -0.16800024
0.022714878 0.028669238 -0.29723194 0.0066525056 -0.054011874 -0.25264648 0.009960835 -0.0045653763
-0.0137184085 0.10298821 0.05200407 0.08234968 0.16004418 -0.21668422 -0.19775733 0.09048374
0.077743396 0.042642742 -0.051812235 -0.13702415 -0.36564046 0.12954003 0.26789007 -0.010328872
-0.21852465 -0.2093065 0.11556472 -0.19436431 -0.082572624 -0.0825293 0.04865776 -0.1552643
-0.17737725 0.07564473 0.021855263 -0.08658496 -0.2508447 0.08919134 -0.08636637 -0.17849681
0.13600057 -0.0033240693 0.0069889375 0.12096632 0.056115955 0.17965199 0.099979706 0.06130581
00000000: cc45 023e 269e ad3e 0d5b 95be 7825 17be
00000010: 1b29 1ebe 224f 6e39 389f ad3d 93c2 a23d
00000020: 9f82 003d 4004 89be 1e21 ac3b e8b0 fe3d
00000030: d765 9dbd 3862 ba3d c13a 163e 12f1 223e
00000040: 17cc 193d 74cb b03d 6b53 42be 3c61 903c
00000050: ff88 203e 0b49 683e 5b1f e3bd 738d 3dbe
00000060: 21d1 f1bd d865 79bd 6aa8 e53d f59e d5bd
00000070: da09 28be 69ad b8bd 4afc 883d 6624 063e
00000080: 1b70 5ebe 3325 c4bd 1501 573e 288f cbbc
00000090: a256 f13c 730a fb3d 995d 983e 2ea5 5e3d
000000a0: d267 0dbd a239 113d 3339 3bbd b3ab 383e
000000b0: 6577 c1bd a6a2 23be 87cc 263e efaa 6e3d
000000c0: 3bd3 50bd a0e7 743e 8083 533d f10e 343e
000000d0: 9ceb 1b3d ab22 c0bd 03e9 c7bd caed b23d
000000e0: 7e11 113e a7c4 b73d d563 613d 4789 56bd
000000f0: 04f0 47be 9eac 92bd 94f3 e63d 267e e93d
00000100: ddfd 4dbc eab2 873e f223 2b3e cb8f c1bc
00000110: 9324 153d 813e dabb 6b32 93bb 0fa0 8abd
00000120: 3437 0e3e b2f9 73be 8e02 60be c433 433c
00000130: 8ea8 b6bd 97b1 22be 6647 0abc dc6b 27bd
00000140: ff57 ce3c c6f1 0a3e 74a6 c53b 48a8 96bd
00000150: 4b64 67bd b88d 35be 6810 a8bd 138d b83b
00000160: aeea 923c 639f 04be 669d 6b3e 54e8 abbe
00000170: a5a0 543d 05db 103e 26de 0abe 5e13 823d
00000180: ffa4 2e3b 7bb6 823e 6345 033c 5352 f53c
00000190: ae81 e8be ab06 a03d 0cc3 303e 02d5 55be
000001a0: 439d 58bd 74ca 893e 893f 123e 790c 68bd
000001b0: 7bae c03d d6e7 273e b3b7 18be d2e1 9bbd
000001c0: 046e 9abd 64f7 a0bd 02fc e0bb 51ef 1f3e
000001d0: 95c7 843c a3b8 6fbe b0d5 10be 9b5b a3bd
000001e0: 81b8 4bbd 7f69 aebe 03bb d83c 02de 9dbd
000001f0: 0301 73bd 77b3 8e3d 5ca5 2a3d 463b a7bd
00000200: 0db4 1f3e a75a 2c3d 3b56 4abc 61a9 0bbe
00000210: fdfc 143e 1bd9 0dbe e49b a4bd 912e eabc
00000220: c6dd 753d dbb3 6abe 4708 733c f668 45be
00000230: afb2 93bd 26d9 ecbd 63e7 723d a15a 44be
00000240: f56d a13d f332 74bd ba87 f1bd 77ba c0bd
00000250: 4976 11be 5f1c 11be 084a 8bbd 5075 20be
00000260: 5670 cfbc 3ee5 f33d 5896 49be 82b3 073d
00000270: 3a42 aa3c 733a 8ebd e68c 73be 88e8 ba3e
00000280: 04cd eb3d 0bc7 c4bc 4758 b23d 6a31 223e
00000290: 9c67 9b3d 806c b03d c5ee 1fbe 44db 043e
000002a0: 0718 e6ba b3e0 803e b9ab 8c3b eb77 6c3e
000002b0: 862b 1b3e 0eb6 a8bd cd35 1a3d de9a 07bc
000002c0: b75c 8b3e 1432 abbc f358 8bbc 4615 c13d
000002d0: f8a4 6f3e 67ac febd eac2 7dbe 2143 1ebe
000002e0: 0b7d f4bd 3beb 743d e859 443e 7044 f0ba
000002f0: c9e3 3c3c 104f 1dbe 0e0a d9bc 471c 4abd
00000300: 50f2 923d 463e eabd 39dc 9c3d 5e95 83bc
00000310: 879c ff3b fb50 86bd 4b0d cebd 2e2d c43d
00000320: 08df 0fbc 6911 c9bb b37f 573e e3bf 0d3e
00000330: 892b f1be 4d9e eabd b0fa 88bd 4108 2cbe
00000340: 8d14 ba3c c0db ea3c c92e 98be 43fd d93b
00000350: 8e3b 5dbd e15a 81be c532 233c 2799 95bb
00000360: 2dc3 60bc 7ceb d23d 3802 553d f3a6 a83d
00000370: 9fe2 233e 78e2 5dbe e680 4abe 8a4f b93d
00000380: ee37 9f3d 28aa 2e3d 1139 54bd 0f50 0cbe
00000390: 3a35 bbbe 24a6 043e e328 893e 6e3a 29bc
000003a0: edc4 5fbe 7154 56be 32ad ec3d 7007 47be
000003b0: d61b a9bd 1f05 a9bd 5c4d 473d 9bfd 1ebe
000003c0: 62a2 35be a0eb 9a3d cf09 b33c 7553 b1bd
000003d0: b76e 80be f3a9 b63d dae0 b0bd dec7 36be
000003e0: bc43 0b3e a1d8 59bb 7503 e53b 31bd f73d
000003f0: d8d9 653d b1f6 373e 29c2 cc3d cd1b 7b3d

linears.3.bias f4 [50]
-0.0009999997 0.0009999998 -0.0009999996 0.001 0.0009999999 0.0009999999 0.0009999999 -0.0009999999
-0.0009999999 0.0009999988 -0.001 0.001 -0.0009999999 -0.0009999999 -0.0009999988 -0.0009999999
-0.001 -0.0009999999 -0.001 0.0009999999 -0.0009999998 0.0009999999 0.0009999998 0.0009999999
-0.001 0.0009999998 0.0009999999 0.0009999999 -0.001 -0.0009999998 0.001 0.0009999998
0.001 0.0009999999 -0.001 -0.001 0.0009999998 -0.0009999999 -0.001 0.0009999996
0.0009999998 -0.0009999998 0.0009999999 0.0009999999 -0.0009999998 0.0009999998 -0.0009999999 0.001
-0.0009999999 -0.001
00000000: 6c12 83ba 6d12 833a 6b12 83ba 6f12 833a
00000010: 6e12 833a 6e12 833a 6e12 833a 6e12 83ba
00000020: 6e12 83ba 6412 833a 6f12 83ba 6f12 833a
00000030: 6e12 83ba 6e12 83ba 6412 83ba 6e12 83ba
00000040: 6f12 83ba 6e12 83ba 6f12 83ba 6e12 833a
00000050: 6d12 83ba 6e12 833a 6d12 833a 6e12 833a
00000060: 6f12 83ba 6d12 833a 6e12 833a 6e12 833a
00000070: 6f12 83ba 6d12 83ba 6f12 833a 6d12 833a
00000080: 6f12 833a 6e12 833a 6f12 83ba 6f12 83ba
00000090: 6d12 833a 6e12 83ba 6f12 83ba 6b12 833a
000000a0: 6d12 833a 6d12 83ba 6e12 833a 6e12 833a
000000b0: 6d12 83ba 6d12 833a 6e12 83ba 6f12 833a
000000c0: 6e12 83ba 6f12 83ba

linears.4.weight f4 [3, 50]
-0.060723945 0.16379054 -0.023545157 0.17229408 0.36583725 0.22608893 0.19459589 -0.12865132
-0.21492815 -0.03551633 -0.05508242 0.10859322 -0.24773128 -0.3619605 -0.030621534 -0.5945392
-0.09485851 -0.13983105 -0.21935992 -0.010473093 -0.1445215 0.2538312 0.004679796 0.1168483
-0.177954 0.07249667 0.057139438 0.09445457 -0.17023233 -0.05908195 0.18317859 0.07993209
0.2121421 0.11138624 -0.08228911 -0.28358987 0.02067705 -0.078067645 -0.19881928 -0.01889415
0.07183883 -0.01755033 0.26527342 0.0148824 -0.3375355 0.0036239151 -0.13727018 0.36162975
-0.10458242 -0.15089063 0.20398568 0.32410562 0.09333269 0.15682821 0.18215193 0.29220775
0.05293241 -0.018541822 -0.43632066 0.23547634 -0.13748977 -0.21031608 -0.12503326 0.2269522
0.11876707 -0.05945285 0.10123642 -0.072119236 0.018423848 0.025599374 -0.083979055 -0.1597526
0.18352124 0.15950058 0.2411798 -0.08672706 0.25955266 -0.012577116 0.09087251 0.14328615
-0.1905472 -0.011913347 -0.2155351 0.2228405 -0.39171156 -0.02067946 -0.05471542 0.049304098
0.20772722 0.18015935 -0.41360083 -0.35935435 -0.17696825 0.15150148 -0.011328264 0.24915232
0.23155631 -0.14548331 -0.12998256 0.16538739 0.01366342 -0.04988521 -0.005105046 0.058910858
-0.26279974 0.41633305 -0.10356893 -0.16493554 -0.009433838 -0.06469666 -0.12802187 0.120943755
0.121858515 0.19848645 0.03097137 -0.094460905 -0.16679111 0.08680097 -0.24525116 0.5151472
-0.23888308 0.184947 -0.03499835 0.21290335 0.046712656 -0.0010201129 0.10466558 0.15098341
-0.10183615 -0.058971018 0.10854315 -0.028986799 -0.39476436 -0.23958 0.06459691 0.5289706
0.2603148 -0.29610375 0.37831 -0.03437974 0.10548084 -0.064904906 0.063843496 0.021566395
-0.047223937 -0.03584004 -0.018311327 -0.23660158 0.17374411 -0.07741639
00000000: acb9 78bd b5b8 273e c6e1 c0bc dc6d 303e
00000010: 054f bb3e db83 673e 2544 473e 2cbd 03be
00000020: 2016 5cbe 9279 11bd 1b9e 61bd 1f66 de3d
00000030: 45ad 7dbe e352 b9be 03da fabc b933 18bf
00000040: 2e45 c2bd df2f 0fbe e39f 60be 5697 2bbc
00000050: 72fd 13be 2af6 813e f958 993b 294e ef3d
00000060: 9339 36be 2279 943d 0b0b 6a3d 6671 c13d
00000070: 6251 2ebe eaff 71bd 2b93 3b3e 70b3 a33d
00000080: c73b 593e 781e e43d 3187 a8bd b132 91be
00000090: eb62 a93c eee1 9fbd 4897 4bbe e8c7 9abc
000000a0: 3d20 933d b6c5 8fbc ebd1 873e 4fd5 733c
000000b0: 74d1 acbe 357f 6d3b 8e90 0cbe 8927 b93e
000000c0: 4f2f d6bd 1383 1abe 9fe1 503e 2cf1 a53e
000000d0: 3625 bf3d 9397 203e 0986 3a3e 419c 953e
000000e0: a8cf 583d 05e5 97bc 6c65 dfbe b620 713e
000000f0: 1eca 0cbe 195d 57be b808 00be 2866 683e
00000100: 263c f33d d584 73bd 0a55 cf3d 40b3 93bd
00000110: 9ced 963c c7b5 d13c 36fd abbd 3096 23be
00000120: feec 3b3e 1f54 233e d6f7 763e f59d b1bd
00000130: 16e4 843e 3f10 4ebc 5e1b ba3d 9bb9 123e
00000140: ce1e 43be 3330 43bc 3cb5 5cbe 4d30 643e
00000150: 6b8e c8be f967 a9bc 471d 60bd 18f3 493d
00000160: 72b6 543e b17b 383e 7dc3 d3be 4bfd b7be
00000170: 2a37 35be 3423 1b3e 2f9a 39bc c921 7f3e
00000180: 191d 6d3e 94f9 14be 261a 05be 505b 293e
00000190: 8adc 5f3c 6f54 4cbd 3b48 a7bb 834c 713d
000001a0: b08d 86be 9b29 d53e f21b d4bd dde4 28be
000001b0: 6290 1abc af7f 84bd 2a18 03be 5cb1 f73d
000001c0: f590 f93d 0840 4b3e acb7 fd3c b874 c1bd
000001d0: 4acb 2abe b5c4 b13d 1f23 7bbe b0e0 033f
000001e0: c49d 74be bf62 3d3e 6e5a 0fbd 5603 5a3e
000001f0: c555 3f3d 4fb5 85ba e85a d63d 659b 1a3e
00000200: 798f d0bd 988b 71bd df4b de3d b975 edbc
00000210: 8e1e cabe 7654 75be 624b 843d 9e6a 073f
00000220: fb47 853e e99a 97be d9b1 c13e c5d1 0cbd
00000230: 5706 d83d ddec 84bd 61c0 823d 02ac b03c
00000240: e36d 41bd 01cd 12bd a301 96bc af47 72be
00000250: fae9 313e 7c8c 9ebd

linears.4.bias f4 [3]
0.0009999999 0.0009999998 0.0009999999
00000000: 6e12 833a 6d12 833a 6e12 833a

exp_avg f4 [50, 2]
0.047135003 0.12603723 -0.0017720967 -0.02231503 -0.10162292 -0.12902072 0.12190469 0.10898297
0.07697063 0.041924484 -0.06538922 -0.08891552 -0.09240172 -0.068848655 0.027713818 -0.032701977
0.01067624 -0.012281854 -0.03851646 -0.039586253 -0.026992846 -0.043413024 0.021965299 0.039735116
0.17901674 0.21586716 -0.013518191 -0.049098037 -0.04686628 -0.039801683 -0.021289691 -0.058757592
-0.027490795 -0.062074997 -0.05043552 -0.077069335 0.006242019 0.009206082 0.06483982 0.077073365
-0.006423262 -0.033067297 0.024905706 0.053650845 0.037183065 -0.02871191 -0.012923109 0.023995085
0.0136383325 -0.014296141 0.0330001 0.050390877 -0.015667045 0.02831021 -0.06930974 -0.11809335
0.093405314 0.10543596 0.05397547 0.062780894 0.021707727 0.05695284 -0.0073205694 0.0037917562
0.03851412 -0.008072539 0.038029026 0.039046537 -0.031179378 -0.037168045 0.107139625 0.1128666
0.09295771 0.073699884 0.13240622 0.19647053 0.01634557 0.049748387 0.009702173 0.019871918
-0.014433957 -0.063780576 -0.030545345 -0.008679223 -0.042856213 -0.0490012 0.025563894 -0.039265785
-0.03729151 -0.03069359 -0.12233593 -0.11307907 -0.023769677 -0.08493927 0.018591072 -0.03495624
-0.041418333 -0.008206894 0.030314868 0.062460877
00000000: a210 413d e70f 013e b345 e8ba 03ce b6bc
00000010: ad1f d0bd 021e 04be 2ba9 f93d 7732 df3d
00000020: c7a2 9d3d 02b9 2b3d c9ea 85bd 5719 b6bd
00000030: 1d3d bdbd 8600 8dbd 1708 e33c 82f2 05bd
00000040: 65eb 2e3c d439 49bc 70c3 1dbd 3225 22bd
00000050: 1a20 ddbc dbd1 31bd 92f0 b33c 4ac1 223d
00000060: 2a50 373e 480c 5d3e 677b 5dbc 061b 49bd
00000070: dbf6 3fbd 1707 23bd b867 aebc cdab 70bd
00000080: 6034 e1bc 5a42 7ebd 7a95 4ebd 87d6 9dbd
00000090: da89 cc3b 1bd5 163c bdca 843d a4d8 9d3d
000000a0: 3a7a d2bb 9371 07bd 0d07 cc3c fdc0 5b3d
000000b0: 454d 183d 3d35 ebbc 73bb 53bc 5791 c43c
000000c0: 5073 5f3c 5d3a 6abc 1d2b 073d aa66 4e3d
000000d0: 2d58 80bc d0ea e73c 44f2 8dbd edda f1bd
000000e0: 494b bf3d cfee d73d 6215 5d3d 4593 803d
000000f0: 67d4 b13c 6247 693d 63e1 efbb 1d7f 783b
00000100: fbc0 1d3d af42 04bc 53c4 1b3d 43ef 1f3d
00000110: e56b ffbc 853d 18bd 056c db3d 9b26 e73d
00000120: 9d60 be3d f7ef 963d 7f95 073e 922f 493e
00000130: 25e7 853c f7c4 4b3d ddf5 1e3c 6fca a23c
00000140: 677c 6cbc 649f 82bd 3b3a fabc 4d33 0ebc
00000150: ff89 2fbd 7bb5 48bd 5f6b d13c 29d5 20bd
00000160: fbbe 18bd 2071 fbbc 438b fabd 0096 e7bd
00000170: a0b8 c2bc a4f4 adbd 4e4c 983c 462e 0fbd
00000180: 45a6 29bd 3576 06bc e356 f83c fad6 7f3d

exp_avg_sq f4 [50, 2]
0.00022217084 0.001588538 3.140327e-07 4.9796065e-05 0.0010327217 0.0016646346 0.0014860756 0.0011877288
0.0005924477 0.00017576624 0.00042757505 0.00079059694 0.0008538078 0.0004740137 7.6805576e-05 0.00010694192
1.139821e-05 1.5084394e-05 0.0001483518 0.00015670714 7.2861374e-05 0.00018846906 4.824743e-05 0.00015788795
0.0032046991 0.004659863 1.8274148e-05 0.00024106173 0.00021964482 0.0001584174 4.5325098e-05 0.00034524547
7.557438e-05 0.00038533052 0.00025437417 0.0005939682 3.8962803e-06 8.4751955e-06 0.0004204202 0.0005940304
4.1258295e-06 0.000109344604 6.202942e-05 0.00028784134 0.00013825804 8.243738e-05 1.6700676e-05 5.7576406e-05
1.8600413e-05 2.0437967e-05 0.00010890066 0.00025392405 2.4545632e-05 8.01468e-05 0.00048038404 0.0013946039
0.0008724553 0.0011116741 0.00029133516 0.00039414407 4.7122536e-05 0.00032436263 5.359074e-06 1.4377415e-06
0.00014833375 6.516588e-06 0.00014462067 0.0001524632 9.721536e-05 0.00013814637 0.0011478899 0.0012738871
0.0008641137 0.00054316723 0.0017531406 0.0038600669 2.6717764e-05 0.0002474902 9.4132165e-06 3.948931e-05
2.083391e-05 0.0004067962 9.330182e-05 7.5328917e-06 0.0001836655 0.00024011174 6.535127e-05 0.00015418019
0.00013906564 9.420965e-05 0.0014966083 0.0012786876 5.6499757e-05 0.000721468 3.45628e-05 0.00012219386
0.00017154783 6.7353103e-06 9.189913e-05 0.00039013612
00000000: 88f6 6839 7e36 d03a 5398 a834 1edc 5038
00000010: 645c 873a de2f da3a 6cc8 c23a 91ad 9b3a
00000020: 7e4e 1b3a e44d 3839 272c e039 1040 4f3a
00000030: 12d2 5f3a 0b85 f839 ae12 a138 0246 e038
00000040: f03a 3f37 fb12 7d37 e28e 1b39 c151 2439
00000050: 27cd 9838 c79f 4539 495d 4a38 b98e 2539
00000060: ee05 523b c4b1 983b 6f4b 9937 84c5 7c39
00000070: 7550 6639 d91c 2639 741b 3e38 1002 b539
00000080: b07d 9e38 3006 ca39 865d 8539 88b4 1b3a
00000090: cbbc 8236 b030 0e37 d86b dc39 b5b8 1b3a
000000a0: 9b70 8a36 f04f e538 cb15 8238 69e9 9639
000000b0: 5cf9 1039 3be2 ac38 6e18 8c37 327e 7138
000000c0: 1508 9c37 3372 ab37 9961 e438 1c21 8539
000000d0: 58e7 cd37 7c14 a838 0edc fb39 24cb b63a
000000e0: 7cb5 643a 98b5 913a 58be 9839 1fa5 ce39
000000f0: 70a5 4538 370f aa39 18d2 b336 6cf8 c035
00000100: 0a8a 1b39 11a9 da36 51a5 1739 87de 1f39
00000110: 19e0 cb38 62db 1039 cb74 963a 8ff8 a63a
00000120: b085 623a 5663 0e3a a3c9 e53a 2df9 7c3b
00000130: f61f e037 93c1 8139 75ed 1d37 53a1 2538
00000140: 7bc4 ae37 4347 d539 08ab c338 0cc3 fc36
00000150: 5596 4039 81c6 7b39 320d 8938 6eab 2139
00000160: 26d2 1139 6c92 c538 d729 c43a a399 a73a
00000170: 27fa 6c38 e620 3d3a 86f7 1038 2a21 0039
00000180: 85e1 3339 e0ff e136 f8b9 c038 2f8b cc39

exp_avg f4 [50]
0.049215473 -0.013566315 -0.10881982 0.12960279 0.060833354 -0.05684309 -0.09229696 0.015216458
0.015661797 -0.016654588 -0.044498544 0.03236215 0.19063294 -0.020417139 -0.039909072 -0.02432683
-0.039037563 -0.060742486 -0.011181806 0.074602984 -0.008070321 0.048777096 0.03474741 -0.008392571
0.019673798 0.028247714 0.0037755312 -0.06544931 0.093570575 0.054987628 0.024732899 0.0030653316
0.02874044 0.041853946 -0.037914958 0.09863701 0.0992517 0.15211649 0.016704302 0.009891986
-0.029097227 -0.028461207 -0.042621117 0.009149036 -0.037379958 -0.12032824 -0.039516278 -0.0020360672
-0.034621418 0.043562062
00000000: 2a96 493d 4045 5ebc eddc debd 98b6 043e
00000010: 652c 793d 4dd4 68bd 3006 bdbd 734e 793c
00000020: 2b4d 803c 346f 88bc 1b44 36bd 2c8e 043d
00000030: 4835 433e d841 a7bc b277 23bd 0f49 c7bc
00000040: dae5 1fbd 1dcd 78bd e533 37bc 73c9 983d
00000050: 6139 04bc 7eca 473d 4d53 0e3d fe80 09bc
00000060: f22a a13c c067 e73c e76e 773b 4a0a 86bd
00000070: eea1 bf3d b53a 613d a69c ca3c bbe3 483b
00000080: 1271 eb3c 0b6f 2b3d b74c 1bbd 3302 ca3d
00000090: 7a44 cb3d 6dc4 1b3e 76d7 883c ff11 223c
000000a0: 4f5d eebc 7a27 e9bc 7b93 2ebd d7e5 153c
000000b0: ba1b 19bd a76e f6bd d2db 21bd 8a6f 05bb
000000c0: 30cf 0dbd 226e 323d

exp_avg_sq f4 [50]
0.00024221627 1.8404493e-05 0.0011841753 0.0016796885 0.0003700697 0.0003231137 0.0008518729 2.315406e-05
2.452919e-05 2.7737533e-05 0.00019801206 0.00010473087 0.003634092 4.168596e-05 0.00015927339 5.917946e-05
0.00015239313 0.00036896495 1.2503279e-05 0.0005565605 6.513008e-06 0.00023792051 0.00012073825 7.0435235e-06
3.870583e-05 7.979334e-05 1.4254636e-06 0.00042836124 0.00087554526 0.00030236391 6.1171624e-05 9.3962575e-07
8.2601284e-05 0.00017517529 0.0001437544 0.00097292603 0.00098509 0.0023139429 2.790337e-05 9.785138e-06
8.466486e-05 8.100403e-05 0.00018165598 8.370486e-06 0.00013972612 0.0014478884 0.0001561536 4.1455692e-07
0.000119864264 0.00018976533
00000000: 6ffb 7d39 5963 9a37 5436 9b3a fe28 dc3a
00000010: ea05 c239 9667 a939 3950 5f3a f73a c237
00000020: 09c4 cd37 e6ad e837 75a1 4f39 f5a2 db38
00000030: f229 6e3b f5d7 2e38 a002 2739 7637 7838
00000040: b8cb 1f39 a371 c139 2dc5 5137 25e6 113a
00000050: 508a da36 4d7a 7939 db34 fd38 6857 ec36
00000060: 1258 2238 b956 a738 8e52 bf35 ac95 e039
00000070: d984 653a 9986 9e39 4449 8038 973a 7c35
00000080: 3a3a ad38 42af 3739 c7bc 1639 f60b 7f3a
00000090: 231e 813a 85a5 173b 0812 ea37 d92a 2437
000000a0: 1a8e b138 b5e0 a938 e87a 3e39 f76e 0c37
000000b0: 7283 1239 13c7 bd3a 2abd 2339 4590 de34
000000c0: a35f fb38 befb 4639

exp_avg f4 [50, 50]
0.012256455 0.012066524 -0.006990269 0.009360172 -0.0071608387 0.005821664 0.0018380595 0.018870037
-0.016177068 -0.0010686413 -0.005816934 -0.0034285167 0.008260119 0.005645327 0.0025147037 -0.008555043
0.014253253 0.005709478 -0.00034184643 -0.0074267345 -0.014723471 -0.009060564 0.00053587067 0.0042520105
0.0055141705 0.0068344637 -0.0045468183 -0.019390916 0.0068513798 0.005744414 0.0087367715 -0.0004404031
0.00191614 -0.008518658 -0.0060446113 -0.010774407 0.0077514844 -0.0016565946 0.004098257 -0.0018657651
-0.012951657 -0.013467041 0.014315766 0.0031097042 -0.003227286 -0.0103642745 0.0027479294 0.009748042
-0.00021056567 0.005099863 -0.0035476193 -0.0068950765 -0.0014647556 -0.0075663994 0.005943188 -0.007984444
-0.0035962507 -0.0061894017 0.009925919 0.0008138301 0.0108010275 -0.00094504125 -0.004667085 -0.00054134073
-0.0022597453 0.0049472074 -0.010523129 -0.005032176 0.0008385815 0.0027643908 0.008102583 0.00900268
-0.0028397483 0.00040680543 -0.0042084986 -0.0014987275 0.006220698 0.0094281165 -0.010743149 -0.0023345314
-0.0004728541 0.00011680166 -0.0014944685 0.005212708 0.0044028508 0.001401768 -0.009363587 -0.00057128305
-0.0028080984 0.0005178542 0.005076548 0.006601292 -0.008727883 -0.00044945657 0.005438292 0.006966073
0.0044474727 -0.010784875 -0.0009514183 -0.009421769 0.005464155 -0.0028145744 -0.01138964 -0.0075672674
0.006155165 -0.012609613 -0.0065398263 0.0069190054 0.005366189 0.0007416055 0.019455194 -0.0061325636
-0.0018236332 0.005088445 -0.0025713271 0.002160397 -0.009106702 -0.005610402 0.001621832 -0.0017941477
0.0026370252 0.011402514 -0.0061950455 0.0057767835 -0.0038506023 0.00414991 0.009790172 0.00029116217
-0.018155595 0.0009095594 0.008762349 -0.0002177755 -0.0014141783 0.0028417325 0.003715104 -0.008878256
-0.013773503 -0.003238548 -0.0020939726 -0.0008678492 -0.0026032643 0.0004718719 -0.004638868 0.0024378228
0.0093956385 0.0049566925 0.013720432 -0.014974385 -0.0025157973 -0.016903698 0.017949441 0.014831212
-0.013153771 0.009620304 -0.007214177 0.0032014486 9.916658e-05 0.02715902 -0.019412694 -0.0011350658
-0.0008097792 -0.0066418885 0.010167502 0.0091692 0.0023810568 -0.010437226 0.015583328 0.005498393
0.00012480158 -0.01034026 -0.018405361 -0.007899822 -0.001483004 0.0075919256 0.00585819 0.010392713
-0.0025089446 -0.025412316 0.0026355886 0.0078287 0.014503266 -0.00065217784 0.0020058022 -0.010152183
-0.006600946 -0.017206026 0.005347252 -0.0033058922 0.004620278 -0.0027436737 -0.01786799 -0.017485475
0.017182393 0.0049221986 -0.0009148853 -0.011847063 0.008441512 0.007584034 -0.0011616931 0.00074913463
0.013145277 0.019411882 -0.0009231221 0.01932846 -0.015078256 0.018313808 0.007814209 0.021515043
-0.027292598 -0.002109643 -0.023779953 -7.0428478e-06 0.013203094 0.0039955173 0.005621034 -0.013890192
0.027511476 0.012581077 -0.0017753833 -0.009147195 -0.023062743 -0.02195443 0.005687263 0.0014630605
0.010904475 0.00643546 -0.014254033 -0.02790085 0.024209647 0.0074520498 0.0055017127 -0.00045340785
0.0038498216 -0.014378853 -0.011551406 -0.008329339 0.021985224 0.00021696734 0.007494338 -0.001964561
-0.016396027 -0.019559005 0.024062362 0.0024874364 -0.012063228 -0.018684177 -0.006992391 0.02578025
0.0017000925 0.020717038 -9.3954055e-05 0.01153927 0.01180674 0.01660766 -0.013231336 0.021569852
00000000: 4ccf 483c abb2 453c a00e e5bb 685b 193c
00000010: 78a5 eabb a8c3 be3b 0beb f03a 5695 9a3c
00000020: c585 84bc a711 8cba fb9b bebb f7b0 60bb
00000030: 7355 073c 6ffc b83b bacd 243b 732a 0cbc
00000040: 7a86 693c 9316 bb3b da39 b3b9 f75b f3bb
00000050: b73a 71bc c372 14bc ac79 0c3a 7354 8b3b
00000060: 37b0 b43b a3f3 df3b 7afd 94bb b3d9 9ebc
00000070: 8a81 e03b a33b bc3b ad24 0f3c e7e5 e6b9
00000080: fd26 fb3a d791 0bbc e011 c6bb 2387 30bc
00000090: 2a00 fe3b 1722 d9ba ac4a 863b b08c f4ba
000000a0: 3033 54bc dda4 5cbc ad8c 6a3c 2ecc 4b3b
000000b0: e080 53bb ebce 29bc 9b16 343b 40b6 1f3c
000000c0: 4bcb 5cb9 c01c a73b 2d7f 68bb 18f0 e1bb
000000d0: 0bfd bfba 8fef f7bb 13bf c23b 2fd1 02bc
000000e0: 13af 6bbb 77d0 cabb 52a0 223c 3757 553a
000000f0: cbf6 303c a5bc 77ba 59ee 98bb c3e8 0dba
00000100: 3c18 14bb 2f1c a23b 3469 2cbc f4e4 a4bb
00000110: 40d4 5b3a c82a 353b b2c0 043c fa7f 133c
00000120: 121b 3abb 8048 d539 72e7 89bb f370 c4ba
00000130: ffd6 cb3b 6378 1a3c 0804 30bc f0fe 18bb
00000140: 67e9 f7b9 6af3 f438 0be2 c3ba 5dcf aa3b
00000150: ca45 903b 87bb b73a bb69 19bc 28c2 15ba
00000160: 1308 38bb 9bc0 073a 2c59 a63b a74f d83b
00000170: 65ff 0ebc 0aa5 ebb9 b333 b23b a843 e43b
00000180: 1bbc 913b 0bb3 30bc 9a68 79ba c35d 1abc
00000190: a80c b33b b974 38bb 9d9b 3abc d7f6 f7bb
000001a0: 44b1 c93b 8d98 4ebc 0a4c d6bb d3b8 e23b
000001b0: dbd6 af3b 4d68 423a 8060 9f3c acf3 c8bb
000001c0: fa06 efba f8bc a63b b683 28bb 7295 0d3b
000001d0: 4734 15bc 77d7 b7bb a793 d43a 9b29 ebba
000001e0: f1d1 2c3b 9cd1 3a3c cfff cabb 2c4b bd3b
000001f0: 635a 7cbb f8fb 873b f566 203c 20a7 9839
00000200: 0bbb 94bc 806f 6e3a f58f 0f3c aa5a 64b9
00000210: f35b b9ba 5c3c 3a3b 1a79 733b 1b76 11bc
00000220: 42aa 61bc d23d 54bb 083b 09bb 6080 63ba
00000230: 879b 2abb 9365 f739 a501 98bb e1c3 1f3b
00000240: 2af0 193c c06b a23b aacb 603c 1f57 75bc
00000250: 13e0 24bb a079 8abc b50a 933c 9dfe 723c
00000260: ea82 57bc 7b9e 1d3c e764 ecbb 65cf 513b
00000270: a7f7 cf38 987c de3c 5f07 9fbc 7dc6 94ba
00000280: 5d47 54ba 33a4 d9bb 9895 263c 6a3a 163c
00000290: 810b 1c3b e600 2bbc 3751 7f3c dd2b b43b
000002a0: 2bdd 0239 326a 29bc d7c6 96bc 416e 01bc
000002b0: 5b61 c2ba b0c5 f83b 0ff6 bf3b 3346 2a3c
000002c0: 1b6d 24bb 7d2d d0bc d7b9 2c3b f343 003c
000002d0: 1b9f 6d3c eaf6 2aba c773 033b 5755 26bc
000002e0: c04c d8bb a7f3 8cbc 0038 af3b aba7 58bb
000002f0: b365 973b 35cf 33bb e45f 92bc b33d 8fbc
00000300: 17c2 8c3c 654a a13b ead4 6fba 2f1a 42bc
00000310: 444e 0a3c 7d83 f83b f443 98ba 9361 443a
00000320: 4a5f 573c ab05 9f3c adfd 71ba b856 9e3c
00000330: ca0a 77bc d706 963c 2b07 003c 5140 b03c
00000340: ba94 dfbc f041 0abb 2dce c2bc 9a51 ecb6
00000350: ca51 583c d4ec 823b a730 b83b b093 63bc
00000360: bf5f e13c dd20 4e3c fab3 e8ba 1ede 15bc
00000370: 14ee bcbc c7d9 b3bc 385c ba3b 2ac4 bf3a
00000380: afa8 323c 8de0 d23b bf89 69bc 5390 e4bc
00000390: 4f53 c63c 5330 f43b b647 b43b 5fb7 edb9
000003a0: 4a4d 7c3b 4895 6bbc 1c42 3dbc c877 08bc
000003b0: 5b1a b43c ba81 6339 1093 f53b ddbf 00bb
000003c0: f650 86bc 353a a0bc 6e1e c53c 4204 233b
000003d0: d8a4 45bc 8f0f 99bc 6d20 e5bb 1a31 d33c
000003e0: a3d5 de3a c7b6 a93c 3309 c5b8 350f 3d3c
000003f0: 0f71 413c ca0c 883c 3fc8 58bc 42b3 b03c
