models/onlyadam_10e/ckpt/ckpt-2000.pt (torch, 106817 bytes, 30 tensors)

linears.0.weight f4 [50, 2]
00000000: b3ef 963e 3a55 9b3e 8373 8cbe 2551 81be
00000010: f382 113e 6e8d 7ebe a410 81be 0a9c 433f
00000020: c89c 94bd ee96 503e ac83 853e d8fc a53e
00000030: 142e e33d a8a6 dc3e 8eeb 8ebe 53a9 0abf
00000040: 58a2 9bbe 8325 8f3d 7dd6 a6be ae5d 94be
00000050: d742 a73d b584 52be 4089 11be 781f edbd
00000060: 28f0 94bc 9e2e 1b3e d63d 63bc 359e 57be
00000070: 2e22 c53e 0906 15be feb5 ed3e 92a7 d1bd
00000080: e6d1 e4bd 73f3 a7be baa5 58bd 627a a1be
00000090: 54f1 78bd b65b f1bd f04e 2bbe f4ef c8bd
000000a0: 4755 3ebe ebe1 203f 0210 0e3e 1dcc f6bd
000000b0: 721a 29bc fd92 3d3e e6ff 4e3e f9e3 e8be
000000c0: 4613 8fbc e97f 53be 50c4 87bd 3cd2 5a3e
000000d0: e7c0 ad3e c3a7 40be c3b0 0d3e fc35 1b3e
000000e0: 18d5 87bd 06b0 55be f3c8 7cbc edf0 24be
000000f0: e20c ae3b ec6a 12be 7943 96be ccaf 48bd
00000100: c50a 00be ad38 9ebe 44c6 72be a508 9fbe
00000110: 3cd2 b43d 4c26 29be 2f26 40be ee46 58be
00000120: f425 693e 16be c5bd 68b8 b53d 122a 3e3e
00000130: 8ac7 57bc 6792 24bf 4338 26be dd42 003f
00000140: acf1 f83d 581b b83e c9c7 93bc 9ebc 4fbf
00000150: e792 863d 7e38 d3bd 9bc5 6dbe 36bd eebd
00000160: 371f a63e 8e56 65be 4329 473e 9074 f8bd
00000170: 70e5 0dbe aa8e 0f3e e5b6 863e 6e55 fa3e
00000180: cd61 d93e 9c6d 963e 9578 893d 0cfa 8d3e
0.2947975 0.3033846 -0.27431878 -0.2525722 0.1421011 -0.24858639 -0.25208008 0.7640997
-0.07256466 0.20370075 0.2607702 0.32419467 0.11092773 0.430959 -0.2791409 -0.5416462
-0.30397296 0.06989577 -0.32585517 -0.28977722 0.081670456 -0.20558436 -0.14212513 -0.11578268
-0.018180922 0.15154502 -0.013869723 -0.21056445 0.3850264 -0.14553083 0.46427912 -0.102370396
-0.111728474 -0.32802925 -0.052892424 -0.31538683 -0.060777023 -0.117850706 -0.16729331 -0.098113924
-0.18587218 0.62844723 0.13873294 -0.1205065 -0.010321246 0.18513103 0.20214805 -0.4548643
-0.017465245 -0.20654263 -0.066292405 0.2136926 0.33936235 -0.18813996 0.1383696 0.15157312
-0.06632441 -0.20867929 -0.015428769 -0.16107531 0.0053115943 -0.142986 -0.29348353 -0.048995778
-0.12504108 -0.30902615 -0.23708445 -0.31061283 0.088291615 -0.16518515 -0.18764566 -0.21120808
0.22768384 -0.09655397 0.08873063 0.18570736 -0.013170132 -0.6428589 -0.162324 0.50102025
0.1215547 0.35958362 -0.0180396 -0.8114718 0.06570988 -0.103135094 -0.23219912 -0.11657183
0.3244569 -0.22396299 0.19449334 -0.121316075 -0.13857055 0.14019266 0.26311412 0.48893303
0.4245743 0.293805 0.06712452 0.27729833

linears.0.bias f4 [50]
00000000: 82e4 353e 1bf7 a13d 52fd c0be c8a5 10bd
00000010: 76ee e3bd 8d81 abbd 15ba 9abd c1b5 3cbe
00000020: 6b9d ecbb 8bbf cebc 0edc 6e3e 606d 283e
00000030: 002d 143c 8cfe 9b3c 05ac 14be 7715 c33d
00000040: ed93 2fbe 8803 253d ba6f f5bc 3506 57bc
00000050: b8c2 8abd 0e9c 0dbc 19f5 253d 0e2d 2f3c
00000060: cdf7 66bd 6998 ccbd 63ea 8e3d 764c 90bd
00000070: 894d be3e c2f9 1abd fd0d b4bd e09c a43c
00000080: d198 913c e5c7 0ebd de45 74bd eeae 823c
00000090: 8c2a 2ebd 9c1e 1d3e a267 763d f1f7 c8be
000000a0: 2cb7 fa3b 2613 133d 2117 fcbc e14e bbbe
000000b0: d6b2 cf3e d7ad 163e c4af 413b aa98 6cbe
000000c0: b491 4c3d d983 0cbe
0.1776295 0.0790846 -0.37693268 -0.03531435 -0.11129467 -0.08374319 -0.075550236 -0.18428709
-0.007220914 -0.02523782 0.23326132 0.16447973 0.009043932 0.019042276 -0.14518745 0.095255785
-0.17146273 0.04028657 -0.029960502 -0.013124038 -0.06775421 -0.008643163 0.040516946 0.010691894
-0.056388665 -0.099900074 0.069782995 -0.07045834 0.3716853 -0.037835844 -0.087917306 0.020094335
0.017773064 -0.034858603 -0.059636943 0.015952554 -0.042521045 0.15343708 0.060157426 -0.39251664
0.0076512303 0.035906933 -0.030772747 -0.36583617 0.40566128 0.14714752 0.0029554227 -0.23105112
0.04994364 -0.13722171

linears.1.weight f4 [50, 50]
00000000: 9a06 42be 291d bcbe 3686 183e 80bb e6bd
00000010: 1fcd a53e 04de a6be f001 143c 1b9c 513e
00000020: 03ae b0ba d635 d0bd 2f5a 61bd 167f 2bbe
00000030: 9827 8cbe 8b55 2f3e 665e 6ebd cb76 fb3d
00000040: 8bad 11bc 8919 e2bc eb39 d4bd 0cbd ae3e
00000050: 7985 e8bd 3457 e3bd 5421 bb3d 61da 833e
00000060: f12d 483c 61ac 293e b384 fcbd e58e 203b
00000070: 2857 37be dbde c23e 01be e53e e220 863e
00000080: 1e7a 513e 3346 26bc f63b 383e e875 b6bd
00000090: bf8f c33d 726d 2dbe 7487 d63d 3a33 e8bd
000000a0: 38b5 a03d bc51 c8bd eaff 1c3e 35f8 41bd
000000b0: 4682 86be 0f2d f83c ab7a b9bd 006f 5abe
000000c0: d906 1cbe 08d9 f0ba dc93 4bbc c11e 823e
000000d0: 8b12 26be 3f5c f93c 2b28 60bb f8a1 f3bc
000000e0: 9944 1f3d 80f4 d9bd 4172 19be 9f79 11be
000000f0: c7df 163e 69f1 8d3e 83bb 30be 4a7a ddbd
00000100: 1140 2d3e 5d23 713e 7c02 ecbc 1618 07bd
00000110: a9bd 7e3e 1587 ea3d 821f 8cbd c1f3 903e
00000120: e1f1 14be eefe 1fbe e881 553e 0d58 90be
00000130: 4ec6 95be eb0a ad3d 4e19 993d a579 a1bd
00000140: f668 823e b2db 983e 6cb6 5b3e 46c0 1abd
00000150: f335 8d3e aa98 ef3d 4184 c7bc 6884 96bd
00000160: 0dd0 8bbd fe70 c53d 3ff4 fabc 2536 7cbc
00000170: e713 c73d 2360 a1bd db3d 40bd 50bc 773c
00000180: 6de2 08be 327c a3be faa2 9ebe 968b 89be
00000190: 67de 933d d061 87bd ac1c b73b 22ed 42be
000001a0: 7058 ebbd 5aa2 a23e 9e63 603e b144 b5be
000001b0: f6ab 8fbd 23cb 8abe dde3 f83e c3c2 1fbe
000001c0: e6e1 273e 95df 25be 9d87 813e bea3 ffba
000001d0: bf0a 02be 4448 b2bd ed6f a7be 89b6 62bd
000001e0: 9fe7 bcbe 7bd9 673e 7b11 6c3d 3ba3 9a3d
000001f0: 091a 6cbe 668f 0a3e a642 cbbd c6b5 573e
00000200: 8864 f4bd ffeb 03be b78b babe c609 aabe
00000210: 0d61 6fbe ae04 d3be 5a10 37be d03e d5bd
00000220: 2ac6 473d e9be b63e 4361 d73b 436b b2be
00000230: f60b 4fbd 165c 49be 473d 793e 1f29 ffbe
00000240: d036 fd3e 9616 f43e c994 303d 6d95 413d
00000250: 80f6 d33e 185c 43be f5ad f73d 043b 81be
00000260: 2d5e cdbd 3bb2 e6bd ca45 333e 7cd4 233d
00000270: 8f2e 283e d286 a2bc 60a6 0a3b fa9c 83be
00000280: 2800 18bf f6c4 9a3c 23c9 12be 45ef 28be
00000290: f310 ae3b a712 4dbe a196 103d 9f65 14be
000002a0: e9ae 00be 18e8 bc3d 8f71 f83d c42f 183b
000002b0: 9410 51be 12d2 8fbd b6e4 4a3e d953 763e
000002c0: ec94 b4be 59b8 4e3e 48c9 18be f44f da3d
000002d0: 731e afbd 7ecb c4bd e91b 7dbd b0c1 17bd
000002e0: 43c2 f33d 23dc 85be 269a 253e 671b 803e
000002f0: a0ad 0ebf 2f56 453e 8cca f83d 3734 c0bd
00000300: 6e10 98bd 1a32 ca3d 3f32 d9bd 52cb a0be
00000310: a116 243e 2e33 353e 16ff cb3d 8fe1 593e
00000320: aa30 073d 03b9 883e 197c 7e3e 8fea 22be
00000330: c93d 76bc 3d59 8abe 88ac 443e 103c c03d
00000340: e488 94bc 4283 03be cb50 10be bf46 623e
00000350: d2c2 60bd 46cf 153c cc9f 9c3d a480 503d
00000360: 560d 9c3c d7fe 533e 3942 8ebc d34f 393e
00000370: 78a7 dfbd df12 95bc 369e 57bd 7976 aa3c
00000380: 9710 2e3e 04a0 273c bfaa 60bd 6f2a 73be
00000390: e586 c13d 96fd 703d 63f3 e1bd f86e 9e3d
000003a0: de88 b43d 3230 ae3e 145a 473e 7d5b ed3d
000003b0: c56e 16be 1227 b1bd 5280 db3b 9d45 873c
000003c0: ffad 81bd 84d1 3d3e 9908 ab3c e513 1d3d
000003d0: dd60 893d 0407 3abd 1b5d 443e 2fbd 2ebe
000003e0: da95 a1be 55ef 98be 4d92 7e3e 59f4 d0bd
000003f0: 2af6 b33d 1971 4d3c 716e df3c 6aea 25be
-0.18947831 -0.36740997 0.14894947 -0.112662315 0.32383057 -0.3259126 0.009033665 0.20469706
-0.0013479594 -0.101665184 -0.055017646 -0.16747698 -0.27373958 0.17122476 -0.058195494 0.12278517
-0.0088914735 -0.027600067 -0.103626095 0.34128606 -0.11353583 -0.11100617 0.09137216 0.25752547
0.012217985 0.16569664 -0.12329998 0.0024499234 -0.17904341 0.3806065 0.44871524 0.26196963
0.2045674 -0.010148573 0.17991623 -0.089092076 0.09548902 -0.16936281 0.104750544 -0.11337896
0.07847065 -0.097812146 0.15331998 -0.04735585 -0.26271266 0.030294923 -0.090566 -0.21331406
-0.15236987 -0.0018375227 -0.012425389 0.25414088 -0.16218011 0.030439494 -0.003420363 -0.029740319
0.03888378 -0.10642338 -0.1498499 -0.14206551 0.14733802 0.27723244 -0.1725903 -0.108143404
0.1691897 0.23548646 -0.028809778 -0.032981955 0.24877037 0.11451546 -0.06841947 0.2831097
-0.14545394 -0.15624592 0.20850337 -0.28192177 -0.29252857 0.08449348 0.074755296 -0.0788453
0.25470704 0.29855114 0.21456307 -0.037781022 0.27580222 0.1169904 -0.024355056 -0.07349473
-0.06826792 0.09640692 -0.030634044 -0.015393768 0.09720593 -0.07879665 -0.04693399 0.015120581
-0.13367625 -0.3193069 -0.30983716 -0.26864308 0.07220154 -0.06610453 0.0055881348 -0.19035771
-0.114914775 0.3176449 0.21913001 -0.3540397 -0.07015221 -0.27108106 0.48611346 -0.1560164
0.16394767 -0.16198571 0.25298777 -0.0019503755 -0.12699412 -0.0870519 -0.3270258 -0.05534986
-0.36895463 0.22641556 0.05763386 0.07550665 -0.23056807 0.13531265 -0.099248216 0.21065435
-0.11933237 -0.12882994 -0.3643472 -0.33210582 -0.23376866 -0.41214508 -0.17877331 -0.10412371
0.04877297 0.35692528 0.006572874 -0.3484746 -0.050548516 -0.19664034 0.24339782 -0.4983606
0.4945588 0.47673482 0.043110643 0.047261644 0.41399002 -0.190781 0.120937265 -0.25240338
-0.10027728 -0.112644635 0.17507091 0.039997563 0.1642401 -0.019839678 0.0021156296 -0.257057
-0.5937524 0.018892746 -0.1433454 -0.16497524 0.005312079 -0.20026647 0.0352999 -0.1449189
-0.12566723 0.09223956 0.121310346 0.002322183 -0.2041648 -0.070224896 0.19813809 0.24055423
-0.35269868 0.2018751 -0.14920533 0.10659781 -0.085507296 -0.096091256 -0.061794195 -0.03704995
0.11902287 -0.26144513 0.16172084 0.25020906 -0.5573368 0.19271158 0.12148008 -0.09384959
-0.07425009 0.09872837 -0.10605287 -0.3140512 0.16024257 0.17695305 0.09960763 0.2127745
0.033005394 0.26703653 0.24852027 -0.1590979 -0.015029379 -0.27021208 0.1920644 0.09386456
-0.01813168 -0.1284304 -0.1409332 0.220973 -0.054873295 0.009143656 0.07647666 0.05090393
0.019049328 0.20702682 -0.017365562 0.18096857 -0.10920614 -0.018197475 -0.052641116 0.020808445
0.16998516 0.010231022 -0.054850336 -0.23746656 0.09449557 0.05883559 -0.110327505 0.07736009
0.08815168 0.34021145 0.19467956 0.11589716 -0.14690693 -0.0865003 0.0066986466 0.016512686
-0.06332015 0.18536955 0.020878123 0.03834905 0.06707928 -0.045416847 0.19176142 -0.17064355
-0.3155964 -0.29870096 0.24860497 -0.102028556 0.087871864 0.012539172 0.027274342 -0.16202703

linears.1.bias f4 [50]
00000000: 7aa3 7fbd c1b0 82bc dc70 793e f496 c7bd
00000010: e757 b0bc 918a e23c 341c a5bc 3d2e 213d
00000020: e35c 43bd 72e2 513d 1cfa 763d e080 45bd
00000030: b5ad 523d 2747 86bb 8d55 a0bb e503 183d
00000040: 6a20 e73c a219 be3b e176 8ebc 8f62 923e
00000050: 275d b0bd 4980 e6bd 0655 ccbc ab62 403c
00000060: add2 223d 83f7 47bd c05f e63a 6c59 90bc
00000070: c841 a0be 4a1d 6dbc de9c e73d e121 7abb
00000080: 2444 2cbd c321 4cbd c2b4 033e 5eb1 593c
00000090: e6e6 27bd abf3 5fbe 94ad 32bd accc 873d
000000a0: 0053 62bc 3586 a33d a0c7 b8bc f58d e33d
000000b0: 85f8 07bc a332 083d 09b5 e2bd 4774 533d
000000c0: 2ab9 02be bee6 1cbd
-0.062411763 -0.015953423 0.24359459 -0.09745589 -0.02152629 0.027653964 -0.02015505 0.039350737
-0.047696006 0.051241346 0.060297117 -0.048218608 0.05143519 -0.0040978375 -0.004893011 0.03711309
0.028213698 0.0058013955 -0.01739067 0.2859082 -0.086115174 -0.11254937 -0.024942886 0.011742274
0.039751697 -0.04882003 0.0017576143 -0.017620765 -0.31300187 -0.014472315 0.11309217 -0.0038167166
-0.04205717 -0.049836885 0.12861922 0.013286917 -0.040991686 -0.21870296 -0.04362257 0.06630835
-0.013813734 0.07984582 -0.022556126 0.111110605 -0.008298998 0.033251416 -0.11069686 0.051624563
-0.12765947 -0.03830599

linears.2.weight f4 [50, 50]
00000000: e6f8 d1bb b749 e83d f1e2 3c3e 2dca 4fbd
00000010: 8718 b83d 67ec 2d3e 05f2 863d a3dc 92bd
00000020: 97ca 4ebe a481 fcbc 754c 203e d91a 873d
00000030: d758 08bd 9bda e13d 1774 46bc 5770 97be
00000040: 5d80 443c 02a7 503d 4827 b0bd 9aa2 9ebe
00000050: 77b6 613d 49ce b0bd 5b55 56be 57b3 88bb
00000060: 2564 3d3e 5765 26be 5b37 c83c 3839 fb3d
00000070: 4eed 943b e8f5 1d3e 4d5c 263e 5a14 df3d
00000080: 20db bf3d 3d82 6d3b fab4 073d 3035 023e
00000090: 1461 863e fd3d 58bd 2578 683c 77e8 ad3c
000000a0: 6856 973d 430c dcbb ed71 87bc 1078 0d3e
000000b0: 75af 923e 76b5 b53d 741e 4dbe 4a50 643e
000000c0: 2ad0 843d a4ea 90bd 3027 44bd 9b5d d5bd
000000d0: 938d 86bc dbaa 843c a275 f1bd 0867 383e
000000e0: 77ac 45be 0e55 d93e 56be 32be 143c c13d
000000f0: 884d a63d ab19 2e3c 09e3 3abe 9c31 413b
00000100: f797 00bd f0be 21be 2e9a c63d 1a25 6ebd
00000110: 820a 3c3e 69a4 133d 1bec 5cbe aa4c 89bd
00000120: 50b1 153e d5d9 f73d fe01 8d3d 5547 6ebe
00000130: 1107 aebd 84a8 a3bd a2c2 8fbe 20c3 093e
00000140: f60b a13e 9cc2 edbd 08eb 353e 30de c93c
00000150: 3e1e c13d 8697 083e 7263 603d fa33 4dbe
00000160: ada7 44be 89c7 223e d279 22be 7920 943e
00000170: 069a debd 11cf 763e 59a3 9abd 2640 25bd
00000180: e111 83be 902e 0c3e 788d 14bd 1723 babc
00000190: 2ff2 f83d f418 48be f48a 223e c3d9 f1bd
000001a0: 9382 293e babe dc3d 3827 f3bd faae a73d
000001b0: 2da1 df3d 9b61 3ebe 39bd 1bbd 7085 e5bc
000001c0: 3ade ae3c 9de1 4abd de97 09be 2b48 00be
000001d0: abc5 f3bb 9a79 b23d 4263 ec3d 248b 463d
000001e0: 0969 1bbe 7565 15be 9b40 49be 31e0 2abe
000001f0: 1c04 053e 22d4 91be 6cee 743e 9b0b b5bc
00000200: 5b49 2e3e 7c08 193e c691 ecbd d6f3 6d3b
00000210: 1e6b 7dbd d472 16bc 439c 94ba b3b8 8a3d
00000220: 1a70 85bd 9a24 35be 1e57 70be 90ce bc3c
00000230: 4ffd 57be a53a b63c 0eaa 493e 0ad1 66bd
00000240: 8a42 4fbe e71f 253d 6e95 b6be 9023 e8bd
00000250: 8710 f7bd 174f 8bbe 3aca f1bd 6acc 07bd
00000260: eb90 babc 93c0 d73b 8412 19be 8918 a13d
00000270: 5527 0fbe 0ab9 b33e 282b 043e 622a 7cbe
00000280: d63a 0ebd 9af2 41be 480e 693e aaa5 993e
00000290: 2c0f b33e 26a8 04be a56b 0c3e 52fa 05bd
000002a0: ddc0 b9bd 4fb7 04bf 9a30 1abd 4910 26bd
000002b0: 5823 e6bd 9ab8 ae3d c779 ba3c 3288 68be
000002c0: 47fd ff3d 3bb4 a5bd bec4 c5bd e640 ba3e
000002d0: aec7 33be 4af2 a6bd ebca 503d fc84 ca3c
000002e0: 1498 123e 7016 b13e 30a7 0abd abdb 913d
000002f0: 9ffd 81be 63b4 0fbe e429 e83d a4db f13d
00000300: 430d f4bd 890f ff3d d4ac 4abe 2798 6bbe
00000310: b0f4 eebd 9f69 853d 0162 f63e b81f 273e
00000320: 5105 d4bb 4446 a53d 97e1 183f ef69 fe3d
00000330: ba66 d1bd ca03 21bd 5464 85bd 4fc8 0c3f
00000340: 63e8 99be f635 24bd 0144 5d3d 4cf5 36be
00000350: 8a83 8c3e 66ff b4bb 5f81 0c3f f53e 0dbe
00000360: 2bb4 68b9 58bc 12be 4437 f8bd 6201 b8be
00000370: bef2 603d 6f06 223e 7ae1 3ebd 771b cabd
00000380: cfee 9cbd 4197 aebe c950 83be 334f 4cbe
00000390: 7b0b 613e 436f 4bbd 8b02 09be 8152 5ebe
000003a0: d3f3 56bd 9897 95bd e5bf d8bd 13a2 ef3e
000003b0: c9f0 31bd 3211 e4bd acfb a1be 2774 853e
000003c0: 4af2 7bbe b789 d73d 63dc 6abe 2edf 8b3a
000003d0: 261d 0c3e 88fa adbd dc1e e6bc 1ec2 153e
000003e0: cd4b 2d3e 0181 8b3e 1518 19be b42d bdbc
000003f0: 5f31 323e f3a1 c33d 642d 773d 66bb a33e
-0.006407845 0.11342185 0.18445946 -0.05072992 0.08989053 0.16984712 0.0658913 -0.07170989
-0.2019447 -0.030823536 0.15654166 0.06596918 -0.03328785 0.11028024 -0.012112639 -0.29577896
0.011993495 0.05094052 -0.08601242 -0.3098343 0.055105653 -0.08633096 -0.20930998 -0.0041717696
0.18495233 -0.16249596 0.024440458 0.12266773 0.0045448905 0.15425837 0.16246147 0.10892554
0.09367967 0.0036240958 0.033131577 0.12715602 0.2624594 -0.05279349 0.014188801 0.021229012
0.073895276 -0.006715329 -0.016533816 0.13815331 0.28649488 0.088725016 -0.20031148 0.22296253
0.06485017 -0.07076004 -0.047888935 -0.104182445 -0.01642493 0.016194751 -0.11790015 0.18008053
-0.19304071 0.42447704 -0.1745542 0.09435287 0.08120257 0.010626237 -0.1825067 0.0029479032
-0.031394925 -0.15795493 0.09697376 -0.05814085 0.18363383 0.036045466 -0.21574442 -0.06704076
0.1461842 0.12102095 0.068851456 -0.23269399 -0.084974416 -0.07991126 -0.2807818 0.1345334
0.31454438 -0.116093844 0.17765439 0.02464208 0.09429596 0.13339052 0.05478234 -0.20039359
-0.19204588 0.15896429 -0.15866783 0.28931025 -0.108692214 0.24102427 -0.07550687 -0.04034438
-0.25599578 0.13689637 -0.036267728 -0.02272181 0.12155568 -0.19540769 0.15873319 -0.11809113
0.16553716 0.10778566 -0.11872715 0.08187671 0.10919414 -0.18591921 -0.038022254 -0.02801773
0.0213462 -0.049531568 -0.13436839 -0.1252753 -0.0074393353 0.087146 0.115423694 0.04847254
-0.15176786 -0.14589484 -0.19653551 -0.16687085 0.12989849 -0.28482157 0.23919076 -0.02210026
0.1702017 0.14944643 -0.115512416 0.0036308668 -0.061869733 -0.009182651 -0.0011338074 0.0677351
-0.06515522 -0.17689744 -0.23470733 0.023047715 -0.21092723 0.02224476 0.19693777 -0.0563517
-0.20240226 0.040313628 -0.3566088 -0.11334908 -0.12063699 -0.27208778 -0.1180615 -0.03315393
-0.02277418 0.006584236 -0.1494847 0.07866008 -0.13979848 0.3510211 0.12907088 -0.24625543
-0.03472408 -0.18940201 0.22759354 0.30009204 0.34972513 -0.12954769 0.13712938 -0.032709427
-0.09069989 -0.51842207 -0.037644006 -0.040542874 -0.1123721 0.08531304 0.022763146 -0.22708204
0.12499481 -0.08091017 -0.09656666 0.3637764 -0.1755664 -0.08151682 0.050974768 0.024721615
0.14315826 0.3458743 -0.03385085 0.071219765 -0.2538881 -0.14033656 0.11336115 0.11809471
-0.11916592 0.12454135 -0.19792491 -0.2300726 -0.11667764 0.06514286 0.48121646 0.16320693
-0.0064703603 0.08070043 0.5971922 0.12422549 -0.10224672 -0.039310254 -0.06513277 0.54993147
-0.3006011 -0.040090524 0.05401993 -0.17867011 0.27444106 -0.00552361 0.54884905 -0.13793547
-0.00022192362 -0.1432966 -0.12119916 -0.35938555 0.054918997 0.15822767 -0.04660175 -0.0986852
-0.076627366 -0.34099773 -0.25647572 -0.19952087 0.21977036 -0.049666654 -0.13379876 -0.2171116
-0.052478623 -0.07304305 -0.10583476 0.4680334 -0.04344252 -0.11136092 -0.31637323 0.2606518
-0.24604145 0.10524314 -0.22935633 0.0010671371 0.13682994 -0.08495051 -0.028090887 0.14624831
0.16923447 0.2724686 -0.14950593 -0.023093082 0.17401646 0.09552374 0.060346022 0.3197891

linears.2.bias f4 [50]
00000000: 1c42 b53c 0e6c 5cbc 3557 543d 2c53 85bb
00000010: 22ea 4eb7 5f0f 7f3e 005f 9cbc 5cb4 a2bd
00000020: e47f d03c 6dc7 75bd b221 a73b 4627 cf3c
00000030: d8fc 93bc a258 9cbd 85d5 cbbd 9956 963c
00000040: 70b5 aebd d499 6a3e f1e8 c8bc 35b7 0b3d
00000050: 4df2 a63d 097a 013d 0a76 6b3d cffc 9abd
00000060: e177 05bd 3992 a3bc ae14 a43d 0b2e 02bd
00000070: daf6 94bb 669d 3f3d 40b1 6a3c e077 f93c
00000080: 90c6 233c 74b4 203d 4f20 e33c 9226 a23d
00000090: 37a0 81bd 3437 4ebd 1844 663d 3c8c 923c
000000a0: f7a6 9cbc b960 5b3d c565 813d 187c bebc
000000b0: 71d9 fa3c 4dca 15bd 0098 e53c 5c4f 2a3d
000000c0: 52db 36bd 00a6 ed3c
0.02212625 -0.013453497 0.05184098 -0.0040687528 -1.233307e-05 0.24908207 -0.019088268 -0.07944557
0.025451608 -0.06000464 0.0051004523 0.025287282 -0.018064901 -0.07634093 -0.09952835 0.01835184
-0.085307 0.22910243 -0.024525138 0.034110267 0.08151684 0.031610522 0.057485618 -0.07567751
-0.03258503 -0.019967185 0.08011757 -0.03178219 -0.0045460286 0.046780966 0.014324486 0.030452669
0.009996071 0.039234594 0.027725367 0.07917513 -0.06329387 -0.050345615 0.056217283 0.017889135
-0.019122584 0.05355904 0.06318239 -0.023252532 0.030621262 -0.036569882 0.02802658 0.04157959
-0.044642754 0.029009819

linears.3.weight f4 [50, 50]
00000000: 548d 86be 9ff1 79bd fa30 81be 6e34 35be
00000010: 70af d93d 1bf0 793d 58fc e73c d62e b53e
00000020: 8d83 bcbd bb86 a5bd 41cf 233d 0c03 dfbd
00000030: 1e23 f6bc a51b 89be d990 2bbe 113a 833e
00000040: 1364 463d f6c3 b53c c078 413e dfa1 d9bd
00000050: ef6d 2cbe cb18 8b3d 0eb4 d73c e301 15be
00000060: e06b 023e bdf1 c43d 34ba 9b3e 9655 7bbd
00000070: 9f4a 19be bf82 173e 8085 90bd 95c6 c53d
00000080: 01c5 c63e 1419 b73e 4349 2c3e 7b5e d0bd
00000090: d82d dfbd 0698 40be 9384 403e 38e4 053c
000000a0: a48b 53bd ac76 b6be c611 8d3e cbe4 57be
000000b0: 66df 133e 7833 2a3d 2587 fabc faff 48bd
000000c0: 9a53 a8bd 371e cb3b 640e 50bd 7d70 2e3e
000000d0: b470 41be 583e 06be e5e4 46bd f3dc f83d
000000e0: cdd7 50bd 203f 0cbd 32e1 f73d d3d0 a93e
000000f0: c59f 8f3e 86b6 ab3d 9597 093d 9a42 633e
00000100: f93c 813d 8051 83be 8094 263e 63f8 b13e
00000110: 048f 633e 4a13 31be fbdf a8bd a9b9 f2bd
00000120: 063c 92bd d312 32be ef7e 603d fc37 f73d
00000130: fb0b 01be 6429 3cba ff10 833d 911e 41bd
00000140: 4cc1 c9bd 3b0a 503d 16c0 273e 6460 9bbe
00000150: a947 913c e6ba 8d3d 42d0 113d f374 1a3d
00000160: 6645 4a3d e2de 50bd c169 c7bd 0b8e bcbd
00000170: 3506 37bd 4809 d8bd 6746 83bd 884c b1bd
00000180: d0af 2f3e ea70 5dbe 186b 883c 4996 59be
00000190: 7ddc 87be 4e9d d8bd 701e c9be 828a 703e
000001a0: fb75 b93e 25b6 35bd 4762 1d3e 2cdd 683d
000001b0: ab3c 703e 08c5 20bd 9b74 41be b608 48be
000001c0: b9d3 e2bd 57df d13d b1e8 2cbd 9798 ea3d
000001d0: 0c65 34bc 082b 183e d360 9d3e 632a 8a3d
000001e0: b369 1b3e 013b 39be 4e10 ac3c cf59 033e
000001f0: ba69 4e3d 54e8 723d ce19 3a3e b9be 34be
00000200: 55fb 613d 979a 6bbe 48b6 19be 8ca6 b63c
00000210: 5c89 713e bfd9 33bc 4440 90bd bc60 24be
00000220: 5287 c0bc 5fc4 8c3e dc86 80bd 206f 073d
00000230: 2452 463e f31b 97be 8113 3cbe 8eae 74bb
00000240: 074e 6e3d ff27 2a3d 0f8e fdbc 8d31 cf3d
00000250: 7bf0 9dbd 24cf a1bd eb08 083e bd47 b93d
00000260: bd85 933e dcd0 00bd db6b 023e 2953 083e
00000270: 7c9a 3bbe 99fe c23d 981e 58be af7a 3dbe
00000280: b0b8 37be f437 d43c ddaf 12be ee0e d53c
00000290: 7368 a73d 3fc3 60be b32c 35be 010f 6b3e
000002a0: 2ccf 2cbe ed17 543d 10aa 363e f248 f03d
000002b0: f9d7 61bd cd17 913e 2a9c 053c b878 cabc
000002c0: b4de a73e cdae f0bc 3424 05bc c590 ea3d
000002d0: 5215 043e 8189 093d e30a d43d 2fc9 cebc
000002e0: 1217 a03e fc96 a0bd b45f efbc 8a25 5b3d
000002f0: 4a69 983c 6f16 06be 6b5e d23d fa24 d13e
00000300: b15e 383e fa27 30be 9a12 1c3e 97d7 ac3b
00000310: 6e5e e93d 4950 5cbe 3448 cdbd 7f5a 3e3e
00000320: 4c1c 533e 54bf 023b 7a00 943e 330b ce3e
00000330: 607f b93e 5852 1bbe 2aca eebd dff7 ca3c
00000340: 5bc2 133e cade 2c3e 0338 c9bd fd06 c83d
00000350: b07f d8be eb84 21bf a897 8fbe 6443 19bf
00000360: 355f e83d 4018 40bd cab3 85bd d929 7bbe
00000370: a7eb d9bc a61f b73e 69e7 ebbd 126b d1be
00000380: 2335 0abf f38d 223e eb8a 283e 9603 87be
00000390: 5cb5 1b3e 322d 223e 502c 9abe e225 6c3d
000003a0: f3a4 febe 8e77 5a3e a698 643e 4cf2 b6bd
000003b0: caa7 d43d d0ad 8abe 6a7c 08bf 6dca d6bc
000003c0: aee9 043f 2530 223d 184f 5fbc 6511 ecbe
000003d0: e28b 7e3e a15f 95be f6a0 c2bc 5867 303d
000003e0: 6901 d8bd e36e ee3d d67d 20bd 0cd7 e4bd
000003f0: b6bb 22be 8b52 4bbe dd5b 07be 8864 acbe
-0.262797 -0.061021443 -0.2523268 -0.17695782 0.10629165 0.061019998 0.028318569 0.35387295
-0.09204779 -0.080823384 0.039992575 -0.10889253 -0.030046042 -0.26778904 -0.16754474 0.2563024
0.048435282 0.022188168 0.18893719 -0.106265776 -0.16838811 0.06791838 0.026330974 -0.14551501
0.12736464 0.096164204 0.304155 -0.061360918 -0.14969872 0.1479597 -0.07056713 0.09657017
0.38822177 0.3576132 0.16824822 -0.10174271 -0.10897416 -0.18807992 0.18800573 0.008172087
-0.051646844 -0.35637414 0.27552623 -0.21083371 0.14440688 0.04155299 -0.03058202 -0.049072243
-0.08219071 0.0061986702 -0.050794974 0.17035098 -0.18890649 -0.1310972 -0.048558135 0.12151518
-0.050987054 -0.03423989 0.121034995 0.33167133 0.28051582 0.08384423 0.033591826 0.22193375
0.06310458 -0.25648117 0.16267586 0.34759817 0.22222525 -0.17292514 -0.08245846 -0.11851818
-0.07140355 -0.17389993 0.054808553 0.12071225 -0.12602226 -0.00071777985 0.06399726 -0.04714829
-0.098513216 0.050791007 0.16381869 -0.30346978 0.017734366 0.06920414 0.035599 0.037709188
0.04938259 -0.050993808 -0.09736968 -0.0920678 -0.044683654 -0.10548645 -0.064099126 -0.08657175
0.17156911 -0.21625105 0.016652629 -0.21248735 -0.26535407 -0.105768785 -0.39281034 0.23490337
0.36222824 -0.04436316 0.15369521 0.05685155 0.23460643 -0.039250404 -0.18892138 -0.19534573
-0.11075539 0.10247677 -0.0422141 0.114548855 -0.01101042 0.14860165 0.30737934 0.06746366
0.1517704 -0.18088914 0.021003868 0.12827228 0.050393797 0.059303597 0.18173906 -0.1765088
0.05517133 -0.2300819 -0.15010941 0.022296213 0.23587555 -0.010977208 -0.07043508 -0.16052526
-0.023502026 0.2749357 -0.062757224 0.03306496 0.19367272 -0.2951351 -0.18366815 -0.0037335488
0.05817988 0.04154205 -0.030951528 0.10116873 -0.07711884 -0.07900837 0.13284652 0.09046886
0.28812972 -0.031449184 0.12736456 0.13312973 -0.1832065 0.09521217 -0.2110542 -0.18503831
-0.17941546 0.025905587 -0.14324899 0.026008096 0.08174219 -0.2194948 -0.17692833 0.22954942
-0.16875905 0.05178063 0.17838311 0.11732663 -0.05513761 0.2833847 0.008154908 -0.024715766
0.32787097 -0.029380227 -0.008126307 0.11453394 0.12898758 0.0335784 0.10353639 -0.025242416
0.312676 -0.07841298 -0.02922044 0.053502597 0.018604893 -0.13094495 0.10271915 0.40848523
0.18004872 -0.1720275 0.15241471 0.0052747237 0.11394964 -0.21515001 -0.10023537 0.18589209
0.20616263 0.0019950466 0.28906614 0.4024292 0.36229992 -0.1516813 -0.116596535 0.024776397
0.1442961 0.16881862 -0.098251365 0.09766958 -0.42284918 -0.6309344 -0.28045392 -0.59868455
0.11346284 -0.046898127 -0.06528433 -0.24527682 -0.026601626 0.35766333 -0.11518747 -0.40902
-0.5398733 0.15874462 0.16459243 -0.26369923 0.15205902 0.15837553 -0.30111933 0.057653315
-0.4973522 0.21334669 0.22323856 -0.08932933 0.10383566 -0.27085733 -0.5331484 -0.026219571
0.51919067 0.039596695 -0.013629697 -0.4610702 0.24858049 -0.29174522 -0.023758393 0.043067306
-0.10547144 0.11642244 -0.039182507 -0.111738294 -0.15891919 -0.19855706 -0.13218637 -0.3367045

linears.3.bias f4 [50]
00000000: 9cf6 863d 2ec1 d0bc 1570 a5bd 0716 3f3d
00000010: 35c4 e33c 1e1a 3ebd 88ae 35bd 1e5c 91bd
00000020: 203c 94bd 4fbc a7bc 27ac 453c 3b89 dd3c
00000030: b4fa 73bc b343 a4bd 8072 393d b8d3 d03d
00000040: 9602 d43c 4f76 283c f0d4 633d dc5e 2fbe
00000050: 3e8a e33c a82d b9bc 0acc cdbb 38b7 85bb
00000060: d67b 233d 470b 613c 4987 cf3b 5392 883d
00000070: fca0 87bc 1d7f 0938 757b 1c3d 3283 47bc
00000080: d634 91bd a957 063d 2a62 ccbd b7c9 8dbc
00000090: 5f51 4e3d b338 4ebc 9ea8 c7bc 40b9 25bc
000000a0: d2de 1b3c 6c3d 93bd 9269 01bd 20e9 993d
000000b0: 70a1 15bd 805d 2f3d 402d 1ebc 38c1 5dbd
000000c0: 6504 3bbd bba5 0ebd
0.06590006 -0.02548274 -0.080780186 0.046651866 0.02780352 -0.046411626 -0.0443559 -0.07097648
-0.072380304 -0.020475535 0.01206497 0.027042976 -0.014891315 -0.08020725 0.04527521 0.10196632
0.02588014 0.010282113 0.055622995 -0.1712603 0.02777588 -0.022604778 -0.006280427 -0.0040806793
0.03991302 0.013735599 0.006333266 0.06668534 -0.016556256 3.278173e-05 0.038203675 -0.0121772755
-0.07090156 0.032798443 -0.09979661 -0.0173081 0.05037057 -0.01258676 -0.024372395 -0.010114968
0.009513574 -0.0718945 -0.03159482 0.07515168 -0.036530912 0.042813778 -0.009654343 -0.054139346
-0.045658488 -0.03482602

linears.4.weight f4 [3, 50]
00000000: d9d9 8ebd dfed 84be bb8f 71bd 09aa f03e
00000010: 4377 113f 01f9 90be 7f5a f6be 1827 82be
00000020: adad d03c 9c90 0dbf fcb8 933e cc80 9a3e
00000030: 8699 323e 5f59 5dbd e9eb a4be c019 843e
00000040: c71f ed3e c6a6 9d3d 4d4e 62bc 4e87 1e3e
00000050: 3b99 de3e 6fe8 a1be 130f 84be 4900 43be
00000060: 059b b53e 473f a73e 5b89 b63e fe0d a7be
00000070: 266b b1be fbac 413e 1de7 ef3e 8c2e eabe
00000080: 658d be3e e0f6 1a3f a038 26be ab57 b03e
00000090: 6db4 303f 17b0 05bf 9f1e 12bf 8c8c 9ebd
000000a0: 08cf 90bd ada3 8a3d 16ae d7be 8581 4e3d
000000b0: e153 a23d 855c 613e 80e3 b4be dc98 e1bd
000000c0: e392 60be 8392 3dbe 2bd1 79bd 235b ccbc
000000d0: e6aa 8d3e d792 dfbd 4d56 b1bd cbca 163e
000000e0: 83c4 1ebe 23ab a03c d099 54be 2ada 893d
000000f0: 5f22 a73e ea33 ae3d e686 08be b27c fdbd
00000100: df5a a9be 0a19 8dbe 33d6 313e b774 d13d
00000110: 4296 223e be20 01bd 4e5b 08be 89c9 7a3e
00000120: a6aa 4cbe 3ef7 81be eb98 aa3e 4ac2 ca3d
00000130: 5d12 6c3d f45d 933c c47d 8b3e 9f29 a0bd
00000140: 5b19 20be 2d1e bfbc 9424 653e d5ae d3bd
00000150: a1df 933e b0d5 11be a4c6 be3d bd3f 9c3d
00000160: 24e7 753d 621f 253d de09 6a3e e228 493e
00000170: fbd5 cebe 88a4 273d db4b 34be 520b 883e
00000180: 48ec b13c 1308 c53e d78a 143f eb66 19bf
00000190: 3106 a6be 5a52 af3e ca27 4cbd 09b5 52be
000001a0: 5db6 2b3d 724e 913d 6ccc 99bd 0cba f13e
000001b0: 5882 c73e f39c 21be 7842 a03c 2599 2cbe
000001c0: 3364 2abf 73d0 d93e 48c3 acbd af11 b5be
000001d0: a817 823d c732 a5be 3c71 a4be ee61 bf3e
000001e0: a399 10bd a8e7 913d ae04 163d 0f61 903d
000001f0: a0c2 4d3e 886c eabd 75b4 923d 9cec 96be
00000200: 8088 0a3d 2cd1 233e 3938 233e eea7 8bbe
00000210: a52e 9c3e 62c5 11be d47f 943e aafb 993e
00000220: 93de ac3d 8b6e 84be d2c1 52bd 65ee 143f
00000230: e192 d5be a82f 6cbe fd6c e33d 3f53 dbbe
00000240: 07dd 343e 430a 06bf 42d5 aabe 03db 01be
00000250: 0312 5dbe 07c1 1fbe
-0.06975145 -0.2596273 -0.058974963 0.47004727 0.56822604 -0.28314975 -0.48115918 -0.2542045
0.02547344 -0.5529878 0.2885207 0.3017639 0.17441377 -0.05404031 -0.32211235 0.25800896
0.46313307 0.07697825 -0.013812614 0.15481302 0.4347628 -0.31622645 -0.2579275 -0.19043078
0.35469833 0.32665464 0.3565167 -0.32627863 -0.3465206 0.18913643 0.46856013 -0.45738637
0.3721725 0.6053295 -0.16232538 0.34441885 0.6902531 -0.52221817 -0.57077974 -0.07741651
-0.07070738 0.067695 -0.42125005 0.05041649 0.07926155 0.2200795 -0.3532982 -0.11015484
-0.21931033 -0.18512921 -0.060990494 -0.024945801 0.27669448 -0.10916679 -0.08659039 0.14725797
-0.15504651 0.019612854 -0.207618 0.067310646 0.3264341 0.085059956 -0.1333271 -0.12377299
-0.33077142 -0.27558166 0.17366867 0.1022734 0.15877631 -0.031525366 -0.1331608 0.24490942
-0.19986972 -0.25383943 0.33319792 0.09900339 0.0576347 0.017989136 0.2724439 -0.078204386
-0.15634672 -0.023329819 0.22377235 -0.10336081 0.28881553 -0.14241672 0.093152314 0.076293446
0.060034886 0.040313132 0.22855327 0.19644502 -0.4039763 0.040928394 -0.17607062 0.26571137
0.021719113 0.38482723 0.5802435 -0.59922665 -0.324266 0.34242517 -0.049842633 -0.20576872
0.041921962 0.070950404 -0.075096935 0.47212255 0.38966632 -0.15782528 0.019562945 -0.16855295
-0.6655914 0.42541847 -0.084356844 -0.35365054 0.06352168 -0.32265303 -0.3211764 0.37379402
-0.03530277 0.07124263 0.036625557 0.070497625 0.20093775 -0.11446482 0.07163326 -0.29477394
0.033821583 0.15997761 0.15939416 -0.27276558 0.30504337 -0.14235452 0.29003775 0.30074817
0.0844089 -0.25865588 -0.051454373 0.5817626 -0.41713622 -0.23065054 0.11104772 -0.4283695
0.1766244 -0.5235941 -0.33365828 -0.12681203 -0.21588902 -0.15600978

linears.4.bias f4 [3]
00000000: dcce 033c a679 f6bd 348d 10be
0.008044925 -0.12034921 -0.14116365

exp_avg f4 [50, 2]
00000000: 8622 eeb9 993d 6bb9 35d3 0f3a d4ab 473a
00000010: 2485 b0ba 7997 c53a 2e02 daba 4356 17bb
00000020: 34b5 583a c60f 3bba e53b 9fb9 81d5 6aba
00000030: 3430 85b8 1a4a d337 fbba a03a 53ba 9539
00000040: 08c7 783b 3b41 03bb 2128 94ba 96cb 0a3b
00000050: 573e 09bb 3e95 d03a 890b c537 3935 703a
00000060: 447f 4f3b 41d9 96bb 873a c5ba cf25 c43a
00000070: 20a6 3ebb 0c42 bd39 bd0a 07bb 1851 18ba
00000080: e757 caba edea b03a ae3c b5ba 25a0 ac3a
00000090: 2910 2fba f314 1a3b fb78 41ba 8d1b eb3a
000000a0: 484f ffb9 adf6 dcb9 26b5 0cbb 5f0a eb3a
000000b0: 914b 653b 4ba6 7ebb 0841 25b7 f305 ccb8
000000c0: 4a8c 70ba 9d64 c63a 5fd2 c13a b35e 75ba
000000d0: bbf0 c1ba 4a79 e3b9 e1bb 883a 8d8a 00bb
000000e0: e466 44b9 671b b6b9 dd89 11bb bbab 4e3b
000000f0: a74a 66bb d74c 913b 9812 003b d9ad 87ba
00000100: 0003 2dbb 5197 f33a 7b34 96b9 2e1b e33a
00000110: d52d 15bb daa1 d73a 9485 31b9 fef5 a23a
00000120: fa84 3bbb 1746 483a 0d8d 1d3a eb37 10bb
00000130: 29c5 7c3a 80d6 0d38 c1b9 593a 80d2 a039
00000140: e3dc be3a 712b aaba 5c4f 8b3a 530a 013b
00000150: 379e 2dbb 70bf 323b 6f47 de39 0734 ec3a
00000160: 6c12 33bb 80f8 8aba 9e9d 7bbb ce4f e63a
00000170: 903c 9d3b 6b50 53bb 50dc 95ba 5d70 273a
00000180: 38cb 90ba 9fec f838 217d 9a3a bc49 ceba
-0.0004542062 -0.00022434293 0.00054864894 0.0007616852 -0.0013467413 0.001507505 -0.001663273 -0.0023092187
0.00082667475 -0.00071358343 -0.00030371468 -0.0008958206 -6.350913e-05 2.5187666e-05 0.0012262756 0.00028558317
0.0037960429 -0.0020027894 -0.0011303463 0.0021178476 -0.0020941698 0.0015913618 2.3489602e-05 0.0009163204
0.003166155 -0.0046035354 -0.001504735 0.0014964881 -0.0029090717 0.00036098098 -0.0020605766 -0.0005810424
-0.0015437574 0.0013497748 -0.0013827288 0.0013170285 -0.0006678128 0.0023511022 -0.0007380393 0.0017937288
-0.0004869646 -0.00042145458 -0.0021470278 0.0017932168 0.0034987668 -0.0038856443 -9.849908e-06 -9.728586e-05
-0.0009176178 0.0015136186 0.0014787427 -0.00093601196 -0.0014796475 -0.0004338718 0.0010431969 -0.0019613833
-0.00018730346 -0.0003473416 -0.0022207417 0.0031535465 -0.003513971 0.004434209 0.0019542333 -0.0010351493
-0.0026399493 0.0018584525 -0.0002864933 0.0017326826 -0.0022762914 0.0016451434 -0.00016929797 0.001243293
-0.0028613196 0.0007639839 0.0006010093 -0.0022005986 0.0009642416 3.381679e-05 0.00083055726 0.00030674413
0.0014561679 -0.0012982917 0.0010628509 0.0019689992 -0.0026492008 0.002727475 0.00042396362 0.0018020876
-0.0027324213 -0.0010602623 -0.0038393508 0.0017571391 0.0047984794 -0.0032243978 -0.0011433456 0.0006387288
-0.0011046892 0.00011869636 0.0011786559 -0.0015738527

exp_avg_sq f4 [50, 2]
00000000: 8648 8c3a a0b4 293a e933 083c 7307 583c
00000010: 261b c33c 90a4 fa3c bed1 b23e c4c0 a53e
00000020: 5adc cd3a 1d62 8e3b 2f9a 1d3c 4979 5f3c
00000030: e9cc 003b 890a c739 f491 c23d d9e1 cf3d
00000040: 81f7 213e 291b 333e 23f8 7c3d 53d6 c23d
00000050: 1d83 473d d35a 1f3d 8f83 6d3b c332 9f3b
00000060: 2c36 8c3e 4094 b33e 58e6 3c3d 1818 5d3d
00000070: 98ce 183d 8780 443d 207a 073d 94a4 c73c
00000080: 2066 c03c 21e0 033d e1a9 1a3d eabf 203d
00000090: b075 3f3d 4491 813d 0539 413d 14c9 963d
000000a0: 0168 cb3d 1298 003e e1ea 403d 6ca7 563d
000000b0: 65b0 833e 9944 a13e 42c7 793c c156 003d
000000c0: 357b f23c 421b 053d d78f aa3c f4bb c33c
000000d0: c3d1 c63a a18d be39 b3c3 a53c 459f 9d3c
000000e0: c102 b03a 4914 1d3b aacc e93d 9fb4 0b3e
000000f0: 1484 8b3e 6d70 c63e 0a1a 3f3c bead b43c
00000100: cb65 253d 823e e43c 85ec 1c3d 99e1 673d
00000110: 96b9 a93d 463e cd3d bb0f 6c3c 0964 943c
00000120: 7389 2b3d 5d86 243d 529d 653c 3005 143d
00000130: fc59 d53d 8e2e 083e d9a7 623a 27d5 f83b
00000140: a69d b53c 170f ce3c 3977 743e a7b2 803e
00000150: 2bbc 1b3e 0b75 443e 0ab1 253d e185 c03d
00000160: 99bb 9a3a 744e 823b 671d c73d a3d8 ce3d
00000170: 94ca 9c3e a05c b33e 3e81 203a 56d6 bd39
00000180: 91d5 fe39 f79f 2d3b a6ff 293c d16e dc3b
0.0010702766 0.00064737536 0.008313158 0.01318537 0.023816656 0.030596048 0.34925646 0.3237363
0.0015705929 0.004345192 0.00961928 0.0136397565 0.0019653386 0.00037964087 0.095004946 0.10150499
0.15817071 0.1749083 0.06176008 0.09513535 0.048709024 0.038904976 0.0036241745 0.004858346
0.2738508 0.35074043 0.04611811 0.053978056 0.0373064 0.047974136 0.03307545 0.02437047
0.023486197 0.032196168 0.037759665 0.039245524 0.046743095 0.06326535 0.04717352 0.07362571
0.099319465 0.1255801 0.047098998 0.05240576 0.25720516 0.31497648 0.015245261 0.031332735
0.029599765 0.0324967 0.020820541 0.023893334 0.0015168715 0.00036345146 0.020234918 0.019240985
0.0013428555 0.002396839 0.1141599 0.1364312 0.27249205 0.3875765 0.011663923 0.022055503
0.04038028 0.027861837 0.0383115 0.05661163 0.08287351 0.10021643 0.014408047 0.018114107
0.04187913 0.0401672 0.014014559 0.03613776 0.10417554 0.13299009 0.0008646227 0.007593769
0.0221699 0.02515368 0.23873605 0.251363 0.15208499 0.19185273 0.04045204 0.094005354
0.0011805176 0.0039766375 0.09722405 0.10099914 0.30623305 0.35031605 0.0006122774 0.00036208582
0.00048605775 0.0026493052 0.010375893 0.0067270775

exp_avg f4 [50]
00000000: b816 a0ba ba2d 37b8 c9d8 373b d183 a43b
00000010: fad7 1b3a c681 4c38 2c70 db39 94ee ac3a
00000020: 81fd 20bb f84c 413b d76f 70bb d0ed 3bba
00000030: ff71 9ebb e7a7 a83a b2d6 123b 6263 1b39
00000040: 8c07 323b 861e 9b3a 54a5 403b 2983 0b3b
00000050: 94ca 4f3b ad5c 0d3b 941f 94bb 36b4 b9ba
00000060: a5f3 013b 483f 4239 cde4 e839 9574 d1ba
00000070: 3ddf 19bb 6d6c 983b 4591 c53b 5d91 44ba
00000080: 3e24 013b 507b 3b3b 26f3 313b 37c9 393a
00000090: 2e92 e23a b57c 6cbb 149c 06bb b313 243b
000000a0: 57c0 c1ba 8cf9 0ebb ad5d 2d3b fc55 813b
000000b0: 277c 40bb 21dd ac38 cafd 68bb 0a42 1f3b
000000c0: 2f35 75b9 ef7a 2f3a
-0.0012213802 -4.3673186e-05 0.0028052798 0.0050205966 0.0005944964 4.875825e-05 0.0004185451 0.001319366
-0.0024565163 0.002949534 -0.0036687755 -0.0007168921 -0.0048353667 0.0012867422 0.00224058 0.00014818975
0.0027165143 0.0011834658 0.0029395418 0.0021287894 0.003170644 0.0021570132 -0.004520366 -0.0014168087
0.0019829061 0.00018524856 0.00044420958 -0.0015980179 -0.0023479008 0.0046515972 0.0060292804 -0.00074984675
0.001970544 0.0028607436 0.0027152984 0.0007087173 0.0017285997 -0.0036085073 -0.0020539807 0.0025036156
-0.0014782053 -0.0021816222 0.002645354 0.0039470177 -0.0029370876 8.2427876e-05 -0.003555166 0.0024300837
-0.00023384833 0.0006694039

exp_avg_sq f4 [50]
00000000: 73a2 7b3a a3f0 033d c520 523d 971d 343f
00000010: 86f1 223c 0bf1 fe3c ec5e 313b d663 453e
00000020: 7b29 a73e 4686 323e 9f17 de3d 048c 1e3c
00000030: d149 2b3f 8317 eb3d 0456 b53d 96bf 6b3d
00000040: 9bc8 873d f4b9 c53d c907 f63d 7dde 063e
00000050: 3aaf 5a3e 6a6a ed3d faea 1b3f 1bb0 293d
00000060: 4e14 883d a951 523d c1f3 163b 76f3 1f3d
00000070: 5025 c23a d3ac 923e ada8 323f 4c09 e43c
00000080: 203a a83d 86ee 003e aafa 4a3e 23a7 163d
00000090: 8ec6 9d3d c4a7 573d cf84 6f3e 1af8 173b
000000a0: f331 663d 826d fd3e 51d8 ae3e 2ec8 153e
000000b0: 9b50 983a 208d 4a3e 3eec 273f 83f7 833b
000000c0: d67f 913b 6276 b33c
0.0009599097 0.03221191 0.051300783 0.7035765 0.009945279 0.031120798 0.0027064634 0.19276366
0.32648835 0.17434034 0.10844349 0.009676937 0.6690951 0.11479094 0.08854297 0.057555757
0.06630059 0.09654608 0.12013204 0.1317081 0.21355906 0.115925625 0.6090542 0.041427713
0.06644498 0.05134741 0.0023033472 0.03905054 0.0014812145 0.2864748 0.6978863 0.027836464
0.082142115 0.1259099 0.19822183 0.036780488 0.07703887 0.05265023 0.23390506 0.0023188652
0.05619998 0.4949761 0.3414941 0.14627144 0.0011620702 0.19780397 0.6559485 0.0040273084
0.004440288 0.021907035

exp_avg f4 [50, 50]
00000000: c4da 0638 56f0 7338 caeb 35b9 bc95 0a39
00000010: 2dfd 55b7 dc3c 63b8 5d96 58b7 40a4 83b8
00000020: 1bdf 6438 446b 0938 5427 6d38 d251 9238
00000030: 0416 9e37 8189 12b7 9e4b 07b9 7a37 91b8
00000040: c6b0 9ab8 e2d0 4ab6 0137 40b7 bb3a 6237
00000050: 499c a538 ee3b 10b8 5566 0738 4938 a8b8
00000060: f4db 15b8 61c5 10b7 196d 5ab8 8f37 10b8
00000070: adf8 0139 0b0e d2b7 7b73 3bb8 5945 5c38
00000080: 9590 1736 3059 cd36 7b33 4fb8 80bb a837
00000090: 431a 78b8 5ef3 6e38 e0f9 20b8 93de b8b8
000000a0: b4d6 4d37 e6ba 9cb8 fb14 f7b7 61ba ccb8
000000b0: c0be 9d38 51ce 5337 c297 0f38 89fe d9b8
000000c0: 971a 5bb8 c240 24b8 2dfd 4139 dabf 20b7
000000d0: f854 04ba 7ced d938 4040 3939 2d7e a638
000000e0: d0f2 5e39 c39b 67b9 dbc1 9139 0286 8fb8
000000f0: 2ec4 d6b8 751b c738 f1ea 3a39 4d8e 46b9
00000100: 3230 f7b9 2868 aeb9 b8dc 9ab9 0bf8 67b9
00000110: 017a deb8 869b bd36 72a5 5539 448e 6eb9
00000120: 1ede 6839 b65d b1b9 bdcb 71b9 0099 4539
00000130: 3c86 adb9 4eb1 6a37 0de7 9d38 99c3 40b9
00000140: 7f67 61b9 df71 3b39 69b3 45b9 d0b9 1ab9
00000150: 63e5 8bb9 3133 9bb8 7508 96b9 10e8 6f39
00000160: 1c39 25b9 4819 4e39 5257 6b39 807d bb36
00000170: 5e45 3cb9 604f 63b9 e662 f4b8 3d03 1fb9
00000180: a2cd 7b39 192e f738 3f70 9c37 871a 1139
00000190: 0782 6ab9 d51d 2339 473a ffb8 a9d7 253a
000001a0: c4dd 7539 1506 dfb8 7812 0039 c247 4f38
000001b0: f1fa c539 ba13 7239 2a1f 93b9 9807 2d38
000001c0: aa10 d938 3057 e3b8 8c39 c9b9 5a8a 1cba
000001d0: e1a2 24b7 3766 03b9 9225 7437 f360 1739
000001e0: d0ff 0c3a 5a64 69b9 3d6f d738 48ae f3b9
000001f0: 376b a3b8 ab1a 7039 9c9c 03ba d122 5eb8
00000200: d27c 18b9 7107 7db8 3b09 6db8 4f11 9b39
00000210: bd2b feb7 bd9c f338 abf5 33b9 f949 cb38
00000220: d682 97b9 cb2b 45b8 af7d adb9 4584 083a
00000230: cd38 6b38 6dc8 c9b9 bde9 00b9 1246 a439
00000240: ff28 23ba 6127 b5b9 75c7 7639 bb2b 4ab7
00000250: 141d b8b9 53db ed38 4772 0c39 8c71 1e39
00000260: 8b75 04ba 2e7a d039 c504 cbb7 2ef4 07b9
00000270: cd19 81b7 a926 68b9 cb47 3039 44ad 5538
00000280: cc6f 1a39 9c4b 5b39 da57 7838 4d9c fcb7
00000290: c5ca d6b9 096a 2fb9 3bf7 5cb9 b55f 92b7
000002a0: 1587 07b8 11e1 3138 08e8 8339 359d ebb8
000002b0: 3bbf cb38 2ca1 81b9 63e5 dcb8 e426 52b7
000002c0: d85f 27b9 3e95 d4b8 d6ec b639 fa81 9cb8
000002d0: 62f8 09b9 1949 2239 70ee 35b6 20a2 c2b6
000002e0: c965 1fb9 3a79 5c38 3c39 46b9 dee3 2b39
000002f0: db8a 0db9 ce7a 43b9 d907 4038 92e0 7bb9
00000300: a4f1 c1b8 116e 9eb9 0167 6f39 ba95 e137
00000310: 8a3d eb38 a4a3 7db9 ef4a 8bb8 9218 d5b8
00000320: b57f 4cb6 de07 9eb8 29ec 6e39 eadf 2eb9
00000330: ebcb 56b8 63b3 5238 1aa2 25b8 073c 5a38
00000340: 9b83 14b9 aaeb 67b8 9738 8637 f8fc aab8
00000350: f919 59b8 6832 3938 d123 7a39 2886 1639
00000360: d3ca a438 9469 4338 767e 4d37 7f14 43b8
00000370: ccdd 1ab9 4cb7 cb38 bad0 89b8 4bc0 2c39
00000380: 3cce 8338 58e1 64b8 fe05 1839 11d9 3338
00000390: 8d72 a1b8 0455 4538 cec0 8a38 47b8 fdb8
000003a0: 782f aa37 1e52 59b7 defa d438 de91 08b8
000003b0: 9d56 1139 db07 59b8 5f4a df38 f147 cfb7
000003c0: 863c 29b8 3bcf fe38 4a6f 8d38 3d4c 3738
000003d0: f356 1c37 8618 8938 304d d1b8 89a1 2738
000003e0: 3fc0 a638 e4d2 9fb6 4812 f7b8 ba5f be38
000003f0: 010f fa37 99d3 c739 539d b038 ec39 70b8
3.215183e-05 5.8159545e-05 -0.00017349343 0.00013216486 -1.2754736e-05 -5.4177697e-05 -1.2909612e-05 -6.277161e-05
5.456722e-05 3.2763244e-05 5.654183e-05 6.977063e-05 1.884532e-05 -8.734293e-06 -0.00012902773 -6.924472e-05
-7.376219e-05 -3.0221931e-06 -1.1456898e-05 1.3484324e-05 7.8969235e-05 -3.438809e-05 3.2281812e-05 -8.021348e-05
-3.5729216e-05 -8.629025e-06 -5.2076855e-05 -3.438402e-05 0.00012395038 -2.504049e-05 -4.4691824e-05 5.2516672e-05
2.2584911e-06 6.119859e-06 -4.940059e-05 2.0114472e-05 -5.9152266e-05 5.6970275e-05 -3.8379687e-05 -8.8152614e-05
1.2268942e-05 -7.473472e-05 -2.9454464e-05 -9.762194e-05 7.521873e-05 1.2624617e-05 3.4235192e-05 -0.00010394777
-5.2238433e-05 -3.9160957e-05 0.0001850023 -9.581412e-06 -0.0005048062 0.00010391601 0.0001766691 7.938999e-05
0.00021262025 -0.00022087902 0.0002780099 -6.843732e-05 -0.000102408565 9.494174e-05 0.00017825865 -0.00018935763
-0.0004714742 -0.0003326547 -0.00029537617 -0.0002212228 -0.0001060851 5.6507442e-06 0.00020374896 -0.00022750447
0.00022207989 -0.0003382989 -0.0002305945 0.00018844381 -0.00033097144 1.3988769e-05 7.52938e-05 -0.00018383413
-0.00021496227 0.0001787613 -0.0001885422 -0.00014755805 -0.00026683052 -7.400511e-05 -0.0002861653 0.00022879266
-0.00015756901 0.00019655109 0.00022443876 5.5876444e-06 -0.00017954918 -0.00021677976 -0.00011653248 -0.00015164628
0.0002401383 0.00011786464 1.8648918e-05 0.0001383816 -0.00022364418 0.00015556005 -0.000121702025 0.00063263864
0.00023447635 -0.000106346015 0.00012213911 4.9419476e-05 0.00037761734 0.00023086267 -0.00028061244 4.1253486e-05
0.0001035047 -0.000108404434 -0.00038380583 -0.0005971544 -9.813085e-06 -0.00012531212 1.4552281e-05 0.00014436599
0.0005378695 -0.00022257995 0.00010272719 -0.0004647842 -7.792416e-05 0.00022898118 -0.000502059 -5.296135e-05
-0.00014542349 -6.032683e-05 -5.65138e-05 0.000295768 -3.0299527e-05 0.00011616338 -0.00017162289 9.693573e-05
-0.00028898445 -4.7009245e-05 -0.00033090773 0.0005207698 5.6081266e-05 -0.00038487036 -0.00012294106 0.00031332724
-0.00062240654 -0.0003455235 0.00023534692 -1.205032e-05 -0.0003511688 0.00011341893 0.00013394012 0.00015110354
-0.00050529157 0.00039763883 -2.4201707e-05 -0.00012965567 -1.5390013e-05 -0.00022139646 0.00016811413 5.0944524e-05
0.00014728232 0.00020913634 5.9209626e-05 -3.0113524e-05 -0.00040968336 -0.00016728802 -0.00021072935 -1.7449123e-05
-3.2312313e-05 4.2409698e-05 0.00025159144 -0.00011234955 9.715414e-05 -0.0002472488 -0.00010533144 -1.252603e-05
-0.00015962066 -0.00010136746 0.00034890202 -7.46287e-05 -0.00013157868 0.00015476755 -2.710989e-06 -5.8005244e-06
-0.0001520134 5.256499e-05 -0.00018904073 0.00016392718 -0.00013498536 -0.00018642397 4.5783676e-05 -0.00024020884
-9.247966e-05 -0.00030218114 0.00022831188 2.6891812e-05 0.00011217136 -0.00024188921 -6.641994e-05 -0.00010161208
-3.0472704e-06 -7.5354925e-05 0.00022785425 -0.00016677348 -5.121149e-05 5.023497e-05 -3.9490034e-05 5.2031155e-05
-0.00014163407 -5.529417e-05 1.6000396e-05 -8.153351e-05 -5.176102e-05 4.415438e-05 0.000238552 0.00014355092
7.857908e-05 4.658995e-05 1.2248396e-05 -4.651071e-05 -0.0001476921 9.713936e-05 -6.5715474e-05 0.00016474833
6.284981e-05 -5.4569304e-05 0.00014498082 4.2879085e-05 -7.698415e-05 4.7047637e-05 6.6162655e-05 -0.000120983044
2.0287684e-05 -1.2953327e-05 0.000101556754 -3.2560776e-05 0.00013860544 -5.1744148e-05 0.00010647321 -2.4709823e-05
-4.0349107e-05 0.000121502635 6.744133e-05 4.3701602e-05 9.318569e-06 6.537237e-05 -9.980274e-05 3.9966344e-05
7.9513055e-05 -4.76312e-06 -0.00011781283 9.0777365e-05 2.980931e-05 0.0003811389 8.421638e-05 -5.7274403e-05
