models/onlyadam_10e/ckpt/ckpt-10000.pt (torch, 106859 bytes, 30 tensors)

linears.0.weight f4 [50, 2]
00000000: 7c65 ae3e 15cc 8f3e a1c2 8cbe 75f0 88be
00000010: cde6 0d3e 715a 85be 8556 80be c593 4a3f
00000020: 009d afbd f762 5c3e b224 873e 3afe ad3e
00000030: a28f 113e d9e5 b53e 3b93 8dbe 7d1d 0ebf
00000040: 0d17 9dbe cba2 983d 418b a5be e25b 95be
00000050: 28fd 9f3d 6548 78be 35b0 11be 5a03 23be
00000060: f832 a7bc 92da 223e 203c 52bc a777 5fbe
00000070: 3f12 cc3e b1c9 18be e337 ed3e 4d77 bcbd
00000080: 26e2 dfbd 8fb1 a8be f029 52bd b412 a0be
00000090: b5a4 74bd a68c 03be fc20 23be 7654 dcbd
000000a0: d721 3ebe 0c14 253f c236 113e 22b1 ffbd
000000b0: aa65 2fbc 7b53 433e 9e71 4a3e 8ad5 edbe
000000c0: afb6 cabc 3240 57be 1057 7ebd 43e7 623e
000000d0: 8dac b93e 900e 38be f21b 0a3e 3576 343e
000000e0: 8f11 92bd 9aae 6bbe 6e0b 72bc 4501 2cbe
000000f0: fba4 fd3b 638a 1bbe c6f0 9bbe 6a50 37bd
00000100: 771d eebd 47a3 a6be 9a59 76be 5dd5 9fbe
00000110: 85af bc3d 4020 2ebe 070f 55be 2ccd 60be
00000120: c4d3 693e c816 c6bd 2504 a43d b621 443e
00000130: 269c 36bc d8df 28bf ebb0 1cbe 3e4f fe3e
00000140: b2a7 f33d 0841 b53e f322 82bc fd8f 56bf
00000150: b7bc 883d cdd5 debd 3f76 70be 3dec ebbd
00000160: 90b0 c73e ec56 5dbe ddb2 4a3e f8d7 04be
00000170: f6dd 0fbe 2a52 153e e6aa 9f3e ff2a 013f
00000180: fcf0 f33e 2521 8b3e 57b3 793d e3dd 963e
0.340618 0.2808539 -0.2749224 -0.26745954 0.13857575 -0.26045564 -0.2506601 0.7913173
-0.08574867 0.21522127 0.26395184 0.33983022 0.14214948 0.35526922 -0.2765139 -0.55513746
-0.3068165 0.07452925 -0.32332805 -0.29171664 0.078119576 -0.24246366 -0.14227374 -0.15919247
-0.020410046 0.1590369 -0.012831718 -0.21822987 0.3985767 -0.14920689 0.463317 -0.09202442
-0.10931806 -0.32947966 -0.051309526 -0.3126427 -0.05972739 -0.12846622 -0.15930551 -0.10758297
-0.18567596 0.64483714 0.14181045 -0.12484957 -0.010705391 0.19074814 0.19769904 -0.4645198
-0.024745313 -0.21020582 -0.062094748 0.22158532 0.36264458 -0.17974305 0.13487223 0.17623217
-0.07132255 -0.23015824 -0.014773233 -0.1679736 0.0077406145 -0.15189509 -0.30457133 -0.044754423
-0.11626714 -0.32546446 -0.24057618 -0.3121747 0.09213165 -0.1700449 -0.20806514 -0.21953267
0.22834688 -0.09672314 0.08008603 0.19153485 -0.011145627 -0.6596656 -0.15301864 0.49669832
0.1189722 0.35401177 -0.015885806 -0.8381346 0.066766195 -0.10880623 -0.23482607 -0.11519668
0.39001894 -0.2161519 0.19794793 -0.1297301 -0.14049515 0.14582124 0.31185073 0.5045623
0.47644794 0.27173725 0.060962047 0.2946616

linears.0.bias f4 [50]
00000000: 166d 5c3e ea6b a53d 65b4 c3be 0f51 2ebd
00000010: 2750 0bbe 9a16 b5bd 52fc e9bd e811 4ebe
00000020: 3c10 44bc 6c56 c8bc a733 833e 67b6 323e
00000030: 69a2 033c 0e31 ad3c 07d3 13be 7422 e43d
00000040: 90bb 30be 015a 433d 4fdc ffbc 0805 9dbc
00000050: 461d 93bd 3577 d6bb 741a 213d 31a6 913c
00000060: 67c7 57bd 537f e3bd 397d a23d ebdc 93bd
00000070: e75a d63e fbbe 22bd 3469 b8bd a505 cf3b
00000080: e17a 853c 3b45 1abd e463 74bd 33f5 e13c
00000090: 46ff 0bbd 7d0c 243e 2fc0 673d 5822 dfbe
000000a0: 0b86 cc37 4dcf 083d 404a dabc dc5e bdbe
000000b0: 701c ed3e 3c21 233e d871 01bb 5bb9 84be
000000c0: 4f3a 783d f550 21be
0.21525988 0.080772236 -0.38223568 -0.042557772 -0.13604794 -0.088422015 -0.114250794 -0.20124018
-0.011966761 -0.024455272 0.25625345 0.17452393 0.008034327 0.021141555 -0.1443597 0.11139384
-0.1725905 0.047693256 -0.031232981 -0.019167438 -0.07183318 -0.0065449723 0.03933187 0.017779442
-0.0526804 -0.111082695 0.079340406 -0.07219871 0.41866228 -0.039732914 -0.09004441 0.0063178116
0.016293945 -0.03766368 -0.059665576 0.02758274 -0.034178995 0.16020389 0.056579765 -0.4358089
2.4381114e-05 0.033400822 -0.026646733 -0.36986434 0.4631076 0.15930647 -0.0019751694 -0.25922665
0.060602482 -0.15753539

linears.1.weight f4 [50, 50]
00000000: 9d1e 82be 24dd c2be d5f7 4e3e 7009 4fbe
00000010: 2c29 993e 7c77 a2be cfb4 78ba 81df 9f3e
00000020: c1c1 0cbd 1a1f cbbd b031 adbd 127f 46be
00000030: a0bd c7be a89c 8f3e 75d7 8ebc 8561 1b3e
00000040: 3f7a a83d 3d2e 043d de2d babc bb8b ac3e
00000050: a07f 67be 791b 7bbd ccf5 7abb abe1 b03e
00000060: 6d1d e93d bf20 003e c6ac aabd 130d 5e3c
00000070: 3c2c 5abe 5d76 f83e c975 043f 29d0 743e
00000080: f4f6 7b3e 872c 6f3c 1f99 763e fbf5 b5bd
00000090: 67f4 093e 78c7 7bbe 6473 5b3e a7af 99bd
000000a0: 0fae 803c f1b3 423c 9140 583e 902a fb3b
000000b0: 0d46 9bbe 281c 2e3d 3510 14be d101 41be
000000c0: 6273 15be a304 d73b c505 5bbc d677 843e
000000d0: 404e 26be 9540 273d e7b4 e7bb afdb 09bd
000000e0: 61eb 1a3d c62f e2bd 24cb 17be 7e21 0fbe
000000f0: df37 1d3e 4c66 8f3e 4f35 31be 49c7 dabd
00000100: b123 2d3e ad47 6d3e ecdd f9bc 9b65 05bd
00000110: c850 7e3e b152 eb3d d882 7abd d7db 903e
00000120: b62d 15be 39a9 21be e894 553e 45b9 91be
00000130: 688a 96be 11a0 a43d 4f2c a53d d3fe a0bd
00000140: 972d 823e 64fa 9a3e a3ec 5b3e d2d4 19bd
00000150: 4e32 8d3e 441c f63d 4381 cdbc e1ad 94bd
00000160: fcb9 9bbd e472 ce3d 16cf f2bc ab57 e9bc
00000170: b2d8 c53d 0ab1 a4bd 4d9b 46bd d6da 5a3c
00000180: 94e9 08be 2b77 a6be cc55 a1be f842 8cbe
00000190: e5c9 213e 9d0f e2bd bef8 e2bb c432 58be
000001a0: 8804 3bbe 72bd b43e 8183 593e 3888 c6be
000001b0: c767 01be fa98 bdbe f700 113f f2ac 1bbe
000001c0: 938f 143e d387 12be c3a4 893e cdd3 963d
000001d0: 4949 18be b8c7 96bd d245 b7be 4135 3bbe
000001e0: c39b cabe 8d32 883e 0259 4a3d c6eb d43d
000001f0: 5e03 6dbe 4b32 9c3d 9cb0 13bd c0ec 683e
00000200: f706 a8bd 722a 03be a487 bdbe 82ac cbbe
00000210: e074 78be 18a6 f1be 20f7 25be 5373 23be
00000220: 5eda ae3d 5339 c83e 9af8 993c d8b3 d6be
00000230: 69c1 2dbd d999 44be f309 883e 4e33 12bf
00000240: f5fa 203f fe8c 173f 326b 403b ee74 6a3d
00000250: e04d 163f 0e9d 60be e9d0 003e e27d 85be
00000260: 4b89 d9bd 3a0b cdbd 366d 593e 61d3 713d
00000270: aad6 3b3e d45f e4bc d2c8 713c 754f 8bbe
00000280: 04a8 22bf 0c73 8d3c 3fad 02be d720 3cbe
00000290: 1326 5ebb 1286 5bbe fcb4 d93c 5867 28be
000002a0: 8000 10be 2ae3 af3d 5428 0a3e a6f8 3dbc
000002b0: 3ece 43be 7ebb a8bd 3993 3e3e 3640 8b3e
000002c0: 7749 bcbe 0f01 5b3e d04e 1abe 6c4c bf3d
000002d0: 93a2 c3bd 1714 b0bd 9cb0 a5bd 100a 57bd
000002e0: 4336 dc3d 30e3 8fbe 64f3 193e d614 843e
000002f0: 2949 12bf 5f05 7e3e d99e 0c3e 086d dabd
00000300: 010b b3bd 72da c53d 9e60 15be 5d94 babe
00000310: ebe5 323e c5c1 483e 5f66 d93d bb2b 833e
00000320: 6f9d da3c 9c59 853e 3f84 843e 341e 2ebe
00000330: dbe6 e6bc 3102 8abe 9dc7 413e 9ef2 cf3d
00000340: 3a6d ffbc cfe2 febd 252e 12be a009 593e
00000350: a71b 8abd ebbf ab3c e940 b43d 17bb 853d
00000360: 97a1 ef3c 7881 5e3e 0332 83bb 994a 3a3e
00000370: bea2 f4bd b152 b6bb 9fae 83bd a376 fb3c
00000380: b270 393e caa4 45bb 06b9 29bd 8756 6fbe
00000390: b4d7 a93d 6213 913d 5115 cabd 9674 823d
000003a0: 2f9b c93d 0763 b23e 4753 533e 782d f83d
000003b0: 51e3 09be 5183 c7bd 73ec 793c f81d 2b3c
000003c0: cf65 95bd 0a1d 473e a296 093d 8090 463d
000003d0: 51e8 863d 829b b9bc bc89 373e d24d 27be
000003e0: 1723 9ebe 0417 9dbe 3fbb 8a3e 1646 debd
000003f0: 7768 8f3d 848c 91bc a167 6abc 27aa 25be
-0.2541398 -0.38059342 0.20211728 -0.20218444 0.29914224 -0.31731784 -0.0009487392 0.31225207
-0.034364466 -0.099180415 -0.08456743 -0.19384411 -0.3901186 0.28049207 -0.017436722 0.1517392
0.082264416 0.03227066 -0.02272695 0.33700356 -0.22607279 -0.061305497 -0.003829348 0.3454717
0.11382566 0.12512492 -0.08333735 0.013552922 -0.21305937 0.48527804 0.51742226 0.23907532
0.24605924 0.0145980185 0.24081849 -0.08884808 0.13472138 -0.2458781 0.21430737 -0.07504206
0.015707998 0.011883722 0.2111838 0.007664986 -0.30326882 0.04250732 -0.14459307 -0.18848349
-0.14594796 0.006561832 -0.013368075 0.25872678 -0.16240788 0.040833075 -0.007071126 -0.033656772
0.03782213 -0.11044268 -0.14823586 -0.1397762 0.15353344 0.28007734 -0.17305492 -0.10682542
0.16908146 0.23171873 -0.030501328 -0.0325676 0.24835503 0.114903815 -0.06115994 0.28292724
-0.14568219 -0.1578721 0.20857584 -0.28461662 -0.2940247 0.08038343 0.08065092 -0.07861104
0.25425407 0.30269158 0.21476988 -0.037556477 0.27577442 0.1201711 -0.02508605 -0.07259727
-0.07603833 0.100805074 -0.029639762 -0.028484186 0.09660472 -0.0804158 -0.04848795 0.013357839
-0.13370353 -0.32512793 -0.3151077 -0.27394843 0.15799673 -0.11038134 -0.006926625 -0.21113116
-0.18263447 0.35300785 0.21241571 -0.38775802 -0.12637244 -0.37030774 0.566421 -0.15202692
0.14507894 -0.14309625 0.26883516 0.073646165 -0.14871706 -0.07362312 -0.35795456 -0.18282034
-0.39571962 0.26601067 0.04940129 0.10396533 -0.23145816 0.0762678 -0.0360571 0.22746563
-0.082044534 -0.1280916 -0.37017548 -0.3978005 -0.24263334 -0.47197032 -0.16207552 -0.15961961
0.08537744 0.39106235 0.0187953 -0.41934085 -0.04242078 -0.19199313 0.2657009 -0.57109535
0.6288293 0.5919951 0.0029360768 0.05724042 0.5871258 -0.21934912 0.12579693 -0.26072603
-0.1062189 -0.10011907 0.21233067 0.059039477 0.18343607 -0.027877726 0.014757352 -0.27209058
-0.6353762 0.017266773 -0.127614 -0.18371902 -0.0033897206 -0.21437863 0.026575558 -0.16445673
-0.1406269 0.0858825 0.13491946 -0.011594927 -0.19121644 -0.08238886 0.18610848 0.27197427
-0.367748 0.21387123 -0.15069127 0.09340748 -0.09552493 -0.08597582 -0.08090326 -0.05249983
0.10752537 -0.28103018 0.15034252 0.25797147 -0.57142884 0.24806736 0.1373247 -0.10665327
-0.08742333 0.09660806 -0.14587638 -0.36441317 0.17470519 0.19605167 0.10615229 0.256193
0.026686398 0.2604493 0.25882146 -0.17003709 -0.028186252 -0.26954797 0.18923803 0.101536974
-0.031180013 -0.12445604 -0.14275415 0.21195078 -0.067435555 0.020965537 0.08801443 0.06529825
0.029251857 0.21729076 -0.0040037646 0.18192519 -0.11945103 -0.005564057 -0.06429791 0.030696219
0.18109396 -0.0030158036 -0.041436218 -0.23372851 0.08293095 0.07083775 -0.09867347 0.06369893
0.09844052 0.34841177 0.20637237 0.121180475 -0.1346562 -0.097418435 0.015254128 0.010444157
-0.07294809 0.19444671 0.03359092 0.04847765 0.065872796 -0.02265716 0.17923635 -0.1633828
-0.30886146 -0.30681622 0.27095982 -0.108532116 0.07002347 -0.017767198 -0.014306934 -0.16178189

linears.1.bias f4 [50]
00000000: ad00 d0bd 52c1 6dbc 7b8d 8e3e be28 c4bd
00000010: 779a 00bd e405 7f3d 8180 92bc e19f 1d3d
00000020: ca7c f83b 8673 403d ba6a 753d 55ae 6fbd
00000030: 4912 5f3d 8078 1dbc 277a 57bc 6b10 133d
00000040: 28dd a03c 425a 863b b4e4 66bc 12eb 983e
00000050: dbc4 d1bd bf99 fabd 6c9e 05bd 9cde 5f3c
00000060: 7950 433d 658e 4cbd f47b acbb 52f0 4dbc
00000070: 7f38 a7be 140b 01bd 5151 ec3d c75e aebb
00000080: a073 10bd 99f0 50bd 33f2 063e 5ce9 ee3b
00000090: 729d 32bd a3df 56be 6241 2dbd bf43 9b3d
000000a0: a7f6 1ebc 018d b83d 31b4 393c af6e 003e
000000b0: c568 10bc f3d2 013d 3c8e ddbd 6df8 663d
000000c0: 9384 18be 4419 48bd
-0.10156379 -0.014511423 0.27842316 -0.095780835 -0.03139731 0.062261477 -0.017883541 0.03848255
0.0075832354 0.04698517 0.059916236 -0.058515865 0.054460797 -0.009611249 -0.013151682 0.03590433
0.019636706 0.004100115 -0.014092613 0.29866844 -0.10242625 -0.12236356 -0.032621786 0.013663914
0.047684167 -0.049940486 -0.0052638 -0.012569504 -0.3266029 -0.031504706 0.115389474 -0.005321357
-0.03526652 -0.0510107 0.13178329 0.007291002 -0.043607183 -0.20983748 -0.042298682 0.07581281
-0.009702361 0.09011269 0.011334465 0.12542222 -0.0088140415 0.031695317 -0.10818145 0.05638926
-0.14894323 -0.04885222

linears.2.weight f4 [50, 50]
00000000: 0f1b d0bc 6c51 de3d 2ce3 463e d383 78bd
00000010: 9562 cb3d dacb 2e3e 1087 253d 05d6 ea3d
00000020: eaa0 45be ae43 05bd d9fc 373e 9f7f a03d
00000030: 598b 65bc 7db4 053e d7a9 44bc 20e7 8dbe
00000040: c138 933d cc43 923d ec73 d6bd 1b9a 9ebe
00000050: 005a bf3c b7da a6bd 728a 4cbe 5fdb ebbb
00000060: 39d2 593e be21 59be 6349 3d3d a086 863d
00000070: 663c fcbc 3d8a 233e 781d ec3d aa9f 3e3d
00000080: df07 9f3d 8ffc 05bc 11d6 593d 6f94 1e3e
00000090: 4dea 573e 39d2 4cbc e792 76bd b39b 663c
000000a0: 963d de3d 635f 083b 43ac e2bc 2706 0a3e
000000b0: a42c 863e 8d85 9e3d a761 05be 48b2 7c3e
000000c0: 6990 b73d b21c 95bd 618d 3bbd 1cb3 32be
000000d0: dd6d 30bc 57dc 093c 4f7a e9bd 4554 803e
000000e0: b4d2 7dbe 2c63 243f 5a05 29be 4fbb e83d
000000f0: 24ac 5e3e 8eff c1bc b927 07be 1c7f d13d
00000100: 743e d43c 333d 3fbe 1e0b ea3d b980 3ebd
00000110: d098 463e 72ff 503d 37c9 51be c698 673d
00000120: 9c7a 4d3e 756d f93d f9e8 c83d f3a5 8bbe
00000130: 8084 cfbd b0ed 1bbe 2beb a1be 9355 063e
00000140: a0bf 7e3e 5b7d 99be 0ef5 4c3e 1937 3ebd
00000150: eb41 e33d 8b5d 893e 1a6d 603d 0799 42be
00000160: 5a22 6cbe 314f 2d3e b0e9 06be 6338 ba3e
00000170: 13e9 b4bd 48ca 853e da0f b6bd 6445 b6bd
00000180: 911a 5cbe 3995 383e 3e24 f93c 8573 f83c
00000190: 3129 d13d 1b64 17be b7fc 283e 01d9 d8bd
000001a0: 574b 073e b63e e53d ecf0 9bbd 3af4 7cbd
000001b0: 983f f03d 41e3 32be dbbc aebd ea32 20bd
000001c0: 642e 113d 32b3 fdbd 3a41 28be 02fc d0bd
000001d0: 308b 53bc b30b 1c3d 394e 023e a1ae 1f3d
000001e0: ed17 42be 0e6e 28be 11dc 80be 200b 40be
000001f0: e49c 143e ecf6 9dbe aa33 6a3e 2dc9 053d
00000200: 253e 5d3e 4ec5 073e 4f42 c3bd 66fa be3d
00000210: 286c 83bd 343a 74bc 02e0 35bd 1a30 61bd
00000220: 7858 72bd 3ee1 c5bd 5e9b 63be d76e 073d
00000230: 025a 72be 7054 97bc 512c 4e3e c346 8abd
00000240: 558a 3ebe 2cba 4b3d 132d b8be 0ba7 d0bd
00000250: 9234 4ebe ce40 a0be a688 d7bd b687 dfbc
00000260: 9331 8cbd 9b41 c4bc a6bc e6bd 03cd 883c
00000270: ad1a 6cbe 5161 de3e 94b9 bb3d 3fe2 9ebe
00000280: 2d8c 61bd d610 fcbd 115e 453e 7b10 9f3e
00000290: 3257 ae3e 220f fcbd bce5 0e3e e21f 1d3c
000002a0: b711 09be 98cd 0dbf ed0f e3bc 2a0f a5bc
000002b0: c358 79bd cfe8 1f3e e3b4 1cbb 6f73 53be
000002c0: c73f 253e def6 adbd 3cfc 09be 8a51 cd3e
000002d0: cb68 2bbe c8b8 9cbd 91b8 f93c 466d 8f3d
000002e0: 76b2 393e 0fd7 bc3e 3268 52bd c233 243d
000002f0: e13c 83be d553 58be d410 e63d 94a7 cb3d
00000300: a457 2bbe 8a7e 143e bfc9 80be 7a72 59be
00000310: 5d77 1bbe 4542 103d a866 063f e65d 223e
00000320: 88d9 45bc 9954 583d 24b6 243f 7030 fa3d
00000330: cf24 e1bd 69a8 1dbd 1c90 b2bd 12ac 1b3f
00000340: fb62 a0be 0099 12bd 3541 973d f453 58be
00000350: 93ea 953e 5f5c aa3c 312c 153f 0e34 0bbe
00000360: 1de8 0b3c 8eb8 05be c274 0abe 4278 cdbe
00000370: d9b5 683d 1ff9 2a3e 9831 9cbc cce6 c2bd
00000380: 3263 83bd 6961 b1be 6cc5 71be e61f 67be
00000390: 4624 6a3e b3f7 14bd 5bd1 14be 4f06 8bbe
000003a0: 4882 55bd 48c4 b7bd f6a8 b1bd c868 023f
000003b0: 800a 60bd 930a 09be 3ac5 aabe 34d6 813e
000003c0: 3252 6bbe 87e3 e73d 31da 5fbe f653 8a3b
000003d0: bfb9 043e 1789 f5bd a8d8 ddbc dbf8 243e
000003e0: aebd 473e ff79 963e a22a 48be 30f6 d6bc
000003f0: ccaf a53e ff93 e73d 1ac5 933c e6e3 f23e
-0.025403528 0.10855374 0.19422597 -0.060672592 0.099309124 0.1706995 0.04041201 0.11466602
-0.19299665 -0.032535248 0.17967547 0.07836842 -0.014010274 0.13057132 -0.012003384 -0.27715397
0.07188559 0.071418375 -0.10471329 -0.30976948 0.023358345 -0.08147185 -0.19974688 -0.007197782
0.212716 -0.21204278 0.046212565 0.065686464 -0.030790519 0.15970702 0.11529058 0.046538986
0.07765173 -0.00817789 0.053182665 0.1548631 0.21085472 -0.012501293 -0.06019869 0.0140752075
0.1085159 0.0020808808 -0.027670031 0.1347891 0.26205933 0.077403165 -0.13025533 0.24677384
0.08963091 -0.07280864 -0.045789126 -0.17451137 -0.010768381 0.0084143495 -0.11400282 0.25064293
-0.24787408 0.64213824 -0.16505948 0.11363851 0.21745354 -0.023681428 -0.13198747 0.10229322
0.025908686 -0.1867569 0.11427902 -0.04650948 0.19394231 0.05102486 -0.20486914 0.05654218
0.20066303 0.121790804 0.09810061 -0.27275047 -0.10132694 -0.1522739 -0.3162473 0.13118581
0.24877787 -0.2997845 0.20015356 -0.046439264 0.11096557 0.2682918 0.054791547 -0.19003688
-0.23059979 0.1692474 -0.13175082 0.36371145 -0.08833518 0.2613089 -0.08889742 -0.08899954
-0.2149451 0.18025674 0.03041279 0.030328522 0.10212935 -0.14784281 0.16502653 -0.10588265
0.13212334 0.11193602 -0.076143116 -0.06175635 0.117308795 -0.17469503 -0.08532115 -0.039111055
0.035444632 -0.123876944 -0.16431132 -0.10204317 -0.012911603 0.038097095 0.12725152 0.0389849
-0.1895444 -0.16448233 -0.25167897 -0.18754244 0.14512974 -0.3085245 0.22871271 0.03266256
0.21605738 0.1325886 -0.09534132 0.093251035 -0.064171135 -0.014906455 -0.044403084 -0.054977514
-0.0591664 -0.09662102 -0.22227237 0.03306469 -0.23667148 -0.01847288 0.20134093 -0.06751778
-0.18607457 0.049738094 -0.3597189 -0.10188111 -0.20137241 -0.31299442 -0.105241105 -0.027286392
-0.06845393 -0.023957064 -0.112664506 0.01669932 -0.23057051 0.43433622 0.091662556 -0.31031987
-0.055065323 -0.12307899 0.19274165 0.3106726 0.340509 -0.12307574 0.13954824 0.009590121
-0.13385664 -0.55391836 -0.027717555 -0.020148832 -0.060875665 0.15616153 -0.0023911528 -0.20649503
0.1613761 -0.08494352 -0.13475126 0.40101272 -0.16739194 -0.07652432 0.030483516 0.07003264
0.18134484 0.36882827 -0.0513689 0.040088423 -0.25632384 -0.2112573 0.112336785 0.09944072
-0.16732651 0.14501396 -0.2515392 -0.21235076 -0.15182252 0.03521945 0.5250039 0.15856132
-0.012075789 0.052815054 0.64340425 0.1221627 -0.10993349 -0.038490687 -0.08718893 0.60809433
-0.31325516 -0.035790443 0.07385484 -0.21125776 0.29280528 0.020796 0.58270556 -0.13594076
0.008539227 -0.13058683 -0.13521102 -0.40130812 0.05681405 0.16696595 -0.019066617 -0.09516677
-0.064154044 -0.3464463 -0.23610467 -0.22570762 0.228654 -0.036369037 -0.14532988 -0.2715325
-0.0521262 -0.089729846 -0.08674805 0.50941133 -0.054697514 -0.1338294 -0.33353597 0.25358737
-0.22980574 0.11322694 -0.21860577 0.0042214347 0.12961482 -0.119890384 -0.027080849 0.16110556
0.19505951 0.2938995 -0.19547513 -0.026240438 0.32360685 0.11307525 0.018038321 0.47439498

linears.2.bias f4 [50]
00000000: b1a1 443d 0b81 7fbc f2eb a53d 6bc0 80bc
00000010: 4bb0 50b9 2d3e 933e f023 b4bc eecf a1bd
00000020: aace 533d 9eb4 85bd 61a9 2e3c ed1b b83c
00000030: 5ddb 8fbc 1cc0 9ebd 5db3 ddbd c86c 3f3d
00000040: 98e3 8cbd e6fe a33e 6677 4bbc caae f53c
00000050: 4394 b53d 85c4 073d 1a5e a63d f151 37bd
00000060: db67 38bd 24ee 00bd 0837 963d 13ff f0bc
00000070: 8aee ccbc 33ca 333d cf4a ec3c 6607 233d
00000080: 9a21 5c3c a68e 133d 8f69 6e3d 0869 cd3d
00000090: 4078 96bd 59d3 78bd 93e3 2b3d 53ba 173c
000000a0: 8d0f 12bc 080c 523d 3e46 483d a88c 0bbd
000000b0: f709 073d 5c58 04bd 746e 6d3c 4057 aa3d
000000c0: cf47 25bd fce4 e93c
0.048005763 -0.015594731 0.081016436 -0.015716752 -0.000199021 0.28758374 -0.021989793 -0.079009876
0.051710762 -0.065285906 0.0106605 0.022474254 -0.017560655 -0.07751486 -0.108252265 0.0467346
-0.068793476 0.3203041 -0.0124186035 0.029990572 0.08866169 0.0331464 0.08123417 -0.04475588
-0.04502092 -0.03147711 0.07334715 -0.029418504 -0.025016088 0.043894004 0.028844265 0.039801978
0.013435746 0.036024712 0.058206137 0.10029799 -0.073471546 -0.06074843 0.04196508 0.009260732
-0.00891484 0.051281005 0.048895113 -0.034069687 0.032968488 -0.03231083 0.014491666 0.08317423
-0.040351685 0.028551571

linears.3.weight f4 [50, 50]
00000000: 26f5 4abe a1e4 09bd 76e1 38be 13e8 d3be
00000010: beb0 183e 22fc 3fbd 541b 08bc d7a7 953e
00000020: 53e1 53bd c070 94bd 0afa a13d 2139 fcbd
00000030: a7be f23d 93d5 71be 8793 2ebe 1495 cc3e
00000040: c433 653d ccff b63c ead6 5a3e b961 f3bd
00000050: 8b46 3cbe d23b cd3d 937f 4d3c 2d4e ecbd
00000060: 59b6 053e c912 113e 7af0 973e dccd 42bd
00000070: f3e5 20be e133 723e e55f 1ebd b933 003e
00000080: ec06 263f cb10 cf3e 4b49 3c3e 56b0 49bd
00000090: 4215 90be 5f5a 6ebe d202 c83e a476 7a3c
000000a0: 17cc debd 99c4 adbe 0bcc a03e 39cb 43be
000000b0: 52e5 423e bfa9 003d b02e 193c 2359 91bd
000000c0: a4be b5bd 4a7e 4cbd 3f90 48bd d690 6d3e
000000d0: fa86 53be ba52 1abe 5c50 9fbd f27a 113e
000000e0: 1886 cebd d37f c3bd 21f0 173e 1aaf a33e
000000f0: 2be1 9b3e b166 4b3d 3eff 583c e613 5f3d
00000100: b05a 8abd 3417 8abe 573c 053e 7ac3 ab3e
00000110: 2362 803e 26ad 25be 5655 cdbd aec7 7dbd
00000120: 822b d2bc b1df 6ebe 4f14 2b3d 7d1c e43d
00000130: c14a 2ebe 4c83 46bd c629 993d c947 31bd
00000140: b81a 9dbd 0187 1e3d 92f6 0e3e 4759 99be
00000150: fe31 e8bb afa2 b73d 4800 1e3d 72c6 043d
00000160: 231c 9f3c c220 98bd 8ac9 b8bd 38cc ebbd
00000170: 932e 11bd a16a 02be ee54 f1bc f987 1ebe
00000180: 7cc4 563e 3bc0 77be eb8e 783d 09b3 86be
00000190: cc46 8fbe 659f a9bd c739 d4be 8360 6c3e
000001a0: 71ae 963e 6b88 0fbd e678 233e 871e 3c3d
000001b0: ac51 853e 8e49 91bd 1ed7 2cbe cb52 67be
000001c0: 7b86 0fbe b354 3d3d c121 5ebd 74a7 ea3d
000001d0: 9976 56bd c94c 333e 5815 b53e 2edf ce3d
000001e0: 00a0 173e 1435 33be 64b5 0f3d d56c 333d
000001f0: aa46 6c3d 70d1 823d c98d 523e 90fb 40be
00000200: b160 c93c e206 67be 14a7 44be daeb 3f3d
00000210: 4a4a 653e 0f81 09bd f57d 3ebc f1dd 08be
00000220: 51ec 05bd 467b 843e 061c 27bd f2e2 e83d
00000230: 3e9c 333e fe53 03be 1dd8 60be 39f3 bebd
00000240: b3f7 983d 88a3 07bd e821 84bd 34df f33d
00000250: 9bf2 88bd dec4 d2bd 2c81 183e 4265 b43d
00000260: 3377 713e 062c 91bd 388a 1b3e dc91 063e
00000270: b99c 34be c870 a53d 4a55 6dbe 0e86 fabd
00000280: f4eb 32be 5fb2 ca3d 10ed c5bd 25de 7a3d
00000290: b740 e73d 0f75 2ebe 76d2 dcbd 88fa 703e
000002a0: 8724 68be 9ddb 3c3d 9379 223e ae24 cd3d
000002b0: 7018 adbd 52ac a03e c3d2 9e3c a189 d13c
000002c0: 17bf a63e a69d d7bc 7a62 3dbc 43dd ff3d
000002d0: 838f 0c3e d70f 213d fb83 063e f39c 5fbd
000002e0: 8465 a93e 65e0 a3bd f195 0abd 9845 a83d
000002f0: 20df 2a3d af8a ddbd dc48 b03d 115d cb3e
00000300: fb8d 443e 8d25 f1bd f406 e43d 42cd 8c3c
00000310: d43f 043e 34de 67be 730d c2bd 7d1a 273e
00000320: b2cf 2f3e 6f16 3bbd 23ca a33e 91a5 9f3e
00000330: fc1f d53e 2606 1abe 4dd1 debd b44f 57bd
00000340: 507c 243e 1ed5 a53e 4911 87bd 7c6a a23d
00000350: 35af b3be de0c 3dbf 80b9 afbe 3e75 dcbe
00000360: 56ae 183e a168 41bb cec8 b9bc c176 77be
00000370: e3ce 99bc 9312 e03e 6a58 7fbd 77a8 d2be
00000380: fb5e ffbe 2b5b 423e 8ce5 193e 9041 25be
00000390: e775 e73d e467 ef3d 85ed acbe da48 a63d
000003a0: 8a43 d7be 3135 5d3e d1f7 5b3e ccc1 65be
000003b0: 18a0 6a3d 29e2 a1be ee77 d0be dcc2 c5bc
000003c0: 8f4c ee3e e6d3 653c a2cb 23bd a408 d2be
000003d0: 46da 913e c47f 5abe b543 5cbd e206 493d
000003e0: 013e cebd 7ea7 433e dc3c 08bd da6e 8fbd
000003f0: 8cbe 06be c3fd 60be f879 3bbe 7d0a 9dbe
-0.19820079 -0.033665303 -0.18054757 -0.41387996 0.14911172 -0.046871312 -0.008307297 0.29229614
-0.051728558 -0.07248068 0.07909019 -0.12315584 0.1185277 -0.23616628 -0.17048465 0.39957488
0.05595757 0.02233877 0.21371046 -0.118838735 -0.18386285 0.100211754 0.012542623 -0.11538348
0.13057841 0.14167322 0.29675657 -0.047559604 -0.15712719 0.23652603 -0.03866567 0.1251973
0.6485431 0.404425 0.18387334 -0.049240433 -0.28141218 -0.23276661 0.39064652 0.015287075
-0.10878771 -0.33939055 0.31405672 -0.19120492 0.19032791 0.031411882 0.00934951 -0.070970796
-0.088742524 -0.049925126 -0.04896569 0.23199782 -0.20656958 -0.1507062 -0.07778999 0.14207056
-0.1008417 -0.09545865 0.14837696 0.3196953 0.30445227 0.04965848 0.013244448 0.054462336
-0.067555785 -0.26970828 0.13011299 0.33547574 0.25074872 -0.16179332 -0.10026042 -0.061958008
-0.025655512 -0.23327519 0.041767415 0.11138246 -0.17020704 -0.04846506 0.07478671 -0.04328135
-0.07671112 0.03870297 0.13961247 -0.29950926 -0.0070860377 0.08966576 0.038574487 0.032415815
0.019422596 -0.07428123 -0.090228155 -0.11513561 -0.035444807 -0.12735988 -0.029459443 -0.15481557
0.2097339 -0.24194424 0.060683172 -0.26308468 -0.279837 -0.08282355 -0.4145033 0.23083691
0.29429963 -0.035042208 0.15964088 0.04592755 0.26038873 -0.070941076 -0.16878936 -0.22590177
-0.14016144 0.046223354 -0.05423141 0.114577204 -0.052359197 0.1750976 0.35367846 0.10101162
0.14807129 -0.17500716 0.035085097 0.043804962 0.057684578 0.06387603 0.20561899 -0.18845963
0.024582239 -0.2256122 -0.1920436 0.046855785 0.2239162 -0.033570345 -0.01162671 -0.13365914
-0.032696072 0.258753 -0.04079821 0.113714114 0.1754007 -0.12825009 -0.2195744 -0.09323735
0.0746912 -0.03311494 -0.064517796 0.11907807 -0.06686898 -0.10291456 0.14893025 0.08808376
0.23580627 -0.07088475 0.15189445 0.13141578 -0.1763791 0.08078152 -0.23177066 -0.122326
-0.17472821 0.09897303 -0.09664357 0.06124701 0.1129164 -0.17036842 -0.1078233 0.2353307
-0.22670184 0.046107877 0.1586669 0.10016762 -0.08451927 0.3138147 0.019387608 0.025578322
0.32567665 -0.02632029 -0.011559123 0.12493374 0.1372662 0.039321747 0.13136284 -0.054593038
0.33085263 -0.08001784 -0.0338344 0.08216399 0.041716695 -0.108174674 0.08607647 0.39719442
0.19194786 -0.1177474 0.11134139 0.017187718 0.12914973 -0.22643358 -0.094752215 0.16318698
0.17169073 -0.04567569 0.31990156 0.31181005 0.41625965 -0.15041408 -0.10879765 -0.052566245
0.16063046 0.32389158 -0.06595094 0.079304665 -0.3509461 -0.7384776 -0.34321213 -0.430582
0.14910254 -0.0029511827 -0.022678759 -0.24166395 -0.01877541 0.4376417 -0.062340178 -0.41144153
-0.49877152 0.1898009 0.15028971 -0.16138291 0.11301785 0.116897374 -0.33774963 0.08119364
-0.42043716 0.21602322 0.21481253 -0.22437209 0.057281584 -0.3161786 -0.407165 -0.024140768
0.46542785 0.014027571 -0.03998912 -0.41022217 0.28486842 -0.21337801 -0.053775508 0.04907883
-0.1007042 0.19106862 -0.033261165 -0.07003565 -0.13158625 -0.21971802 -0.18308246 -0.30672064

linears.3.bias f4 [50]
00000000: 9ca9 0d3e 1000 1dbd f11c 62bd d034 1e3d
00000010: 03f4 e73d d92b 3bbd 2fc2 94bd 7944 b3bd
00000020: ccaf 94bd 5a9a 00bc 931b 513c 53c6 1e3d
00000030: 41ed c93c 699f 4bbc cde2 2d3d 223d e93d
00000040: 2955 b73c 8c64 463c 95e7 703d 99a7 56be
00000050: dee8 033d 0f1f f3bb 2b51 6dbc 8b9a 93bc
00000060: 584e 563d ff0c 8d3b b438 ed3c b734 8d3d
00000070: 1f3e 56bc d1d8 37bb db7a 1a3d 9ff4 53bc
00000080: 15e7 a5bd bd14 3f3d 8d82 ddbd 3f7e 29bd
00000090: a96d 323d 5275 91bb a949 113a c4a1 f7bc
000000a0: 3b06 cf3c 799e 3fbd 0d65 08bd 81d9 d03d
000000b0: cafc fdbc b4e8 883d c913 0fbc 6b2c 87bd
000000c0: 0157 68bd b89d 0fbd
0.13834232 -0.038330138 -0.055203382 0.038624585 0.113258384 -0.045696113 -0.072636 -0.087532945
-0.07260093 -0.0078493 0.012762922 0.038763355 0.024649264 -0.012428143 0.042452622 0.11388613
0.022379475 0.012108933 0.058814604 -0.20962371 0.0322045 -0.007419474 -0.014484684 -0.018018028
0.05232081 0.004304528 0.028957702 0.0689482 -0.013076334 -0.0028052817 0.03771482 -0.01293674
-0.08100716 0.046650637 -0.10815916 -0.041380163 0.04356161 -0.0044390345 0.0005542287 -0.030228503
0.025271526 -0.04678199 -0.033299495 0.101977356 -0.031004328 0.066850096 -0.0087327445 -0.06600269
-0.0567236 -0.03506252

linears.4.weight f4 [3, 50]
00000000: 34ad ccbc 1b76 6ebe f3ba 8abd 7786 f43e
00000010: 1430 203f cdb6 85be d9af 20bf 3b02 62be
00000020: b185 6f3d 6e87 11bf a3a5 9d3e 85fe a43e
00000030: c218 e0bd 9c61 85be 4f31 b3be e675 6e3e
00000040: d26f f73e 3f00 873d d8ed 6b3c 7873 2a3e
00000050: 1ea2 f63e 9189 c8be f343 a4be 74cf 6ebe
00000060: 66a6 c43e b534 ad3e 72c9 c03e b195 ecbe
00000070: 24aa cebe 3148 3f3e 39ae fb3e a85e 24bf
00000080: 6814 e23e 2868 323f 75bd 05be ccac b63e
00000090: cb96 2e3f 39d1 05bf 8965 12bf 32ab 24be
000000a0: d2d4 233c 0c59 ae3d ef27 d3be 7af7 1f3d
000000b0: 4fb6 7f3c 46c0 253e d1d5 d2be 4e62 2bbe
000000c0: af20 8bbe b2d3 ebbd 0f45 abbd cc17 b93c
000000d0: bc3c 933e 2a19 e0bd 14c2 fabd a405 083e
000000e0: 12c4 1dbe 6659 af3d 0606 59be 5c55 933d
000000f0: 0795 ab3e 31ed 913d 48d9 25be 4958 0abe
00000100: a188 95be 09cc 92be abfb 373e fc9b 9e3d
00000110: 50f7 2f3e 8012 b0bc 82a3 fbbd cf43 7c3e
00000120: e430 30be 6413 83be 3dfa 923e 4014 d23d
00000130: 22de 9c3d 16db 9f3c 1a6d 863e 5da0 bbbd
00000140: fc47 1fbe c2a6 513c 7bf7 6a3e 8229 e1bd
00000150: 7969 9b3e e4a3 14be 2b8c 013e 2c67 c73d
00000160: ebeb b53d e4a6 ee3c 05a7 813e ecbb 5e3e
00000170: 7f8a cebe 2648 b43c 1205 48be f68f 873e
00000180: 7491 8a3c 826a cc3e f7a2 183f 5487 26bf
00000190: aba8 0ebf 9979 e53e e305 d23a e2e4 99be
000001a0: 119c a6bd f130 063e e930 d6bd 28ad 0c3f
000001b0: 90ba d23e 102a b2be a5f4 70bc 9d5c 28be
000001c0: 4d0e 5ebf 5541 ab3e 9a7b 13be be08 c2be
000001d0: 3d49 06bd 2996 c5be 5d42 afbe 55c7 113f
000001e0: 67b9 5fbd fc97 103e f69c b93c 3053 c33d
000001f0: bb20 753e 8f6e 3fbe c8c9 443d 94a1 95be
00000200: ce1a a13d 61e3 0b3e 053c f33d d755 61bd
00000210: 277e cb3e 4d81 c4bd 9a16 a63e 984a 903e
00000220: 971f 8cbd a621 5ebe 5db2 acbd 3e1e 163f
00000230: 8ed6 c7be 67b3 87be 539f ad3d 563c fbbe
00000240: fdfc fc3d bf58 0cbf 9176 91be 1543 eabd
00000250: 30de 39be 3dbe 86bd
-0.024984933 -0.23287241 -0.06773939 0.4775884 0.6257336 -0.26116028 -0.6276832 -0.22071163
0.058477107 -0.56847274 0.30790433 0.32225433 -0.10942222 -0.26051033 -0.34998557 0.23287162
0.483275 0.06591844 0.014399968 0.1664561 0.4817056 -0.39167455 -0.3208309 -0.23321325
0.38408202 0.33829275 0.3765369 -0.46207955 -0.40364182 0.18679883 0.4915636 -0.64206934
0.44156194 0.6969018 -0.13060553 0.3567871 0.6819884 -0.52272373 -0.5718618 -0.16080931
0.009999471 0.08513078 -0.41241404 0.03905437 0.015607431 0.16186628 -0.41178754 -0.16736719
-0.27173373 -0.11514987 -0.08362781 0.022594355 0.28757274 -0.109423 -0.12244049 0.13283402
-0.15406826 0.08561973 -0.21193704 0.071940154 0.33512136 0.07125319 -0.16196167 -0.1351024
-0.29205802 -0.2867129 0.17967097 0.077445954 0.17184186 -0.021493196 -0.12287046 0.24635242
-0.1720615 -0.2560073 0.28706542 0.10257769 0.07659556 0.019513648 0.26255113 -0.09161446
-0.15554804 0.012796106 0.22945969 -0.10994245 0.30353907 -0.14515644 0.12651126 0.09736475
0.088828884 0.029132314 0.25322738 0.21751374 -0.4034004 0.02200706 -0.19533184 0.2647702
0.01691506 0.3992501 0.59623665 -0.65050244 -0.55726117 0.44819334 0.0016023483 -0.30057436
-0.08135236 0.13104607 -0.104585476 0.54951715 0.4115796 -0.34797716 -0.014706765 -0.16441579
-0.8674057 0.33448282 -0.14402619 -0.37897295 -0.03278469 -0.38591126 -0.3423032 0.5694478
-0.054620173 0.14120477 0.022657853 0.09537351 0.23938267 -0.18694519 0.048043996 -0.29224837
0.07866441 0.13660957 0.11876682 -0.055013504 0.39744684 -0.09594975 0.3243912 0.2818191
-0.06841963 -0.21692523 -0.084324576 0.58639896 -0.3903088 -0.2650406 0.08477654 -0.4906947
0.12352941 -0.54822916 -0.2841077 -0.11438576 -0.18151164 -0.06579254

linears.4.bias f4 [3]
00000000: 0054 b83a 9b4c 05be f8de a3be
0.001406312 -0.13017504 -0.3200605

exp_avg f4 [50, 2]
00000000: 75c5 91b9 d188 3db7 32dd 0339 afdb dcb9
00000010: 1dd8 593a 8aea 6eba 2e7d ad3a e74b 43bb
00000020: 1711 fcb6 1406 4139 b616 27ba 9d9d 5a3a
00000030: d8ca 62b9 37d2 a1b8 76db 2aba 137b ca3a
00000040: b58e 9bba a1df f13a 9c99 3a3a 3520 acba
00000050: 7209 673a a21d 40ba 9bc5 01b9 3aa3 d038
00000060: bafd c7ba e32b 1b3b 9f37 213a c3f9 4aba
00000070: e9fc 4a3a 60a7 99ba 03cf 1b3a 311d 58ba
00000080: 6f78 063a 2918 08ba 640a 063a 537d 3cba
00000090: d526 3e3a 894e 91ba 60e6 a239 8517 30ba
000000a0: b293 7b3a 820b 04bb e230 1e3a 121e 9cba
000000b0: 5d62 ceba ad37 1d3b d19d 96b7 ffd5 593a
000000c0: 617e 2e3a 80db 25ba 22db 23ba a1d4 2c3a
000000d0: d9af c639 e510 a3b9 cbeb 57b9 2844 113a
000000e0: 0044 85b9 ea90 eb39 7ad8 903a 2738 d6ba
000000f0: 5f7a eb3a c565 34bb 53d8 91b9 5450 5d3a
00000100: 0393 5c3a c155 26ba 1ada 003a 4915 53ba
00000110: a0db 7e3a b061 b2ba 0ef3 c739 26b1 08ba
00000120: ae93 593a db3b 8eba c9b8 7cb9 32d3 1d3a
00000130: 45a6 42ba d711 db3a dd1d 99b9 6560 87b9
00000140: 832f ebb9 c08d 073a 1f41 abba 1700 2c3b
00000150: 4deb aa3a c6d3 f1ba 7154 273a d719 b3ba
00000160: 4986 b1b8 b852 ac39 dfa9 843a a25d c4ba
00000170: 7305 f4ba 2379 343b 6b22 a4b9 f4c0 3739
00000180: 663f d138 eff6 c0b8 5582 6db9 6780 ba39
-0.00027803672 -1.1297133e-05 0.00012575535 -0.00042125347 0.00083100965 -0.00091139285 0.0013236159 -0.002979988
-7.5121748e-06 0.00018408179 -0.00063739286 0.0008339526 -0.00021628605 -7.716234e-05 -0.00065176876 0.0015448056
-0.0011868092 0.0018453487 0.00071182265 -0.0013132157 0.0008813358 -0.00073286344 -0.00012376012 9.948616e-05
-0.0015258112 0.0023677282 0.0006149951 -0.0007742906 0.0007743375 -0.0011722855 0.0005943628 -0.0008244096
0.00051296403 -0.00051915884 0.00051132427 -0.00071903056 0.0007253711 -0.0011086027 0.0003107069 -0.0006717372
0.00095968985 -0.002014846 0.0006034506 -0.0011910817 -0.0015745867 0.0023989484 -1.7954882e-05 0.0008309781
0.0006656405 -0.00063269585 -0.000625061 0.00065929635 0.0003789652 -0.0003110237 -0.00020591838 0.0005541467
-0.000254184 0.00044930662 0.0011050843 -0.0016343639 0.0017965547 -0.002752648 -0.0002781773 0.0008442451
0.00084142404 -0.0006345176 0.0004915312 -0.0008052183 0.0009722058 -0.0013609435 0.00038137328 -0.00052143855
0.0008299899 -0.0010851579 -0.0002410143 0.0006020545 -0.0007425289 0.0016713691 -0.00029204684 -0.00025821026
-0.00044858092 0.00051709637 -0.0013065672 0.002624517 0.0013040096 -0.0018449954 0.0006383127 -0.0013664317
-8.46503e-05 0.00032868027 0.0010121426 -0.0014981518 -0.0018617347 0.0027538023 -0.0003130616 0.0001752412
9.9777055e-05 -9.2012684e-05 -0.00022650634 0.00035572352

exp_avg_sq f4 [50, 2]
00000000: d427 233a 0311 6139 8cf7 4e3b f397 ae3a
00000010: 4266 e03b e0d2 ce3b 8222 023e 97f5 563d
00000020: cb78 bc39 33c2 543a b580 f93b 5b39 3f3b
00000030: b9f4 3c3a 7171 3639 9f46 b13c 3c46 6d3c
00000040: 4b6b 333d 4fc7 ad3c 075e 553c 1d0c 3d3c
00000050: b44f db3c d74b 163b a497 9c3a ffde 6d3a
00000060: 5319 9d3d 0c52 313d 2289 6a3c 7e8c 523b
00000070: a638 423c 695f eb3b 3837 393c ab80 3a3b
00000080: 16fa 5d3b 6ba5 2c3b 9af5 3f3c bc81 263b
00000090: e62f 753c 8704 043c 0558 0b3c 59c0 8b3b
000000a0: 8cd4 153d 2c75 b13c 4158 563c 0866 c23b
000000b0: 273d 753d 3851 293d 1679 9f3b 5cda a43b
000000c0: d8df da3b be7b 3b3b 2bf7 133c a3df f23a
000000d0: 48ac 1d3b 13e5 033a 1d14 be3b 18b3 ad3a
000000e0: a498 663a b9d8 cb3a 7525 ce3c 0c15 813c
000000f0: 31c3 853d ed2d 483d c74f 453b 9bb8 843b
00000100: e5da 8e3c 1572 703b 0be1 0a3c 1874 883b
00000110: 52c3 bd3c 28b9 623c 47dd 333b f0e4 993a
00000120: 1e0c 363c 2885 ca3b b8ba fb3a 84a1 bc3b
00000130: 3361 b03c d374 9d3c ff55 e33a ae8e f63a
00000140: 7319 bc3b aaea 353b d748 8d3d 8851 1f3d
00000150: c916 343d 4fe1 bf3c c520 f43b 28c3 4f3c
00000160: 9dcd c73a fe63 623b 3cd1 093d 24ea 363c
00000170: df77 bc3d bab5 353d a9a0 da3a 4c30 8b38
00000180: 9c9e 5a3a 2677 8439 617a dc3b 1727 b13a
0.00062238914 0.0002146401 0.0031580655 0.0013320431 0.0068481276 0.0063117594 0.12708476 0.052480306
0.00035948152 0.0008116096 0.00761422 0.0029178474 0.00072080974 0.00017399133 0.02164012 0.014482077
0.043803494 0.021213202 0.013022906 0.011538533 0.026771404 0.0022933388 0.0011947048 0.00090740615
0.07670846 0.043291137 0.014314922 0.0032127197 0.011854326 0.0071830046 0.011304669 0.002845804
0.0033870987 0.0026343714 0.011716271 0.0025406918 0.014965033 0.00805772 0.008504872 0.004264873
0.036579654 0.021662317 0.013082565 0.005932573 0.059872773 0.04133722 0.0048667295 0.0050309133
0.0066795163 0.0028607692 0.009031097 0.0018529784 0.0024058986 0.0005031388 0.0058007375 0.0013252227
0.0008796549 0.0015552259 0.025164345 0.015757106 0.065313704 0.048871923 0.0030107365 0.004050327
0.017438361 0.0036689092 0.008476506 0.00416423 0.023164425 0.01383809 0.0027445124 0.0011741202
0.011111287 0.0061804242 0.0019205427 0.005756559 0.021530723 0.019220745 0.0017344354 0.0018810832
0.0057403385 0.002775828 0.06898659 0.038896114 0.043967042 0.023422865 0.0074501955 0.012680806
0.0015243773 0.0034544463 0.033646807 0.011164222 0.09202551 0.04436276 0.001667996 6.6370325e-05
0.00083396747 0.00025265774 0.006728456 0.0013515678

exp_avg f4 [50]
00000000: 6251 143a a681 eeb9 65b9 c7ba b2de 5bbb
00000010: 61fa f5b9 b116 d63a a3a5 0a38 bfdc a83a
00000020: a10f 1b3b eb45 07bb 9b1d c2ba 3424 7039
00000030: e4ce 383b ef39 89ba 6880 bbba 5d4b 91ba
00000040: e5ba 76ba dab3 7aba 3069 e4ba d999 6bba
00000050: 9426 33bb 3534 a5ba 70a1 443b bbfb 363a
00000060: a700 a4ba bb30 663a ea99 27ba 550d 863a
00000070: 2202 0d3a 6c50 2fbb 4366 80bb fa39 0d3a
00000080: afbd c7ba 632e aaba 4fd9 d0ba 5f7c 8dba
00000090: 6c42 d4ba 2faa 253a 7257 d33a 9d3d 3ab9
000000a0: 72cd 683a 94c7 423b 7f0f 28bb 37c9 bbba
000000b0: 96c3 653a af54 f8ba e871 703b 814d 0d3a
000000c0: 7b37 a8b7 06d8 c539
0.0005657879 -0.00045491493 -0.0015237747 -0.0033549485 -0.00046916588 0.0016333667 3.3056025e-05 0.001288317
0.0023660439 -0.002064104 -0.0014809849 0.0002290167 0.0028199488 -0.0010469536 -0.0014305236 -0.0011085082
-0.0009412005 -0.0009563543 -0.0017426368 -0.00089874637 -0.0027336227 -0.001260406 0.003000345 0.000698026
-0.0012512401 0.0008781065 -0.00063934794 0.0010227362 0.0005379041 -0.0026750816 -0.0039184405 0.00053873623
-0.0015239025 -0.0012983795 -0.0015933904 -0.0010794512 -0.0016194112 0.000631961 0.0016124083 -0.00017761295
0.00088807114 0.0029721009 -0.0025644002 -0.0014326934 0.00087648013 -0.0018946136 0.0036688987 0.0005390272
-2.0052996e-05 0.00037735718

exp_avg_sq f4 [50]
00000000: ddba 733a e41e d23b a2e2 953c cb00 783e
00000010: 512d e83a a0d9 9f3c 41c3 e839 01a2 0c3d
00000020: 7bb2 983d 4210 1a3d a7aa db3c 4490 c83a
00000030: ae57 1e3e b8de de3c cbd0 d93c 326f 723c
00000040: ebf4 3b3c b4d3 ab3c 85af 093d 206e 9c3c
00000050: 8fa4 a13d 358f d63c 70db 083e 204a 033c
00000060: 0c96 7e3c 6ca4 493c a519 943b 38c8 fb3b
00000070: 06c5 f03a 6739 873d 93c3 2b3e 7aa5 933b
00000080: 5003 f43c 7956 cf3c 373c 493d 2028 de3b
00000090: f456 b93c 73fb 1c3c 6557 3e3d d4d7 a339
000000a0: 6dc2 503c ba34 0e3e 6786 ad3d 7256 fb3c
000000b0: cdab bc3a 04ce 403d be5f 2d3e 16b1 5b3b
000000c0: 12f5 f939 b2cb d13b
0.0009297559 0.006412374 0.018296544 0.24219052 0.0017713701 0.019512951 0.00044395964 0.034334186
0.074559174 0.03761316 0.026814772 0.0015301784 0.15463135 0.02720581 0.026588818 0.014797019
0.011471967 0.020974971 0.033614654 0.01909548 0.07892715 0.026191333 0.13364959 0.008013278
0.015538704 0.012307268 0.0045196586 0.00768378 0.0018369264 0.066027455 0.16773824 0.0045058103
0.029786736 0.025309788 0.04912969 0.0067796856 0.02262447 0.009581435 0.046470065 0.00031250587
0.012741667 0.13887301 0.08472901 0.030680869 0.0014394462 0.04707147 0.16931054 0.00335223
0.00047675573 0.006402456

exp_avg f4 [50, 50]
00000000: 453c 9b37 2639 d0b8 9f3c f038 d812 3238
00000010: f147 5038 1fc3 dd38 5a72 c638 5c5c 1fb8
00000020: f23a 34b8 5d5c a2b8 ab2c bcb8 e263 c8b8
00000030: 04a9 2637 bfb1 02b8 c0c1 ce38 d26e 1038
00000040: 0f00 2136 33fa 67b8 d748 67b7 7a06 0cb8
00000050: d7ad 5438 b8a1 7a37 721a a436 0a57 90b7
00000060: f1fe 15b7 e8e0 4238 d246 a437 93a8 8738
00000070: 792c 24b9 728d eab6 6ce4 7837 0665 7eb8
00000080: 628a 73b8 cfc2 80b8 0319 9a37 5eba 8db8
00000090: e21c 3038 cc15 93b7 8c59 a7b8 1421 1839
000000a0: a942 6b38 bb1b b3b8 41f8 2037 6d59 8938
000000b0: 209e d0b8 b2ae f2b7 cc7a 24b7 40c8 3139
000000c0: 66cf ba38 90da b938 1d83 1eb9 cad2 9536
000000d0: ec06 bc39 1ac1 fcb9 f7d9 b5b8 581e 4ab8
000000e0: a8f5 c2b8 6d4b a739 ab9c 22b9 ffd6 7638
000000f0: 4450 0d38 6808 74b8 8b14 e0b8 bf00 ee38
00000100: 01b3 9939 2216 3939 ad10 7d39 c654 1339
00000110: f418 9538 773a 5b37 b07c cdb9 7acc 0939
00000120: 8e35 11b9 c83c aa39 63cb 1639 bbf5 c7b8
00000130: 4b4c 5339 ef8c 52b7 cccb 02b9 986b f338
00000140: ad85 1439 e78e cab8 85ee 1239 bba1 ec38
00000150: 2299 2e39 9ca1 0e38 a047 2939 e901 31b9
00000160: 4bb9 b539 658e fcb8 90ca 2cb9 2953 e739
00000170: 56d2 db38 6504 3939 608f 0b38 da59 8d38
00000180: 6a4c 11b9 52ad d7b7 2b17 b432 afd0 87b8
00000190: 5596 2e38 aa1b 6738 8592 18b9 8b34 ba37
000001a0: f8cc 0fb8 c531 69b8 7d25 54b8 4e4a 3cb8
000001b0: 847d 0538 a57a c537 8edd 9e38 0ccf 9b38
000001c0: 4ce7 0837 2948 a836 a255 c7b8 e981 6fb7
000001d0: 1699 5fb8 4d4d 9237 d51b e0b6 67fb 1d37
000001e0: 1435 9436 0e33 afb7 7c43 9c37 af24 c0b7
000001f0: c85b a4b7 8ef1 eab7 16e1 87b7 ee06 1eb8
00000200: 319d 1639 423a 82b7 9f14 15b8 9ee1 1638
00000210: 8fd5 6637 90fa 1a37 e46a 11b8 0acb f837
00000220: d8a3 26b8 92a2 5438 f727 5f37 8a46 fcb8
00000230: b37f 06b7 9eb3 c636 e8fe a0b7 f0b1 d8b8
00000240: e6ca e538 0e44 0238 17bb 9737 abb5 f1b8
00000250: 684d ecb7 f448 6fb8 1d78 01b9 7463 a9b7
00000260: d9c9 b139 6566 c6b9 613a 8ab8 85b2 7fb7
00000270: e9e8 63b8 e73f 7e39 b4be 1cb9 a5eb 0638
00000280: fcf1 3e37 bc26 9ab8 d41f bdb8 4309 bc38
00000290: d678 9839 96eb 2339 f6a3 5039 f39f db38
000002a0: 664b 6b38 dcfb c633 46a2 a1b9 8a27 fe38
000002b0: e799 f6b8 863c 8f39 0de8 fa38 f4f5 99b8
000002c0: 2854 3f39 bf36 d336 7d0a 12b9 c2ff cb38
000002d0: 65ae 0239 2089 d3b8 4c94 d538 cfe1 a338
000002e0: d37b 1d39 bbee 3337 bf25 2339 c7c9 17b9
000002f0: edf1 8439 19cd 88b8 87fe ffb8 0a1e a439
00000300: df53 c638 554a 2b39 57e2 f8b6 d4bb 6838
00000310: a62f 04b9 b678 7237 113b 1f37 b8c8 10b8
00000320: 7438 1a39 2fa7 cc37 ae89 c6b9 ac1c c539
00000330: 90d0 4c38 7442 2837 377c 3e38 352b 8cb9
00000340: 726b 1639 3bd5 1db8 abf3 9d37 95c3 ba38
00000350: e609 bf38 4b30 b9b8 f4e9 9cb9 6752 18b9
00000360: 94a1 68b9 a819 d5b8 840b 81b8 288a c7b6
00000370: 30b6 9d39 ef1b f9b8 087a 0039 a740 8db9
00000380: 243d 05b9 1cbb 7a38 01e0 32b9 b61b 35b7
00000390: ec5c 3f39 9d8e d7b8 94d8 0db9 c952 cb38
000003a0: 3425 d9b8 7f82 b4b8 7cc0 22b9 daf2 48b7
000003b0: a216 22b9 6242 2d39 111a 84b9 0eec 7d37
000003c0: f7e0 0339 d735 a6b9 7cbe c9b8 3095 56b9
000003d0: 4fba 6138 1cdf 0fb8 83c4 0039 96fa 1ab8
000003e0: a55e c6b6 746a 9e37 244d b636 5203 80b8
000003f0: adf4 0c39 e97a cbb8 d35f 22b7 d789 5d38
1.8505505e-05 -9.9288576e-05 0.00011455383 4.2456057e-05 4.9658065e-05 0.00010574445 9.4626754e-05 -3.799457e-05
-4.297024e-05 -7.741966e-05 -8.9728586e-05 -9.555348e-05 9.933723e-06 -3.1159954e-05 9.858934e-05 3.4435485e-05
2.3990904e-06 -5.5307708e-05 -1.3785632e-05 -3.3384633e-05 5.070664e-05 1.4938814e-05 4.8906595e-06 -1.7206668e-05
-8.94045e-06 4.6462665e-05 1.9583302e-05 6.468701e-05 -0.00015656826 -6.99021e-06 1.48351355e-05 -6.0652404e-05
-5.8064594e-05 -6.1398016e-05 1.8369878e-05 -6.7581175e-05 4.198857e-05 -1.7533916e-05 -7.97986e-05 0.00014508172
5.609045e-05 -8.54055e-05 9.594544e-06 6.549326e-05 -9.947666e-05 -2.8929997e-05 -9.803753e-06 0.00016954634
8.907802e-05 8.862198e-05 -0.00015116898 4.465085e-06 0.00035863311 -0.00048209057 -8.671352e-05 -4.8188813e-05
-9.296398e-05 0.0003190892 -0.00015507887 5.88512e-05 3.3691773e-05 -5.8181962e-05 -0.00010684979 0.00011348863
0.00029315802 0.0001765122 0.00024134172 0.00014050593 7.1095215e-05 1.306703e-05 -0.00039193546 0.00013141512
-0.00013848228 0.00032470212 0.00014380882 -9.53483e-05 0.0002015095 -1.2549789e-05 -0.00012473686 0.00011607184
0.00014164178 -9.658728e-05 0.000140125 0.000112834816 0.0001665098 3.400595e-05 0.00016143778 -0.00016880747
0.00034661064 -0.000120428194 -0.00016478659 0.00044121713 0.00010481912 0.00017644612 3.327371e-05 6.74014e-05
-0.00013856744 -2.5710706e-05 2.0965294e-08 -6.476172e-05 4.162484e-05 5.5100456e-05 -0.00014550432 2.2197395e-05
-3.428475e-05 -5.559788e-05 -5.0579652e-05 -4.4891895e-05 3.1826567e-05 2.354134e-05 7.575295e-05 7.4295414e-05
8.160085e-06 5.0151907e-06 -9.50501e-05 -1.4275757e-05 -5.3309916e-05 1.7440552e-05 -6.6789603e-06 9.416463e-06
4.416923e-06 -2.08854e-05 1.8628074e-05 -2.2905266e-05 -1.9593062e-05 -2.8007456e-05 -1.6198068e-05 -3.767659e-05
0.00014363673 -1.5524336e-05 -3.5543573e-05 3.597291e-05 1.3758791e-05 9.237454e-06 -3.4670244e-05 2.9658451e-05
-3.9730076e-05 5.0696144e-05 1.3301141e-05 -0.00012029435 -8.016755e-06 5.92177e-06 -1.9192186e-05 -0.00010332826
0.00010957364 3.1057796e-05 1.8087723e-05 -0.00011525614 -2.8169437e-05 -5.7049983e-05 -0.00012347144 -2.0192681e-05
0.0003391046 -0.00037841793 -6.591227e-05 -1.5240749e-05 -5.4337932e-05 0.00024247133 -0.00014948362 3.216755e-05
1.1381224e-05 -7.350507e-05 -9.018151e-05 8.966264e-05 0.0002908173 0.00015632654 0.00019897506 0.000104725266
5.6098586e-05 9.2659064e-08 -0.00030829216 0.000121190285 -0.00011758861 0.0002732018 0.00011964152 -7.341421e-05
0.0001824653 6.2946633e-06 -0.00013927552 9.727433e-05 0.00012462733 -0.000100868056 0.00010184254 7.814506e-05
0.00015018815 1.0724815e-05 0.00015558953 -0.0001447565 0.0002535725 -6.523188e-05 -0.00012206757 0.00031302898
9.456998e-05 0.00016335522 -7.4173254e-06 5.548804e-05 -0.00012606251 1.4452429e-05 9.490891e-06 -3.451921e-05
0.00014707615 2.4396546e-05 -0.00037868082 0.0003759613 4.883163e-05 1.0029053e-05 4.5415214e-05 -0.00026735073
0.00014345141 -3.7630303e-05 1.8829325e-05 8.905601e-05 9.1094334e-05 -8.830483e-05 -0.00029928947 -0.00014526547
-0.00022185437 -0.0001016141 -6.153344e-05 -5.9467457e-06 0.00030081114 -0.00011878448 0.00012252491 -0.00026941785
-0.00012706645 5.9778904e-05 -0.00017058851 -1.0794893e-05 0.00018249796 -0.00010278563 -0.0001352749 9.695214e-05
-0.00010354296 -8.607376e-05 -0.0001552123 -1.1977472e-05 -0.00015457955 0.00016523295 -0.00025196423 1.5134936e-05
0.0001257694 -0.000317021 -9.619907e-05 -0.00020464207 5.3817694e-05 -3.4301644e-05 0.00012280238 -3.6949838e-05
-5.911878e-06 1.8884639e-05 5.433003e-06 -6.104134e-05 0.00013442589 -9.702688e-05 -9.678263e-06 5.281888e-05
