models/onlyadam_10e/ckpt/ckpt-11.pt (torch, 106733 bytes, 30 tensors)

linears.0.weight f4 [50, 2]
000000 6c 89 53 bc 64 50 77 3e 55 2f cc 3e c9 ca 8b be
       -0.012911182 0.2415176 0.3987986 -0.2730315
000010 7b 0a b6 bd 2c 48 b7 be ed e1 8d be ea cc c1 bd
       -0.08888718 -0.3579725 -0.2771143 -0.094629124
000020 36 74 0d 3e 2f e8 07 be 8b 59 8b 3e 81 fd 91 be
       0.13813862 -0.13272165 0.27216753 -0.2851372
000030 1d 95 df bd f4 78 1b be a8 1c 7a 3d 6d 32 1c 3a
       -0.10917113 -0.15182859 0.061062485 0.0005958442
000040 f3 34 da bb 20 6c 45 3e 06 dd 25 3e 2b 82 64 3e
       -0.006659144 0.19279528 0.16197595 0.2231528
000050 d9 03 03 be 28 2a 81 be d7 4c 5b be cc c3 8d bd
       -0.12794437 -0.25227475 -0.21416031 -0.06922111
000060 cc 46 42 3e 91 43 8c bd b0 41 dd bd d0 65 6d 3e
       0.1897232 -0.06848825 -0.108035445 0.2318337
000070 2a aa be bd 0b 56 45 be 51 54 81 bc db 46 56 3e
       -0.093098 -0.19271104 -0.015787276 0.20925467
000080 c4 a5 f6 bd 72 c2 16 3e 7d ec 05 3b 66 9a ab bd
       -0.12043336 0.14722613 0.0020435147 -0.083790585
000090 12 05 5f 3e a1 c5 1d be 1c c1 6e bc fc ae ac 3e
       0.21779278 -0.1540742 -0.014572408 0.33727252
0000a0 73 bd 44 bd 06 68 3f be 06 d8 8f be ef 2a dc bd
       -0.048032235 -0.18692026 -0.280945 -0.107503764
0000b0 f1 c0 18 3e 3c 1b 81 3d 8f 88 23 be 2d 20 2f be
       0.14917351 0.06304023 -0.15970062 -0.17102118
0000c0 a9 04 98 be 0e 9a 73 3e 2f 7f 05 be 37 f0 a7 be
       -0.29691055 0.23789236 -0.13036798 -0.32800457
0000d0 c0 a3 6d be 6f 7f 84 bc 77 ca fd 3d 4e 65 16 3e
       -0.23206997 -0.016174046 0.12392133 0.14687082
0000e0 1e be d0 3b b2 c8 80 3e 3f 4a 3f 3d 8d 39 1e 3d
       0.00637032 0.25153118 0.046701666 0.038629103
0000f0 d7 51 6b be 67 5b 00 3e 00 a3 98 bd 5b 81 2b 3c
       -0.22980438 0.12534867 -0.07452965 0.0104678525
000100 19 c1 92 3e e9 6c d4 be 8d e3 96 3d 73 4f e0 3d
       0.28662947 -0.41489342 0.073676206 0.10952654
000110 78 c8 a2 be f9 2c 07 be a5 cd 1b be bf d1 15 bc
       -0.3179357 -0.1320075 -0.15215166 -0.009144246
000120 21 cb 01 bc 86 f7 56 be 3a 4a c5 3d 04 e8 a1 be
       -0.007921965 -0.2099286 0.09633298 -0.31622326
000130 69 e3 94 bd 25 c7 cd 3d b7 35 0e 3d 83 c4 08 3d
       -0.072699375 0.100477494 0.034719195 0.033390533
000140 46 07 be 3c 76 d6 aa bd ec 70 f4 bd 77 be 98 be
       0.023196828 -0.083416864 -0.11935601 -0.29832813
000150 a4 ae 53 bd 68 c6 e4 3e 33 af 70 be 0b 4f 31 bd
       -0.051680222 0.44682622 -0.23504333 -0.043288272
000160 15 2d 43 bd 5f c8 24 be 97 a7 5a 3e ad 9d 7e be
       -0.047650415 -0.1609206 0.21352993 -0.24864836
000170 ce 07 f3 3c 16 49 60 3e e0 fb 00 3e 1c 24 82 be
       0.029666808 0.2190288 0.12596083 -0.25418174
000180 d1 70 c9 3d 85 01 c7 be 69 a6 02 be 1c 14 0a 3e
       0.09835971 -0.38868347 -0.12758793 0.13484234

linears.0.bias f4 [50]
000000 1d f0 35 3c 00 63 26 bc 0e d7 35 bc 63 e9 32 bc
       0.011104611 -0.010155439 -0.011098636 -0.010919902
000010 9d 80 16 bc f8 59 33 bc ee a0 1e bb 4b eb 32 bc
       -0.009185937 -0.010946743 -0.0024204808 -0.010920356
000020 0e 74 2b bc 76 17 28 bc 02 f7 0a 3c 26 f1 aa bb
       -0.010464681 -0.0102595 0.008481743 -0.0052167354
000030 b8 cd 32 3c 03 10 33 3c 92 e4 35 bc db d8 2b bc
       0.010913305 0.01092911 -0.011101859 -0.010488714
000040 f7 69 31 3c a7 f2 a1 ba 7d d7 33 3c 83 5f 36 3c
       0.010828487 -0.0012355641 0.010976669 0.01113117
000050 e6 b0 30 bc 6b 55 30 3c 11 91 2c bc 50 76 ea 3b
       -0.010784363 0.010762553 -0.010532633 0.007155217
000060 97 fb 2e bc 16 1b 35 bc de 51 13 3c 9a d5 2c bc
       -0.010680101 -0.011053821 0.008991687 -0.010548973
000070 f5 1b 31 3c 23 90 31 bc 0f 02 01 3b 19 f2 35 bc
       0.010809888 -0.0108375875 0.0019685065 -0.011105084
000080 f4 c5 1e bc c3 6c 34 3c 3e 08 32 bc bb 9c 35 3c
       -0.00969075 0.011012259 -0.010866223 0.011084731
000090 51 2a 36 bc cd ae 36 bc 53 24 2c bc a0 57 34 3c
       -0.011118487 -0.011150074 -0.010506707 0.01100722
0000a0 8a a5 35 bc 2f 43 2d bc f8 d1 2b 3c e4 4e 2a 3c
       -0.011086831 -0.0105751 0.010487072 0.010394786
0000b0 aa 53 c2 bb ac 75 e4 3b 5c 71 2e 3c 9b 3a 88 bb
       -0.0059303837 0.0069720354 0.010647144 -0.004157377
0000c0 7d a3 33 bc fd 30 33 bc
       -0.010964272 -0.010936973

linears.1.weight f4 [50, 50]
000000 ea d5 4b be 2a b8 54 3e 5d e0 8d 3d eb 1c a4 3d
       -0.1990582 0.20773378 0.069275595 0.08013328
000010 22 b4 13 bd 5b a4 10 3d 0f fb a5 3c ed e2 fe 3d
       -0.03606046 0.03531299 0.020261316 0.124456264
000020 f3 57 7c bd bf df 56 bd 04 8a 25 3e 76 71 a9 3c
       -0.061607312 -0.052459475 0.1616593 0.020683985
000030 58 44 49 bd 1a bb 7a 3e d5 dc eb bd 09 a4 60 3e
       -0.049137443 0.24485436 -0.1151673 0.21937574
000040 92 61 2b 3d 6d 7f bc 3d 73 eb b9 bd f7 f2 e1 3d
       0.041841097 0.09203992 -0.090781115 0.1103267
000050 67 70 49 be 48 c3 6a 3d 52 c5 ae bd 6e ba c7 3c
       -0.19671784 0.05731514 -0.085337296 0.024380889
000060 27 d1 48 be 49 00 27 bd b6 90 1c be c4 5b 5e 3e
       -0.19611035 -0.040771756 -0.15289578 0.21714693
000070 48 6f 95 bd 0a 74 29 bd 45 3b 10 3e 04 84 22 3a
       -0.07296616 -0.04137043 0.1408511 0.00061994814
000080 86 ec ad 3d bf 37 19 be 12 d4 7f 3e ac dc 30 bd
       0.08492379 -0.14962672 0.24983242 -0.0431792
000090 80 9b c1 bc 65 37 65 ba 48 5c d4 3d 00 c2 2a be
       -0.023633718 -0.0008743911 0.10369164 -0.16675568
0000a0 d2 da cc bd 98 79 ff bd 29 cd 7a bc 9a bd a1 bd
       -0.10002674 -0.12474364 -0.015307703 -0.07897492
0000b0 31 24 7f 3e f5 10 03 3e 0e 47 cf 3e 45 43 dc 3d
       0.2491615 0.12799437 0.40483898 0.10755018
0000c0 4e 7f 19 3d 48 f9 25 3d 56 c8 25 3d 44 5a 8a be
       0.037474923 0.040520936 0.04047426 -0.27021992
0000d0 6e 96 90 bd 8e 70 b6 be 8f 0e 7f 3d 41 eb 8b 3d
       -0.07059942 -0.35632747 0.062269744 0.068319805
0000e0 32 4f 9f 3d b0 e8 8e 3c 56 36 c3 3d e7 b7 09 be
       0.07778777 0.017444938 0.09531848 -0.1344906
0000f0 0c de f0 3d ca f3 dc 3c 12 4d 18 be d3 67 35 3e
       0.11761102 0.026971716 -0.1487315 0.17715387
000100 2f 1b 2f 3e e9 4e 4a 3d b7 4c 4f bb 83 cf 9c bd
       0.17100213 0.04939166 -0.003163142 -0.07656767
000110 cf 02 c8 3b 10 53 ad be 94 22 6d bd 8a 24 55 bd
       0.0061038504 -0.33852434 -0.057894304 -0.0520368
000120 14 18 64 bc b2 3f a2 bc d3 39 e3 bd 98 dc 94 3c
       -0.013921756 -0.019805763 -0.110950135 0.018171594
000130 e4 2d 17 3d 22 87 67 3e 45 a0 79 3d 41 c2 a9 3d
       0.036909 0.22610143 0.06094386 0.08289004
000140 ae 56 1a 3e ed 89 31 3e 58 5f 1f 3e 2f f5 bd b8
       0.15072128 0.17337771 0.15563715 -9.057891e-05
000150 1e 99 8b 3d 26 b8 d5 3d 78 6d a8 bd 51 ac 72 3e
       0.06816314 0.10435514 -0.082240045 0.23698546
000160 95 52 95 3a a4 77 ca bd a7 a2 27 3e 88 ed 41 be
       0.0011392409 -0.09886101 0.1637064 -0.18938267
000170 3f f2 4b be 56 e0 11 3e 30 4a 68 be 1a 0f 2b bd
       -0.19916628 0.14245734 -0.2268455 -0.04176245
000180 eb 9d 3c be ca a0 8a bc 99 7a 9d bd f3 03 60 bd
       -0.18419616 -0.016922373 -0.07689399 -0.054691266
000190 07 0d 61 be ec 88 e9 bc a0 60 83 bd 49 8a 56 3d
       -0.21977626 -0.028507672 -0.06414914 0.052377973
0001a0 b7 98 90 bc 2b 79 80 3c 68 bc d1 3b 71 31 48 3e
       -0.017650945 0.015682777 0.0064006336 0.1955011
0001b0 38 44 b2 3d fe ed 82 3e 4c 87 48 bd 74 3f 93 3e
       0.08704418 0.255722 -0.048957154 0.28759348
0001c0 57 1a 52 be 6e 05 e4 bd 6f 8f 99 bd 70 f8 ff bd
       -0.2051786 -0.11133848 -0.07498061 -0.124985576
0001d0 33 11 3c be 55 43 17 3e d0 d2 1a bd 09 7e f2 bd
       -0.18365936 0.14771779 -0.037798703 -0.118404455
0001e0 50 95 7b bc fe f1 dc 3d 47 b7 64 3d d7 a1 9c bd
       -0.015355423 0.10788344 0.05583885 -0.07648056
0001f0 fb 98 e2 3c b5 cb f0 3d c4 a6 e2 bc 35 cf fb bc
       0.027660837 0.11757604 -0.02766741 -0.030738452
000200 01 78 f9 3d d2 ed d5 bd 71 ca 73 3e 6d 9d 5c be
       0.12181092 -0.10445751 0.23807694 -0.21544428
000210 c4 67 87 be 08 37 88 3d 6b 3b 46 bd a9 2f 1f ba
       -0.26446354 0.066511214 -0.04839651 -0.00060724706
000220 27 7c eb bc ed 67 2b bc af 42 52 be aa c1 29 bd
       -0.028745724 -0.01046179 -0.2053325 -0.041444458
000230 ea 68 48 3e 3b 7e 50 3d 1d e6 78 bd 34 b4 03 3d
       0.19571272 0.050901633 -0.060766328 0.032154277
000240 0d 7d 37 be 21 c9 57 be b8 f7 9f 3d c5 29 ae 3d
       -0.17918797 -0.21072818 0.078109205 0.08504061
000250 2b 05 1d 3e 04 49 d3 3d c5 11 89 bc 4c 9b c0 be
       0.15334003 0.10316661 -0.016732106 -0.37618482
000260 f5 51 48 bd 7c 3f 59 bc bb af b5 bd 35 4f bf bd
       -0.048906285 -0.013259765 -0.088714086 -0.093412794
000270 5d 0c bd bd 7b 7b 61 be a6 f2 0d bd 1d 4b 8b bc
       -0.09230874 -0.2201976 -0.034655236 -0.01700359
000280 d2 f6 c3 bd a1 61 19 be 86 2a 05 be 19 c5 0a be
       -0.095685616 -0.14978649 -0.13004503 -0.1355175
000290 22 6e 71 be 94 b3 67 bd 45 92 5d be 27 eb d6 3b
       -0.23577169 -0.056567743 -0.21637829 0.006558794
0002a0 14 ee 49 3e 45 55 65 3d e9 b9 20 be 95 62 9d bd
       0.19719726 0.055989522 -0.15695919 -0.07684819
0002b0 86 fc 2e bd 95 e4 c9 3d 43 4e d5 3d bf df 0c be
       -0.042721294 0.09858052 0.10415318 -0.13757227
0002c0 05 79 42 bd 20 7f 66 bd 9b 49 82 be 42 db 4e 3e
       -0.047478694 -0.05627358 -0.25446782 0.20200828
0002d0 43 51 54 be 60 86 b1 3c 8b 8d 91 3e ee 87 3e 3e
       -0.20734124 0.02167052 0.284283 0.1860654
0002e0 0e 3a 15 3e 96 76 90 bc f9 3a 99 3d 82 ec 13 3d
       0.14572927 -0.017634671 0.07481951 0.036114223
0002f0 51 a2 98 3d 71 a6 3c 3d af b0 2a be 18 bf a2 be
       0.074528344 0.04605717 -0.16668962 -0.31786418
000300 a4 2f 0a 3c 88 c4 50 3e 81 cf 9a be 7c 02 23 3e
       0.00843421 0.2038747 -0.30236438 0.15918916
000310 83 f6 72 bc 9c 4c b1 bd 11 1d 7f 3e 90 07 00 3e
       -0.014829281 -0.0865719 0.24913432 0.12502885
000320 be 9f 22 38 e1 e7 8a bd 42 0f df bd 36 99 0f 3d
       3.877258e-05 -0.06782509 -0.10891582 0.035058223
000330 b6 72 b7 be 46 65 0d be ca 77 47 3c 8f 8f d4 3d
       -0.35829705 -0.13808164 0.012174556 0.10378944
000340 55 67 d6 3d 76 55 44 bd 03 90 e2 bc 25 74 2c 3d
       0.10468928 -0.047933064 -0.02765656 0.04210295
000350 72 2c 49 3e 89 48 15 3e 50 c5 d4 bd 47 98 06 3e
       0.19645861 0.14578451 -0.10389197 0.13144027
000360 a6 8e cc 3d 47 21 13 be 13 a4 97 3d 09 7e e1 bd
       0.099881455 -0.14368163 0.074043415 -0.110103674
000370 92 42 a3 3c c4 a3 13 be bf 62 e3 bd 10 69 14 bd
       0.019929204 -0.1441794 -0.11102819 -0.036233008
000380 38 2f 2e 3e bc fc 97 3e ed f1 c2 bd dc fa 80 be
       0.170102 0.2968501 -0.095188 -0.2519139
000390 41 d7 dc 3c ff bb 4c be 1b 14 91 bd 86 a1 76 bd
       0.02695811 -0.1999359 -0.07083913 -0.060212635
0003a0 15 88 1d be e2 2c d9 be 66 98 f0 bd 23 6f fb 3d
       -0.15383942 -0.42417055 -0.11747818 0.12277057
0003b0 74 e1 9e 3b c5 1e bb 3d 3c 66 3f 3c 16 e6 91 3c
       0.0048486535 0.09136728 0.011682089 0.017809909
0003c0 18 7c 35 be 6e 7f 2b be 2f 7c 19 3e d0 30 76 3d
       -0.1772312 -0.1674783 0.14988779 0.060105145
0003d0 0c 24 10 be fc 37 70 bd f3 43 5d bd a6 53 51 bd
       -0.14076251 -0.05864714 -0.05401988 -0.051105164
0003e0 41 da ce ba c5 a0 f0 bd 08 51 48 3e 4c ae c9 3d
       -0.0015781597 -0.11749414 0.19562161 0.098476976
0003f0 a1 82 f9 bd 30 81 98 3d ba b3 06 be be 3a 36 3d
       -0.121831186 0.074465156 -0.13154498 0.044489615

linears.1.bias f4 [50]
000000 91 5c 36 bc 75 ae 30 bc fc ef 2f bc 07 f5 20 bc
       -0.011130468 -0.010783781 -0.010738369 -0.009824044
000010 32 58 34 3c a0 f9 32 3c f4 51 30 bc 39 4d 36 bc
       0.0110073555 0.010923773 -0.010761727 -0.01112681
000020 dd d2 2e 3c c8 25 54 3b 89 59 2b bc 1d be 87 3b
       0.010670391 0.0032371152 -0.010458359 0.0041425363
000030 cd a5 32 3c c3 55 33 3c 74 01 30 bc 29 d8 30 3c
       0.010903788 0.01094574 -0.010742534 0.010793724
000040 1a 5b 31 bc 6b ed 29 bc 69 68 35 3c fe 57 32 3c
       -0.010824943 -0.010371546 0.011072257 0.010885237
000050 e1 db 33 bc 3f ab 34 bc 49 c8 32 3c d3 41 22 bc
       -0.010977716 -0.011027156 0.0109120095 -0.009903389
000060 42 08 23 3a 90 67 32 3c c4 35 1d bc fa 74 33 3c
       0.0006219187 0.010888949 -0.009595338 0.010953182
000070 fd 84 26 bc 44 ee 28 3c cc 3e 35 3c 27 a4 85 3b
       -0.010163543 0.010310713 0.011062335 0.0040784064
000080 e3 dc 34 bc 8c 50 2e 3c 34 68 30 3c ef e9 35 bc
       -0.011038992 0.010639321 0.010767031 -0.011103137
000090 9d 8f 35 bc ab 85 31 3c 2d 2f 36 bc 40 57 28 3c
       -0.011081603 0.010835092 -0.011119646 0.010274708
0000a0 e4 9c 36 bc 48 af 31 bc 46 8d 2b 3c 43 95 2d 3c
       -0.011145804 -0.010845013 0.010470694 0.010594669
0000b0 58 71 30 bc 5e 08 2d bc 44 24 27 3c e2 40 2d 3c
       -0.010769211 -0.010561077 0.0102015175 0.010574551
0000c0 a1 98 23 3c f1 43 30 3c
       0.00998512 0.010758386

linears.2.weight f4 [50, 50]
000000 d4 20 6b 3e d7 96 a0 be 23 e9 0f be 89 43 e0 bd
       0.22961742 -0.31365082 -0.14053778 -0.10950381
000010 85 09 e5 bd 8c c6 8a 3e 6c ed a4 3d a7 0c 32 be
       -0.11183456 0.27104604 0.08053097 -0.17387639
000020 83 96 1f be ca d2 fb 3c f0 02 a1 3c de 0a 1a 3e
       -0.1558476 0.03074016 0.019654721 0.15043208
000030 35 d0 5f 3e ed 81 12 3d 0d 52 da bd 9e 16 8d bc
       0.21856768 0.035768438 -0.10660181 -0.017222699
000040 b6 3b 41 be b6 d7 56 be ee 11 9b be 98 ef 7e bd
       -0.18870434 -0.20980725 -0.30287117 -0.062240213
000050 c2 f2 0b 3e de 86 a2 3e bb a9 4c 3e 5a 33 c8 3d
       0.13666824 0.3174352 0.19986622 0.097754195
000060 29 13 c3 bc 98 66 a8 3d 9e 08 02 3e a6 0a 83 3c
       -0.023812847 0.08222693 0.126986 0.015996289
000070 97 da e2 bb 8a 3d 36 3d 27 55 10 3e 42 e3 ec bd
       -0.0069230306 0.044492282 0.14094983 -0.115667835
000080 ce 7f 35 be 5e 60 10 3d 38 b2 2c bd b7 6b 01 3d
       -0.17724535 0.035248153 -0.04216215 0.031596866
000090 6a 27 b7 3e 99 48 ee bd 03 fc 3b bd c5 bb 78 bd
       0.35772258 -0.11634941 -0.045894634 -0.060725946
0000a0 ec 8a 59 3d 13 b1 3d be a6 ce d6 3d f0 22 f9 3d
       0.053111 -0.1852458 0.10488634 0.12164867
0000b0 56 0f 5b 3d 89 7d 10 be 5b a2 00 be af 03 1c bb
       0.053481422 -0.14110388 -0.12561934 -0.0023805907
0000c0 d9 bf bc bd 39 41 f2 3b eb e5 40 bd 2c a5 9f be
       -0.092162795 0.007393029 -0.047094267 -0.31180704
0000d0 fa 96 ec bd 12 29 82 3c 3d b3 1d 3e 00 00 17 3e
       -0.11552234 0.015888724 0.15400405 0.14746094
0000e0 e9 88 f5 bd b5 b9 d5 3b ef a7 bd 3c dd 1b 73 be
       -0.11989004 0.006522382 0.023151366 -0.23741098
0000f0 be 7b a6 be e1 ad 19 be 50 93 8e bd 5e e7 2a 3e
       -0.32516283 -0.15007736 -0.069616914 0.16689822
000100 e5 23 b2 be 2e 90 9c bd 09 19 09 3d 3f f9 c5 3c
       -0.3479301 -0.076446876 0.03347114 0.024166701
000110 ae 7d f7 3d 38 b3 1e 3e fe 6b 0b be 56 33 55 bc
       0.120845184 0.15498054 -0.13615415 -0.013012728
000120 c5 08 90 be 7d b8 f3 bd c0 af be bd 6c 44 f9 3d
       -0.2813169 -0.11900423 -0.093108654 0.121712536
000130 4a 89 35 3e 39 6c 23 3e d2 49 e7 3d 0d 11 9a 3c
       0.17728153 0.15959252 0.11293377 0.018806959
000140 2c cd e1 3d d8 96 97 3d 9d f7 c8 3d af c3 1d 3e
       0.110254616 0.07401818 0.098128535 0.15406679
000150 04 7b 5e 3d 88 57 85 bd 87 cd 51 bd 7e da 84 3d
       0.054316536 -0.06510836 -0.051221397 0.064869866
000160 1c 80 7a bd 4f 4d b8 3d d2 67 86 bc 22 da 04 be
       -0.06115733 0.089991204 -0.016406927 -0.12973836
000170 a6 79 03 3e ef 94 87 3e 7d 58 fe 3c 0e 58 f8 3c
       0.12839374 0.26480815 0.031048054 0.030315425
000180 4a 4b 0e 3d b6 70 bf 3d 95 a0 21 3e 5e 71 43 3e
       0.03473977 0.0934767 0.15783913 0.19086215
000190 cf 1d 07 ba 98 6d 1f be 40 d1 8d 3d 14 f9 d4 bd
       -0.0005154283 -0.1556915 0.06924677 -0.103990704
0001a0 0e 67 fa 3d 3f e5 e0 3e 85 89 83 bc 68 a3 66 be
       0.12226687 0.439249 -0.016056785 -0.22523272
0001b0 35 88 24 3e 66 9c 9e 3e 08 76 1e bd 46 8f 12 3e
       0.16067584 0.30978698 -0.038686782 0.14312467
0001c0 5e e0 67 bb 40 74 6d be b0 f3 49 3e 77 99 a4 bb
       -0.0035381536 -0.23188877 0.19721866 -0.0050231772
0001d0 74 ec 59 bd 9d 38 b1 3d e3 8c 46 3e 68 40 76 be
       -0.053204015 0.08653376 0.19389682 -0.24048007
0001e0 b9 e8 cb bd 22 75 64 ba 24 2e ca bd c1 84 77 3e
       -0.09956498 -0.0008714964 -0.09872082 0.24171735
0001f0 c5 df df 3c a3 2e be 3e ec 68 74 3e a6 e9 33 bd
       0.027328381 0.37144956 0.2386815 -0.043923996
000200 ea 5b 85 3a 5b fc fc bd ed f6 ce bc b5 ed 9d 3c
       0.0010174487 -0.123528205 -0.025264228 0.019278387
000210 73 6f d0 bc d7 fa e5 3c 1e b3 8b 3c 08 87 7e 3e
       -0.025443768 0.028073711 0.017053183 0.24856198
000220 c9 78 01 be df a9 91 bd 06 34 cb 3c 5c e0 1a 3e
       -0.12643732 -0.071124785 0.02480508 0.15124649
000230 cf 8a b1 3c 1c bb db bd 09 e8 0d bc 1e 37 a3 bd
       0.021672634 -0.10729048 -0.0086612785 -0.07969497
000240 4d 15 ab 3d 3a 29 1d 3e ff 63 bc be a5 b0 56 3e
       0.08353672 0.15347758 -0.3679504 0.20965822
000250 ed 51 98 3d 80 9a f7 3c 5b 8e b7 bd dc 77 d3 3c
       0.07437501 0.030225039 -0.08962699 0.02581399
000260 43 51 ba bd d9 a8 c3 bd 0d 4a 33 bd 8b 05 46 3e
       -0.09097531 -0.095536895 -0.043771792 0.19338052
000270 81 cb 58 3d b4 54 37 3d 93 ed c5 bc f4 64 1e be
       0.05292845 0.044758514 -0.024161136 -0.15468198
000280 71 6e ea bd 81 42 39 bd 96 89 12 3d 6d 5d d7 bd
       -0.11446846 -0.04522944 0.035775743 -0.105158664
000290 33 3f 12 3c 04 37 98 be 98 e5 0b be ea 94 f4 3d
       0.008926201 -0.29729474 -0.13661802 0.119424656
0002a0 27 46 14 3e c1 8a fb bd 0e 78 e0 3c 78 46 0b 3e
       0.14479886 -0.122823246 0.027400997 0.136011
0002b0 e0 6e dd 3d 23 f9 2b bd 82 c9 f7 bd 71 43 96 3c
       0.10812163 -0.041985642 -0.120989814 0.018342705
0002c0 e7 f0 c6 bd 8f 96 d5 bd e2 20 65 3e 04 c7 25 be
       -0.09713917 -0.104291074 0.22375825 -0.161892
0002d0 d2 95 80 3e 1e 47 87 bd 95 bf ce 3d a6 4d 4a 3d
       0.25114304 -0.066053614 0.10095135 0.049390458
0002e0 86 58 91 bd 7b 7a 9f bd b6 dd 14 be d5 14 06 be
       -0.07096963 -0.07787033 -0.14537701 -0.13093884
0002f0 c3 7b d1 3d c3 d2 c2 3c bf 8d 08 3e 66 bb ee bc
       0.10228684 0.02378214 0.13335322 -0.029142093
000300 81 9e 80 be e4 4d a1 3d e9 4b 2d 3e f8 4f 00 3e
       -0.2512093 0.078761846 0.16923489 0.12530506
000310 b2 23 68 bd 65 93 8c 3d 50 1a 07 3e 36 ca ca 3d
       -0.056674667 0.06864051 0.13193631 0.0990185
000320 00 da 35 3a da c5 40 3e e3 f3 01 bc 88 17 c0 3d
       0.00069370866 0.18825474 -0.007931682 0.09379488
000330 4e 96 19 3d 10 25 8b 3e 55 0e 48 be 15 57 aa 3e
       0.037496857 0.27176714 -0.19536717 0.33269563
000340 42 34 f1 bd a8 23 6c 3d f2 32 3f 3e 3c 06 58 be
       -0.117775455 0.057651192 0.18671778 -0.21096128
000350 9d f7 5a be 81 df 27 3e b1 85 a5 3e 02 31 8d bd
       -0.2138352 0.16393854 0.3232856 -0.06894113
000360 6e 76 cc 3d 21 a4 e4 3d 23 41 9c be 82 6e d7 bd
       0.09983526 0.111641176 -0.30518445 -0.105191246
000370 a0 ac db bd 91 93 98 bd 32 28 06 be 4b 47 40 be
       -0.10726285 -0.07450021 -0.13101271 -0.18777196
000380 f9 ae 3e be a1 83 64 be 6b e0 96 3e 44 24 e1 bd
       -0.18621434 -0.22315837 0.29468092 -0.10993245
000390 21 c2 fe 3c 33 54 f8 bd 0c 0f 02 be 8d a9 12 bd
       0.031098427 -0.12125435 -0.12701052 -0.035806227
0003a0 df 78 ed bd fe ed 66 be 7d 5b 06 be 23 52 8c bb
       -0.1159532 -0.22551724 -0.13120838 -0.0042822524
0003b0 c3 ed 29 3e f1 7a 17 bd 94 09 8b 3d 5d 38 f1 bd
       0.16594605 -0.03698248 0.06788936 -0.117783286
0003c0 a7 8d a8 3d 83 29 10 bb 7c 55 e2 3d a6 a6 64 3d
       0.08230143 -0.00219974 0.11051461 0.05582299
0003d0 dd 8f 2e be 98 2f 27 3e 9d 73 5b bc 7c b7 b6 3d
       -0.17047067 0.1632675 -0.013394264 0.089217156
0003e0 c4 f9 01 3e 86 b9 e9 bc 9f 2c b5 bd 23 01 5e 3c
       0.12692934 -0.028530847 -0.088464014 0.013550076
0003f0 84 75 74 3e 9a 9f 49 be d9 32 40 be bd 2b 8b 3e
       0.23872954 -0.1968979 -0.18769397 0.27181807

linears.2.bias f4 [50]
000000 a0 e4 2d 3c 49 25 2f 3c 54 a2 a7 3b 4f 2c 2f 3c
       0.0106135905 0.010690042 0.0051157866 0.010691716
000010 87 38 2b bc 7a c0 3c ba d4 45 2c 3c da 6c 26 3c
       -0.010450489 -0.0007200312 0.010514695 0.010157788
000020 6e 32 2e 3c 0a 73 2f bc 31 65 2e 3c 59 dc 33 3c
       0.010632141 -0.01070858 0.010644243 0.010977828
000030 84 2f 32 bc 8f 5e 2c bc c1 4e 2d bc d4 7f 31 3c
       -0.010875586 -0.010520591 -0.010577858 0.010833699
000040 3b 3d 49 bb c3 71 30 bc aa b6 2e bc 45 49 e2 3b
       -0.0030706662 -0.01076931 -0.010663668 0.006905707
000050 ef 76 23 3c cb a9 a9 3b a9 5b 32 bc 50 8f 2b 3c
       0.009977086 0.0051777116 -0.010886111 0.01047118
000060 64 81 20 bc 8c c9 2c 3c 97 57 2f 3c ce 80 24 3c
       -0.009796474 0.010546099 0.010702035 0.010040475
000070 6c 90 2d bc 61 2b 34 3c cd 6b 22 3c 55 a0 25 bc
       -0.010593515 0.01099667 0.009913397 -0.010109027
000080 d3 ba 21 bc 7c ac 31 bc b2 ab 36 bc 6f ef de bb
       -0.0098712025 -0.010844346 -0.011149334 -0.006803445
000090 4e e0 30 3c b4 8e 35 bc c0 54 c4 ba f1 05 31 bc
       0.010795666 -0.011081386 -0.0014978871 -0.010804639
0000a0 3d b2 2c bc a2 bd 2c bc 59 a3 d2 3b 6f e5 34 bc
       -0.010540542 -0.010543259 0.006428164 -0.011041029
0000b0 d3 86 b0 bb b3 25 1c 3c 22 7a 2d bc 16 c1 32 bc
       -0.005387166 0.009530473 -0.010588201 -0.010910293
0000c0 55 81 ed 3b 7a 12 24 bc
       0.0072480836 -0.010014171

linears.3.weight f4 [50, 50]
000000 68 93 7d 3d a3 78 a0 be c1 98 c4 bd f3 49 40 3d
       0.061908156 -0.3134204 -0.09599448 0.046945523
000010 d3 b8 1a bd 04 4a 76 3e c1 06 98 3d 81 d6 31 be
       -0.03777392 0.24051672 0.07423163 -0.17366983
000020 55 9e 4f 3c ec ee 78 bd eb a3 48 be eb c6 6d 3d
       0.012672027 -0.06077473 -0.1959378 0.05805103
000030 06 af 4d 3e 9c b1 36 be b7 d7 0b bd be df 2b 3d
       0.20086297 -0.1784119 -0.03414127 0.041961424
000040 29 fa 8b bd 4e 7f a9 bd 24 3d 08 3d 7e e5 ce bc
       -0.06834824 -0.082762346 0.033261433 -0.025255915
000050 96 f7 87 3c 63 04 46 be ef 74 1b bd 66 8b bf bd
       0.01659755 -0.19337611 -0.037953313 -0.0935276
000060 17 0d 7d bd b1 26 03 be b9 0e 6e be e0 d4 16 be
       -0.06178006 -0.12807728 -0.23247804 -0.14729643
000070 7e 37 6f 3d bc ea 22 be 78 6a 10 3c 09 c0 1c 3c
       0.05840253 -0.15909857 0.008814447 0.009567269
000080 6a 72 b3 ba 85 8f 55 3c 95 98 46 bc 8a b5 e7 3c
       -0.0013690714 0.013034706 -0.012121339 0.028284807
000090 5f b2 0b 3e c1 3c 08 3e 42 f2 dc bd fa fb 89 3e
       0.13642262 0.13304426 -0.107883945 0.26950055
0000a0 48 78 f4 3d b5 ac 3c be 94 f9 14 be 0b 98 e9 3c
       0.11937004 -0.18425258 -0.14548331 0.028514883
0000b0 23 2a 82 bd 40 d7 2e bd 29 b4 69 bd e0 74 da bd
       -0.06355693 -0.042685747 -0.05705658 -0.106668234
0000c0 5d 6f 14 3d 61 2d 07 3e 30 dc 28 3e 51 1b a8 3d
       0.036239017 0.13200904 0.16490245 0.08208335
0000d0 3a 5e ff 3b ac 14 06 3d cd 5e a6 bd ec 01 30 3d
       0.007793215 0.032734558 -0.081235506 0.042970583
0000e0 70 f2 ca bc 96 90 44 3e f2 f2 14 be 32 00 12 3e
       -0.024773806 0.1919578 -0.14545801 0.14257887
0000f0 92 df 15 3e a3 62 20 bd 55 92 6d 3d 9a 3a 61 3d
       0.14636067 -0.039156567 0.05800088 0.054987527
000100 fe 69 a9 bd 1d f7 5b bd a8 a3 7b 3d e1 a6 06 3e
       -0.082721695 -0.053702462 0.06143537 0.13149597
000110 b7 21 d9 3d 81 35 78 bd e2 e7 98 ba 46 78 61 3e
       0.10602134 -0.0605979 -0.0011665786 0.22018537
000120 74 87 9c bd 67 85 12 be e6 5e 41 be 59 e1 03 be
       -0.07643023 -0.14308701 -0.18883857 -0.12878932
000130 11 d3 88 bc ed 99 b6 bd df ca 8f bb b6 8a 10 3c
       -0.016702207 -0.08916078 -0.004388198 0.008822134
000140 c5 e7 03 3e ab a3 c2 bd 27 cf 9e 3d 5c 54 c3 3d
       0.12881382 -0.095038734 0.07754355 0.09537575
000150 e0 e2 2f bd f2 ba 69 bd f2 8a 99 3c 0a 0c 84 bc
       -0.042940974 -0.05706305 0.018743012 -0.016119022
000160 22 25 70 be 46 8f bc 3d bf 14 5d be 83 5a 02 3d
       -0.23451665 0.09207015 -0.21589945 0.0318246
000170 d0 e2 4c 3d 21 5f 9c 3e 62 c6 46 be 2d a2 a2 3d
       0.050020993 0.30541328 -0.19411615 0.07941089
000180 49 28 5c bd eb f0 3c 3e 8e 44 24 be ce 8b ac bd
       -0.053749356 0.18451278 -0.16041777 -0.08425103
000190 1d 81 0b 3e ea 7d 05 3e ab ef 2d 3e a4 7e 8f be
       0.13623472 0.13036314 0.16985957 -0.28026307
0001a0 e7 41 ce bc 60 58 15 be 52 40 0a 3e 8b bf 52 bd
       -0.025177909 -0.14584494 0.13501099 -0.0514522
0001b0 3e 9c c7 3d 3f 9b 9c bd b9 e7 7e bc ff 62 92 bd
       0.09746598 -0.07646798 -0.015558177 -0.07147788
0001c0 4d ea f7 bc f9 7e 45 3d ce ab 95 bd 24 a1 31 3e
       -0.03026309 0.048216794 -0.0730816 0.17346627
0001d0 59 3a e4 bc 3e a4 b8 3d 28 91 f7 3d e2 54 6f 3d
       -0.027859854 0.09015702 0.12088233 0.05843056
0001e0 d8 f3 70 3e 78 c2 4e 3d c2 27 45 be 7d 5d 63 bd
       0.23530519 0.05047843 -0.19253448 -0.05550908
0001f0 44 7b 8b 3b 7b 3a 07 be e3 18 3d be 00 b9 ba 3d
       0.0042566378 -0.13205902 -0.18466525 0.09117317
000200 5c 11 93 3c 1f 84 e5 3d 3a 05 90 3d 5d 63 43 bd
       0.017952614 0.11206841 0.07032247 -0.047702182
000210 da c9 02 3b 8b 6a 95 bd 77 3d 0b be b3 2c 88 bd
       0.0019956739 -0.07295712 -0.13597666 -0.06649151
000220 8a 3c 72 bd 7c dc 69 3e ae 4d 5d bd 17 a0 36 3d
       -0.059139766 0.22838014 -0.05402916 0.044586267
000230 42 3f e8 3d 95 ba 47 bb 46 e1 3a 3e e9 79 be bd
       0.113401905 -0.0030476202 0.18249997 -0.09300596
000240 5e 46 7d bd cc 91 2d be 07 00 64 3d 0b ff 91 3d
       -0.061834686 -0.16950148 0.05566409 0.07128724
000250 1a 56 10 3e e7 ca bb 3e c2 a3 42 3e 7b f7 16 bc
       0.14095345 0.3667824 0.19007781 -0.009214277
000260 7d e0 d2 bd c0 ad 8f bd 4f 54 82 bc 95 1d 80 be
       -0.10296724 -0.07015562 -0.015909342 -0.2502257
000270 f0 4c 98 be 7d 4b 1c 3e 80 56 81 bb ef 1c 96 3c
       -0.297462 0.15263171 -0.003947079 0.018324343
000280 8a 39 af bd a7 91 b4 be 0c 48 58 be cd b4 50 bc
       -0.085558966 -0.35267374 -0.21121234 -0.012738419
000290 0b bd 8e 3c 4b 6d 8d 3d f6 13 68 bd 78 dc b0 bd
       0.017424127 0.069056116 -0.05665966 -0.08635801
0002a0 da 42 c2 3d de e2 76 bc 05 d1 08 be 5c a9 5f bc
       0.09485407 -0.015068738 -0.13360985 -0.013651218
0002b0 2d 08 d5 3d d7 a6 51 be 28 f7 c0 3d 5c 3b 94 3e
       0.1040195 -0.204738 0.09422141 0.28951538
0002c0 15 eb e4 bd 7d 80 39 be 05 9b 54 bd 2e 53 23 3b
       -0.11177651 -0.1811542 -0.05190565 0.0024921405
0002d0 a6 5c 18 3d f0 b6 1b 3c e7 19 ac 3e 0d 82 5f 3e
       0.03719773 0.009504065 0.33613512 0.21826954
0002e0 3c de 8c 3e c6 5f 22 3d 24 db 20 3e 41 10 ff 3d
       0.275133 0.039642118 0.15708596 0.12454272
0002f0 c1 06 00 3e b6 2c 0f 3b 8e 33 96 bd a8 e2 57 3e
       0.12502576 0.0021846718 -0.07334052 0.21082556
000300 ef 97 94 3e 06 2a 16 3e 99 52 00 3e 8b 72 03 3e
       0.29022166 0.14664468 0.12531509 0.12836663
000310 76 7c 5a be 70 c0 67 be 16 0b a9 bd 8f d4 b3 3c
       -0.2133654 -0.22632003 -0.082540676 0.021951942
000320 b3 e0 08 3e 79 ed 18 3e 94 fa 6b 3e fe 3c 6e be
       0.13366966 0.14934339 0.23044807 -0.23265454
000330 93 c9 26 3a 3b e6 97 bd 58 62 f1 3d 6e a0 0e be
       0.00063624344 -0.0741696 0.11786336 -0.13928387
000340 00 b6 3d 3e 1b 7d e0 bd ce c6 46 be be de a5 3e
       0.18526459 -0.10961362 -0.19411775 0.323965
000350 c1 ad b6 bd ab 57 44 bd 02 52 bb bd 87 98 aa bd
       -0.0891986 -0.04793517 -0.09146501 -0.083298735
000360 a0 28 97 bd f2 64 9b bc cd bb 9f bd a3 e2 14 3e
       -0.073807955 -0.018969033 -0.07799492 0.1453958
000370 73 4f a9 3b d3 0e 26 bd 41 71 f1 3c 83 3a ec bb
       0.005166942 -0.04054148 0.029472949 -0.0072091236
000380 8e 70 7f bd e0 83 01 be c7 52 0c 3e af 69 b9 3d
       -0.0623632 -0.12647963 0.13703452 0.09053361
000390 37 8c 8b bd e3 74 3d 3e 5a 8f 46 3e 25 5b 43 be
       -0.06813853 0.1850162 0.19390622 -0.19077738
0003a0 c5 d8 2f 3b f3 4a 1d bd a3 a8 40 3d e4 0c e5 bc
       0.0026832086 -0.038401555 0.047035825 -0.027960248
0003b0 69 06 59 3d 4b fc 14 3b 8b da 48 3e 5d ed 4e be
       0.05298463 0.0022733386 0.19614618 -0.20207734
0003c0 b7 7c 23 be 1b 54 c8 bd 4b 0a 2b 3e 1c f5 0d 3e
       -0.15965544 -0.09781667 0.16703145 0.13863033
0003d0 be 92 89 3d 89 2e b0 bb 16 d0 15 3e 07 f8 61 bc
       0.06717442 -0.005376641 0.1463016 -0.0137920445
0003e0 ad 68 c9 3d 24 bf 4f be c2 e8 85 bd 68 27 d0 3d
       0.098344184 -0.20287758 -0.06538536 0.10163766
0003f0 18 75 8b be cc 79 5e 3d cc a5 0c 3e e7 e5 b7 be
       -0.27237773 0.054315373 0.13735121 -0.3591759

linears.3.bias f4 [50]
000000 d9 c7 2f bc 30 d9 2e 3c f6 c6 d9 3b 39 60 30 bc
       -0.0107288 0.010671899 0.0066460324 -0.010765129
000010 80 a7 ee 3b db 1d 25 bc 44 c5 74 3b b3 ea b3 b9
       0.007283151 -0.010077919 0.0037349025 -0.00034316405
000020 6d 0a 33 bc 95 4b 2b bc ae 44 2e bc 04 94 92 b8
       -0.010927779 -0.010455032 -0.010636492 -6.9893926e-05
000030 e8 03 1d bc af 56 8c 3b b2 3e 83 3b ae af 34 bc
       -0.009583451 0.0042827944 0.0040052766 -0.011028213
000040 16 a3 2f bc a5 cf 2e bc f8 6f 36 3c d9 fe 2d bc
       -0.010720035 -0.0106696235 0.011135094 -0.010619842
000050 cc d4 35 3c e2 0e 29 bc fb 29 2d bc 75 98 2d bc
       0.011098098 -0.01031849 -0.010569091 -0.010595431
000060 b8 22 28 bc 61 6c 35 bc 9a 99 26 3c 9b 56 2f 3c
       -0.010262184 -0.011073203 0.010168457 0.010701801
000070 2e b4 26 bc 38 54 31 bc 32 17 2d 3c 72 fb 28 bc
       -0.010174794 -0.010823302 0.010564612 -0.0103138555
000080 d6 08 2e 3c 1b 16 2d 3c 25 9c 29 bc 6f d9 6b bb
       0.010622224 0.010564352 -0.010352169 -0.0035987755
000090 5c 10 2e bc cc a1 26 3c 16 a5 ca 3b b9 e2 2e 3c
       -0.010624018 0.010170411 0.0061842306 0.010674172
0000a0 6a be 33 bc d3 63 27 3c 3d f3 2c 3c 20 4d 1e 3c
       -0.010970691 0.010216671 0.010556039 0.009661943
0000b0 a9 8d 07 3b 4b c1 1c 3c 25 ee 20 3c 87 0b 30 bc
       0.0020683801 0.009567569 0.009822403 -0.010744936
0000c0 64 2a 2b 3c a7 ee 31 bc
       0.010447118 -0.010860122

linears.4.weight f4 [3, 50]
000000 53 6d 23 be 92 94 6d 3d 99 83 6e bc 91 83 87 be
       -0.15959673 0.058003016 -0.0145577425 -0.26467565
000010 bb 6d d4 3b 83 e0 19 be 68 62 58 bd 6f 1c f1 bd
       0.0064828075 -0.1502705 -0.052828223 -0.117730014
000020 7f 3e 9c be 5c ef ba bc c7 f7 0f be 84 bc 83 bd
       -0.3051643 -0.022819214 -0.14059363 -0.06432441
000030 79 81 25 bc 45 8e 15 bb 06 7f e7 3d 05 50 53 be
       -0.0101016695 -0.0022820395 0.11303525 -0.20635994
000040 78 6f f9 be 47 ec 9a be 54 f6 a3 3e 0f ae ec be
       -0.48717856 -0.3025839 0.3202387 -0.46226546
000050 db 8b 28 3e c2 16 bc bd ad 4a d6 be 6e 19 82 be
       0.164596 -0.09184028 -0.41853848 -0.25410026
000060 42 f7 78 3b 25 e6 1e be 85 98 2d 3e e3 25 2b 3e
       0.0037989174 -0.1551748 0.16952713 0.16713671
000070 60 b6 84 be f1 e3 d9 bd b9 33 02 3e d5 48 85 be
       -0.2592039 -0.106391795 0.12715043 -0.2603213
000080 4e 8f 48 3e ab 9f 2a 3d ca 35 53 bd cd e2 56 3d
       0.19585916 0.041656177 -0.05156497 0.052462388
000090 fe 87 ac be 35 60 68 3e 29 bc 1e 3b d1 f9 5f 3d
       -0.33697504 0.2269295 0.002422104 0.054681603
0000a0 9f b0 8b be 2b 3e e1 3d 27 d5 9e 3e ce e7 ea bb
       -0.2728319 0.10998186 0.31021997 -0.0071687466
0000b0 8a 40 7a bd 93 1a 05 bd c3 7f 9b 3d f9 b2 92 be
       -0.061096705 -0.032496046 0.07592728 -0.2865217
0000c0 9b 3a 22 3e 8a b5 96 be 45 f6 4a bd 29 c2 13 be
       0.15842669 -0.29435378 -0.049551267 -0.14429535
0000d0 14 7b a1 3d 3d b2 c8 3c ce bf bd 3d fe cd a9 be
       0.078848034 0.024499053 0.092650995 -0.33164972
0000e0 f1 d3 d7 bd 2b 47 e1 3d d8 33 1d bd c9 66 dd 3e
       -0.105384715 0.10999902 -0.03837952 0.4324248
0000f0 03 f7 4b be 3b 54 a5 3b 35 65 2c bd f8 dc 7a 3e
       -0.19918446 0.0050454414 -0.042088706 0.24498355
000100 a6 1d 48 3e f8 2d 26 3e e6 01 60 3d 2f 5e 2b 3d
       0.1954256 0.16228473 0.05468931 0.041837867
000110 e7 6c 06 bf b7 1c 25 3e 2d 5b 4e 3d a2 f0 3c 3e
       -0.5250992 0.16124235 0.05037992 0.18451169
000120 a5 74 07 3e a8 9f b0 3d e6 f5 92 3e 33 ae 6b 3e
       0.1322809 0.08624202 0.2870323 0.2301567
000130 b7 ee 4a 3e c1 78 05 bd 07 c4 40 be 1c f4 48 bd
       0.19817625 -0.032585863 -0.18824778 -0.049060926
000140 86 a5 83 3e f2 30 8a bd 2c 73 d3 3d 48 24 53 be
       0.25712222 -0.06747617 0.10324702 -0.20619309
000150 2d 2b 10 bd aa 23 bc bd 6f 61 bd bd 61 43 94 3e
       -0.035197426 -0.0918649 -0.092470996 0.28957656
000160 2a 5c d6 3d 8e 6c 28 bd 08 eb 31 be c4 03 2b bc
       0.10466798 -0.04111915 -0.17374814 -0.0104379095
000170 fd 5a 8b 3e 14 af e4 bd b0 45 a5 bd 89 10 6e be
       0.27217856 -0.11166206 -0.080699325 -0.23248495
000180 e6 19 03 3e 82 f2 bf bd a9 8f 60 3d e6 e4 bc be
       0.12802848 -0.093724266 0.054824505 -0.36893386
000190 99 be 14 3d fd 50 5a 3d e2 cc 56 3e 08 88 c7 3d
       0.03631458 0.053299893 0.20976594 0.09742743
0001a0 0c a6 dc 3e 0b eb 13 bd 6e 1f 15 3e 3d 73 84 3e
       0.43095434 -0.036112826 0.1456277 0.2586917
0001b0 b9 71 5c 3e ef f1 58 be 82 93 ee 3d 5f 7e 24 3e
       0.21527757 -0.2118604 0.11649229 0.16063832
0001c0 77 41 80 be 5c a8 80 3d 35 a1 6c be cd 49 28 3e
       -0.25049946 0.06282112 -0.2310837 0.16434403
0001d0 3f b4 32 3d 7d 88 25 bd 49 49 93 be c6 3d e7 bd
       0.043628927 -0.04041337 -0.2876685 -0.11291079
0001e0 be 0b 51 be 35 41 7a be 87 20 5a be 4d e6 d3 bd
       -0.20414636 -0.24438937 -0.2130147 -0.10346661
0001f0 82 06 53 bd 00 e0 df 3d ac 5b 2f 3e b6 56 1e bd
       -0.05151988 0.109313965 0.17124814 -0.038656913
000200 e7 76 b1 be dc ba 4b 3d 0d 08 e3 bd e5 b9 a6 be
       -0.34661028 0.04973875 -0.1108552 -0.325637
000210 61 c3 01 bd ad 65 c8 3d b5 de eb bc f6 85 33 be
       -0.03168047 0.09785018 -0.028792718 -0.17531571
000220 b0 ab 64 bc eb 02 1c 3e d2 6f 93 3d ca d5 38 3d
       -0.013956949 0.15235488 0.071990624 0.04512576
000230 df 47 93 3e 35 82 36 3e 4b 82 59 bd 6e 89 84 3e
       0.2876577 0.17823108 -0.053102773 0.258861
000240 76 f5 31 3e 81 b5 0b 3e 7b 85 5a 3e 5e cb a4 3d
       0.17378792 0.13643457 0.21339981 0.08046602
000250 91 29 5f 3d 08 99 99 3e
       0.054483 0.29999566

linears.4.bias f4 [3]
000000 4e bc 2e 3c 88 8f b1 39 40 5b f2 3b
       0.0106650125 0.0003386701 0.0073961318

exp_avg f4 [50, 2]
000000 f7 e3 22 3c 7c b0 26 3c 03 8f 9a 3b 67 a6 32 bb
       0.009942046 0.010173913 0.0047167554 -0.0027259828
000010 af 25 1e bb 0c 8a 01 bc c7 70 83 bc 55 fe c2 bb
       -0.0024131348 -0.007906448 -0.016044987 -0.005950729
000020 db bc 10 bc e8 3a 91 bb 83 23 00 3c 78 89 70 bc
       -0.008834089 -0.004432071 0.007820967 -0.014681213
000030 39 28 86 bc ef 66 cd ba 92 31 05 3c 5f 75 6f bb
       -0.016376602 -0.0015670935 0.008129494 -0.0036538464
000040 46 32 8b bc d7 d6 48 bc 60 58 9d 3b 62 a9 91 bb
       -0.016991746 -0.012258253 0.004801795 -0.004445241
000050 93 35 ec 3b 20 05 13 3b 2c d9 b3 bb 84 1e 9f bb
       0.007208535 0.0022433475 -0.0054885354 -0.0048559327
000060 b7 ea 67 3c 18 9f f7 3c 60 62 91 bc f3 4e 72 3c
       0.0141550815 0.030227229 -0.017747104 0.014789331
000070 f7 3a 86 bc 4f 4f 6e bc df 8e b8 bb 75 34 cd bb
       -0.016385539 -0.014545276 -0.005632266 -0.006262357
000080 60 0b 09 3c b3 31 d1 3c b3 b9 44 b9 44 b8 a1 bb
       0.008364528 0.025536394 -0.00018761195 -0.0049352963
000090 ac d0 40 3c cd fd d4 3b 9b 34 23 3c dd fe 75 3c
       0.011768501 0.006499982 0.009961273 0.015014377
0000a0 47 5d fe 3b b0 81 4c bb 3a 62 31 3a fa 43 58 3c
       0.0077625844 -0.003120523 0.0006766651 0.013199801
0000b0 20 51 f6 3b 15 ff d6 bb eb 6c 0f 3b 4a f7 48 bb
       0.007516995 -0.00656117 0.0021884989 -0.0030664974
0000c0 5b 98 21 3b b3 a8 7d bc 8f 2b 0b 3c 93 3d 39 bc
       0.0024657461 -0.015482116 0.008494272 -0.011306184
0000d0 38 d5 9d bb e8 4b 31 3b 60 b6 e6 3b 9b b6 7b bc
       -0.0048166774 0.00270533 0.0070407838 -0.015363361
0000e0 f6 16 01 3c 07 03 b3 3b 3a df f3 b9 20 de 5a bc
       0.0078790095 0.0054630074 -0.00046514889 -0.013358623
0000f0 af be 67 bb a6 1c af 3a d7 d9 e1 bb 1b f8 16 bc
       -0.003536146 0.0013359978 -0.0068924236 -0.009214426
000100 5f a2 ce 3b 4d 0e 28 bb d7 4c 06 ba 23 a9 da 3b
       0.0063059772 -0.002564329 -0.00051231444 0.0066729947
000110 bd a9 66 bc a4 1c b8 bc 6f ae 58 bb fb 1a 6e 3a
       -0.014078555 -0.022474594 -0.0033062955 0.0009083
000120 8a dc 72 bb 6a c0 c0 ba 8f c2 88 3b 93 b9 28 bc
       -0.003705772 -0.0014705781 0.004173584 -0.010298151
000130 d7 b1 d8 ba 98 06 92 bb c3 8b 70 3c ee be 85 3c
       -0.0016532493 -0.0044563524 0.014681759 0.016326394
000140 2d 77 ef 3b 4a f8 11 bb 13 25 20 bc 83 fa ab bb
       0.007307908 -0.0022273236 -0.009774464 -0.005248369
000150 3e 36 b0 3c 56 40 3c 3c c3 93 32 3c f3 49 6a 3c
       0.02151024 0.011489948 0.010899487 0.014299857
000160 a4 fd 93 3b 8f a3 aa bb ca a3 c0 3b 5a 57 3c b9
       0.0045163203 -0.005207486 0.0058789 -0.00017961618
000170 ac 30 c6 3c 00 48 71 3c df 36 a2 3c 30 e9 0b bb
       0.02419313 0.014726639 0.019801555 -0.0021348707
000180 b3 dc cd bb 8f b9 8d bc 98 08 df 3b ca 44 43 3a
       -0.006282413 -0.017300395 0.0068064444 0.000744891

exp_avg_sq f4 [50, 2]
000000 4d d5 25 37 91 a8 2d 37 67 4d 15 36 54 79 47 35
       9.884429e-06 1.0350851e-05 2.2247784e-06 7.430983e-07
000010 dd 50 1c 35 56 c1 d1 36 2a f5 d7 37 ef a3 6d 36
       5.82322e-07 6.2511926e-06 2.574416e-05 3.5411174e-06
000020 6a ee 02 37 db d2 03 36 81 3e cd 36 6f ce b4 37
       7.804114e-06 1.9643255e-06 6.1167525e-06 2.15538e-05
000030 07 fa e0 37 02 d8 83 34 bd c1 dd 36 4a 30 b3 35
       2.6819309e-05 2.4557818e-07 6.6088674e-06 1.3350593e-06
000040 06 32 f2 37 39 1a 7c 37 08 bc 1a 36 b5 9b 04 36
       2.8871942e-05 1.5026476e-05 2.3057237e-06 1.9760166e-06
000050 dd 5b ae 36 d1 17 07 35 ad 28 4a 36 46 3e 1e 36
       5.1962984e-06 5.0326076e-07 3.0124022e-06 2.3580083e-06
000060 58 14 a8 37 1c 9d bf 38 8b 1a 04 38 b1 7a b7 37
       2.0036634e-05 9.1368536e-05 3.1495973e-05 2.1872433e-05
000070 e6 38 e1 37 3f 79 b1 37 b3 e2 54 36 3f 97 83 36
       2.6848586e-05 2.1156504e-05 3.1722418e-06 3.9217116e-06
000080 c4 c3 ea 36 c1 c1 88 38 69 e1 71 31 44 75 23 36
       6.9965336e-06 6.521075e-05 3.5198247e-09 2.435715e-06
000090 47 5c 68 37 46 c4 8d 36 a7 79 26 37 0e 1b bd 37
       1.3849763e-05 4.2249767e-06 9.922695e-06 2.2543154e-05
0000a0 fc 30 ca 36 5c b2 82 35 f6 a7 44 33 a0 28 92 37
       6.0257717e-06 9.737664e-07 4.5787566e-08 1.7423474e-05
0000b0 9d 99 bd 36 c4 72 90 36 62 91 00 35 b7 6b 7c 35
       5.650522e-06 4.304895e-06 4.7895276e-07 9.403406e-07
0000c0 c7 34 23 35 4e 12 c9 37 a8 1a f2 36 7b 76 56 37
       6.0799033e-07 2.3969591e-05 7.215265e-06 1.278298e-05
0000d0 f4 b1 1b 36 7d 76 44 35 93 56 a6 36 ad ff c5 37
       2.3200382e-06 7.3188113e-07 4.957264e-06 2.3603288e-05
0000e0 45 4d d0 36 61 48 48 36 d6 da b9 32 73 b2 95 37
       6.2078784e-06 2.9844452e-06 2.163635e-08 1.7845281e-05
0000f0 8b d4 a7 35 b0 a6 3f 34 ea 66 9f 36 b5 72 0e 37
       1.2504328e-06 1.7848902e-07 4.75055e-06 8.490567e-06
000100 2c 6e 85 36 70 84 30 35 e5 74 e1 32 00 6a 95 36
       3.9765346e-06 6.575783e-07 2.6246605e-08 4.452886e-06
000110 5a 44 a6 37 7f db 53 38 a7 b8 92 35 59 2b b1 33
       1.982057e-05 5.0510742e-05 1.0931589e-06 8.25009e-08
000120 5c 51 b8 35 18 35 68 34 8b ca e9 35 f3 ec 31 37
       1.3732747e-06 2.1625999e-07 1.74188e-06 1.0605191e-05
000130 45 bd 92 34 a3 45 05 36 e3 d1 b4 37 6b 99 df 37
       2.733233e-07 1.9859078e-06 2.1555408e-05 2.6655112e-05
000140 ff 32 b3 36 88 2b 05 35 30 4a 20 37 9b da 38 36
       5.3405524e-06 4.960971e-07 9.554016e-06 2.7545382e-06
000150 01 11 42 38 b1 7d 5d 37 b3 4f 47 37 06 89 ab 37
       4.626904e-05 1.3201891e-05 1.1879881e-05 2.0448595e-05
000160 0a e2 08 36 37 fc 35 36 26 f0 67 36 dd b3 5d 31
       2.0397151e-06 2.711791e-06 3.4561467e-06 3.2261973e-09
000170 ec 7e 75 38 50 ed b5 37 97 75 24 38 2f b0 f4 34
       5.8530757e-05 2.1687389e-05 3.921016e-05 4.5576732e-07
000180 5f 6f 84 36 f9 12 fb 37 2f 73 9b 36 c9 4f 6e 33
       3.946872e-06 2.9930367e-05 4.632769e-06 5.5486257e-08

exp_avg f4 [50]
000000 67 8d 02 bd 83 21 ff 3b 4a 39 e2 3c da be d1 3c
       -0.031873133 0.0077859773 0.027615208 0.0256037
000010 83 e4 6e 3b 33 d6 1d 3d 52 e9 16 bc 73 fb 88 3c
       0.0036452122 0.038534354 -0.009210901 0.016721463
000020 f4 54 03 3d 4c 4d 95 3c 95 03 bb ba 67 57 00 3d
       0.03206344 0.018225335 -0.0014268035 0.031333353
000030 ec 87 ba bd e2 1b 39 bd d3 f9 3e 3d c7 c7 bd 3c
       -0.09107956 -0.045192607 0.04662497 0.02316655
000040 8b 54 9d bd c6 59 c1 3c d8 16 c0 bc d7 c4 3f bd
       -0.07682141 0.023602378 -0.023448393 -0.04681858
000050 38 41 3b 3c bb 23 44 bd 28 82 b2 3c 08 d3 ec 3a
       0.011429124 -0.047885638 0.021790579 0.0018068263
000060 cf 11 2a 3d 62 46 3d 3d 02 4e c5 bb f0 60 4f 3d
       0.04152089 0.0462097 -0.006021262 0.050629556
000070 0a 2c 62 bc 92 42 26 3d ed c6 a9 38 c3 f6 d8 3c
       -0.013804445 0.04059083 8.095601e-05 0.026484853
000080 2d 35 bd 3b c2 f2 b4 bc ba 8d b0 3d bb 69 55 bb
       0.0057741613 -0.022088412 0.08620782 -0.003256424
000090 2a 58 10 3c ff 9e ea 3c 90 b5 b5 3c b7 9d 75 bd
       0.008810082 0.028640268 0.022181302 -0.05996486
0000a0 7d bb 2b 3c 2a af 97 3c db e7 c4 bc 58 87 0e bd
       0.010481712 0.018516142 -0.024036339 -0.034797043
0000b0 68 4e c9 3c 40 88 e4 3a 45 83 00 bd ae 49 b5 3c
       0.02457352 0.0017435625 -0.03137519 0.02212986
0000c0 f6 21 30 3d 9b 21 16 3c
       0.043001138 0.009163286

exp_avg_sq f4 [50]
000000 88 0c d5 38 6d 69 cb 36 c3 ed 9f 38 8c 7a 89 38
       0.000101589656 6.0621446e-06 7.6259974e-05 6.555495e-05
000010 c0 57 b2 35 e2 b3 1b 39 cd 56 0e 37 36 8d ea 37
       1.3287572e-06 0.00014848963 8.484069e-06 2.796073e-05
000020 c6 99 d7 38 b7 51 0b 38 c6 96 5a 34 de e4 cd 38
       0.000102806414 3.3216285e-05 2.0357683e-07 9.8177916e-05
000030 12 76 59 3a 80 28 56 39 db f2 63 39 8c 1a 61 38
       0.0008295487 0.00020423718 0.00021738878 5.3668904e-05
000040 7c b4 1a 3a 2d a7 69 38 3d 9d 66 38 80 d8 65 39
       0.0005901528 5.5707224e-05 5.4982713e-05 0.00021919794
000050 f4 26 5b 37 2d 71 70 39 6a 28 47 38 9e 44 af 34
       1.3062487e-05 0.00022930345 4.7482936e-05 3.2646216e-07
000060 db c5 34 39 00 e8 5f 39 a5 4e 73 36 bb 64 86 39
       0.00017239845 0.00021353364 3.6255599e-06 0.00025633522
000070 08 db 9f 37 d8 c3 2c 39 cc 26 34 30 ac 1a 93 38
       1.9056271e-05 0.00016476156 6.553875e-10 7.014474e-05
000080 4c bf 5f 36 a4 a3 4c 38 e3 d1 42 3a 18 54 8e 35
       3.334094e-06 4.8789792e-05 0.0007431788 1.0604299e-06
000090 7c 38 02 37 a3 05 ac 38 31 5d 4e 38 cd 85 bc 39
       7.761755e-06 8.202649e-05 4.920102e-05 0.00035957844
0000a0 37 53 38 37 f8 cc 0f 38 f7 52 72 38 2b ee fd 38
       1.098663e-05 3.428475e-05 5.7774563e-05 0.00012108342
0000b0 bf 46 7d 38 96 35 a3 34 b4 71 ce 38 6e 68 4d 38
       6.0385788e-05 3.0400105e-07 9.844024e-05 4.8973066e-05
0000c0 58 e4 41 39 09 df 0c 37
       0.00018490979 8.39658e-06

exp_avg f4 [50, 50]
000000 a0 b8 ae ba c5 01 b3 3b 03 84 84 3a 7d 46 25 bb
       -0.0013330169 0.0054628574 0.0010110143 -0.0025219016
000010 0a 23 02 3b 95 99 8e 3b 8d a8 a1 b9 22 a8 a8 39
       0.001985731 0.0043518045 -0.00030833893 0.00032168726
000020 2a e5 ce ba 00 c0 e5 37 5a e0 f6 39 72 75 f7 ba
       -0.0015784849 2.7388334e-05 0.0004708793 -0.0018879606
000030 08 f1 2e 3b cf d8 16 bb 80 42 d6 b8 4d 66 e9 ba
       0.0026693959 -0.0023017412 -0.00010216702 -0.0017806977
000040 08 1e f2 ba 22 f2 09 3a 5a 08 65 3b ba 0c 03 bb
       -0.0018472085 0.0005262216 0.0034947605 -0.00199966
000050 73 45 bf 39 a3 b2 f3 ba f3 5b 5f 3a 70 53 a8 b9
       0.00036482103 -0.0018592667 0.00085204764 -0.00032105623
000060 2f 10 9d bb e7 30 cb 39 ef 87 03 bb 1a b9 b7 38
       -0.004793189 0.00038755612 -0.0020070036 8.760598e-05
000070 41 a6 9d ba 13 ca a2 b8 eb ec 46 bb b2 28 98 ba
       -0.0012027697 -7.762401e-05 -0.0030353616 -0.0011608808
000080 ab eb b4 3b 27 f0 cd 39 30 ee 2f bb 68 47 9c ba
       0.005521258 0.00039279574 -0.0026844852 -0.0011923136
000090 a8 f9 6c 3a 2b c4 34 3b ea 50 dc ba a7 b0 fb 39
       0.0009039887 0.0027582746 -0.0016808782 0.00048006067
0000a0 d5 1b ea 39 b3 ee a0 39 8d 79 52 bb 7b 04 ed ba
       0.00044652694 0.00030695423 -0.0032115907 -0.0018083
0000b0 e3 ce bc 39 14 a2 84 3b d7 f2 43 ba 09 fa 3a 3b
       0.00036012297 0.0040476415 -0.00074748456 0.002853038
0000c0 9a 5d 57 3b 85 88 21 bb c8 65 6c bb 33 b7 97 b7
       0.0032862187 -0.0024648022 -0.0036071409 -1.8085912e-05
0000d0 7d 54 dc 3b 03 20 8e 3b 0d d6 a8 39 20 a5 d6 3a
       0.006723939 0.004337312 0.00032202937 0.0016376115
0000e0 a7 e7 73 3b 38 ed a4 ba fb 97 77 bb 46 77 c9 bb
       0.0037216933 -0.0012582904 -0.0037779796 -0.0061482517
0000f0 c5 da c9 3b 70 fd 64 3b dd 4e 0e ba 7f af 1c bb
       0.0061601126 0.00349411 -0.00054286217 -0.0023908315
000100 da 69 7e 3b 93 23 82 bb 1d 96 38 ba 46 fa bd 3a
       0.0038820417 -0.003971526 -0.00070414116 0.0014494143
000110 a0 5c 2f 3a 1a ab af bb 3a 3f 57 3b 4f 21 b7 3b
       0.00066895224 -0.005360973 0.0032844082 0.0055886875
000120 33 fb 5a bb 70 b9 aa 3b 77 af af ba a0 6a d7 3b
       -0.0033413887 0.005210094 -0.0013403733 0.00657399
000130 45 e6 60 3b bd 7c 92 bb 69 59 83 bb 0a 93 e1 ba
       0.003431694 -0.0044704364 -0.0040084613 -0.0017209959
000140 d0 3a 26 3a a0 42 39 39 4b 79 8c 3b b3 3f 11 bb
       0.0006341161 0.00017667795 0.00428692 -0.0022163212
000150 9f 14 b1 3b 70 c1 22 3b 5b 93 55 3b c3 17 87 3b
       0.0054040696 0.0024834536 0.0032589051 0.0041227057
000160 8b 9b b5 ba 1a 0c f8 b9 f9 82 28 3a 3c a3 c4 3b
       -0.001385556 -0.00047311262 0.0006428208 0.0060009044
000170 bb 7e ea bb cd 55 82 3b 21 4a 4a 3b 9d 97 20 3b
       -0.0071562207 0.0039775134 0.0030866938 0.002450443
000180 40 3e 71 bb a7 9f 42 3b 5f 16 b6 3b 0a 8e bc ba
       -0.0036810786 0.002969721 0.005556866 -0.0014385593
000190 ef 77 78 ba b5 72 b3 bb 78 7d 5b 3b c5 60 ac 3b
       -0.0009478321 -0.0054763206 0.0033491533 0.0052605593
0001a0 a0 12 f8 ba 80 b1 55 bb 4a 54 32 3b 27 29 ac ba
       -0.0018926449 -0.003260702 0.0027210885 -0.0013134823
0001b0 2e d7 8d ba d2 69 8a bb 20 9d 73 3b de 32 88 3b
       -0.0010821575 -0.0042240405 0.0037172511 0.0041564545
0001c0 96 7b 3e bb cd 01 53 3a e8 4c 25 3b bb 13 85 ba
       -0.0029065362 0.00080492796 0.0025222842 -0.0010152975
0001d0 c2 07 c7 3a 0a 46 e1 39 68 6c 3e bb c1 c8 c6 ba
       0.0015184807 0.00042967527 -0.0029056314 -0.001516603
0001e0 33 32 db 3a 9f 72 bb 3b 87 37 53 bb 4b d0 7e 3b
       0.0016723335 0.005720451 -0.0032229142 0.0038881477
0001f0 fa 91 72 3b 6a f1 7a 3b 06 42 91 3b b8 3c 51 bb
       0.0037013278 0.0038290867 0.0044329194 -0.003192706
000200 4e 94 b0 ba 9b 5f 9f ba af 27 66 3b 93 b7 94 3a
       -0.0013471933 -0.001215923 0.0035118868 0.0011346213
000210 d5 56 1d bb 7b 5b e0 ba 1b 5c c8 3b ba 3f 45 3b
       -0.0024008055 -0.0017117107 0.0061144955 0.0030097798
000220 66 86 93 3a 33 b8 1a b8 e0 d2 23 3a 58 fb 28 ba
       0.0011255264 -3.688801e-05 0.00062493794 -0.00064461445
000230 23 d4 37 b9 03 8a 67 3b 55 a7 db ba 2d 23 97 3b
       -0.00017531267 0.0035330064 -0.0016758243 0.0046123476
000240 18 b2 d3 3a 90 f8 11 bb 9d 54 cd ba 72 67 5f ba
       0.0016151099 -0.00222734 -0.0015665476 -0.00085221895
000250 c7 ff fe 39 87 b9 b2 3a 5f c9 00 ba 95 ae 9b 3a
       0.00048637224 0.0013635614 -0.0004912819 0.0011877591
000260 f0 ec 11 3a 9c 0e 9a b9 50 89 f9 39 8e 77 86 3a
       0.00055666175 -0.00029384054 0.00047595287 0.0010259019
000270 72 4f 03 39 ef 25 67 38 90 c2 f6 b9 33 71 7e b9
       0.00012522729 5.511002e-05 -0.00047065737 -0.00024265498
000280 0e 2c ba 39 7d 1c 69 b9 fa 59 04 3a 60 41 27 ba
       0.00035509508 -0.00022231224 0.0005048808 -0.0006380286
000290 e7 5b 57 39 09 b9 08 ba 5a b3 f6 b9 32 78 3f 39
       0.00020538234 -0.00052155607 -0.00047054404 0.00018259956
0002a0 0d d3 40 3a 4d 36 37 ba c8 16 90 39 7d 01 3d b9
       0.0007355668 -0.00069889874 0.00027482794 -0.00018024999
0002b0 a3 e5 8f 38 15 ef 13 39 21 00 88 ba 8a f0 de 39
       6.8615445e-05 0.00014108077 -0.0010376015 0.00042522355
0002c0 0f 42 a1 b9 8a de 1c b9 e3 fc fb b9 a3 26 5f b8
       -0.0003075753 -0.00014960222 -0.00048062866 -5.3203326e-05
0002d0 ea 4f 26 ba f7 d5 4c b9 80 dd b0 3a 83 82 8a b8
       -0.00063443056 -0.00019534664 0.0013493747 -6.6046625e-05
0002e0 08 e4 91 b9 d8 83 42 b9 db 2f cb 39 e5 23 52 3a
       -0.00027826452 -0.00018550397 0.00038754832 0.0008016213
0002f0 95 d7 c8 b9 8d c5 12 38 8e 62 34 39 af 86 c8 39
       -0.00038307594 3.4993096e-05 0.00017202852 0.0003824732
000300 62 57 83 ba 6e 67 80 b9 70 ed 7f 39 82 b3 74 3a
       -0.0010020549 -0.00024491124 0.00024407147 0.000933461
000310 f9 ee c2 b9 09 8c 44 3a f8 b2 7b 3a 72 63 10 ba
       -0.00037180612 0.00074976735 0.00096015586 -0.00055079826
000320 ac a6 0b 3b 4a f3 91 bb 58 12 32 bb aa 9c 54 3a
       0.002130906 -0.004454051 -0.0027171578 0.0008110503
000330 cf 1e e9 ba 07 85 82 bb a0 71 50 ba 00 80 c5 b6
       -0.0017785671 -0.0039831433 -0.0007951502 -5.8859587e-06
000340 f3 ba 12 3b a0 7e d1 3a a0 35 04 bb 64 4f 15 3a
       0.0022389262 0.0015983172 -0.0020173565 0.0005695729
000350 0f 9f 01 bb 3d c4 28 3b 97 29 8b ba 9f ba 20 3b
       -0.0019778644 0.0025751733 -0.0010617253 0.0024525297
000360 60 00 e9 3a 03 8a 59 ba d5 94 42 bb 3d 9f 4b 3b
       0.0017776601 -0.00082984584 -0.0029690762 0.0031070255
000370 3f ac a6 ba 0d a9 ae 38 50 2e 07 39 6d 85 90 ba
       -0.0012716128 8.328455e-05 0.00012891856 -0.0011026092
000380 c3 d7 88 3b 12 f4 0f bb 5a 45 50 3a 40 d9 8c 3a
       0.0041761114 -0.0021965546 0.00079449045 0.0010745898
000390 e4 ca 0b 3b 52 63 ec 39 25 ca 19 3b cd ca 58 3a
       0.002133065 0.00045087427 0.0023466435 0.0008269966
0003a0 51 5e b3 bb 51 61 bf 39 b3 20 28 3a dd 7b ce 39
       -0.00547389 0.00036502865 0.0006413564 0.00039383667
0003b0 82 a5 de ba f2 c2 5c bb a3 7d dc 3a 52 f9 40 b9
       -0.0016986581 -0.0033685532 0.0016822111 -0.00018403426
0003c0 32 de 23 ba ea 29 01 bb 3e 5d 92 3b 90 8b 00 3a
       -0.0006251066 -0.001970882 0.0044666817 0.0004903609
0003d0 00 3b 9a ba a5 6a 7d bb 8f c2 dc 3a 63 46 4c bb
       -0.0011766851 -0.0038668301 0.0016842651 -0.0031169883
0003e0 e6 20 87 bb 2c e2 18 3b b2 a1 d3 3a ed 6e a9 3b
       -0.004123795 0.0023328168 0.0016146211 0.005170694
0003f0 92 8a 8d bb 2b 97 bd bb ef 92 d2 3a c8 34 37 3b
       -0.0043194974 -0.005785843 0.0016065518 0.0027955044
