models/onlyadam_10e/ckpt/ckpt-1.pt (torch, 106691 bytes, 30 tensors)

linears.0.weight f4 [50, 2]
0	0x3e71572d	0.23568411
1	0x3e1f2100	0.15539932
2	0xbe826ecb	-0.25475153
3	0xbdd21db5	-0.102595724
4	0x3e12432e	0.1428344
5	0xbe59f621	-0.21285297
6	0xbe3f25ea	-0.18666807
7	0x3f0d2eae	0.5514935
8	0xbc8d0301	-0.017213346
9	0x3d6a5841	0.05721307
10	0x3e426d70	0.1898706
11	0x3e2dd197	0.16974483
12	0x3df7e7a3	0.12104728
13	0x3e8e04e1	0.27738097
14	0xbe8bd4c2	-0.2731076
15	0xbebd1c71	-0.36935762
16	0xbe865278	-0.26234794
17	0x3c8005ff	0.01562786
18	0xbeb03791	-0.34417394
19	0xbe503419	-0.20332374
20	0x3dd5e969	0.1044491
21	0xbdbb145f	-0.09134745
22	0xbe207e61	-0.1567321
23	0x3cd9aa97	0.026570601
24	0x3b63dbb6	0.003476841
25	0x3db36a8b	0.08760556
26	0xbcb13aaf	-0.021634428
27	0xbe331d0b	-0.17491548
28	0x3ea8bbd9	0.32955816
29	0xbd57630f	-0.052584704
30	0x3ecacab7	0.39607784
31	0x3d0957cf	0.033531006
32	0xbe38504c	-0.17999381
33	0xbe1dc5d6	-0.154075
34	0xbd653188	-0.05595544
35	0xbe5503cb	-0.20802228
36	0xbda0cd42	-0.0785165
37	0xbcde677f	-0.02714896
38	0xbe38b2f4	-0.18037015
39	0xbc9c7d1f	-0.019102631
40	0xbe07f9fb	-0.13278954
41	0x3e924837	0.2857072
42	0x3e007f9c	0.12548679
43	0xbd48d445	-0.04903056
44	0x3c8cf12c	0.017204843
45	0x3de6fa1a	0.11278172
46	0x3de7f586	0.11326127
47	0xbe2d64b0	-0.1693294
48	0xbc8cb633	-0.017176723
49	0xbe091d01	-0.1338997
50	0xbd908634	-0.07056847
51	0x3e1c5ddb	0.15270178
52	0x3e755696	0.23958811
53	0xbe94d005	-0.29064956
54	0x3e0d89ad	0.1382205
55	0x3d96ca6b	0.07362827
56	0xbe5079f9	-0.20359029
57	0xbb243c3e	-0.0025060321
58	0xbcd16356	-0.025560062
59	0xbda2f4c6	-0.07956843
60	0x3c316a10	0.01082851
61	0xbd708e9c	-0.058729753
62	0xbe8f9ccb	-0.2804931
63	0x3d2c4d78	0.042066067
64	0xbe1d1ce6	-0.15343055
65	0xbe63cbc6	-0.22245702
66	0xbe6fe47f	-0.23427008
67	0xbde23e24	-0.11047009
68	0x3d6f58bb	0.05843423
69	0xbd88df5d	-0.06683228
70	0xbe47f259	-0.19526042
71	0xbe2d7be4	-0.16941792
72	0x3e363bd9	0.17796268
73	0xbd84684d	-0.06465206
74	0x3d7f1cbe	0.06228327
75	0x3de36798	0.11103743
76	0xbcb8c2dc	-0.022553854
77	0xbedd50d7	-0.43225738
78	0x3d23c9dd	0.039987434
79	0x3e5f9212	0.21833065
80	0x3e16fcad	0.14744826
81	0x3ea28634	0.31743014
82	0xbdb7fc57	-0.08983677
83	0xbeda555f	-0.42643258
84	0x3d80fb7c	0.06297967
85	0xbd1c72e8	-0.03819552
86	0xbe6f6888	-0.2337972
87	0xbd3db4fd	-0.046315182
88	0x3d21b5d6	0.039480053
89	0xbda0e77f	-0.078566544
90	0x3e0adc67	0.1356064
91	0xbdb3e574	-0.08783999
92	0xbde39169	-0.11111719
93	0x3dbb1287	0.09134393
94	0xb83430bf	-4.2960743e-05
95	0x3d2a132c	0.04152219
96	0x3e452f0a	0.19256225
97	0x3e0f29ff	0.13980864
98	0x3dd261d7	0.10272568
99	0x3da4e68f	0.08051788

linears.0.bias f4 [50]
0	0xba83126b	-0.0009999996
1	0x3a83126e	0.0009999999
2	0xba83126b	-0.0009999996
3	0x3a83126f	0.001
4	0xba83126d	-0.0009999998
5	0xba83126e	-0.0009999999
6	0xba83126e	-0.0009999999
7	0xba83126e	-0.0009999999
8	0x3a83126e	0.0009999999
9	0xba83126f	-0.001
10	0x3a83126f	0.001
11	0x3a83126d	0.0009999998
12	0x3a83126f	0.001
13	0xba83126e	-0.0009999999
14	0xba83126e	-0.0009999999
15	0xba83126d	-0.0009999998
16	0x3a83125d	0.000999998
17	0xba83126e	-0.0009999999
18	0xba83126e	-0.0009999999
19	0xba83126d	-0.0009999998
20	0xba83126e	-0.0009999999
21	0xba831266	-0.000999999
22	0x3a83126e	0.0009999999
23	0x3a83126c	0.0009999997
24	0xba83126d	-0.0009999998
25	0xba83126e	-0.0009999999
26	0xba83126e	-0.0009999999
27	0x3a83126d	0.0009999998
28	0x3a83126d	0.0009999998
29	0xba83126f	-0.001
30	0xba83126e	-0.0009999999
31	0xba83126e	-0.0009999999
32	0xba83126e	-0.0009999999
33	0xba83126e	-0.0009999999
34	0xba83126d	-0.0009999998
35	0xba83126e	-0.0009999999
36	0xba83126f	-0.001
37	0x3a83126d	0.0009999998
38	0xba83126d	-0.0009999998
39	0xba83126d	-0.0009999998
40	0x3a83126f	0.001
41	0x3a83126d	0.0009999998
42	0xba83126f	-0.001
43	0xba83126d	-0.0009999998
44	0x3a83126d	0.0009999998
45	0xba83126d	-0.0009999998
46	0x3a83126e	0.0009999999
47	0xba83126d	-0.0009999998
48	0xba83126e	-0.0009999999
49	0xba83126f	-0.001

linears.1.weight f4 [50, 50]
0	0xbe026a1a	-0.12735787
1	0xbec870f3	-0.39148673
2	0x3dc3f5be	0.09568356
3	0xbe137733	-0.1440094
4	0x3e927462	0.28604418
5	0xbe9c9d21	-0.3058863
6	0x3cecb941	0.02889693
7	0x3e298755	0.16555531
8	0xbcd64e4b	-0.02616038
9	0xbe0716b1	-0.1319225
10	0x3d8769b1	0.06611956
11	0xbe274ba4	-0.16337448
12	0xbe5dfd0e	-0.21678564
13	0x3e0fc241	0.14038946
14	0xbd6ccc7b	-0.057812195
15	0x3e19acea	0.15007368
16	0xbdac2715	-0.08405892
17	0xbd75a826	-0.059974812
18	0xbe394227	-0.18091641
19	0x3e97a2f7	0.2961652
20	0xbe03ad91	-0.12859179
21	0xbdccc017	-0.09997576
22	0x3e216cd9	0.15764178
23	0x3e7e74c1	0.24849226
24	0xbd70e4e2	-0.05881203
25	0x3dfade4d	0.12249432
26	0xbd8fbd00	-0.07018471
27	0x3cf40fce	0.029792693
28	0xbe29d60f	-0.16585563
29	0x3e9afada	0.3026951
30	0x3eaee768	0.34160924
31	0x3e65d493	0.22444372
32	0x3e34d101	0.17657854
33	0xbd6f02cd	-0.05835228
34	0x3e0a259d	0.13490911
35	0xbdfbff9b	-0.12304612
36	0x3de08945	0.10963682
37	0xbd93919f	-0.072055094
38	0x3dd45be3	0.103690885
39	0xbe2689c2	-0.16263488
40	0x3dd05f77	0.101744585
41	0xbdd5861a	-0.104259685
42	0x3e020f77	0.12701212
43	0xbe20830a	-0.15674987
44	0xbe08d60d	-0.13362904
45	0x3dd0b4c2	0.10190727
46	0xbdd48e3c	-0.103786916
47	0xbe581254	-0.21100742
48	0xbde42bef	-0.11141192
49	0x3b6af333	0.0035850524
50	0x3d023802	0.031791694
51	0x3e44ae9c	0.19207233
52	0xbe33be17	-0.17552982
53	0xbd288730	-0.04114455
54	0x3d83ba96	0.06432073
55	0x3d310d75	0.043225724
56	0x3da66270	0.08124244
57	0xbdf3e069	-0.11908037
58	0xbdfe1c4d	-0.12407742
59	0xbe4d6674	-0.20058614
60	0xbd5a96b8	-0.053366393
61	0x3e8d0b88	0.2754786
62	0xbde290da	-0.110627845
63	0xbe2d0182	-0.16895106
64	0x3e14ab15	0.14518388
65	0x3e56f049	0.20990099
66	0xbd8937d1	-0.06700099
67	0xbdafd3ac	-0.08585295
68	0x3e48d9ba	0.19614306
69	0x3dd63de2	0.10461022
70	0xbdc9f6c4	-0.0986152
71	0x3e82d0ce	0.2554993
72	0xbdb9f0c6	-0.09079127
73	0xbe25585e	-0.1614699
74	0x3e20840d	0.15675373
75	0xbe630ea3	-0.22173552
76	0xbe9d01af	-0.30665347
77	0x3e12f472	0.14351061
78	0x3d58378f	0.05278736
79	0xbe0e11ae	-0.13873932
80	0x3e4fea5b	0.20304243
81	0x3ea0c3b6	0.31399316
82	0x3e1af30d	0.15131779
83	0xbdd28263	-0.102787755
84	0x3e6e4dc8	0.23271859
85	0x3d58a1b4	0.052888587
86	0xbd549efd	-0.051909436
87	0xbcf17176	-0.029473048
88	0xbd4709fc	-0.048593506
89	0x3e14666e	0.14492199
90	0x3bf92caf	0.0076042037
91	0x3d11dc5c	0.03561054
92	0x3d653b5c	0.055964813
93	0xbdc02637	-0.09382289
94	0xbdf4b5fd	-0.11948774
95	0xbd22b155	-0.0397199
96	0xbdc69705	-0.096967734
97	0xbe5f8f87	-0.21832095
98	0xbe81733f	-0.25283238
99	0xbe36f726	-0.17867717
100	0xbeadb6aa	-0.33928424
101	0x3d60be00	0.054868698
102	0x3e163aad	0.1467082
103	0xbdf9e1f9	-0.12201304
104	0x3d9eecc5	0.07760004
105	0x3e54e88f	0.20791839
106	0x3deed1f4	0.11661139
107	0xbd562b97	-0.052287664
108	0x3d91daf0	0.07121837
109	0xbd6112f2	-0.05494971
110	0x3cff299c	0.03114777
111	0xbe27b824	-0.16378838
112	0x3df0f87b	0.11766144
113	0xbe01ff2e	-0.12695
114	0x3e64e7e7	0.22354089
115	0xbe36f30e	-0.17866156
116	0x3e4df09d	0.20111318
117	0x3ce2fcc7	0.027708424
118	0xbbde5eb7	-0.0067861932
119	0x3e20bb85	0.15696533
120	0xbe92f720	-0.28704166
121	0x3e145966	0.14487228
122	0xbd8a52f8	-0.06754106
123	0x3d58d117	0.05293378
124	0xbd7bbc03	-0.0614586
125	0x3e9ba42e	0.30398697
126	0xbe6fbc82	-0.23411754
127	0x3da7ef07	0.08199888
128	0xbe0b4135	-0.13599093
129	0x3db06072	0.086121455
130	0xbe01e84b	-0.12686269
131	0xbe2bb82e	-0.16769478
132	0xbd9a78b8	-0.075425565
133	0xbe079373	-0.13239841
134	0xbe114bd0	-0.14189076
135	0x3dd90bab	0.105979286
136	0xbd086399	-0.03329811
137	0x3a1370aa	0.0005624393
138	0x3c202955	0.009775479
139	0xbe04a5ea	-0.12953916
140	0xbe5e9528	-0.21736586
141	0xbe4da5ff	-0.20082854
142	0x3e797771	0.2436197
143	0xbc7d87fb	-0.015474315
144	0x3d153560	0.036427855
145	0x3dff76d1	0.12473834
146	0x3e0130db	0.12616293
147	0xbd6828b6	-0.05667945
148	0x3df31b2d	0.11870418
149	0xbe4046c3	-0.18776993
150	0x3d832790	0.0640403
151	0xbe2160d2	-0.1575959
152	0xbe170aab	-0.14750163
153	0xbe1a6a31	-0.15079571
154	0x3dc2360a	0.094829634
155	0xbd8b09b4	-0.0678896
156	0x3d73538b	0.059405845
157	0x3d392dc7	0.045209672
158	0x3b8adcfe	0.00423777
159	0xbe1b3abe	-0.15159127
160	0xbe8efb75	-0.2792622
161	0x3da6151d	0.08109496
162	0xbe62a814	-0.22134429
163	0xbd76798a	-0.060174502
164	0xbccd24f3	-0.025042033
165	0xbe4f3389	-0.20234503
166	0x3d9adc50	0.075615525
167	0xbd182f38	-0.037154406
168	0xbd4b4e36	-0.049635135
169	0x3e189ce6	0.14903602
170	0x3d6d6b93	0.05796392
171	0x3b5d993b	0.0033813256
172	0xbe860122	-0.2617274
173	0xbd8c195b	-0.06840774
174	0x3e7b7349	0.24555697
175	0x3e10d3e3	0.14143328
176	0xbe9dca0a	-0.30818206
177	0x3da7a753	0.081862114
178	0xbd848ad4	-0.06471792
179	0x3e32aced	0.17448778
180	0xbd9f20dd	-0.0776994
181	0xbd9528aa	-0.07283147
182	0x3d90b01e	0.07064842
183	0x3da78f4c	0.081816286
184	0x3e04c8c3	0.1296721
185	0xbe1b7ac4	-0.1518355
186	0x3e21a3ef	0.15785192
187	0x3e74e558	0.23915613
188	0xbee6a6e4	-0.45049202
189	0x3c4e5cf7	0.012595407
190	0x3cb27cd4	0.021788038
191	0xbc1d0f04	-0.0095861
192	0xbd819939	-0.06328053
193	0x3d1874a4	0.037220612
194	0x3d74a944	0.059731737
195	0xbe509ef0	-0.2037313
196	0x3e0b46e9	0.13601269
197	0x3b635e2e	0.0034693587
198	0x3d1b3765	0.037894625
199	0x3d340ae4	0.0439557
200	0x3e17ca6c	0.14823312
201	0x3e3331a6	0.17499408
202	0x3e548fd8	0.20757997
203	0xbdeaeaf6	-0.114705965
204	0x3bade923	0.005307333
205	0xbe30f37c	-0.17280382
206	0x3e916ddc	0.2840413
207	0xbc526ffb	-0.012844081
208	0xbd6bfd9c	-0.057614908
209	0xbe61c391	-0.22047259
210	0xbe68b825	-0.22726496
211	0x3e3adf5a	0.18249264
212	0xbad917e1	-0.0016562903
213	0xbd4f5e85	-0.05062725
214	0x3dae825a	0.08520956
215	0x3dc2aaa3	0.095052026
216	0xbdd54ba2	-0.104148164
217	0x3dfaa6ad	0.12238822
218	0xbe10fada	-0.14158192
219	0x3db9c315	0.09070412
220	0xbd4bca2d	-0.049753357
221	0xbc568c79	-0.013095015
222	0x3c1342c6	0.008988088
223	0xbcf21689	-0.029551761
224	0x3dda511e	0.10660003
225	0x3d379e58	0.044828743
226	0xbd8e169d	-0.06937907
227	0xbe057258	-0.130319
228	0xbc1c2707	-0.009530789
229	0xbc987e8d	-0.018615032
230	0xbe3d9259	-0.18512858
231	0x3ca1dc1f	0.019758282
232	0xbc35a604	-0.0110869445
233	0x3e56d366	0.2097908
234	0x3e1dd5b2	0.1541355
235	0x3c935ad2	0.017987642
236	0xbe0b7fd6	-0.13622984
237	0xbbc8704a	-0.0061169015
238	0xbd9ad323	-0.075598024
239	0x3dc2f77b	0.095198594
240	0x3ca3d4cb	0.019998929
241	0x3dbed56a	0.09318049
242	0xbbb32183	-0.0054666414
243	0xbda244f0	-0.07923305
244	0x3d0cb114	0.034348562
245	0xbd54a9c2	-0.051919706
246	0x3e506751	0.20351912
247	0xbd40314b	-0.04692201
248	0xbe7254ff	-0.23665236
249	0xbe14c792	-0.14529255
250	0x3e58dbe6	0.21177635
251	0xbd4c4713	-0.04987247
252	0x3dd2f891	0.103013165
253	0x3e0bfe2d	0.13671179
254	0x3d28fdf4	0.041257814
255	0xbe59fc07	-0.21287547

linears.1.bias f4 [50]
0	0xba83126d	-0.0009999998
1	0xba83126e	-0.0009999999
2	0x3a83126b	0.0009999996
3	0xba83126f	-0.001
4	0xba83126e	-0.0009999999
5	0x3a83126e	0.0009999999
6	0xba83126d	-0.0009999998
7	0x3a83126e	0.0009999999
8	0x3a83126d	0.0009999998
9	0xba83126e	-0.0009999999
10	0x3a83126e	0.0009999999
11	0xba83126d	-0.0009999998
12	0x3a83126d	0.0009999998
13	0x3a83126f	0.001
14	0x3a83126e	0.0009999999
15	0x3a83126e	0.0009999999
16	0x3a83126f	0.001
17	0xba83126d	-0.0009999998
18	0xba83126d	-0.0009999998
19	0xba83126e	-0.0009999999
20	0xba83126e	-0.0009999999
21	0xba83126e	-0.0009999999
22	0xba83126f	-0.001
23	0x3a83126e	0.0009999999
24	0x3a83126e	0.0009999999
25	0xba83126e	-0.0009999999
26	0x3a83126e	0.0009999999
27	0xba83126d	-0.0009999998
28	0xba83126b	-0.0009999996
29	0xba83126e	-0.0009999999
30	0x3a83126d	0.0009999998
31	0xba83126d	-0.0009999998
32	0xba83126e	-0.0009999999
33	0xba83126d	-0.0009999998
34	0xba83126e	-0.0009999999
35	0x3a83126e	0.0009999999
36	0xba83126e	-0.0009999999
37	0xba83126d	-0.0009999998
38	0xba83126e	-0.0009999999
39	0x3a83126d	0.0009999998
40	0x3a83126d	0.0009999998
41	0x3a83126d	0.0009999998
42	0xba83126d	-0.0009999998
43	0x3a83126e	0.0009999999
44	0xba83126d	-0.0009999998
45	0x3a83126e	0.0009999999
46	0xba83126e	-0.0009999999
47	0x3a83126e	0.0009999999
48	0xba83126e	-0.0009999999
49	0xba83126d	-0.0009999998

linears.2.weight f4 [50, 50]
0	0xbd6c8157	-0.057740536
1	0x3e118d52	0.14214066
2	0x3dfb2d93	0.12264552
3	0x3d48838e	0.048953585
4	0x3ddc395c	0.10753128
5	0x3e25ac51	0.16179015
6	0x3da05a44	0.07829717
7	0xbe1bce39	-0.15215386
8	0xbe03b3aa	-0.12861505
9	0xbd87acaf	-0.06624734
10	0x3d2edd1b	0.04269133
11	0x3d682a50	0.056680977
12	0xbd8ce285	-0.06879143
13	0x3deec839	0.11659283
14	0xbd239d47	-0.039944913
15	0xbe629d82	-0.22130397
16	0x3d3da085	0.04629566
17	0x3caa187b	0.020763626
18	0xbe274de1	-0.16338302
19	0x39b8bb87	0.00035234934
20	0xbc358cbe	-0.011080919
21	0x3d522efe	0.051314346
22	0xbe757d62	-0.23973611
23	0x3d97d21c	0.07413122
24	0x3e2f84a1	0.17140438
25	0xbd948dfe	-0.07253645
26	0x3cd1bca6	0.02560265
27	0x3dde5797	0.1085655
28	0x3d0d3b06	0.034480117
29	0x3e1ab59e	0.15108344
30	0x3d6e90c0	0.058243513
31	0x3e23c31e	0.159924
32	0x3da3ebd8	0.08003968
33	0x3d452198	0.04812774
34	0xbd12e122	-0.035859235
35	0x3ddd9c5c	0.10820839
36	0x3e65e400	0.22450256
37	0x3c95cb35	0.018285373
38	0x3d9d1b94	0.07671276
39	0x3c20792c	0.009794515
40	0x3decd32e	0.11563717
41	0xbe0e20b0	-0.13879657
42	0x3d7ccbfd	0.061717976
43	0xbc87a4bb	-0.016558042
44	0x3e5e5788	0.21713078
45	0x3ddf8981	0.10914899
46	0xbd735f3a	-0.059416987
47	0x3e317c22	0.17332509
48	0x3d69f4ec	0.05711834
49	0xbdf9fb47	-0.122061305
50	0xbd8d68d6	-0.069047615
51	0xbdaa2adf	-0.08308958
52	0xbd82bda8	-0.0638383
53	0x3dc7fe4a	0.09765299
54	0xbd3c6ac9	-0.046000276
55	0x3db519e7	0.08842831
56	0xbe00bca7	-0.12571965
57	0x3e82f183	0.25574884
58	0xbcad4f1e	-0.02115589
59	0x3d6f165b	0.05837093
60	0xbaf59b6d	-0.0018738337
61	0x3ca7e3d8	0.020494387
62	0xbe52ea29	-0.20597138
63	0xbc4324bf	-0.011910616
64	0xbd3b0a2e	-0.045664005
65	0xbdd3f9b4	-0.103503615
66	0x3dbe7f50	0.09301627
67	0xbdcc7763	-0.09983709
68	0x3d954a63	0.07289579
69	0x3c8cc6cd	0.01718464
70	0xbe800470	-0.25003386
71	0xbca49b7d	-0.020093674
72	0x3dee0223	0.11621501
73	0x3e146fb6	0.1449574
74	0xbbc3fb07	-0.0059808525
75	0xbde26c72	-0.110558406
76	0xbd5e711c	-0.05430709
77	0xbda16d91	-0.07882226
78	0xbcd2271f	-0.02565342
79	0x3d094921	0.033517007
80	0x3e82b8a7	0.25531504
81	0xbd2f72ac	-0.04283397
82	0x3e35a28d	0.1773779
83	0x3d89afc3	0.06722977
84	0x3c746f7b	0.014919157
85	0x3dc7197d	0.097216584
86	0x3d251e73	0.04031224
87	0xbd4b5d5e	-0.04964959
88	0xbdf14550	-0.117807984
89	0x3e2ff244	0.17182261
90	0xbe19e80d	-0.15029927
91	0x3e400c53	0.18754701
92	0xbd3b27e0	-0.045692325
93	0x3e212518	0.15736806
94	0xbdc20590	-0.09473717
95	0xbc3ee5e8	-0.011651494
96	0xbe285122	-0.164372
97	0x3d818614	0.063244015
98	0xb8e71c99	-0.00011020265
99	0xbd743571	-0.05962128
100	0x3e077139	0.13226785
101	0xbe6fd016	-0.23419222
102	0x3e21422f	0.15747903
103	0xbdd41ea1	-0.103574045
104	0xbb8bbdd6	-0.0042645736
105	0x3e46adb6	0.19402203
106	0xbdb4e04a	-0.08831842
107	0x3d8358b9	0.06413407
108	0x3e1ecb76	0.15507302
109	0xbdbf2319	-0.09332866
110	0xbc294f0e	-0.0103337895
111	0xbd9c3ba4	-0.07628563
112	0xbd494de7	-0.04914656
113	0x3c4a1064	0.012333009
114	0xbdce5b27	-0.1007598
115	0xbe288a02	-0.16458896
116	0xbcee86cd	-0.029117012
117	0x3d5caf5f	0.053878184
118	0x3e16839b	0.14698641
119	0x3d591baf	0.053004917
120	0xbdf4ffe1	-0.119628675
121	0xbe099843	-0.1343699
122	0xbe549b5f	-0.20762394
123	0xbe33c1d7	-0.17554413
124	0x3e14d470	0.14534163
125	0xbe4d1648	-0.20028031
126	0x3e30d742	0.17269614
127	0xbadac284	-0.001669005
128	0x3e258904	0.16165549
129	0x3da2700c	0.079315275
130	0xbdf19bea	-0.11797316
131	0xbcb618c8	-0.022228613
132	0xbca56b59	-0.020192789
133	0xbd51ae84	-0.05119182
134	0xbc59c074	-0.013290513
135	0x3e03ef1f	0.12884186
136	0xbc471f99	-0.01215353
137	0xbe2e4dd9	-0.17021884
138	0xbe0871ba	-0.13324633
139	0x3dd0bf03	0.101926826
140	0xbe45373d	-0.19259353
141	0x3d77e557	0.06052145
142	0x3e828333	0.25490722
143	0xbcd40113	-0.025879418
144	0xbe389868	-0.18026888
145	0x3c6c4ee8	0.01442311
146	0xbeb3da40	-0.3512745
147	0xbde44a08	-0.11146933
148	0xbd93cb91	-0.072165616
149	0xbe51d26f	-0.2049043
150	0xbdf7393f	-0.12071466
151	0x3dcd3e99	0.10021705
152	0xbd73c5cc	-0.059514806
153	0x3d89013f	0.06689691
154	0xbe4382d2	-0.19092873
155	0x3dcbc96d	0.09950528
156	0xbd2a730a	-0.041613616
157	0x3db708f0	0.089372516
158	0x3e08bdfa	0.1335372
159	0xbe5dcf7f	-0.21661185
160	0xbe076a30	-0.13224101
161	0xbe4395ac	-0.19100064
162	0x3d7684a6	0.060185097
163	0x3e300c23	0.1719213
164	0x3e4fd825	0.20297296
165	0xbdb63115	-0.088960804
166	0x3df79985	0.120898284
167	0xbd34b422	-0.0441171
168	0xbdbe4364	-0.092901975
169	0xbea2adaf	-0.31773135
170	0xbd899324	-0.06717518
171	0xbd43e12e	-0.04782217
172	0xbe265a46	-0.16245374
173	0x3d053f58	0.032531112
174	0xbc30951c	-0.010777738
175	0xbdef8f85	-0.11697296
176	0x3e09f384	0.134718
177	0x3d4f384a	0.05059079
178	0xbd668184	-0.05627586
179	0x3ebad9bc	0.36494243
180	0xbe3e2c55	-0.18571599
181	0x3ca59791	0.020213874
182	0x3d69e05a	0.057098724
183	0x3ded38d0	0.11583102
184	0x3d75ea25	0.06003775
185	0x3e385770	0.18002105
186	0xbb33a592	-0.002741192
187	0xbac6190c	-0.0015113666
188	0xbdba21fb	-0.090885125
189	0xbddd22c3	-0.10797646
190	0x3ddcfc04	0.10790256
191	0x3d8d4116	0.0689718
192	0xbe19d15f	-0.15021275
193	0x3d803f0d	0.06262026
194	0xbe46e8a0	-0.19424677
195	0xbe0d4e56	-0.13799414
196	0xbd483bbf	-0.048885103
197	0xbb83a24d	-0.0040171505
198	0xbc6e4539	-0.014542871
199	0x3d9ca6bc	0.076489896
200	0xbb9eac6a	-0.0048423307
201	0x3e6a18e5	0.22861059
202	0x3eb2a7f5	0.34893766
203	0x3e09a386	0.13441285
204	0xbb3162bc	-0.0027066907
205	0xbda43f2e	-0.08019863
206	0x3ccfc709	0.025363462
207	0x3e39c8ab	0.18142955
208	0xbe89a8fe	-0.26886743
209	0xbd2acbb5	-0.041698176
210	0xbd3f3a5a	-0.046686508
211	0xbd540836	-0.051765643
212	0x3d1125ad	0.03543632
213	0xbe222521	-0.15834476
214	0x3e96e51b	0.2947167
215	0xbdfdfb59	-0.124014564
216	0xbd847c30	-0.064689994
217	0xbdbbc25a	-0.09167929
218	0xbe0ae918	-0.1356548
219	0xbdbd722e	-0.09250294
220	0x3cd5987d	0.026073689
221	0x3e16b9ea	0.14719358
222	0xbdee6dde	-0.11642049
223	0xbde43387	-0.111426406
224	0xbe560eac	-0.20904034
225	0xbe1c3be6	-0.15257224
226	0xbe8807ae	-0.2656836
227	0xbd74de9f	-0.05978262
228	0x3e7c085b	0.24612562
229	0xbcdfc73b	-0.02731668
230	0xbe183008	-0.14862072
231	0xbd3363c9	-0.043796334
232	0xbcbccc55	-0.023046652
233	0x3dc87bb3	0.09789219
234	0xbe290204	-0.16504675
235	0x3e26daa0	0.16294336
236	0x3ba6b4dd	0.0050874786
237	0xbdb32766	-0.08747749
238	0xbd9d9555	-0.076944984
239	0x3e63aa43	0.22232918
240	0xbe8ef549	-0.27921513
241	0x3cb0253c	0.02150213
242	0xbe5ee642	-0.21767524
243	0xbd0f52b3	-0.034990977
244	0x3df6ff6b	0.12060436
245	0x3d1e21a1	0.03860629
246	0x3aaee895	0.0013344461
247	0x3b9aaef2	0.004720562
248	0xba6f9db7	-0.0009140628
249	0x3de9d640	0.11417818
250	0xbde1f3e1	-0.11032844
251	0x3c3fd498	0.011708401
252	0x3b2fce2c	0.002682577
253	0x3e4e9f9c	0.20178074
254	0x3e593904	0.21213156
255	0x3d742f7c	0.059615597

linears.2.bias f4 [50]
0	0x3a83126f	0.001
1	0xba83126d	-0.0009999998
2	0x3a83126d	0.0009999998
3	0x3a83126e	0.0009999999
4	0xba83126d	-0.0009999998
5	0xba83126d	-0.0009999998
6	0x3a83126d	0.0009999998
7	0xba83126d	-0.0009999998
8	0x3a83126f	0.001
9	0xba83126f	-0.001
10	0xba83126e	-0.0009999999
11	0xba83123d	-0.0009999942
12	0xba83126f	-0.001
13	0xba83126d	-0.0009999998
14	0xba83126a	-0.0009999995
15	0xba83126d	-0.0009999998
16	0x3a83126d	0.0009999998
17	0xba831267	-0.0009999991
18	0xba83126d	-0.0009999998
19	0x3a83126e	0.0009999999
20	0x3a83126c	0.0009999997
21	0x3a83126e	0.0009999999
22	0x3a83126e	0.0009999999
23	0xba83126e	-0.0009999999
24	0xba83126e	-0.0009999999
25	0xba83126d	-0.0009999998
26	0xba83126d	-0.0009999998
27	0xba83126d	-0.0009999998
28	0x3a83126e	0.0009999999
29	0x3a83126e	0.0009999999
30	0xba83126e	-0.0009999999
31	0x3a83126e	0.0009999999
32	0xba83126d	-0.0009999998
33	0x3a83126f	0.001
34	0x3a83126e	0.0009999999
35	0x3a83126d	0.0009999998
36	0xba83126d	-0.0009999998
37	0x3a83126d	0.0009999998
38	0xba83126d	-0.0009999998
39	0x3a83126f	0.001
40	0x3a83126d	0.0009999998
41	0x3a83126e	0.0009999999
42	0x3a83126e	0.0009999999
43	0xba83126d	-0.0009999998
44	0x3a83126e	0.0009999999
45	0xba83126e	-0.0009999999
46	0x3a83126d	0.0009999998
47	0x3a83126e	0.0009999999
48	0xba83126d	-0.0009999998
49	0x3a83126f	0.001

linears.3.weight f4 [50, 50]
0	0xbe837e2e	-0.25682205
1	0xbcd5de8e	-0.026107099
2	0xbe9ac3e2	-0.30227572
3	0x3cc78c5f	0.024358926
4	0x3e1884fe	0.14894482
5	0x3c1ad6de	0.009450642
6	0x3db2be33	0.08727684
7	0x3eb109ff	0.3457794
8	0xbde777b3	-0.11302128
9	0xbc1d403a	-0.009597832
10	0xbd17081e	-0.036872976
11	0xbd6c67bd	-0.05771612
12	0xbe62b051	-0.22137572
13	0xbe83490b	-0.25641665
14	0xbe097fd2	-0.13427666
15	0x3e4a159f	0.1973481
16	0xbd4c2bce	-0.049846463
17	0xbc9a4878	-0.018833384
18	0x3e37ed72	0.17961672
19	0xbdc712ae	-0.0972036
20	0xbe9db286	-0.30800265
21	0x3c0996d1	0.008397774
22	0x3b591ac3	0.0033127523
23	0xbd3b92f9	-0.04579446
24	0x3ca91ec3	0.020644551
25	0x3e1b4125	0.1516157
26	0x3e133fc3	0.14379792
27	0xbd80a17b	-0.062808
28	0x3c08d570	0.008351669
29	0x3dd2122f	0.102573745
30	0xbd2880b3	-0.041138362
31	0xbb80938c	-0.003923839
32	0x3d690c41	0.05689645
33	0x3e963025	0.29333606
34	0x3dac9a14	0.084278256
35	0xbe05a210	-0.13050103
36	0xbe15c9e0	-0.1462779
37	0xbde7a760	-0.11311221
38	0xbd9d1fff	-0.076721184
39	0xbc13db72	-0.009024488
40	0x3d7afa91	0.061274115
41	0xbea2c2e5	-0.31789318
42	0x3e8864b4	0.2663933
43	0xbea14591	-0.31498387
44	0x3d999d46	0.07500701
45	0x3d5da28b	0.05411009
46	0xbba51e5a	-0.0050390186
47	0xbde17910	-0.11009419
48	0x3c783c1e	0.015151052
49	0x3d01dd66	0.031705283
50	0xbd325ded	-0.043546606
51	0x3df2dbd6	0.11858337
52	0xbe1177e8	-0.14205897
53	0x3cae5443	0.021280413
54	0xbc96292c	-0.01833018
55	0x3d71392c	0.058892414
56	0x3d7f3def	0.062314924
57	0x3e09d239	0.134591
58	0x3d77b3bf	0.060474154
59	0x3ea6a75e	0.32549566
60	0x3e365fbf	0.17809962
61	0x3de5e69d	0.112256266
62	0xbc16f938	-0.009214692
63	0x3dedc3fb	0.11609646
64	0xbc321c82	-0.010871055
65	0xbe7ebf27	-0.24877606
66	0x3e3961b1	0.18103673
67	0x3e84b1ab	0.259168
68	0x3e05a625	0.1305166
69	0xbdf898a9	-0.121384926
70	0xbd43ca73	-0.047800492
71	0xbd04624a	-0.0323203
72	0xbd2b0f20	-0.04176247
73	0xbc9d964f	-0.019236712
74	0xbcc3da0c	-0.023907684
75	0x3d2b0cd5	0.041760284
76	0xbcbe0e15	-0.023200074
77	0xbc4b9fe0	-0.012428254
78	0x3d81ff74	0.06347552
79	0x3d938dcf	0.07204782
80	0xbe1bbaf5	-0.15208037
81	0xbc7a3c6d	-0.015273196
82	0x3e0a8c4c	0.13530082
83	0xbe02c275	-0.12769492
84	0x3d10b4b4	0.035328582
85	0xbbd5ad11	-0.0065208753
86	0x3c6e32bb	0.014538462
87	0xbd5df0aa	-0.054184593
88	0xbd91c3f7	-0.071174555
89	0x3d2dcb19	0.042430017
90	0x3caa8352	0.020814572
91	0xbc631b0f	-0.013861432
92	0x3cd13633	0.02553854
93	0xbe291db4	-0.16515237
94	0x3d5e1215	0.054216463
95	0xbd372939	-0.044717047
96	0x3d2ba0c1	0.041901354
97	0xbe4c648f	-0.19960235
98	0xbdcf65e9	-0.1012686
99	0xbdea8a88	-0.11452204
100	0xbe56c3bb	-0.20973103
101	0xbdadb4f8	-0.08481783
102	0xbea836ef	-0.3285441
103	0x3e8c2500	0.2737198
104	0x3ebced54	0.36899817
105	0x3d8316bc	0.064008206
106	0x3daf8495	0.0857021
107	0x3d3432a5	0.04399361
108	0x3e2b97b1	0.16757084
109	0xbd5d5486	-0.054035686
110	0xbe5092c3	-0.20368485
111	0xbdebafae	-0.115081176
112	0xbe1ae2d8	-0.15125597
113	0x3ca1a3ac	0.019731365
114	0xbde6556e	-0.11246763
115	0x3d7c9230	0.061662853
116	0x3d041e45	0.03225543
117	0x3e1bed60	0.1522727
118	0x3e4dceed	0.20098467
119	0x3d5b99bb	0.053613406
120	0x3e0a4784	0.13503844
121	0xbdecf7db	-0.11570712
122	0x3dc7ad05	0.09749798
123	0xbc3dba14	-0.011580009
124	0xbc4f0804	-0.012636188
125	0x3dc88689	0.097912855
126	0x3e3ada4a	0.18247333
127	0xbe5638d9	-0.20920123
128	0x3d982b4d	0.07430134
129	0xbe233a2e	-0.15940163
130	0xbe134d41	-0.14384939
131	0xbca8b922	-0.02059609
132	0x3e57d898	0.21078718
133	0xbc81afa3	-0.01583082
134	0xbd82bb2f	-0.06383359
135	0xbe207f6e	-0.1567361
136	0xbe143632	-0.14473799
137	0x3e6f1252	0.23346832
138	0xbc86a45f	-0.0164358
139	0x3cf16d4c	0.029471062
140	0x3e4b6806	0.198639
141	0xbe56532f	-0.2093017
142	0xbdc460f2	-0.09588803
143	0x3c11295f	0.008859961
144	0x3d9c746f	0.076393954
145	0xbcef1f9f	-0.029189883
146	0xbbe0a85b	-0.006856007
147	0x3dc8e9c4	0.09810212
148	0xbda4db62	-0.080496565
149	0x3d014325	0.031558175
150	0x3e156d1f	0.14592408
151	0x3def9d0e	0.11699878
152	0x3e2a123a	0.16608515
153	0xbd4a3b94	-0.049373224
154	0x3d990210	0.074710965
155	0x3e05edc3	0.1307898
156	0xbe6ed712	-0.2332423
157	0x3cf7df03	0.030257707
158	0xbe6008ab	-0.21878307
159	0xbd85085f	-0.06495737
160	0xbe0fd144	-0.14044672
161	0xbcae1e96	-0.021254819
162	0xbde64aa8	-0.11244708
163	0x3dbf0a01	0.0932808
164	0x3e23da5a	0.16001263
165	0xbe7f358d	-0.24922772
166	0xbdcf56a1	-0.10123945
167	0x3e4a43c9	0.1975242
168	0xbdd0421d	-0.1016886
169	0xbd9c53c8	-0.076331675
170	0x3dff7da6	0.124751374
171	0x3d7b1783	0.06130172
172	0xbdf5e941	-0.1200738
173	0x3e92a92b	0.2864469
174	0x3d271707	0.040793445
175	0xbc396249	-0.011314937
176	0x3e93eca8	0.28891492
177	0x3d148b34	0.036265567
178	0x3cb08e3b	0.021552196
179	0x3d5a56e3	0.053305518
180	0x3e3dcc51	0.18534972
181	0x3d56c9dd	0.052438606
182	0x3d78cb68	0.06074086
183	0xbdfd378b	-0.123641096
184	0x3e72db4f	0.23716472
185	0xbe11cdeb	-0.14238708
186	0x3ab24e10	0.0013603587
187	0x3db22b59	0.08699674
188	0x3d2d7ebe	0.0423572
189	0xbe707dc5	-0.23485477
190	0x3dc26ce1	0.09493423
191	0x3e445430	0.1917274
192	0xbacc07da	-0.0015566305
193	0xbe074a03	-0.13211827
194	0x3da1dd9a	0.07903595
195	0x3d3a7eac	0.04553096
196	0x3e2eaa19	0.17057075
197	0xbe99ba1a	-0.30024797
198	0xbdeac7b6	-0.11463873
199	0x3dcda54a	0.10041292
200	0x3db73f88	0.089476645
201	0xbdb6e8f3	-0.0893115
202	0x3e3fd3a1	0.18733074
203	0xbd6c3492	-0.057667322
204	0x3e19d9d3	0.150245
205	0xbc119fff	-0.008888244
206	0xbe4f886e	-0.20266888
207	0xbe477ab8	-0.19480407
208	0x3e1ec2d1	0.15504004
209	0x3db02dba	0.08602472
210	0xbb46f4a0	-0.003035821
211	0x3d8a92df	0.06766295
212	0xbde51bd1	-0.11186946
213	0xbe4606cd	-0.19338532
214	0xbdd92577	-0.10602849
215	0xbea13028	-0.31482053
216	0x3db1e0e4	0.086854726
217	0x3d3ddbb9	0.046352122
218	0xbda721b4	-0.08160725
219	0xbe7a0670	-0.24416518
220	0x3b7f1fcc	0.0038928865
221	0x3e0a5da5	0.13512285
222	0xbe006e6e	-0.12542126
223	0xbe91468d	-0.28374138
224	0xbe8bcc86	-0.27304476
225	0x3e888982	0.2666741
226	0x3dc094a7	0.09403353
227	0xbd3ef1bc	-0.046617255
228	0x3c6154b2	0.013753103
229	0x3d330bab	0.0437123
230	0xbea1b888	-0.315861
231	0x3dd8b674	0.10581675
232	0xbe29b514	-0.16572982
233	0xbd1c46b5	-0.03815337
234	0x3e475917	0.19467579
235	0xbd90f7d7	-0.07078522
236	0x3e286e89	0.16448416
237	0xbd61bbbe	-0.055110686
238	0xbd876896	-0.06611745
239	0xbd4eb645	-0.050466795
240	0x3e672b2a	0.2257506
241	0xbd0b9332	-0.034075923
242	0xbd1249b0	-0.035714805
243	0xbe41192f	-0.18857263
244	0x3d2a7f3b	0.041625243
245	0xbdbff308	-0.093725264
246	0x3d35fab2	0.044428535
247	0x3de73c92	0.1129085
248	0xbd2603ad	-0.04053085
249	0xbcbb7eac	-0.02288755
250	0xbd61efbb	-0.055160265
251	0xbe1256f2	-0.1429098
252	0xbdfc7758	-0.123274505
253	0xbdc404a1	-0.095711954
254	0x3ca34b2a	0.019933302
255	0xbebfd0a1	-0.3746386

linears.3.bias f4 [50]
0	0xba83126e	-0.0009999999
1	0xba83126e	-0.0009999999
2	0x3a83126a	0.0009999995
3	0x3a83126e	0.0009999999
4	0x3a83126f	0.001
5	0xba83126d	-0.0009999998
6	0xba83126f	-0.001
7	0xba83126d	-0.0009999998
8	0xba83126d	-0.0009999998
9	0xba83126e	-0.0009999999
10	0x3a83126d	0.0009999998
11	0x3a83126d	0.0009999998
12	0x3a83126e	0.0009999999
13	0x3a831265	0.0009999989
14	0xba83126d	-0.0009999998
15	0x3a83126e	0.0009999999
16	0x3a83126d	0.0009999998
17	0xba83126d	-0.0009999998
18	0x3a83126d	0.0009999998
19	0x3a83126b	0.0009999996
20	0x3a83126e	0.0009999999
21	0x3a83126d	0.0009999998
22	0xba83126e	-0.0009999999
23	0xba83126d	-0.0009999998
24	0x3a83126e	0.0009999999
25	0x3a83126f	0.001
26	0x3a83126f	0.001
27	0xba83126d	-0.0009999998
28	0xba83126e	-0.0009999999
29	0x3a83126d	0.0009999998
30	0x3a83126e	0.0009999999
31	0xba83126d	-0.0009999998
32	0x3a83126d	0.0009999998
33	0x3a83126e	0.0009999999
34	0xba83126d	-0.0009999998
35	0x3a83126d	0.0009999998
36	0x3a83126e	0.0009999999
37	0xba83126d	-0.0009999998
38	0xba83126f	-0.001
39	0x3a83126d	0.0009999998
40	0xba83126e	-0.0009999999
41	0xba83126d	-0.0009999998
42	0xba83126e	-0.0009999999
43	0x3a831269	0.0009999993
44	0x3a83126d	0.0009999998
45	0x3a83126d	0.0009999998
46	0xba83126e	-0.0009999999
47	0xba83126d	-0.0009999998
48	0xba83126e	-0.0009999999
49	0xba83126e	-0.0009999999

linears.4.weight f4 [3, 50]
0	0xbd3dba56	-0.046320282
1	0xbdfc9f5b	-0.12335082
2	0xbbc02483	-0.0058637275
3	0x3e96893f	0.29401585
4	0x3e95e027	0.29272577
5	0xbdcc76df	-0.0998361
6	0xbdcbd10a	-0.099519804
7	0xbe28c26c	-0.16480416
8	0xbd422509	-0.0473986
9	0xbe9b52eb	-0.303367
10	0x3e5a8a31	0.21341778
11	0x3da7aa54	0.081867844
12	0x3e275b90	0.16343522
13	0xbd51f55a	-0.051259376
14	0xbceae4f2	-0.028673623
15	0x3e1d35d4	0.15352565
16	0x3e4aba64	0.19797665
17	0x3a409256	0.00073460245
18	0x3d68c82c	0.056831524
19	0xbc7d8379	-0.01547324
20	0x3e9097e2	0.28240877
21	0x3c0a7742	0.008451285
22	0xbe1cac51	-0.15300108
23	0xbdae95a5	-0.08524636
24	0x3e9811ac	0.29700983
25	0x3e7db080	0.2477436
26	0x3e17339d	0.14765783
27	0xbccb3994	-0.024807729
28	0xbdc3eac6	-0.09566264
29	0x3d9779c5	0.073962726
30	0x3e6d21c0	0.23157406
31	0xbea7f833	-0.32806548
32	0x3d2ec466	0.04266777
33	0x3e624a79	0.22098722
34	0xbe0022d3	-0.12513284
35	0x3e1e6cdb	0.15471213
36	0x3e886650	0.26640558
37	0xbe5a440c	-0.2131502
38	0xbe9808b6	-0.29694146
39	0xbd3b37b4	-0.04570742
40	0xbd4b7697	-0.049673643
41	0xbcd2153c	-0.025644891
42	0xbe70bd4d	-0.23509713
43	0x3d589c84	0.05288364
44	0x3c5e5f48	0.0135725215
45	0x3dd449fd	0.10365675
46	0xbe1da3ff	-0.15394591
47	0xbcc68e93	-0.024237907
48	0xbd49e495	-0.04929026
49	0xbdd56811	-0.1042024
50	0xbcb6a20e	-0.02229407
51	0xbd4a6936	-0.049416743
52	0x3e78529e	0.24250266
53	0xbd8a83be	-0.06763409
54	0x3d01ad92	0.03165967
55	0x3e06435c	0.13111633
56	0xbdb97313	-0.09055152
57	0xbd939213	-0.07205596
58	0xbe763f49	-0.24047579
59	0x3d7eaad3	0.06217463
60	0x3e96b34d	0.2943367
61	0x3da982c4	0.08276895
62	0xbd9e501b	-0.07730123
63	0xbdc3edb5	-0.095668234
64	0xbe222f5a	-0.15838376
65	0xbe700fa6	-0.2344347
66	0x3de73fbc	0.11291453
67	0x3d36f361	0.044665698
68	0x3de7778f	0.11302101
69	0xbddf8674	-0.10914317
70	0xbd8fb359	-0.0701663
71	0x3e229444	0.15876871
72	0xbdedae6f	-0.11605536
73	0xbe7950a0	-0.24347162
74	0x3e29f65f	0.1659789
75	0x3d9a8a49	0.07545907
76	0x3d43ad24	0.04777254
77	0x3cf2ca59	0.029637503
78	0x3e18fb72	0.14939669
79	0xbd901a3d	-0.070362546
80	0xbe36c38b	-0.17848031
81	0xbd20be12	-0.039243765
82	0x3e02a9c4	0.12760073
83	0xbc1d2d66	-0.009593343
84	0x3e447549	0.19185366
85	0xbe2b036f	-0.16700529
86	0xbd877cdf	-0.06615614
87	0x3dbfdf4b	0.09368762
88	0x3dc2c28c	0.09509763
89	0x3d8a1d79	0.06743903
90	0x3e3a19ee	0.18173954
91	0x3e0ccf82	0.13751033
92	0xbebabd09	-0.36472347
93	0x3ddc4dae	0.10757004
94	0xbe01f24f	-0.1269009
95	0x3e7f1051	0.24908568
96	0x3d592f4d	0.053023625
97	0x3e8f4f93	0.27990398
98	0x3ef04968	0.46931005
99	0xbf0be4fb	-0.5464627
100	0xbe3c46ff	-0.18386458
101	0x3e6112d2	0.21979836
102	0x3d0d929a	0.03456364
103	0xbdf92081	-0.12164403
104	0xbd0e3b43	-0.034724485
105	0x3ba0bc0d	0.00490523
106	0xbd840522	-0.064462915
107	0x3ea0b430	0.31387472
108	0x3db68b4f	0.0891329
109	0x3d22c7a8	0.03974119
110	0xbbcaffbd	-0.006195037
111	0x3d65e059	0.056122158
112	0xbe64e9eb	-0.22354858
113	0x3e823254	0.25429022
114	0xbbb0e4ff	-0.005398392
115	0xbe010fb3	-0.12603645
116	0xbbcd8db0	-0.006272994
117	0xbe0e06ad	-0.13869734
118	0xbe12abbc	-0.14323324
119	0x3de0971a	0.1096632
120	0x3da26509	0.07929427
121	0x3e330732	0.17483214
122	0xbba8995b	-0.0051452345
123	0x3e11a114	0.14221603
124	0x3dd27302	0.10275842
125	0xbda67eb0	-0.081296325
126	0x3cd17654	0.025569119
127	0xbdeca51a	-0.11554928
128	0xbc61033c	-0.013733681
129	0x3d4d47a2	0.050117142
130	0x3cb9f2ff	0.022698877
131	0xbe958b9b	-0.29208073
132	0xbc175a61	-0.009237857
133	0xbe816d1d	-0.2527856
134	0x3e0d6003	0.13806157
135	0x3e69e8fe	0.22842786
136	0xbd962ca9	-0.07332737
137	0xbdce5a6e	-0.10075842
138	0x3df60ee9	0.12014563
139	0x3ead21db	0.33814892
140	0xbe6d94ad	-0.23201247
141	0xbe1752be	-0.14777657
142	0x3c41a0f1	0.011818157
143	0xbe572b14	-0.21012527
144	0x3e15bb71	0.14622284
145	0xbeb6e6bd	-0.35722914
146	0xbddd4f1e	-0.10806106
147	0xbe5e4054	-0.21704227
148	0xbc85f9f7	-0.016354544
149	0xbd9a0b2f	-0.07521664

linears.4.bias f4 [3]
0	0x3a83126f	0.001
1	0x3a83126c	0.0009999997
2	0x3a83126e	0.0009999999

exp_avg f4 [50, 2]
0	0xbc12b89f	-0.00895515
1	0x3c5f5083	0.013630035
2	0xbc4407cb	-0.011964749
3	0xbbcc0a0a	-0.0062267827
4	0x3c2e0c9f	0.010623126
5	0xbc3e6d68	-0.011622764
6	0xbc95fab0	-0.018308014
7	0x3b5fb230	0.0034133308
8	0x3c11ab0b	0.0088908775
9	0x3c19ac8f	0.00937952
10	0xbaa3d9f1	-0.0012500865
11	0x3cf7fe7a	0.030272711
12	0x3b953127	0.0045529786
13	0x3c8056d3	0.015666401
14	0x3c82cc7f	0.015966652
15	0xbc86efa9	-0.0164717
16	0xbbde6290	-0.006786652
17	0xbd1204d7	-0.035649147
18	0x3c1326f7	0.008981458
19	0x3b749aed	0.0037323788
20	0xb98709ba	-0.00025756453
21	0xbd069c6f	-0.03286403
22	0xbc8c0e63	-0.017096704
23	0x3cb4944b	0.022043368
24	0x3b9e8a9d	0.0048383013
25	0xbd4062ff	-0.04696941
26	0x3c30bb2b	0.010786812
27	0x3cbd6647	0.023120059
28	0xba8d5044	-0.0010781367
29	0x3c060674	0.0081802495
30	0x3bb79a85	0.005603137
31	0xba8260d3	-0.0009947069
32	0xbb49cdfd	-0.0030792945
33	0x3bd03f13	0.0063551753
34	0x3a333083	0.0006835537
35	0x3c14de9f	0.00908628
36	0x3bbc6ba6	0.0057501374
37	0x3cd5134a	0.026010174
38	0x3c76cbcb	0.0150632365
39	0x3d3484c1	0.044071916
40	0x3b91da4f	0.0044510732
41	0x3c8ca827	0.017170025
42	0xba80bbf9	-0.0009821645
43	0xba96a89c	-0.0011494341
44	0xbba245fe	-0.0049521914
45	0xbce47507	-0.027887834
46	0xbaaeeb56	-0.0013345282
47	0xba15a15b	-0.0005707943
48	0x3b948ab3	0.004533136
49	0x3b8d1293	0.0043051927
50	0x399893e2	0.0002910188
51	0x3c762608	0.015023716
52	0x3c9c6f06	0.019095909
53	0x3bfc4c18	0.007699501
54	0xbcac5213	-0.02103523
55	0x3cd7235a	0.026261974
56	0x3a4bbf63	0.00077723543
57	0xbb6fa623	-0.003656753
58	0x3c958479	0.018251644
59	0x3bbfac40	0.005849391
60	0x3cb28b02	0.0217948
61	0xbbf02b5a	-0.0073293867
62	0xbb380a9a	-0.002808249
63	0x3cf28a27	0.029606892
64	0xba06ac10	-0.00051373336
65	0x3d356925	0.044289727
66	0x3bc6c2f7	0.006065722
67	0x3c2c764f	0.010526254
68	0xbb4eff8d	-0.0031585426
69	0x3cfc96a3	0.030833548
70	0x3c85c167	0.016327573
71	0xbb616447	-0.0034392045
72	0x3c14ee5e	0.009090034
73	0x3c9f0d59	0.019415544
74	0xbc2b8cf9	-0.010470622
75	0x3b72ae37	0.003703011
76	0x3c622018	0.013801597
77	0x399cc640	0.00029902346
78	0x3b2f2008	0.0026721973
79	0x3c4edc50	0.012625769
80	0x3a48226a	0.00076345226
81	0xbc79739a	-0.0152253155
82	0xbc350a83	-0.0110498695
83	0xbaefb2c0	-0.0018287525
84	0x3b547747	0.0032419728
85	0x3cf0f7af	0.02941498
86	0xba39dca6	-0.0007090069
87	0x3c081eae	0.008308096
88	0xbb3acddb	-0.0028504047
89	0x3a9b747d	0.0011860278
90	0xbad54a60	-0.0016272776
91	0x3bdcd78a	0.0067395614
92	0xbb82f377	-0.0039963084
93	0xbd186ff0	-0.037216127
94	0x3b9eb06a	0.0048428075
95	0x3a00080d	0.0004884012
96	0x3b90ab5f	0.0044149603
97	0x3c0a9659	0.008458697
98	0x3c9ed5e8	0.019389108
99	0x3c28adf5	0.010295381

exp_avg_sq f4 [50, 2]
0	0x37068b5f	8.019472e-06
1	0x379bd77e	1.8577786e-05
2	0x37702cb3	1.4315522e-05
3	0x3682199a	3.8772823e-06
4	0x373d550d	1.128508e-05
5	0x3762a422	1.3508865e-05
6	0x380c960b	3.351834e-05
7	0x359c5ff0	1.1650827e-06
8	0x37049eba	7.9047695e-06
9	0x37139924	8.797539e-06
10	0x3427cb9d	1.5627161e-07
11	0x38c030d7	9.1643706e-05
12	0x360b1d34	2.0729613e-06
13	0x37cde303	2.4543615e-05
14	0x37d5daa7	2.5493397e-05
15	0x37e398de	2.7131693e-05
16	0x369a8c14	4.605865e-06
17	0x39054270	0.00012708618
18	0x37075609	8.066659e-06
19	0x35baf95b	1.3930652e-06
20	0x31e3f0d5	6.633949e-09
21	0x38e28071	0.00010800444
22	0x37f5325c	2.9229726e-05
23	0x384bce32	4.8591006e-05
24	0x361d18a1	2.340916e-06
25	0x3967543a	0.00022061254
26	0x37433639	1.163553e-05
27	0x3860337e	5.3453718e-05
28	0x33f99e74	1.16237885e-07
29	0x36e088d3	6.6916487e-06
30	0x3652b072	3.1395143e-06
31	0x33d47b25	9.894419e-08
32	0x357e882f	9.4820547e-07
33	0x36878540	4.038826e-06
34	0x3348ae33	4.6724562e-08
35	0x370a8375	8.256048e-06
36	0x365de3a8	3.306408e-06
37	0x388de0e2	6.7652916e-05
38	0x37be56a4	2.269011e-05
39	0x394bab20	0.00019423338
40	0x3604f4d8	1.981205e-06
41	0x37f74de8	2.9480972e-05
42	0x33cf280a	9.646472e-08
43	0x340ddcd6	1.3211988e-07
44	0x36249441	2.45242e-06
45	0x38a31a21	7.7773126e-05
46	0x343f3ace	1.7809654e-07
47	0x330beec3	3.2580612e-08
48	0x3609e776	2.0549319e-06
49	0x35f8c4b0	1.8534683e-06
50	0x32117fe9	8.469194e-09
51	0x37bd574b	2.2571205e-05
52	0x3818f265	3.646537e-05
53	0x36c6eb1f	5.9282315e-06
54	0x38399707	4.4248092e-05
55	0x3890a385	6.896913e-05
56	0x3381ba79	6.04095e-08
57	0x35b3794e	1.3371844e-06
58	0x380bb8c2	3.331225e-05
59	0x36659d93	3.421538e-06
60	0x38473c2a	4.750133e-05
61	0x36b4410d	5.371991e-06
62	0x3553b1fd	7.886263e-07
63	0x38b7d463	8.76568e-05
64	0x32e2b50f	2.6392199e-08
65	0x394dafc2	0.00019615798
66	0x3676e9dd	3.6792983e-06
67	0x3739e51a	1.1080201e-05
68	0x3585e69e	9.976391e-07
69	0x38c760bc	9.5070776e-05
70	0x37dfa1b2	2.6658967e-05
71	0x359ec123	1.1828128e-06
72	0x370aa0c4	8.262872e-06
73	0x381e1c22	3.7696336e-05
74	0x3737ef6a	1.0963393e-05
75	0x35b80b12	1.371229e-06
76	0x379fca25	1.9048408e-05
77	0x32199d26	8.9415035e-09
78	0x353fae18	7.1406384e-07
79	0x3785b90c	1.5941005e-05
80	0x337a5610	5.8285934e-08
81	0x37c274de	2.3181023e-05
82	0x374cd964	1.2209963e-05
83	0x34b38c33	3.3443357e-07
84	0x358d116a	1.0510387e-06
85	0x38b57446	8.65241e-05
86	0x3357e770	5.026908e-08
87	0x36e79b8e	6.9024454e-06
88	0x355a1941	8.124808e-07
89	0x34170a07	1.4066619e-07
90	0x348e2a48	2.6480325e-07
91	0x369868ef	4.542169e-06
92	0x35d65a27	1.597048e-06
93	0x39113b64	0.00013850402
94	0x361d6394	2.3452785e-06
95	0x32cce691	2.3853575e-08
96	0x3602cec8	1.9491872e-06
97	0x36f0149a	7.1549557e-06
98	0x381dadfb	3.759375e-05
99	0x3731d473	1.0599487e-05

exp_avg f4 [50]
0	0x3b26ac04	0.002543212
1	0xbd22eca5	-0.039776463
2	0x3b678892	0.0035329205
3	0xbd138b32	-0.03602142
4	0x3d1c4c17	0.038158502
5	0x3d22524b	0.039629262
6	0x3d31acbc	0.043377623
7	0x3bea6007	0.0071525606
8	0xbda04501	-0.078256615
9	0x3d2127df	0.039344665
10	0xbd5d5bdd	-0.054042686
11	0xbbbf5931	-0.00583949
12	0xbd89a525	-0.06720952
13	0x3d6f044a	0.0583537
14	0x3c0661fe	0.008202074
15	0x3c56ef97	0.013118646
16	0xba00b620	-0.0004909951
17	0x3c84c37d	0.016206497
18	0x3d735d9d	0.05941545
19	0x3dd14325	0.10217885
20	0x3d45e199	0.04831085
21	0x3a8c90cf	0.0010724309
22	0xbd5f8a8d	-0.05457549
23	0xbb8dbad7	-0.0043252516
24	0x3c96305d	0.018333608
25	0x3cf45412	0.029825244
26	0x3d7ff91a	0.06249342
27	0xbc3446c2	-0.011003198
28	0xbbe2260b	-0.0069015077
29	0x3d728dd3	0.059217285
30	0x3d20dd23	0.039273392
31	0x3d270302	0.040774353
32	0x3da5c6aa	0.08094533
33	0x3cf7c6fd	0.030246252
34	0x3d3ea169	0.04654065
35	0x3d169365	0.03676166
36	0x3d6158ed	0.055016447
37	0xbcc2f8d8	-0.023800299
38	0x3d0263ab	0.031833332
39	0x3d00e39b	0.03146706
40	0xbcd9474a	-0.026523251
41	0xbd11fe6b	-0.035643023
42	0x3d4fabc3	0.050700914
43	0x3c367a82	0.011137607
44	0xbc272051	-0.010200576
45	0x3c038c3f	0.008029043
46	0xbd88057e	-0.066416726
47	0x3c479118	0.012180589
48	0x3cd6253f	0.026140807
49	0x3d8ab7d7	0.06773346

exp_avg_sq f4 [50]
0	0x352d9f42	6.467927e-07
1	0x3925e6f9	0.0001582167
2	0x35a78634	1.2481528e-06
3	0x39080ea4	0.00012975425
4	0x3918ae1f	0.00014560715
5	0x3924ad37	0.00015704786
6	0x39454d4e	0.00018816182
7	0x36aba95a	5.1159122e-06
8	0x3a208a20	0.0006124098
9	0x392251e1	0.00015480026
10	0x39991fca	0.0002920612
11	0x3664d6bd	3.4099642e-06
12	0x39ecd3c0	0.00045171194
13	0x39b28735	0.00034051543
14	0x36e1bbf0	6.7274013e-06
15	0x37905df3	1.7209886e-05
16	0x32cf1539	2.4107623e-08
17	0x37dc53c7	2.6265056e-05
18	0x39b9157b	0.00035301954
19	0x3a88d890	0.0010440517
20	0x3974bb2e	0.00023339383
21	0x33f6fbd9	1.15010785e-07
22	0x399c288b	0.00029784846
23	0x35fb1783	1.87078e-06
24	0x380cfabd	3.361212e-05
25	0x38ba8d18	8.895452e-05
26	0x39ccc1c3	0.00039054276
27	0x374b1f54	1.2107037e-05
28	0x369fd28f	4.7630815e-06
29	0x39b7d9f5	0.0003506687
30	0x3921bb78	0.00015423994
31	0x392e54ae	0.00016625479
32	0x3a2bc2b5	0.0006552146
33	0x38bfdae0	9.1483584e-05
34	0x39631ffd	0.00021660324
35	0x390db4e5	0.00013514196
36	0x399eb126	0.00030268094
37	0x386d968f	5.6645422e-05
38	0x38d48469	0.00010133611
39	0x38cfa7ac	9.9017605e-05
40	0x389387f2	7.034828e-05
41	0x390536b8	0.00012704253
42	0x3986c5c7	0.00025705827
43	0x37501d78	1.2404627e-05
44	0x372e91e3	1.0405175e-05
45	0x36d84f76	6.446552e-06
46	0x39e745df	0.0004411181
47	0x3778eb0a	1.4836676e-05
48	0x388f4ea2	6.833418e-05
49	0x39f088b1	0.0004587821

exp_avg f4 [50, 50]
0	0x3bd0e7ca	0.0063752877
1	0xbbd0e2a5	-0.0063746744
2	0x3a9d9de1	0.0012025201
3	0xb989fc0d	-0.0002631847
4	0x394c0e93	0.00019460385
5	0x3bb62c85	0.0055595064
6	0x3ba1c48a	0.0049367594
7	0xbc085f17	-0.008323452
8	0xbbb4142d	-0.005495569
9	0xbc0fc63f	-0.008775293
10	0x3ab6ac8f	0.0013936925
11	0xbb4fbdbd	-0.0031698786
12	0x3a6ee07b	0.00091124297
13	0xbb04fc3c	-0.0020291945
14	0x3bd3e33d	0.006466298
15	0x3c0b11d4	0.008488137
16	0xbbac5976	-0.005259688
17	0xbb46af6b	-0.003031696
18	0xbafea46f	-0.0019427667
19	0xbb84d5ab	-0.0040537915
20	0xb9cbbb3a	-0.00038858672
21	0x3b13175a	0.0022444339
22	0x3ab6f962	0.001395982
23	0x3a6864a7	0.0008865096
24	0xbacf71cb	-0.001582676
25	0xb8d8fb27	-0.000103464634
26	0x3b2ea6d0	0.002664972
27	0x3b70d6dd	0.0036749162
28	0xbb906c9f	-0.00440748
29	0xbaa746d6	-0.00127622
30	0xb99fd9da	-0.00030489155
31	0xbbb7afd1	-0.0056056757
32	0xbbab46a2	-0.005226926
33	0xbbc3affd	-0.005971907
34	0x3a26e9d3	0.000636724
35	0xbbb9b232	-0.0056669945
36	0x3b575d1d	0.0032861896
37	0x3b1bd377	0.0023777166
38	0xbb6d4ab7	-0.0036207864
39	0x3b394307	0.0028268711
40	0x3bba8adb	0.0056928224
41	0xbba43bdb	-0.005012018
42	0x3a8986d2	0.001049245
43	0xbbb2a38e	-0.005451626
44	0x38ebf1ad	0.00011250689
45	0x3b0aeb7d	0.002119749
46	0xbad1c6cd	-0.0016004682
47	0x39de0b8a	0.00042351737
48	0x3bb197e4	0.005419718
49	0x3b45f218	0.0030204114
50	0x3b7ee1e5	0.0038891968
51	0xbaf6fa3a	-0.0018842884
52	0xbc0dbc8f	-0.008650913
53	0x3c949633	0.018138027
54	0x3b13e122	0.002256461
55	0x3b9b09c8	0.0047313906
56	0x3c0fd17f	0.008777975
57	0xbc284ff7	-0.010272971
58	0x3b1f254d	0.0024283708
59	0xbb970139	-0.0046083
60	0xbb874a15	-0.0041287043
61	0x3b0d6d02	0.0021579866
62	0x3b4da79b	0.0031380418
63	0xbbc84f6b	-0.006112983
64	0xbb89a6c3	-0.0042007877
65	0xbad7d92a	-0.0016467918
66	0xbb8908e1	-0.0041819667
67	0xbbe4cded	-0.006982556
68	0xb9ce5daf	-0.00039361182
69	0x3a286c2b	0.00064248097
70	0x3c32d993	0.010916132
71	0xbb33acad	-0.0027416155
72	0x3b81b8b3	0.0039587854
73	0xbbe3cdcd	-0.0069520236
74	0xbb9a629b	-0.0047114617
75	0x3bc6e6ab	0.0060699782
76	0xbc401062	-0.011722656
77	0x3ae1da13	0.0017231129
78	0x3aafdf72	0.0013418032
79	0xbb30de87	-0.0026988105
80	0xbb156859	-0.0022797792
81	0x3b6ab9e2	0.0035816361
82	0xbbdb9a02	-0.006701709
83	0xbb140c95	-0.0022590507
84	0xbb39cd3a	-0.0028351084
85	0xbb995269	-0.0046790135
86	0xbb6d6f03	-0.0036229498
87	0x3b6e2907	0.0036340372
88	0xbc63548f	-0.013875141
89	0x3bf5b5f8	0.007498499
90	0x3c1f60a1	0.009727628
91	0xbc58ea9d	-0.01323953
92	0xbaf089fd	-0.0018351671
93	0x385a7f9a	5.209409e-05
94	0xbb4cc2b7	-0.0031243989
95	0xbb8805e0	-0.004151091
96	0x3b86f1a6	0.004118162
97	0x3acbfb12	0.0015562496
98	0x3b6fd602	0.0036596064
99	0x3b11845b	0.0022204134
100	0xb92b553a	-0.0001633958
101	0x3a0e1538	0.0005420032
102	0xbaee53c2	-0.0018182921
103	0x3b68ccf3	0.003552255
104	0x39d22e88	0.0004008899
105	0x38eaa780	0.00011189189
106	0x3a7e4b9f	0.00097005995
107	0xba48d9e0	-0.00076618604
108	0x3aa1ba7c	0.0012338902
109	0x39c1f41a	0.00036993698
110	0xba8083fb	-0.0009804958
111	0x3a605208	0.00085571455
112	0x39f5068a	0.00046734913
113	0xba657ecd	-0.00087545515
114	0xbadfaad3	-0.0017064459
115	0xbac56a35	-0.0015061559
116	0xb8539533	-5.0445273e-05
117	0xba6bafa7	-0.0008990713
118	0x39508ebb	0.00019889597
119	0x3a35912f	0.0006926236
120	0x3b0c46b3	0.0021404445
121	0xba5b41fa	-0.0008364018
122	0x3a117979	0.0005549412
123	0xbabdc476	-0.0014478106
124	0xba301643	-0.00067171844
125	0x3a99306f	0.0011687408
126	0xbb2ba21a	-0.002618915
127	0xb9484df7	-0.0001910253
128	0x3a655c62	0.0008749423
129	0xb9ae4dbb	-0.0003324578
130	0xb9cc5b9d	-0.0003897817
131	0x3ac070e9	0.0014682087
132	0xba0bb8ca	-0.0005329965
133	0x39d92b1d	0.00041421587
134	0xba2499af	-0.0006279004
135	0xb8b5cccd	-8.6689e-05
136	0xba96c999	-0.0011504173
137	0x39b9e92d	0.0003545968
138	0xbb0c83b4	-0.0021440806
139	0x3a86913d	0.0010266673
140	0x3a88b6f8	0.0010430505
141	0xbaee67bd	-0.0018188875
142	0xba020880	-0.0004960373
143	0x3a4bde02	0.0007776917
144	0xba1fa859	-0.00060904544
145	0xba8e7712	-0.0010869226
146	0x3a84112f	0.0010075922
147	0x39772757	0.00023570411
148	0xb8953327	-7.1144015e-05
149	0xb6933b33	-4.387833e-06
150	0x3b43daad	0.002988498
151	0xbaa659bf	-0.0012691541
152	0xbbf6d080	-0.0075321794
153	0x3c80f8d2	0.015743647
154	0x3afd7caa	0.0019339521
155	0x3b766e7b	0.0037602473
156	0x3bee6998	0.0072757713
157	0xbc0849d7	-0.008318386
158	0x3b1c714d	0.0023871243
159	0xbb62503d	-0.003453269
160	0xbb6e2c67	-0.0036342384
161	0x3b050b31	0.002030086
162	0x3b2dfade	0.0026547234
163	0xbba8fabc	-0.005156843
164	0xbb81e489	-0.003964011
165	0xbaf6127b	-0.0018773818
166	0xbb58b0aa	-0.0033064284
167	0xbbbfa04a	-0.0058479654
168	0xb97563da	-0.00023402218
169	0x3a4a8c82	0.0007726626
170	0x3c1ad51b	0.009450222
171	0xbb22c393	-0.002483581
172	0x3b5a96da	0.0033354075
173	0xbbc61410	-0.006044872
174	0xbb823693	-0.003973791
175	0x3babb1f0	0.0052397177
176	0xbc2869ef	-0.010279163
177	0x3aa83cc7	0.0012835496
178	0x3ab6ab53	0.0013936557
179	0xbb13dc9a	-0.0022561909
180	0xbaff562d	-0.0019480638
181	0x3b5de408	0.003385784
182	0xbbb353cf	-0.0054726372
183	0xbad38c53	-0.0016139842
184	0xbb22620e	-0.0024777683
185	0xbb730f52	-0.003708799
186	0xbb5833dd	-0.0032989897
187	0x3b44aa5f	0.0030008776
188	0xbc40af83	-0.011760595
189	0x3bce997a	0.006304917
190	0x3c03c1a5	0.008041774
191	0xbc360be6	-0.011111235
192	0xbad6b3c8	-0.0016380483
193	0x39b2f880	0.00034135953
194	0xbb30de57	-0.0026987994
195	0xbb71fd7b	-0.0036924768
196	0x3b6e4e3a	0.0036362545
197	0x3aacc3ff	0.001318097
198	0x3b3aac93	0.002848421
199	0x3ae5197d	0.001747891
200	0x3ba32cf1	0.0049797227
201	0xbb6d527a	-0.003621249
202	0xbbb2b8d4	-0.005454162
203	0x3c4b57ce	0.012411071
204	0x3ad2665a	0.0016052232
205	0x3bac22f3	0.0052531897
206	0x3bff0475	0.0077825137
207	0xbc243847	-0.010023183
208	0xb9c473ba	-0.00037470256
209	0xbbcfcf63	-0.006341861
210	0xbb166761	-0.0022949802
211	0x399d5f9a	0.00030016602
212	0x3b21bec3	0.0024680353
213	0xbba0b09b	-0.0049038655
214	0xb9f5b0c2	-0.00046861736
215	0x3b03e857	0.00201275
216	0xbb9c5375	-0.004770691
217	0xbbc02218	-0.0058634393
218	0xba80aa60	-0.0009816401
219	0xba8a3cdd	-0.0010546703
220	0x3bef8f7d	0.0073108063
221	0xba880930	-0.0010378715
222	0x3b520058	0.0032043662
223	0xbb906bc9	-0.0044073802
224	0xbb781180	-0.0037852228
225	0x3b861c73	0.004092747
226	0xbbe65897	-0.0070296037
227	0x3b25367c	0.0025209477
228	0xba3a370d	-0.000710354
229	0xbb16f38b	-0.0023033347
230	0xbad9ca53	-0.0016616083
231	0x39c0a8af	0.00036746773
232	0xbbd40f37	-0.0064715403
233	0xbb74466a	-0.0037273415
234	0xbaddec47	-0.0016931378
235	0xbbac41b5	-0.0052568563
236	0xbaa44308	-0.0012532184
237	0x3b5b1ded	0.0033434585
238	0xbc31404f	-0.010818555
239	0x3bc93a81	0.0061410074
240	0x3c0ea163	0.00870547
241	0xbc3238d5	-0.010877808
242	0xba61d412	-0.000861467
243	0xbb011a24	-0.001969942
244	0xbb087d2e	-0.0020826566
245	0xbb05e0b4	-0.0020428123
246	0x3b10f1c0	0.002211675
247	0x3a9f0890	0.0012133289
248	0x3b92a072	0.004474693
249	0x3b2b99c2	0.0026184176
250	0xbc19890b	-0.0093710525
251	0x3c155d4f	0.009116485
252	0xba1e19c7	-0.0006031063
253	0xbaf07393	-0.0018344991
254	0xba10abb0	-0.00055187475
255	0xbc089ced	-0.008338195
