models/onlyadam_10e/ckpt/ckpt-10.pt (torch, 106733 bytes, 30 tensors)

linears.0.weight f4 [50, 2]
000000 d3 51 14 3e b2 5e 22 be 86 08 40 be 44 96 da bd
       0.14484338 -0.15856436 -0.18753251 -0.10673192
000010 8c 3e f4 3d f4 81 7f bd f5 5a 9a 3b df 12 4e 3b
       0.11925992 -0.062379792 0.00471055 0.0031444354
000020 aa e8 5b 3d 75 c1 87 bd 47 f8 82 bb b0 32 8f 3d
       0.053688683 -0.06628696 -0.003996882 0.0699209
000030 c1 f7 a4 3e f6 8d 85 3e 3f 7d e3 3e cd 5f d3 3e
       0.3222027 0.2608487 0.44431493 0.41284028
000040 50 4a 79 be 36 cb 21 be f3 f2 60 3e 5b 57 d9 bd
       -0.24344754 -0.15800175 0.21967678 -0.10612365
000050 9c 02 85 3d 20 59 82 be cf fd 08 3f b7 97 aa 3c
       0.06494638 -0.25458622 0.5351228 0.020824296
000060 5f 71 ad bd d3 c1 95 3e 8f 37 b8 be 52 03 9c 3d
       -0.084688894 0.2924944 -0.35979888 0.07617821
000070 e3 34 0e be 34 f4 6e 3e 66 e8 5b be e9 85 a0 be
       -0.13887362 0.23335344 -0.21475372 -0.31352165
000080 8c df d3 bd 93 1a fe 3d 04 4a 80 bd 70 aa c4 3d
       -0.103453726 0.124074124 -0.06264117 0.09602821
000090 46 9d fa 3e ff 1f 2b 3c 50 d2 60 3e ea a9 ae bd
       0.48948115 0.01044464 0.21955228 -0.08528502
0000a0 d3 01 6e 3e 08 f6 8d bc 3b d3 cd 3d 18 4e f1 bd
       0.23242883 -0.01732923 0.10050055 -0.11782473
0000b0 49 6a d0 3d ae d2 97 3e 40 d1 41 be 18 5d 05 3e
       0.10176522 0.29652923 -0.18927479 0.13023794
0000c0 78 c3 df bd aa f6 45 3e e4 f3 48 bc f3 29 2a bd
       -0.109259546 0.19332376 -0.012265179 -0.041543912
0000d0 73 4b c7 3e 30 a9 ce bd 4f 35 60 3e 0c 37 8d 3e
       0.3892475 -0.10090864 0.21895336 0.2758106
0000e0 9e 63 bc be 1a 23 a8 bd 57 17 63 3c 2a 2f 44 bc
       -0.36794752 -0.0820982 0.013860545 -0.011974135
0000f0 e4 28 33 3e 89 11 86 3d 67 ef 83 bd aa 2a 00 be
       0.17496067 0.06546313 -0.06442147 -0.12516275
000100 05 be 99 3e 78 f3 f0 3d c8 6b 96 3e bb 75 cb 3d
       0.30027786 0.11765188 0.29379106 0.09934565
000110 03 a1 fa 3d 92 2f a0 be 00 f6 d7 3d 4a 60 7e bd
       0.12237742 -0.31286293 0.10544968 -0.062103547
000120 01 03 41 3d 3c f0 84 bc b8 7b 3c 3e 2e 5e 08 3e
       0.047122005 -0.016227834 0.1840657 0.13317177
000130 d4 01 77 3e e9 ff 1e 3e fd 17 58 3e 02 5d 31 be
       0.24121791 0.1552731 0.21102901 -0.17320636
000140 c6 5a 0d be 0f 93 5b 3e 53 f6 9f be 2e ef 76 be
       -0.13804159 0.21442817 -0.31242618 -0.24114677
000150 9f d5 9f 3c ea 72 c1 bb 3d 68 60 3d 82 61 80 bd
       0.019511042 -0.0059035914 0.05478691 -0.06268598
000160 2e 7b 40 3d 60 92 7e 3d f3 76 97 bd 67 16 4c 3e
       0.046992473 0.062151313 -0.07395735 0.19930421
000170 28 1c 0e be 2b 69 50 3e 70 c7 3a be 64 45 54 be
       -0.13877928 0.20352618 -0.18240142 -0.20729595
000180 95 b8 f8 bd ef 8d bc be 5c 24 89 3e 63 b3 40 3c
       -0.12144581 -0.36827037 0.26785553 0.011761519

linears.0.bias f4 [50]
000000 e4 9a 21 bc 2a 5f 20 bc 18 70 c7 bb aa ee 21 3c
       -0.009863589 -0.009788314 -0.0060863607 0.009883562
000010 9c 2f 20 3c ca 6a 1f bc c0 6c f3 bb c2 06 26 3c
       0.009776976 -0.00973005 -0.0074287355 0.010133447
000020 90 eb 17 3c 4f c9 1c 3c 35 51 1e bc 05 92 22 bc
       0.009272471 0.00956948 -0.009662916 -0.009922509
000030 5a 84 24 bc 7a f4 1a bc 49 bb 21 3c 7c 98 06 bb
       -0.010041321 -0.009457702 0.009871312 -0.0020537665
000040 3b 60 1f 3c 58 27 f3 bb 97 3d 20 3c a8 da 21 3c
       0.009727533 -0.0074204616 0.009780309 0.009878792
000050 b5 d9 1e 3c d8 c5 77 3a 24 4e 21 3c ef 25 26 3c
       0.00969546 0.0009451783 0.00984529 0.01014088
000060 8e 5c 1d bc d7 60 21 bc 86 87 1c 3c d4 d6 14 3c
       -0.009604586 -0.009849749 0.009553796 0.009084422
000070 12 bf 22 bc 51 25 eb bb a3 db 15 bc 90 8c 20 bc
       -0.00993325 -0.0071760793 -0.009146604 -0.009799138
000080 80 5b 1a bc 54 cb 22 3c be 48 19 bc 03 93 15 bc
       -0.009421229 0.0099361725 -0.009355722 -0.009129289
000090 6b c0 fb 3b 29 9e 22 bc fd 26 07 bc e3 29 20 3c
       0.00768285 -0.009925404 -0.008249042 0.009775612
0000a0 f7 b9 25 3c d4 09 f4 ba ff 85 46 bb 02 ac 1f bc
       0.010115138 -0.0018618652 -0.003029227 -0.0097456
0000b0 79 ab 19 3c 89 3b ce 3b 59 07 25 3c d7 5c 1e bc
       0.009379261 0.0062937182 0.010072553 -0.009665689
0000c0 f5 a4 21 3c 6f 7a 09 bc
       0.009865989 -0.008391007

linears.1.weight f4 [50, 50]
000000 66 dd 85 be 80 ac 09 be 9a 5a de bd 51 26 1c bd
       -0.26145476 -0.1344471 -0.108571246 -0.03812248
000010 68 82 c4 3d 98 71 38 be 7b ca 9f 3d 55 73 cf bc
       0.095951855 -0.18012083 0.07802292 -0.02532355
000020 f7 ce c5 3d 8b 7d 98 3e 71 6b d0 bc 82 73 19 bc
       0.09658616 0.29783282 -0.025441857 -0.009365918
000030 ad b7 bd 3d d8 4e 8d be 3b 02 db 3d d0 a9 e6 3a
       0.09263549 -0.27599216 0.10693785 0.0017598215
000040 bc 5e 54 3e a8 d3 00 3e e6 e1 7a bc c4 cc 57 be
       0.20739263 0.1258074 -0.015312647 -0.21074206
000050 c6 01 ee 3c 5d 6f e2 bc 41 63 c9 3b d7 23 40 3e
       0.02905358 -0.027640993 0.006145865 0.18763672
000060 9a 56 4d 3d 8e ee de bd 5c 56 23 3d 55 e9 44 3e
       0.050131418 -0.108853444 0.03987728 0.19229634
000070 9e 8f 60 bc 19 92 b4 3c 98 d5 a9 3d a4 f0 4b 3e
       -0.013706116 0.022042321 0.08292693 0.19916016
000080 10 9b 8f bd a8 61 33 3e 5e 65 c8 3d 8d 00 20 3e
       -0.07011998 0.17517722 0.09784959 0.1562521
000090 ce bd b8 3e 02 81 4e bd 6f fb b2 bd 75 70 c9 bd
       0.3608231 -0.050416 -0.087393634 -0.098359026
0000a0 7a b7 23 3e 56 04 66 bd cd a4 f8 bd 05 a1 62 be
       0.1598796 -0.05615648 -0.12140808 -0.22131737
0000b0 f9 d9 ae bc 8a d2 06 be 66 a6 6b be 29 d3 11 be
       -0.021344172 -0.13166252 -0.23012695 -0.14240707
0000c0 8a 82 81 be b6 cc 01 3d 67 12 1b 3e 8b 10 af 3a
       -0.25294906 0.03168937 0.15143739 0.0013356371
0000d0 1b 01 62 bd 6f 90 1a bd db 42 5e bd ce 6f f7 3d
       -0.055176836 -0.0377354 -0.054262977 0.12081872
0000e0 95 fc ff bc 88 62 c6 3c 12 97 9e bd d6 0a 81 3e
       -0.03124837 0.024216905 -0.07743658 0.2520358
0000f0 cb da 19 be dc 2b 1d be d1 6b c9 3c 51 4d 73 bb
       -0.15024869 -0.15348762 0.024587544 -0.0037124942
000100 ae ec 94 bd 59 76 14 3e 74 16 85 3b c3 c4 f0 3d
       -0.072717056 0.14498271 0.0040615145 0.11756279
000110 a7 49 65 be c7 59 a6 bd 14 50 be 3e cd f7 8c 3d
       -0.22391377 -0.081225924 0.3717047 0.06883202
000120 c1 c9 ed 3b 0a ed d7 bb 68 06 f0 3b 1c ed e7 3d
       0.007256717 -0.0065895366 0.0073249824 0.11324522
000130 67 fb 13 bd c1 e4 fc 3d 5f cf 88 be 42 ef 54 bd
       -0.036128428 0.12348319 -0.26720712 -0.051985987
000140 cd 4e ef 3d 7c 6a 01 3e 59 0f 04 3d ae d0 f1 3d
       0.11684952 0.12638277 0.0322412 0.118073806
000150 79 8f e4 bc a4 d6 51 be 1e e6 31 be 4f 9c 37 be
       -0.027900444 -0.20492035 -0.17372939 -0.17930721
000160 35 7c fa 3d 98 4c 6b be 20 80 6b bd c7 c3 ff 3d
       0.12230722 -0.22978437 -0.057495236 0.124885134
000170 39 71 3c 3d 54 8c ac bd bd 41 36 3d 27 ec 11 3d
       0.046006415 -0.08425203 0.044496287 0.035625603
000180 25 d3 bc 3d 64 66 35 3e 61 1c 96 3d 5d eb 42 be
       0.0921996 0.1771484 0.073296316 -0.19035096
000190 15 31 b9 bc 93 65 d2 bd de 49 97 3d c5 e1 59 3d
       -0.022606412 -0.1027328 0.07387136 0.053193826
0001a0 98 28 99 bd 10 71 b8 be fe bf 2c 3e fc ea df 3d
       -0.07478446 -0.3602376 0.16870114 0.109334916
0001b0 44 ad 4f bc a5 47 e0 3b 17 8d 0b be 08 17 39 bc
       -0.012675587 0.006844478 -0.1362804 -0.011296995
0001c0 79 f4 4d 3e b6 be 3e 3c 43 a9 39 3e 16 f2 a1 3d
       0.2011279 0.011642149 0.18130974 0.07907502
0001d0 f5 30 8e 3e 0c b6 b9 bd 12 72 57 3c a1 9e 76 3c
       0.27771726 -0.09067926 0.013149755 0.0150524685
0001e0 07 7b 9f bd 4e 64 a2 3d 90 a2 ba 3d c3 b3 c1 bd
       -0.077871375 0.07929288 0.091130376 -0.09458115
0001f0 0f ad 55 be ca d1 8f bd 37 57 f3 3d 61 f7 49 bd
       -0.20866798 -0.07022436 0.11881869 -0.049308185
000200 dc 97 9b 3d bc 46 62 3d 4e a0 27 3d 85 46 16 be
       0.07597324 0.05524324 0.040924363 -0.14675339
000210 55 57 38 bd d5 b3 9b 3d a9 64 4d be 93 52 73 be
       -0.04500516 0.076026596 -0.2005793 -0.23761968
000220 59 45 ea 3d 28 7a 80 3e e7 21 9f 38 2e 40 8b 3c
       0.11439008 0.25093198 7.5880256e-05 0.016998377
000230 29 6a ed 3c 22 c1 43 3e 3f f4 11 be f8 e8 3c be
       0.028981285 0.19116643 -0.14253329 -0.18448246
000240 1a b9 ab 3d 22 65 06 bd 68 fc bf 3d af c4 4f 3d
       0.08384915 -0.03281129 0.093743145 0.05072468
000250 ba cf e7 bc 68 b5 da be 63 0b 93 3d 64 dc 0a 3d
       -0.028297294 -0.42716527 0.07179906 0.033901587
000260 d2 d3 53 3b d8 1e fe 3d bd a7 e2 bd b5 11 53 be
       0.00323223 0.12408227 -0.1106715 -0.20612223
000270 bb 22 fa 3d 06 85 f2 3d cb 3a 7a be 49 f2 1c 3c
       0.122136556 0.118417785 -0.2443649 0.00957925
000280 a6 d9 54 3e e0 3b 18 3e d7 0c 1c 3e 52 cb c1 3d
       0.20786151 0.1486659 0.15239273 0.094626084
000290 f7 5a 69 3e 25 8e 05 bd cb 1f d5 bd af 53 e5 3c
       0.22788607 -0.032606263 -0.10406455 0.027994005
0002a0 11 62 1f 3d 1f da 54 3d 8b 0d 11 3d 18 75 ea 3d
       0.038911883 0.05196583 0.035413306 0.11448115
0002b0 29 bd b8 3d da ef 3b 3e a7 ae 20 bd 33 9c f2 3d
       0.090204544 0.18353215 -0.03922906 0.11846199
0002c0 20 d8 08 3d 8d 1e 9a be 07 77 55 be ca fb 39 3e
       0.033409238 -0.30101433 -0.20846187 0.18162456
0002d0 0d 17 71 3b 95 33 49 3e c6 49 f9 bd 48 06 4b bd
       0.003678742 0.19648583 -0.12172274 -0.049566537
0002e0 50 bd 3d 3e 2f 70 59 3d 60 e5 a3 3d 2f a1 c3 3d
       0.18529248 0.053085502 0.08002734 0.09552228
0002f0 65 a4 51 3e 87 30 5d be 39 0b a2 bd 83 65 d9 bd
       0.20472868 -0.21600543 -0.07912297 -0.10615065
000300 1f 6b f4 3d 25 69 1e bd e6 fa a7 3d 1a 75 f3 bc
       0.11934494 -0.038674492 0.08202152 -0.029718924
000310 b6 ce 0a 3d b3 d5 af be cf 25 1a 3c 57 a2 f9 bd
       0.03388854 -0.34342727 0.009408428 -0.12189167
000320 20 ca f7 3b d7 6e 81 be 50 64 23 be 46 73 23 be
       0.007561937 -0.25279877 -0.15956235 -0.15961942
000330 d8 dc c2 3c 7b 91 3c 3c a5 58 3d be df e4 b5 3d
       0.023786947 0.011509295 -0.18490846 0.08881544
000340 86 62 f0 3d 37 e1 81 3e 46 f8 0d 3e 41 52 24 be
       0.11737542 0.25367138 0.1386424 -0.16047002
000350 27 8c ad 3d df 6c 12 be 6a af e0 bb 09 ae d2 3d
       0.084739976 -0.14299344 -0.0068568485 0.10287101
000360 8e d5 83 bd dc eb 9c bc 36 2c 86 3d 57 bd 5b 3d
       -0.06437217 -0.019155435 0.06551401 0.053647365
000370 38 f0 69 bd a8 bb da bd 0d db 49 3d e0 23 e3 bd
       -0.057113856 -0.10680324 0.04928117 -0.11090827
000380 4d 55 7e 3d 52 fa 55 3e 96 33 76 be c7 1f 10 be
       0.062093068 0.20896271 -0.24043116 -0.14074622
000390 14 b9 9a 3d 9d df ee 3c f2 99 71 be c1 87 84 3d
       0.07554832 0.029159361 -0.23593882 0.064712055
0003a0 43 8b 77 be a7 a2 17 3d 00 15 82 bc 47 da a4 3d
       -0.24174218 0.03702035 -0.015879154 0.080494456
0003b0 e3 c4 5e 3d 7c a7 57 be 2c 31 07 3e ee 36 6b 3e
       0.054386985 -0.21059984 0.13202351 0.22970173
0003c0 69 6f 68 be 76 00 65 bd 16 14 7e bc 3e 40 e9 3d
       -0.2269875 -0.055908643 -0.015507719 0.11389206
0003d0 17 db 79 b7 92 73 53 be 44 3f 8e bd 4c 96 60 3d
       -1.4892567e-05 -0.20649555 -0.06945661 0.054830834
0003e0 54 c2 3c be d4 6d 05 be 10 e4 0f bd 98 e2 32 3e
       -0.18433505 -0.13030177 -0.035129607 0.17469251
0003f0 b0 87 ad bd e2 cd be bd ea 7c d3 bd 75 ec 36 3e
       -0.08473146 -0.09316613 -0.1032656 0.17863639

linears.1.bias f4 [50]
000000 ef 35 21 3c 4a 72 19 3c c4 03 19 3c ce bb ec 3b
       0.009839519 0.009365628 0.009339277 0.0072245365
000010 e3 bb 25 bc 71 0c d8 3b 56 62 0c bc 1c cd 0c 3c
       -0.0101155965 0.00659328 -0.008568367 0.008593824
000020 51 9e 6b bb f8 9e 1e 3c f1 7d 21 3c dd 82 06 bc
       -0.0035952518 0.009681456 0.009856687 -0.008209911
000030 a6 28 12 3c 52 c3 21 bc 15 66 21 3c eb d4 1a 3c
       0.008920824 -0.009873228 0.009850998 0.009450178
000040 5c 87 20 3c 71 79 f2 bb 1d 41 25 3c db 5c c4 bb
       0.009797897 -0.007399731 0.010086325 -0.0059925145
000050 58 33 25 bc 3c c8 1e 3c ec e1 21 3c c2 e3 23 bc
       -0.010083042 0.009691294 0.009880524 -0.010003032
000060 3d ba ce 3b 84 0b 1a 3c 1c 2a 21 bc 31 a7 21 bc
       0.0063088224 0.00940216 -0.0098367 -0.009866522
000070 c5 d8 18 bc 2b 9c 21 3c 3c 49 21 bc 31 22 31 bb
       -0.009329026 0.0098638935 -0.009844121 -0.0027028436
000080 9c 86 25 3c 40 82 20 3c 96 e8 15 bc bc a8 21 bc
       0.010102894 0.009796679 -0.009149691 -0.00986689
000090 6c 00 23 bc bd 68 17 3c f0 f6 f4 3b 52 f3 d0 ba
       -0.009948831 0.00924128 0.0074757263 -0.0015941656
0000a0 e1 57 1d bc a5 4d 22 bc d1 10 25 bc f8 80 25 3c
       -0.0096034715 -0.009906207 -0.01007481 0.010101549
0000b0 68 8b bd 3b 70 70 23 bc cf 4a 21 bb 6d 1a 24 bc
       0.005784441 -0.009975538 -0.002461124 -0.010016066
0000c0 f8 99 1f bc 01 13 17 bc
       -0.009741299 -0.0092208395

linears.2.weight f4 [50, 50]
000000 a5 d4 05 be e4 10 a7 be f9 70 28 be 21 12 00 3d
       -0.13069399 -0.32630074 -0.16449346 0.03126729
000010 2d 67 aa 3d 90 8a f1 bd 57 8f cd 3d 5f 01 07 be
       0.083204605 -0.11794007 0.100371055 -0.13184117
000020 cc 77 a9 3d dd cc 49 3a af 29 e9 bd 90 cf 3d be
       0.082748026 0.00076980685 -0.11384904 -0.1853621
000030 86 57 a5 3d 30 fc d0 3d cf 0f 0c 3e 60 9a 14 bd
       0.080733344 0.10204351 0.13677905 -0.036280036
000040 a7 1a e5 bc 8f c2 cf 3d cb 1c dd ba 53 db 48 bc
       -0.02796681 0.10144531 -0.0016869543 -0.012259322
000050 cf 13 1c 3e d0 9a 2d 3e e7 e7 e6 bd 04 70 15 be
       0.15241931 0.16953588 -0.112747006 -0.14593512
000060 a0 b6 80 bd 19 65 80 3b 44 8a 2c 3c 5f 92 70 3d
       -0.06284833 0.003918302 0.010531012 0.05873334
000070 a2 92 ac bc 65 d0 a3 3e 42 33 45 be 08 90 9e 3d
       -0.021066014 0.3199493 -0.19257835 0.077423155
000080 18 f6 32 3e 39 99 e3 3c 0d 79 11 3e 6d a0 5d 3e
       0.1747669 0.027783023 0.14206333 0.21643229
000090 46 6a 89 bd 31 55 28 3e cb 2c 7c 3e a7 31 11 3d
       -0.06709723 0.16438748 0.24626462 0.035447743
0000a0 46 08 7b 3d 94 05 2d be 9f 3e c2 bd 05 a2 11 be
       0.061287187 -0.16896659 -0.094846 -0.14221962
0000b0 60 cb 7b 3e a3 33 b4 be dc 44 0b 3e f5 29 19 be
       0.245893 -0.35195646 0.13600487 -0.14957412
0000c0 cd fc 44 3d 69 29 26 be 0a 4e 37 3d 9d a2 5a bd
       0.048092652 -0.16226734 0.04475216 -0.053377736
0000d0 7f a4 89 3d 1f b3 49 bd e5 a7 0d be 53 c1 02 be
       0.06720828 -0.04924309 -0.13833578 -0.1276906
0000e0 05 8a 68 3c a1 75 c1 bd c9 95 ab 3e 44 5d 31 3e
       0.014193063 -0.09446264 0.33512715 0.17320734
0000f0 21 15 b8 bd 95 29 ad 3d 9d ae c1 3b d2 1c aa 3d
       -0.08988405 0.08455197 0.005910708 0.08306278
000100 8b 32 06 be 4a 63 91 3d 3a 1f ab bd 2c 4e d8 3c
       -0.13105218 0.07099016 -0.08355565 0.026404463
000110 a5 19 bf bc 02 c5 70 3d c4 0a 71 3e 2d 26 c8 3d
       -0.023327658 0.05878163 0.23539263 0.097729065
000120 9b 65 a5 bb e2 3f 06 bd d6 57 9f 3d 29 66 4d 3d
       -0.0050475127 -0.032775767 0.07780425 0.050146256
000130 d4 d8 86 bd c7 23 3b be 85 e4 52 3d 7a de c5 bb
       -0.065843254 -0.18275367 0.051487464 -0.006038484
000140 1f fa 1d 3d 77 e6 48 3d 08 c1 2e bd c3 a5 10 bd
       0.038568612 0.049047913 -0.042664558 -0.035314333
000150 1e dd da 3d 59 34 5c be 54 e3 5b 3e 3d f6 32 3e
       0.10686706 -0.21504344 0.21473438 0.17476745
000160 9b 5a be 3e df a1 f9 bd 9a ab 79 3e 30 18 45 bd
       0.371785 -0.121890776 0.24381867 -0.04811877
000170 8a 69 df bd 29 ac cf 3c ee ea 43 3d 8f 48 27 be
       -0.10908802 0.025350647 0.04783147 -0.16336273
000180 da da 5f be 35 a2 88 bc eb a9 23 bd 07 e5 1a 3e
       -0.21860829 -0.016678909 -0.03995697 0.1512643
000190 a1 64 81 3d d4 11 99 bd a5 81 90 3c 74 ff 5c 3d
       0.063180216 -0.074741036 0.017639944 0.053954557
0001a0 96 b1 8e 3e dc 74 b4 3d d5 64 63 be 57 64 17 bd
       0.27869862 0.08811352 -0.22206433 -0.036960926
0001b0 7d d0 73 be bd 59 a3 bd 16 ea 8b 3d 97 10 d7 bc
       -0.2381 -0.079761006 0.06831758 -0.026253028
0001c0 f5 0a 93 3c e5 4b ef bd 03 60 0c be 38 64 e8 3c
       0.01794956 -0.116843976 -0.137085 0.0283681
0001d0 c7 79 6e be 12 a1 8b bd 35 fe f8 3b a1 72 10 3d
       -0.23288642 -0.06817831 0.007598663 0.03526557
0001e0 af 61 80 3d 96 0b 5c 3e 83 82 b1 3d a7 6d 0b 3e
       0.06268632 0.21488795 0.08667471 0.13616048
0001f0 93 11 2b bd 8c 1f 39 be 5a e8 9b bd f9 b9 f6 3c
       -0.041764807 -0.1807844 -0.07612677 0.030117976
000200 3f b2 c6 bd 43 67 5f 3c 52 31 26 3e e5 43 12 bc
       -0.097019665 0.013635459 0.16229752 -0.00892732
000210 10 05 a6 bc 7a 29 e2 bd f5 71 a7 bc 29 83 30 3e
       -0.020266086 -0.11043067 -0.020440081 0.17237534
000220 0a 97 42 3e 4f c3 f6 3d b9 fc bd 3c 17 16 53 be
       0.1900293 0.12048971 0.023191797 -0.20613895
000230 2d 10 91 3d 4c 06 c2 bc 43 17 72 bc ed d6 15 3d
       0.070831634 -0.023684643 -0.014776054 0.036581922
000240 18 1b 23 3e a3 8e eb bc d7 ea 78 3e ba 8d 70 3d
       0.15928304 -0.028754538 0.24308334 0.05872891
000250 56 35 0f be 3c 38 39 3e 73 ce 0b be 53 71 bb bd
       -0.1398519 0.18087858 -0.13652973 -0.09152474
000260 12 c2 93 bd 26 ad 14 be 8f ad 8e be b2 84 42 bd
       -0.0721475 -0.14519176 -0.2786679 -0.04748983
000270 b2 91 a6 3d fc 46 22 3a 1d 93 2d bd 9e 01 1c 3e
       0.08133258 0.0006190387 -0.042376626 0.15234992
000280 31 1f 79 be 40 ea 4c bc f4 9e 11 be 7e 6f 13 be
       -0.24328305 -0.012507021 -0.14220792 -0.14398
000290 f9 33 73 bc 9f d3 3e 3e f7 27 35 bc a5 3c 06 be
       -0.014843934 0.18635415 -0.011056892 -0.13109072
0002a0 52 d7 39 bc 6f e4 0e be d5 2d 6f ba de 75 04 be
       -0.01134284 -0.13954328 -0.0009123956 -0.12935588
0002b0 19 7b 3b be 75 4c fe bd 3b dd 98 be 25 70 21 be
       -0.18308677 -0.12416927 -0.29856285 -0.15765436
0002c0 9e 50 0a be 6a ef 83 bd 5b 81 2b 3e 72 a7 d7 3d
       -0.13507316 -0.06442149 0.16748564 0.105299845
0002d0 6b d9 0b 3e 21 32 d6 bd d9 27 b0 3e 78 03 84 3e
       0.13657157 -0.1045878 0.344054 0.25783896
0002e0 d5 85 3a 3e a1 9e c4 3a 15 3b d1 3d 7b bc 50 bd
       0.18215115 0.0015000888 0.10216347 -0.050961
0002f0 32 fb 00 bd 26 d6 54 bd e9 d8 09 be 8b db 9a 3e
       -0.03148956 -0.05196204 -0.13461651 0.30245623
000300 a7 d3 99 3e c2 6d 20 3e b3 8b 9c 3b 3c 56 dd bd
       0.3004429 0.1566687 0.0047773956 -0.108074635
000310 5a 1d 94 bd a7 ce ce bc dc 44 4e be 26 11 10 3e
       -0.07232161 -0.025245024 -0.20143455 0.14069042
000320 2e 93 f1 3c ae 97 8e bc 7d 4f 79 3e a3 c2 66 bd
       0.029489126 -0.01740631 0.24346729 -0.056337964
000330 a8 e0 46 bc d2 8a bb bd ec 6a 25 3e 7e 46 22 bd
       -0.012138523 -0.09157337 0.16154069 -0.039618008
000340 60 f9 45 be 1b d0 c9 3d 03 99 e6 3d 2d d1 3b 3e
       -0.1933341 0.09854146 0.112596534 0.18341513
000350 bf 7b 23 bd 5d 0b 1a 3e 05 b8 4f 3d 40 13 af 3d
       -0.039912935 0.15043397 0.050712604 0.085485935
000360 80 34 52 be 0c ae 7d bd 24 ac b3 bd f8 64 0e 3e
       -0.2052784 -0.061933562 -0.087730676 0.13905704
000370 e3 ce 16 3d 69 43 88 be 6a b7 37 bd 23 4c 37 3e
       0.036818396 -0.2661393 -0.04485265 0.17900138
000380 d4 94 fa bb 48 76 c9 3d b0 21 fd bd 64 cc 46 3e
       -0.007647136 0.098370135 -0.12359941 0.19413906
000390 60 6e 07 bd f9 73 f1 ba d4 32 ac bd 0d 85 81 bd
       -0.033064246 -0.0018421403 -0.08408132 -0.063242055
0003a0 50 db 7c 3d 21 72 f8 3c e4 07 93 3c 83 57 20 3e
       0.06173259 0.030327858 0.017948098 0.15658383
0003b0 2b 6c 3d bd 72 ef d0 3d 6d 2f 2d 3e 15 ab c3 be
       -0.046245735 0.102019206 0.16912623 -0.38216463
0003c0 ba 05 1b 3d 38 46 dc bd 3c ce 87 bd 80 01 79 3d
       0.03784726 -0.10755581 -0.06631133 0.060792446
0003d0 39 48 1b be 55 8e cd 3c 13 f5 0f bd fd 8b f8 3d
       -0.1516427 0.025092283 -0.03514583 0.12136076
0003e0 8e bb 32 bd 17 81 e7 bd b2 a4 1a 3e a6 ab b2 bc
       -0.043635897 -0.11303919 0.15101889 -0.021810364
0003f0 6b fd dd 3d fe cb c3 3d 21 13 fd 3d 6a bd 9e 3e
       0.10839351 0.09560393 0.12357164 0.31003886

linears.2.bias f4 [50]
000000 a9 d6 c7 bb b5 b9 16 3c 4a a2 24 bc ee 39 cb bb
       -0.0060985875 0.009199549 -0.010048458 -0.006201974
000010 fd a5 e8 3a 2e e1 24 3c 99 a0 9e bb 47 36 1b bc
       0.0017749664 0.010063453 -0.004840922 -0.00947339
000020 11 76 23 3c e7 c2 19 3c 0a 60 cc 3b 61 9e 24 3c
       0.00997688 0.009384847 0.0062370347 0.010047526
000030 01 b9 1d 3c 77 fc 10 3c 28 d6 0e bc 46 9f 15 bc
       0.009626628 0.008849255 -0.008718051 -0.009132212
000040 2a 22 1f bc 09 f2 21 bc 35 4d e3 3a 82 94 ea 3b
       -0.009712735 -0.009884366 0.0017341735 0.007158817
000050 a8 f1 21 bc 57 49 23 bc 8c 80 23 3c 8b ae 8d bb
       -0.0098842755 -0.009966216 0.009979378 -0.0043237857
000060 56 1a 25 3c df 5f 16 3c 1a 88 f6 bb 9e 97 e8 bb
       0.01007708 0.009178131 -0.007523549 -0.0070981523
000070 db d0 1f bc b5 2d 13 bc a8 a9 1b bc 6f 4e 06 3c
       -0.009754385 -0.008983065 -0.009500898 0.008197411
000080 4d 5f 1a 3c ac 18 22 3c ed ec 20 3c 0a 3e 24 3c
       0.009422136 0.009893578 0.0098221125 0.010024557
000090 67 e2 02 3c f1 58 21 bc 24 54 99 3b ea bb 25 3c
       0.007988549 -0.009847865 0.00467922 0.010115603
0000a0 2c 8b 11 3c be 6e 1c bc f7 db 20 3c 48 ca 24 3c
       0.008883279 -0.009547887 0.009818069 0.010057993
0000b0 07 4b 21 bc 39 43 22 3c c8 8f 0c bc 86 71 12 3c
       -0.009844548 0.009903722 -0.008579202 0.008938199
0000c0 5d 85 23 bc 39 c5 0c bb
       -0.009980527 -0.0021479859

linears.3.weight f4 [50, 50]
000000 d0 41 6e bd e9 e1 17 be 6f db 70 3d a0 65 4a 3e
       -0.058168232 -0.14832272 0.05880302 0.1976533
000010 63 c8 8a 3d 6a 23 87 3c 65 c1 1f 3d c9 b9 89 be
       0.06776502 0.016496379 0.039002795 -0.26899555
000020 de ae ac 3d 1e e8 68 3c 4e ac f8 bd 18 4b b5 3e
       0.08431791 0.014215497 -0.121422395 0.35408854
000030 6e b8 6c 3d 84 8b 43 3d c4 c4 21 3c 7d be 30 3d
       0.057793073 0.047740474 0.009873573 0.043150414
000040 58 19 32 3b a7 7d d4 3d c2 ad 54 3e 4e 7a b0 3c
       0.002717575 0.10375529 0.20769408 0.021542694
000050 aa ce 9c 3d 4f 60 c4 3c 10 80 d2 3d 19 b2 3c 3e
       0.076566055 0.023971705 0.10278332 0.18427314
000060 84 01 b6 3d 7b 5a 65 bc d0 1d 22 be 59 2d 92 be
       0.08887008 -0.013998623 -0.15831685 -0.28550223
000070 35 b2 bd bd 03 ac 93 3c 7a c5 87 be 8d c6 50 bd
       -0.09262506 0.018026358 -0.2651785 -0.050970603
000080 38 6d b1 3e 5a eb fa 3d 74 19 40 3e 35 51 09 bd
       0.3465364 0.12251921 0.1875971 -0.03352471
000090 af 05 26 3c 25 ba ef bd 96 de 15 3d ff fc a7 bc
       0.010133191 -0.11705426 0.036589228 -0.02050638
0000a0 08 9f 27 3d 50 c8 97 3d ba fc bf 3d 32 61 8c 3d
       0.04092315 0.074112535 0.09374376 0.06854476
0000b0 22 e7 4b be 8d 58 bd bd 86 1d 80 be ac c8 1c 3e
       -0.19912389 -0.09245405 -0.25022525 0.15310925
0000c0 d9 26 4a 3d 1b 60 f2 bd a3 46 9a bd 2d 2c 03 be
       0.049353454 -0.11834737 -0.07533004 -0.1280982
0000d0 73 3f a5 3d c7 05 29 3d 11 d3 69 bd eb 8c e2 bc
       0.080687426 0.041265275 -0.057086054 -0.027655086
0000e0 38 7b 53 bd a4 f4 60 3e f0 c2 8a bd bd 64 91 3e
       -0.051631182 0.21968323 -0.067754626 0.2839717
0000f0 c9 07 0d 3e bc 48 39 bd 5e 4c e7 bd de c7 aa bd
       0.13772501 -0.04523538 -0.11293863 -0.08338903
000100 b5 21 30 3e bb 23 e0 3c d6 1e 28 be ab 53 fb 3b
       0.17200358 0.027360788 -0.16418013 0.007669886
000110 fe c7 ea bc 86 d0 ed 3d bb b7 25 3d 32 5d f2 3d
       -0.028659817 0.11612038 0.040458422 0.11834182
000120 20 bd 4f 3c 53 84 bf bc ce 38 3c 3e 10 8e 24 be
       0.012679368 -0.023378527 0.18381044 -0.16069818
000130 f2 46 4a bd 88 17 3e 3d e7 40 e4 ba 05 3c a4 3c
       -0.049384065 0.04640916 -0.0017414362 0.02004815
000140 77 1c 2f 3e a1 6c b3 3d 13 4d 84 bd f7 9e 87 3d
       0.17100702 0.08760954 -0.06460013 0.06622117
000150 8e b0 85 bd 06 98 b5 bd c8 08 8a 3e cd 8a ae 3d
       -0.06527816 -0.08866887 0.26959825 0.08522568
000160 17 68 16 3e 97 94 ea 3d 0b 25 1b 3d c1 b7 14 3e
       0.14688145 0.114541225 0.037877124 0.14523222
000170 d4 b8 cd bd 3b 6c 04 3e 10 17 1c bd 59 84 22 be
       -0.10045019 0.12931912 -0.03810793 -0.15870799
000180 9c e1 0d 3e 98 71 0b 3e f8 66 a7 bd b2 f7 dd bd
       0.13855594 0.13617551 -0.081739366 -0.1083826
000190 4e 5d c9 bc 6a 13 a1 bd 37 10 96 bd 56 15 26 bd
       -0.024580624 -0.07865031 -0.073273115 -0.04054769
0001a0 4a d9 18 be 40 ea 65 3e 13 88 47 be 12 d3 92 be
       -0.14926639 0.2245264 -0.19485502 -0.2867666
0001b0 c6 22 3c 3e 33 4e ef 3d 44 88 79 be 15 d6 49 3e
       0.1837264 0.11684837 -0.24368387 0.19710572
0001c0 c4 d8 5d bc a5 6a 43 3e c7 49 3f be ff 49 96 bd
       -0.0135404505 0.1908365 -0.18680488 -0.073383324
0001d0 36 ea 0e 3d 21 17 90 3e fe 71 14 3e 38 63 04 3e
       0.03489133 0.28142646 0.1449661 0.12928474
0001e0 db c6 ab 3d 1b 18 0c 3e 9f d2 b8 bc 40 ea 9f bd
       0.08387538 0.1368107 -0.02256137 -0.078083515
0001f0 3b c8 0c be 1f 20 a7 bd 32 9e 01 be d4 fb 8d bd
       -0.13748257 -0.081604235 -0.12658003 -0.06932798
000200 bf 14 2c bd 50 2a 13 3d f5 58 2e 3e 0c 4c d0 bd
       -0.042011973 0.035929024 0.17026122 -0.10170755
000210 8b db 66 bd 67 5b 0d bd 02 c5 3b be 5b 43 94 3e
       -0.056361716 -0.034510996 -0.18336871 0.28957638
000220 7e b8 e7 3d 49 38 f5 bd 73 d6 83 3d d2 6c 94 3e
       0.11314486 -0.11973626 0.06437387 0.28989273
000230 49 e3 ea bd cf 79 8c be 4e 8e 79 bd ad 1b 11 be
       -0.114691325 -0.27436683 -0.060926728 -0.14170714
000240 9f 17 c0 bd 1d d2 b7 bd 29 6e 6a bd fd 40 0f 3e
       -0.09379505 -0.08975623 -0.057233963 0.13989635
000250 6b 67 ec bd 02 70 33 be b8 24 85 be d7 62 5e 3e
       -0.11543163 -0.17523196 -0.26004577 0.21717392
000260 d9 94 15 3e 00 c6 e5 3c 9d 5b 75 bd 6f 3b a4 3d
       0.14607562 0.028048515 -0.059901822 0.080191486
000270 2b c3 01 3e 11 7a 98 bb 83 2e b3 bd 31 ac 8c 3e
       0.12672107 -0.0046532233 -0.08749106 0.27475122
000280 c8 9d 72 bd 9f 00 b5 3e 79 a8 8e 3e 76 d7 d5 bc
       -0.059232503 0.35352036 0.2786291 -0.026103716
000290 ca 97 47 bd f8 29 72 ba b9 d9 da 3d d2 a6 5d be
       -0.04872874 -0.0009237821 0.106860586 -0.21645668
0002a0 55 cd 10 3e a1 16 d4 bd e9 c1 c2 3d 75 fb 59 3d
       0.14140828 -0.103558786 0.09509642 0.053218324
0002b0 6b 8b 22 3e 63 f4 e8 3c 9c 58 3e 3d b6 3d 10 3d
       0.15873496 0.028436845 0.046471223 0.035215102
0002c0 4b 48 91 bc 72 c4 9f bd b6 33 16 be 31 97 29 3c
       -0.017734667 -0.07801141 -0.14668164 0.010350988
0002d0 6c aa 3d 3d f1 b2 0b be 0e 89 84 3d 1a b9 5e 3e
       0.046305105 -0.1364248 0.064714536 0.21750298
0002e0 d1 d7 c7 bd 58 86 4b 3e 73 aa d4 3d 0c 8e 01 be
       -0.097579606 0.19875467 0.10384073 -0.12651843
0002f0 e8 46 3b bd 9d 40 13 3e 4e dc 5b 3e a4 28 d9 bc
       -0.04572192 0.14380117 0.21470758 -0.026508637
000300 81 ca d4 3d 75 87 12 be ff aa c2 bd 4a 3b 21 3e
       0.10390187 -0.14309485 -0.09505271 0.15745273
000310 17 f3 48 bd 4e 35 db b9 ef 72 07 bd 9c b9 6b be
       -0.049059954 -0.0004181065 -0.033068594 -0.23020023
000320 f9 c5 b2 3c 67 ea 30 3e c6 e6 50 be ea ad 04 bd
       0.021822916 0.17276917 -0.20400533 -0.03239242
000330 5f 37 b5 3c ec 2c de bd 04 63 cf bc c3 c9 92 3e
       0.02212113 -0.10848412 -0.025315769 0.28669557
000340 cd 51 c0 3d fa 95 68 be 4a 0b 17 bc aa e9 a3 bc
       0.09390602 -0.22713462 -0.009219 -0.02000888
000350 9e d0 f9 bc 3a aa d0 3b 29 43 32 3c d8 59 8e 3d
       -0.030494984 0.006367949 0.01088027 0.0695073
000360 9b a0 13 3d 51 91 82 bd 38 02 fe bd 3c 88 32 be
       0.036041837 -0.06375373 -0.12402767 -0.17434782
000370 a3 20 bc bc fd aa e2 bd 69 38 c1 bd f1 50 6e bd
       -0.022964781 -0.1106777 -0.094345875 -0.05818266
000380 c3 0d b0 3c bd 75 c1 3d b5 a3 70 bd f2 37 f7 3c
       0.021490937 0.09446285 -0.058749873 0.030178044
000390 6a 4f 14 bc 7a 77 f1 3b c5 cc 12 3e a3 e7 80 bd
       -0.009052137 0.007368979 0.14335926 -0.06294181
0003a0 f1 0b 6e be fd f1 c4 3c 54 22 18 be da 04 27 3e
       -0.23246743 0.02404117 -0.14856845 0.16310444
0003b0 2b 34 0a be c1 17 d4 bc d1 9f 6e 3d af a6 06 bd
       -0.13496463 -0.025890233 0.05825788 -0.032873806
0003c0 ae 38 7a 3d 3b b1 dd 3d 26 21 c0 bb 22 91 40 be
       0.06108921 0.1082482 -0.0058633266 -0.18805364
0003d0 6c 3f d1 bc 45 67 69 be ef 1d f6 3d 34 8e 21 3d
       -0.025542937 -0.227933 0.12017428 0.039442256
0003e0 ab 57 0f be b5 cb 17 be 11 a9 07 be 97 39 9c 3c
       -0.13998286 -0.14823802 -0.13248087 0.01907043
0003f0 24 64 b6 ba 3e 1f bd bb 13 4b 14 3d 20 38 8d bd
       -0.0013915342 -0.0057715466 0.03620441 -0.068954706

linears.3.bias f4 [50]
000000 fc 21 25 3c 20 f7 03 3c e1 8f 23 bc 7c f6 21 3c
       0.010078903 0.008054525 -0.009983034 0.009885427
000010 99 79 cd bb b2 eb 24 3c 38 2f 23 bc 80 cd 25 3c
       -0.006270599 0.01006596 -0.009959988 0.010119796
000020 9c f8 23 3c df d2 23 bc b7 4b 24 bc ba 2e 25 bc
       0.010008004 -0.009999006 -0.010027817 -0.010081941
000030 57 24 15 bc eb 76 ad bb 89 6c 11 bc d3 f8 23 3c
       -0.009102902 -0.005293717 -0.008875974 0.010008055
000040 27 8f dd 3b 3f bc 17 bc 3a b4 f8 bb a8 82 1a bc
       0.00676145 -0.00926119 -0.007589844 -0.009430565
000050 42 fd 1c bc cd 31 21 3c 9a 7f 1a 3c 32 f8 22 bc
       -0.009581866 0.009838534 0.009429837 -0.00994687
000060 6d a1 1e 3c d0 a9 1d bc 35 83 24 bc 03 42 1a 3c
       0.009682042 -0.009623006 -0.010041048 0.0094151525
000070 f1 79 1f bc 66 1b 08 bc 49 47 18 3c e4 4f 1e 3c
       -0.009733663 -0.008307314 0.009294339 0.009662602
000080 36 6e 22 bc 3a d9 16 bc ec 67 12 bc 65 02 1d 3c
       -0.009913972 -0.009207064 -0.00893591 0.00958309
000090 80 cb 23 3c c7 46 1d 3b c8 51 fb 3b 43 63 25 3c
       0.009997249 0.0023998485 0.007669661 0.010094467
0000a0 77 77 17 bc 93 8b b9 3b cf 56 25 3c ce 8b d7 3b
       -0.009244791 0.0056623905 0.010091498 0.0065779453
0000b0 38 85 17 3c b4 56 1f 3c 77 e0 1d bc 99 a4 9f bb
       0.00924807 0.0097252615 -0.009636036 -0.0048719165
0000c0 0b af 14 bc 4b 90 22 bc
       -0.009074937 -0.009922097

linears.4.weight f4 [3, 50]
000000 c7 51 a9 3e 93 04 98 3d 39 39 f8 bd f9 32 9d 3d
       0.33070204 0.074227475 -0.12120289 0.07675738
000010 bb 04 12 3d 40 5d 6c 3e 66 1b 25 be 5e dd 9a 3e
       0.035649043 0.23082447 -0.16123733 0.30247015
000020 82 97 ca 3d 50 45 80 be c4 33 de bd ac 3b ab be
       0.09892179 -0.2505288 -0.10849717 -0.33443964
000030 e3 b3 aa bd db db 3b bc a5 9a 2b be f4 04 21 3e
       -0.08335092 -0.011465992 -0.16758211 0.15724546
000040 86 09 8e bc 14 db 80 be 4f 4b ca 3c e7 78 57 be
       -0.017338526 -0.25167143 0.024694113 -0.21042214
000050 c9 40 6d be 09 5f 57 3e f4 b4 24 3d 31 14 55 bd
       -0.23169245 0.21032347 0.040211633 -0.05202121
000060 a3 5e d0 3b 0f 22 a2 be 48 22 35 be ba e8 3e 3e
       0.006358938 -0.3166661 -0.17688859 0.18643466
000070 69 fb 79 be 9b 72 68 bd a0 42 75 3e 08 e9 8c 3e
       -0.24412312 -0.05674992 0.23951197 0.2752154
000080 eb 86 8d be 47 fc 8f be 1c 9b 0b be 58 86 ad 3e
       -0.27641997 -0.2812216 -0.13633388 0.3389156
000090 9b 90 80 3e f9 c4 ac bd 58 df 5e 3c 12 74 45 3e
       0.25110325 -0.08436007 0.013603054 0.19282559
0000a0 96 64 a9 be 79 73 1f bc cf 04 66 3d bf 83 19 bd
       -0.33084553 -0.009732121 0.05615693 -0.03747916
0000b0 24 b5 c0 3d 12 e4 96 3e 51 46 0f bf 60 cf 79 bb
       0.0940955 0.2947088 -0.5596667 -0.003811799
0000c0 bb 37 ad bd 18 3f c7 be 7e 87 35 bd cd 47 92 3e
       -0.08457895 -0.38915324 -0.04431867 0.28570405
0000d0 e9 7a 59 bd 94 01 95 3b ab 15 17 be c4 39 ed bd
       -0.053095732 0.0045473073 -0.1475436 -0.115832835
0000e0 e6 b3 c5 3d 0a 98 5f be c3 c1 9d bd 50 41 be 3e
       0.096534535 -0.21835342 -0.07702973 0.37159204
0000f0 f7 62 92 3e 59 c3 3c bd 8c 62 17 be a6 5a ac 3b
       0.2859113 -0.046084736 -0.14783686 0.0052598296
000100 93 77 8a be 2a 44 1b bd 3d 98 09 3e 61 35 1e be
       -0.27044353 -0.037906803 0.1343698 -0.1545005
000110 03 df f4 3d 74 24 9f 3d 79 2a c5 bd f6 3e 22 bd
       0.119565986 0.07770625 -0.09627242 -0.039610825
000120 30 79 ce bd a6 11 8a 3e 23 82 7a be b5 26 f5 3d
       -0.100817084 0.2696659 -0.24463706 0.119702734
000130 a4 23 e1 bc 7c c7 d0 be cb f6 8d 3e db 27 ee bd
       -0.027482815 -0.40777194 0.2772735 -0.116286956
000140 6a 9e d4 3c eb ff a3 bd d3 9e 15 3e ca 84 80 be
       0.025954444 -0.08007797 0.14611368 -0.2510131
000150 de e5 66 be a6 cd 72 3d d1 70 5c be 3a 06 8d 3d
       -0.22548625 0.059278153 -0.21527411 0.06885953
000160 d0 66 21 3d 3c b7 b4 bd 68 75 aa be 21 05 fa 3d
       0.03940469 -0.08824012 -0.332927 0.122080095
000170 d5 9f 75 be 45 4f 27 3e 56 31 fd 3c 4c 46 8c bd
       -0.23986752 0.16338833 0.030907314 -0.068493456
000180 84 c5 15 3e 6b 02 37 be ec 49 92 bd 55 00 cd bd
       0.14626127 -0.17872016 -0.07143006 -0.10009829
000190 12 b9 72 be 76 84 a8 3c 00 46 ec 3d 68 78 f4 bc
       -0.23703411 0.020570975 0.11536789 -0.02984257
0001a0 40 28 b0 be 5a 60 e6 bd 3c 1e 5f 3e da 7c 46 be
       -0.34405708 -0.11248846 0.21788877 -0.19383565
0001b0 c9 05 b2 bc 97 dd 27 bd 60 64 1d bd 9a 10 91 3e
       -0.021731274 -0.04098281 -0.038425803 0.28332978
0001c0 b8 a9 85 3c 8c 7b e0 3c 07 6a bb bd 47 43 92 bd
       0.01631628 0.027402662 -0.091510825 -0.071417384
0001d0 a0 9e 8a 3e bf fb cc bd 39 96 e5 bd 09 d8 1b be
       0.27074146 -0.10008954 -0.11210293 -0.1521913
0001e0 ec ca f9 3c ce 39 5a bd 9f 9a a4 3d a8 69 a6 bd
       0.030492269 -0.053277783 0.08037304 -0.08125621
0001f0 cf d2 02 3e fc 4e d1 bd 14 93 17 3e b6 da ca 3e
       0.1277573 -0.10220143 0.148022 0.39619988
000200 ab cb 11 be 8e fb 21 be 09 d5 25 3e d6 df 58 3d
       -0.1423785 -0.15818617 0.16194548 0.05294784
000210 42 75 2d 3d e5 19 e3 bd fc 91 05 bd 4c 4c 3c 3c
       0.042348154 -0.11088923 -0.032609925 0.0114928
000220 23 d4 82 be 9d ad 5f 3e 6d 59 a4 3e d6 56 41 be
       -0.25552472 0.21843572 0.32099476 -0.18880782
000230 59 09 8c bd 8c fa b2 3d 52 a2 21 3c a5 42 e5 3e
       -0.068377204 0.08739194 0.00986536 0.44777408
000240 81 6c 73 3d b3 2f 56 3c 98 7c 07 be fe c8 43 bd
       0.05942965 0.013072896 -0.13231122 -0.047799103
000250 99 c8 47 bd 0d f2 4f 3e
       -0.04877529 0.20307179

linears.4.bias f4 [3]
000000 52 9a 1e 3c 15 30 23 3b 9c ef f9 3b
       0.0096803475 0.0024900485 0.0076274406

exp_avg f4 [50, 2]
000000 f7 2c 0a 3c 86 e9 70 bc f9 45 08 bd 06 b3 04 bd
       0.008433572 -0.014704114 -0.033269856 -0.032397293
000010 e1 9e cd 3c b0 af 3f 3c f9 96 81 3c 24 23 23 3c
       0.025100173 0.011699602 0.01581906 0.009957109
000020 e6 1d 18 3d 03 bd 98 3c e9 1d 8a bc f0 63 0a bd
       0.03713789 0.018644815 -0.016859965 -0.033786714
000030 5e 5e 19 3c 8e 50 d3 3c 9d 6f 8f bb 30 62 c4 3c
       0.009360878 0.025795247 -0.004377319 0.0239726
000040 59 37 e0 bc 1a 6e dd bb 23 37 2d 3c d3 82 46 3a
       -0.027370142 -0.00675751 0.010572228 0.0007572595
000050 b0 6b 85 b9 33 73 15 bd 31 74 97 3c 82 41 dd bb
       -0.0002544797 -0.036486816 0.018488022 -0.006752194
000060 3e 76 26 3c 9e ea b2 3c b6 6c eb bc b0 8b 5c bc
       0.010160027 0.02184039 -0.02873836 -0.0134610385
000070 be e7 85 bb c1 70 36 3d 7d 85 8a ba 46 8d 0a bc
       -0.0040864637 0.044541124 -0.0010568347 -0.008456534
000080 db 08 2f bd 8e 1b 81 3d 65 dc 2d bc fe 32 d8 3a
       -0.042733055 0.06304084 -0.010611628 0.0016494689
000090 a0 73 0f 3d c4 bf b7 bc 52 2f 30 3b 42 49 bd bc
       0.035022378 -0.022430308 0.0026883674 -0.023106221
0000a0 7f 53 e0 3c c9 0c 1b 3d 9c b6 63 3c ed b5 36 3c
       0.027383564 0.03785399 0.013898518 0.011151773
0000b0 0a b0 d4 3c 9c e4 c5 3c 0c 8c 2e bc 15 a8 07 3c
       0.025962848 0.024156861 -0.010653507 0.00827982
0000c0 77 88 62 3c 92 9e 73 ba ba 66 cf bb b4 b8 77 bc
       0.013826481 -0.0009293343 -0.0063293846 -0.01511972
0000d0 55 34 60 3d 8b 0d 03 3d f7 09 cb 3c fd a4 66 3c
       0.054737408 0.031995337 0.024785025 0.014077422
0000e0 64 13 23 bd 51 f1 1f bc 6a b5 e7 3b 8b c8 0f ba
       -0.039813414 -0.009762124 0.007071187 -0.00054849003
0000f0 71 c9 3e 3c d6 97 b5 3c 57 c0 7b bc d5 47 24 bd
       0.011644707 0.022167128 -0.015365682 -0.040107567
000100 e7 fe b7 bb ea b8 5e bc 32 59 be 3c 93 5d e7 3c
       -0.0056151035 -0.013593892 0.023235891 0.028242862
000110 33 29 96 3b 9a f1 ca bc af 22 1d 3d 84 ad f9 bb
       0.004582548 -0.024773408 0.038363155 -0.0076195616
000120 e5 91 e2 3a c8 f2 00 3c 5d 3b 13 3d b5 0b 35 3c
       0.0017285912 0.007870384 0.035945285 0.011050154
000130 23 00 90 ba a8 c0 9e bc 88 41 57 3c 15 15 3e 3c
       -0.0010986369 -0.019378975 0.013138182 0.011601706
000140 76 e3 99 bc 34 46 1d 3d 7b 3a 8a bc 73 61 57 bc
       -0.01878522 0.03839703 -0.016873589 -0.013145792
000150 c2 15 68 3c e3 44 da bc 23 ad ac 3c e1 e0 71 bc
       0.014165344 -0.026644176 0.021078652 -0.014763088
000160 8f e3 e3 3c 91 f3 85 3b b2 56 f2 bc 0f 1b 0b 3b
       0.02781847 0.0040878733 -0.029582355 0.0021225845
000170 fe 45 a2 bc 31 57 2b 3d 4a 49 c6 bc 06 35 be 3a
       -0.019808766 0.0418312 -0.024204869 0.0014511652
000180 08 de db 3b e4 10 1f bc a5 85 b5 bb 8d 2a 54 bc
       0.006709818 -0.009708617 -0.0055396133 -0.012949598

exp_avg_sq f4 [50, 2]
000000 45 71 da 38 fe 56 2c 37 c4 01 89 38 49 7b 80 39
       0.00010416148 1.0272253e-05 6.532998e-05 0.00024505917
000010 cd 51 82 39 3c bf 80 38 05 6b 25 37 39 5a c5 37
       0.0002485648 6.139136e-05 9.859684e-06 2.3526243e-05
000020 29 3b 63 38 b1 ee 1e 39 fe 3c 6d 38 76 22 e5 39
       5.4176115e-05 0.00015156974 5.6562007e-05 0.0004370396
000030 8e 77 89 39 4a 8d a4 37 8c a8 63 36 47 0c 0b 38
       0.0002621975 1.9616116e-05 3.3923743e-06 3.3151617e-05
000040 85 35 db 37 5d 04 4e 38 02 e1 12 38 50 94 88 36
       2.6131756e-05 4.911829e-05 3.5018667e-05 4.0703817e-06
000050 51 41 59 38 44 c9 74 39 61 a9 d4 38 5c 57 af 39
       5.1797662e-05 0.0002334463 0.00010140497 0.0003344369
000060 f3 65 05 3a 45 d5 de 37 6e ed 15 39 99 fa 04 39
       0.0005088739 2.6563774e-05 0.00014298197 0.00012681856
000070 2c 2c b6 36 74 2a bd 39 04 5a 22 39 91 04 89 37
       5.429165e-06 0.0003608052 0.00015483057 1.6333799e-05
000080 d5 6f af 39 3e fa 3d 3a 71 a5 5c 3a ee 5b 19 39
       0.00033461922 0.0007247067 0.00084169867 0.00014625464
000090 b5 30 c9 39 1a 99 03 38 bb fe 19 3a 0b 1a e9 37
       0.00038373997 3.137542e-05 0.00058744446 2.7787892e-05
0000a0 d9 f1 2c 39 d3 11 a3 39 b3 be 23 3a 4d 31 6d 38
       0.00016493294 0.00031103063 0.0006246373 5.6551118e-05
0000b0 b3 61 01 38 84 b9 33 38 34 6f d7 38 08 57 13 37
       3.0846986e-05 4.28497e-05 0.00010272712 8.782146e-06
0000c0 b2 f2 c5 37 76 5f 20 38 6f 66 da 37 df 76 e6 37
       2.3597244e-05 3.8235878e-05 2.6035324e-05 2.747349e-05
0000d0 13 04 56 39 8d 48 27 39 a9 cf ae 38 9c 82 81 37
       0.00020410148 0.00015953388 8.335646e-05 1.5438818e-05
0000e0 93 16 20 39 d7 8e 50 38 2c 41 7c 3a 70 45 17 38
       0.00015267199 4.9724094e-05 0.00096227485 3.6065874e-05
0000f0 e2 60 c5 38 a0 62 41 37 32 70 0e 39 74 be da 39
       9.411738e-05 1.1526659e-05 0.00013583971 0.000417221
000100 fc e1 39 39 31 a6 56 38 d6 6b 00 38 56 db 02 3a
       0.0001772716 5.1176354e-05 3.0618008e-05 0.000499179
000110 b4 fa b0 39 9b 4e 8f 37 1e 5d ae 39 52 ab 33 38
       0.00033756124 1.7083532e-05 0.00033257244 4.283648e-05
000120 e7 9e fb 36 79 41 af 38 fe d3 e0 39 e1 94 54 37
       7.4988816e-06 8.3568455e-05 0.00042882556 1.2670848e-05
000130 de 26 b3 3a 62 a6 05 39 fc bf b4 38 a1 10 a5 39
       0.00136682 0.00012745851 8.618829e-05 0.00031483642
000140 3d 0a 07 38 d8 cb 24 39 0d e6 2a 39 d4 78 e2 37
       3.2196043e-05 0.00015716197 0.00016298164 2.6997564e-05
000150 f5 33 bc 3a a4 fa 90 38 1e 9a 9b 37 72 07 31 38
       0.0014358746 6.9131405e-05 1.8549206e-05 4.2207022e-05
000160 8c c3 93 38 ea c0 0b 38 0c 81 b2 3a 64 e2 0b 38
       7.04593e-05 3.3319848e-05 0.0013618781 3.3351025e-05
000170 04 92 64 3a e5 f8 6e 39 20 59 f7 37 27 e1 37 38
       0.0008719268 0.00022790169 2.9486197e-05 4.384029e-05
000180 b4 4b 39 3a fc c5 bc 36 b6 ad 2e 3b 6c af 06 39
       0.00070684706 5.625885e-06 0.0026653833 0.00012844586

exp_avg f4 [50]
000000 47 76 08 3e cf 7e e9 3e 3e 61 d5 3d b2 7e 06 be
       0.13326369 0.4560456 0.10418938 -0.13134268
000010 43 10 3b be b2 ed e2 3e f4 b5 3e 3b 98 9f 22 be
       -0.18267922 0.44321972 0.0029100152 -0.15881193
000020 12 d5 9a bd 56 b8 bf bd 27 94 1d 3f 71 6a e9 3e
       -0.07560171 -0.09361331 0.6155419 0.4558902
000030 50 ad 56 3d ad bd 49 3e 17 68 15 bf 35 0e c0 3d
       0.052411377 0.19701262 -0.58361953 0.0937771
000040 4f 56 0a bf 17 f8 91 3d de 27 f0 bd 0f c6 85 be
       -0.54037946 0.071273975 -0.11726354 -0.2612767
000050 91 c0 9f be 55 f9 8e 3d fb 34 47 be 27 94 2d be
       -0.31201604 0.0698115 -0.19453804 -0.16951047
000060 26 54 39 3e a4 1c 21 3e 56 27 9a be f4 77 82 bd
       0.18098506 0.15733582 -0.30108136 -0.063705355
000070 4f bd bb 3e 02 9d 5f 3e 25 11 f9 3c c4 05 03 3f
       0.36667868 0.21837237 0.030403683 0.5118067
000080 0f ad 9e 3e cd ba 9d be ab 19 9e 3e 2e 9a 1a 3e
       0.30991408 -0.3080658 0.30878958 0.15097877
000090 54 ef be bc 9d 29 88 3e 5b b3 03 3e ba 6c e2 be
       -0.02330748 0.26594248 0.12861387 -0.44223577
0000a0 ef a8 59 be e1 b3 be 3d 8d ea 00 bd 73 35 9d 3e
       -0.2125585 0.09311653 -0.031473685 0.3070484
0000b0 dc f9 1c be 65 e6 88 be 65 e8 18 bf 8d 1a 9d 3e
       -0.15329689 -0.26738277 -0.59729606 0.3068432
0000c0 c0 01 37 be 94 05 82 3e
       -0.17871761 0.2539488

exp_avg_sq f4 [50]
000000 2e 74 e5 39 de 89 b2 3b 5a a5 89 39 25 9f de 39
       0.00043764844 0.005448564 0.00026253873 0.00042461712
000010 40 8b 6a 3a aa 73 ac 3b 59 ec a7 36 0d 9b 13 3a
       0.00089471415 0.0052628117 5.0045023e-06 0.00056307093
000020 0b e3 35 39 36 a0 8a 39 cf 58 2c 3c dd c0 a5 3b
       0.00017346085 0.00026440778 0.0105192205 0.0050583915
000030 5a 10 81 38 51 42 9c 3a d0 52 0c 3c 77 1d 84 39
       6.154245e-05 0.0011921619 0.008564666 0.00025198955
000040 8d 8c fb 3b 18 df 45 3a 96 ca c7 39 14 8a e5 3a
       0.007676667 0.0007548197 0.00038107176 0.0017512464
000050 c5 1f 2e 3b 3a 20 6f 39 e3 8a 81 3a 4e cd 24 3a
       0.002656923 0.00022804821 0.000988331 0.00062866963
000060 da e0 73 3a 58 d6 21 3a 16 07 31 3b d0 6e 35 39
       0.000930322 0.00061736023 0.002701228 0.00017302786
000070 d3 29 5a 3b a4 e2 8f 3a 06 77 00 38 ea 80 de 3b
       0.003328909 0.0010977578 3.0628427e-05 0.00679027
000080 c8 f0 45 3b 55 c2 17 3b 37 5c 4b 3b 5d 64 45 3a
       0.0030203331 0.0023156602 0.0031030306 0.0007529909
000090 fb da 2f 38 46 1e e2 3a 37 58 87 3a 37 22 a9 3b
       4.1927193e-05 0.0017251454 0.0010325973 0.0051615494
0000a0 1a dc 82 3a f1 7f 85 39 00 a1 2e 39 43 c5 21 3b
       0.0009983808 0.0002546306 0.0001665391 0.0024684228
0000b0 32 99 49 3a 89 02 de 3a 2f a8 06 3c 7f 08 2c 3b
       0.00076903694 0.0016938011 0.008218809 0.0026250181
0000c0 fc c8 59 3a 06 8e 81 3b
       0.0008307842 0.003953698

exp_avg f4 [50, 50]
000000 66 87 98 bb 9c b7 9f bb e5 aa 98 ba 95 1d 0e bb
       -0.0046548126 -0.004874183 -0.001164761 -0.0021685113
000010 ac 56 aa bb 6a 46 be 3b 22 fb 9a 3c cc f7 bd 3c
       -0.0051983204 0.005806734 0.018918578 0.023189448
000020 21 47 50 bc 03 24 b7 bb 47 59 34 bc 65 fe 43 3c
       -0.012712271 -0.0055890097 -0.0110076135 0.011962508
000030 df e3 96 3c c2 99 d5 3a dd 20 17 3c 13 c0 99 bc
       0.018419204 0.0016296434 0.009224144 -0.018768346
000040 f8 7d 4b 3b a5 26 cf 3b 49 38 ba 3b 3b a8 9e bb
       0.0031050425 0.0063217455 0.0056829792 -0.004841832
000050 e0 55 24 ba ce fa c6 bb a9 95 67 3c 40 8f 22 3b
       -0.00062689 -0.0060723787 0.014134803 0.0024804622
000060 d7 1a 40 3c fc ba 21 39 66 14 21 bb 9e e1 5d 3c
       0.011725149 0.00015423814 -0.0024578809 0.013542561
000070 ff d4 d0 bb 53 1b 92 3a 2f 2f f3 3b 2e 90 95 bb
       -0.0063730474 0.0011147059 0.007421396 -0.0045643067
000080 5f 38 3d 3c 6e f7 c2 3b 91 4b 6e bc f2 94 04 39
       0.011549084 0.005949906 -0.014544384 0.00012643987
000090 28 11 1c bb e2 ba 33 3c cc 22 4b 3c a9 05 1d bc
       -0.0023813937 0.010969849 0.012398433 -0.009583869
0000a0 9f f1 02 3c 56 14 83 bc 48 86 a4 3a e4 72 a3 b9
       0.007992177 -0.016000908 0.0012552226 -0.00031175383
0000b0 6c 8d a5 3a d5 46 11 3c d9 56 ec 3b ae d1 1f bc
       0.0012630648 0.008866985 0.0072125015 -0.009754581
0000c0 af f5 c1 bc 1b d7 bd 3b 21 b7 03 3b 18 7e 06 3a
       -0.023676721 0.005793465 0.0020098167 0.0005130484
0000d0 10 0d ab 3a f1 43 d6 ba 49 5d a6 ba a3 99 b7 3a
       0.0013050158 -0.0016347152 -0.0012692596 0.0014007579
0000e0 c4 0e a8 3b d4 91 ca 3b 2d 2a 54 bb ba 51 0f ba
       0.0051287133 0.006181935 -0.0032373772 -0.00054671953
0000f0 7e f7 19 3a cd a5 04 3c d4 d3 63 3b df 3c aa ba
       0.0005873366 0.008096171 0.003476371 -0.0012988112
000100 6b 2f 91 ba 78 87 59 bb 1f 27 03 bb 3d 20 71 3a
       -0.0011076754 -0.0033192318 -0.0020012332 0.0009198224
000110 ad cb 71 3b 0b dd 2e ba 0f 9c 55 b7 a0 f4 04 b9
       0.0036895082 -0.0006670511 -1.2732125e-05 -0.00012679631
000120 74 55 79 39 c6 bd 32 bb ba 05 e1 3a 2d 77 cc 3a
       0.00023778324 -0.0027273758 0.0017167844 0.0015599482
000130 5e 66 c7 3a 90 59 53 3a 9e 6a be ba a8 94 9e 3a
       0.0015213003 0.0008062357 -0.0014527624 0.0012098746
000140 ab 5c 2f 3b 47 e8 a8 3a 52 ee 76 3b 0d 09 1d 3a
       0.0026758115 0.0012886607 0.003767867 0.00059904234
000150 77 72 09 ba 87 92 07 3b b2 9b 8b ba 08 e3 3b 3b
       -0.0005243192 0.0020686702 -0.0010651259 0.0028669257
000160 e0 d6 48 3b aa a1 8e ba 21 cd bb ba a2 af 5f bb
       0.0030645654 -0.001088192 -0.0014328101 -0.0034131785
000170 75 a1 86 3a 1c 74 f3 3a d7 12 b3 ba 38 3c 25 ba
       0.0010271507 0.0018574032 -0.0013662231 -0.0006303224
000180 39 80 f6 ba 75 ef dd 39 12 89 b7 bb e5 19 55 3b
       -0.0018806524 0.00042330814 -0.005601057 0.0032516655
000190 f7 31 03 bc 40 89 cb bb e8 0d 09 bb bf 2c 42 bb
       -0.008007518 -0.00621143 -0.002091283 -0.0029628722
0001a0 59 3d f3 bb 02 4d fa 3b 34 9c e0 3c 62 d2 14 3d
       -0.0074230847 0.0076385746 0.027418233 0.03633345
0001b0 03 ee 89 bc fa 24 1d bc 02 1d 89 bc fd 71 89 3c
       -0.016837126 -0.009591335 -0.016737465 0.016777987
0001c0 bc dd e0 3c c7 a4 6c 3b 11 49 6f 3c ff 33 da bc
       0.027449481 0.0036108957 0.014604823 -0.026636122
0001d0 85 7b b4 3b f6 45 0f 3c 52 b4 da 3b 3f 21 0d bc
       0.0055078887 0.008744707 0.006674328 -0.0086138835
0001e0 12 bf e5 ba b2 45 0f bc fb 3e a2 3c e2 5e 8b 3b
       -0.0017528257 -0.008744644 0.019805422 0.0042532543
0001f0 1e 41 90 3c ae d0 1f b9 b5 c4 a0 bb 1b 28 a0 3c
       0.017609175 -0.00015241161 -0.004906262 0.019550374
000200 53 a5 f5 bb 14 63 f3 3a dc 01 22 3c e3 84 d2 bb
       -0.007496515 0.0018568956 0.009888139 -0.0064245327
000210 55 b3 72 3c 7b 98 f6 3b 14 fd b7 bc 82 42 7d ba
       0.014813264 0.0075255013 -0.022459544 -0.00096610945
000220 13 71 54 bb 1d e9 74 3c bf 5a 84 3c 3a 6c 7a bc
       -0.003241603 0.014948157 0.016156552 -0.015284592
000230 d0 c8 50 3c e7 74 b6 bc 5d 5c a2 3a 59 67 ae ba
       0.01274319 -0.02227254 0.0012387146 -0.0013305946
000240 dc 28 f2 3a f7 d7 4f 3c 5d a2 2f 3c 0c 84 50 bc
       0.0018475312 0.012685767 0.010719863 -0.012726795
000250 a0 fb 0e bd e4 3d cf 3b e5 0b 55 3b 26 cd 81 ba
       -0.034907937 0.0063245166 0.003250831 -0.0009903058
000260 13 5a e7 3a 97 51 18 ba d7 63 ae 39 d6 3a d4 39
       0.0017650746 -0.00058104977 0.00033262253 0.00040479627
000270 95 4e 25 3b d4 80 ea 3a 6f 0f 30 bb 65 06 38 3b
       0.002522384 0.0017891177 -0.0026864668 0.0028079983
000280 b9 65 1e 3b 05 6c d6 3b 9a 1f b2 ba 1d cf 84 bb
       0.0024169518 0.0065436387 -0.001358974 -0.00405301
000290 85 0d 54 bb 50 ae b0 ba c1 cb 2c bb 40 b3 01 ba
       -0.003235669 -0.0013479684 -0.0026366564 -0.000494767
0002a0 ff 30 b3 3b 41 38 2f 3b 76 94 0f 3b 45 42 aa 3a
       0.0054684873 0.002673641 0.0021908558 0.001298972
0002b0 35 5b c0 b9 9a a5 56 bb 0f 66 d7 ba cb 43 63 3a
       -0.00036689048 -0.0032752515 -0.0016433614 0.0008669465
0002c0 1b a0 93 3b cd b8 a3 39 3d 21 69 bb 73 44 db 39
       0.00450517 0.0003122747 -0.003557279 0.00041821934
0002d0 c4 6b 0a 3b 68 11 1c 3a ec d0 70 3b 35 fd 15 3b
       0.0021121362 0.00059535215 0.003674562 0.002288652
0002e0 f1 81 44 3b 4c f1 1c 3b 65 75 b6 b7 cc cb f8 3a
       0.0029984678 0.0023947535 -2.1750757e-05 0.0018981635
0002f0 b2 0e 35 3b ae b2 3b 3b 8d 32 53 bb f5 c2 27 bb
       0.0027627167 0.0028640437 -0.0032226176 -0.0025598381
000300 be 72 5e 3a 47 9b f0 3a 9f c2 fb b9 10 f8 dd ba
       0.0008485726 0.0018356823 -0.00048019455 -0.001693489
000310 e3 a5 38 bb a0 ee 49 ba ed b9 0c ba be 3c 82 3b
       -0.0028175048 -0.00077030994 -0.0005368281 0.003974526
000320 60 4a c3 39 ef 4b ce 3a d6 df 21 b9 88 ef 0a 3a
       0.00037248712 0.0015739183 -0.00015437542 0.0005299975
000330 d8 7a 85 3a e2 17 b3 ba 70 52 a2 bb 36 a7 be bb
       0.0010183705 -0.0013663734 -0.004953675 -0.005818273
000340 a4 5b 6c 3b 5a 38 f0 39 d5 7d 05 3b 99 dc 88 bb
       0.0036065364 0.00045818352 0.0020369191 -0.004176688
000350 e4 2b 74 bb 58 31 42 3a 4a bb b7 ba 8b 80 99 3b
       -0.0037257606 0.00074078655 -0.0014017608 0.004684513
000360 4d 2f 39 b9 a4 d2 a5 ba a9 d4 31 bb 3f af 98 39
       -0.00017660596 -0.0012651277 -0.0027134812 0.00029122268
000370 f9 0a 10 ba 52 c2 88 3a 6c 6c 5a bb 44 52 10 39
       -0.0005494799 0.0010433889 -0.0033328785 0.00013763556
000380 63 5b 0f bb 18 1d f9 b8 1e f8 2a ba f6 1c 60 bb
       -0.002187454 -0.000118786644 -0.00065219577 -0.003419695
000390 04 13 25 3b b3 ab 93 b9 68 bc 10 bb 82 31 8e 3a
       0.0025188336 -0.0002816595 -0.0022084955 0.0010848495
0003a0 38 8a 69 bb 23 d6 0b bb 3f 67 2c 3b 5d f0 0a ba
       -0.0035635363 -0.0021337352 0.0026306657 -0.0005300099
0003b0 69 de ee 39 a3 13 44 bb cd 0d 69 bb 50 79 b2 3a
       0.00045560606 -0.002991893 -0.0035561204 0.0013616476
0003c0 b2 dc 94 ba 35 77 8f 3b 44 0d e5 b9 0b 27 8e b9
       -0.0011357276 0.0043782243 -0.00043688167 -0.0002711344
0003d0 1b 8b a8 b9 d5 07 dd ba 87 c7 8c ba 47 ba 2e 3b
       -0.000321471 -0.0016863296 -0.0010740616 0.0026661323
0003e0 69 43 b2 3b e4 8a 15 bb 2d 76 82 3a e4 41 d9 b9
       0.005440165 -0.002281838 0.0009953432 -0.00041438558
0003f0 b0 2d 3f 3a 65 65 f4 37 34 9f f5 39 4e b7 ae b9
       0.000729288 2.9134282e-05 0.00046848657 -0.0003332444
