models/onlyadam_10e/ckpt/ckpt-200.pt (torch, 106775 bytes, 30 tensors)

linears.0.weight f4 [50, 2]
00000000: a851 80bd 7def 3c3e aaed 723d d459 2e3d
00000010: 4ee2 89be a31e 93be 6b9c 4b3e ad8d 29bd
00000020: a727 d23d 6914 e53d f5ca 20be 4c5b a73c
00000030: 90ea a43e c612 823d e621 0cbd 1703 39be
00000040: a5c7 e1be 28a9 6c3e b25f ca3e 0993 803c
00000050: d277 36be 5e56 83be a0f9 8d3e f6eb 733d
00000060: 802e 983e c344 d93e ad09 403e 768c 113e
00000070: 181a 69bd e117 003f d02d 9e3d 993c ad3e
00000080: e92a 343c 7141 173e 580a ee3e 9730 c83e
00000090: bc18 813d f2fe 09bf 67c6 2e3e d876 8b3e
000000a0: f722 a4be bb38 2cbe c29d ae3c dc3d 3b3d
000000b0: bd3e 303e 7102 b73d 0ff7 93be d652 7fbd
000000c0: 8373 40bd b467 483d c1a1 d3be d929 84be
000000d0: f8e3 9f3e 26a7 5e3e 73bc 4d3e 96aa 793c
000000e0: cf3e 1f3c 6d9a 783e 1bdb 0dbe cc09 df3c
000000f0: 143a cdbd f24b 8bbd b251 ccbc 61cd 303d
00000100: 74fe f13e db2a 6d3e d7ae d03d ff25 f9bb
00000110: 48a4 b13e 266f e7bd 6203 6dbe a8b3 b8be
00000120: df14 003e 6704 9fbe a378 6bbd 26ee 0f3e
00000130: 6313 11bf 933e 413e de44 79be 9545 50be
00000140: 0a24 a3bd 30fc c83e 6ce2 17be 7491 4fbe
00000150: b442 ba3c 5976 e93e 08a6 ae3d c2d6 39be
00000160: c041 bb3d 8e8c a2bd 3ed0 1e3e b2f1 823d
00000170: e336 09be 8475 8dbd 60ed 803d 7d4c a83e
00000180: 6daa 1c3e c3dd a83d 5e30 073e b5fa 943d
-0.06265575 0.18450733 0.059308685 0.042566136 -0.2693047 -0.2873431 0.19883887 -0.04139488
0.10261469 0.111855336 -0.15702422 0.020429276 0.32210207 0.06351237 -0.034212016 -0.18067585
-0.4409763 0.23111403 0.39526135 0.015695112 -0.17819145 -0.2565183 0.2772951 0.0595512
0.29722977 0.42435274 0.18753691 0.14213738 -0.05690965 0.50036436 0.07723582 0.33835295
0.010996559 0.14771058 0.46492267 0.3909957 0.06303546 -0.5390464 0.17067872 0.27239108
-0.32057926 -0.16818516 0.02131546 0.04571329 0.17211433 0.089360125 -0.28899428 -0.062334858
-0.04698516 0.048927024 -0.41334346 -0.25813177 0.31228614 0.2174345 0.20091419 0.015238425
0.009719565 0.24277659 -0.13853113 0.027226351 -0.10020843 -0.06801595 -0.0249413 0.043164615
0.47264445 0.2316088 0.10189598 -0.0076034064 0.3469565 -0.11300497 -0.23145822 -0.36074567
0.12507962 -0.31058046 -0.057488095 0.1405569 -0.56670207 0.18871526 -0.24342677 -0.20339043
-0.07965858 0.39254904 -0.14832467 -0.2027033 0.022736885 0.45598105 0.08527762 -0.1814833
0.091434 -0.07936965 0.15509126 0.06393756 -0.13399844 -0.0690718 0.06295276 0.32870856
0.15299387 0.08245423 0.13202044 0.07274381

linears.0.bias f4 [50]
00000000: fee2 01bb bfbd 193d 8fa5 6ebd f42c bc3c
00000010: e6ce 073d 6af7 f63c f1ba 8bbc ad8f b0bc
00000020: 8d94 f4bc 3eaa 22bd e5c0 e13c 26ff ebbc
00000030: b773 1e3d 4699 fb3c 55a2 673d aef8 4b3d
00000040: 0780 f93b c1d6 193d fbab ecbd f64e 043c
00000050: 95d7 f63c f673 93bd 8cd8 ecbc afa4 12bd
00000060: ae0b 1f3d 47dc 593c e378 523d 5397 85bd
00000070: 6d1b ea3c e271 febc 0fc2 e9bc d786 6f3d
00000080: 3282 a13c b52f 2ebd ddaf 853c 7438 0ebd
00000090: da3b b4bb 2eda df3c 03a6 bc3b 852e 1ebc
000000a0: beaf 313c c2ba f2bb 76d2 463c ed85 2fbd
000000b0: 3338 df3b c97d 67bc dbd4 10bd a014 ee3c
000000c0: e180 de3c b16d 1d3d
-0.0019819136 0.03753447 -0.058263358 0.022970654 0.033156298 0.030147273 -0.017056914 -0.021552885
-0.02985599 -0.039713137 0.0275578 -0.028808188 0.038684573 0.030712735 0.056551296 0.049797706
0.007614139 0.03755832 -0.1155624 0.008075466 0.030132094 -0.07199852 -0.028911851 -0.035801586
0.038829498 0.013297147 0.051384818 -0.065230034 0.02857753 -0.031060163 -0.028534917 0.058478203
0.019715402 -0.042525966 0.01631921 -0.034721807 -0.005500299 0.027325716 0.005757095 -0.009654646
0.010845123 -0.007407517 0.012135139 -0.04285233 0.0068121194 -0.014129111 -0.035359245 0.02906257
0.027161064 0.038434688

linears.1.weight f4 [50, 50]
00000000: 09bc 323e d484 3d3d 80e9 48bc cff1 883e
00000010: 6ef3 ddbb 1072 6c3d 39ae 04be 4585 ddbd
00000020: 4052 833d 28ad 293e d9e8 99be dbba 953d
00000030: c44f f3bc 83e0 78be da2c a3bd 70a1 f6bd
00000040: 4261 bb3d 3a9c 26be c9f0 b2bd 7e72 c5bd
00000050: 7373 04be ed87 493d aa00 28be be45 08be
00000060: 2c7e d63d ac55 c83d 41b5 5d3c 3c07 143e
00000070: cf18 453d 960e 18be 9ede 2d3d 2193 4bbe
00000080: 7626 173e 4e75 2c3e 207d 20bd c39f a2bc
00000090: 94a0 0d3d f6e7 6f3d 4401 773d 0905 2bbe
000000a0: 10be cfbb cb26 ec3d b0b8 ad3b 72fe 5a3d
000000b0: d0e7 e1bd cf98 a73c 6a74 fbbd 9e0b 2ebe
000000c0: 6996 943d c43e 1abb efce 4cbe e347 703d
000000d0: 4e79 b23c 0e68 c9bc 17d9 483d 9f6d c33d
000000e0: 38fd edbb 96d4 733e b211 133c 1ae9 03be
000000f0: 44b5 8c3c f7f3 f6bd a95e 8c3e 2b0c a93a
00000100: 9e5c 3f3e 23a9 1abe a4bb 173e 7d40 163e
00000110: 5cd4 08be 57eb 2abd 8a97 193b 1b20 0bbe
00000120: 803a 453e ce11 113e f1f7 10bd 9f85 93be
00000130: 2364 8f3d eed9 c1be 08fe b2bd 4f4a 58be
00000140: e8d4 5f3e 6212 9dbd 118c c0be ee52 b73d
00000150: 94be 103e fd0e 97bd 1bb3 2fbe 5aec 4bbd
00000160: 01bb 753d 48be e93d 92a5 c23b 9023 183b
00000170: 6a07 983d 1aa1 57bd 0a7d c23d a636 833e
00000180: b4bc 8c3e 5d5b ea3c ab5a a2bd 309f 213e
00000190: 9961 0c3e 4e04 80be 511f a93d bbf5 9bbd
000001a0: 41f7 91bd 6bb4 86be 9f3f a93d f0b6 0e3e
000001b0: 7de3 5abe 1a4d 8ebd 537b de3d a1b6 01be
000001c0: 4011 0bbe d190 cabd 11d2 c9bd ac68 613d
000001d0: 9024 783e 6f2e c33d 1370 f6bd 1bb9 c2bd
000001e0: 7a17 573c 674d 2a3d c313 f3bd 4c50 74bd
000001f0: 44dc 91bd b874 ac3c 79dd 083e dcb1 873e
00000200: 3c6d 11be 824c 2c3d 48d1 1a3e d966 47bd
00000210: a3e4 7a3e 32ff 44be ab88 2dbe da78 203e
00000220: 96ea 21be 873e 05be b72d 8e3d 25b0 edbd
00000230: c3fb e93d 15c2 99bd c00d ccbd 9071 573e
00000240: 9622 a43e 3bae 56be 573e 61bd 01b2 a9bd
00000250: 4b41 16be 9ceb 71be 267d 79bd 4053 16be
00000260: 0aba 51be 7ccf 8c3e f1d4 17bd dad9 3e3e
00000270: 39b8 f9bd 2d2f 1abe 2c32 ff3d 9f56 f1bd
00000280: 0532 873d c187 02be 069e d83d 0723 3f3e
00000290: 0bf2 85be 0c45 f7bd e5e1 c9bd 52fa 593d
000002a0: abf8 2cbd f83c bbbd d1ec d2bb d281 8cbc
000002b0: 7e1c e3bd 16c2 10be 6a3f a43b ab7a fa3c
000002c0: e60a b73d fab0 f7bd 12f7 31ba 6fc0 e1bd
000002d0: 9969 3abe 4ebf 8dbd 4584 71be 9756 9e3d
000002e0: 5db7 663c c73c 51bd ddbc 463e 9a54 0e3d
000002f0: d21f 9c3d 94bc 1cbe 0195 213c 8fab 82bc
00000300: 4868 313d 1cf6 933e 1720 433d b049 3bbe
00000310: 4bfb 863e 22f7 26be 9262 fbbc dc03 2e3e
00000320: b00a 4f3e 5146 e3bd 90a4 333e 972f f9bd
00000330: 3c0c 67bd 41ad a2bc db79 81bc 2508 263e
00000340: 1f78 113e 65f0 d43c 7038 cf3d 5519 5d3d
00000350: 975a 5dbe c5ca fcbd ebb5 b5bd 96c4 a8bd
00000360: 4a6b 013e a624 a4bd 728d 64bd 1862 a23b
00000370: 916c 87bd 1040 78bc becb 0b3e 8e3b 8fbc
00000380: 7453 91be 2588 343e 5f30 0a3e 0b67 1f3e
00000390: fd71 59be b3fd f73c 1203 68be ea43 213d
000003a0: 71b3 81bc c7a3 bebd 46c3 d1bd c546 21bd
000003b0: 1fdf aa3d 5175 bcbd 0a81 0d3e e64a 03bd
000003c0: 1ac2 f73d df3a 13be aae3 3fbe 61fb afbd
000003d0: 43e7 383d a9c9 fe3d 3e4c 103d 74a8 9bbe
000003e0: 6229 58bd 34c2 68ba 1690 10bd 0e8a 663e
000003f0: 0c1b b7bd cd6e 1ebc e4af 003e d387 3cbe
0.17454542 0.046269253 -0.012262702 0.26746985 -0.006773404 0.057725966 -0.12957086 -0.10816435
0.06412172 0.1656996 -0.3006046 0.073110305 -0.029701121 -0.24304394 -0.07967539 -0.120425105
0.0914941 -0.16270533 -0.087373324 -0.09640978 -0.12934665 0.049201895 -0.16406503 -0.13307855
0.10473284 0.097819656 0.013531984 0.14455885 0.048119362 -0.14849314 0.042448632 -0.19880344
0.14760765 0.16841623 -0.03918183 -0.019851571 0.034576967 0.058570825 0.06030394 -0.1670114
-0.006339796 0.11530837 0.0053015575 0.053465314 -0.11030543 0.020458607 -0.122780636 -0.16996619
0.07255251 -0.0023535946 -0.20000814 0.058662307 0.021786358 -0.02458575 0.049035158 0.09542393
-0.007262852 0.23811564 0.008976387 -0.1288189 0.017176278 -0.12058251 0.2741597 0.0012897303
0.18687674 -0.15103583 0.14817673 0.14673038 -0.13362259 -0.041728344 0.0023436272 -0.13586466
0.19260597 0.14166948 -0.035392705 -0.28812882 0.070015214 -0.3786158 -0.08739859 -0.21122096
0.21858561 -0.07669522 -0.37606862 0.089513645 0.141352 -0.07375906 -0.17158167 -0.04978595
0.059992794 0.114132464 0.0059401477 0.0023214556 0.07423289 -0.052643873 0.094965056 0.2562763
0.2748772 0.028608019 -0.0792745 0.15783381 0.13709106 -0.25003284 0.08257926 -0.07615229
-0.07127238 -0.26309523 0.08264088 0.13936973 -0.21375842 -0.069483 0.10863366 -0.12667324
-0.13580799 -0.09890903 -0.0985452 0.055031464 0.24232697 0.09530341 -0.12033095 -0.09507962
0.013128156 0.041577723 -0.118690036 -0.05964689 -0.071220905 0.02105175 0.13365735 0.26502883
-0.14201826 0.04206515 0.15118897 -0.048682068 0.2450128 -0.19237974 -0.16946666 0.15671101
-0.15812144 -0.13012134 0.06942313 -0.116058625 0.11424973 -0.07507721 -0.0996356 0.21039414
0.32057637 -0.20964901 -0.054991093 -0.08285905 -0.14673345 -0.23625034 -0.060910366 -0.14680195
-0.20481125 0.27502048 -0.03706831 0.18637791 -0.12193341 -0.15057059 0.124607414 -0.117841
0.06601337 -0.12747099 0.105770156 0.18665706 -0.26161227 -0.120737165 -0.09857539 0.05321724
-0.042229336 -0.09142488 -0.006436922 -0.017151747 -0.11089419 -0.14136538 0.0050124424 0.03057607
0.089376256 -0.120943025 -0.00067888305 -0.11023032 -0.18204345 -0.06921254 -0.23585613 0.077313595
0.014081803 -0.051083352 0.19407983 0.03474865 0.07623257 -0.15306312 0.009862185 -0.015950946
0.04331234 0.28898704 0.047638025 -0.18289828 0.26363596 -0.16305211 -0.03068665 0.1699366
0.2021892 -0.11097396 0.17543244 -0.1216728 -0.056408152 -0.019858005 -0.015805176 0.16214044
0.14205979 0.025993535 0.101181865 0.053979237 -0.21616589 -0.12343363 -0.08872589 -0.08240621
0.12638584 -0.08014803 -0.055798955 0.0049555413 -0.06612504 -0.015151992 0.1365194 -0.017484453
-0.28383982 0.1763006 0.13495015 0.15566652 -0.2123489 0.03027234 -0.22657421 0.03937141
-0.015832635 -0.09308582 -0.102423236 -0.03937413 0.08343338 -0.09202064 0.13818756 -0.03205385
0.12097569 -0.14377926 -0.1873919 -0.085928686 0.045142423 0.12440807 0.03522896 -0.30401957
-0.05277384 -0.0008879036 -0.03529366 0.22513601 -0.08940706 -0.009669972 0.12567097 -0.18411188

linears.1.bias f4 [50]
00000000: 3f75 1dbd daf4 d7bc a6ed 02bd 53a6 c73a
00000010: 62d7 02bd ec40 e53a 3edd 15bd be96 243d
00000020: 8493 0ebd b9ff 34bd a9e2 033d bbcb 923c
00000030: 801b 16bd d167 27bd 798a 2e3d 8245 273d
00000040: f87a cc3c 23e7 07bd 9a6c ccb7 2b3c ecbb
00000050: edaf 16bd b38e 0cbd 3ebc f0bc ad24 17bd
00000060: 1e6b 1f3d a347 da3b ea3f 62bc e844 c1bc
00000070: 94dd fdbb b0d0 0cbd 253d f9bc f5bb b43d
00000080: 8c81 21bd d189 013d 6bf5 1cbd 6e67 bebc
00000090: 84c9 44bd 7ca5 bbbc c368 1fbd f3a4 1ebd
000000a0: 2ef0 043d 7e36 e23c 2e98 1dbd 6e5b 9dbc
000000b0: 2e1e fdbc 3512 e9bc 90ae 33bc 07a2 113d
000000c0: ab05 1abd 0581 0a3d
-0.038441893 -0.026361872 -0.03196492 0.0015232064 -0.031943686 0.0017490662 -0.036587946 0.04018282
-0.03480865 -0.04418919 0.03219858 0.017919412 -0.03664732 -0.04087049 0.042612527 0.040837772
0.02496098 -0.033179414 -2.4369267e-05 -0.007209321 -0.03678887 -0.034315776 -0.029386636 -0.03690021
0.038920514 0.006661372 -0.013809184 -0.023592427 -0.0077473614 -0.034378707 -0.030424664 0.088249125
-0.039430186 0.031625573 -0.038319986 -0.023242678 -0.048043743 -0.022906058 -0.038918268 -0.038731527
0.032455616 0.027613875 -0.038475208 -0.019208636 -0.03089818 -0.028451065 -0.010966912 0.035554912
-0.03760306 0.03381445

linears.2.weight f4 [50, 50]
00000000: 91b3 903d 6d60 693c d3e7 623e c8f7 ffbd
00000010: d986 0bbd 92ff 073e 430a 6dbd 7b23 833e
00000020: 56ff 923d 913b 10be 9173 3c3e 88de e7bd
00000030: 9aac 90be 149e 343d 36d4 e23d e4a1 03bc
00000040: 6a11 f53e 3d21 de3d 0693 cebe cc71 86bd
00000050: 4056 233d 2d63 2d3e becb 05be fad4 bf3b
00000060: 8ec4 0c3e 66d1 19bd e695 3e3e fc41 edbd
00000070: 1fac 483b 56f7 923d 3438 2d3d ee8c 283e
00000080: cebf 73bd 3b0b 38be 57ca 1bbe bae4 663e
00000090: d4d5 42be 9010 2abc d340 033e 1b36 83bd
000000a0: 911c 2b3e 1ffc b8bd e4d7 03be 1c49 5fbe
000000b0: e632 9f3e 2ba1 583e 5b8f b6be f368 abbd
000000c0: b369 0b3e 1296 183e d5c8 86bd 7cd0 a5bd
000000d0: 5dee 603e 4645 82be 6004 0fbe a0c7 63bd
000000e0: 3dd9 c8bd 7b39 b8bd 9aca 28be 9377 a1bd
000000f0: c91d 93bc 3495 56bc 7210 51be 7d29 a83d
00000100: 5830 563c 950c 24be 3b21 183e b7be 6a3d
00000110: f6c5 1e3e b879 563d adcb 18be b744 34bd
00000120: 8715 0c3d e0d8 433e 971a 4ebc fe74 bfbd
00000130: 6e6b f3bd 8f8f fa3c f741 4dbe 63da 07bd
00000140: 5cfa 94bd 0d22 6d3e 921b 4f3d 0a82 03be
00000150: 065c 82bc 55d3 3e3d 996c 393e 77a7 253d
00000160: e0e0 afbd 0149 413e 6884 77bc 39c7 61be
00000170: 40fc 253e 7d6c 5f3d d2db aa3e 5245 683d
00000180: 3c2d a83d 982d c53d f030 c03d e387 8fbd
00000190: 67ce 953e ea47 a63d bf89 d93c 22be df3d
000001a0: 5838 8cbd 50d8 2e3e bf53 0d3d 9702 aa3c
000001b0: 7d82 a0be eed4 ef3d 3af1 11be da18 34bd
000001c0: 77b4 4c3e 7c4d 93bd 55f0 d3bd 035f d43d
000001d0: 521b 57bd 2f8f b5bd 329a b23d c6d8 66bc
000001e0: e835 883e 723f 57be ad3e 73be 290f aabe
000001f0: ed85 113e e84c 7cbd c710 073d 89b9 a2bd
00000200: ca28 883d 50dc 07be 1ccc b2be 8737 12be
00000210: 94e4 6abe b6f3 453e 8720 2cbe 2c71 11bd
00000220: dc89 103b 5d41 de3d 425c 8c3d 4f58 013e
00000230: b438 f53c 7390 373a 9834 4bbe d5ed 05be
00000240: 226f 9fbe 5f1e 683e 62ad 4f3e 5f09 93be
00000250: a04c 313d bc01 1ebd 7573 3cbd 0a22 19be
00000260: 052e edbd 0e79 29be 34e5 6e3e 36a1 4a3e
00000270: e726 9fbd 09a4 753e e021 3bbe babc 73be
00000280: 0902 5abd c077 b8bd cfa0 33be 1105 773d
00000290: 0c27 36bd 203b eabd 9d5d 0cbe 6e98 3f3d
000002a0: 5740 253d 2cc2 74bd 59cf 6d3e 872d ddbd
000002b0: eba5 20bc 97b0 a9bd edff b03d aee1 4b3d
000002c0: 2245 813d b43f b63d b313 303d d189 393e
000002d0: 491f 44bd c482 4e3d db77 eb3d 8298 7a3c
000002e0: ff74 83be 8a00 b1bd 9c22 653b bf85 733e
000002f0: d07e bc3d 69d4 26be 81e0 5abd 384b 203e
00000300: b478 1d3c 0be8 52bd 6b5d ca3d e7f4 fa3d
00000310: 4765 9f3c a1be 15be 3dab abbe 2f0a 9cbd
00000320: 11c5 6fba 62db afbd 7b0d 4339 2a7d 96bc
00000330: 45b1 603c ec9c 343e 7b87 c63d 973c 4fbd
00000340: a975 16be 40cf ddbd ea7b b8bd 577d 653d
00000350: 1f47 e0bd 8180 283e edc3 fabd 653c 423d
00000360: d0fc 89bd 9240 1a3d 9d95 8f3c 377b 9abe
00000370: 43e4 fa3d 81a3 ddbd e1df 40be 1b14 c13d
00000380: c81d adbd b012 2bbe e987 603c 2780 d1bd
00000390: 3b4a b0bd 0e47 d03c 90a8 57bd 89a1 183e
000003a0: 7088 9b3e ad1e 0dbe b9e5 313e ec50 7d3e
000003b0: 67fa 26be 80f7 633e 9348 983d c3fe 0d3e
000003c0: 3180 dc3d ab8d 8cbe 5e93 453c 32a2 813e
000003d0: fb97 d73c defb 22bd 93c8 e2bd 51ba 33bc
000003e0: 2cda dd3d 0156 0e3d 976a b53e d363 77be
000003f0: 0ec2 993d 9f94 7cbc c2f2 563d 52d7 ec3d
0.070654996 0.014244181 0.22158746 -0.124984324 -0.034064148 0.13281086 -0.057871114 0.25613007
0.07177608 -0.14085223 0.1840346 -0.11321741 -0.28256685 0.044096068 0.11075632 -0.008034203
0.47864848 0.108461834 -0.40346545 -0.06564674 0.039877176 0.16932364 -0.13066003 0.005854246
0.13746855 -0.037553214 0.18611869 -0.11584851 0.003062017 0.07176082 0.042289928 0.1646001
-0.05950909 -0.17973034 -0.15213905 0.2254819 -0.19026881 -0.010379925 0.12817697 -0.06406804
0.16710116 -0.09032463 -0.12875324 -0.21805233 0.3109352 0.2115523 -0.35656247 -0.08369627
0.1361454 0.14900997 -0.065812744 -0.08096406 0.21965928 -0.25443476 -0.13966513 -0.0556103
-0.0980706 -0.089953385 -0.16483536 -0.07884135 -0.017958539 -0.013097096 -0.2041643 0.08211038
0.0130730495 -0.16020425 0.14856426 0.057310786 0.15505204 0.052362174 -0.14921446 -0.044010844
0.034200218 0.191257 -0.012579582 -0.09348486 -0.11885725 0.030586032 -0.20044695 -0.033167254
-0.07274315 0.2315752 0.050563402 -0.12842575 -0.01591302 0.04658826 0.18107833 0.04044291
-0.085878134 0.18875505 -0.015107252 -0.22048654 0.16209507 0.05454682 0.33370835 0.056706734
0.08211753 0.09627837 0.09384334 -0.0700834 0.29259035 0.08119185 0.02655494 0.10924937
-0.06846684 0.17074704 0.034503695 0.020753188 -0.31349555 0.11710535 -0.14252177 -0.043969013
0.19990717 -0.07192513 -0.10348574 0.103696845 -0.05251629 -0.08865201 0.08720817 -0.014089769
0.26603627 -0.21020296 -0.23754378 -0.3321469 0.14211245 -0.06159678 0.032974984 -0.07945544
0.06648405 -0.13267636 -0.34921348 -0.14278995 -0.22938758 0.1933125 -0.16809283 -0.03550832
0.0022054827 0.10852311 0.06853534 0.12631343 0.029934265 0.00070024206 -0.19844282 -0.13079007
-0.31139475 0.22667836 0.20280984 -0.28718087 0.043285966 -0.038575873 -0.046008546 -0.14954391
-0.11581043 -0.16550085 0.23329622 0.1978806 -0.07771092 0.23988356 -0.18274641 -0.23802462
-0.053224597 -0.090072155 -0.17541812 0.060307566 -0.04447083 -0.114370584 -0.13707586 0.046776228
0.040344562 -0.05975549 0.23223628 -0.10799699 -0.009805183 -0.08285635 0.08642564 0.04977577
0.06312014 0.08898869 0.042987537 0.18118979 -0.0478814 0.050417677 0.1149747 0.01529515
-0.25675198 -0.08642681 0.0034963256 0.23781489 0.09203875 -0.16291966 -0.05343676 0.15653694
0.009611297 -0.051490825 0.09881099 0.12253743 0.019457472 -0.146235 -0.33529082 -0.0761913
-0.00091464916 -0.08586766 0.00018601671 -0.01837023 0.013714139 0.17637986 0.096938096 -0.050594892
-0.14693321 -0.108305454 -0.0900801 0.056027737 -0.10951065 0.1645527 -0.12244401 0.047420878
-0.06737673 0.037659235 0.017527396 -0.3017213 0.12250569 -0.108222015 -0.18835403 0.09427663
-0.08452946 -0.16706347 0.0137042785 -0.10229521 -0.08607908 0.025424507 -0.052650988 0.14905371
0.3037753 -0.13781233 0.17372788 0.247379 -0.16306458 0.22262383 0.074357174 0.13866715
0.10766638 -0.27451834 0.012059061 0.25319058 0.026317587 -0.03979098 -0.11073413 -0.010969714
0.108326286 0.03474999 0.35432884 -0.24159174 0.07507716 -0.015416293 0.052477606 0.115645066

linears.2.bias f4 [50]
00000000: e779 463d db9e 0cbd d99e 153d 9181 85bc
00000010: ee85 15bd 5f6a 18bd 03ce d0bc c3b2 11bd
00000020: c46c 093d 93aa fb3c 89c2 0dbd cf1d 083d
00000030: 6eb4 33bd 9f92 2e3d ecc8 0d3d a71d 203d
00000040: c359 f8bc 4568 a73c 078a f83c 6821 653a
00000050: 3981 0c3d 0f02 0bbd 02ef 1e3d 87e4 d3bc
00000060: d351 0bbd 7099 0a3d a98c 23bd b9ef ffbc
00000070: f647 163d 07bb 033d 2074 23bd 4a21 1cbd
00000080: 56d3 0e3d 81d3 0fbd 2b42 9d3c e4c2 103d
00000090: 867e ffbc 2288 1d3d 2947 0e3d 9a15 f23c
000000a0: e84a 073d 17ca 1c3d e91b 2b3d a31f c93c
000000b0: fe75 d33c bf3c 15bd 41c5 0c3d 82d7 1fbd
000000c0: 59d3 16bd c461 f6bc
0.0484561 -0.034331184 0.036528442 -0.016297134 -0.03650468 -0.03721082 -0.025488859 -0.03557087
0.033550993 0.030720985 -0.03460935 0.033231553 -0.043873243 0.042620298 0.034615442 0.03909078
-0.03031624 0.020435462 0.030339254 0.00087406347 0.034302924 -0.03393751 0.038802154 -0.025865806
-0.03401358 0.033837736 -0.039929066 -0.031242238 0.03668972 0.032160785 -0.039905667 -0.038117684
0.034869514 -0.035113815 0.01919659 0.035342112 -0.03118826 0.038459904 0.034735832 0.029551316
0.03303042 0.038278665 0.041774664 0.024551218 0.025813099 -0.036434885 0.034367803 -0.039023884
-0.03682265 -0.030075915

linears.3.weight f4 [50, 50]
00000000: a40a 2c3e 1076 e5bd ac74 0d3e f01c 2bbe
00000010: e21d 063e 0de1 ffbc 1bca d63d 5c03 cdbd
00000020: 9f2a 6b3e a76a d8be ed9e 3b3e 776e 6e3e
00000030: d9cf dfbc 568b 4cbe 7844 283d 02f7 263e
00000040: 76be a4bd 6976 b0bc fcb7 273d 1400 51be
00000050: 92c2 1bbe d8d8 893d 0a62 c43d 992a fd3d
00000060: e6f5 8b3b 0cd0 dc3d 8e13 c2bd bb99 05be
00000070: 63fd bdbc b3b4 1fbe 6e61 f43c eb0c c9be
00000080: 59f7 5a3d 5044 f0bd 013e 0b3e 9cf2 bcbe
00000090: b33c 64be 437a 813d 8b9b e53e ac4e 303b
000000a0: 6e21 2a3e 21bd b23d 12b3 17be 8016 16bc
000000b0: 6e36 ca3d 56ff 533e 9dc9 62bd d6c7 03be
000000c0: c7b4 a5be 8a8b 4c3e 9c9a 123d 8130 a03d
000000d0: e1bc 39bd 6886 5dbc 9039 64bc 5c54 32be
000000e0: e17d 843e ea7c 02be f692 f53d d2fb 58bd
000000f0: 5da9 10bd ced8 51bc 1422 aebd a36c d83d
00000100: f0f2 893e 1ccb 303d 732f d73d 0004 8bbd
00000110: 81d2 0a3c 2133 1c3e 0e7a 86be 8f26 82be
00000120: 79fd 8c3d 2ad9 5c3a 8368 983e 6a66 60bd
00000130: 1642 c53e 265b 32be b1c6 7e3d 9443 363a
00000140: 4c29 863c 98d2 debd 3cb8 c33d 5d2d 4fbe
00000150: dedd 9e3e 0052 123d 9461 9fbd 2bcb 993d
00000160: eabc 74bd f9ff ec3c fdb9 80bd ad6e 533e
00000170: 0e02 3eba 8a36 3abd 5962 743b 2855 07be
00000180: d8f7 793d 16c7 27be 4980 eabd 5cc3 18be
00000190: ea71 eebd 9326 833e 93df 003c 283f 083c
000001a0: 646f 263e 98f2 7fbe 115d ecbd a0ba 043e
000001b0: 1ae0 bbbc af18 b6be 9eae 363b 621d 9e3e
000001c0: 171f 00be 25bd 07be 39f8 c33d 929c 36bd
000001d0: 9f91 ac3e 996c 603e ebc9 953d ef70 ebbd
000001e0: 8bf8 563e 01ff 2b3e 5d5d 543b 9001 22be
000001f0: 83a2 9cbe 090c 893d e86a 0f3e 6422 a83c
00000200: a6a2 7ebe 40fe 08bd aadd 01bd 36ba c1bc
00000210: 0d95 873e 6eb1 b13d 56cf 1d3e 804a 3b3e
00000220: e735 c9bc 6f45 1f3e 5436 243e 3161 4f3e
00000230: 7dcd c8bd 678a fb3d 5e96 b8bb 24ec dbbd
00000240: e64c 813e a075 803d 837d bf3d 2bd3 dcbd
00000250: 08a7 49be 16eb 85bd e7c9 f8bd f43f d53e
00000260: bedc 63be f8bb 85be 3a5f bf3d 16a2 ff3c
00000270: 4dbd 4bbe 5201 3c3e 401e 2e3e d9fd 90bd
00000280: 4090 a7bd e51a 40be 9d02 103e 7f8b ab3d
00000290: de13 1e3b 1d6c aebd 87e5 abbd 8975 cebc
000002a0: 9c15 88bd 3dac 0b3e 0650 d7be 794c 2e3e
000002b0: b610 e93d 4d40 853e bb8d 393e e86b 633d
000002c0: 8b77 90be b067 94bd 6b88 0dbc a3c1 cc3d
000002d0: 7682 a63d 2e07 1e3e 3a22 7a3e cdb5 10bd
000002e0: 3929 51be 1dda c6bd 9609 373e 5066 b33d
000002f0: 62c6 a7bd 4eee 61bd f4bc 7bbe 365a aebe
00000300: c451 42be 0c5b 2dbe 4db5 423e 32ae 523e
00000310: 5038 23bd 1011 253e 363d 7a3e ccd8 363e
00000320: ffe3 0e3e a8da 27bb ba49 923e 2768 d9bd
00000330: e1d1 423d 3630 5cbd cbac a63e ce72 3bbd
00000340: b387 b03d 2862 493d 3707 673e 09d1 89be
00000350: f5fd 5dbe 9617 19be d7c4 74bc 03a1 0bbe
00000360: e775 3e3d 9d90 cd3c d119 903d d8f0 dd3d
00000370: 205d 80bd 0d0d 333e 1575 893e 86e7 23bb
00000380: c278 3ebe 4c2a 8bbe dea8 613e 8dfe 3b3d
00000390: c7ee 243e c4e6 0ebd 4cb1 52bd b735 06be
000003a0: 4cff 003e e749 2a3e 34cc c63d 2931 b2bd
000003b0: 592b 433d 9880 e03d e2e5 09bd 16f2 28be
000003c0: 48ae 5e3c 9b5e b8be 74a1 40bd cbdc 443d
000003d0: 0a4e 77be 57d1 14bd f42f 1abe 8a4b b33d
000003e0: 7fd8 1dbc 1dfa c63d fc45 87bd 41b9 dc3d
000003f0: 3d3b 49bb 04d6 3d3d 04b6 593e 44ee 33be
0.16800934 -0.11204159 0.13814038 -0.16710258 0.13097337 -0.031235242 0.10487767 -0.100104064
0.22965477 -0.4226887 0.18322344 0.23284326 -0.02732079 -0.19975027 0.041080922 0.16305164
-0.0804414 -0.021540837 0.040946946 -0.20410186 -0.15210941 0.06730813 0.09589012 0.123616405
0.0042712567 0.10781869 -0.09476386 -0.13046925 -0.023192113 -0.15596275 0.029831614 -0.39267668
0.053458545 -0.117317796 0.13597871 -0.36903846 -0.2228878 0.06322148 0.44845232 0.002690236
0.16614315 0.0872748 -0.14814404 -0.009160638 0.09873663 0.20702872 -0.055368055 -0.128692
-0.32364485 0.19975105 0.03579198 0.078217514 -0.045346145 -0.0135208145 -0.01392974 -0.17414993
0.25877288 -0.12742963 0.11990921 -0.05297453 -0.035317767 -0.012808038 -0.08502594 0.10567596
0.2694316 0.04316245 0.10507097 -0.06787872 0.00847304 0.15253879 -0.26264995 -0.25420043
0.068842836 0.0008424694 0.29767236 -0.05478517 0.38526982 -0.17417583 0.062201206 0.0006952819
0.016377114 -0.10880011 0.09556624 -0.20232148 0.31028646 0.035722733 -0.077822834 0.07509454
-0.059750475 0.028930651 -0.062854744 0.20647688 -0.0007248231 -0.04546217 0.0037290065 -0.13216078
0.061027378 -0.16384539 -0.1145025 -0.14918274 -0.11642821 0.25615367 0.007865804 0.008315839
0.1625343 -0.24994886 -0.115411885 0.12961817 -0.022934008 -0.35565707 0.0027875076 0.30881792
-0.1251186 -0.13255747 0.09568829 -0.04458291 0.3370485 0.21916427 0.073139034 -0.1149615
0.20993249 0.16796495 0.0032404282 -0.15820909 -0.30592737 0.06691749 0.14005625 0.020524211
-0.24866733 -0.033445597 -0.031705536 -0.023648363 0.26480904 0.0867642 0.15411124 0.18290138
-0.024561835 0.1555383 0.1603635 0.2025192 -0.09804819 0.122822575 -0.0056331595 -0.107383996
0.2525398 0.06272435 0.09350111 -0.107824646 -0.19692624 -0.0653898 -0.12147885 0.41650355
-0.22252175 -0.2611997 0.09344335 0.031205218 -0.19896431 0.18359879 0.17003727 -0.070796676
-0.081818104 -0.1876026 0.14063497 0.08376216 0.0024120728 -0.08516715 -0.08393388 -0.02520253
-0.06644747 0.13639922 -0.4205324 0.1702136 0.113801405 0.2602562 0.18120472 0.05552283
-0.28216204 -0.07246339 -0.008638482 0.09997871 0.08130352 0.15432426 0.24427119 -0.03532963
-0.20425881 -0.097095706 0.1787475 0.08759749 -0.081921354 -0.055158906 -0.24583799 -0.340532
-0.18976504 -0.16929263 0.19014473 0.20574263 -0.039848626 0.1611979 0.24437413 0.17856139
0.13954161 -0.0025612507 0.28571874 -0.106155686 0.047563437 -0.053756915 0.32553706 -0.045763783
0.086196326 0.049165875 0.22561346 -0.26917294 -0.21678908 -0.14950404 -0.014939508 -0.1363564
0.04649916 0.025093371 0.07036174 0.10836953 -0.06267762 0.17485447 0.2684714 -0.0025009825
-0.18600753 -0.27180707 0.22037074 0.045897055 0.16106711 -0.034888044 -0.051438615 -0.13106428
0.12597388 0.16629754 0.097069174 -0.08700783 0.04764876 0.10962027 -0.0336665 -0.16498598
0.013591357 -0.36009678 -0.047028974 0.048062127 -0.24150863 -0.036332455 -0.15057355 0.08754642
-0.009634136 0.09715674 -0.06605145 0.10777522 -0.0030705475 0.04634668 0.2126084 -0.1757136

linears.3.bias f4 [50]
00000000: 24c0 10bc dfbd 103d 67c0 f0bc 2f2a 0ebd
00000010: 3672 0cbd c303 9fbc 8d43 9c3c 055b e73c
00000020: bccb 143d 0fd4 14bd 3797 ec3c 8ce8 fb3c
00000030: 5bdd 0e3d a415 0c3d 81fd 0abd a800 fabc
00000040: d8d3 0d3d 35e1 d9bc d6f9 f03c a9cd 043d
00000050: 38ae 0c3d 392c 2f3b 7a65 253d 52cc 013d
00000060: 6687 18bd 0225 25bd 842b 0ebd 8e82 0e38
00000070: fd72 0f3d 6831 0fbd 86bf 0f3d bbd2 173d
00000080: 19e8 0cbd f063 03bd 6f80 22bd 3058 11bd
00000090: 6f6d 0e3d d0a3 0abd b73c e23c cddc 0c3d
000000a0: 697b 0a3d b13c 033d 290a 0abd 92a4 e13c
000000b0: 1940 0c3d 8f92 22bd 262a 0b3d 5730 053d
000000c0: 40a7 a53c 77a9 18bd
-0.008834872 0.035337325 -0.02938862 -0.0347082 -0.034288608 -0.019410973 0.01907518 0.028241644
0.03632711 -0.036335047 0.028880699 0.030750535 0.03487907 0.034200326 -0.033933166 -0.030517891
0.034625858 -0.026596645 0.029416006 0.032422695 0.034345835 0.002672924 0.04037998 0.031688996
-0.0372385 -0.040318497 -0.03470947 3.3977027e-05 0.03502177 -0.034959227 0.03509476 0.037066203
-0.034401033 -0.03207773 -0.039673265 -0.035484493 0.034772333 -0.03384763 0.027616842 0.03439026
0.0338091 0.0320403 -0.033701096 0.027544294 0.034240816 -0.03969055 0.033975743 0.032516804
0.020221353 -0.03727099

linears.4.weight f4 [3, 50]
00000000: 3b2e 443d e891 af3e c940 c6bd c450 83be
00000010: 7eba 11be 7670 93bd f796 a93d 4233 373d
00000020: 369d 4e3d b3a8 31be 5d19 e93c 296e 5d3d
00000030: 997f d53d e0b6 bf3e 2541 3fbe 3ba4 cfbd
00000040: f1a4 af3e 5ddd 79bd ea8a 773d 7c29 f13d
00000050: e881 333e 1d5b 9f3d d2fb 113e 269d 1d3e
00000060: c9ea 67be c9f9 77bd 713e 4cbe 7ff3 833d
00000070: e168 193e 35b6 9bbe a3d6 923e 9d7f 9e3d
00000080: c396 9ebe 0791 a5bd 2559 09be c71f 3fbe
00000090: 4721 703d 9285 0fbe 74b7 41bb 7733 573e
000000a0: 10ba a73e b0e8 403e ebe7 d6be 82e7 b53d
000000b0: 45c4 833e ec60 2fbe d57f 0f3f 70cb b23e
000000c0: 43d2 083e b53d 75be f3d0 16be 243f ca3d
000000d0: 8103 89bd 0492 203e 267a 4fbc ceaf 98be
000000e0: 1134 1a3e 56c7 323e d481 dabd b538 8f3d
000000f0: ed7b ec3d e5a1 293e 9ab2 91bd 629c b23d
00000100: 5364 673c 56e1 44bd b6fe 5e3d 117a f1bd
00000110: 8a08 c73d 4bd5 3e3e ea9a b43d 5f55 2c3e
00000120: 5588 84be 1acf 903e 40ac 853d ff99 ce3d
00000130: 6b1b a9bc 5c00 c8bd e095 bc3c 5d34 2fbd
00000140: b6a8 ecbc a609 94be ebc8 88bc 18ea c0bd
00000150: 80b3 ef3e 4f7c e9bd fa00 73be e3b5 103f
00000160: e0c7 923c 5e6b bf3b d9d1 413e ee6d 703e
00000170: 6327 5dbe e88a 493e 0a8e 933d 44a3 353e
00000180: 7271 003e 0b2b aa3e 2aed 823e 3a51 be3e
00000190: fb4c afbe 4358 82be 3d9b ab3e 7337 d7bd
000001a0: 920e 923d c32a 50bc 46d2 fcbd fee3 053e
000001b0: 52b3 3c3c eb52 04be ee17 2e3e 4af2 053e
000001c0: 6b6a b6bc 3cd8 b63e 107f 21be e66e c03d
000001d0: 88cf 563e ed56 b2bd 049b 1c3e 752d c83d
000001e0: ee98 a9bd a0a2 aabe 4b2d 1abe f0ae 313e
000001f0: d0ae d93d 43c6 61bb a427 c1bd e817 86be
00000200: 3334 1dbe 9a58 fb3c 1373 3c3e fdd9 5f3e
00000210: 20bc 95be 42ff c7be c56f ea3d 8151 653e
00000220: eacf 763e 4990 b83e cb2a 40bc 283e ec3e
00000230: 6f8f 973e 5b30 623e 2a46 013d bf50 46bd
00000240: 8830 863d ea10 9d3e ba03 0a3e e64f c1be
00000250: d50f a5be 0d40 8fbe
0.04789565 0.34291005 -0.096803255 -0.25647557 -0.14231297 -0.071991846 0.082807474 0.044726618
0.050442897 -0.1734951 0.028454477 0.054060135 0.10424728 0.3744421 -0.18677194 -0.10138746
0.34305528 -0.061002124 0.060435213 0.11775491 0.17530024 0.0778105 0.14256218 0.15391979
-0.22648157 -0.060540948 -0.19945695 0.064429276 0.14981414 -0.3041245 0.2867938 0.07739184
-0.30974397 -0.080843024 -0.13412912 -0.18664466 0.058625486 -0.14015797 -0.002955881 0.21015726
0.32759142 0.18838763 -0.41973814 0.08882047 0.2573568 -0.17126817 0.5605443 0.34920835
0.13361458 -0.2394932 -0.14728145 0.09875324 -0.066901214 0.156807 -0.0126634 -0.29821628
0.15058924 0.17458853 -0.10669294 0.06993238 0.115470745 0.16565664 -0.07114144 0.08721234
0.01412304 -0.04806646 0.05444213 -0.117908604 0.097184256 0.18636052 0.0881861 0.16829441
-0.25885263 0.28283006 0.06526995 0.10087966 -0.020642957 -0.097656935 0.023020685 -0.042774547
-0.028889041 -0.2891361 -0.016697368 -0.0941965 0.46816635 -0.11400663 -0.23730841 0.5652754
0.017917573 0.0058416566 0.18927707 0.23479435 -0.21597056 0.19681895 0.07204826 0.17738062
0.12543276 0.33235964 0.25571567 0.37171346 -0.3423842 -0.25457963 0.33516875 -0.10508623
0.07131685 -0.012705508 -0.12344794 0.13075253 0.011517363 -0.12922256 0.17001316 0.13080707
-0.02226754 0.3571185 -0.15771127 0.09396152 0.20977604 -0.08707986 0.15293509 0.09774295
-0.08281122 -0.33327198 -0.1505634 0.1735189 0.10629046 -0.0034450449 -0.09431389 -0.26190114
-0.15351944 0.030681897 0.18403272 0.218605 -0.2924509 -0.39061934 0.114470996 0.22394373
0.2410275 0.3604758 -0.011728953 0.4614117 0.2960162 0.22088759 0.031561054 -0.04841685
0.06552225 0.30676967 0.13477984 -0.3775627 -0.3223864 -0.27978554

linears.4.bias f4 [3]
00000000: b91b 133d d197 88bc a106 f93c
0.03591511 -0.016673954 0.030398669

exp_avg f4 [50, 2]
00000000: 28c6 06bb cc62 8bbb aa5e 9a3b 3e0a 87bc
00000010: fa4a cebb b7eb 7b3c 5788 073b 8413 113c
00000020: 6732 093b c895 3fbb a3a1 c23a ea99 a8bb
00000030: 92e9 41bb aab3 053c 5435 4cb8 737e 723b
00000040: 5831 51bb b6b8 b23b 4457 a3bb 846a 573c
00000050: 560a 8fbb 03e0 693b 8cd0 f5ba 4159 9d3b
00000060: 0b8e 343b c267 63bb 0f52 a53b 96e3 b0bb
00000070: 1509 e73b 6d07 bfbc 550c bc3b 2c48 2dbc
00000080: 39e3 e1ba 363e 89bb 396d 8b3b b99f 29bb
00000090: 819f 09bc 8d62 343d 2cf1 f3b8 e0e2 3cbc
000000a0: f23e 923a 3b17 31bb d495 0cbb 61d4 1e3b
000000b0: 1a76 ad39 8674 343b 6621 95b9 0bb9 073b
000000c0: 16de be3b 1a61 c7bc 1635 623b de47 2e3c
000000d0: 991b 373a f818 f6bb 184e 85bb 0b04 123c
000000e0: 3cf7 2e3b 03c3 94bb 9288 f73a bfa5 5aba
000000f0: d4c3 58bb 9b8f 343c 6f49 c53b a64e c6bc
00000100: 1b1d 1e3b 99dd 8c3b 7540 5fbb 4ed2 953c
00000110: 8e3c 87ba ef8c ca3b 1c4b cebb 4f0b 2b3b
00000120: 4929 21bc 1a1b 9c3c 814a ae3b a096 21bc
00000130: 2dba 1bbc fe00 503c e3cc 03bb 3485 c83b
00000140: d615 7c3b 52d3 16bc d586 3538 9751 8d3c
00000150: f938 d63b b94a 76bc 57e2 feba 2c3a 643c
00000160: ffe2 02bb bae7 803c c1f5 d8b9 4ee2 083b
00000170: d6a9 0bbb 382b 873b d7df 3eb9 1f51 acba
00000180: 64d4 c83b cb7e 7bbb e12b b33a b5de 3dbc
-0.0020564888 -0.004253721 0.004710992 -0.016484376 -0.006295559 0.015376023 0.002068063 0.008854751
0.0020934583 -0.0029233564 0.0014849197 -0.005145301 -0.0029588682 0.008160511 -4.8687056e-05 0.003700164
-0.003192028 0.005454148 -0.004984768 0.013147954 -0.004365246 0.00356865 -0.0018754168 0.0048018997
0.0027550485 -0.0034699296 0.0050451825 -0.005398224 0.007050643 -0.02331897 0.005738775 -0.010576289
-0.0017233855 -0.0041883243 0.0042549637 -0.0025882556 -0.008399845 0.044039298 -0.00011632065 -0.011528701
0.0011157675 -0.0027021903 -0.002145161 0.0024235474 0.00033085124 0.0027535274 -0.00028444378 0.002070966
0.0058248146 -0.024338294 0.0034516505 0.010637252 0.00069850084 -0.0075103007 -0.0040681474 0.008912097
0.0026697656 -0.004539849 0.0018885306 -0.0008340738 -0.0033075707 0.011020566 0.006020717 -0.024207424
0.0024126235 0.0042988774 -0.003406552 0.018288758 -0.0010317729 0.0061813514 -0.006295575 0.002609927
-0.009836503 0.019055892 0.00531894 -0.009862572 -0.009504837 0.012695549 -0.0020111136 0.0061193947
0.0038465164 -0.009205656 4.3279335e-05 0.01725082 0.0065375534 -0.015032464 -0.0019446117 0.013929885
-0.0019971726 0.015735496 -0.0004138183 0.0020886841 -0.0021310947 0.004125025 -0.00018203199 -0.0013146735
0.0061288346 -0.0038375135 0.0013669693 -0.011588742

exp_avg_sq f4 [50, 2]
00000000: b092 2238 4251 7839 5a9a 1139 6b25 4e39
00000010: 3aed 8238 4112 ab38 f94c 8139 4c9d 0d3a
00000020: 2695 9538 3455 c638 7b5c 1d39 9f13 8639
00000030: 2954 2138 62c1 1b38 0497 8938 8e35 9f38
00000040: 0834 6038 ef95 4339 0cfe a239 35aa 443a
00000050: 5a7d 7a38 ad3f 8f38 8c6d 5239 1b0e ad39
00000060: 1390 a639 c86b f039 a097 cb39 3641 513a
00000070: 0c55 8f38 e9fa 4539 c64d ce37 1b91 6338
00000080: 9f63 bc38 2b6f 8a39 f970 6c37 0c8a 7738
00000090: 313a dc37 aa4c 7939 2d39 a338 96c4 da39
000000a0: b1b3 8c37 7d92 c138 6eff b536 06e5 0337
000000b0: c8fc 6f39 40e7 033a 83dc 1f39 8bd0 a639
000000c0: 6e86 3039 0aa5 9539 5a84 3539 09a2 1b3a
000000d0: adf1 2137 92ff 4039 633b bb38 1be3 c338
000000e0: b0df 9e39 16af 013a 2022 aa38 374c 1639
000000f0: 80eb db38 37ba 2439 0760 a438 e962 4139
00000100: da9b f638 12ad 2539 587f 0b39 7f85 ee39
00000110: b1f9 8b38 d2cc 0239 a683 9239 0488 fa39
00000120: 801c 0e39 3c23 033a 89a6 8938 1bf0 7f38
00000130: f78a aa37 a03f 5739 3703 c337 580b 1138
00000140: 826a 8038 2035 0e39 e719 5138 f306 8039
00000150: 3ed8 d637 2027 e038 425b 8a39 7111 f939
00000160: e7d7 1039 6607 0739 b09c 4638 1899 f038
00000170: 6ffb 0f38 33f0 df38 6007 1439 ee61 1c39
00000180: af72 d939 8c0e 433a 3622 f238 8e16 6c39
3.8760423e-05 0.00023681394 0.00013885778 0.0001965963 6.24307e-05 8.1573155e-05 0.00024662146 0.0005402162
7.132655e-05 9.457246e-05 0.00015007138 0.0002557309 3.846377e-05 3.713498e-05 6.560798e-05 7.591686e-05
5.345422e-05 0.00018652504 0.00031088328 0.00075021695 5.9721388e-05 6.830632e-05 0.0002006797 0.0003300764
0.0003176933 0.0004585667 0.00038832147 0.00079824345 6.8346126e-05 0.00018880855 2.459333e-05 5.4256157e-05
8.9830944e-05 0.00026404238 1.4093e-05 5.9017955e-05 2.6253141e-05 0.0002377505 7.7830955e-05 0.00041726668
1.6772976e-05 9.230243e-05 5.4239563e-06 7.861532e-06 0.00022886985 0.00050317124 0.00015245569 0.00031817364
0.00016834747 0.00028542458 0.0001731081 0.0005936926 9.652617e-06 0.00018405754 8.9279165e-05 9.340626e-05
0.0003030277 0.00049470493 8.112588e-05 0.00014333507 0.00010486599 0.00015709629 7.838016e-05 0.00018442761
0.00011759224 0.000158001 0.00013303512 0.0004549436 6.674545e-05 0.00012474068 0.00027945376 0.00047785055
0.00013552792 0.0005002504 6.563689e-05 6.1020353e-05 2.033029e-05 0.000205277 2.3247308e-05 3.458126e-05
6.123354e-05 0.00013561966 4.9853606e-05 0.0002441924 2.5611484e-05 0.0001068844 0.00026389404 0.00047505976
0.0001381334 0.0001287736 4.7352805e-05 0.00011472608 3.4328023e-05 0.00010678209 0.00014117127 0.00014913801
0.0004147491 0.00074408273 0.000115458315 0.00022515116

exp_avg f4 [50]
00000000: 85f9 d1bb ddfe fdbb 394e ad3c c59a 263c
00000010: cb9c a7bb aba5 313b 884f ac3c 8598 78bb
00000020: 0cad 2c3b 333e 283a d3b1 9abb 8e88 92bb
00000030: 92ed acbc 1cd8 95ba 72cd 1dbd f981 51bc
00000040: 9488 fd3a 0271 5fba 6c7d 353d 8e23 a6bc
00000050: fb48 bdbb 1395 653c 6c70 11bc 8402 c5bb
00000060: 8240 99bc 0fcc ba3c a27a 20bc 01ed 753c
00000070: bc5b 1e3b c002 57bc 39d7 d0bb 2f0d babc
00000080: f091 d53b 61fd e43b 9e95 093c e695 3abb
00000090: b28d 053d 27ef bfbb c1ef 5a3c 6419 9b3b
000000a0: 64ba 96bc a437 f53c 014a eebc 0566 8d3c
000000b0: 903c a83c c206 c3ba 6b48 e739 d2b8 fcba
000000c0: d7f1 383c 2104 44ba
-0.006407919 -0.0077513293 0.021155464 0.010168736 -0.0051151267 0.0027106802 0.021034017 -0.0037932706
0.002634826 0.000641796 -0.0047209053 -0.004471845 -0.021109376 -0.0011432203 -0.038526006 -0.012787336
0.0019343072 -0.00085236144 0.044309065 -0.020280626 -0.005776522 0.014012593 -0.008876901 -0.006012263
-0.018707518 0.02280238 -0.009794863 0.015010119 0.0024163565 -0.013123214 -0.006373313 -0.022711365
0.0065176412 0.006988213 0.008397488 -0.0028470694 0.032605834 -0.0058573666 0.013362826 0.0047332514
-0.018399425 0.029933758 -0.029088022 0.01726056 0.020536691 -0.0014879333 0.0004411371 -0.0019281155
0.011288128 -0.0007477422

exp_avg_sq f4 [50]
00000000: d992 033a faa4 0a3b c3a4 e838 096a ac3a
00000010: cabe 203a f6ee 5e3a e442 5039 1c3c 3c3a
00000020: 1647 743a 6b61 fc3b d44a 3939 8b2f 413b
00000030: 2b35 983b 5e9d 8c3b f7e0 e63a 9d0e ce39
00000040: 929b 863a f3c6 e539 c923 8439 127f 733a
00000050: a9f9 8d39 ca8b f237 5e19 a13b 4adb 803b
00000060: a534 503b 68d8 263b e024 1639 c0f2 3439
00000070: 9b88 b03b 6942 c33a 115d 883a af66 873a
00000080: 33c9 e33a b2c1 583b cd19 173a 911f 9f3b
00000090: c170 6d3a 9c9c ef39 7491 3a3a b4e5 ca38
000000a0: c679 193a 00f7 383a 458d e039 ce37 893b
000000b0: d3f1 fc39 3d29 b539 25e0 5739 5bd1 ec3a
000000c0: d160 c93b d3ae 143b
0.00050191354 0.0021155463 0.00011093311 0.001315416 0.00061319454 0.0008504236 0.00019861344 0.0007180588
0.0009318454 0.007702043 0.0001767085 0.00294778 0.00464501 0.0042912206 0.0017614652 0.0003930227
0.0010269752 0.00043826512 0.00025203664 0.00092886493 0.00027079627 2.8913742e-05 0.004916354 0.0039323913
0.003176966 0.0025458578 0.00014318852 0.00017256569 0.0053873784 0.0014897111 0.0010403713 0.0010330285
0.0017378688 0.0033074436 0.00057640375 0.004856058 0.0009057634 0.00045702315 0.0007117011 9.674896e-05
0.00058546325 0.0007055849 0.00042829863 0.0041875606 0.0004824536 0.00034553735 0.00020587498 0.0018067764
0.0061455746 0.0022687211

exp_avg f4 [50, 50]
00000000: 0093 833a 0d30 cf39 ae23 e1ba 08ff 8e36
00000010: 7db8 663a a85d 7f38 3a29 263a 354e 98ba
00000020: b873 5039 ff61 9839 e9a4 ceba 7832 073a
00000030: 6365 fb3a 9b51 903a 8daf 9e3a eda3 dd3a
00000040: 6d93 773a 008a f13a a2c1 7dba b834 d83a
00000050: 2b1a 98ba 8198 4439 4c01 2a3a 6b4b 34ba
00000060: 329a ad39 46c0 cbba 2f0b c43a 2278 1339
00000070: aa77 b63a 049c 48b8 6357 19ba b397 b939
00000080: 271f bc3a d26d 33b8 3d0f 3bb9 228d f6ba
00000090: 026f a3ba 6ac7 583a 0078 b8b8 eed2 b3ba
000000a0: a2b0 b83a 0a56 adba de7d d73a ddf0 85ba
000000b0: b9e1 b3b9 f4b7 073a 11bd 2aba 49a8 db3a
000000c0: e093 3f3a f25c 2e3a d4a0 013a 1857 d637
000000d0: 63d9 ee39 25a3 adb9 2360 1e39 0c6d 6139
000000e0: 16be 89b9 cc0b cab9 4362 71ba d8e4 6eb9
000000f0: 38cf b4b9 b950 26b9 f037 8cba 9511 2437
00000100: 4014 bbba aaf1 92b8 55aa d339 db5c d4ba
00000110: 1921 123b f051 3c39 a9d9 c638 05a4 3c39
00000120: 843c 9b38 d805 b439 9173 3f39 561a ff39
00000130: ae75 feb9 3d17 f0b8 7ab4 be39 12e6 8939
00000140: c269 3fb8 42ef 0339 b0c1 82ba 8adb f0b8
00000150: b4ac 40b9 e90c fb39 a7ae 2fb9 95d5 d539
00000160: 02d7 d1ba 6cc3 cc37 7e02 61b9 3ac9 85b9
00000170: fe3f efb9 e0e9 d5b9 6d15 afb9 6b27 0937
00000180: 5ed7 5437 7aa5 9738 1321 eab6 7a70 07b7
00000190: eb21 c03a 3fe0 a638 a505 7939 6485 36ba
000001a0: 400a 1a3a f8a3 8939 64e7 4237 5d35 9eba
000001b0: a368 abba b5f9 1f38 dfb1 caba 660a 4c39
000001c0: 29ad b0ba df6f f539 519b 0dbb e536 f039
000001d0: 40c3 9d3a c538 14bb 8506 7f3b 7e21 913a
000001e0: f338 2cba 159a 443a 0cb1 2b3a f725 b639
000001f0: 0e78 a939 cc8c a2b8 11ee 9eb9 6a26 4b39
00000200: 437d a43a cf8f 1d3a c949 89b9 9023 1239
00000210: 3c09 81ba 8082 76b7 d0da 01ba 5b34 4f39
00000220: 1989 85ba b016 8c3a 9a9f 3bbb e926 2bba
00000230: 8691 b039 4893 94ba f914 0bb9 25a4 92ba
00000240: 66f1 5dba f2e5 ca39 324d 2db9 588e 553a
00000250: 9e9b 8839 e4ed 2d39 91ba aeb9 1c4e 0b39
00000260: 8c0d edb9 d9f9 7d39 0d5c 0237 0a24 8838
00000270: f01a 01b9 43b0 1a39 6a73 9c39 f3db 82b9
00000280: 2927 ce39 9806 60b9 58bf 833a 14fc ed37
00000290: 440f af3a a53f c839 9abc 75b9 4ee1 7e3a
000002a0: 2ba3 06bb 6639 c9b8 5d05 ae39 62a3 e6b9
000002b0: 1f74 9bb9 fa39 24b9 d9ef a038 ab61 0439
000002c0: 02de a439 9496 9fb9 1ebe 98b8 1ca2 8bb9
000002d0: aabd 6db8 eceb 4e39 2653 4539 05bd 33b9
000002e0: 9e58 0739 c6df 11ba 0968 e538 1c1f 11b9
000002f0: 6204 503a 05e4 c538 ba53 8539 82e4 5639
00000300: a060 153a 1de6 9d38 0365 8139 476b 2eb9
00000310: 4bef d4b8 9551 4939 70d6 3e38 14a1 f038
00000320: a7e2 123a 57b7 f138 d803 0cba 6005 adb9
00000330: 5261 8739 eb05 b039 76b3 a7b9 6b7d 05ba
00000340: aeba 493a c49c 19ba cdc1 dbb9 1881 9eb9
00000350: eb39 5e3a 6038 5e39 eb20 833a 861e 633a
00000360: ab76 db39 54eb e739 7dc4 83ba bb0c 113a
00000370: ea17 a938 3f85 21b8 4e0e 80b8 5f54 4a39
00000380: 27a8 8f39 0cf3 acb7 c4bc 8339 7eb7 bcb9
00000390: c9d8 353a 54d3 4539 2a87 f4b8 2e7b 8d39
000003a0: 6984 0eb9 ea3b 83b9 f40c 2dba 3421 4aba
000003b0: 04e6 54ba f71e 023a caae 443a 7bcf 74b9
000003c0: 1f94 6f3a d3be c3b9 b773 833a 0a4f 2aba
000003d0: f4bc 9cb9 8bef 90b8 fc61 c1b8 e85a 5b3a
000003e0: 75b1 b038 a0d3 e238 aee3 32ba da88 0139
000003f0: e3b9 f3b8 6679 1e3a 38f3 61b8 448d 86b9
0.0010038316 0.00039517917 -0.0017176771 4.2616193e-06 0.00088012946 6.0883962e-05 0.00063385407 -0.0011619987
0.00019879534 0.00029064712 -0.00157657 0.0005157362 0.0019179996 0.0011010648 0.0012106762 0.0016909816
0.00094442704 0.0018427968 -0.00096800376 0.0016495204 -0.0011604478 0.00018748829 0.00064851786 -0.0006877693
0.00033112016 -0.0015544973 0.0014956946 0.00014063765 0.0013921161 -4.7829017e-05 -0.00058495085 0.00035398974
0.0014352546 -4.2779204e-05 -0.00017839386 -0.0018810371 -0.0012468996 0.0008269461 -8.7961555e-05 -0.0013719478
0.0014090727 -0.0013224494 0.001644071 -0.0010218878 -0.00034309717 0.00051772525 -0.00065131584 0.0016758527
0.0007308107 0.0006651423 0.0004944925 2.5551344e-05 0.00045556863 -0.00033118683 0.00015103868 0.00021498295
-0.000262723 -0.00038537232 -0.00092080625 -0.000227827 -0.00034486665 -0.00015861065 -0.0010697823 9.779255e-06
-0.0014273003 -7.006836e-05 0.00040371963 -0.001620199 0.002229756 0.00017959601 9.481918e-05 0.00017990179
7.402248e-05 0.0003433663 0.00018258231 0.00048657012 -0.00048534333 -0.0001144842 0.0003637409 0.00026302092
-4.5636443e-05 0.00012582264 -0.0009975936 -0.00011484984 -0.00018374884 0.0004788407 -0.00016754364 0.00040785657
-0.0016009512 2.4409695e-05 -0.000214586 -0.00025517662 -0.0004563331 -0.00040800776 -0.00033394565 8.175014e-06
1.2686329e-05 7.2310635e-05 -6.977594e-06 -8.072815e-06 0.0014658546 7.957266e-05 0.00023748593 -0.0006962626
0.0005876161 0.00026252843 1.1617176e-05 -0.0012070347 -0.0013077449 3.8141112e-05 -0.0015464387 0.0001945883
-0.001347934 0.00046813392 -0.0021607468 0.00045817267 0.0012036338 -0.0022616845 0.0038913798 0.0011072604
-0.00065697654 0.00074997667 0.00065495144 0.0003474203 0.0003232364 -7.7509874e-05 -0.00030313482 0.00019373899
0.0012549538 0.0006010504 -0.0002618565 0.00013936893 -0.0009844671 -1.4693127e-05 -0.0004953565 0.00019760562
-0.0010187953 0.0010687914 -0.0028629065 -0.00065289304 0.0003367776 -0.0011335397 -0.00013263886 -0.0011187835
-0.0008466452 0.00038699765 -0.00016527323 0.0008146516 0.00026055885 0.00016587187 -0.0003332687 0.00013285171
-0.00045214256 0.00024221036 7.770036e-06 6.491698e-05 -0.00012312434 0.00014752247 0.0002984063 -0.00024959407
0.00039320558 -0.00021364761 0.0010051532 2.8369985e-05 0.001335599 0.00038194392 -0.0002343528 0.0009722904
-0.0020544033 -9.595118e-05 0.00033191862 -0.00043990748 -0.0002965042 -0.00015661857 7.67407e-05 0.00012624885
0.00031445926 -0.00030439033 -7.283337e-05 -0.00026632927 -5.668184e-05 0.00019733579 0.00018818359 -0.00017141186
0.00012907616 -0.0005564656 0.00010938949 -0.00013839867 0.00079352234 9.436164e-05 0.00025430118 0.00020493756
0.0005698297 7.529205e-05 0.00024680057 -0.00016633897 -0.000101535195 0.00019199245 4.549924e-05 0.00011474095
0.0005603232 0.00011525925 -0.0005341149 -0.00033001136 0.00025821716 0.00033573745 -0.0003198643 -0.0005092236
0.0007695359 -0.0005859847 -0.00041915328 -0.0003023229 0.00084772584 0.00021192571 0.0010004317 0.0008663911
0.0004185935 0.00044235087 -0.0010053065 0.0005533208 8.063002e-05 -3.8509486e-05 -6.10618e-05 0.00019295652
0.0002740037 -2.0617175e-05 0.00025126908 -0.00035994867 0.00069369056 0.0001886611 -0.00011660003 0.00026985392
-0.00013591502 -0.00025030907 -0.00066013564 -0.0007710636 -0.0008121433 0.00049637206 0.0007502852 -0.00023346946
0.0009139198 -0.00037335473 0.0010028993 -0.0006496763 -0.0002989542 -6.9110734e-05 -9.221208e-05 0.0008367733
8.425388e-05 0.00010815938 -0.0006824088 0.0001235338 -0.00011621767 0.00060453115 -5.3870695e-05 -0.00025663723
