models/onlyadam_10e/ckpt/ckpt-5.pt (torch, 106691 bytes, 30 tensors)

linears.0.weight f4 [50, 2]
-0.010510911 0.24380697 0.40277535 -0.27213374 -0.09161328 -0.35956386 -0.27702987 -0.093627445
0.13925007 -0.13841897 0.27385575 -0.28625837 -0.108262226 -0.15595789 0.060235415 -0.00060162955
-0.006057051 0.19327217 0.16593552 0.22383232 -0.12884094 -0.25447616 -0.21780474 -0.066890135
0.1901518 -0.06898787 -0.1078487 0.23179701 -0.09373047 -0.19279718 -0.015057985 0.2100708
-0.12132017 0.14753571 -0.0013024516 -0.08937802 0.22074075 -0.15572178 -0.015322021 0.34024048
-0.04819902 -0.18933252 -0.28205547 -0.10814278 0.14911258 0.06419841 -0.15529399 -0.17662662
-0.2969404 0.23750399 -0.13120867 -0.32961056 -0.23651347 -0.011686392 0.12782261 0.14744285
0.0056067244 0.25743827 0.047732517 0.039149396 -0.23375118 0.12598695 -0.07775774 0.010286799
0.2902762 -0.42000666 0.074543186 0.10972111 -0.31893107 -0.13155983 -0.15117903 -0.01138568
-0.007875549 -0.20711893 0.099128135 -0.3200323 -0.07615948 0.102287866 0.0358564 0.03394107
0.022858828 -0.082005255 -0.11983252 -0.2981493 -0.05243586 0.4477473 -0.23607641 -0.0436787
-0.048434515 -0.16605805 0.21340865 -0.25293827 0.02886878 0.2202177 0.12515198 -0.25740555
0.099190965 -0.3897393 -0.12853168 0.13182035
00000000: f535 2cbc 89a8 793e 9238 ce3e 1d55 8bbe
00000010: be9f bbbd c118 b8be dcd6 8dbe bfbf bfbd
00000020: 9297 0e3e b4bd 0dbe d236 8c3e 7590 92be
00000030: 96b8 ddbd 6db3 1fbe 69b9 763d adb6 1dba
00000040: 3a7a c6bb 24e9 453e 00eb 293e 4d34 653e
00000050: e1ee 03be b34a 82be 3508 5fbe b2fd 88bd
00000060: 27b7 423e 8349 8dbd c7df dcbd 325c 6d3e
00000070: c3f5 bfbd a06c 45be c4b5 76bc cd1c 573e
00000080: b676 f8bd 9a13 173e 06b7 aaba d30b b7bd
00000090: dd09 623e 8875 1fbe 3709 7bbc 0034 ae3e
000000a0: 566c 45bd 62e0 41be 9369 90be f679 ddbd
000000b0: f8b0 183e 757a 833d 6305 1fbe 9cdd 34be
000000c0: 9208 98be 3f34 733e 915b 06be b7c2 a8be
000000d0: 9630 72be 4878 3fbc eee3 023e 42fb 163e
000000e0: 9db8 b73b f3ce 833e 2c83 433d 1e5b 203d
000000f0: 785c 6fbe b902 013e 733f 9fbd f689 283c
00000100: 159f 943e 1d0b d7be 19aa 983d 76b5 e03d
00000110: ef4a a3be 9fb7 06be adce 1abe 018b 3abc
00000120: 7208 01bc fc16 54be b103 cb3d 46db a3be
00000130: 80f9 9bbd 4d7c d13d 29de 123d cb05 0b3d
00000140: 7042 bb3c 5ff2 a7bd c16a f5bd 06a7 98be
00000150: fcc6 56bd 223f e53e 04be 71be 70e8 32bd
00000160: 4563 46bd 1f0b 2abe cc87 5a3e 2081 81be
00000170: 387e ec3c c080 613e d727 003e a9ca 83be
00000180: a224 cb3d e98b c7be cf9d 03be eafb 063e

linears.0.bias f4 [50]
0.00501848 -0.004845683 -0.0050200773 -0.004985159 -0.00472949 -0.004989121 -0.0043280874 -0.0048674894
-0.0049312925 -0.004880592 0.0045628645 0.00026334546 0.0049740816 0.004965965 -0.005014602 -0.0049223513
0.004975184 0.0029600044 0.0049967743 0.0050087273 -0.0050076568 0.0049418686 -0.0048990776 0.004873439
-0.0049403952 -0.0049650334 0.0042678365 -0.004909707 0.004789007 -0.0049478253 0.0033937087 -0.0049938015
-0.004837991 0.0049921027 -0.0049758167 0.0049867607 -0.005019699 -0.005017925 -0.0048989733 0.0050105653
-0.004974849 -0.0046326914 0.004943585 0.00487883 -0.00033277084 0.0047834343 0.0049198563 0.0009835295
-0.004981616 -0.0049935016
00000000: 1072 a43b 89c8 9ebb 767f a4bb 8b5a a3bb
00000010: d6f9 9abb c87b a3bb a1d2 8dbb 767f 9fbb
00000020: ae96 a1bb 60ed 9fbb 1584 953b a111 8a39
00000030: 9ffd a23b 89b9 a23b 8851 a4bb ad4b a1bb
00000040: de06 a33b a2fc 413b fbbb a33b 4020 a43b
00000050: 4517 a4bb 66ef a13b 7188 a0bb 5fb1 9f3b
00000060: 0ae3 a1bb b8b1 a2bb 35d9 8b3b 9be1 a0bb
00000070: 1aed 9c3b 5e21 a2bb fc68 5e3b 0ba3 a3bb
00000080: 0388 9ebb cb94 a33b 2d0c a3bb fb67 a33b
00000090: 4a7c a4bb 686d a4bb 9187 a0bb ab2f a43b
000000a0: 0f04 a3bb d5cd 97bb ccfd a13b 98de 9f3b
000000b0: bf77 aeb9 5bbe 9c3b bf36 a13b c6e9 803a
000000c0: d33c a3bb 87a0 a3bb

linears.1.weight f4 [50, 50]
-0.19780026 0.20677432 0.06826977 0.080864325 -0.037183575 0.034361966 0.020164628 0.1230295
-0.060993075 -0.05344697 0.16453615 0.021569015 -0.04993658 0.24592662 -0.116606735 0.22002745
0.0429835 0.09135437 -0.09162074 0.11135733 -0.1986132 0.058311082 -0.08642896 0.025366398
-0.19527145 -0.039837066 -0.15185249 0.21604574 -0.07167143 -0.04504191 0.14187045 0.0011921385
0.084123954 -0.14939953 0.25056013 -0.04206643 -0.025081404 -0.0018486349 0.104440205 -0.16607367
-0.10163798 -0.124605365 -0.01457139 -0.07793285 0.24812776 0.12719159 0.40640023 0.1066713
0.036615558 0.04131432 0.040839504 -0.2688077 -0.070905864 -0.35713196 0.06459394 0.07221489
0.07709991 0.017103067 0.09509886 -0.1342057 0.117397055 0.02631953 -0.14726968 0.17705403
0.1703593 0.049124792 -0.004539281 -0.07650864 0.0102418205 -0.3384525 -0.05853873 -0.052489504
-0.013615612 -0.020087197 -0.115341 0.017740507 0.036408313 0.22637624 0.061311085 0.08277258
0.1497669 0.17157945 0.1588862 0.0008007423 0.06741809 0.10404035 -0.082719974 0.23721683
-0.0024455593 -0.097311094 0.16237357 -0.1898256 -0.19955482 0.14199078 -0.22725533 -0.03784976
-0.18370418 -0.015914325 -0.07641642 -0.05985612 -0.21736829 -0.029061027 -0.06565382 0.051818065
-0.019097788 0.014406081 0.005245378 0.19516045 0.088914886 0.2566157 -0.050018772 0.28711888
-0.2052196 -0.10630015 -0.07633581 -0.12298005 -0.18170947 0.145919 -0.03826837 -0.11615491
-0.017073488 0.10744913 0.05621267 -0.077261575 0.028240936 0.11622862 -0.027827336 -0.029935988
0.12395606 -0.10403129 0.2385395 -0.21597688 -0.26624048 0.06782634 -0.048993025 -0.00067538314
-0.030956984 -0.01574421 -0.20387079 -0.040038414 0.19005543 0.0495557 -0.058467153 0.03187875
-0.18067873 -0.2121158 0.08002443 0.08065029 0.15029837 0.10397375 -0.016418692 -0.37133554
-0.049422923 -0.01666587 -0.08401209 -0.088066034 -0.09330725 -0.21726662 -0.03466319 -0.016257824
-0.09629382 -0.15308623 -0.12557279 -0.13618656 -0.23664749 -0.05664867 -0.21914205 0.0064390805
0.20249034 0.05610217 -0.15769838 -0.07999536 -0.039672606 0.09777989 0.0986663 -0.1382554
-0.05086351 -0.055495307 -0.2540779 0.20259838 -0.21170558 0.01738916 0.28761542 0.18715902
0.14240247 -0.020913204 0.07435085 0.036553778 0.07107445 0.04968189 -0.1672233 -0.31856558
0.00813044 0.2006114 -0.30297098 0.16346562 -0.014267168 -0.085324146 0.2496732 0.11928591
0.000591899 -0.06849186 -0.10975857 0.037435774 -0.3585791 -0.13882573 0.01204854 0.10674592
0.10583593 -0.046707045 -0.028822841 0.042178582 0.19529669 0.14637095 -0.104167655 0.13257761
0.10021012 -0.14475493 0.07302993 -0.10928406 0.01959521 -0.14511225 -0.108034715 -0.037470777
0.17111908 0.29611298 -0.09564544 -0.25054362 0.027494887 -0.19703679 -0.07039505 -0.058079313
-0.15493669 -0.42439902 -0.11531104 0.12156866 0.004421571 0.090562746 0.012869868 0.012929139
-0.17706111 -0.16813023 0.15105455 0.058992874 -0.14146057 -0.059726726 -0.0535761 -0.052057683
-0.0025789908 -0.11632411 0.19739586 0.09793782 -0.1221384 0.0747691 -0.13209036 0.043871213
00000000: 278c 4abe a6bc 533e 05d1 8b3d 329c a53d
00000010: ce4d 18bd 22bf 0c3d 4a30 a53c e4f6 fb3d
00000020: e0d3 79bd 36eb 5abd 2a7c 283e 81b1 b03c
00000030: 4d8a 4cbd 30d4 7b3e 83cf eebd e04e 613e
00000040: 770f 303d 0018 bb3d a8a3 bbbd 500f e43d
00000050: 4261 4bbe 9ad7 6e3d ab01 b1bd 31cd cf3c
00000060: 3df5 47be 312c 23bd 387f 1bbe 183b 5d3e
00000070: 78c8 92bd de7d 38bd 7d46 113e 8841 9c3a
00000080: 2e49 ac3d 31fc 18be 6b49 803e d94d 2cbd
00000090: 8477 cdbc e54d f2ba bfe4 d53d 370f 2abe
000000a0: 9327 d0bd 1931 ffbd d7bc 6ebc 429b 9fbd
000000b0: 3415 7e3e 833e 023e b113 d03e 7c76 da3d
000000c0: 32fa 153d 3439 293d 5347 273d 2aa1 89be
000000d0: 1837 91bd 00da b6be d449 843d 66e5 933d
000000e0: 8fe6 9d3d bb1b 8c3c 31c3 c23d 386d 09be
000000f0: de6d f03d 0e9c d73c ddcd 16be a74d 353e
00000100: ab72 2e3e 1437 493d 40be 94bb 90b0 9cbd
00000110: 4fcd 273c a549 adbe 4fc6 6fbd 3cff 56bd
00000120: 0414 5fbc e88d a4bc e737 ecbd 8a54 913c
00000130: e220 153d 2ccf 673e 5521 7b3d ac84 a93d
00000140: 7f5c 193e 86b2 2f3e 10b3 223e e8e8 513a
00000150: 7f12 8a3d 1b13 d53d 1769 a9bd f8e8 723e
00000160: ad45 20bb 0a4b c7bd 4245 263e a461 42be
00000170: 1958 4cbe 0866 113e 9fb5 68be 5a08 1bbd
00000180: f31c 3cbe c25e 82bc 3680 9cbd b12b 75bd
00000190: cb95 5ebe 6411 eebc 8375 86bd 2e3f 543d
000001a0: f772 9cbc 7c07 6c3c 6be1 ab3b 24d8 473e
000001b0: 0219 b63d 2263 833e 7ce0 4cbd 3f01 933e
000001c0: 1625 52be e5b3 d9bd f355 9cbd f7dc fbbd
000001d0: 0c12 3abe ca6b 153e 4bbf 1cbd a0e2 edbd
000001e0: b3dd 8bbc 4a0e dc3d 423f 663d 513b 9ebd
000001f0: 8959 e73c 4509 ee3d 27f6 e3bc 513c f5bc
00000200: addc fd3d 5b0e d5bd b343 743e 0b29 5dbe
00000210: ac50 88be 89e8 8a3d e9ac 48bd 320c 31ba
00000220: 8099 fdbc 00fa 80bc 81c3 50be 52ff 23bd
00000230: e49d 423e ebfa 4a3d 417b 6fbd 4b93 023d
00000240: d803 39be e234 59be d9e3 a33d fb2b a53d
00000250: d1e7 193e 30f0 d43d 7e80 86bc b11f bebe
00000260: b16f 4abd dd86 88bc 880e acbd f75b b4bd
00000270: df17 bfbd 247b 5ebe fdfa 0dbd 212f 85bc
00000280: b235 c5bd a3c2 1cbe 2796 00be 7d74 0bbe
00000290: b853 72be 7008 68bd c666 60be ecfe d23b
000002a0: a159 4f3e 64cb 653d af7b 21be 9bd4 a3bd
000002b0: be7f 22bd d340 c83d 8f11 ca3d d392 0dbe
000002c0: 4256 50bd 0c4f 63bd 8016 82be f375 4f3e
000002d0: 59c9 58be b673 8e3c 5442 933e 9da6 3f3e
000002e0: f4d1 113e 2b52 abbc 4245 983d 6ab9 153d
000002f0: 7b8f 913d 3d7f 4b3d 963c 2bbe 071b a3be
00000300: 8935 053c 136d 4d3e 031f 9bbe 8863 273e
00000310: d7c0 69bc 6dbe aebd 55aa 7f3e 2c4c f43d
00000320: ab29 1b3a 7645 8cbd 1ac9 e0bd 4156 193d
00000330: ae97 b7be 5528 0ebe 3d67 453c 9b9d da3d
00000340: 82c0 d83d e34f 3fbd e11d ecbc 73c3 2c3d
00000350: dbfb 473e 44e2 153e da55 d5bd 6dc2 073e
00000360: f73a cd3d a33a 14be b790 953d 52d0 dfbd
00000370: 2286 a03c 4e98 14be 4e41 ddbd f57a 19bd
00000380: d739 2f3e 1f9c 973e c2e1 c3bd 4147 80be
00000390: f53c e13c 03c4 49be 482b 90bd 93e4 6dbd
000003a0: b9a7 1ebe d44a d9be 3228 ecbd fdf8 f83d
000003b0: d3e2 903b f678 b93d 24dc 523c bdd4 533c
000003c0: 824f 35be 552a 2cbe 0bae 1a3e 83a2 713d
000003d0: 0adb 10be 03a4 74bd 9d72 5bbd 703a 55bd
000003e0: 4904 29bb 563b eebd 2422 4a3e a093 c83d
000003f0: b323 fabd 8b20 993d b242 07be 4db2 333d

linears.1.bias f4 [50]
-0.0050068838 -0.0049656276 -0.004963234 -0.004831398 0.005002114 0.004933559 -0.004975513 -0.0050048344
0.004957811 0.0043027145 -0.00493834 0.0021400254 0.004973511 0.0049973144 -0.004959741 0.0049650883
-0.004977453 -0.004680365 0.00502041 0.00496722 -0.0049433806 -0.0049544964 0.004993144 -0.0049566175
0.0038670157 0.00497197 -0.0048745666 0.0049912995 -0.004891172 0.004879832 0.0050102505 0.0043704906
-0.0049618995 0.0049261185 0.0049345093 -0.005021466 -0.005007961 0.004955045 -0.005004349 0.0048868074
-0.005020353 -0.0048594014 0.0049091144 0.004965072 -0.00495841 -0.004907208 0.0049117324 0.004937981
0.00492016 0.0049600923
00000000: c910 a4bb b4b6 a2bb a0a2 a2bb b450 9ebb
00000010: c6e8 a33b b1a9 a13b a109 a3bb 98ff a3bb
00000020: 2275 a23b c9fd 8c3b ccd1 a1bb ab3f 0c3b
00000030: d6f8 a23b 83c0 a33b 5385 a2bb 2eb2 a23b
00000040: e719 a3bb bf5d 99bb 4082 a43b 10c4 a23b
00000050: 15fc a1bb 5459 a2bb 879d a33b 1f6b a2bb
00000060: c26d 7d3b e8eb a23b d4ba 9fbb 0e8e a33b
00000070: 2046 a0bb ffe6 9f3b 072d a43b 5536 8f3b
00000080: 6e97 a2bb 476b a13b aab1 a13b 1c8b a4bb
00000090: d219 a4bb ee5d a23b 86fb a3bb 8321 a03b
000000a0: c681 a4bb 9d3b 9fbb a3dc a03b 0bb2 a23b
000000b0: 287a a2bb a5cc a0bb 99f2 a03b c9ce a13b
000000c0: 4b39 a13b 4588 a23b

linears.2.weight f4 [50, 50]
0.228325 -0.31403568 -0.13892268 -0.11043344 -0.107392706 0.26965886 0.081238054 -0.17932707
-0.15739755 0.031704538 0.018891223 0.14999585 0.21954328 0.0395257 -0.105541356 -0.01923864
-0.18834504 -0.21045074 -0.30468345 -0.06303403 0.1389833 0.32144117 0.20028712 0.097447634
-0.025985418 0.08099275 0.12851816 0.015282691 -0.005441197 0.045181386 0.14137971 -0.11522744
-0.17746437 0.03590036 -0.04359553 0.031164981 0.36239606 -0.11614118 -0.0459709 -0.05696114
0.05272804 -0.18755354 0.10555062 0.122694016 0.05838221 -0.14555238 -0.121756785 0.0013802651
-0.09709889 0.005933884 -0.043574728 -0.31173763 -0.11377566 0.0151104955 0.15378937 0.14843385
-0.11978207 0.0051809982 0.021240175 -0.2384593 -0.32539958 -0.15044855 -0.0719426 0.16521417
-0.34736288 -0.08084884 0.03387496 0.024586797 0.11995512 0.1549623 -0.1335289 -0.012038767
-0.28731796 -0.116249666 -0.094239965 0.120437585 0.17779242 0.15940545 0.114809915 0.017250687
0.11009422 0.073406816 0.09956071 0.15326971 0.052941594 -0.06494799 -0.050022863 0.06407172
-0.061177853 0.08910974 -0.016328838 -0.12468168 0.12804341 0.26364228 0.031895615 0.031244662
0.03372292 0.09358796 0.15656117 0.1904592 -4.647826e-05 -0.15533267 0.06988168 -0.104945086
0.12294231 0.43859965 -0.015273844 -0.22584833 0.16001885 0.31065118 -0.038418893 0.14432348
-0.002796786 -0.2312525 0.19798698 -0.0053746193 -0.052284595 0.08577242 0.19185784 -0.24124442
-0.09922833 -4.6727226e-05 -0.09827677 0.24116497 0.027696988 0.37066364 0.23817083 -0.044710424
-0.001218543 -0.12263603 -0.026193956 0.02022188 -0.026471954 0.028938964 0.01635366 0.24951081
-0.12583628 -0.07007709 0.025685223 0.15207785 0.022898138 -0.11094212 -0.0077939136 -0.07902826
0.084085375 0.15262748 -0.36711773 0.21061265 0.07415389 0.029614551 -0.084449135 0.02631542
-0.09325469 -0.095949486 -0.047768366 0.196346 0.05247731 0.044532668 -0.022071425 -0.15731193
-0.11418557 -0.045176435 0.03196186 -0.1102379 0.00829207 -0.30229276 -0.13597965 0.12064402
0.14446346 -0.12198978 0.028913992 0.13323486 0.10198541 -0.038552597 -0.121420465 0.018305931
-0.09743178 -0.10396768 0.22563529 -0.1646554 0.250254 -0.06708379 0.10297414 0.04762055
-0.070907466 -0.07696918 -0.14504568 -0.13194947 0.1025679 0.019245997 0.13412106 -0.024071641
-0.25225702 0.075743146 0.16667275 0.12957415 -0.061079483 0.06788359 0.13443592 0.1022601
-0.0043505603 0.18699661 -0.009106691 0.09512325 0.04119249 0.27243802 -0.19643472 0.33261767
-0.11658725 0.05698797 0.18563752 -0.21192919 -0.21402398 0.16998973 0.3220591 -0.06552578
0.09843385 0.11238755 -0.30578986 -0.104205646 -0.11115453 -0.0757048 -0.12746839 -0.18836333
-0.18672995 -0.22163235 0.29565552 -0.10882281 0.030627988 -0.12165428 -0.12559658 -0.03657735
-0.11563778 -0.22610196 -0.12950255 -0.0056947684 0.16611844 -0.037639257 0.06673892 -0.11622014
0.08095826 -0.00722999 0.109680384 0.05535796 -0.1700927 0.15988381 -0.008549618 0.090434685
0.12638634 -0.028179795 -0.08794025 0.014274888 0.23800322 -0.19588266 -0.18849508 0.27260774
00000000: 07ce 693e 49c9 a0be bf41 0ebe ed2a e2bd
00000010: b5f0 dbbd ba10 8a3e 2360 a63d 84a1 37be
00000020: d32c 21be 9edc 013d c4c1 9a3c 8398 193e
00000030: f4cf 603e b3e5 213d 1126 d8bd 5a9a 9dbc
00000040: 86dd 40be 6680 57be 78ff 9bbe fc17 81bd
00000050: a351 0e3e f093 a43e 1118 4d3e a092 c73d
00000060: 5fdf d4bc 87df a53d 449a 033e 4164 7a3c
00000070: 124c b2bb 1e10 393d d8c5 103e 5dfc ebbd
00000080: 38b9 35be 420c 133d 3a91 32bd b44d ff3c
00000090: fa8b b93e 6ddb edbd fc4b 3cbd 1650 69bd
000000a0: 5bf9 573d 090e 40be ec2a d83d 0047 fb3d
000000b0: 2f22 6f3d af0b 15be 9f5b f9bd 03ea b43a
000000c0: c8db c6bd 0771 c23b 6a7b 32bd 139c 9fbe
000000d0: 3703 e9bd 0392 773c f67a 1d3e 0bff 173e
000000e0: 4d50 f5bd 5dc5 a93b e0ff ad3c ad2e 74be
000000f0: c69a a6be 2f0f 1abe a456 93bd e72d 293e
00000100: 8cd9 b1be 1494 a5bd 78c0 0a3d 406a c93c
00000110: 08ab f53d 70ae 1e3e cdbb 08be 403e 45bc
00000120: 571b 93be 4e14 eebd e200 c1bd fba7 f63d
00000130: 370f 363e 2f3b 233e 7621 eb3d 5051 8d3c
00000140: 1479 e13d 5056 963d 7ce6 cb3d bcf2 1c3e
00000150: 49d9 583d 7403 85bd c6e4 4cbd 0938 833d
00000160: a195 7abd 2b7f b63d 0ec4 85bc 1c59 ffbd
00000170: d01d 033e 1ffc 863e faa4 023d cef4 ff3c
00000180: 0b21 0a3d 0bab bf3d 9251 203e bd07 433e
00000190: a7f1 42b8 870f 1fbe 201e 8f3d 73ed d6bd
000001a0: 2ec9 fb3d 2290 e03e 253f 7abc c944 67be
000001b0: fbdb 233e ac0d 9f3e 215d 1dbd 89c9 133e
000001c0: 484a 37bb 75cd 6cbe 19bd 4a3e 931d b0bb
000001d0: 5f28 56bd 73a9 af3d 6276 443e c708 77be
000001e0: 3938 cbbd fafc 43b8 5545 c9bd f3f3 763e
000001f0: cbe4 e23c a0c7 bd3e 0ee3 733e 4722 37bd
00000200: 85b7 9fba 9928 fbbd b594 d6bc 5ba8 a53c
00000210: b6db d8bc 6811 ed3c 1cf8 853c c37f 7f3e
00000220: 3adb 00be 9484 8fbd d169 d23c 4cba 1b3e
00000230: e094 bb3c 9f35 e3bd 1664 ffbb 92d9 a1bd
00000240: f434 ac3d 614a 1c3e dbf6 bbbe d8aa 573e
00000250: ffdd 973d 379a f23c abf3 acbd 7093 d73c
00000260: 51fc bebd 2a81 c4bd c3a8 43bd ed0e 493e
00000270: 73f2 563d e367 363d 22cf b4bc 6116 21be
00000280: 20da e9bd ed0a 39bd 70ea 023d 68c4 e1bd
00000290: 76db 073c 1ec6 9abe 403e 0bbe 3614 f73d
000002a0: 3bee 133e c7d5 f9bd 09dd ec3c b86e 083e
000002b0: badd d03d 54e9 1dbd 4bab f8bd 52f6 953c
000002c0: 508a c7bd 02ed d4bd f00c 673e 6d9b 28be
000002d0: 4b21 803e 3a63 89bd 1be4 d23d c40d 433d
000002e0: ef37 91bd 04a2 9dbd db86 14be c31d 07be
000002f0: 1f0f d23d c8a9 9d3c 0857 093e e431 c5bc
00000300: d527 81be 391f 9b3d 43ac 2a3e 16af 043e
00000310: 7b2e 7abd 8d06 8b3d 92a9 093e be6d d13d
00000320: 258f 8ebb 0a7c 3f3e 3b34 15bc facf c23d
00000330: 75b9 283d ff7c 8b3e 2f26 49be dd4c aa3e
00000340: 4cc5 eebd 386c 693d c317 3e3e f703 59be
00000350: 1a29 5bbe ca11 2e3e eee4 a43e 6132 86bd
00000360: b097 c93d 722b e63d 7d90 9cbe c569 d5bd
00000370: fca4 e3bd 1e0b 9bbd 1387 02be 51e2 40be
00000380: 2336 3fbe 97f3 62be 2960 973e 7ede debd
00000390: 8ce7 fa3c e125 f9bd 649c 00be 22d2 15bd
000003a0: 80d3 ecbd 4687 67be 519c 04be 2e9b babb
000003b0: f41a 2a3e 9f2b 1abd 6aae 883d d304 eebd
000003c0: 72cd a53d 8de9 ecbb 1ca0 e03d 07bf 623d
000003d0: c82c 2ebe 95b8 233e b213 0cbc d235 b93d
000003e0: 6c6b 013e 50d9 e6bc 051a b4bd 38e1 693c
000003f0: 1eb7 733e 7795 48be db04 41be 3e93 8b3e

linears.2.bias f4 [50]
0.0049127843 0.0049722167 0.004452717 0.004984912 -0.0049322867 -0.0041508833 0.004930974 0.0050006974
0.004964306 -0.00496317 0.004977996 0.0050004693 -0.005005979 -0.0049167615 -0.0049434137 0.0050001154
-0.0044992897 -0.0049430374 -0.0049409242 0.00485675 0.0049151885 -0.0002138951 -0.0049578715 0.004961744
-0.004872218 0.0049666753 0.004954038 0.004960249 -0.0049322695 0.0050077625 0.0049306294 -0.004905904
-0.004845897 -0.004961692 -0.0050223465 -0.004792416 0.0049667424 -0.0050001144 0.0029623255 -0.004954411
-0.0048894165 -0.00486619 0.004589011 -0.0049604615 -0.004691357 0.004790338 -0.0049414965 -0.0049630567
0.0048617595 -0.004845635
00000000: 6cfb a03b faed a23b 19e8 913b 7958 a33b
00000010: 059f a1bb 2204 88bb 0294 a13b e4dc a33b
00000020: 9eab a23b 16a2 a2bb 751e a33b fada a33b
00000030: 3209 a4bb c91c a1bb 5cfc a1bb 02d8 a33b
00000040: c76e 93bb 34f9 a1bb 7ae7 a1bb 5f25 9f3b
00000050: 970f a13b 0749 60b9 a475 a2bb 2096 a23b
00000060: 20a7 9fbb 7ebf a23b 7c55 a23b 9689 a23b
00000070: e09e a1bb 2818 a43b 1e91 a13b b5c1 a0bb
00000080: 55ca 9ebb b095 a2bb 7f92 a4bb b309 9dbb
00000090: 0ec0 a23b 00d8 a3bb 9323 423b 9d58 a2bb
000000a0: 6637 a0bb 8f74 9fbb 6a5f 963b 5e8b a2bb
000000b0: f4b9 99bb 45f8 9c3b 47ec a1bb 23a1 a2bb
000000c0: 654f 9f3b 22c8 9ebb

linears.3.weight f4 [50, 50]
0.062782496 -0.31207266 -0.09737444 0.043124404 -0.043053888 0.24005267 0.07567906 -0.1749534
0.013869068 -0.0664623 -0.19345827 0.059147887 0.20035233 -0.17960511 -0.035859674 0.044306275
-0.067989595 -0.08434259 0.03156006 -0.020065723 0.017895447 -0.19153947 -0.039638363 -0.09248951
-0.06452601 -0.12865286 -0.23309061 -0.14198978 0.05620233 -0.15710838 0.010237805 0.006039596
-0.0012993285 0.008181557 -0.014419142 0.026009167 0.13847065 0.13272321 -0.10635281 0.26778063
0.11989987 -0.18962623 -0.14670478 0.027708316 -0.062116697 -0.04384022 -0.056358352 -0.106695615
0.03505597 0.13183935 0.16583279 0.08083236 0.009576456 0.03231106 -0.07984432 0.043032203
-0.025937552 0.19175023 -0.14655134 0.1435192 0.14657915 -0.040412676 0.05920143 0.0561209
-0.08167009 -0.055457268 0.060652986 0.13142464 0.10763688 -0.061996706 -0.0024289165 0.21824712
-0.075219944 -0.14330691 -0.18938494 -0.13153762 -0.016240554 -0.08924802 -0.00399696 0.0063433023
0.12785058 -0.09271735 0.07689005 0.09582569 -0.038113456 -0.055669673 0.016626121 -0.015184779
-0.23242877 0.09377252 -0.21675305 0.032295868 0.050022207 0.30524153 -0.19541714 0.080427825
-0.054047566 0.18555321 -0.15926233 -0.08488271 0.13706139 0.12966667 0.17057662 -0.2811393
-0.02827135 -0.14673638 0.13486646 -0.052306734 0.09669344 -0.07715034 -0.015106099 -0.0722286
-0.029481312 0.04870501 -0.07257326 0.17264597 -0.029035592 0.08939477 0.11815517 0.058548555
0.23630184 0.046909798 -0.19191453 -0.054832913 0.003306036 -0.13286777 -0.18500763 0.09186169
0.01726099 0.11264329 0.069878116 -0.04717726 -0.0013136922 -0.0736761 -0.1363668 -0.06606412
-0.056352586 0.22915292 -0.053029697 0.045404427 0.11229639 -0.0040151346 0.18187377 -0.09363865
-0.06277827 -0.16853155 0.056545045 0.072085 0.14189817 0.3658032 0.19064334 -0.008005985
-0.10399794 -0.074055135 -0.021293392 -0.25052094 -0.2962114 0.1516396 -0.0029869617 0.012400417
-0.08479958 -0.3521757 -0.21157126 -0.013722216 0.015415057 0.07067881 -0.05665102 -0.08751417
0.09345903 -0.009426612 -0.13261409 -0.012160299 0.102198705 -0.20403264 0.08983837 0.2891364
-0.112104565 -0.17605865 -0.05351835 0.0040285625 0.038407657 0.006513763 0.33586532 0.21603234
0.2733166 0.037297636 0.1588427 0.124575354 0.12622894 0.00070359604 -0.073103786 0.20593438
0.28931832 0.14555274 0.12650138 0.12728493 -0.21293761 -0.2261742 -0.08343196 0.021343563
0.13453864 0.14846879 0.23185089 -0.23356682 -0.00018387694 -0.075276144 0.1173311 -0.14017932
0.1843454 -0.110217646 -0.19356886 0.3230835 -0.08830509 -0.047185466 -0.09078446 -0.08427944
-0.07496306 -0.019767312 -0.07918775 0.14519125 0.008076238 -0.044190757 0.030266358 -0.0064803315
-0.06333039 -0.12737237 0.13687025 0.09124173 -0.06884805 0.18544553 0.1932054 -0.19000624
0.0014586981 -0.03911495 0.04687088 -0.027270159 0.05404581 0.0031447716 0.1971527 -0.20095769
-0.16076966 -0.09873059 0.16634332 0.13795161 0.06602877 -0.0043383446 0.14726903 -0.012890346
0.09942762 -0.20387658 -0.06477577 0.10187657 -0.2751903 0.05471653 0.13552503 -0.35858223
00000000: 1c94 803d fdc7 9fbe 406c c7bd 37a3 303d
00000010: 4659 30bd 5ed0 753e 9ffd 9a3d fc26 33be
00000020: 163b 633c 631d 88bd ed19 46be 0e45 723d
00000030: 2929 4d3e 67ea 37be 98e1 12bd 7f7a 353d
00000040: 213e 8bbd cfbb acbd 1f45 013d df60 a4bc
00000050: 7999 923c ec22 44be d65b 22bd 246b bdbd
00000060: 3626 84bd 93bd 03be 4eaf 6ebe c565 11be
00000070: 6a34 663d 05e1 20be 77bc 273c cee7 c53b
00000080: 3b4e aaba f00b 063c 443e 6cbc 2d11 d53c
00000090: 40cb 0d3e 98e8 073e 81cf d9bd 8b1a 893e
000000a0: 108e f53d 612d 42be c739 16be 8dfc e23c
000000b0: 146e 7ebd cd91 33bd 04d8 66bd 3b83 dabd
000000c0: d996 0f3d e500 073e 12d0 293e 708b a53d
000000d0: 91e6 1c3c 9a58 043d 6b85 a3bd 8942 303d
000000e0: fd7a d4bc 2c5a 443e 8e11 16be b2f6 123e
000000f0: d818 163e c387 25bd 337d 723d 07df 653d
00000100: a642 a7bd 2927 63bd 446f 783d 2e94 063e
00000110: b970 dc3d 42f0 7dbd 752e 1fbb 2c7c 5f3e
00000120: ea0c 9abd 0cbf 12be 20ee 41be ccb1 06be
00000130: e90a 85bc aac7 b6bd eef8 82bb 7adb cf3b
00000140: 43eb 023e 98e2 bdbd 8878 9d3d 4240 c43d
00000150: db1c 1cbd e205 64bd 8133 883c 94c9 78bc
00000160: cf01 6ebe cf0b c03d 83f4 5dbe ac48 043d
00000170: 16e4 4c3d 9e48 9c3e 6e1b 48be 58b7 a43d
00000180: fb60 5dbd a901 3e3e aa15 23be fcd6 adbd
00000190: d259 0c3e 57c7 043e a3ab 2e3e 7ef1 8fbe
000001a0: 5199 e7bc 1042 16be 6f1a 0a3e 963f 56bd
000001b0: 3607 c63d ff00 9ebd 927f 77bc 97ec 93bd
000001c0: cb82 f1bc e87e 473d 4aa1 94bd 1bca 303e
000001d0: 0ddc edbc 9b14 b73d 56fb f13d 9cd0 6f3d
000001e0: 1cf9 713e 7d24 403d 3e85 44be 7a98 60bd
000001f0: 14aa 583b 7d0e 08be a472 3dbe fb21 bc3d
00000200: eb66 8d3c 86b1 e63d 421c 8f3d f13c 41bd
00000210: 3230 acba 7fe3 96bd bda3 0bbe a04c 87bd
00000220: f8d1 66bd 10a7 6a3e ab35 59bd fef9 393d
00000230: a6fb e53d 6491 83bb 1e3d 3a3e 9fc5 bfbd
00000240: e591 80bd 8993 2cbe c79b 673d 4da1 933d
00000250: c14d 113e 8f4a bb3e 0238 433e 892b 03bc
00000260: dffc d4bd 38aa 97bd 7b6f aebc 4844 80be
00000270: 05a9 97be 6947 1b3e e7c0 43bb 1e2b 4b3c
00000280: 67ab adbd 6050 b4be 23a6 58be 25d3 60bc
00000290: 6f8f 7c3c 0dc0 903d e60a 68bd a13a b3bd
000002a0: 7367 bf3d 1472 1abc fdcb 07be fe3b 47bc
000002b0: 8e4d d13d efed 50be 2efd b73d b009 943e
000002c0: 1497 e5bd b848 34be 0f36 5bbd 0802 843b
000002d0: 5951 1d3d 6871 d53b 8af6 ab3e 9537 5d3e
000002e0: 27f0 8b3e 68c5 183d a9a7 223e 5d21 ff3d
000002f0: 2942 013e 8871 383a 70b7 95bd 76e0 523e
00000300: 8821 943e c70b 153e 9489 013e fb56 023e
00000310: 510c 5abe 369a 67be 60de aabd b2d8 ae3c
00000320: 7fc4 093e 3408 183e 526a 6d3e 242c 6fbe
00000330: 17cf 40b9 612a 9abd 4a4b f03d 2b8b 0fbe
00000340: 0ac5 3c3e cab9 e1bd ea36 46be 336b a53e
00000350: 4dd9 b4bd 8c45 41bd 34ed b9bd b39a acbd
00000360: 3c86 99bd 0fef a1bc 302d a2bd 04ad 143e
00000370: 3352 043c 5e01 35bd 27f1 f73c f658 d4bb
00000380: 5db3 81bd e76d 02be b727 0c3e f2dc ba3d
00000390: 3500 8dbd 6fe5 3d3e a3d7 453e ff90 42be
000003a0: c931 bf3a ff36 20bd aefb 3f3d ab65 dfbc
000003b0: 245f 5d3d 8318 4e3b 66e2 493e dac7 4dbe
000003c0: cda0 24be 4333 cabd e755 2a3e 3043 0d3e
000003d0: 173a 873d ac28 8ebb b1cd 163e 0832 53bc
000003e0: b5a0 cb3d 06c5 50be 29a9 84bd aaa4 d03d
000003f0: bee5 8cbe 711e 603d 13c7 0a3e 1798 b7be

linears.3.bias f4 [50]
-0.004975478 0.0049113682 0.004789447 -0.004967861 0.0048259804 -0.004947832 0.0040075146 0.003535489
-0.004997798 -0.004812199 -0.0049938117 0.0034886487 -0.0048499377 0.004806812 -0.00092813664 -0.0049897316
-0.004962538 -0.0049481303 0.005006372 -0.004942169 0.005020388 -0.004874792 -0.0049400465 -0.0049408046
-0.0044794343 -0.0049916273 0.0049229017 0.0049559106 -0.004913784 -0.0049908245 0.005007337 -0.0049162623
0.0049651493 0.004865752 -0.0049363365 -0.004554067 -0.004959729 0.0049286685 0.004878314 0.0049403547
-0.0050166636 0.0048987144 0.004967084 0.004793535 0.003849533 0.0044596386 0.004888069 -0.0049776477
0.0049375063 -0.0050147837
00000000: 5609 a3bb 8bef a03b cbf0 9c3b 70c9 a2bb
00000010: 4223 9e3b 6c21 a2bb 7851 833b aab3 673b
00000020: 91c4 a3bb a7af 9dbb 21a3 a3bb d0a1 643b
00000030: 3aec 9ebb 7682 9d3b 324e 73ba e780 a3bb
00000040: c99c a2bb ed23 a2bb 7e0c a43b ebf1 a1bb
00000050: 1182 a43b b8bc 9fbb 1de0 a1bb 79e6 a1bb
00000060: 38c8 92bb ce90 a3bb 4b50 a13b 3165 a23b
00000070: cf03 a1bb 128a a3bb 9614 a43b 9918 a1bb
00000080: b1b2 a23b e370 9f3b fec0 a1bb 483a 95bb
00000090: 3985 a2bb ab80 a13b 44da 9f3b b3e2 a13b
000000a0: d362 a4bb 6585 a03b ecc2 a23b 1613 9d3b
000000b0: 7248 7c3b 2922 923b 182c a03b 891b a3bb
000000c0: ceca a13b 0e53 a4bb

linears.4.weight f4 [3, 50]
-0.15482342 0.059592795 -0.015787171 -0.26041245 0.003380595 -0.15073398 -0.05068424 -0.11616576
-0.30344266 -0.023731865 -0.14123486 -0.06611488 -0.009151608 -0.003437373 0.11180582 -0.20154369
-0.4818166 -0.30091882 0.31767893 -0.45959347 0.16500291 -0.09151654 -0.41814974 -0.25187996
-0.00024422258 -0.16012393 0.16785832 0.16229941 -0.25989547 -0.10481128 0.12576286 -0.25958186
0.19358236 0.043617956 -0.056600485 0.05142988 -0.33539817 0.22754055 0.0012440569 0.05369214
-0.27424887 0.108810686 0.3083934 -0.009515872 -0.06103331 -0.033306926 0.07045624 -0.28508264
0.15997742 -0.29530782 -0.054685716 -0.14534204 0.079777256 0.022052297 0.09426457 -0.33126703
-0.10869307 0.10896462 -0.041253183 0.43342394 -0.19829407 0.006724452 -0.043042634 0.24534595
0.19530962 0.16207634 0.052037228 0.04032956 -0.52342266 0.15946078 0.05090626 0.18440074
0.13132428 0.08474521 0.28897557 0.2328896 0.19974352 -0.029814698 -0.18819655 -0.050972465
0.25838685 -0.06807983 0.10472842 -0.20786124 -0.034615614 -0.090781115 -0.09401689 0.28901875
0.106267795 -0.03966696 -0.17301154 -0.009564239 0.27334663 -0.109959856 -0.080963485 -0.23306793
0.13263485 -0.094968565 0.053931467 -0.36826056 0.03742473 0.05287749 0.20901194 0.09675686
0.4340656 -0.037066367 0.14660572 0.25859812 0.2162568 -0.21572879 0.11568604 0.16140532
-0.24970959 0.06354494 -0.23403281 0.16370854 0.043305304 -0.039485987 -0.28974667 -0.11382996
-0.20500223 -0.24388455 -0.21386693 -0.10133929 -0.051055368 0.11024179 0.1744284 -0.03814895
-0.34590778 0.05082013 -0.1121665 -0.32517287 -0.029435234 0.09887464 -0.02807115 -0.17873283
-0.012982788 0.15616207 0.07114994 0.044490192 0.2891794 0.18003044 -0.051906496 0.25826472
0.1730042 0.13974091 0.21405151 0.08198427 0.058197193 0.3010111
00000000: 088a 1ebe 9317 743d 1954 81bc c854 85be
00000010: f98c 5d3b 025a 1abe 479a 4fbd 50e8 edbd
00000020: d65c 9bbe 5469 c2bc df9f 10be 3d67 87bd
00000030: a0f0 15bc 8d45 61bb 73fa e43d 7861 4ebe
00000040: aab0 f6be 0812 9abe d0a6 a23e d64f ebbe
00000050: 86f6 283e 066d bbbd b917 d6be 69f6 80be
00000060: 000b 80b9 87f7 23be 0de3 2b3e d131 263e
00000070: 0511 85be 4ca7 d6bd fbc7 003e eae7 84be
00000080: 743a 463e bea8 323d e9d5 67bd 23a8 523d
00000090: 4fb9 abbe 6400 693e 9f0f a33a 4aec 5b3d
000000a0: 596a 8cbe 23d8 de3d bde5 9d3e 76e8 1bbc
000000b0: 10fe 79bd d86c 08bd 5c4b 903d 5af6 91be
000000c0: 1fd1 233e 9632 97be 21fe 5fbd 8bd4 14be
000000d0: 4262 a33d 05a7 b43c c80d c13d d59b a9be
000000e0: 799a debd d828 df3d 19f9 28bd bee9 dd3e
000000f0: 9a0d 4bbe cb58 dc3b 794d 30bd f83b 7b3e
00000100: 3fff 473e 57f7 253e fd24 553d 9c30 253d
00000110: 07ff 05bf b049 233e 1583 503d 8cd3 3c3e
00000120: df79 063e e68e ad3d 9bf4 933e 9c7a 6e3e
00000130: 9189 4c3e f43d f4bc 99b6 40be 81c8 50bd
00000140: 484b 843e 706d 8bbd db7b d63d 94d9 54be
00000150: 1ac9 0dbd 73eb b9bd ed8b c0bd 44fa 933e
00000160: eea2 d93d d279 22bd f029 31be 53b3 1cbc
00000170: 17f4 8b3e a232 e1bd 2fd0 a5bd 5ca9 6ebe
00000180: 6ed1 073e e17e c2bd 3ee7 5c3d a68c bcbe
00000190: ac4a 193d 1196 583d 3a07 563e 7628 c63d
000001a0: d93d de3e e7d2 17bd cf1f 163e f966 843e
000001b0: 6c72 5d3e 02e8 5cbe cdec ec3d 7047 253e
000001c0: dfb3 7fbe d923 823d 4ca6 6fbe 36a3 273e
000001d0: e760 313d 0fbc 21bd ad59 94be af1f e9bd
000001e0: 1bec 51be dfbc 79be efff 5abe f98a cfbd
000001f0: 6f1f 51bd 73c6 e13d 5c9d 323e 1342 1cbd
00000200: d31a b1be c528 503d 8db7 e5bd 0f7d a6be
00000210: 2922 f1bc ca7e ca3d 78f5 e5bc bd05 37be
00000220: c2b5 54bc f3e8 1f3e 0fb7 913d 593b 363d
00000230: 530f 943e e659 383e e89b 54bd 463b 843e
00000240: 0328 313e 3e18 0f3e 5230 5b3e 5ee7 a73d
00000250: 2e60 6e3d 201e 9a3e

linears.4.bias f4 [3]
0.004958362 0.004142182 0.0048142667
00000000: c179 a23b 24bb 873b ffc0 9d3b

exp_avg f4 [50, 2]
-0.0057091555 -0.008256527 0.012697006 0.017514313 -0.0028803193 0.012201595 0.053540073 0.018181648
0.10346325 -0.0030490838 -0.0055136215 0.028578239 0.12683655 -0.012594679 -0.052882105 0.008433025
0.0808415 0.04872089 0.017394409 0.026428884 -0.063947484 -0.023126429 -0.05165604 0.019285245
-0.041664455 -0.09371968 0.048791744 -0.048627537 0.032109473 0.028218783 0.04013544 0.030087503
-0.07111497 -0.06704232 -0.028290175 -0.0099414205 -0.0043782024 -0.028457526 -0.05107348 -0.0057789152
-0.025647465 0.0072952937 -0.037042793 -0.052024975 -0.018987585 0.042155806 0.014410507 -0.013814653
-0.0043591275 0.04211941 -0.06350343 0.015508275 -0.010454776 0.0052196584 0.046879016 0.06812458
-0.041469377 0.0042882776 0.014086757 0.04594247 -0.014686514 -0.0023453862 -0.0065814527 0.014957984
0.05993093 -0.002572969 0.0149289435 -0.016914371 0.031365443 0.08305595 0.025115414 -0.0098305205
0.013672606 0.007899713 -0.0012424812 0.002190203 -0.019619592 0.048570964 -0.02459432 -0.0364467
-0.022008045 0.017166944 0.020522224 0.0066116564 -0.13109696 -0.024044167 -0.11101879 -0.045061573
-0.031520817 -0.0015315799 -0.020805106 -0.020721111 -0.14951673 -0.0134475995 -0.12638398 0.0038124686
0.039041366 0.024319613 -0.057754196 -0.0056842696
00000000: de13 bbbb 6246 07bc 1a07 503c 2d7a 8f3c
00000010: bdc3 3cbb 33e9 473c d64c 5b3d aef1 943c
00000020: 8ae4 d33d 23d3 47bb 9cab b4bb e91c ea3c
00000030: 71e1 013e ea59 4ebc e89a 58bd ac2a 0a3c
00000040: 3a90 a53d 8e8f 473d b87e 8e3c 6381 d83c
00000050: e6f6 82bd a373 bdbc 4995 53bd 17fc 9d3c
00000060: 59a8 2abd 1bf0 bfbd dad9 473d ab2d 47bd
00000070: 3985 033d 142b e73c 0f65 243d 117a f63c
00000080: baa4 91bd 7c4d 89bd ccc0 e7bc 57e1 22bc
00000090: 0677 8fbb c21f e9bc 6d32 51bd 0e5d bdbb
000000a0: a21a d2bc 5c0d ef3b 2fba 17bd 2418 55bd
000000b0: da8b 9bbc 91ab 2c3d 0c1a 6c3c db56 62bc
000000c0: 03d7 8ebb 6785 2c3d 160e 82bd 6b16 7e3c
000000d0: 824a 2bbc ab09 ab3b 3604 403d e684 8b3d
000000e0: cbdb 29bd ae84 8c3b 24cc 663c 2c2e 3c3d
000000f0: b49f 70bc 0db5 19bb 3aa9 d7bb 5512 753c
00000100: 237a 753d 429f 28bb 8798 743c 0290 8abc
00000110: 0d79 003d 3d19 aa3d d7be cd3c 3110 21bc
00000120: 1103 603c cc6d 013c c0da a2ba 8289 0f3b
00000130: 44b9 a0bc 59f2 463d 077a c9bc 2349 15bd
00000140: 374a b4bc b1a1 8c3c 391e a83c 98a6 d83b
00000150: 483e 06be 46f8 c4bc d25d e3bd 7c92 38bd
00000160: f91b 01bd 4bbf c8ba 786f aabc 52bf a9bc
00000170: ea1a 19be 5253 5cbc cd6a 01be 9cda 793b
00000180: d7e9 1f3d ed39 c73c aa8f 6cbd 1c43 babb

exp_avg_sq f4 [50, 2]
1.0476868e-05 4.9203327e-06 1.2937421e-05 1.3137519e-05 7.669718e-06 1.1273646e-05 0.00011292595 1.5966985e-05
0.00055476953 3.962511e-07 3.5767173e-06 5.1606472e-05 0.0008150243 7.870195e-06 0.00014321465 2.8882134e-06
0.00024396091 0.00012287326 1.7164548e-05 3.514749e-05 0.00020650744 3.0607593e-05 0.00018988855 1.6694661e-05
5.966468e-05 0.00050361577 0.00011570537 0.00013140294 3.4831566e-05 5.4831293e-05 6.641319e-05 4.357469e-05
0.00018194228 0.00024123627 5.1668645e-05 3.6218592e-06 9.397727e-06 3.758051e-05 9.644357e-05 1.2095157e-05
3.5353674e-05 2.4763933e-06 5.7806636e-05 0.00015353182 2.2116501e-05 9.2824834e-05 1.0848611e-05 6.003182e-06
1.017465e-05 0.00010982828 0.00023948163 1.7251477e-05 8.576424e-06 2.0122513e-06 0.00010467734 0.00024027524
7.24122e-05 5.6320044e-07 6.5768154e-06 0.00012897818 1.5951635e-05 2.7169294e-06 1.8834216e-05 1.4975356e-05
0.00022673201 6.4662294e-07 2.177569e-05 1.8196346e-05 3.9070637e-05 0.0003599052 3.1460706e-05 3.881467e-06
7.3992983e-06 2.1763567e-06 1.2554309e-06 3.8584426e-06 3.8380116e-05 0.000115326846 2.7743736e-05 6.7405635e-05
1.9024643e-05 1.2220981e-05 1.42582385e-05 2.3939679e-06 0.00075512734 3.4420602e-05 0.00056572777 0.00013452828
5.809737e-05 2.1532233e-07 1.6895096e-05 1.5722691e-05 0.0009844339 3.6571688e-05 0.00080999965 4.6110536e-06
5.166724e-05 5.2640222e-05 0.00017874435 2.6364614e-06
00000000: cec5 2f37 5619 a536 cd0d 5937 3769 5c37
00000010: 30ad 0037 f123 3d37 a8d2 ec38 d7f0 8537
00000020: f46d 113a 56bc d434 8907 7036 0774 5838
00000030: 5ba7 553a 3b0a 0437 e42b 1639 21d3 4136
00000040: c2cf 7f39 8ad7 0039 96fc 8f37 546b 1338
00000050: eb89 5839 a760 0038 d21c 4739 830b 8c37
00000060: 7640 7a38 1505 043a d9a6 f238 35c9 0939
00000070: 1c18 1238 a7fa 6538 4f47 8b38 f8c3 3638
00000080: c2c7 3e39 5ef4 7c39 c9b6 5838 110f 7336
00000090: eeaa 1d37 c49f 1d38 bf41 ca38 4eec 4a37
000000a0: b848 1438 1d30 2636 6775 7238 62fd 2039
000000b0: d386 b937 f4aa c238 6e02 3637 f16e c936
000000c0: cab3 2a37 9c53 e638 5c1d 7b39 44b7 9037
000000d0: 76e3 0f37 370a 0736 3886 db38 65f2 7b39
000000e0: 01dc 9738 d72e 1735 6aae dc36 513e 0739
000000f0: e0cf 8537 7e54 3636 2cfe 9d37 aa3e 7b37
00000100: e9be 6d39 9793 2d35 f0aa b637 5ba4 9837
00000110: c7df 2338 a9b1 bc39 adf4 0338 8c3d 8236
00000120: 7d47 f836 860d 1236 4780 a835 c577 8136
00000130: 56fa 2038 a1db f138 38bb e837 205c 8d38
00000140: 1c97 9f37 b708 4d37 ab36 6f37 0ea8 2036
00000150: bdf3 453a d75e 1038 594d 143a 2910 0d39
00000160: 93ad 7338 5a33 6734 f1b9 8d37 39e4 8337
00000170: 1f08 813a 8d64 1938 2856 543a a6b8 9a36
00000180: 47b5 5838 02ca 5c38 526d 3b39 10ee 3036

exp_avg f4 [50]
-0.12489692 0.04020081 0.107061476 0.11895226 0.033641618 0.16586079 0.014989451 0.036121715
0.2847421 0.14543931 -0.061605107 0.03601883 -0.42489278 -0.17577958 0.17308156 0.16001265
-0.40035063 0.0023251427 -0.118802376 -0.115490004 0.06544196 -0.24106407 0.13256578 -0.030804897
0.22825877 0.10697258 -0.012290535 0.29454136 -0.030413685 0.18390748 -0.003999989 0.064810194
0.07137562 -0.08534411 0.4418576 -0.0062671565 0.031825054 0.075583704 0.15202041 -0.27173704
0.022754358 0.03138385 -0.22044756 -0.23303989 0.027500859 -0.059496164 -0.19453074 0.026558405
0.18273371 0.044051
00000000: f5c9 ffbd 9ba9 243d 0c43 db3d 3e9d f33d
00000010: cbcb 093d 69d7 293e 5096 753c 5df4 133d
00000020: b7c9 913e 0bee 143e a355 7cbd 7b88 133d
00000030: 8c8b d9be 90ff 33be 4b3c 313e 5bda 233e
00000040: c2fa ccbe 6c61 183b a94e f3bd 0686 ecbd
00000050: 6f06 863d 80d9 76be 53bf 073e 8d5a fcbc
00000060: abbc 693e 7114 db3d 3d5e 49bc 20ce 963e
00000070: 1f26 f9bc 3e52 3c3e 5712 83bb 35bb 843d
00000080: 622d 923d e5c8 aebd 293b e23e b85c cdbb
00000090: fd5a 023d a1cb 9a3d 3dab 1b3e 1e21 8bbe
000000a0: 5967 ba3c 5a8c 003d 01bd 61be 02a2 6ebe
000000b0: 7b49 e13c 40b2 73bd 1133 47be 0391 d93c
000000c0: 8c1e 3b3e d26e 343d

exp_avg_sq f4 [50]
0.00045501164 5.607812e-05 0.00033484757 0.0004271071 4.5427038e-05 0.00082635693 1.8951589e-05 4.0772036e-05
0.002585426 0.00070703437 0.00018084649 7.654144e-05 0.0054819067 0.00094193575 0.0008781857 0.0008228542
0.0048861513 5.3709642e-05 0.00042056604 0.00039236303 0.00012749484 0.0018168754 0.0005725321 3.2788565e-05
0.0016382046 0.0003449126 9.554254e-06 0.00280353 2.9594405e-05 0.0010488577 7.989677e-06 0.00012449613
0.00018024615 0.00021763697 0.005936147 1.175628e-06 2.9590772e-05 0.00016685744 0.0007534089 0.0021798057
1.5455864e-05 3.3358334e-05 0.0015346445 0.0018086396 3.8456565e-05 0.00013360393 0.0012076233 6.5659e-05
0.0010066224 5.7147536e-05
00000000: a18e ee39 6c35 6b38 7b8e af39 58ed df39
00000010: e988 3e38 e09f 583a 3afa 9e37 a402 2b38
00000020: 4070 293b 4658 393a 9ca1 3d39 df84 a038
00000030: 91a1 b33b 3dec 763a 0b36 663a d0b4 573a
00000040: 021c a03b 4a46 6138 6b7f dc39 13b6 cd39
00000050: 23b0 0539 3924 ee3a fb15 163a 7486 0938
00000060: 06b9 d63a 63d5 b439 354b 2037 6ebb 373b
00000070: 8041 f837 d379 893a 670b 0637 2d8b 0239
00000080: 7500 3d39 7b35 6439 0384 c23b 45ca 9d35
00000090: b339 f837 74f6 2e39 6a80 453a 12db 0e3b
000000a0: 37a7 8137 3dea 0b38 2026 c93a e00f ed3a
000000b0: 6c4c 2138 0818 0c39 1d49 9e3a 68b2 8938
000000c0: a5f0 833a b3b1 6f38

exp_avg f4 [50, 50]
0.008020148 -0.03530983 -0.0035842976 0.015868628 -0.014613639 -0.026784685 0.00220601 -0.0041811923
0.0059131957 -0.0050304183 0.0016986626 0.013539963 -0.015235381 0.014275195 0.00026529518 0.0069970395
0.01351282 -0.0024259137 -0.02015858 0.010734832 -0.0023076953 0.01643714 -0.008378021 0.0052432083
0.027399002 -0.00026408548 0.016661959 -0.004715713 0.0076635727 -0.00252526 0.020659966 0.005880107
-0.030049866 -0.0018733332 0.017430231 0.010222366 -0.006080553 -0.015632497 0.008692014 -0.0012050655
-0.0040927352 -0.00073577295 0.014737385 0.01550608 -0.0014715148 -0.02172725 0.004987646 -0.01580499
-0.017149834 0.013129809 0.013129567 0.014457043 -0.025412494 -0.025746651 0.0020207064 0.004400393
-0.017594716 0.0038897407 0.010264463 0.02426584 -0.023068104 -0.019679146 0.010445639 0.005422495
-0.018103346 0.010438285 -0.00046196365 -0.0052015344 0.008086155 0.016670523 -0.015009633 -0.026377669
0.0142786 -0.02084182 -0.009512428 -0.027197717 -0.017747007 0.017750353 0.015032375 0.005710312
-0.009956283 -0.0058792713 0.0007215092 0.012652007 -0.030518703 -0.011375063 -0.012439027 -0.0100232195
-0.000418219 0.005037028 -0.0037631511 -0.02472751 0.017394366 -0.019734772 -0.013201617 0.0023188076
0.014716039 -0.0045198184 -0.012205564 -0.0030806193 0.007188928 0.01622872 -0.01639784 -0.019979028
0.004160053 0.0079159895 -0.01198703 0.0034577474 0.00584023 0.017231487 -0.015840739 -0.015652224
0.00966712 0.0008929381 -0.01200151 0.0057659643 -0.0029077986 -0.0030774933 0.009003053 0.009190266
-0.009453968 -0.020713253 0.011133217 -0.014952452 -0.011268488 -0.018150397 -0.014984413 0.012771133
0.008530103 0.004349719 -0.010535636 -0.004883726 0.005837297 0.008633506 -0.023481693 -0.009548891
-0.0070648747 -0.0038066066 -0.001788083 0.003456803 -0.0016256917 -0.016364358 0.009195341 -0.0160888
-0.008537904 0.005418094 0.008792074 -0.00020036622 -0.005124117 -0.0043531037 0.0028325014 0.0021532122
-0.005191751 -0.0048681744 0.00010127542 0.00029743122 -0.003512057 0.0007053346 0.002238232 0.0048300726
-0.0046542445 -0.003711425 0.0017651607 0.0014143124 -0.0036522127 0.0022959756 0.00018903664 -0.001131509
0.0011821924 0.003579642 -0.0030959754 -0.005021699 0.0027280764 -0.004124783 -0.001308699 -0.0054903044
-0.0032603561 0.0035257768 0.0031984386 0.001128283 -0.0015780014 -0.0010583907 -0.0004939086 0.0025277946
-0.0058061145 -0.002095717 -0.002641664 -0.0023651933 0.00011736294 0.0009848591 -0.0008526984 -0.004997848
0.003779052 -0.0036937776 -0.0027232922 -3.4819637e-05 0.00307837 -0.001278333 -0.0028097373 -0.00032784214
-0.0058689383 0.008880202 0.0071036373 0.0005887339 0.004651515 0.008232105 0.0034255334 0.00059407577
-0.0043791695 -0.00386525 0.004719989 -0.00011623469 0.0027820792 -0.00623397 0.004197059 -0.0047870087
-0.004627095 0.0020158037 0.0050318865 -0.0075396663 0.0043642726 0.00042574346 -0.0003896401 0.003005166
-0.0071791783 0.0064153546 -0.0016801512 -0.0024704447 -0.0061868024 -0.00040938603 -0.004884608 -0.0006008024
0.01002151 -0.002380243 0.0011612532 -0.0009347985 0.00505658 0.0076991715 -0.0028575114 -0.00082470087
0.0023628236 0.0060255034 -0.008906307 -0.00080784597 0.0035787902 0.006874826 -0.0052061537 0.006438897
0.008631335 -0.0037571744 0.00040889598 -0.026587967 0.006502652 0.018510502 -0.009563841 -0.017962873
00000000: f066 033c 0aa1 10bd 89e6 6abb edfe 813c
00000010: 0b6e 6fbc 8e6b dbbc b592 103b 6202 89bb
00000020: 7bc3 c13b 35d6 a4bb a9a5 de3a b9d6 5d3c
00000030: d29d 79bc 82e2 693c 5117 8b39 6c47 e53b
00000040: e064 5d3c 14fc 1ebb 9b23 a5bc 26e1 2f3c
00000050: b43c 17bb 2ea7 863c f843 09bc 38cf ab3b
00000060: df73 e03c f474 8ab9 a97e 883c 4586 9abb
00000070: b51e fb3b d57e 25bb 173f a93c eaad c03b
00000080: 232b f6bc a28a f5ba d8c9 8e3c b67b 273c
00000090: 603f c7bb b90f 80bc f368 0e3c 4af3 9dba
000000a0: 5a1c 86bb e3e0 40ba 1375 713c 370d 7e3c
000000b0: d8df c0ba 59fd b1bc 686f a33b 7779 81bc
000000c0: cf7d 8cbc 691e 573c 651d 573c 3cdd 6c3c
000000d0: dd2d d0bc a4ea d2bc d46d 043b 2c31 903b
000000e0: cb22 90bc 05eb 7e3b 472c 283c 28c9 c63c
000000f0: 52f9 bcbc 2936 a1bc 2f24 2b3c 2faf b13b
00000100: 784d 94bc 5705 2b3c b633 f2b9 a271 aabb
00000110: cb7b 043c 9f90 883c f7ea 75bc fb15 d8bc
00000120: caf0 693c 77bc aabc 04da 1bbc bfcd debc
00000130: 2c62 91bc 3069 913c 5a4a 763c 921d bb3b
00000140: ad1f 23bc e7a6 c0bb aa23 3d3a 5d4a 4f3c
00000150: 5c02 fabc 795e 3abc 10cd 4bbc 6e38 24bc
00000160: 6744 dbb9 a70d a53b 339f 76bb 5991 cabc
00000170: a17e 8e3c d1aa a1bc 984b 58bc 23f7 173b
00000180: 8b1b 713c fc1a 94bb d9f9 47bc 37e4 49bb
00000190: 1991 eb3b 18f2 843c c354 86bc 0fab a3bc
000001a0: 0e51 883b 11b2 013c 3f65 44bc 609b 623b
000001b0: 665f bf3b 0c29 8d3c 70c4 81bc 1839 80bc
000001c0: d762 1e3c 1014 6a3a fba1 44bc 6af0 bc3b
000001d0: c490 3ebb c5af 49bb 8b81 133c c592 163c
000001e0: d1e4 1abc d7ae a9bc 1968 363c 21fb 74bc
000001f0: 779f 38bc 24b0 94bc 2f81 75bc 043e 513c
00000200: d8c1 0b3c 1688 8e3b a99d 2cbc aa07 a0bb
00000210: cc46 bf3b 8c73 0d3c ae5c c0bc f472 1cbc
00000220: 7780 e7bb 4378 79bb 1c5e eaba 888b 623b
00000230: 2915 d5ba 8c0e 86bc 0ea8 163c a9cc 83bc
00000240: 91e2 0bbc 448a b13b a20c 103c 6619 52b9
00000250: 35e8 a7bb 7ba4 8ebb 7da1 393b e81c 0d3b
00000260: 901f aabb 3585 9fbb d463 d438 8bf0 9b39
00000270: 8a2a 66bb 34e6 383a 4daf 123b 9645 9e3b
00000280: a282 98bb 613b 73bb f75c e73a 7360 b93a
00000290: f659 6fbb 1478 163b 2338 4639 244f 94ba
000002a0: cbf3 9a3a 6d98 6a3b d9e5 4abb 108d a4bb
000002b0: 87c9 323b 3029 87bb a788 abba 03e8 b3bb
000002c0: b3ab 55bb b810 673b e59c 513b e5e2 933a
000002d0: f1d4 ceba b3b9 8aba a579 01ba 5ba9 253b
000002e0: 3841 bebb 4c58 09bb c41f 2dbb 5c01 1bbb
000002f0: c020 f638 6316 813a 9f87 5fba fdc4 a3bb
00000300: f9a9 773b 4e13 72bb 4379 32bb 4d0b 12b8
00000310: 7abe 493b bd8d a7ba 9223 38bb 3ae2 abb9
00000320: 3950 c0bb 447e 113c a1c5 e83b 4355 1a3a
00000330: bc6b 983b f3df 063c ea7e 603b c0bb 1b3a
00000340: 237f 8fbb 2250 7dbb 23aa 9a3b 06c3 f3b8
00000350: 8b53 363b 5546 ccbb 7c87 893b 57dc 9cbb
00000360: e39e 97bb 931b 043b 86e2 a43b 4e0f f7bb
00000370: 2c02 8f3b 5236 df39 9c48 ccb9 52f2 443b
00000380: 503f ebbb e537 d23b 8538 dcba 2fe7 21bb
00000390: a9ba cabb dda2 d6b9 100f a0bb 2b7f 1dba
000003a0: 4231 243c dafd 1bbb 3135 983a 440d 75ba
000003b0: abb1 a53b 5549 fc3b 1645 3bbb bd30 58ba
000003c0: 9ad9 1a3b 9671 c53b c2eb 11bc a0c5 53ba
000003d0: 238a 6a3b 3846 e13b 6298 aabb 62fd d23b
000003e0: 716a 0d3c ed3a 76bb 1761 d639 02cf d9bc
000003f0: 3314 d53b 56a3 973c a8b1 1cbc e026 93bc
