models/onlyadam_10e/ckpt/ckpt-20.pt (torch, 106733 bytes, 30 tensors)

linears.0.weight f4 [50, 2]
00000000: 3c2e 143e fe78 1abe 338c 39be b585 cebd
00000010: ed75 ee3d 3cec 6ebd 6072 2cbb 8f35 5ebb
00000020: 5075 3c3d 8049 91bd 66cd 953a 8f2f 9a3d
00000030: d4ee a33e 4e7b 833e 809e e53e 3859 cf3e
00000040: 2894 72be 5247 25be f906 603e f3d8 e5bd
00000050: 1963 853d b16e 7dbe 9e5d 083f f254 d63c
00000060: 6d43 b1bd d5af 953e 41b8 b5be 38cd a33d
00000070: ba23 0ebe f3fe 673e 4f82 5cbe 37f2 9cbe
00000080: 7463 cfbd 072a f13d 6aa6 79bd 0965 c33d
00000090: aeaa f93e 3da4 293c 8015 623e 1248 b2bd
000000a0: d07d 693e 0e88 babc 35a0 c93d 5d4a efbd
000000b0: 7804 c53d dbfd 933e e53c 3fbe 1c7a f93d
000000c0: 21a4 e8bd de95 4b3e 0772 17bc c4d5 0dbd
000000d0: eb34 c43e 0e1b dabd 6012 5c3e 2877 8c3e
000000e0: 816e babe 83f5 9abd 8b9c 473c a176 bbbb
000000f0: 01d3 303e d9d1 7e3d c6f2 7abd fdbe f4bd
00000100: 6590 9a3e 6050 fd3d 3465 923e b757 c23d
00000110: f2e0 fa3d 882a 9bbe eebf d33d 969b 6abd
00000120: 3b0f 313d e986 a4bc be97 383e 3879 0e3e
00000130: 4b78 783e c0a0 213e 82ef 553e 07e8 36be
00000140: 4db2 0bbe e957 543e e879 9fbe 7d60 70be
00000150: 5726 a63c 8f84 81bb e429 423d e8fc 62bd
00000160: 586e 2c3d d474 723d b3dc 92bd df8a 443e
00000170: 48de 0bbe 8c31 483e 8599 35be d03d 4fbe
00000180: 9b6d f6bd ff5a bfbe 2ac1 893e 1351 453c
0.14470762 -0.15085217 -0.18119888 -0.10084096 0.11643586 -0.05833076 -0.002631329 -0.0033906435
0.046010315 -0.07094097 0.0011429011 0.07528602 0.3201815 0.25680012 0.44847488 0.40497756
-0.2368933 -0.16140488 0.2187766 -0.112230204 0.06513042 -0.24749257 0.5326785 0.026163552
-0.086554386 0.29235712 -0.35492137 0.07998127 -0.13880816 0.22655849 -0.21534084 -0.30653545
-0.10126391 0.11775594 -0.06094972 0.09540755 0.4876303 0.010354099 0.22078514 -0.087051526
0.228019 -0.022769954 0.0984501 -0.116841055 0.09619993 0.28904614 -0.18675573 0.12181494
-0.1135943 0.19881389 -0.009243495 -0.03462769 0.38321623 -0.106496915 0.21491385 0.2743466
-0.36412433 -0.07566359 0.012183319 -0.005720929 0.17267992 0.062211845 -0.061266683 -0.119504906
0.3018829 0.12368846 0.28592837 0.094893865 0.12249936 -0.30305886 0.10339342 -0.057277285
0.043227416 -0.020083861 0.18026635 0.13913429 0.24264638 0.15783978 0.20892146 -0.17861949
-0.13642235 0.2073666 -0.31147695 -0.23474307 0.020281954 -0.00395257 0.04740323 -0.05541697
0.04209742 0.059193447 -0.07171001 0.191936 -0.13659012 0.1955015 -0.17734344 -0.20238423
-0.12032624 -0.37374112 0.26905185 0.012043255

linears.0.bias f4 [50]
00000000: a24e 9dbc 83da 9abc 2d3d 7fbc a2cc a33c
00000010: 3da9 9b3c 3c45 98bc ad76 44bc 549b 9b3c
00000020: 40ab 933c c040 983c bdbb 97bc 98cf 9dbc
00000030: f237 a8bc b225 92bc c2b1 9a3c 006e 1dbc
00000040: 465f 983c ae5d 3ebc 9720 973c 9d5c 9c3c
00000050: 124c 993c 509d a1bb 48d9 9a3c bcae a33c
00000060: 3855 94bc 7a58 9fbc 5fc2 953c d9bc 893c
00000070: f077 9dbc 32e4 8cbc e9ef 8bbc d645 9abc
00000080: f6a8 92bc 078d 9b3c 009c 90bc 555a 8dbc
00000090: 75e0 6b3c 261c 9fbc add8 6fbc 9063 9a3c
000000a0: 00fe 9d3c ae40 26bc 4150 a739 9071 9abc
000000b0: 9bc7 923c b68a 7e3c b4e1 9f3c 262b 99bc
000000c0: 6032 9e3c 14d3 6ebc
-0.019202534 -0.018903023 -0.01557855 0.019995037 0.019001598 -0.018587701 -0.011991185 0.018994965
0.018025994 0.018585563 -0.018522138 -0.019264027 -0.02053449 -0.01784024 0.01888359 -0.009608746
0.018600117 -0.011619015 0.018448157 0.01908713 0.018713031 -0.004932083 0.018902436 0.01998078
-0.018107042 -0.019451369 0.01828116 0.016813682 -0.01922223 -0.017198656 -0.017082172 -0.018832128
-0.017902832 0.018988146 -0.017652512 -0.017254988 0.014396776 -0.019422602 -0.014639062 0.018846303
0.019286156 -0.010147257 0.00031912516 -0.018852979 0.017917445 0.015536001 0.019516803 -0.018697333
0.01931113 -0.014576692

linears.1.weight f4 [50, 50]
00000000: f344 83be fd7f 05be 823c d6bd 5139 dfbc
00000010: 9066 d43d dcac 3fbe 2f26 943d 2554 fbbc
00000020: 9c86 d13d 57dd 9c3e 2e89 a3bc 88eb 79bc
00000030: 4116 b03d a149 8fbe 698c cf3d 4c6d ee3b
00000040: 4d9f 4f3e 5398 f33d e995 9ebc e747 4ebe
00000050: b08b f23c cfdb afbc 7a24 753a 3960 3b3e
00000060: be8a 313d 5780 ddbd 35bd 3c3d ddce 3f3e
00000070: 50b9 1cbc f49d 4e3c f6e1 9d3d 255f 503e
00000080: f348 9bbd 1d25 2f3e 294b d43d 691d 213e
00000090: 52f1 bd3e 518b 66bd 68a1 bebd e235 babd
000000a0: 8120 1e3e 1351 50bd 6c16 03be e574 60be
000000b0: 4722 c8bc 0678 0cbe a61f 71be 3af0 0cbe
000000c0: 27b7 7cbe cf14 d63c d537 193e 5485 fe3a
000000d0: db9b 6bbd 8562 dcbc 40d8 34bd 0e31 ea3d
000000e0: eae3 0abd 513d b23c 634f 99bd e7e3 813e
000000f0: fede 16be 04a5 1fbe a34e 8f3c fe34 65bb
00000100: 2a37 9dbd 74f8 163e 4414 fc3b 1921 dd3d
00000110: f285 66be 74ac a3bd c761 be3e a833 973d
00000120: dd9e ad3b c009 8ebb c2a0 09bb 257c dd3d
00000130: 92a5 14bd 9c50 f93d 9a4a 88be 3ca1 7fbd
00000140: 98c2 e93d e1ad 013e 8b5e f43c 53fc ef3d
00000150: 91d2 b9bc 3d50 55be 244b 2cbe 3388 3abe
00000160: 2c67 f53d 6033 67be 195f 74bd 87f5 013e
00000170: 6ee7 2d3d fb3f babd 6054 3b3d 30cf 053d
00000180: 5fa6 bb3d bba5 363e 6263 9e3d 991a 45be
00000190: f347 99bc d0ac cebd 0eb8 953d 8741 823d
000001a0: 4a7b 83bd 9ca1 bbbe b792 293e 9ab7 d93d
000001b0: 3232 20bc 6d90 093c 28d4 05be 07b4 5dbc
000001c0: 875d 463e 581a 463c c166 303e 2393 a83d
000001d0: 3f3b 8c3e 9c49 cebd 1010 3f3c 3f91 833c
000001e0: 0b9d a0bd bbf3 b33d dbe4 b33d b7e5 c1bd
000001f0: 0dbf 5fbe 5b30 90bd b0bb f23d 4576 55bd
00000200: defa 9e3d 72e4 383d 8846 1c3d 1cd3 13be
00000210: 3601 43bd c120 983d 1317 46be b185 74be
00000220: 9fca f13d 3cbf 7d3e b14f 35bb 5223 b23c
00000230: 38b0 a33c b287 463e 372a 14be ecd6 3dbe
00000240: 73d3 a83d 067b 1fbd c68f ad3d 1dd2 593d
00000250: 35c4 c3bc 80bc dbbe 853e 953d 1396 0c3d
00000260: 5475 7f3b 612f 063e df80 ddbd 48d0 59be
00000270: 381e f73d 0cff ef3d d8db 78be 7787 2d3c
00000280: d0a0 573e b123 183e 6085 183e f68d c03d
00000290: 8d99 673e e7c8 f4bc b12d d7bd c6d6 cf3c
000002a0: 2f0b 203d 6c84 583d b848 133d ef1b ee3d
000002b0: fc04 af3d 511b 3b3e 11a5 2abd 1bdc ee3d
000002c0: cb8b 0b3d 1e1a 9bbe eb64 55be a500 383e
000002d0: 8683 383b 32c0 4b3e 78f1 fabd 23b2 4bbd
000002e0: ef38 403e 77ac 5a3d cbc7 a73d f549 c03d
000002f0: 7c4a 503e 02b6 5bbe c340 a5bd 4ff4 d6bd
00000300: d687 f23d 1bf5 1cbd 87ca a63d 195c 04bd
00000310: e60a 043d d204 afbe d43a 813c 1e19 fabd
00000320: 7a89 983b 3aa6 85be 73b9 24be 3d8e 2dbe
00000330: 90da 963c 0b26 993c 43b0 33be ce6f c83d
00000340: 21ac dc3d 8379 803e b7e2 083e c883 20be
00000350: 387d b93d 1684 11be 5f50 39bb ab8b c13d
00000360: 0843 7cbd 5f24 65bc 801c 8a3d e5e0 513d
00000370: 6b55 6bbd 3404 e3bd 487b 663d 0f27 dfbd
00000380: 7f96 893d 5317 543e 8468 77be 6abd 07be
00000390: 3cc9 913d d0ea 103d a760 68be 0771 6d3d
000003a0: 90cc 6ebe 2d12 303d d693 a9bc ab9d a33d
000003b0: 07af 4b3d 09c2 4dbe 3706 113e 9857 673e
000003c0: a38a 64be 12b2 85bd 99b2 46bc 8b6d e63d
000003d0: 1725 d43b 3087 4ebe 1d83 86bd c1d1 3d3d
000003e0: 6e72 44be 2a74 01be 6f21 1dbd 46be 323e
000003f0: 84eb b2bd b956 bbbd 9446 dabd a340 3e3e
-0.25638542 -0.13037105 -0.1046076 -0.02724901 0.10371125 -0.18718284 0.072338454 -0.030679772
0.10230753 0.3063762 -0.019962873 -0.015253909 0.085979946 -0.27985862 0.10134203 0.007276213
0.20275612 0.11894288 -0.019358592 -0.20144616 0.029607624 -0.021467118 0.0009351444 0.18298425
0.043345205 -0.108154945 0.04607888 0.18731256 -0.009565666 0.012610901 0.07709114 0.20348795
-0.07582273 0.17104001 0.10365898 0.15733875 0.37098175 -0.056285206 -0.093081295 -0.090923086
0.15442087 -0.05085857 -0.12801522 -0.21919592 -0.024430407 -0.1371766 -0.23547229 -0.13763514
-0.24679242 0.02613297 0.14962704 0.0019418397 -0.057521682 -0.026902447 -0.044151545 0.11435138
-0.033908762 0.021757754 -0.07485845 0.25369188 -0.14733502 -0.15590292 0.017493552 -0.0034974213
-0.07676537 0.14743215 0.0076928455 0.107973285 -0.22512034 -0.07991877 0.37183973 0.073828995
0.005298479 -0.0043346584 -0.002100036 0.10814694 -0.036290713 0.12173578 -0.26619416 -0.062409624
0.11414069 0.12663986 0.029830238 0.11718049 -0.022683414 -0.2083139 -0.16825539 -0.18216018
0.11982569 -0.22578192 -0.059661005 0.12691317 0.042457037 -0.090942346 0.045734763 0.032668293
0.09162592 0.17836659 0.077337995 -0.19248427 -0.018711066 -0.10091555 0.07310496 0.063601546
-0.0642 -0.36646736 0.16559874 0.10630722 -0.0097775925 0.00839625 -0.13069212 -0.013531691
0.19371615 0.012091242 0.17226698 0.08231189 0.2738895 -0.100726336 0.011661544 0.01606047
-0.078424536 0.08786722 0.08783885 -0.09467643 -0.21850224 -0.07040473 0.11852205 -0.052114744
0.07762693 0.045139737 0.0381532 -0.14436 -0.047608577 0.07428122 -0.1934474 -0.23879124
0.11806225 0.24779981 -0.0027665908 0.021745358 0.019981489 0.19387701 -0.14469229 -0.18539017
0.08243456 -0.038935684 0.08474688 0.053178895 -0.02389727 -0.42917252 0.07287315 0.03432281
0.0038979845 0.13104011 -0.10815596 -0.21270859 0.12066311 0.11718568 -0.24302614 0.010591379
0.21057439 0.14857365 0.14894629 0.09402077 0.22617169 -0.029880954 -0.10506762 0.025370967
0.039073166 0.052860662 0.035958022 0.11626422 0.085458726 0.18272139 -0.041661326 0.116630755
0.034068864 -0.30293363 -0.20839278 0.17968996 0.0028154566 0.19897535 -0.12253088 -0.04973043
0.18771718 0.05338713 0.08192404 0.09389106 0.20340914 -0.21456149 -0.08068993 -0.10495817
0.11842315 -0.03831969 0.08144098 -0.032314394 0.032236956 -0.34183365 0.015775122 -0.12211822
0.0046550604 -0.26103383 -0.16086368 -0.16948791 0.018414766 0.018694898 -0.17547707 0.0978695
0.107750185 0.25092706 0.13367735 -0.1567527 0.09057087 -0.14210543 -0.0028276665 0.09450468
-0.061587363 -0.013985722 0.06743717 0.051239867 -0.057454508 -0.11084786 0.056269914 -0.10896122
0.06718158 0.20712022 -0.24160963 -0.1325585 0.071184605 0.035380185 -0.2269312 0.05796912
-0.23320222 0.042986084 -0.020700376 0.07989057 0.049727466 -0.2009355 0.14162527 0.22592008
-0.2231851 -0.06528105 -0.012127542 0.112513624 0.006474148 -0.20168757 -0.065679766 0.046342615
-0.19184276 -0.1264197 -0.038361963 0.17455396 -0.08736327 -0.091474004 -0.10657993 0.18579344

linears.1.bias f4 [50]
00000000: fd0e 9b3c d8d9 903c 0281 8e3c fffe 843c
00000010: 35ba 9dbc 47d7 243c 0c05 7cbc 3de1 4a3c
00000020: 69cd 50bc b296 963c e681 9b3c 2f52 56bc
00000030: a88b 843c eb7e 9cbc 8b88 9c3c 69cb 923c
00000040: dcbd 9a3c df96 36bc 2b2b a03c 4c66 eabb
00000050: d20b a2bc 4d9f 973c 1d82 9b3c 0cb6 9fbc
00000060: 5aa8 7d3c fcaa 913c c679 9abc 8fa3 9abc
00000070: 5398 90bc 97e9 a23c 915b 9ebc 4230 8f39
00000080: 2559 a13c 5da8 983c 41bb 8cbc 53ed 9abc
00000090: 5f70 9ebc 2c48 8d3c 42b3 383c c8ee a93b
000000a0: e4e0 97bc f604 9cbc a67c a0bc dde0 a03c
000000b0: 8298 6f3c 7f02 9ebc 9075 083b d476 9fbc
000000c0: fd91 97bc 8013 8ebc
0.018928045 0.017682001 0.0173955 0.016234873 -0.01925383 0.010061092 -0.015382063 0.012382803
-0.012744286 0.018382404 0.018982839 -0.0130811175 0.016179875 -0.019103488 0.019108078 0.01791926
0.01888936 -0.011144369 0.019551834 -0.007153308 -0.019781027 0.018508578 0.018982941 -0.019495986
0.015482033 0.017781727 -0.018856894 -0.018876819 -0.017650759 0.019886775 -0.019330772 0.0002731104
0.019695828 0.01863497 -0.017179133 -0.018911993 -0.019340692 0.017246328 0.011273207 0.0051859356
-0.018539853 -0.019045334 -0.019590687 0.019638473 0.014623763 -0.0192883 0.0020822026 -0.019465841
-0.01850223 -0.017343283

linears.2.weight f4 [50, 50]
00000000: d64e 04be 2795 a7be a2a3 29be e0ed 043d
00000010: 4168 a93d 30cb f4bd 79de c83d 30c6 08be
00000020: 24f9 ae3d 2d5b 70b9 85ee ecbd 1cac 40be
00000030: f541 b43d 3c2b cf3d a12d 0a3e d83f 0cbd
00000040: 9343 dabc e231 c83d a47e 37b9 9778 5abc
00000050: 02d8 223e 37dd 2b3e b9fa e4bd ba30 13be
00000060: 405c 7bbd aaba f13b 42a4 6e3c 5600 7b3d
00000070: 1c6b bfbc 95c1 a43e 57b4 42be 8d73 a13d
00000080: 8d35 2f3e bceb ee3c d0c6 123e d3d7 5d3e
00000090: 5ea0 8abd c6c2 2a3e a304 803e fbce 153d
000000a0: f6f7 793d 8f6e 2ebe f635 b8bd 81a7 11be
000000b0: 2c2d 7d3e 5b3a b3be a59c 083e 65bd 15be
000000c0: a871 3e3d f67f 24be dd03 313d 96ce 57bd
000000d0: c185 7d3d 49b9 4dbd 0ce9 0bbe 48a8 0bbe
000000e0: 3ca8 753c 0699 b6bd 6e85 aa3e b683 333e
000000f0: 838c b4bd c099 a53d e558 603c b245 a43d
00000100: 5970 00be e67e 903d cb7c acbd 42c9 ad3c
00000110: 438f 95bc d628 663d 2d87 733e 000d ca3d
00000120: 49e8 4f3a cf29 20bd af9e a53d 21ad 4e3d
00000130: 821b 83bd b2c6 33be 8a3f 4b3d 3be6 eebb
00000140: e6e0 193d 6441 3d3d 1dfd 0dbd bd88 12bd
00000150: 51f2 d93d dc2b 59be 13e0 5a3e 83fb 353e
00000160: 2709 bc3e 68f2 f8bd 5680 6f3e 7ed2 48bd
00000170: 5916 dfbd 6858 eb3c 83cb 3f3d f705 28be
00000180: 5944 62be 4e7f 3dbc f4d2 1bbd 5250 1b3e
00000190: d908 7a3d d5a1 9abd 0633 803c ba27 5b3d
000001a0: 82ef 8e3e 30fa b63d 638a 60be 9f3b 1abd
000001b0: 29cf 74be eec9 a4bd 971b 8d3d ae09 bebc
000001c0: c65b 213c deb7 e8bd 787c 11be 62e5 d73c
000001d0: bd74 6fbe a0c5 82bd 9687 a33b 7dfe 1a3d
000001e0: aa27 7c3d 8389 5c3e 3e04 aa3d bf93 0e3e
000001f0: bad9 2ebd 49a2 3dbe 257f 97bd eb7b 013d
00000200: d685 c1bd 26db 3c3c 062a 253e 0ec9 0bbc
00000210: ed65 dfbc 7009 e5bd 94bf 9fbc ebd8 313e
00000220: 388c 443e 02c5 ee3d 86d0 bc3c 4dfb 53be
00000230: c847 a63d df59 b7bc 0974 78bc 01db 0c3d
00000240: 6d72 223e d78e e8bc e1cd 7b3e 243b 623d
00000250: b23d 0ebe cfe0 383e af43 0bbe e125 bbbd
00000260: 5506 93bd 7195 14be b089 8ebe 0994 42bd
00000270: 008e a43d 8bb4 e1b9 d4db 28bd 1c0f 1c3e
00000280: f8bb 79be 69b7 5ebc ed11 0dbe bd65 13be
00000290: 3bb4 7bbc 8190 3f3e d19f 31bc 2406 08be
000002a0: 6700 37bc 59f4 0ebe 3374 4b3b ebdb 04be
000002b0: de9d 3bbe 9114 fcbd 71d5 98be 0283 1fbe
000002c0: fe87 08be dbfc 82bd ceb5 2a3e 4521 d93d
000002d0: d9cf 0c3e 8c72 d5bd 9b00 af3e de26 843e
000002e0: 307d 3a3e 159d f93a 7fc8 d13d 72bc 47bd
000002f0: ccb8 f0bc a2e9 54bd 5646 09be 4fc7 9a3e
00000300: 1c81 9b3e e1aa 1f3e 8e39 a33b 3476 dcbd
00000310: e4ad 98bd fdc2 c3bc 3ed3 4ebe 2a54 103e
00000320: 5b8f da3c f7be 8bbc e160 733e 23dc 6cbd
00000330: 801b 25bc 61f9 c6bd 5159 283e 3bbe 13bd
00000340: 8168 48be 31d5 cc3d 9380 ea3d 07ff 3b3e
00000350: 049c 19bd 3c55 1b3e acec 543d 93bf aa3d
00000360: 75d6 53be e53b 7dbd c826 b1bd c91f 0f3e
00000370: 3239 213d 538f 87be f6ec 35bd 6fac 333e
00000380: 11d5 d3bb b67e c23d bf84 f2bd 67cc 4c3e
00000390: 96b2 02bd bc53 90bb 4292 afbd 71bd 85bd
000003a0: 6463 853d fba3 e93c 3d95 933c 85a3 233e
000003b0: ac9b 37bd e5de d13d 5793 293e 5f26 c4be
000003c0: 7fde 363d 0d80 dabd 7aa3 85bd b3e6 773d
000003d0: c6ee 1cbe 27d4 c93c 333c 13bd 8f5b fa3d
000003e0: a17b 29bd ec1b e8bd f1de 153e d584 92bc
000003f0: 9a10 d63d 60f4 b93d 33fe 023e 5fa3 9c3e
-0.12920699 -0.32730982 -0.16566327 0.032453418 0.08271838 -0.119528174 0.09808058 -0.13356853
0.085436136 -0.00022922149 -0.115689315 -0.18815655 0.08801643 0.10115668 0.13493969 -0.034240574
-0.02664355 0.097751394 -0.00017499417 -0.013334415 0.15902713 0.16783606 -0.11180634 -0.14374056
-0.061367273 0.0073769884 0.014565529 0.061279617 -0.023366503 0.3217894 -0.19014107 0.07883368
0.17110272 0.029165141 0.14333653 0.21664362 -0.06768869 0.16675863 0.25003538 0.036574345
0.06102749 -0.17034362 -0.08994667 -0.14224054 0.24724263 -0.3500546 0.13341005 -0.1462303
0.04649511 -0.16064438 0.043216575 -0.05268725 0.061895136 -0.05022553 -0.13663119 -0.13638413
0.0149937235 -0.08915906 0.33304924 0.17530712 -0.08815863 0.08085966 0.013693069 0.08021106
-0.12542857 0.07055454 -0.0842224 0.021214131 -0.01825679 0.056191288 0.23782034 0.09865761
0.00079310365 -0.03910237 0.08086907 0.050458077 -0.06401731 -0.17556265 0.049621142 -0.007290629
0.037567995 0.04620494 -0.034665216 -0.035774935 0.10641921 -0.21208137 0.2137454 0.17771725
0.36725733 -0.1215561 0.233888 -0.049028866 -0.10892934 0.028728679 0.046824943 -0.16408525
-0.22096385 -0.011565996 -0.038042977 0.15167359 0.061043594 -0.07550398 0.01564933 0.053504683
0.27917105 0.08934438 -0.2192779 -0.037654515 -0.2390715 -0.080463275 0.06890028 -0.023197975
0.009848541 -0.11363195 -0.14207637 0.026354495 -0.23384376 -0.0638535 0.0049905283 0.037840355
0.061561264 0.21536832 0.083015904 0.13923548 -0.04268811 -0.18518938 -0.07397298 0.031612318
-0.09449355 0.011526858 0.16129312 -0.008531822 -0.027270282 -0.11183441 -0.019500531 0.17367904
0.19194114 0.1165867 0.02304865 -0.20701332 0.0811916 -0.022381721 -0.015164384 0.034388546
0.15863962 -0.028388424 0.24590255 0.055232182 -0.13890722 0.18054508 -0.13600038 -0.09138084
-0.07178942 -0.14510132 -0.27839422 -0.04750446 0.08034897 -0.0004304986 -0.04122527 0.15240139
-0.2438811 -0.013593533 -0.1377637 -0.14394279 -0.0153627945 0.18707468 -0.010841326 -0.13283592
-0.0111695295 -0.13960399 0.0031044602 -0.12974517 -0.1832194 -0.1230861 -0.29850343 -0.1557732
-0.13333127 -0.063958846 0.16670915 0.10602049 0.13751163 -0.10422239 0.3418015 0.25810903
0.18211818 0.0019044006 0.1024332 -0.0487637 -0.029384993 -0.051980622 -0.13405737 0.30230185
0.3037194 0.15592529 0.0049812263 -0.10764733 -0.07455042 -0.023896689 -0.2019777 0.14094606
0.026679685 -0.017058833 0.23767425 -0.057827126 -0.010077357 -0.09715534 0.16440322 -0.03607009
-0.19571115 0.100016005 0.11450305 0.18359004 -0.037502304 0.15169233 0.05198352 0.08337321
-0.20687278 -0.061824698 -0.08649975 0.13976969 0.039361186 -0.26476535 -0.044415437 0.17546247
-0.0064646085 0.094968244 -0.118417256 0.19999848 -0.031908594 -0.004404513 -0.08572818 -0.06530274
0.06513098 0.028520575 0.018015498 0.15980347 -0.044826195 0.10247592 0.16560112 -0.38310525
0.044645783 -0.10668955 -0.06525321 0.060522746 -0.1532546 0.024637295 -0.035946082 0.12224495
-0.041377667 -0.11333451 0.14635827 -0.017885605 0.10452385 0.09079814 0.12792282 0.30593392

linears.2.bias f4 [50]
00000000: 9593 d6bb 2a33 893c f568 a1bc aeba d6bb
00000010: 9378 38bb 20fe 973c 9a47 28bb d4a6 90bc
00000020: c786 9d3c dad5 903c e23d f73b 0b4d 9e3c
00000030: 67ba 943c 5d7b 7d3c d18a 7bbc 0a1f 8abc
00000040: 7dac 97bc 6041 9bbc aaae 66bb 0070 253c
00000050: 9589 9abc 43b6 9ebc 4610 a23c c3eb 20ba
00000060: 775f 9f3c 9529 8b3c 59e4 3bbc aae4 82bc
00000070: dc22 97bc aa64 83bc 6b4e 91bc d29c 613c
00000080: be07 903c 2710 9f3c 5f17 983c 1cc6 a13c
00000090: 199b 553c 69ad 99bc 73d3 fd3a d767 9e3c
000000a0: 07ce 853c c090 92bc 52c8 973c 200f 9f3c
000000b0: e220 99bc c207 9c3c 50c9 6abc 9dba 813c
000000c0: d154 9ebc 4127 2bba
-0.006548355 0.01674803 -0.019703368 -0.0065530157 -0.002814804 0.018553793 -0.0025677443 -0.017657675
0.019229306 0.017680097 0.007545219 0.019323846 0.01815529 0.015471307 -0.015352921 -0.016860504
-0.018514866 -0.018952072 -0.0035199323 0.010097504 -0.018864432 -0.019374019 0.01978315 -0.0006138647
0.0194547 0.016987601 -0.011468017 -0.015978176 -0.01844924 -0.016039211 -0.017737588 0.013770299
0.017581817 0.019416882 0.018565832 0.019747786 0.013037466 -0.018759446 0.0019365385 0.019336624
0.016333593 -0.017891288 0.018528137 0.019416392 -0.018692438 0.019046668 -0.014330223 0.015836054
-0.019327553 -0.00065289816

linears.3.weight f4 [50, 50]
00000000: 393a 6cbd f3ff 16be e0bd 6e3d 2c41 4a3e
00000010: f488 893d f948 943c 7e98 133d cb12 8bbe
00000020: 3de9 b63d 09b6 883c 3dc7 e6bd c40a b83e
00000030: 0b08 6d3d d72b 4a3d 6563 ad3b 0ada 1c3d
00000040: 1659 603b 0abe d23d b7b9 593e 81fb aa3c
00000050: 2f34 973d 4631 a33c baea d53d 1ad9 3b3e
00000060: 446b b93d a90e d7bb 510f 27be 7cd7 92be
00000070: 4b7b c2bd 4675 9e3c 1a98 8abe 0235 3bbd
00000080: e8d3 b43e fa45 fa3d 960c 3f3e 2f7f e8bc
00000090: 93ad 713c c1ff f2bd e666 113d 1caa 9dbc
000000a0: d878 313d b43e 973d 99b9 be3d 5059 923d
000000b0: ad2b 4ebe 386b c1bd e1ce 7dbe b9bf 213e
000000c0: c1c2 553d 3083 00be b93b 9cbd 8a41 02be
000000d0: f3dd 903d 70b4 433d 3932 6cbd 269c e0bc
000000e0: 6f74 48bd ffb8 5e3e 0028 74bd 7eda 933e
000000f0: db43 073e 71b5 13bd 5d3f debd d99d bbbd
00000100: 289b 313e 914f c03c 147b 2abe 15c5 5b3b
00000110: 7302 0bbd f28f ef3d fc42 1d3d 2720 f83d
00000120: 9641 a83c 0809 d3bc 4699 3b3e 5253 20be
00000130: 60ae 5cbd 65c5 413d acfa 2cbc 01b3 ad3c
00000140: 2c14 343e 99c5 af3d 3fe5 80bd 5ca6 8d3d
00000150: 67bc 7ebd 3794 babd 8280 863e be2a a53d
00000160: b3c1 173e 90e6 ed3d 55c4 263d 51fb 103e
00000170: c380 c3bd 5c6b 083e dbfa 32bd e225 1cbe
00000180: 85dd 0e3e 1440 063e 823d aebd 887b cfbd
00000190: d7ac cbbc 0a5e a8bd 79de 91bd d573 2cbd
000001a0: 7eb6 17be c35b 633e 5a04 45be d032 91be
000001b0: 4322 343e e72b e73d ca86 7dbe 5e0b 443e
000001c0: 9040 80bc 9c7c 443e 3d7e 3abe 6b92 8bbd
000001d0: f8d9 0b3d f9b0 903e d709 133e fcb6 043e
000001e0: 6da6 b23d f49c 0e3e 381c c5bc 0b06 9cbd
000001f0: 8f77 0dbe 664e b6bd a677 f7bd e1a7 8bbd
00000200: 0ebf 1ebd ce76 0b3d 7898 303e 3746 dbbd
00000210: c683 7ebd 07b5 08bd dacd 3abe dd52 923e
00000220: 4b0d e23d 335b efbd bb5c 843d 6c78 933e
00000230: 0e96 f0bd 1ade 8bbe 7643 7cbd e48d 14be
00000240: ca76 bebd cd6a bdbd 3dab 75bd 384d 0b3e
00000250: 07c1 f1bd 1d38 2ebe d62d 84be 9854 5b3e
00000260: 52b2 123e d2ee cb3c 7850 79bd d9df a63d
00000270: 04b4 f83d f1ca 18bc be37 a9bd f2bc 8e3e
00000280: d6bf 4cbd 9f90 b93e 272a 8e3e 3bac 9cbc
00000290: 3262 64bd 665a 0cbc 917c dc3d a8a6 60be
000002a0: aae2 173e 8bf9 d8bd 0598 b93d fec3 3d3d
000002b0: 2a56 293e 66c5 f03c 6b64 523d 9cc6 373d
000002c0: 05c0 aebc b83e a6bd ce3c 1bbe 3e63 513c
000002d0: b2cf 123d afdd 03be 1ee8 983d 2e67 613e
000002e0: 6643 cabd 9898 533e d949 e53d c2f8 01be
000002f0: 1f07 4abd 9eb5 153e ad5b 603e 6b82 d9bc
00000300: 2de1 cf3d 8ba6 0cbe 291d d4bd 4558 1e3e
00000310: fb52 36bd 9b5d c33b 9093 eabc de36 76be
00000320: 7885 b53c c5cf 353e 0442 4fbe d363 01bd
00000330: da3d ad3c dd58 d9bd a2f7 dfbc 25e5 913e
00000340: fa58 b93d 237c 69be 9dd7 1dbc 9cf1 b6bc
00000350: 81d7 00bd cb48 b43b 3c62 003c 7c74 8d3d
00000360: aea9 1a3d 7de7 79bd 5995 fabd d8be 32be
00000370: 06aa ccbc d7f3 e1bd feb8 cabd 5708 75bd
00000380: f9ea a73c d4c6 c93d 0da7 80bd 457a f03c
00000390: 0dbc 1bbc 7a3e 0d3c c880 133e da81 72bd
000003a0: 4549 6cbe cc11 ab3c 3b49 1abe ca25 263e
000003b0: e2bb 07be d418 e4bc 6189 6f3d fc1f 02bd
000003c0: 0195 793d 31f9 df3d b579 bdbb 062e 3fbe
000003d0: b572 b3bc 892f 70be 3541 f93d 2bb6 383d
000003e0: 3e48 0cbe 51ca 1abe 5fe2 06be ae46 923c
000003f0: 18ea 81b8 cb81 11bc ee45 143d c866 8cbd
-0.057672713 -0.14746074 0.058286548 0.19751424 0.06715575 0.018101202 0.0360341 -0.27162775
0.089312054 0.016688364 -0.112684704 0.35945714 0.057869 0.049358215 0.0052913898 0.038293876
0.0034232787 0.10290153 0.21262251 0.02087188 0.07383 0.019920956 0.10445161 0.18344536
0.090536624 -0.006563027 -0.16314436 -0.28680027 -0.094961725 0.01934303 -0.2706917 -0.04570485
0.35317922 0.12220378 0.18657145 -0.028380958 0.014750856 -0.118651874 0.035498522 -0.019246154
0.043328136 0.073850065 0.09312744 0.07145941 -0.20133848 -0.094442785 -0.2478595 0.15795793
0.052187685 -0.12550044 -0.07628579 -0.12720314 0.070735835 0.0477795 -0.057665084 -0.027418207
-0.048939165 0.21750258 -0.05960846 0.28877634 0.13209479 -0.036061708 -0.10851929 -0.091609664
0.17344344 0.02347544 -0.16648513 0.0033534218 -0.033937883 0.11697377 0.03839396 0.121155076
0.020539086 -0.025761142 0.18320188 -0.15656784 -0.053877234 0.04730739 -0.010557812 0.02120352
0.1758582 0.08582611 -0.06293725 0.06916496 -0.062191393 -0.09110301 0.2626992 0.08064793
0.14819984 0.11616242 0.04071458 0.1415837 -0.09546044 0.13322204 -0.043696266 -0.15248826
0.1395169 0.13110381 -0.085078254 -0.101309836 -0.02486269 -0.082210615 -0.071225114 -0.042102654
-0.14815709 0.22202973 -0.19239941 -0.2835908 0.17591195 0.112876706 -0.24758449 0.19144961
-0.015655786 0.1918816 -0.18212219 -0.068150364 0.034143418 0.2826002 0.14359222 0.12960428
0.087231494 0.1392706 -0.024061307 -0.0761834 -0.13815139 -0.08901672 -0.12083368 -0.0681913
-0.038756423 0.034048848 0.17245662 -0.10706752 -0.062137388 -0.033375766 -0.18242589 0.28578845
0.11037692 -0.11687317 0.064629994 0.28802812 -0.11747371 -0.27317888 -0.061587773 -0.14507252
-0.09300001 -0.09248886 -0.05997776 0.13603675 -0.11804395 -0.17013593 -0.2581622 0.21418989
0.14325836 0.024894152 -0.060867757 0.08148164 0.1214371 -0.009325729 -0.08262585 0.2787853
-0.049987637 0.3624315 0.27766535 -0.019125095 -0.05575771 -0.008566475 0.10765947 -0.21938574
0.14832559 -0.105944715 0.090621985 0.04632949 0.16536775 0.029391002 0.051365297 0.044867143
-0.021331796 -0.081174314 -0.15159914 0.012780009 0.035842605 -0.12877534 0.07466148 0.22012016
-0.098761365 0.20663679 0.11195726 -0.1269255 -0.049323197 0.14620063 0.21909972 -0.026551446
0.10150371 -0.13735406 -0.10357124 0.1546336 -0.04451273 0.0059620864 -0.028634816 -0.24044368
0.02215837 0.17755039 -0.20240027 -0.03158934 0.021147657 -0.106126525 -0.02733976 0.28495136
0.09050174 -0.2280126 -0.009633926 -0.022332005 -0.03145552 0.0055018417 0.007835921 0.06906983
0.037759475 -0.06101178 -0.12235517 -0.17455614 -0.024983417 -0.11032837 -0.09898566 -0.059822407
0.020497786 0.098523766 -0.062818624 0.029355178 -0.009505284 0.008620853 0.14404595 -0.059205867
-0.23074825 0.02088251 -0.15066998 0.16225353 -0.13255265 -0.02784387 0.058480624 -0.031768784
0.060933117 0.10936201 -0.005782331 -0.186699 -0.021905283 -0.23455633 0.121706404 0.045095604
-0.13699433 -0.1511624 -0.13172291 0.017855968 -6.194803e-05 -0.008881043 0.036199503 -0.068555415

linears.3.bias f4 [50]
00000000: d100 9d3c 25a9 4d3c cb7a 9abc bc70 9a3c
00000010: ff70 e5bb 5c0a 9d3c 5601 9cbc a81d 9e3c
00000020: 54c6 9c3c d4ca 9bbc 7c5c 9cbc 2efa 9cbc
00000030: 2493 85bc 7cc3 45bc d676 80bc 0725 9b3c
00000040: 1f69 053c a871 8abc 0636 52bc 0be6 8ebc
00000050: a3e0 91bc 04ff 973c 0c18 8e3c f259 9abc
00000060: 9ec6 973c 0121 93bc a733 9cbc 75d1 8f3c
00000070: 8f04 96bc bfaf 63bc 61c3 8b3c db43 943c
00000080: 54c4 99bc 19e3 88bc 74fd 80bc 9467 923c
00000090: d461 9d3c 90f8 56bb 62b7 413c 8efe 9d3c
000000a0: fc98 89bc c669 8d3b d7f2 9e3c 7298 023c
000000b0: 3647 8a3c a2b4 953c 486a 93bc 93c8 3ebb
000000c0: 8053 86bc 8de3 99bc
0.019165428 0.012552534 -0.01885738 0.018852584 -0.0070019956 0.019169979 -0.019043606 0.01930125
0.019137539 -0.019017614 -0.019087069 -0.019162264 -0.016305514 -0.012070533 -0.015681665 0.018938554
0.008142739 -0.016899899 -0.012830263 -0.017443677 -0.01780731 0.018554218 0.01734545 -0.018841717
0.018527325 -0.017960073 -0.019067599 0.017555932 -0.01831272 -0.013896882 0.017060937 0.018098762
-0.018770374 -0.016709851 -0.015745856 0.017871656 0.019211687 -0.0032801963 0.011823507 0.01928642
-0.016796581 0.0043155877 0.019402904 0.007970916 0.01687966 0.018274609 -0.017995015 -0.002911125
-0.016397238 -0.018785262

linears.4.weight f4 [3, 50]
00000000: 0039 ae3e 6397 9b3d 66c1 ffbd 8dc3 ad3d
00000010: 9c46 f43c c68f 723e ae97 2bbe f872 9a3e
00000020: 5baa e03d 31ed 7abe f526 e5bd d6cd abbe
00000030: e39e b6bd d0c0 0abb 5964 35be 396a 193e
00000040: 2912 e6bc 1427 83be 1401 b93c c5c7 61be
00000050: 5a50 75be 29f8 603e 1513 0a3d 005e 6dbd
00000060: f67f 603c cc1f a7be 62cb 3cbe e59a 443e
00000070: bba9 80be 057c 83bd acae 793e 7a26 923e
00000080: f267 92be 7126 95be 1592 10be 3757 ad3e
00000090: 4b9b 833e 8e7a a8bd 8b4e ba3c 0bce 4b3e
000000a0: c324 aebe 6788 75bc aa6c 873d b6cf 21bd
000000b0: e9ca d03d b88d 9b3e 45e3 11bf 51d8 01bc
000000c0: 88f5 b7bd 4d8b c7be 9bbb 39bd 5bc9 8d3e
000000d0: 526c 57bd 5c0a 1e3c 7e71 1bbe 4232 e2bd
000000e0: d041 c63d eadd 57be cd00 92bd f4a8 b93e
000000f0: 56de 933e 4ad4 5abd fc9e 1dbe 8a8f 413b
00000100: e051 8abe 8f47 f5bc 37b4 033e cfd8 21be
00000110: 4f51 fa3d 211d aa3d 0746 c9bd 7b7b 32bd
00000120: b25f cabd 79eb 8d3e a231 77be 3ed1 ff3d
00000130: 4e69 a6bc 7b70 cebe 7e45 8d3e bc15 fdbd
00000140: db10 ef3c dd11 a9bd 8467 113e 7a3b 80be
00000150: 8974 62be 408a 833d 2882 54be 96ca 813d
00000160: 0aeb 203d d407 bbbd b8b0 acbe 6573 f33d
00000170: 11cd 6fbe da5c 263e 3c12 ae3c ba0e 7fbd
00000180: ddf6 153e be74 31be 7adf 98bd c3e1 d6bd
00000190: ac3d 6fbe 05b5 af3c dcdf e53d 10fb c2bc
000001a0: 8481 adbe 0ae9 e4bd 1e56 5f3e 7950 46be
000001b0: 91fe 6abc b589 23bd 4c1e 28bd 3d75 8e3e
000001c0: a600 963c 973c e93c eba2 bebd 20b5 93bd
000001d0: 0a89 863e c348 c4bd cd54 debd 89da 16be
000001e0: d880 e43c ff4e 51bd c8c5 ab3d f926 9ebd
000001f0: a55e 023e 4163 d2bd bae3 133e 6b9e c83e
00000200: d038 11be cd78 20be 7dab 233e 1efa 413d
00000210: 9a62 2b3d d618 dcbd 170d 03bd 1640 823c
00000220: ec4e 83be fb8c 613e 5a2e a43e e05d 3abe
00000230: 206b 85bd eda6 ae3d 848d 803c 0151 e23e
00000240: a06e 773d 6b1e 513c 848b 04be 5a9d 26bd
00000250: 6655 39bd 2e96 513e
0.34027863 0.07597234 -0.1248806 0.08484564 0.029818825 0.23687658 -0.1675708 0.3016584
0.10969993 -0.24504544 -0.11189071 -0.33555478 -0.08917024 -0.0021172054 -0.17714061 0.14981927
-0.028084831 -0.25615752 0.022583522 -0.22048862 -0.23956433 0.21969666 0.033709604 -0.057950974
0.013702383 -0.32641447 -0.1843696 0.19199713 -0.25129494 -0.06420139 0.24383038 0.2854498
-0.2859493 -0.2913089 -0.14118226 0.33855602 0.25704417 -0.082265005 0.02274253 0.19902818
-0.34012422 -0.014986134 0.06612523 -0.03950473 0.10194952 0.3038156 -0.5698741 -0.007925109
-0.08982378 -0.38973466 -0.04534493 0.27692685 -0.052593537 0.009646025 -0.15180013 -0.11044742
0.096805215 -0.21080747 -0.07129059 0.36261714 0.28880566 -0.05342511 -0.15392679 0.002953502
-0.2701559 -0.029941348 0.12861715 -0.15805362 0.1222254 0.08306337 -0.0982781 -0.04357479
-0.09881534 0.27718714 -0.24140027 0.12491082 -0.020313885 -0.4032019 0.2759208 -0.12357661
0.029182842 -0.0825536 0.14199644 -0.25045377 -0.22114767 0.064228535 -0.20752776 0.06337468
0.03928665 -0.091323525 -0.33728576 0.11887244 -0.2341807 0.16246358 0.02124893 -0.062269904
0.14644952 -0.1732969 -0.074645 -0.104922794 -0.2336337 0.021448622 0.112243384 -0.023801357
-0.33887875 -0.11177261 0.21810195 -0.19366635 -0.01434292 -0.03992625 -0.04104452 0.2782382
0.018310856 0.028471274 -0.09308418 -0.07212281 0.26276428 -0.09584191 -0.10856018 -0.14731802
0.027893469 -0.051100727 0.08387333 -0.07722277 0.12731417 -0.102728374 0.1444234 0.39183363
-0.14181828 -0.15671082 0.15983386 0.04735767 0.04184208 -0.107469246 -0.031994905 0.0158997
-0.2564615 0.22026436 0.32066613 -0.18199873 -0.06514573 0.08527932 0.01569248 0.44202426
0.060408235 0.0127636 -0.12943846 -0.040677406 -0.045247458 0.20467445

linears.4.bias f4 [3]
00000000: 6320 943c c6e3 5bbb fa26 3d3c
0.01808185 -0.0033552512 0.011544937

exp_avg f4 [50, 2]
00000000: a875 a23b a977 78bc f036 a1bc 1dc4 7cbd
00000010: 464a 243c 4a73 01bd 0961 113c ce93 bb3c
00000020: ad24 e13c 64d3 f73c a4e3 8bbc 9ccd 99bd
00000030: 1852 223c 8425 b2b9 4939 23bb a573 0a3d
00000040: 2d5b 46bc 341f aa3c cd69 5c39 435c 583c
00000050: d555 203c e385 c3bd 0a45 403a 3c94 a8bd
00000060: cc6d 493c 03ac 93bc ea33 ecbc 18a8 aebc
00000070: 9215 2aba 6eb8 d53d 37a4 98bb b58a d7bc
00000080: 53d3 abbc 7247 f93d f4b8 54bc 5acd 883c
00000090: 3048 c13c b813 123c baaa 04bc b2af fd3c
000000a0: 9acd b33c 45a8 603d dca7 5a3c ca37 8ebc
000000b0: 9b73 033c f150 103d 052d d1bb 98d1 163d
000000c0: 7ff7 0c3c 8a78 0fbd 0919 d4bb b9e0 d6bc
000000d0: 6fc6 173d 425a 223d 0445 103c f362 ed38
000000e0: 812e b2bc 6cba 24bd 64e0 9f3c de96 4ebd
000000f0: 5b54 493b 1d89 3ebb 1b60 2cbc 95be 97bd
00000100: b2f2 4dbb dda2 ffbc d3c0 e83c 8d25 633d
00000110: b3f4 323c cdb8 14bd 941a 9c3c 7dbf aebc
00000120: daa9 dd3b c4d7 ae3c 99a8 063d d0b1 57bd
00000130: ec73 82bc 1927 90bb fb7a 453c 1ce5 a13d
00000140: d704 843b 4960 893d d3f1 15bc 4929 bebc
00000150: 294c 86bb 27b9 c83b 769f a23c 9b95 37bd
00000160: d1d1 543c c104 c03b f43e bcbc a81f 963d
00000170: 50b7 bebc 764b 0d3e 4184 15bc 92f8 f2bc
00000180: c91e 3ebc 1104 243d 3a07 a1bb d9f4 8a3c
0.0049578734 -0.015165248 -0.019679517 -0.061710466 0.010027474 -0.03160409 0.008873233 0.022897627
0.027483309 0.030252166 -0.017076321 -0.0750992 0.009907268 -0.00033978757 -0.002490597 0.033801693
-0.012106699 0.020766832 0.00021020249 0.013205591 0.009786089 -0.09547021 0.00073345064 -0.082313985
0.012294244 -0.018026358 -0.028833348 -0.021320388 -0.00064881996 0.10435568 -0.004658248 -0.026311258
-0.02097479 0.1217183 -0.012983549 0.016699482 0.023593992 0.008915834 -0.008097345 0.030967567
0.021948624 0.054847974 0.013345685 -0.017360587 0.008023168 0.03523344 -0.0063835406 0.036820978
0.00860393 -0.035027064 -0.006472711 -0.026230203 0.037054475 0.039636858 0.008805517 0.000113194714
-0.02175069 -0.04021685 0.019516177 -0.050436847 0.0030720446 -0.0029073425 -0.01052096 -0.074093975
-0.0031425175 -0.031205589 0.028412258 0.055455733 0.010922599 -0.036309052 0.019055642 -0.021331543
0.0067646326 0.02134312 0.03287563 -0.05265981 -0.015924416 -0.004399192 0.012053247 0.07905027
0.0040288973 0.06707818 -0.009151894 -0.023213046 -0.0040984345 0.0061255875 0.019851428 -0.04482041
0.012989477 0.0058599417 -0.022979237 0.07330257 -0.02328077 0.13798317 -0.00912577 -0.029659543
-0.011604019 0.04004294 -0.0049141916 0.016962456

exp_avg_sq f4 [50, 2]
00000000: e85a df38 6d38 9a37 1c8b c038 f156 cf39
00000010: 10df 9339 771c ff38 e14a 8437 55c7 5738
00000020: b38f b538 4a78 5a39 7d09 a638 c11c 2e3a
00000030: ac4d 9439 3c82 d637 09d9 9b36 dbec 8638
00000040: a684 1238 c871 9b38 3301 1338 bf73 3737
00000050: a6e5 7138 09ee 073a d44c fc38 4694 2d3a
00000060: 9067 0f3a 6334 4138 847c 3939 ebae 2239
00000070: 7417 f836 da93 3f3a 2a10 2b39 b509 2638
00000080: 87d4 af39 5fdf a13a d21d 6b3a 5849 2139
00000090: c56e c939 ae09 3138 183f 223a 2e52 9938
000000a0: 0aea 5639 9c50 ec39 3e0a 333a 1ac0 8d38
000000b0: 7908 1738 db9c a838 7dd8 f138 375c 4d38
000000c0: dd52 e737 2d40 a938 70a4 f037 b4fc 5438
000000d0: 21d3 8d39 7c22 6739 e965 d538 52a5 8837
000000e0: 3568 2139 e0f3 f238 41ef 853a cab8 f438
000000f0: 0b2f da38 877a 8437 4d0c 2539 a34a 2b3a
00000100: 4cbe 4639 61f3 b738 5b87 7238 06ab 323a
00000110: 2950 b739 9e06 2638 df1e ad39 8d66 8138
00000120: a46c 2737 b3a2 db38 3282 043a 0c0f ef38
00000130: 41a6 bd3a 27cd 1039 3d6c bc38 95e7 1a3a
00000140: 92cc 1c38 0cad 9639 14e5 2b39 b848 4b38
00000150: 4950 c33a 91ee a338 9583 c737 3e39 e538
00000160: 79ea b638 3eec 2638 1205 c43a 01a3 5c39
00000170: a1a7 783a c97d 4f3a 23db 0238 6a8e b338
00000180: d08b 413a c4de 7338 4f89 383b 102d 1539
0.00010650401 1.8384506e-05 9.1811846e-05 0.00039546893 0.0002820422 0.000121646495 1.5770494e-05 5.1445637e-05
8.6575186e-05 0.00020834911 7.917264e-05 0.0006641858 0.0002828663 2.5571433e-05 4.644626e-06 6.433736e-05
3.493265e-05 7.412169e-05 3.5048648e-05 1.0934599e-05 5.7672754e-05 0.00051853113 0.00012030607 0.0006621521
0.0005470449 4.6063575e-05 0.0001768936 0.00015514686 7.3937063e-06 0.00073081034 0.00016313852 3.9586525e-05
0.00033536946 0.0012349895 0.0008968982 0.00015381479 0.00038420237 4.2209103e-05 0.0006189211 7.310916e-05
0.00020495817 0.00045073486 0.00068298343 6.7591856e-05 3.6009096e-05 8.040081e-05 0.000115320996 4.896169e-05
2.7575932e-05 8.070502e-05 2.8686802e-05 5.0780087e-05 0.0002705092 0.00022042723 0.00010175614 1.6289447e-05
0.00015392977 0.000115848845 0.0010218398 0.00011669246 0.000104038125 1.5792682e-05 0.00015740209 0.0006534254
0.00018953643 8.771453e-05 5.7823356e-05 0.00068156456 0.00034964204 3.9583647e-05 0.00033020132 6.170301e-05
9.9792705e-06 0.00010473039 0.0005054801 0.00011399211 0.0014469103 0.00013809335 8.9846995e-05 0.0005909142
3.738382e-05 0.0002873916 0.00016393169 4.8466696e-05 0.0014901246 7.816882e-05 2.3783921e-05 0.00010930233
8.72211e-05 3.97975e-05 0.0014955124 0.00021041559 0.0009485428 0.0007915167 3.1198502e-05 8.561912e-05
0.00073831994 5.814318e-05 0.0028158014 0.00014226534

exp_avg f4 [50]
00000000: ca47 113e 4d7d 003f 931f e73d 33ac 55be
00000010: 5df5 66be 64bf ea3e a845 0a3d afc6 e7bd
00000020: 8743 bebd cd1c 04be 9b63 2c3f 3615 fb3e
00000030: cb8d bb3d 2d16 563e a1b7 12bf 2118 443d
00000040: d6c6 09bf 86b5 de3d 63df fdbd 061a 98be
00000050: 4a77 b6be 04a8 d73c a398 55be 0bdd 3abe
00000060: e1d8 3b3e 9789 453e 0f45 b4be 7b1e b1bd
00000070: 9790 c93e c5d7 903e dc17 1d3d dd74 083f
00000080: cb3c b83e 2cb4 94be 9a96 b03e 034d 213e
00000090: 0184 3ebd 2f7d 9e3e 8549 323e 4220 febe
000000a0: e117 32be 1857 923d 36e3 47bc eb17 ab3e
000000b0: 7cfd 44be ca77 7dbe c28a 1abf 88f6 b93e
000000c0: 57a0 6cbe c52b a13e
0.14187542 0.50191194 0.11285319 -0.2086647 -0.22554536 0.45849144 0.033757836 -0.11317193
-0.092902236 -0.12901612 0.67339486 0.4903962 0.09157904 0.20906897 -0.57311445 0.047874574
-0.53819025 0.108744666 -0.12396123 -0.29707354 -0.35637885 0.026325233 -0.20859008 -0.18248384
0.18344451 0.19290768 -0.35208938 -0.08648392 0.39368126 0.2828962 0.038352832 0.5330332
0.3598388 -0.2904371 0.344899 0.15752034 -0.046512607 0.30954883 0.17410858 -0.49633986
-0.17391922 0.07145518 -0.012200167 0.33416685 -0.19237322 -0.24752727 -0.6036798 0.363209
-0.2310804 0.31478706

exp_avg_sq f4 [50]
00000000: b203 303a 21f2 063c 7ba9 e639 34d1 843a
00000010: abd3 c13a 60c0 f43b 541f 0c38 188d 403a
00000020: 5347 8e39 0893 f439 28a1 7c3c 7275 fd3b
00000030: 6ec6 3a39 3c74 d73a 2b51 453c cdf1 ac39
00000040: bad9 2f3c 8276 6e3a c96a 0c3a 444e 323b
00000050: 9432 853b 016d 9239 4c62 bf3a 32f0 8a3a
00000060: 6463 a53a be99 8c3a 6377 853b ae6f 8939
00000070: cfb7 a53b 7f73 0d3b a723 4638 8c9a 213c
00000080: 4d09 913b 1fd6 523b 4635 8f3b 7c6c 843a
00000090: 0259 9a38 8b28 393b c679 b53a 5f6f 003c
000000a0: 72b2 b43a faeb bd39 a841 3a39 0226 733b
000000b0: 366c 9c3a 1459 263b 7047 4a3c e70d 873b
000000c0: 75dd bf3a 69c5 a43b
0.0006714418 0.008236439 0.0004399529 0.0010133148 0.0014787813 0.007469222 3.3407778e-05 0.00073452434
0.0002713749 0.00046648853 0.015419282 0.007734948 0.00017812263 0.0016437839 0.012043278 0.00032986552
0.010733062 0.00090966385 0.00053564884 0.0027207294 0.0040648673 0.00027928504 0.0014601438 0.0010600148
0.0012618122 0.0010726971 0.00407307 0.00026213884 0.005057312 0.0021583734 4.7240082e-05 0.009863507
0.0044261576 0.0032171083 0.0043703644 0.0010103132 7.359871e-05 0.0028252925 0.0013845495 0.007839053
0.0013786091 0.00036224705 0.00017762801 0.0037101512 0.0011934105 0.0025382685 0.012346134 0.0041215303
0.0014638143 0.005028416

exp_avg f4 [50, 50]
00000000: 1eb7 f7bb a633 ecbb 5db6 93b7 41fa c2bb
00000010: 66e6 40bc 6cf8 513c 13a6 0a3d 4aac 243d
00000020: a9da cabc a2ed 51bc 3ed7 9cbc 615a a13c
00000030: 5214 103d a841 d03b 9238 823c 8395 01bd
00000040: 96e6 9a3b 237b 4d3c e0e6 c83b b8a5 31bc
00000050: 81e3 75bb 398d 1dbc e03b cc3c 8d2a 713b
00000060: 5354 c23c c68d 043b a9df 06bc c9c2 c93c
00000070: 13ea 0ebc 3768 863b 929d 6c3c dd31 e8bb
00000080: 885b b53c a04b 0c3c 3006 d0bc d841 953a
00000090: 1b51 b4bb 7392 b33c dd94 c13c a9f3 a4bc
000000a0: 2ed6 5e3c d728 d5bc 3275 2e3a 53ac 543a
000000b0: 8f02 833a 574d 6e3c 3162 4a3c 8ea7 8abc
000000c0: 5a72 37bd fb6a 2c3c e339 e63a 4976 8c3b
000000d0: ecba 213b acd9 b5bb 3bcf d9bb 7a52 d13b
000000e0: 7b8f 0a3c 223a ec3b 3dd9 eabb 5561 02bc
000000f0: f71a 69ba 173c f93b bf3a 593c 1a6c db3b
00000100: d94f 1b3a 50b1 99bb 61c2 32bb bf00 b13b
00000110: e79d 5dbb ebc8 febb 8632 cdbb 6eb0 e7ba
00000120: 4e19 953a c140 27bb be71 1e3c 27e3 a23b
00000130: f950 eabb ebf0 2d3a e8f8 813b f274 8f3b
00000140: be09 ae3b d82e 703b 3083 d33b 1260 88bb
00000150: e6c7 84bb cb1f 683b 2df9 94bb cb6c e83b
00000160: bc2d cb3b 8290 1ebc 468b 92b9 43ce 23bb
00000170: 0b10 df39 ae0c 8c3b 8933 90bb 001e 8c39
00000180: b2b9 3eba 1cf8 043b 080f 72bc 32e3 733b
00000190: b8b7 a6bb 7040 56bb 6c8a 163b 1996 1dbc
000001a0: b856 7ebc abad 843c 8bce 1c3d 2423 383d
000001b0: 3bbe e6bc d317 90bc 817c 8dbc e55d d03c
000001c0: 2ac2 293d b74a 293c f6a3 673c a33a 04bd
000001d0: d2a7 f13a 4411 783c b304 843b 24dc 81bc
000001e0: 9560 02bc 345b 1bbc 4d09 bb3c 59a7 453a
000001f0: 9c06 ea3c 7e0b ba3b bcf4 48bc 46a2 bc3c
00000200: c94f b1bb 2660 f13b 9cc7 8e3c d053 5cbb
00000210: b412 cf3c bbf8 a23b 93b4 cdbc 94b9 7f3b
00000220: 1682 08bc 159e d03c bf9a d63c 7e89 cfbc
00000230: 4927 3b3c 9224 d6bc 10b2 413a 103c 8a3b
00000240: 101f 28bb e72c 4d3c d692 1f3c 1437 5dbc
00000250: ebbd 53bd 65aa 4c3c 51e1 10bb 4d95 39bb
00000260: 2a52 b2b9 b8d4 71ba 6412 1cbb a090 393b
00000270: 987a 083c 8074 213c 2e81 cbbb 4ec7 0cbb
00000280: f939 b1bb 6ebe 983b c5e2 053c a53f 013a
00000290: a715 903b 1a23 0dbc 56d8 d03a a24e 383b
000002a0: fd0b 2a3b a265 cbba a0e7 8d38 4f43 26bb
000002b0: 4bc9 ed3b b808 a93a 76ed ab3b a8f7 c6b8
000002c0: cdca 79ba 5477 e53b f85a 5bbb 89dd e739
000002d0: 50e2 603b 804a 2bbb 6e11 ba3b d56c 533b
000002e0: 0098 debb fdd6 3d36 345c 71ba 2c9a ae3b
000002f0: d694 c83b 2254 85bb 3414 7c3b 6eac ebbb
00000300: a672 9c39 27f2 95b9 550f 783a eac4 8b3b
00000310: 9fb1 703b 4f7a b0bb 0644 32bc 4da5 3b3b
00000320: 6065 fd3a 5012 2c3b 1ca3 ef38 bc9b 7e3a
00000330: 0e07 173b f7bb 30bb 02eb 09bc 6ea0 28bc
00000340: 04e3 c73b de74 0c3b c585 9f3b c4e3 a7bb
00000350: d5cf fdbb 8b86 d3b9 9c94 80bb 192d 063c
00000360: 7f40 b1ba 0460 2dbb 6d12 31bb e556 d63a
00000370: c1b1 3fb8 9e9e 123b 5e3e d9bb 93b9 7aba
00000380: 05a9 a4bb 824f 3f35 9978 543a 805c dbbb
00000390: 6b65 563b 3b8d 1bba 169b 64bb ac39 193b
000003a0: 0b5b b7bb 0d80 4cbb 5239 c93b 576c efb8
000003b0: e6fd 6c3a dc65 acbb 7b5a c2bb 5176 803b
000003c0: 0548 5fbb e6e2 e63b cd65 67b9 a09a 1539
000003d0: 5763 4eba 3633 75bb 716d 4ebb e425 a23b
000003e0: 9dcb 2a3c 626b 39bb 5aaa 1b3b 62a5 533a
000003f0: 36d7 9e3a 836c 0ab9 b728 603a 5b8e 4bba
-0.007559671 -0.0072083054 -1.7608685e-05 -0.0059502427 -0.011773681 0.012815576 0.033849787 0.04020337
-0.024762468 -0.012813004 -0.019145604 0.019696416 0.03517563 0.006355483 0.015896115 -0.031636726
0.004727195 0.012541565 0.006131038 -0.010842733 -0.0037519636 -0.00961619 0.024930894 0.0036799044
0.02372185 0.0020226105 -0.008232036 0.024629014 -0.0087228 0.004101779 0.014441865 -0.0070860223
0.022138372 0.008562952 -0.025393575 0.0011387421 -0.0055028326 0.021920418 0.023630554 -0.020135717
0.013600869 -0.02602045 0.00066550367 0.00081128365 0.0009995269 0.014544806 0.012352512 -0.0169256
-0.04478679 0.010523553 0.0017564859 0.0042865616 0.0024678065 -0.00554963 -0.0066470183 0.006388006
0.00845706 0.0072090784 -0.00716701 -0.007957776 -0.00088922627 0.00760604 0.013258635 0.0066962363
0.0005924679 -0.0046903268 -0.0027276503 0.0054017003 -0.003381604 -0.007775416 -0.0062621264 -0.0017676482
0.0011375339 -0.0025520774 0.009670673 0.0049709263 -0.007150766 0.0006635326 0.0039664395 0.0043779546
0.00531122 0.0036649015 0.0064548478 -0.004161843 -0.00405215 0.003541934 -0.0045463056 0.0070930473
0.0062005203 -0.009678008 -0.00027951057 -0.0024994768 0.00042545827 0.0042739725 -0.0044006747 0.00026725233
-0.00072755956 0.0020289486 -0.014774092 0.0037214276 -0.005087819 -0.0032692216 0.002297069 -0.009618306
-0.015523605 0.016196093 0.038282912 0.044955388 -0.02816688 -0.017589485 -0.017271282 0.025435397
0.041444935 0.010332755 0.014138212 -0.032282483 0.0018436855 0.015140835 0.0040288805 -0.015852042
-0.007957597 -0.009482194 0.022831583 0.00075398904 0.028567605 0.0056776395 -0.0122653805 0.023026597
-0.0054111225 0.007366198 0.017429166 -0.0033619292 0.025277473 0.0049734986 -0.025110519 0.0039020525
-0.008331796 0.025466004 0.026196836 -0.025334116 0.0114229405 -0.026140485 0.0007388899 0.004218586
-0.002565328 0.012522913 0.009739598 -0.013501901 -0.05169479 0.012491797 -0.0022106955 -0.002831775
-0.00034012023 -0.0009225118 -0.0023814673 0.0028314963 0.00833001 0.009854436 -0.006210468 -0.00214811
-0.005408522 0.004661373 0.008171742 0.0004930443 0.0043971124 -0.008614326 0.0015933614 0.002812304
0.0025947087 -0.001551796 6.7665474e-05 -0.002536971 0.007256662 0.0012896275 0.0052468134 -9.487505e-05
-0.0009528816 0.0070027504 -0.003347097 0.0004422481 0.003431458 -0.0026136935 0.0056783473 0.0032260914
-0.006793022 2.8288334e-06 -0.000920716 0.0053284373 0.0061212583 -0.0040688673 0.003846419 -0.007192186
0.00029840058 -0.00028599912 0.0009462734 0.0042654173 0.0036726964 -0.005385674 -0.010880476 0.0028632462
0.001933258 0.0026256032 0.000114267896 0.0009712537 0.0023044976 -0.0026967505 -0.008417847 -0.010292156
0.0061000604 0.0021431963 0.0048682415 -0.0051235873 -0.007745723 -0.00040345298 -0.0039239656 0.008189463
-0.001352325 -0.0026454935 -0.002701904 0.0016352801 -4.5703495e-05 0.0022372375 -0.006629749 -0.0009564396
-0.0050250315 7.1268744e-07 0.00081051287 -0.0066943765 0.0032714258 -0.0005933826 -0.0034882477 0.0023380322
-0.00559557 -0.0031204254 0.0061408663 -0.00011416588 0.00090405194 -0.005261166 -0.0059311963 0.0039203544
-0.0034070027 0.0070460914 -0.000220678 0.0001426735 -0.0007873079 -0.0037414557 -0.0031498338 0.0049483646
0.010424522 -0.0028292765 0.002375266 0.0008073655 0.0012118581 -0.0001320113 0.0008550989 -0.0007765048
