models/onlyadam_10e/ckpt/ckpt-1001.pt (torch, 106817 bytes, 30 tensors)

linears.0.weight f4 [50, 2]
00000000: e4d2 ebbd 5466 903e f922 9a3c c9f2 3e3e
00000010: 0de9 cabe 56d2 d6be a827 1d3e 72c7 2fbe
00000020: 2b1a 063e b470 453e bd64 44be 21f2 0f3d
00000030: 319e bb3e a746 6b3d bec1 a6bc 0b4d 54be
00000040: 028d 14bf 46a5 523e cde5 dc3e 6c1f 8abc
00000050: 622f 11be 9a30 cabe 6fc0 913e be31 843d
00000060: c128 943e d3d0 cc3e 0771 5b3e e842 393e
00000070: 5bf0 f5bd a9b1 353f 89ab 8f3d f929 f33e
00000080: b6dc 1d3b d925 753e 55e1 e33e 1559 d83e
00000090: 4b86 c23d 7e5f 32bf 3fda d03d 6f31 823e
000000a0: bcd0 a7be ffb5 6cbe a7b5 9ebc a037 013e
000000b0: 0a9c 0f3e 901e 503e 9f08 a6be 0fd3 d1bd
000000c0: 3288 95bd bb82 443e 8093 e2be 5925 b0be
000000d0: 40ea 9d3e 33a9 9a3e 1814 8b3e cfbb 2a3c
000000e0: 10b4 e33a 9a0e 983e 60d1 44be 11d9 5f3d
000000f0: c548 b3bd 2bff 22be 8366 52bd 8c39 2e3e
00000100: 0dc6 ed3e cf97 b83e e902 e03d 348a f2bd
00000110: e46c 0b3f 52fd 5cbe 1930 6fbe 164c b4be
00000120: a7cf 1d3e 420a f6be cc6f 93bd 24a1 aa3e
00000130: ded2 08bf ec76 3e3e c84d 80be 5949 afbe
00000140: 9658 95bd a3c7 013f 4a30 fabd 7fcc 8abe
00000150: fb43 b1bc 1be5 193f 29c5 cb3d db5f 78be
00000160: 3bed 093e a04d 80be f03b 203e adfa 2b3e
00000170: 5770 34be a68b 37be a311 b83d 61d7 b63e
00000180: 5974 143e 7278 f53d f00b 1b3e 47a7 293e
-0.115148336 0.2820307 0.018815504 0.18647303 -0.3963093 -0.4195735 0.15347159 -0.17165926
0.1309592 0.19281274 -0.19179054 0.03514302 0.36644128 0.057440426 -0.020356055 -0.20732515
-0.5802766 0.2057086 0.43144074 -0.016860686 -0.14178231 -0.39490205 0.28467128 0.064548
0.28937343 0.4000307 0.21429835 0.18091929 -0.12008735 0.7097421 0.070151396 0.4749296
0.0024087853 0.23940219 0.44507852 0.42255464 0.094982706 -0.6967696 0.10197877 0.2542834
-0.3277644 -0.23116301 -0.019373728 0.12618876 0.14024368 0.20324159 -0.32428452 -0.10245334
-0.07301368 0.19190495 -0.4425316 -0.34403494 0.3084278 0.30207214 0.27163768 0.010420754
0.0017372388 0.2969864 -0.19220495 0.05465037 -0.08754114 -0.15917651 -0.051367294 0.1701414
0.46440163 0.3605332 0.10938055 -0.118427664 0.5446303 -0.21581009 -0.23358192 -0.352143
0.15411244 -0.480547 -0.07199058 0.33326066 -0.5344676 0.18600053 -0.25059342 -0.34235647
-0.07292287 0.50695246 -0.12216242 -0.27109143 -0.02163886 0.6011521 0.09949715 -0.24255316
0.13469402 -0.25059223 0.15647864 0.16794844 -0.17620979 -0.17924365 0.08987739 0.35711196
0.14497508 0.11985864 0.15141273 0.16567717

linears.0.bias f4 [50]
00000000: d339 16be e17f 923d 9602 10be 24db 0d3e
00000010: b620 2d3e 2ccd bc3d 4110 1e3c 7ef4 6bbd
00000020: 2068 39be ef97 25bd ca82 8b3e c1df 76bd
00000030: 0b70 d23d b925 9d3d e4ef 03bd 4242 0f3d
00000040: 65ca e2bd 6a15 653d c03d 06bc 0480 893d
00000050: 6589 373d 0388 4dbf 9463 b7bd e7af 81bd
00000060: 9f38 743d aaa5 4e3d dfa2 003e fcb7 c1be
00000070: 106e 79ba 4392 acbd 422c f0ba db1b 0e3e
00000080: 1a04 acbc d0de 5dbd 1b7f 9b3e a90e 21bb
00000090: dae5 423d 7a4f b0bd 9012 56be f3c6 593e
000000a0: 7710 5ebd 54f4 39bd d03e 15bd 561a cbbc
000000b0: fce9 123e 832a 16be ae54 59bd 446e 393a
000000c0: 4393 183d 6ffb 213d
-0.14670496 0.07153297 -0.14063486 0.13853127 0.1690701 0.09218821 0.00964743 -0.057606213
-0.18106127 -0.0404281 0.27248222 -0.060271982 0.10275277 0.07673211 -0.0322112 0.034975298
-0.1107376 0.055928625 -0.008193433 0.0671387 0.044808764 -0.8028566 -0.0895454 -0.06332379
0.05962431 0.05045096 0.1256213 -0.3783568 -0.0009514997 -0.08426335 -0.0018323737 0.13877814
-0.02099805 -0.05416757 0.3037041 -0.0024575389 0.047582485 -0.08608909 -0.20905519 0.212673
-0.05421492 -0.045399025 -0.036436856 -0.024792831 0.1434707 -0.14664654 -0.053059272 0.0007073621
0.037249815 0.039546426

linears.1.weight f4 [50, 50]
00000000: a8c0 723e a633 0dbe e483 d53d ab4c 263e
00000010: 63d1 09be ab30 f03d a651 57be 1253 87bd
00000020: 3a46 483e 7fe5 ba3d ec41 8dbe 52ed 4abb
00000030: 0609 bfbd 3fc0 b7be e3b4 643d dff2 01be
00000040: 89ab 8f3d 979c 84be 9a73 51be 0e5a 23be
00000050: 4893 1bbd 298d 9e3e f347 6cbe 466a 17bc
00000060: e69a 913d cb3d 453e 9ef3 e5bd 5fc4 223e
00000070: aa73 263d faa9 8739 8baf 263e fc20 c5be
00000080: 24be 413d 0c92 183e e675 31be a282 333d
00000090: 45e8 a7bd ac1e e73d 2435 2f3e 03d1 98bd
000000a0: e685 a73d 9dab 4b3e c351 b23d c6e8 cd3c
000000b0: 7c1d 51be 7106 72bd e579 e13c d1ab 40be
000000c0: f67c 10bd b602 18be fc78 30be 2edc 343d
000000d0: cd7c b43c 8069 27bd 9dfb 293d 0ef1 d23d
000000e0: b46a 65bc cde3 753e 2cc8 243d 43ed 0cbe
000000f0: db1e 713c 73d9 03be ad87 8f3e 4b52 09bc
00000100: ff16 7f3e eedd 09be b2c4 143e d937 193e
00000110: a9ec 42be c6fd 2ebd 6484 dc3b 99d4 71bd
00000120: 0ea9 3e3e 4458 1c3e fff7 22bd 6b7c 92be
00000130: 9af3 833d bd97 c0be 38a7 a4bd 7a2a 45be
00000140: f08b 6c3e 5a38 f5bd 111a c1be 2c7a b73d
00000150: ee60 ee3d 2e46 9bbd ed72 69be 9718 3cbc
00000160: bd58 b03d b6c9 f23d b365 433d 0375 cb3b
00000170: 140d ed3d 3144 8cbd 825d 8e3d 1f2f 7c3e
00000180: ac4f 953e 0932 173d 6d04 b9bd 881e 133e
00000190: 6532 c73d 076d 8bbe fcb7 943d 2996 7dbd
000001a0: b50f a0bd 2e9b 8abe a1fd b13d 23fa 193e
000001b0: 5715 4fbe 19c1 83bd 44ca f23d 2606 01be
000001c0: d629 fabd 65e5 d4bd c1d2 aebc a3fc 983d
000001d0: a471 573e d8b3 d73d 9198 46be 2fec c6bd
000001e0: 5d68 7c3c c994 873d 4acf 02be cec8 73bd
000001f0: e134 11be 58b5 aa3c 4078 083e 5a93 8b3e
00000200: ec5d 17be ccf7 113d e3ed 293e a147 f0bd
00000210: 7533 7c3e 164b 32be d580 2bbe 62ed 1b3e
00000220: 06a1 45be a942 16be f366 9a3d d1e1 e1bd
00000230: 8f6d 193e 0d61 8fbd b86e 4fbd 8dc5 6e3e
00000240: 9aff b83e d596 5ebe 6fe3 32bd da6c 9abd
00000250: 721d 1dbe f171 7cbe d1d5 23be ebc8 94be
00000260: 5b12 09be 5bcd a43e 8299 efbd 18b2 1c3e
00000270: a781 f6bd 606a afbd 7eaa aa3d fe6d e0bd
00000280: 4fa5 d93d 7a35 02be cced 503d be0a 1c3e
00000290: 55a2 c0be a8ef 55be 2e56 2abe e496 303c
000002a0: c4dc a13d 562b 11be 7805 303c 32ee e23c
000002b0: 894b 07be 7a34 02be 5391 6fbe ea2b 4b3d
000002c0: 6e43 313d 95e2 c6bd 3b4e 9bbd ef07 0bbe
000002d0: fde2 00be e9f8 99be 3b3b 82be 396c 0b3e
000002e0: fe47 863d aab7 b6bb 8392 a33e 2c98 f8bd
000002f0: 0d26 683d 0440 f4bd 6789 c9bd a7c5 263d
00000300: ca44 81bd 0c03 c13e aa7a 803e 1a8e 44be
00000310: a159 9e3e 9918 6dbe 07cb 79bd f0aa fc3d
00000320: 35a3 303e fd87 ddbe 01d3 ec3e 9c63 45be
00000330: 93df c4be d3cf d23a 02ad 06be 73a5 8e3e
00000340: ed42 5e3e be25 3ebd 10de 293e 4d49 16bd
00000350: 3b52 bdbe b844 bebe 6ef8 22be 2a63 6bbe
00000360: 65ec 743d a072 91be a2f2 2a3d 6913 0abe
00000370: e3a2 ab3d 1abb 893e 28f7 0e3d 9c96 313e
00000380: ae96 f4be 7b54 a53e 61ec 02be b82c 7d3e
00000390: 0e83 98be 74aa 1f3e fad9 9b3d 8497 90be
000003a0: 43d1 3fbe 38c5 1abd e738 42be fee0 b43d
000003b0: 34a2 003e 4bb4 4cbe 9e27 5a3e 8f7c 323e
000003c0: bdf6 823d 8e7c 183d ad8c 8ebe a3e5 c3bc
000003d0: 0ffa ae3d 7012 173c bee2 c13e 8603 cebe
000003e0: 8efe 8fbe d2dd a9be 7aad 5b3d 4eb9 733e
000003f0: 2ebd c7bd 4afb 36bd 02e4 013e 1e2e 44be
0.23706305 -0.13789234 0.10425547 0.16240184 -0.13458781 0.11728033 -0.2102724 -0.06607641
0.1955804 0.09125804 -0.27589357 -0.0030964208 -0.09327893 -0.3588886 0.05583657 -0.12690304
0.070151396 -0.2590072 -0.20454255 -0.15952322 -0.037982255 0.30967072 -0.23074321 -0.009241646
0.07109623 0.19261853 -0.11228107 0.15895222 0.04063765 0.0002587585 0.16277902 -0.38501728
0.047300473 0.14899462 -0.17330131 0.043825753 -0.08198599 0.11285147 0.17110115 -0.07461741
0.08179836 0.19889684 0.08707001 0.02513541 -0.20421404 -0.059088174 0.027523944 -0.18815543
-0.035275422 -0.14844784 -0.17233652 0.044155292 0.022032166 -0.040872097 0.041499723 0.10299884
-0.014002491 0.2401268 0.04022996 -0.13762383 0.014716829 -0.12875919 0.280332 -0.008381437
0.24911116 -0.13463566 0.14528158 0.1496271 -0.19035591 -0.042722486 0.0067296494 -0.05904064
0.18619177 0.15268046 -0.03978729 -0.28610548 0.06442948 -0.37615767 -0.08039707 -0.19254485
0.23100257 -0.11973639 -0.377152 0.08958849 0.116395816 -0.07581745 -0.22797747 -0.011480472
0.086106755 0.118548796 0.04770441 0.0062090172 0.1157476 -0.06848944 0.06951429 0.2462735
0.29162347 0.03691295 -0.09034047 0.14367115 0.09726409 -0.2723162 0.07261655 -0.061910782
-0.07815496 -0.27071518 0.08690954 0.15036826 -0.20222984 -0.06433315 0.11854985 -0.12600002
-0.12215011 -0.10395316 -0.02134073 0.07470062 0.21039444 0.10532349 -0.19394137 -0.09713017
0.0154057415 0.066201754 -0.12774387 -0.059517674 -0.14180328 0.020838425 0.13327122 0.27260858
-0.14781922 0.03563671 0.16594653 -0.11732412 0.24629004 -0.17411456 -0.16748364 0.15227273
-0.19299707 -0.14673866 0.07539167 -0.11029399 0.149832 -0.07000933 -0.0506427 0.23317547
0.3613251 -0.21737225 -0.04367393 -0.07540293 -0.15343264 -0.2465284 -0.15999533 -0.29059538
-0.13385908 0.32187924 -0.11699201 0.15302312 -0.12036448 -0.08565211 0.083333 -0.10958479
0.10627233 -0.12715712 0.05100803 0.15238473 -0.3762385 -0.20892203 -0.16634437 0.010778163
0.07903436 -0.14176688 0.010743491 0.027701471 -0.13212408 -0.1271533 -0.2339528 0.049602427
0.043277197 -0.09711186 -0.07583281 -0.13577245 -0.12586589 -0.30072716 -0.25435814 0.13615502
0.065567 -0.0055760937 0.31947717 -0.121383995 0.056676913 -0.119262725 -0.098406605 0.04071584
-0.063119486 0.37697637 0.25093585 -0.19194832 0.30927756 -0.23153915 -0.060984638 0.12337291
0.17249759 -0.43267813 0.46254733 -0.19276279 -0.38451824 0.0016083665 -0.13151935 0.27860603
0.21705218 -0.046422713 0.16588616 -0.036691 -0.369768 -0.37161803 -0.15915081 -0.22987047
0.059795756 -0.28407764 0.0417353 -0.13483967 0.083806776 0.2690056 0.034903675 0.17342609
-0.4777121 0.32291016 -0.12785484 0.2472409 -0.29787487 0.15592366 0.07609935 -0.28240597
-0.18732171 -0.03778574 -0.18967019 0.08831976 0.12561876 -0.19990651 0.21304175 0.17430328
0.06394718 0.03722816 -0.27841702 -0.02391321 0.08543789 0.009220704 0.37868303 -0.40237063
-0.28123897 -0.33177048 0.053632237 0.23801157 -0.0975288 -0.04467324 0.12684634 -0.19158217

linears.1.bias f4 [50]
00000000: 0047 f0bd 400b 23bd 4158 08bd 2a56 bdbc
00000010: 6641 adbd 4d83 54bd ce35 70bd 4445 133e
00000020: ba78 acbd f7e6 71bd 4f21 2a3d 755f e83d
00000030: 0066 41be b10a 4abd e1d0 883d 479e 2a3d
00000040: f5f3 8b3d b4c6 49bc cf23 7ebe 0241 1c3e
00000050: 8927 12bc 7f4e 60bd 4ea9 793c aaad 22bd
00000060: ad58 b93d e80e 523c 3ce3 9f3a 803b e1bc
00000070: e18a a23e 5cc2 8bbd 673b f4bd 303a a33e
00000080: cd58 b1bc 0ce4 4f3b 9aa6 69bd 3d33 aabd
00000090: b734 ab3b 443b 863b 01de 023e f1a4 1fbd
000000a0: 10e6 743d 79a7 913c 5fcf 1fbd 6ea7 6bbc
000000b0: cdd7 1bbc 956c 71bd e6cf 56bd 69d5 e83c
000000c0: 250f 4dbd ad4c afbc
-0.11732292 -0.03980565 -0.03328729 -0.023112375 -0.084597394 -0.05188303 -0.058645062 0.14381891
-0.08421464 -0.059058156 0.04153567 0.11346332 -0.18886566 -0.049326602 0.066804655 0.04165485
0.068336405 -0.012315441 -0.24818347 0.15259174 -0.008920559 -0.05476236 0.015238119 -0.0397164
0.09050117 0.012820937 0.0012198458 -0.027494192 0.3174658 -0.068241805 -0.119253926 0.3188033
-0.021648789 0.003172162 -0.05704365 -0.08310554 0.00522479 0.0040964205 0.1278 -0.03897566
0.059789717 0.017780052 -0.039016124 -0.01438318 -0.0095119 -0.058941443 -0.05244436 0.028422074
-0.05006327 -0.021398867

linears.2.weight f4 [50, 50]
00000000: 5fdc 863d d7e6 f83d 43e7 273e 052a 38be
00000010: 23b5 d53b 9a13 463e 171d 18bd 6d6f 593e
00000020: 037c d43d ab97 03be cf38 6f3e ef0c 0ebe
00000030: 4a4d 8cbe 3033 b4bc 11b3 693d a706 1d3e
00000040: 6a20 ea3e 7097 4a3d 6af9 84be 6423 f5bd
00000050: f5f1 afbd a7ce b73c d89e 1fbe 1596 c8bc
00000060: 1c7f 973e 2336 023d 5733 a23e d0a1 e1bd
00000070: 1ab4 cbbd 09ce 3a3d 01a7 b1bb 53af 8a3e
00000080: fb9b 1ebe 7823 03be 05e8 23be aae7 b43e
00000090: 5f13 90be e529 f6bc f78c af3d e18d edbd
000000a0: bf9f 4c3e f80a 9bbd f0c8 0dbe da63 84be
000000b0: 30fa 8e3e b4fe 643e a6b2 fcbe 1613 54bd
000000c0: a93c 013e 1a8d 3e3e 9b19 a1bd c71a 40bd
000000d0: 8959 a33e 689c 88be 9fbc 1fbe 97ec 7bbd
000000e0: 3688 50bd 9c00 97bd e4e5 4fbe 6bcb b8bd
000000f0: 6879 493c be55 9a3d 513c 5ebe b3b7 343e
00000100: 4bcb 043d ed93 87be 3b77 253e 4827 ce3d
00000110: 3d67 433e 2976 a93d 403d 2cbe 0609 55bd
00000120: aa59 873d c45a 673e 663c 1f3a a2b5 cebd
00000130: 221d dabd 7fa2 8d3c 027b 91be 226d 63bc
00000140: abf2 cbbc 5706 9b3e 4fac 2c3e bea5 87be
00000150: 5d88 ecbb ae32 253d e334 683e 397c 933c
00000160: f8d8 eabd 225f 5c3e 2b56 7bbc 88bf 72be
00000170: fd36 383e 57f7 7c3d aafe bb3e ddf7 a53d
00000180: 1953 833d 9b58 4b3d 07a1 ef3d 3f35 febd
00000190: 83b2 a83e 20bd 9b3d 9717 11ba 14e2 173e
000001a0: a95a 82bd 9031 2c3e 4f7d 793d bd6f c8bb
000001b0: 9c80 a5be f031 063e 5d81 e3bd a3c7 abbd
000001c0: 34e5 3f3e 2882 8ebd 5ba2 e4bd 4df2 103e
000001d0: dc15 16bd 198d 07be 2590 3c3d 68ce 5dbd
000001e0: 9f93 673e 69b2 4fbe 5d5e 88be dd5b ccbe
000001f0: 470b 193e 80a9 6bbd 1a58 443d e538 bebd
00000200: bfb1 fa3c 4b42 01be 4d31 abbe 6f99 94be
00000210: fdd0 7abe 35d9 9d3e 3849 12be bfc8 c9bc
00000220: 52ac 58bd 833d a33d 980c 673d ea9b 073e
00000230: d575 0ebc ed01 1fbc 2cb3 30be 1a60 02be
00000240: 218e 9bbe a2ea 823e 6ed1 3e3e 8e66 92be
00000250: 7dcc a23d a8f8 d4bc 9988 e5bd 2414 42be
00000260: 0898 3fbe 9e87 00be 812c 893e cb84 5d3e
00000270: 6523 4bbe 2297 983e e416 1cbe daf2 80be
00000280: 7101 4fbd 80d8 71bd 44ab 0ebe f8a2 c3bd
00000290: 76ee df3c 218b 2fbd dcfb 0fbe 635e 3f3d
000002a0: 8851 983a e2b3 893d 4076 a73e 4ff3 c5bd
000002b0: 04c4 3b3c 99f2 1abe d159 223d dc81 0e3d
000002c0: 9f63 b8bc 4a70 db3d 000a 043e e09c 1b3e
000002d0: b1a0 f6bd 3faa 333d df42 9f3d 4805 0f3d
000002e0: 98c6 b5be e077 10be 12a7 283d 96f1 8e3e
000002f0: 0fd8 2a3e 374b 3fbe 78e0 f6bc ec3d 343e
00000300: 9225 10bd 3260 a7bd f415 963d ab25 f63c
00000310: 87b5 8f3d 5b8a f7bd a7e3 d6be ee24 d0bc
00000320: eea0 a03c a66d f33b a9ea b7bc 5dda 75bd
00000330: 0f3f 0d3c b35b 5b3e 01e1 1b3e 4206 a0bd
00000340: 16b7 01be e1e6 0dbe 0c63 8dbd ec37 923c
00000350: 51fe 9fbd 391e 083e bd70 edbd e382 a13d
00000360: 57bb 7cbd 8cfe 243d 9d62 a73d e13c c3be
00000370: 3e56 383d 8e92 37be 8e11 4abe 1a22 253e
00000380: d57b 8cbb 984a e3bd a568 e13d d025 a8bd
00000390: 7eda 3bbe 2bc1 133c 7ef6 81bd 9583 d73e
000003a0: 3231 663e 252e bfbd 31ef 2d3e c695 a03e
000003b0: cf30 31be 473c 7d3e 62e5 293d 5be9 d93d
000003c0: 222f 083e 4344 83be 1598 f63b 4733 4e3e
000003d0: 0b68 e0ba 7863 01bd 7652 52be cbf8 b33c
000003e0: 5b05 ca3d 4319 093d 7839 d33e 2564 95be
000003f0: 29bd ef3d 4eb8 5f3d 2538 653e 6c5a 613d
0.06585001 0.12153404 0.16396813 -0.17984779 0.0065218373 0.19343415 -0.037137117 0.21233912
0.10375216 -0.12850825 0.23361515 -0.13872121 -0.27402717 -0.021997064 0.057055537 0.15334569
0.45727855 0.04946083 -0.25971538 -0.11969641 -0.085910715 0.022437407 -0.15587938 -0.024485627
0.29589164 0.03178991 0.31679794 -0.110171914 -0.09946461 0.045606647 -0.0054215197 0.27086887
-0.1548919 -0.12806499 -0.16006477 0.35332996 -0.2813978 -0.030049274 0.08571809 -0.11599327
0.19982813 -0.075704515 -0.13846183 -0.2585743 0.27925253 0.22362787 -0.49355048 -0.051776014
0.12620796 0.18608513 -0.07866212 -0.046900537 0.31904247 -0.26681828 -0.15599297 -0.061504927
-0.05091115 -0.07373163 -0.2030254 -0.09023174 0.012297012 0.07535885 -0.21702696 0.176482
0.032420438 -0.26480046 0.16158764 0.10066086 0.19082351 0.082744904 -0.1682024 -0.05201056
0.06608899 0.22593218 0.0006074369 -0.100932375 -0.10650088 0.017289398 -0.2841416 -0.013881
-0.024895987 0.30278274 0.16862606 -0.2649364 -0.007218404 0.040331535 0.22676425 0.01800357
-0.11467165 0.21520665 -0.015340368 -0.23705876 0.17989726 0.06175932 0.3671773 0.08103917
0.06412334 0.049645048 0.117006354 -0.124125 0.32948694 0.07604432 -0.0005534826 0.14832336
-0.06364948 0.16815782 0.06091052 -0.006116836 -0.32324684 0.13104987 -0.111086585 -0.08387687
0.18739778 -0.06958419 -0.11163779 0.1415493 -0.03664194 -0.13237418 0.046035904 -0.054151922
0.22614907 -0.20282902 -0.26634493 -0.39913836 0.14945708 -0.057534695 0.047935583 -0.092881955
0.030602334 -0.12622945 -0.3343605 -0.2902331 -0.24493785 0.30829778 -0.14285743 -0.024631856
-0.052898712 0.07970717 0.056408495 0.1324307 -0.0086950855 -0.009705049 -0.17255849 -0.12731972
-0.30381873 0.25569636 0.18634579 -0.28593868 0.07949159 -0.025997475 -0.112076946 -0.18952996
-0.18710339 -0.12551734 0.26791766 0.21632688 -0.1983772 0.29802805 -0.15243107 -0.2518528
-0.050538484 -0.05904436 -0.1393252 -0.09552568 0.027335387 -0.042857293 -0.1406092 0.046720874
0.0011620978 0.06723763 0.32707405 -0.09665548 0.011460308 -0.15131606 0.039636437 0.034791812
-0.02250844 0.10714777 0.1289444 0.15196562 -0.12042368 0.04386353 0.077764265 0.034917146
-0.35503078 -0.14108229 0.041174956 0.2791869 0.16683982 -0.18681036 -0.030136332 0.17601746
-0.03519208 -0.08172645 0.07328406 0.030047258 0.070170455 -0.12086936 -0.4197056 -0.025408234
0.019607987 0.0074288426 -0.022450762 -0.0600227 0.008620991 0.21421699 0.15222551 -0.078136936
-0.12667498 -0.13857605 -0.06903657 0.017848931 -0.07812179 0.13292779 -0.11593769 0.07886293
-0.0617021 0.040281817 0.08173106 -0.38132384 0.045004122 -0.17927 -0.19733259 0.1612629
-0.004287223 -0.11098212 0.110062875 -0.08210337 -0.18345067 0.009018223 -0.06345843 0.42092577
0.22479704 -0.09334973 0.16985776 0.31364268 -0.17303775 0.24730025 0.041478522 0.10640212
0.1329923 -0.25638017 0.007525454 0.20136748 -0.0017120851 -0.031589 -0.20539269 0.02196922
0.09864303 0.033471357 0.41254783 -0.29177967 0.11706001 0.054619126 0.22384699 0.055017874

linears.2.bias f4 [50]
00000000: b9aa 8f3d b402 0abd 0bbf 753c 9d5a 203d
00000010: 266f 22bd fd70 28bd 503f 74bd 04ff 0fbd
00000020: 357a 213d c693 e13c c654 41bd 51a3 d03c
00000030: f434 9dbd e58c 4e3d 953b 2f3d c928 2c3d
00000040: f76e 1abd a585 d13d 94f0 f43b 33fa 593c
00000050: 5f3a c53c 97ea f3bc 2d00 093d e609 85bc
00000060: f827 1dbd 0f1c 273d 0216 0ebd 6e4d 933d
00000070: b07a 123d 78e2 1abc 1391 4abd 8065 1fbd
00000080: c71c 403b f054 86bc ae4c dfbc dd6d 003d
00000090: 6061 69bd b9dc 803d 364d 5c3c 8457 a23d
000000a0: 97fe 823d dfc9 213d a3ef 7c3d 2673 283d
000000b0: 7239 f43c c1fc 16bd e461 373d 87bd 97bd
000000c0: 714d 77bd 6238 06bd
0.07014985 -0.033693984 0.0149991615 0.039148916 -0.03965678 -0.04112338 -0.059630692 -0.03515531
0.039423186 0.027536284 -0.047199987 0.0254685 -0.07676116 0.050427336 0.04278143 0.042031083
-0.03770348 0.10230569 0.007474968 0.013304281 0.024075685 -0.029774947 0.033447433 -0.016240072
-0.038368195 0.040798243 -0.034688957 0.07192503 0.035761535 -0.009453408 -0.04945476 -0.038915157
0.0029314028 -0.016397923 -0.027258243 0.031354774 -0.05697763 0.062920995 0.013446143 0.079268485
0.063962154 0.03949916 0.061751973 0.04112544 0.029812548 -0.03686214 0.04477109 -0.07409196
-0.06037659 -0.032768615

linears.3.weight f4 [50, 50]
00000000: 4bff fc3d 40f2 4cbe 4c5f 833e 87f5 66be
00000010: abb1 1c3e c258 133c 0e17 253d 4b1d 14be
00000020: d6d7 953e aff5 c3be 18a4 493e e351 783e
00000030: e7fe 3fbe 6d23 193d b7f4 aa3d 0cbb 5d3d
00000040: c6db 45be f67f cabc 4ecd 113d 315e 5fbe
00000050: 1e79 23be 6b6c 003e b506 f83d 7e06 e83d
00000060: 9a5c d2bb 508c 183e 7520 44be ab59 82bd
00000070: d701 7fbd 3473 50bd eb3e 4fbe a7e6 d9be
00000080: ab50 533b cee0 15be 7db4 463e 2e35 d4be
00000090: 58de bdbe 972f 663e 7368 f83e ffd0 50bd
000000a0: a6bc d03d 85d8 013e e648 80be 5a13 aa3d
000000b0: 7858 1dbd 6365 7c3e 1b8c 30be 87c6 32be
000000c0: 8f6a 99be 3e39 8e3e 836b b13d f78b bd3d
000000d0: 1ce7 f63c dfb9 adbd 9882 143d 758a 72be
000000e0: 325f 8f3e ec1a ddbe 85cd 813e 546e a9bd
000000f0: 9cff 92bd fac3 50bd ee98 b4b8 28c9 003e
00000100: 2cb9 b93e e374 1a3d a97c 9e3d c711 efbc
00000110: 8cd6 71bd 1913 9b3e ea63 a5be 12bb a9be
00000120: 342b 083e a4c2 383c c67d 6f3e 1981 fdbd
00000130: eca7 bf3e ff6f 81be e5b6 523d 9582 663d
00000140: 78f8 9ebd 295f 90be 5792 073e 348d 98be
00000150: c49f b03e de45 bb3c 6ade 6dbd 447f 233d
00000160: 9a61 3f3e 948f b33d 164d a6bd 4bf2 c73e
00000170: befb 96bb 9d29 12bd 98e9 0cbd edd3 89bd
00000180: 23f8 483d a837 80be f204 9dbd 4b37 cebd
00000190: b159 44be 7c45 e13e ca5d acbd b2ab d93c
000001a0: 1362 f23d d52b f2be e689 27be a349 fb3d
000001b0: 08b6 77bd 562d c7be db8e f8bd 05ee 9b3e
000001c0: 8b39 28be d4bb 41be 77fd 763d 39fd 5fbc
000001d0: a669 fe3e 113d 873e 0faf ba3d 0b65 01be
000001e0: 38a2 893e a9e5 2f3e df37 a33d e660 18be
000001f0: a3dd 7abe 9af1 1d3e acf0 953e 84c2 083d
00000200: 3862 8fbe ff09 14be e107 853e 3c7a 47bc
00000210: 782e be3e 9e93 093e 73fd dd3d 92fc 0f3e
00000220: f10b 15bd 0fcf 113e f7c7 753b 6d24 e73e
00000230: 737b 89bd 6c47 433d 2be2 5bbd 3577 07bf
00000240: 5d38 bf3e 7cfb 703c 71a2 603e 9b65 cebd
00000250: 9c64 a7bd 75b7 e3bd cb97 c1bd ce65 533f
00000260: 5398 96be 201f a8be 8609 0d3e 1b65 f73c
00000270: dac7 24bf 880d 7c3e 1e46 6f3e 9508 a1bc
00000280: 3414 b63c 9c01 4ebe 13e1 9c3e 9db0 ab3d
00000290: cc6c af3c 0084 80be e230 dbbb e11e 40ba
000002a0: b18e d9bd d725 4f3e cb15 f1be af0c a63e
000002b0: 8cd5 9e3d c81b b53e 8119 533e ecd2 423e
000002c0: 1c66 8abe 9307 53be 5d2d 88be 745c bd3d
000002d0: 2fb1 973d d6dd 513e 0942 ad3e 195b 6bbc
000002e0: 5ffb 92be 99d5 23be 5d03 783e 6553 66bd
000002f0: 989d 11be 4c4c ddbd 757b 9fbe d348 b0be
00000300: f731 e9be c0c9 90be 270a 623e a5da 823e
00000310: 5f31 7dbd af5b 5d3e a9ae e53e 2b5a 373e
00000320: 4045 f93d 1d45 f73d 43b2 893e d2ce e1bd
00000330: 7b67 753d 015b c2bc fa96 7d3e a452 06be
00000340: 6f71 523d ec6c 403d 15f5 723e c30f 8dbe
00000350: 8939 e5bd dd5b 55be b0e0 09bd bc83 19be
00000360: f2f1 da3d 42b3 9b3c a938 a73d ddd9 ce3d
00000370: a798 b8bd 1d88 333e 3811 853e 36a6 8d3c
00000380: d965 33be 69e6 8dbe e29c 763e f4a9 0abd
00000390: 67a7 a33d db35 92bd 4865 423a cc35 77bd
000003a0: 791b 173e b563 223e f45a 913d 3561 c5bd
000003b0: 0489 143e 7114 cfb9 a092 bcbd e330 43be
000003c0: 5c38 cf3c ea06 d0be f17a 1fbe 0b6a 7bbc
000003d0: 816d 59be 6e4b 05bd 310c ffbd 0d59 503e
000003e0: e755 7c3d 944a a63d cb24 ebbd 4162 fc3d
000003f0: eb5f 933c 7bf7 083d c9e6 6f3e 2f0e 15be
0.12353381 -0.20014286 0.25658643 -0.22554599 0.1530215 0.0089933295 0.04030519 -0.144643
0.29266232 -0.3827338 0.19691503 0.24249987 -0.18749581 0.0373873 0.08347457 0.05413346
-0.19322118 -0.02471922 0.035596184 -0.21813275 -0.15964171 0.12541358 0.12110654 0.11329363
-0.0064197304 0.14897275 -0.19153006 -0.06364759 -0.062257614 -0.050891116 -0.20238845 -0.42558786
0.0032244127 -0.14636537 0.19404788 -0.41446823 -0.37083697 0.22479092 0.48517188 -0.050980564
0.10192232 0.12680252 -0.25055617 0.08304472 -0.03841445 0.24648051 -0.17240946 -0.17458545
-0.2996411 0.27778047 0.08663084 0.09255212 0.030139498 -0.08482718 0.036257356 -0.2368563
0.28002316 -0.43184602 0.2535211 -0.082729965 -0.0717766 -0.050968148 -8.611554e-05 0.12576735
0.36274087 0.037709128 0.07738621 -0.029183282 -0.0590425 0.30288008 -0.3230279 -0.33150536
0.1329773 0.011276875 0.23387823 -0.12378139 0.37432802 -0.2528076 0.051443953 0.056276876
-0.077622354 -0.281976 0.13239418 -0.2979523 0.34496891 0.022860464 -0.05807344 0.03991629
0.18689576 0.0876762 -0.08120172 0.39052042 -0.0046076467 -0.035684217 -0.03440246 -0.06729875
0.049064767 -0.25042462 -0.07666959 -0.1006914 -0.1917484 0.43998325 -0.08416326 0.026571129
0.118351124 -0.47299066 -0.16361198 0.122699045 -0.060476333 -0.38901776 -0.121366225 0.30455032
-0.16428201 -0.18919307 0.060300317 -0.013671213 0.49689978 0.26413777 0.09115421 -0.12636201
0.26881576 0.17177452 0.07969641 -0.14880714 -0.2449861 0.15424195 0.2928518 0.03338863
-0.28004622 -0.14456938 0.25982574 -0.012175139 0.37144828 0.13435218 0.10839357 0.14061192
-0.03638834 0.14239143 0.0037503222 0.45144978 -0.06712999 0.047675535 -0.053682487 -0.5291627
0.3734769 0.014708396 0.21936966 -0.100779735 -0.081734866 -0.11118976 -0.0945278 0.82577217
-0.2941309 -0.32836246 0.13773164 0.030199578 -0.6436745 0.24614537 0.23366591 -0.019657413
0.02222643 -0.20117801 0.30640468 0.08383296 0.021414183 -0.25100708 -0.006689177 -0.000732882
-0.10622919 0.20229279 -0.4708694 0.32431552 0.077555746 0.35372758 0.20615198 0.19025773
-0.27031028 -0.20608358 -0.2659711 0.0924615 0.07406842 0.2049478 0.33839443 -0.014364981
-0.28707406 -0.1599945 0.24220033 -0.056231875 -0.14220273 -0.10805568 -0.31148878 -0.3443056
-0.45545933 -0.28278923 0.22074185 0.25557438 -0.061814662 0.21617006 0.44859818 0.1790549
0.121714115 0.12073729 0.26893815 -0.11025776 0.05991314 -0.023725035 0.24764624 -0.13117462
0.05137771 0.046978876 0.23726304 -0.27551088 -0.111926146 -0.20835824 -0.033661544 -0.14991659
0.10690679 0.019006375 0.08165104 0.10100148 -0.09013491 0.17532392 0.259897 0.01729117
-0.1751932 -0.27714851 0.24083284 -0.033853486 0.07990914 -0.07139178 0.0007415605 -0.06035404
0.14756574 0.15858348 0.07097426 -0.096376814 0.14505392 -0.00039497347 -0.09207654 -0.19061618
0.025295429 -0.40630275 -0.15574242 -0.015345107 -0.21233179 -0.03254264 -0.12453497 0.2034647
0.06160536 0.081196934 -0.11481627 0.12323428 0.017990073 0.03343914 0.23427881 -0.14556192

linears.3.bias f4 [50]
00000000: 1854 653d f625 303d c64d 27bd 13de d6bc
00000010: ece4 0bbd fed7 a3bc 7f6f 3c3d 5c0e ac3c
00000020: 9d00 a7bd 2113 ccbc c57a c4bc b9e0 a53c
00000030: b4da d43c 1821 f63c 0aaf e2bc 98fe 29bd
00000040: 5ad0 f43c 8319 5fbd 3bc4 f5bc 8389 a53c
00000050: 001d 8e3c 47f9 d63d a966 773d 7840 a83c
00000060: 3e0e e3bc 1ab6 15bd 3cbd d1bc 8c63 f53d
00000070: c20c 8c3c 3f00 21bd f22d 0c3d b767 103b
00000080: 368d efbc f2a1 e23c cd81 edbc b123 1abd
00000090: ed3a 763c d88b 94bd fab0 0b3e ed40 d13c
000000a0: 57f2 a83c 0a5a e83c b94b 33bd fae6 513c
000000b0: 1010 e53c 833a 77bd f2b1 d23c d8da 3f3d
000000c0: f561 c43c cdac 28bd
0.0559884 0.043004952 -0.040845655 -0.02622894 -0.034153864 -0.020000454 0.04600477 0.02100294
-0.08154414 -0.024911465 -0.023984322 0.020248758 0.025983192 0.030045077 -0.027671356 -0.041502565
0.029884506 -0.05446769 -0.030000797 0.020207172 0.017347813 0.10496765 0.06040064 0.020538554
-0.027716752 -0.03655062 -0.02560293 0.11981878 0.017095927 -0.039306875 0.034223504 0.0022034475
-0.02924214 0.027665112 -0.028992558 -0.037631694 0.015028697 -0.072532356 0.1364173 0.025543654
0.02062337 0.028363246 -0.043773387 0.012811417 0.02796176 -0.060358535 0.025719617 0.046839565
0.02397249 -0.04118042

linears.4.weight f4 [3, 50]
00000000: fde2 063e 76cc 373f c85d bbbd d762 efbe
00000010: 5487 07be aa38 fdbd 2622 803e 3b4d 083d
00000020: fdd0 363e 5d2a c8be 8330 183d d265 b23c
00000030: dcb2 2b3e 96b1 093f 0391 89be b79c 58be
00000040: 1ee3 0d3f d247 59bd 5f34 033e 3ffe 103e
00000050: c90e aa3e 230a aa3d 9bff 4b3e 5d28 213e
00000060: 6fd7 cfbe 5b0a 1fbe 863e afbe dfcd d73d
00000070: bc25 903e bad6 e8be 234f e53e 5330 b73d
00000080: d43f f2be 07e8 0cbe cf4b 81be 9d39 81be
00000090: caaa 0d3d d37f 6ebe 4530 a3bd 58a0 6e3e
000000a0: 34b4 f43e 3805 cb3e 0794 18bf 67a2 b43d
000000b0: f2f8 a73e 49c3 5fbe e738 183f fa77 4d3f
000000c0: e74f 473e 3918 ecbe aa4c 08be 4f12 833d
000000d0: 85c7 d9bd 3870 113e 7356 07bd af59 86be
000000e0: bc37 2c3e 2602 693e 5a91 13be bef3 713d
000000f0: f7be 2a3e d166 803e e4b0 c0bd 52c3 d63d
00000100: ccf4 e5bc f8b9 70bd dfad a43d ec38 53be
00000110: 3304 723d ec80 533e 84ae 903d 421e 413e
00000120: f63d 94be 15b8 a83e 1a27 8e3d ec30 e83d
00000130: f92b 1abd 46d5 d9bd 90d5 28be ed19 edbd
00000140: e880 64bd 4c14 93be 4238 d739 4ca0 05be
00000150: 63e9 053f 7b67 14be 73b4 82be ae8d 103f
00000160: f0ab d23c 8da5 263d 3fdd 423e 4b1c 8b3e
00000170: ec15 9cbe 2e4f 393e 98e1 e33d 956e 713e
00000180: 15c3 183e 0c38 b73e 4773 8a3e edb1 b13e
00000190: 12c1 fcbe 1eee 6ebe 4f7d c63e 4f6e 93be
000001a0: 5440 db3d 6d83 ae3c 0ef9 2fbe b20f 943d
000001b0: 67f0 953e 4e9a a4bd 7481 aa3e 971e f93c
000001c0: f99b 1f3d b28f cc3e 4669 0fbe 72c8 333c
000001d0: 7b01 853e bc80 bbbc cbf2 2a3e 9c88 213e
000001e0: 3bfd 9bbe 424f 24bf c598 e8bd fbbe 283e
000001f0: c9ae e73d 56e8 583c a2fc 24be 0992 abbe
00000200: 5624 54be 6c6c d0bd e504 f33d 1ae4 983e
00000210: 414e 95be e8bb 0dbf 36d9 883d e343 a83e
00000220: b04d 613e 5600 133f 88f4 c1bd 53a6 a23e
00000230: 1841 cd3e 0fb8 853e 111a fdbd c1d1 7bbc
00000240: 4eef 713b a035 c13e f8e5 e63d 8ce9 aebe
00000250: c175 c0be 22d6 89be
0.13172527 0.7179636 -0.09148747 -0.46755096 -0.13235217 -0.123643234 0.25026053 0.033276778
0.1785316 -0.3909482 0.03715564 0.021777067 0.16767448 0.537866 -0.26868448 -0.21153532
0.5542468 -0.05304701 0.12812947 0.14159487 0.33214405 0.08302715 0.19921724 0.15738054
-0.4059405 -0.15531294 -0.3422739 0.10537314 0.2815379 -0.45476323 0.4478694 0.08944764
-0.47314322 -0.13760386 -0.2525315 -0.25239268 0.034586705 -0.23290949 -0.07968191 0.23303354
0.47793734 0.3965242 -0.5960087 0.08820038 0.32807118 -0.21851839 0.59461826 0.80261195
0.19464074 -0.4611223 -0.13310495 0.063999765 -0.106337585 0.14202964 -0.03304143 -0.26240298
0.16818136 0.22754726 -0.14410916 0.05907034 0.1667441 0.25078443 -0.09408739 0.10486473
-0.02807083 -0.058771104 0.08040976 -0.20627183 0.059086036 0.20654649 0.07064536 0.18859199
-0.28953522 0.32952943 0.06941052 0.11337456 -0.03763959 -0.10636382 -0.16487718 -0.115772106
-0.055786997 -0.28726423 0.0004104991 -0.1304943 0.52309245 -0.144926 -0.25528297 0.56466186
0.025716752 0.040685225 0.19029711 0.27170023 -0.30485475 0.18096611 0.11127013 0.2357734
0.14918168 0.35784948 0.27041075 0.3470606 -0.4936605 -0.23333022 0.38767478 -0.28795096
0.10705629 0.021302903 -0.1718485 0.07229556 0.29284975 -0.08037244 0.3330189 0.030410094
0.038967106 0.3995338 -0.14005002 0.010973083 0.25977692 -0.022888534 0.1669418 0.15774769
-0.30466637 -0.6418344 -0.113572635 0.16479103 0.113126345 0.013238987 -0.16111997 -0.33509853
-0.20716986 -0.1017693 0.11866168 0.29861528 -0.29161265 -0.5536485 0.06682055 0.32864293
0.22002292 0.5742239 -0.09470469 0.3176752 0.40088725 0.26116988 -0.123584874 -0.015369833
0.0036916318 0.37736225 0.11274332 -0.34162557 -0.3758984 -0.26921183

linears.4.bias f4 [3]
00000000: c813 c13c 9b16 bfbc ceb7 8dbd
0.023569003 -0.023326209 -0.069198236

exp_avg f4 [50, 2]
00000000: 5fdc 52bc a72a dabb 3a16 babc 6abe efbb
00000010: 2a04 ac3a adb5 1dba 87cc c63b 8b9a a13b
00000020: e016 82b9 3a9a 713a 6b2d 2cbc 450f 67bb
00000030: f370 b7bb 537e 94bb 0ce9 833c d097 cd3b
00000040: 8793 e6bb b387 9bbb 6f36 813c 4841 773b
00000050: ef1f 383c 407a 433b 809b db3b 57c1 e739
00000060: 871b 6a3a 5fd5 0d3b b22f 99bb df12 58bb
00000070: 91bb 853c 02fc a53b be09 9d3b 982c e53a
00000080: 8779 8fbc 6286 a8bb 9328 c6bb 99ff 253b
00000090: 7dc3 cdbc 9796 0fbc d21d 41bc 4c0e 83bb
000000a0: 1543 0e3b bf2f 3c3a 9716 84bb c0d2 c93a
000000b0: 9a25 e9ba a794 2a3b 0054 1f3c 9379 6f3b
000000c0: 824d cbbc f828 45bc facf 50ba 4911 cbba
000000d0: 13df f13a 5cbe a23a c20d 593b d794 e838
000000e0: 6388 67bc 19f9 13bc 7384 d53b f3e9 6b3b
000000f0: 2369 b93c bf86 183c 1dda 99bc 3b7f 2ebc
00000100: e013 82ba 1bc2 cdba d7de 533c 02c1 1c3b
00000110: 8077 923a 7d0a 2cbb 3088 063c ef3b 9a3a
00000120: a687 91bc 1256 21bc f2a6 6bbc ff9c 90bb
00000130: f057 6fbb 6c47 be3a 03de 723b 479b 1e3b
00000140: 528f 1a3c f927 3a3b 1336 5839 fdd6 edb9
00000150: a43c 3c3c a770 7c3b f5d7 ad3c 7aa5 393c
00000160: 3add 783c 78a7 f73b 8487 07bb 377f aa39
00000170: 75c9 ef3b 18e1 973b 1a11 2cbc d791 94bb
00000180: 78b5 0cbc 6652 a4bb 4745 95bc b8e4 b9bb
-0.012869923 -0.0066579166 -0.022715677 -0.0073164003 0.00131238 -0.00060161465 0.006066862 0.004931753
-0.00024812575 0.0009216402 -0.010508875 -0.0035256904 -0.0055981814 -0.0045316606 0.016102336 0.006274201
-0.0070366296 -0.004746401 0.015773026 0.003772812 0.011238082 0.0029827505 0.0067018867 0.00044203803
0.00089304935 0.0021642072 -0.004674875 -0.0032970232 0.01632479 0.005065442 0.004792421 0.0017484603
-0.017514003 -0.005142973 -0.0060473173 0.002532935 -0.02511763 -0.008763931 -0.011786895 -0.003999507
0.0021707464 0.00071787456 -0.004031013 0.0015397891 -0.0017787695 0.0026028545 0.009724617 0.003654097
-0.024817232 -0.0120336935 -0.0007965561 -0.0015492822 0.0018453322 0.0012416351 0.0033119773 0.00011090346
-0.014131638 -0.0090315575 0.0065160333 0.00359976 0.02263314 0.00930947 -0.018780762 -0.010650451
-0.0009924136 -0.0015698107 0.012931547 0.0023918753 0.001117453 -0.0026251369 0.008211181 0.0011767129
-0.017764878 -0.009847181 -0.014383065 -0.0044132466 -0.003652092 0.0014517135 0.0037058599 0.002420144
0.009433584 0.0028405173 0.0002061951 -0.0004536434 0.011489067 0.0038519294 0.02122114 0.011330957
0.015189463 0.0075578056 -0.002068014 0.0003251971 0.0073177167 0.0046349876 -0.010502124 -0.004533987
-0.008588187 -0.0050147055 -0.01822151 -0.0056730174

exp_avg_sq f4 [50, 2]
00000000: d4f1 8a37 55bd 9436 496d 5838 ad9d b336
00000010: 5aef 3834 bf73 1b33 9f01 7736 3539 2336
00000020: 5f8a d331 6569 b633 1a48 3937 dad6 a635
00000030: 1651 5236 7ed0 0936 1581 d937 cb16 8436
00000040: 5624 a636 5e2f 1736 e3b2 d037 080c bf35
00000050: 12e3 5337 5ad2 6e35 f0b5 9636 64d8 a732
00000060: 1145 ab33 8d75 fb34 aba9 1236 47e6 9135
00000070: 2d8e df37 5031 2c36 8621 1a36 a620 a434
00000080: fea7 0038 0b81 3136 de6a 7536 c438 2c35
00000090: f04e 8438 21dc 0037 5d16 6937 09b2 d635
000000a0: 2afb fc34 a856 5d33 6017 da35 3294 7e34
000000b0: f9dd a934 6edc 3535 baa8 1e37 9636 b335
000000c0: 9d29 8138 55f3 7237 1942 8833 23dd 8034
000000d0: 6bd1 b634 c488 2534 dd39 9335 490b a930
000000e0: f085 a737 a2d9 0837 be77 8e36 49ec ad35
000000f0: 67db 5638 dc66 1137 b4f0 1338 b84e 3e37
00000100: 9d80 d333 294d 8434 4647 8c37 e092 1935
00000110: 0a14 0634 f4fc 3835 563c e236 10ad 1434
00000120: 4f5e 0438 ffae 2237 8b89 ad37 cbb4 0236
00000130: 4104 b335 c149 6234 9953 b835 aa39 1d35
00000140: fe4d 1537 9396 5835 d615 9231 38c6 b032
00000150: 0075 5d37 c824 c735 8ce2 3c38 5567 5737
00000160: b38a c137 13aa bf36 439a e534 bbae 3532
00000170: 39ae b336 b42b 1036 2d0b 3937 b9f4 0936
00000180: c07c f736 afc2 2836 be42 0b38 31fa 5736
1.6563492e-05 4.432785e-06 5.1600193e-05 5.3529716e-06 1.7223411e-07 3.619402e-08 3.6806812e-06 2.4322192e-06
6.156639e-09 8.4942066e-08 1.1043647e-05 1.2430494e-06 3.1339637e-06 2.053595e-06 2.5928524e-05 3.93656e-06
4.9514156e-06 2.2528325e-06 2.4878833e-05 1.423411e-06 1.2629449e-05 8.896801e-07 4.4915287e-06 1.9539762e-08
7.975371e-08 4.6837923e-07 2.1854455e-06 1.0870361e-06 2.6649877e-05 2.56587e-06 2.2967301e-06 3.0571135e-07
3.0674033e-05 2.6450168e-06 3.657005e-06 6.41576e-07 6.308954e-05 7.680647e-06 1.3893089e-05 1.5996058e-06
4.7121404e-07 5.1534386e-08 1.6249069e-06 2.3709507e-07 3.164021e-07 6.774852e-07 9.456819e-06 1.3352426e-06
6.1589504e-05 1.4480979e-05 6.3450166e-08 2.4002756e-07 3.4052513e-07 1.5416578e-07 1.0969194e-06 1.2299576e-09
1.997032e-05 8.156903e-06 4.2458696e-06 1.2958272e-06 5.122591e-05 8.666622e-06 3.5271703e-05 1.1343211e-05
9.848848e-08 2.4643057e-07 1.672249e-05 5.721067e-07 1.2487013e-07 6.8913437e-07 6.742349e-06 1.3846534e-07
3.1559084e-05 9.696697e-06 2.0687256e-05 1.9476745e-06 1.3337777e-06 2.1074722e-07 1.3733398e-06 5.857097e-07
8.899251e-06 8.0685385e-07 4.2516417e-09 2.0579236e-08 1.3199868e-05 1.483736e-06 4.503368e-05 1.28390575e-05
2.307198e-05 5.712043e-06 4.2766814e-07 1.0575316e-08 5.354898e-06 2.148311e-06 1.1029461e-05 2.0557038e-06
7.3756964e-06 2.5147272e-06 3.320234e-05 3.2183127e-06

exp_avg f4 [50]
00000000: 9c73 35bb c389 a1ba ade1 e0b9 b237 383b
00000010: 9a96 3239 e8aa b8ba d136 24bb 1729 163b
00000020: 9de7 fdba ddbd 4fba a7ce e138 2873 98ba
00000030: 31b2 bb3a 0ac9 dbba 9a56 8db8 f3b4 1a3a
00000040: ea6a f73a aeec b43b 8d27 3dba 0030 0db7
00000050: 2096 6639 ada7 633b 3d16 6e3b 3364 e7b9
00000060: 2ac0 9ebb 73e3 a8ba e0d4 b839 4720 a639
00000070: f731 8dbb 937d 5f3a 159a 143b 68dc 8bbb
00000080: 4df9 84ba b06e 6eba e0c7 39bb 33e2 a7ba
00000090: c8e5 16bb a7e9 39ba 87b6 833b 9a5e 5c3a
000000a0: c7a4 973a 47e4 8db9 a7a5 fcb9 2554 9c3b
000000b0: 2dee aa3a 5bee ea3a 5af5 f13a f31e 87ba
000000c0: 052d 1abb 1a15 8d39
-0.0027687317 -0.0012324381 -0.0004289275 0.002810937 0.00017031506 -0.001408902 -0.0025057087 0.0022912675
-0.0019371394 -0.0007924715 0.00010767328 -0.0011630999 0.0014320073 -0.0016768288 -6.739535e-05 0.00059015973
0.0018876467 0.0055213785 -0.00072156714 -8.415431e-06 0.00021990435 0.0034737394 0.0036329173 -0.00044134408
-0.004844685 -0.0012885168 0.0003525382 0.00031686036 -0.004308935 0.0008525487 0.0022674848 -0.004268218
-0.0010145098 -0.0009095473 -0.0028347895 -0.0012808501 -0.0023025144 -0.0007092007 0.0040195617 0.0008406431
0.0011569493 -0.00027063696 -0.00048188606 0.004770773 0.0013040953 0.0017923819 0.0018459961 -0.0010308906
-0.002352537 0.00026909338

exp_avg_sq f4 [50]
00000000: 7fc7 4d35 5017 2334 5f09 9e32 c619 5435
00000010: 0b56 4731 6623 5534 0c8a 2835 15ed 0c35
00000020: 1876 c934 47dd 8633 2057 9f30 8641 1134
00000030: b32f 5c34 77f4 9634 d6b4 f92f ba96 1533
00000040: 634c bf34 e595 4c36 149f 5f33 842c f92c
00000050: 1528 a631 6ff5 a135 4924 b135 9751 a732
00000060: d382 1d36 4f45 3234 5384 5532 997c 2c32
00000070: 7133 f935 6a16 9c33 0804 0a35 7d83 f435
00000080: 8706 dd33 00a8 b133 31b7 5735 d827 3034
00000090: 2150 0e35 a705 5833 99da d835 30c2 9733
000000a0: 47b9 0f34 6aaa fb31 6f78 c732 dbbd 1836
000000b0: 839b 3634 177a ac34 18f3 b634 8238 e433
000000c0: 5090 1435 9acd f831
7.6658756e-07 1.5189039e-07 1.8397882e-08 7.901366e-07 2.900722e-09 1.9850049e-07 6.278576e-07 5.2499064e-07
3.7525092e-07 6.2801114e-08 1.1593535e-09 1.3528015e-07 2.050645e-07 2.811755e-07 4.5421328e-10 3.482885e-08
3.56321e-07 3.048562e-06 5.2065914e-08 7.081948e-12 4.8357927e-09 1.2066865e-06 1.3198088e-06 1.9478462e-08
2.3470973e-06 1.6602756e-07 1.2428319e-08 1.0040048e-08 1.8566917e-06 7.268393e-08 5.141487e-07 1.8217685e-06
1.0292302e-07 8.272764e-08 8.036032e-07 1.6405772e-07 5.3015725e-07 5.029656e-08 1.6156874e-06 7.066808e-08
1.3385316e-07 7.3244353e-09 2.3221416e-08 2.2760275e-06 1.7006646e-07 3.212633e-07 3.4077016e-07 1.0627356e-07
5.53443e-07 7.241124e-09

exp_avg f4 [50, 50]
00000000: cd57 3fb7 c719 4939 dafa 87ba 15f2 5939
00000010: 3094 dd39 0713 e9b9 ad57 743a 0f9c 60b9
00000020: 86fb 95ba c053 843a 7739 38ba 2e7a 473a
00000030: eb4e 613a b27b 283a 5afa 8939 6a1f fb39
00000040: e7df 6f39 d922 9e3a 6552 95b9 ef06 e139
00000050: cdd4 7fba 78c1 0339 fc0f 0b3a 78b0 60ba
00000060: 1a55 6ab7 5f64 a7ba 2743 653a 558d 223a
00000070: 964e 8339 6b4b d7b9 0b23 b7b9 e7d9 e536
00000080: 5b23 ab3a 038b 2e39 7f0a 8c3a f29e 4fba
00000090: 9d33 93b8 9f1f 0539 12a0 8cba ab2a 6eba
000000a0: ef7e 8139 d70c 01ba 4bf8 c839 5323 d837
000000b0: e040 b738 f73b 103a 900c 13ba f27b fc39
000000c0: 53e4 eb39 df4c 023a 3f78 c739 db44 8b3a
000000d0: b78e 41bb 9aa8 5e39 0d85 de3a 6db7 80b9
000000e0: 4e86 c63a 43d8 91ba cfd5 cfba 94c2 a73a
000000f0: 228c aeba 30fc 8e3a b94e 2b3b dd82 dc3a
00000100: 2348 0c3b 22b0 0b3b b438 3b3a 0a1a 423b
00000110: 50c5 12bb 3064 ce3a 7b70 faba 1206 e2ba
00000120: 5b3b 903a 6ab0 dfba 5873 433a 4bd8 29bb
00000130: 34ba 203b e04d 4fb9 182a a33a 7d9e 31ba
00000140: 8d86 81ba e82c 793a 7f22 333b baf8 9bb9
00000150: 8d60 e53a 8ab2 0cbb 2a34 afba 1831 703a
00000160: b3ee d0ba 7ae1 d6ba a707 d83a 4712 d9ba
00000170: b383 093b 882d 49ba e32c 43b9 5a1c 5c3a
00000180: bf41 c4ba 12cf e33a 5dc0 923a 8507 af3a
00000190: 8070 3539 3143 323b 7b57 2ebc ffb9 ea3a
000001a0: d537 a93b c464 3ebb 9a46 fb3b 7e3a 3ebb
000001b0: bf56 1abc 0bb7 003c 4738 b6bb 00ad c33b
000001c0: d851 143c afcd cd3b 7e2f 943b 68d3 c43b
000001d0: ba30 0d3b 39aa 3b3c 8050 a0bb 32a9 9f3b
000001e0: 04f6 08bc 0cf0 31bb 7a82 943b 2a04 f7bb
000001f0: fa95 823a 0e68 35bc 0219 113c 350b 453b
00000200: 006b 523b adda 67bb 97ee 61bb 92e3 c93a
00000210: 6f36 3c3c da1e 0e3a e82a 153c e75f febb
00000220: 080b 09bb 18ff f13a 9b7b 12bc 1d4a efbb
00000230: 7f12 713b 6fd8 aebb b060 ac3b 1d2f 67ba
00000240: eaca 0e3a c365 893b 0e51 b4bb 5bc0 ae3b
00000250: 287e 8c3b 99d5 9f3b a034 05b8 7a9b acb8
00000260: e322 833a f7e8 24b9 f0fd 86b9 735a 203a
00000270: bbc8 86ba ed7d f138 d66e a23a 38b6 9eba
00000280: 1d30 6c3a 3003 6bba 672c 54ba 9d59 1cba
00000290: 93d2 1bb9 931f d0b9 e276 93b9 f8de a2ba
000002a0: bd2d 1939 0d51 b4b9 20a3 8b3a f5f7 4dba
000002b0: a20b 20ba 7876 643a 5d7a 1a39 ab60 b53a
000002c0: 4001 54ba 2cd8 8bba e372 43b9 8729 d239
000002d0: 18eb b039 f00f 4a39 8a36 b7ba 26d4 98b9
000002e0: 9e82 81ba 3077 513a 6dde 3ab8 3a83 ebb8
000002f0: 2a63 903a bbf9 8e3a f5eb 39b9 03a6 e139
00000300: ed68 a9b9 63be 18b9 2d7a 42b8 5db7 36ba
00000310: 2589 093a c0c9 e7b9 f068 e1b9 274d f4b9
00000320: 7412 28b8 f2bd 88b8 40e9 c737 eac0 0638
00000330: 6ca8 95b8 5a73 deb8 7786 d238 ab8c 8538
00000340: ef01 2ab9 8028 1f39 92bc a6b8 932a d438
00000350: 6df9 1eb8 9a81 d2b5 c644 42b9 58f8 ceb8
00000360: ada6 dfb6 9add e837 b56f 4939 a08c 57b8
00000370: 2b31 9ab8 3f2d 8639 733d 1d38 3736 6cb8
00000380: 5368 bfb8 c046 b6b8 c70d a0b7 edb9 6139
00000390: 638f 89b8 0aeb 2db8 b32e f436 5d97 e8b8
000003a0: 679e a538 e116 b238 ad32 ec38 00ed 1c36
000003b0: dfd7 1239 4fcb 82b8 f244 0eb9 dd36 ccb8
000003c0: 204c f2b8 9028 2a38 8b84 03b9 3fde cb38
000003d0: d901 2d38 631a 9a38 80a4 8236 4bf0 51b8
000003e0: 7381 c036 e7bb 8db6 67e1 1d37 3007 e8b9
000003f0: cfca 003b 7027 b0b9 b07f 67ba 4c87 0e3a
-1.140493e-05 0.00019178457 -0.0010374442 0.00020784915 0.00042262813 -0.000444554 0.0009320926 -0.00021420441
-0.0011442758 0.001009576 -0.0007027606 0.0007609454 0.00085948285 0.00064271234 0.00026317203 0.00047897856
0.00022876226 0.0012064829 -0.00028480883 0.0004292051 -0.0009759188 0.00012565206 0.0005304811 -0.0008571218
-1.3967301e-05 -0.0012771002 0.0008745663 0.00062008697 0.00025044818 -0.00041064186 -0.0003493059 6.850099e-06
0.0013056801 0.00016645719 0.001068428 -0.0007920108 -7.01912e-05 0.00012695648 -0.0010728857 -0.00090853375
0.0002469937 -0.0004922873 0.00038331965 2.5765656e-05 8.738204e-05 0.00055020995 -0.0005609477 0.00048157532
0.00044992808 0.0004970561 0.00038045828 0.0010625379 -0.0029534528 0.00021234379 0.0016976908 -0.00024550725
0.0015146227 -0.0011127073 -0.0015856567 0.0012799078 -0.0013316909 0.0010908898 0.0026139452 0.0016823668
0.0021405302 0.00213147 0.00071419333 0.0029617571 -0.002239544 0.0015746411 -0.0019107008 -0.0017244241
0.0011004017 -0.0017066125 0.0007455847 -0.0025916274 0.0024525048 -0.00019770069 0.0012448458 -0.0006775631
-0.0009882018 0.0009505288 0.0027333794 -0.0002974922 0.0017500088 -0.0021468722 -0.0013366987 0.0009162589
-0.0015940279 -0.0016394102 0.0016481773 -0.0016561233 0.002098304 -0.0007674326 -0.00018613371 0.00083965587
-0.0014973207 0.0017380437 0.0011196245 0.0013353681 0.00017303415 0.0027200694 -0.010640974 0.0017908214
0.0051641264 -0.002905176 0.0076683285 -0.0029026563 -0.009420096 0.007856141 -0.005560908 0.005971551
0.009052716 0.006280623 0.004522263 0.006006647 0.0021543936 0.011454158 -0.004892409 0.0048724646
-0.008359436 -0.0027151136 0.0045321556 -0.007538338 0.0009962909 -0.011072172 0.00885606 0.0030066494
0.0032107234 -0.0035378144 -0.0034474486 0.0015402904 0.011487587 0.00054214674 0.009104468 -0.0077628973
-0.0020911116 0.0018462865 -0.008940603 -0.007302536 0.0036784706 -0.0053358595 0.0052605495 -0.0008818971
0.00054471067 0.004193039 -0.0055028265 0.005332989 0.0042875 0.0048777577 -3.1758682e-05 -8.230559e-05
0.0010004904 -0.00015727045 -0.0002574767 0.00061169936 -0.0010283211 0.00011515231 0.0012392651 -0.0012108749
0.0009009855 -0.00089650135 -0.00080937747 -0.0005964281 -0.00014860397 -0.00039696376 -0.000281266 -0.0012426069
0.00014608256 -0.00034392663 0.0010653473 -0.0007857078 -0.0006105249 0.0008715163 0.00014732168 0.0013838013
-0.00080873445 -0.0010669283 -0.00018639448 0.00040085262 0.00033744494 0.00019270158 -0.0013978046 -0.00029149762
-0.0009880846 0.00079904776 -4.4553006e-05 -0.00011230116 0.0011015881 0.0010908166 -0.00017730876 0.00043039033
-0.00032312368 -0.00014566774 -4.636699e-05 -0.0006970072 0.00052465714 -0.0004421007 -0.0004299353 -0.0004659679
-4.0071507e-05 -6.5203654e-05 2.3831264e-05 3.2127755e-05 -7.136245e-05 -0.00010607271 0.00010038626 6.368136e-05
-0.00016213184 0.00015178509 -7.950621e-05 0.00010116878 -3.790243e-05 -1.5683938e-06 -0.00018526902 -9.869103e-05
-6.6653215e-06 2.7759746e-05 0.00019210468 -5.139096e-05 -7.3524505e-05 0.00025592183 3.7488946e-05 -5.6317276e-05
-9.1270216e-05 -8.6916145e-05 -1.9079902e-05 0.00021526935 -6.559377e-05 -4.146531e-05 7.277203e-06 -0.00011090816
7.897318e-05 8.491963e-05 0.00011262796 2.3383764e-06 0.00014004063 -6.236752e-05 -0.0001356786 -9.737697e-05
-0.000115536386 4.0568935e-05 -0.0001254251 9.721191e-05 4.1248135e-05 7.348207e-05 3.8934522e-06 -5.0053273e-05
5.7371158e-06 -4.224002e-06 9.41041e-06 -0.00044255843 0.0019652133 -0.0003359872 -0.00088309776 0.0005437031
