models/onlyadam_10e/ckpt/ckpt-110.pt (torch, 106775 bytes, 30 tensors)

linears.0.weight f4 [50, 2]
000000 d5 a0 df bc a6 16 57 3e 18 13 b1 3e bb 4a 92 be
       -0.02729837 0.21004733 0.3458488 -0.2857264
000010 28 84 4e bd d6 df b5 be aa 77 83 be 61 62 d3 bd
       -0.050419003 -0.35522336 -0.25677234 -0.10321499
000020 0a de 09 3e cd 73 30 be 9b 21 7f 3e 2e e1 87 be
       0.13463607 -0.17231674 0.24915163 -0.26538986
000030 d6 22 f0 bd 57 dd 58 be 6b 74 5f 3d f1 b9 40 3c
       -0.117253944 -0.21178184 0.054554384 0.011763082
000040 96 58 9e bb a9 89 5b 3e 00 70 37 3e f4 26 81 3e
       -0.0048323376 0.21439232 0.17913818 0.2522503
000050 f2 41 fc bd df 51 72 be fe ac 34 be 05 66 e5 bd
       -0.123172656 -0.23664044 -0.17644116 -0.11201099
000060 7f f3 36 3e ee 76 8b bd f3 77 b6 bd ce b5 6d 3e
       0.17866324 -0.068097934 -0.08909597 0.23213884
000070 78 8b a3 bd e2 e6 38 be fa 18 6b ba 19 00 6a 3e
       -0.07985586 -0.18056825 -0.00089682604 0.228516
000080 96 d1 ff bd aa d8 0b 3e 0e 57 d5 3c f8 b9 99 bd
       -0.12491147 0.1365687 0.026042487 -0.07506174
000090 1d 81 48 3e cb 33 3d be d7 42 bf bc fd 36 a9 3e
       0.19580503 -0.18476789 -0.023347301 0.33049765
0000a0 fe bc 7c bd cb bc 18 be ea eb a4 be 3e bc bc bd
       -0.061703674 -0.14915769 -0.32211238 -0.09215592
0000b0 97 6e 14 3e 0d 2d 6c 3d b6 28 67 be 8b cd 49 be
       0.14495312 0.05766015 -0.22574124 -0.19707315
0000c0 b7 50 9e be 0d 67 8a 3e 13 96 10 be a0 12 a1 be
       -0.30920956 0.27031747 -0.14119749 -0.31459522
0000d0 1d fe 6a be 1e e1 23 bd 15 f5 d2 3d a0 e4 05 3e
       -0.22948499 -0.04000961 0.10300652 0.13075495
0000e0 94 24 8d 3b 14 d8 99 3e 72 76 68 3d 00 09 1b 3d
       0.004307339 0.30047667 0.056753583 0.03785038
0000f0 e3 16 3a be ff 21 0b 3e af df 8a bd 6b 18 8d bb
       -0.18172793 0.13587187 -0.067809455 -0.0043058894
000100 0a e6 7d 3e 45 51 ed be 1a b3 ac 3d 99 ec 02 3e
       0.24794784 -0.46351066 0.084325984 0.12785567
000110 dd 7f 8b be a6 38 f9 bd c3 5c 2e be 57 c2 02 3d
       -0.2724599 -0.12169008 -0.17027573 0.03192362
000120 ad 61 0c bc 8b 7c 8a be 7f 1f 89 3d 70 75 9c be
       -0.00856821 -0.27048144 0.066954605 -0.30558348
000130 15 ce 11 bd 2a 39 cc 3d da 07 22 3c b1 6f 8e 3c
       -0.035596926 0.09971841 0.009889567 0.017387243
000140 f1 b5 94 3b 88 7f 0e be 7e 52 da bd 8b f1 96 be
       0.0045382907 -0.13915837 -0.106602654 -0.29481158
000150 2b 8c 6f bd cf b3 e4 3e 86 2e 72 be 6b 8f 0d bd
       -0.058483284 0.44668433 -0.2365056 -0.034560602
000160 67 68 29 bd 73 ae 3c be dd 2f 73 3e 2f 7b 8c be
       -0.04135933 -0.18425922 0.23748727 -0.27437732
000170 50 3a c5 3c dd 1e 47 3e 15 6a f1 3d 49 76 54 be
       0.024075657 0.19445367 0.11787812 -0.20748247
000180 9f 54 a7 3d 2f 86 b9 be 10 14 ed bd 4d 93 43 3e
       0.08170437 -0.36235186 -0.11576092 0.1909916

linears.0.bias f4 [50]
000000 03 14 c8 3c 4f d9 1a bd e3 16 2e bd c6 3b d7 bc
       0.024423605 -0.037804898 -0.042502295 -0.02627362
000010 6b 11 49 bd d1 cf de bc 19 df 09 bd 62 d4 97 bc
       -0.049088877 -0.027198704 -0.033660028 -0.01853389
000020 28 5e 8d bc 49 46 45 bc f7 99 59 3c 6d df 0b bd
       -0.017256811 -0.012040683 0.013281337 -0.034148622
000030 44 27 c1 3c a1 11 c9 3c 25 69 ec bc 96 15 81 bc
       0.023578294 0.024544539 -0.02885873 -0.015757363
000040 a7 3d c8 3c 0b c5 11 bd 88 36 a4 3c 7a 43 1e 3d
       0.02444346 -0.035588305 0.020045534 0.03863857
000050 7d 73 4f bc 34 ac ba 3c 6b 34 95 bc 91 34 b8 bb
       -0.012661812 0.022787191 -0.018213471 -0.005621501
000060 f9 cf 8f bc 7e 11 04 bd 87 18 8e 3b 19 39 bc bc
       -0.017555224 -0.032243244 0.00433642 -0.022976445
000070 c1 a8 a4 3d a9 e6 ac bc 89 42 ae bc 48 26 f3 bc
       0.0804 -0.021106081 -0.02127196 -0.02968134
000080 db 93 99 bd 16 bd d3 3c 60 d4 b5 bc 28 bb c0 3c
       -0.07498904 0.025847 -0.022195995 0.023526743
000090 2e 21 43 bd 60 2a 13 bd 45 57 55 bc e4 9c b9 3c
       -0.047639064 -0.035929084 -0.013021295 0.02265782
0000a0 03 0c 21 bd 0b 69 15 bd ee b9 32 3d f8 43 b9 3c
       -0.039318096 -0.03647713 0.043634348 0.022615418
0000b0 6d 86 d9 bc e3 fc ed 3b ad 4e b8 3c 9a c1 75 bc
       -0.026553357 0.0072628125 0.022498453 -0.0149997715
0000c0 0a 87 bf bc 2a 52 01 bc
       -0.023379821 -0.007893125

linears.1.weight f4 [50, 50]
000000 88 d8 6d be d3 70 5d 3e 5b 87 c4 3d 8c a2 cb 3d
       -0.23227131 0.2162507 0.095961295 0.09943113
000010 20 1a 74 bc a1 f6 43 3d 74 f0 58 3d ff b4 03 3e
       -0.014898807 0.047842626 0.05296369 0.12862013
000020 9b 03 a8 bd 1f c8 8e bd 61 64 38 3e cc d9 34 3d
       -0.08203813 -0.06971764 0.18007042 0.04415302
000030 04 69 35 bd be 2b 61 3e c6 dd 88 bd 90 cd 4b 3e
       -0.044289604 0.21989343 -0.06682925 0.19902635
000040 71 5c a1 3c 1b 9d 00 3e a9 8d a1 bd 4b 85 af 3d
       0.0196974 0.12559931 -0.07888348 0.085703455
000050 9b fb 1c be 84 89 88 3d b1 67 be bd 76 62 31 3d
       -0.15330355 0.06666854 -0.09297121 0.04330679
000060 1e 5e 52 be e7 6b 1a bc 6a 04 19 be d7 eb 4f 3e
       -0.20543715 -0.00942514 -0.1494309 0.2030481
000070 de c8 db bd e1 88 26 bd d5 c6 02 3e 58 ca 32 3c
       -0.10731672 -0.04065788 0.12771161 0.0109125
000080 71 2f b5 3d 97 4b 50 be ce 11 8a 3e 26 80 42 bd
       0.08846939 -0.20341335 0.2696671 -0.047485493
000090 f7 f4 7a 3c e7 9c a9 3c 36 de ba 3d 0d f4 44 be
       0.015317193 0.0207047 0.091244146 -0.19233723
0000a0 9d 7a 7c bd fc a1 b7 bd 6d 98 c6 bc 95 49 98 bd
       -0.06164037 -0.08966443 -0.024242604 -0.0743591
0000b0 29 21 97 3e d2 40 10 3e 45 1a bb 3e d4 91 03 3e
       0.29517487 0.14087227 0.3654348 0.12848598
0000c0 f4 58 56 3d de c6 c8 3c 97 33 12 3d 77 26 87 be
       0.052330926 0.02450889 0.03569373 -0.26396534
0000d0 5a a9 9e bd b5 94 b7 be 3d 33 c3 3d 1b 62 8d 3d
       -0.07747145 -0.35855642 0.09531257 0.06903478
0000e0 9f a6 a2 3d 38 0c f0 3c f2 c1 c9 3d bc 21 05 be
       0.07941937 0.029302701 0.09851445 -0.1300115
0000f0 d8 e6 e8 3d ab d9 e1 3c a8 1c 1a be e3 f2 2c 3e
       0.11372155 0.027569612 -0.15049994 0.16889529
000100 64 a6 33 3e 24 6b 58 3d 79 8e e9 bc 16 67 8d bd
       0.17543942 0.052836552 -0.02851032 -0.06904428
000110 71 79 98 3a 68 09 ab be 2a 39 53 bd ed 22 73 bd
       0.0011632872 -0.33405614 -0.051568188 -0.05935948
000120 76 63 00 bc 11 a2 be bc 1a fb d3 bd 41 fa 4a 3c
       -0.007836213 -0.023270639 -0.10350628 0.012388767
000130 4b 9c ee 3c e3 07 6b 3e 27 09 73 3d 11 31 bc 3d
       0.02912726 0.22952227 0.0593349 0.09189046
000140 98 10 0e 3e 61 3e 3c 3e 44 0c 0d 3e 7b 5d 1c bc
       0.13873518 0.1838317 0.1377421 -0.009543772
000150 54 24 83 3d 7a e1 bd 3d 08 70 9c bd c3 7e 70 3e
       0.064034134 0.09271522 -0.07638556 0.23485856
000160 fd fa ff 3b 4c 2f e2 bd 1d 53 3d 3e 12 8b 45 be
       0.0078119026 -0.110441774 0.18488736 -0.19291332
000170 8a cc 3c be 07 34 0a 3e 84 43 62 be d3 ee 41 bd
       -0.184374 0.1349641 -0.22096068 -0.0473469
000180 11 c4 41 be 48 c5 7a bc 36 d4 b0 bd 98 0a 4c bd
       -0.1892245 -0.015305825 -0.08634226 -0.04981479
000190 44 3e 7b be a8 63 7a bc 52 49 65 bd bb 5a 59 3d
       -0.24535471 -0.015282549 -0.055978127 0.053065043
0001a0 5b ac f1 3b 29 93 11 3d 69 b1 8b 3c b2 8e 4f 3e
       0.0073752827 0.035540733 0.01705237 0.20269278
0001b0 79 24 91 3d 22 f3 7f 3e 52 77 29 bd 95 7a 94 3e
       0.07087035 0.24995092 -0.04137356 0.28999773
0001c0 9f fe 4a be 0e 5d 1b be 87 ab 7e bd 1f f0 10 be
       -0.19823693 -0.15172216 -0.0621753 -0.14154099
0001d0 ce a9 59 be 21 99 31 3e 45 5d c2 bc 1c 40 0b be
       -0.21256182 0.1734357 -0.023726115 -0.13598675
0001e0 cc 90 09 3b 37 a2 da 3d cb fa 66 3d 88 15 92 bd
       0.0020990847 0.10675471 0.05639152 -0.07133013
0001f0 44 dd 5a 3c 31 d1 ff 3d 93 88 fe bc b0 6e 13 bd
       0.013358418 0.12491072 -0.031070983 -0.03599423
000200 49 45 cd 3d cb 6b d1 bd 3f fc 65 3e c7 9d 5a be
       0.10022981 -0.10225638 0.22459505 -0.2134925
000210 4e d9 7e be 2e 16 56 3d fb f1 44 bd 59 ec f5 bb
       -0.24887583 0.052267246 -0.048082333 -0.0075049815
000220 82 2b 8d bb 58 90 c8 3c 3d e9 60 be 12 4c 54 bd
       -0.004308165 0.024482891 -0.21963973 -0.05183036
000230 56 5d 70 3e 58 b5 74 3d bf bd 8b bd 50 eb f1 3c
       0.23473105 0.059743255 -0.068233006 0.029531151
000240 99 51 25 be 63 9c 42 be eb 55 70 3d 3c 37 fe 3d
       -0.16144408 -0.1900497 0.058675688 0.12412879
000250 3f 2c 34 3e 4b a0 ac 3d 15 a0 c1 3b 0f d8 d3 be
       0.17595004 0.08429011 0.005908976 -0.41375777
000260 47 42 91 bd f6 b3 7e bb 5e d9 01 be 6c df 03 be
       -0.070927195 -0.003886459 -0.12680575 -0.12878197
000270 bb 48 cd bd 4f 5b 68 be dc b6 b1 bc a3 21 25 bc
       -0.10023638 -0.22691081 -0.02169364 -0.01007882
000280 bb 07 d4 bd d4 ad 14 be 81 34 1b be f4 84 d9 bd
       -0.10353037 -0.14519435 -0.15156747 -0.10621062
000290 a0 76 7f be d9 cd 30 bd b2 aa 3c be 5f 72 d2 bc
       -0.24947596 -0.04316506 -0.1842449 -0.025689302
0002a0 01 48 31 3e aa 88 a6 3d d9 6d 2e be 81 80 86 bd
       0.17312624 0.08131535 -0.17034091 -0.06567479
0002b0 fd aa 4c bd f3 c9 c5 3d d4 00 05 3e 35 d5 1e be
       -0.049967755 0.096576594 0.12988597 -0.1551102
0002c0 55 70 f9 bc a0 fc 5c bd 55 2e 69 be bb 25 4d 3e
       -0.030449072 -0.05395186 -0.2277158 0.20033924
0002d0 d7 5c 39 be a2 5f e0 3c 0c be 7f 3e 64 f5 4a 3e
       -0.18101822 0.027389351 0.24974841 0.19820172
0002e0 b9 f4 1b 3e 63 d7 33 3b 25 a5 50 3d 0c a0 01 3c
       0.15230073 0.0027441613 0.050938744 0.007911693
0002f0 32 da b3 3d 26 6e 45 3d 7e bd 44 be 93 ba ab be
       0.08781852 0.04820075 -0.1921291 -0.33540782
000300 2f af 15 3d 7c 92 61 3e 6a e0 a4 be a1 14 0a 3e
       0.03654402 0.22028536 -0.32202464 0.13484432
000310 8e 5b 6b 3b 8f 47 ef bd a6 23 62 3e 55 46 16 3e
       0.0035912725 -0.116835706 0.22083911 0.14675267
000320 72 31 17 3b d2 df 84 bd 8b 59 c5 bd 92 d6 10 3d
       0.0023070243 -0.06488003 -0.096362196 0.03536088
000330 ce 48 bd be 5c 26 0a be 2b 35 51 3c c5 54 ba 3d
       -0.36969608 -0.13491195 0.012769024 0.090982
000340 43 da cb 3d 93 f2 65 bd 24 34 a6 bc 99 06 13 3d
       0.099537395 -0.05613954 -0.020288534 0.035894964
000350 b1 ab 4e 3e 49 ac 17 3e 86 d3 de bd 67 19 01 3e
       0.20182683 0.14811815 -0.10880189 0.12607346
000360 ac b2 e1 3d dc 49 1d be d0 01 a0 3d 67 b6 f2 bd
       0.11020407 -0.15360206 0.07812846 -0.11851197
000370 a6 5c 6a 3c 32 7d 06 be 9a 7d f7 bd 5e a8 e9 bc
       0.014304316 -0.13133696 -0.120845035 -0.028522667
000380 96 49 27 3e 94 2f 9e 3e 02 75 b2 bd 2f 73 84 be
       0.16336665 0.30895674 -0.08713724 -0.25869128
000390 cb f7 da 3c 75 95 58 be 77 a9 8c bd 73 5f 99 bd
       0.026729485 -0.21150763 -0.0686826 -0.074889086
0003a0 7d 7c 0d be be af d0 be a7 be e1 bd 02 cd 0b 3e
       -0.1381702 -0.4075908 -0.11022692 0.13652423
0003b0 bf 82 4c 3a 0e 8f c6 3d d2 ca b6 3b 31 b6 1e 3d
       0.0007801465 0.09695254 0.0055783773 0.03874797
0003c0 95 d6 4b be 6a ba 22 be b7 e2 05 3e 73 d6 90 3d
       -0.19906075 -0.15891424 0.13074766 0.07072153
0003d0 80 7d 16 be b7 00 59 bd 21 4d 4e bd a3 b7 4a bd
       -0.14696312 -0.052979197 -0.050366525 -0.049491536
0003e0 6d 0f 37 3c 53 75 f8 bd d1 e7 2f 3e 97 19 b3 3d
       0.011173111 -0.12131753 0.17178275 0.08745115
0003f0 3a 04 cd bd 04 0f bd 3d 16 f4 0c be 48 aa 1c 3d
       -0.10010572 0.0923138 -0.13764986 0.03824833

linears.1.bias f4 [50]
000000 19 2d f1 bc e2 a0 e5 bc 8d 8b ec bc 1a 40 6e bc
       -0.02944045 -0.028030816 -0.028875137 -0.01454165
000010 ce fd f5 3c fa da b3 3c 0f 68 bc bc 25 d3 d0 bc
       0.03002825 0.021955002 -0.022998838 -0.025491307
000020 2a 5e d3 3c 71 c3 bf 3c f6 ed d7 bc 52 98 38 bd
       0.025801737 0.023408623 -0.026358586 -0.04506714
000030 e1 da ca 3c d7 00 dd 3c 05 f9 dd bc 3b 09 cd 3c
       0.024762573 0.02697794 -0.02709628 0.025028815
000040 1d ae c5 bc d2 0d 67 bc a7 44 8b bb a2 25 d9 3c
       -0.024130875 -0.014102416 -0.0042501274 0.026507203
000050 81 a4 e7 bc c5 0d f8 bc ef 5b de 3c 1f 43 b5 bc
       -0.028276684 -0.030280003 0.027143447 -0.022126732
000060 4f ed 81 bc 59 56 d5 3c 1a dc d9 bb a2 81 d2 3c
       -0.015860228 0.02604215 -0.0066485526 0.02569658
000070 72 32 b7 bc ad 81 9b 3c f0 48 e7 3c 4d a5 ea 3b
       -0.022362921 0.018982733 0.028233021 0.0071608187
000080 b7 8c e9 bc 9f 44 db 3c 0b de c9 3c a5 71 00 bd
       -0.02850948 0.02676612 0.024642011 -0.03135838
000090 79 c8 7d bc 27 51 dd 3c 28 78 00 bd 0e f5 e8 3c
       -0.015489691 0.027016236 -0.03136459 0.028437164
0000a0 bd 41 e1 bc 0f d4 0a bd 00 3a b8 3c 72 c3 c5 3c
       -0.027497167 -0.03389364 0.022488594 0.024141047
0000b0 58 66 d0 bc 84 c8 cd bc 5c 66 ca 3c 86 39 f8 3c
       -0.025439426 -0.025120027 0.024707012 0.030300867
0000c0 e8 67 91 3c 3f 8e ca 3c
       0.017749742 0.024726031

linears.2.weight f4 [50, 50]
000000 4d b6 72 3e 11 64 9a be 88 e8 18 be 69 60 f0 bd
       0.23702355 -0.3015447 -0.14932454 -0.11737139
000010 d1 6b 16 be 03 0b 93 3e e2 46 b4 3d d3 ee 14 be
       -0.14689566 0.2871934 0.08802582 -0.14544229
000020 07 aa 13 be 7d 23 e0 3c c5 d7 18 3d 40 95 30 3e
       -0.14420329 0.027360672 0.03731515 0.17244434
000030 fb 16 5f 3e d2 b5 79 3c 65 9b d9 bd 8d d2 ca bb
       0.2178611 0.015241103 -0.10625342 -0.0061896504
000040 51 1b 36 be 89 cf 5f be 98 b0 8b be 63 94 87 bd
       -0.17783858 -0.21856512 -0.27283168 -0.066200994
000050 a4 0c f2 3d d6 2a 95 3e d7 21 4b 3e f6 3b b1 3d
       0.11818817 0.29134244 0.19837128 0.08654015
000060 e0 83 8a b8 db 1b ae 3d 61 ba ca 3d 6b fe 08 3c
       -6.6049164e-05 0.08501407 0.0989883 0.008361439
000070 6e ac ae bc 3b 61 62 3d ff 13 fb 3d c1 7c e6 bd
       -0.021322455 0.055268507 0.12259673 -0.11254264
000080 94 e8 44 be d1 3f 25 3d ba 93 0d bd 36 3d 4f 3d
       -0.19229347 0.040344063 -0.03456471 0.050595485
000090 f9 64 aa 3e 2c 06 c8 bd 87 a6 fe bc db 4b c9 bd
       0.3328016 -0.09766802 -0.031085266 -0.098289214
0000a0 44 ca 92 3d 86 77 3c be cc bd ea 3d 13 0b f5 3d
       0.07167485 -0.1840497 0.11461982 0.11965003
0000b0 c6 8a d6 3c b8 f6 e4 bd ba e7 1f be 63 25 cc bc
       0.02618922 -0.1117987 -0.1561574 -0.024920171
0000c0 1c ad 62 bd c8 67 d4 3c 40 63 6a bd 13 63 99 be
       -0.05534087 0.025928393 -0.05722356 -0.299584
0000d0 ac 55 01 be b7 c6 b6 3c 97 0d 28 3e 13 0a 09 3e
       -0.12630337 0.022311551 0.16411434 0.1338275
0000e0 e3 87 c6 bd 66 40 10 3d 63 8c 0f 3d 54 55 51 be
       -0.09693887 0.035217665 0.035045993 -0.20442706
0000f0 61 9e 9c be a3 6a 04 be b6 6f 36 bd d4 08 47 3e
       -0.30589584 -0.12931304 -0.04454013 0.19436961
000100 15 0f af be 00 a4 82 bd 06 17 42 3d fa 7a 17 3b
       -0.34191194 -0.06378937 0.047385238 0.0023114071
000110 b3 5e 35 3e 69 79 0f 3e 04 da 1c be 48 73 07 bd
       0.17711906 0.14011158 -0.15317541 -0.033068925
000120 7a f6 8a be a1 73 00 be d3 1b 93 bd 72 39 02 3e
       -0.27141172 -0.12544109 -0.071830414 0.12717226
000130 f0 f7 09 3e ce 85 07 3e 5b 46 ce 3d 18 94 09 3d
       0.13473487 0.13234636 0.10072013 0.0335885
000140 31 b6 d8 3d 6d c0 b7 3d 7a 5c 95 3d 07 ef 2d 3e
       0.10581625 0.08972249 0.07293029 0.16985713
000150 18 b3 8c 3d 60 b8 6e bd 2f f7 a8 bd 7b 37 b0 3d
       0.06870097 -0.058281302 -0.082502715 0.08604332
000160 e4 bb 3f bd 66 83 bb 3d bf 9e 1b bc be 94 13 be
       -0.046810046 0.09155922 -0.009498297 -0.1441221
000170 3f a4 13 3e ce c8 9c 3e 31 f6 68 3c b9 6b c5 3c
       0.14418124 0.30621952 0.014218853 0.024099218
000180 b6 80 7e 3d 0f a6 91 3d c6 fc 3a 3e 6c e3 41 3e
       0.062134467 0.07111751 0.18260488 0.18934411
000190 dc 9d 55 3c 28 13 1f be aa 6c 93 3d 88 18 f6 bd
       0.013038125 -0.15534651 0.071984604 -0.12016398
0001a0 bf d4 f1 3d c9 91 e2 3e cf 26 45 bc 89 bf 63 be
       0.11808156 0.4425185 -0.0120331785 -0.22241034
0001b0 88 f5 20 3e 1b 44 9e 3e ec 2a c5 bc cf ea 28 3e
       0.15718663 0.30911335 -0.024068318 0.16495822
0001c0 43 ac 9f bb e4 1a 78 be 85 8c 4c 3e ac d9 f5 bb
       -0.00487283 -0.24229008 0.19975479 -0.007502755
0001d0 a1 87 44 bd 5d 0c a5 3d 33 5f 45 3e 78 37 7b be
       -0.04798091 0.08058999 0.19274597 -0.24532878
0001e0 87 70 c5 bd 4e 4e 28 bb c8 20 da bd 5e 74 5d 3e
       -0.096406035 -0.002568144 -0.10650784 0.21626422
0001f0 68 6e 14 3d bf 7d bb 3e e1 6c 78 3e 01 2a 43 bd
       0.036238104 0.36619374 0.24260284 -0.04764748
000200 a2 53 6a 3b f6 88 f2 bd 0a b0 50 bd b6 ea 8e 3c
       0.0035755415 -0.118425295 -0.050949134 0.017445903
000210 38 c0 91 bc 45 68 f0 3c 88 46 67 3c f3 3c 8b 3e
       -0.017791852 0.029346595 0.014115937 0.27194938
000220 4b ab f7 bd 96 b7 89 bd 1a ac 21 3d 9f bb 17 3e
       -0.120932184 -0.06724469 0.03947077 0.14817666
000230 6c b9 36 3d bf ec 9d bd b7 f6 c8 39 2a 7b a1 bd
       0.044610426 -0.07711171 0.0003833079 -0.0788482
000240 cb 23 a6 3d 80 29 26 3e bc 44 c0 be 33 ad 3a 3e
       0.08112296 0.16226768 -0.3755244 0.18230133
000250 2d ae af 3d 08 ff 1d 3d 18 e8 e8 bd f9 a0 3a 3c
       0.08578143 0.038573295 -0.11372393 0.011390918
000260 7e 43 de bd 9e 9a a3 bd 7e 7b da bc ad 93 33 3e
       -0.10852717 -0.07988475 -0.026670214 0.17536803
000270 40 79 48 3d 43 00 5b 3d 34 94 63 bb e3 a1 1a be
       0.048943758 0.053467046 -0.0034725787 -0.15100817
000280 6f f2 ee bd 4d 5d 1f bd 83 78 21 3d e9 bc b3 bd
       -0.11667334 -0.038907338 0.03942157 -0.08776266
000290 89 78 1e 38 09 4d 90 be a9 dd 11 be 86 a9 f7 3d
       3.7782393e-05 -0.28183773 -0.14244713 0.12092881
0002a0 78 f5 42 3e 77 bc e5 bd c6 81 a9 3c 1c cf 07 3e
       0.19038951 -0.112175874 0.020691764 0.132626
0002b0 00 fb 03 3e 81 b0 11 bd 9a e8 e7 bd d7 b5 02 3d
       0.12888718 -0.035568718 -0.11323662 0.031911697
0002c0 6e 45 fd bd 45 d0 eb bd 62 3b 51 3e 87 0f 25 be
       -0.12366758 -0.11514334 0.20432809 -0.16119204
0002d0 c9 a7 8c 3e e9 e9 3c bd 53 ca a1 3d 78 4f 64 3d
       0.2747176 -0.04612151 0.078999184 0.05573985
0002e0 a6 30 35 bd 9c ce cb bd 32 31 2e be ec aa f5 bd
       -0.044235848 -0.09951517 -0.17010954 -0.119954914
0002f0 45 9f ba 3d d7 25 16 3d c1 1a d6 3d 18 91 6f bd
       0.091124095 0.03665718 0.10454322 -0.05848798
000300 96 0b 84 be 3c bf b1 3d 6d 23 28 3e 9b c0 cb 3d
       -0.2579009 0.08679053 0.16419764 0.09948846
000310 f9 da f3 bc 07 d4 aa 3d 08 50 f4 3d 90 9c a9 3d
       -0.0297675 0.08341222 0.11929327 0.08281815
000320 61 2b bf 3c 2f 11 4e 3e 80 33 5b 3c 6c e4 4b 3d
       0.023336114 0.20123743 0.013378978 0.049778387
000330 56 3a bc 3c 74 04 93 3e ee 31 34 be 8b 53 a8 3e
       0.022977035 0.28714335 -0.17597172 0.32876238
000340 55 95 16 be 15 e3 8c 3d 80 03 51 3e 68 4c 4a be
       -0.14705403 0.0687925 0.20411491 -0.19755709
000350 60 9f 5a be fd 5a 11 3e 08 2b ae 3e a3 b9 a7 bd
       -0.21349859 0.14194866 0.34017205 -0.08189704
000360 3a c9 eb 3d 0c fd bf 3d 83 5e ae be 13 62 07 be
       0.1151299 0.09374437 -0.34056482 -0.13221006
000370 37 0d c4 bd 39 2b 84 bd 0d fe 18 be 2b 60 49 be
       -0.09572833 -0.064535566 -0.14940663 -0.19665591
000380 c2 7e 39 be ea 45 79 be 88 4f 9b 3e e2 75 f4 bd
       -0.1811476 -0.24343076 0.30334115 -0.11936547
000390 2e 59 44 3d 9a 48 ed bd 41 4e 17 be eb 60 30 bd
       0.04793661 -0.11586113 -0.14775945 -0.04306118
0003a0 c9 78 c8 bd 22 71 67 be b7 df 1f be a4 78 81 3c
       -0.09788663 -0.2260175 -0.15612684 0.015804596
0003b0 8f 49 38 3e 20 7a 28 bd b6 3e c8 3d ed 60 02 be
       0.1799681 -0.041132092 0.09777586 -0.12732287
0003c0 50 04 e2 3d f9 61 dc 3c 49 d8 07 3e 14 75 84 3d
       0.11035979 0.026902186 0.132661 0.064676434
0003d0 c0 03 26 be 80 b3 40 3e 39 49 35 bd bd bd 77 3d
       -0.16212368 0.18818474 -0.044259284 0.060483683
0003e0 9e 5d 15 3e 94 07 23 bc c2 41 75 bd 15 6f 92 3d
       0.14586493 -0.009950537 -0.059877165 0.071500935
0003f0 b7 ed 7e 3e 94 d0 39 be ee 5d 4d be 98 5a 8a 3e
       0.24895369 -0.18145972 -0.20055363 0.27022243

linears.2.bias f4 [50]
000000 4b c9 e0 3c 40 a1 e7 3c 9c 90 6e bb 82 c5 e3 3c
       0.027439734 0.028275132 -0.0036402112 0.02780414
000010 bb 09 f2 bc 2e 39 1e bc b9 6d e1 3c 91 6f d8 3c
       -0.029545655 -0.009657187 0.02751814 0.026420387
000020 7e 96 f0 3c 20 d7 e3 bc 88 13 e3 3c 03 c5 d5 3c
       0.029368635 -0.02781254 0.027719274 0.02609492
000030 84 04 db bc af d3 f6 bc 53 a0 09 bd 6c 04 e4 3c
       -0.026735552 -0.030130235 -0.033600163 0.02783414
000040 59 01 7d bb ef 6a ed bc 42 bf fa bc e2 2b c6 3c
       -0.003860554 -0.028981654 -0.030608777 0.024190847
000050 47 76 d3 3c ca 03 c0 3c b2 55 ed bc 3a 6d ca 3c
       0.025813235 0.023439307 -0.028971527 0.024710286
000060 8d 53 c9 bc f2 1e f1 3c 3a 4e 35 3c 80 d5 c2 3c
       -0.024575973 0.029433701 0.011066014 0.023783445
000070 3c c0 e6 bc 02 0d fc 3c f0 55 e4 3c c7 75 f2 bc
       -0.028167836 0.030767921 0.02787301 -0.029597176
000080 46 d2 ce bc 60 89 e2 bc 90 02 dc bc 8c 15 b3 bc
       -0.02524675 -0.027653396 -0.02685669 -0.02186086
000090 ff 61 df 3c 3e 5e d7 bc e6 33 3b 3b ea 81 eb bc
       0.027268408 -0.026290055 0.002856487 -0.028748471
0000a0 e1 1f 83 bc d3 08 e5 bc dd 8f c6 3c 4b ab df bc
       -0.016006412 -0.02795831 0.024238521 -0.027303359
0000b0 89 1b 01 bc df f6 7a 3b 86 eb 64 bc b9 4f f4 bc
       -0.0078801 0.003829412 -0.013972169 -0.029823171
0000c0 c3 83 6e 3c c4 f1 d3 bc
       0.014557782 -0.025872119

linears.3.weight f4 [50, 50]
000000 ed f6 9e 3d 11 00 a6 be 1d 1e 90 bd 42 d6 fe 3c
       0.07761941 -0.32421926 -0.07036994 0.031108025
000010 52 26 79 bc 97 66 71 3e e8 bf 65 3d 7b e3 09 be
       -0.01520689 0.23574291 0.05609122 -0.13465683
000020 40 81 e4 bc a5 da 3c bd 77 5c 65 be 3b a2 28 3d
       -0.027893662 -0.046106953 -0.22398554 0.04117034
000030 53 c9 68 3e 38 aa 34 be 09 73 ad bc 1a 81 d3 3c
       0.22733049 -0.17643058 -0.021173017 0.025818396
000040 eb f2 95 bd c9 a0 9a bd 43 6b 11 3d 2b 71 32 bd
       -0.073217236 -0.075501986 0.035502683 -0.043564957
000050 4a 11 81 3c c7 6a 5e be 5c 18 ff bc 37 e8 b4 bd
       0.015755314 -0.2172042 -0.031139545 -0.08833354
000060 70 d6 44 bd 14 b0 19 be 77 1c 82 be 1a 22 2e be
       -0.048056066 -0.15008575 -0.25412342 -0.17005196
000070 a3 83 b7 3d 1c 4f 33 be aa cf ff bb 8d da f6 3c
       0.089606546 -0.17510647 -0.007806738 0.03013351
000080 11 00 9e ba aa ac 03 3d 8f e4 6e 3b 7e ee 81 3d
       -0.0012054463 0.032147087 0.003645215 0.06344317
000090 e8 61 e9 3d 15 bc 24 3e b6 bd d0 bd 75 2a 92 3e
       0.11395627 0.16087373 -0.101924345 0.28548017
0000a0 59 a0 fb 3d ca c1 30 be 01 ed 97 bd 47 ef 44 3d
       0.12286443 -0.17261425 -0.07418252 0.048079755
0000b0 c4 ef 9a bd af 2e 09 3d ed eb 30 bd 21 68 ad bd
       -0.07565263 0.033491787 -0.043193746 -0.08467127
0000c0 41 d2 22 3d 41 9d 0a 3e 76 e4 15 3e f8 ea af 3d
       0.039751295 0.1353655 0.14637932 0.085897386
0000d0 f0 f0 7e bc 62 aa 00 3d 34 10 d3 bd d6 35 58 3d
       -0.015560374 0.03141249 -0.10305825 0.052785717
0000e0 79 37 94 bc ea 8e 2f 3e c7 c4 07 be e2 be 03 3e
       -0.018092858 0.17144361 -0.13258658 0.12865785
0000f0 41 ca 1e 3e fa df 0f bd f6 54 3f 3d 3d ed 63 3d
       0.15506841 -0.03512571 0.046711884 0.05564617
000100 5a b8 af bd 28 85 30 bd 75 db 6b 3d a6 5e ff 3d
       -0.08580084 -0.043095738 0.057582337 0.12469225
000110 93 1e dd 3d 22 15 73 bd ba e9 b7 b9 9a e3 74 3e
       0.10796847 -0.059346326 -0.0003507862 0.23914948
000120 b2 4c 99 bd 13 6d 16 be be d6 4f be c9 6a ce bd
       -0.074853316 -0.14690046 -0.20296761 -0.100789614
000130 c6 26 81 3a 5d 11 95 bd 3b 96 e8 bc d9 ae c6 3c
       0.0009853474 -0.072787024 -0.028391948 0.024253296
000140 eb cb 04 3e d1 15 e7 bd 4a dc 96 3d 63 e4 9e 3d
       0.12968414 -0.11283458 0.073662356 0.07758405
000150 cd 4c 6d bd 70 3d 8b bd 22 c3 09 3d b1 7b c0 bc
       -0.05793457 -0.06798828 0.03363336 -0.02349648
000160 9b 3f 7f be 34 56 a7 3d 72 4c 62 be e7 f5 91 3c
       -0.24926607 0.08170739 -0.22099474 0.01781745
000170 4b 68 c3 3c c8 b1 93 3e 44 6f 3f be 36 ce 56 3d
       0.023853442 0.28846574 -0.18694788 0.05244275
000180 64 27 97 bd 49 ec 34 3e 48 fc 1d be 08 77 b7 bd
       -0.0738056 0.1766826 -0.15428269 -0.0895825
000190 e0 7b 10 3e c4 60 09 3e 25 fa 31 3e 2d 34 8f be
       0.14109755 0.1341582 0.17380579 -0.27969494
0001a0 2d c3 60 bd a6 fa 02 be 0c 6c 09 3e b5 ea 52 bd
       -0.054873634 -0.12790927 0.13420123 -0.051493365
0001b0 2d 53 bf 3d 16 0b b7 bd 8d 1d 58 bc 82 47 8e bd
       0.093420364 -0.08937661 -0.013190639 -0.06947233
0001c0 21 69 07 bd 0e 7e 54 3d 54 bd 90 bd 6d e3 38 3e
       -0.033059243 0.051878028 -0.070673615 0.18055506
0001d0 12 55 00 bd cb e6 af 3d bc cf cf 3d 82 7d 64 3d
       -0.03133113 0.08588942 0.10147044 0.055783756
0001e0 32 75 90 3e 25 f7 9a 3d 73 d9 43 be 24 2c 59 bd
       0.28214413 0.0756667 -0.19125919 -0.05302061
0001f0 cd fa 30 bc 37 45 03 be d0 b1 3f be 81 9a ca 3d
       -0.010801983 -0.12819372 -0.18720174 0.098927505
000200 77 91 67 3c 60 5f 0c 3e d4 c7 94 3d a8 8c 4d bd
       0.014133803 0.13708258 0.07264677 -0.05018297
000210 67 22 22 bd b1 e9 a8 bd 2b eb 27 be 80 24 82 bd
       -0.03958359 -0.08247698 -0.16398303 -0.06354618
000220 be da 26 bd 38 12 67 3e a9 4f 61 bd e7 98 fd 3c
       -0.040735953 0.22565544 -0.05500761 0.030956699
000230 d9 b8 bb 3d 7a d3 83 bc 10 6a 37 3e a2 bf c9 bd
       0.09166116 -0.01609205 0.17911553 -0.09851004
000240 c4 af 58 bd e1 4a 2c be b9 9e 2f 3d 34 38 86 3d
       -0.052902 -0.16825439 0.04287598 0.06553689
000250 1d 68 14 3e d9 af b7 3e d2 71 54 3e ca 13 86 bc
       0.14492841 0.3587635 0.20746544 -0.016366858
000260 94 95 b7 bd 47 9a ad bd 0d 27 71 3b 62 37 83 be
       -0.08964077 -0.08476692 0.0036796958 -0.2562819
000270 e6 45 9f be 3c 30 31 3e d5 3d 15 bd 40 45 ed 3c
       -0.31108016 0.17303556 -0.03643592 0.028963685
000280 58 f4 cb bd b7 c1 bb be b0 88 40 be 76 b2 64 bc
       -0.09958714 -0.3667123 -0.18802142 -0.013958564
000290 d4 6f f0 3c 54 b8 61 3d c0 c9 5f bd a3 e3 b0 bd
       0.029350199 0.05510743 -0.054635763 -0.08637168
0002a0 11 d0 bc 3d 02 32 fe bc c3 36 06 be 3b f0 00 bd
       0.09219373 -0.031029705 -0.13106827 -0.0314791
0002b0 40 0b df 3d 33 c4 48 be 54 94 d5 3d d1 b2 8a 3e
       0.10890818 -0.19606094 0.10428682 0.2708955
0002c0 7b b0 06 be 37 03 4c be 66 54 07 bd 4a 98 e8 bb
       -0.1315326 -0.19923101 -0.033039473 -0.0070982324
0002d0 4e c1 cc 3c 03 ed ec 3c 36 04 ac 3e b2 8e 6e 3e
       0.024994519 0.02892161 0.33596963 0.23296621
0002e0 c6 43 92 3e 56 21 91 3d f0 7a 0f 3e c9 8e 18 3e
       0.28567332 0.070864365 0.1401174 0.14898218
0002f0 40 33 0c 3e 4b 28 63 3c 19 7a 8c bd 49 09 62 3e
       0.13691425 0.013864587 -0.06859226 0.22073855
000300 7f c4 ab 3e 32 f7 25 3e bf a2 f1 3d ab 73 4c 3e
       0.33548352 0.16207579 0.117986195 0.19965999
000310 43 90 49 be ca c3 53 be c6 15 af bd ba c1 ce 3c
       -0.19683938 -0.20680156 -0.08549075 0.02523886
000320 15 0c 08 3e 60 ab 1f 3e 16 d1 6f 3e af 49 6a be
       0.13285859 0.15592718 0.23419604 -0.2287967
000330 dd 9a ee bc d3 e0 62 bd ee f0 f9 3d 64 9f 0d be
       -0.029126579 -0.05539019 0.12204157 -0.13830334
000340 1d 36 41 3e 19 9d f5 bd 88 92 46 be c6 ff a8 3e
       0.18868299 -0.119928546 -0.19391835 0.3300764
000350 c2 c0 c4 bd 0f ea 42 bd 7f 2f bd bd c5 73 96 bd
       -0.09607078 -0.047586497 -0.09237575 -0.073463
000360 77 43 99 bd 13 a4 a6 bc 18 fa b2 bd fe 3c 17 3e
       -0.07483571 -0.020341909 -0.08739108 0.1476936
000370 a5 ff 22 3d be 68 5f bc 82 06 e7 3c 18 42 fa bb
       0.039794583 -0.013635812 0.028201345 -0.0076372735
000380 f0 f6 98 bd 81 02 f2 bd 2c 41 16 3e f7 dd c6 3d
       -0.074689746 -0.11816884 0.14673299 0.09710305
000390 87 9d 90 bd 86 52 58 3e fd e4 4d 3e 15 b0 4a be
       -0.07061296 0.2112523 0.20106883 -0.19793732
0003a0 34 c8 bf bc 0d ee 42 bd 80 60 ae 3c 83 00 f9 bc
       -0.023410894 -0.047590304 0.02128625 -0.030395752
0003b0 ed a9 94 3d b0 13 83 bb c1 20 43 3e 3d 78 5e be
       0.07258973 -0.0040001497 0.19055463 -0.21725555
0003c0 ca e3 33 be f9 ad e4 bd 2a 92 27 3e ff cf 09 3e
       -0.17567363 -0.11165995 0.16364351 0.1345825
0003d0 cc 71 9e 3d 9a a8 20 bc 92 11 f1 3d b2 a8 bb bc
       0.07736549 -0.009805823 0.117709294 -0.022907589
0003e0 de 47 ce 3d f9 63 54 be 4b 81 25 bd 45 0e e2 3d
       0.10072301 -0.20741262 -0.040406507 0.11037878
0003f0 8e fa 96 be 03 7b a4 3c 24 5a 17 3e c2 26 c0 be
       -0.29488033 0.020078188 0.1478048 -0.3752957

linears.3.bias f4 [50]
000000 c6 c6 eb bc 29 e6 f0 3c ef 75 d7 3c 3c 7b e2 bc
       -0.028781306 0.029406624 0.026301352 -0.027646653
000010 73 b9 f3 3c 8e f9 aa bc 8b 6a 42 3b b9 da da bb
       0.029751515 -0.02087095 0.0029665555 -0.006678906
000020 c2 5b e3 bc d0 56 c8 bc 76 31 a9 bc f6 61 1c bb
       -0.027753714 -0.024455458 -0.020653468 -0.00238621
000030 bd ce f8 bc 29 44 23 3d ef 2b 66 3c 17 f6 e0 bc
       -0.030372018 0.039859924 0.0140485605 -0.027461095
000040 f9 1b ef bc e9 65 f2 bc 29 ca da 3c 6f 54 f4 bc
       -0.029188143 -0.02958961 0.026707726 -0.029825417
000050 25 84 d5 3c b9 7a ee bc c5 cc f2 bc 42 51 f4 bc
       0.026063988 -0.029111253 -0.029638657 -0.029823903
000060 4a 24 c5 bc db 01 da bc 1c 85 f9 3c ba ad e2 3c
       -0.024065156 -0.026612213 0.03045898 0.02767073
000070 d2 2e fc bc 65 1a e3 bc 76 b7 d6 3c 14 e9 f8 bc
       -0.030784044 -0.027722547 0.026210528 -0.030384578
000080 4f c0 ec 3c 89 93 01 3d 72 ea f7 bc 06 ff 14 bc
       0.028900294 0.03163484 -0.03026316 -0.009094005
000090 5e 1f f0 bc 66 6e f9 3c 5f 36 c5 3c f8 32 f5 3c
       -0.029311832 0.03044815 0.024073778 0.02993153
0000a0 6b 24 d8 bc 43 19 f7 3c ff 9c eb 3c f4 1a 0e 3d
       -0.026384553 0.030163413 0.028761385 0.034693673
0000b0 e8 3d 02 3b 72 ed 05 3d af af fa 3c ff b2 ec bc
       0.0019873325 0.03269715 0.03060135 -0.028893946
0000c0 ca 07 f3 3c 6a d7 e7 bc
       0.0296668 -0.02830096

linears.4.weight f4 [3, 50]
000000 55 d0 3a be 3d 60 6c 3d 20 73 ab bc 33 85 91 be
       -0.18243535 0.057708967 -0.02092892 -0.28421935
000010 24 ec b0 3c a7 94 2b be da 58 93 bd ff 7c 05 be
       0.021596976 -0.16755925 -0.071946815 -0.13035963
000020 2d f9 a6 be 76 fc b9 bc e7 37 26 be 44 3c 58 bd
       -0.3261198 -0.02270339 -0.16232263 -0.05279185
000030 64 e3 22 3b 63 69 44 bc ec ec 90 3d 75 93 63 be
       0.0024854774 -0.011988017 0.07076439 -0.22224219
000040 d2 b8 01 bf 7f e1 a3 be 83 f8 ac 3e 28 64 f5 be
       -0.5067264 -0.32007977 0.3378335 -0.47927976
000050 6d 07 3a 3e 0a 70 d0 bd 0c a4 e0 be 8e b3 88 be
       0.18166895 -0.1017762 -0.43875158 -0.2669949
000060 a2 83 19 3d 85 90 f3 bd 9e df 30 3e 29 40 43 3e
       0.03747905 -0.11892799 0.17272803 0.19067444
000070 09 20 95 be 29 06 f2 bd 26 65 0f 3e b7 18 83 be
       -0.29126003 -0.11817581 0.14003429 -0.25604793
000080 72 6e 59 3e 6c e1 b6 3c c1 ac 45 bd 72 bb 97 3d
       0.21233538 0.022324286 -0.048260454 0.07408799
000090 54 f7 b4 be f6 89 6c 3e 28 14 a7 3c 59 a9 82 3d
       -0.35344946 0.23099503 0.020395353 0.06379957
0000a0 1d c7 9e be a2 f6 e1 3d 8e 7e a5 3e 4f bd 35 3c
       -0.31011286 0.110333696 0.32323116 0.011092498
0000b0 3c a0 99 bd 2b 79 53 bc 5c e7 db 3d 2c fc 96 be
       -0.075012654 -0.012907307 0.10737488 -0.29489267
0000c0 39 a4 ee 3d 93 46 a0 be b5 31 2a bd 1c a6 0f be
       0.11652417 -0.31303844 -0.04155131 -0.1402821
0000d0 b9 f4 ad 3d c2 36 28 3d 2a af b9 3d 74 2f a3 be
       0.08493943 0.041067846 0.09066613 -0.3187214
0000e0 09 ef cc bd 6a 4d d4 3d 5d 92 da bc 47 ff dd 3e
       -0.1000653 0.10366328 -0.02668112 0.43358824
0000f0 78 25 45 be fa f8 c1 3a d6 f1 46 bd 6c 4e 8d 3e
       -0.19252574 0.0014798932 -0.048570476 0.27598894
000100 ef 01 59 3e 5e a2 27 3e c1 68 85 3d 34 03 1f 3d
       0.21192144 0.16370532 0.06514121 0.038821414
000110 9e 1e 05 bf 4e 45 2b 3e 3b 6a c7 3c 47 4b 37 3e
       -0.51999843 0.16725656 0.024342647 0.1789981
000120 5e 7e 10 3e d7 5a 9e 3d 9f 97 94 3e 47 05 60 3e
       0.14110705 0.0773217 0.29021928 0.21877013
000130 a8 ef 41 3e 8c 5c 24 bd ee 01 30 be c5 c1 38 bd
       0.18939078 -0.040127322 -0.17188236 -0.045106668
000140 f7 b7 84 3e fa 96 92 bd 8c 27 d2 3d 31 fc 53 be
       0.25921604 -0.07157703 0.10261449 -0.20701672
000150 75 f3 00 bd 9e 4d cf bd 11 88 c6 bd 6b 0b 90 3e
       -0.03148218 -0.10122226 -0.09693921 0.2813371
000160 7a 2e ed 3d 99 f6 2c bd ca 3c 31 be 32 f4 0c 39
       0.1158113 -0.04222736 -0.17308345 0.0001344241
000170 b4 8f 8e 3e 9c 9a e4 bd d9 0b 97 bd 3d 35 6a be
       0.27844012 -0.11162302 -0.07375307 -0.22871871
000180 ea dc b2 3d 3d 9f c1 bd cc a1 37 3d ba 1f c0 be
       0.08733542 -0.094542004 0.044832036 -0.37524205
000190 b8 c3 aa 3c 72 4b 71 3d 88 03 5a 3e ad 4a b3 3d
       0.02084528 0.05890984 0.2129041 0.08754478
0001a0 46 5c e4 3e 2d dd 48 bd 85 80 0c 3e 12 a5 71 3e
       0.4460165 -0.049039055 0.13720901 0.23598126
0001b0 bb 9e 55 3e 87 5a 5d be ef cf dd 3d 05 98 28 3e
       0.20861332 -0.21616565 0.10830676 0.16464241
0001c0 9a 12 81 be 40 a3 87 3d 12 45 73 be 14 70 1d 3e
       -0.25209504 0.06622934 -0.23756817 0.15374786
0001d0 c0 33 d3 3c 39 df 5b bd 51 c4 88 be 4c a9 0a be
       0.025781512 -0.05367968 -0.26712278 -0.13541144
0001e0 91 57 4b be 52 70 7d be 28 d0 62 be 6e 2d fb bd
       -0.19857623 -0.24749878 -0.22149718 -0.122645244
0001f0 2d f0 30 bd 1c f8 f0 3d 0c 6c 33 3e d5 65 04 bd
       -0.0431978 0.11766073 0.17521685 -0.032323677
000200 9e 35 b7 be 9c fa 26 3d 98 fe c2 bd 1b dc a7 be
       -0.35783094 0.040766343 -0.09521216 -0.32785115
000210 01 1d cb bb 77 26 b1 3d 84 5b e1 bc 98 05 27 be
       -0.006198526 0.08649915 -0.027509458 -0.16310728
000220 f3 e4 cc bc f2 51 17 3e 04 9e 9d 3d 9f 61 44 3d
       -0.025011515 0.14777353 0.07696155 0.04794466
000230 31 21 90 3e 98 5b 48 3e 57 24 23 bd 54 29 8b 3e
       0.28150323 0.1956619 -0.03982958 0.27179968
000240 bf 66 16 3e 80 76 1e 3e fc 6a 60 3e 52 e3 83 3d
       0.14687632 0.15474892 0.21915811 0.06439842
000250 77 15 60 3d f5 67 93 3e
       0.05470797 0.2879025

linears.4.bias f4 [3]
000000 bd 6c f2 3c 82 2d e1 bb 00 5d fa 3c
       0.029592866 -0.00687188 0.030561924

exp_avg f4 [50, 2]
000000 48 ff 92 ba 2d 07 6a 3a 62 89 e7 3b ca 06 2b bc
       -0.0011214996 0.0008927461 0.007065938 -0.01043863
000010 8d c3 72 bb e4 07 c0 bb c8 e0 f2 ba 92 3f 63 bb
       -0.0037042827 -0.0058603156 -0.0018530125 -0.0034675342
000020 7d b4 43 bb e0 e5 4f bb dc 3b 12 3b 2b 63 11 bc
       -0.0029862218 -0.003172271 0.002231351 -0.008873741
000030 49 ed 16 3b fe 92 48 bb 6a a9 d9 39 7b b6 49 3b
       0.0023029617 -0.0030605192 0.0004151569 0.0030778933
000040 a9 05 2f ba fb e9 a8 3b 28 92 8e bb 7e c5 3b 3b
       -0.00066765636 0.005154846 -0.0043509193 0.002865165
000050 c1 b4 91 ba fd ec 9d ba df bb ec bb 5a c6 04 bb
       -0.0011116491 -0.0012048777 -0.0072245444 -0.0020259828
000060 33 2e 97 ba 07 b5 2a ba d3 d5 8a bb 30 9e 95 3b
       -0.0011534154 -0.00065119605 -0.0042369156 0.0045659766
000070 d7 ab ca b9 87 11 53 bb a2 f0 b1 b9 d1 d3 f1 3a
       -0.00038656473 -0.0032206492 -0.00033939356 0.0018449967
000080 b5 b3 38 3a 7a f7 61 3b 6c 70 50 3a 05 ea 79 bb
       0.00070458214 0.0034479783 0.00079513225 -0.0038133871
000090 79 26 39 3a c6 f6 e2 39 d5 92 f0 b9 d4 c7 00 3c
       0.0007062923 0.0004328994 -0.00045885766 0.007860143
0000a0 d4 9e 16 3a b2 69 14 3b 6f c3 e2 3b ba 50 da 39
       0.0005745713 0.0022646007 0.00692027 0.00041640346
0000b0 4f 14 27 ba fd 8a d0 3a 7c 2b 91 3b 7f 17 c2 ba
       -0.00063735706 0.0015910562 0.0044302326 -0.0014808028
0000c0 d9 bf 49 3c 16 70 cf bb 3a c3 08 3b 77 33 f8 bb
       0.012313806 -0.0063305004 0.0020868317 -0.0075744945
0000d0 55 1c df 3a c9 ef 7c bb 40 de 27 3b 3b 8a 62 3b
       0.0017021993 -0.0038595072 0.002561465 0.0034567255
0000e0 55 fc f8 39 d9 47 f7 3b 39 18 40 bb df 4d 52 3b
       0.00047490248 0.0075464067 -0.0029311313 0.0032089872
0000f0 94 29 5a bb 41 64 eb b9 85 4f c0 39 ba d6 f7 38
       -0.0033288943 -0.00044897388 0.0003668034 0.00011817874
000100 53 d9 1c bb 04 3e c9 3a 44 ee 2a bb cb 68 7a 3a
       -0.0023933246 0.0015353565 -0.0026081959 0.00095523585
000110 0b 38 4b bc 2b b4 2c bb a2 b3 1c 3b f0 1e eb 38
       -0.012403498 -0.0026352506 0.002391078 0.00011211436
000120 4a 29 9e ba d3 79 37 bb 3d 03 25 3b b6 b9 92 bb
       -0.0012066748 -0.0027996197 0.0025178932 -0.004477705
000130 66 a6 8a bb 71 ed 8d 3b fa 38 c2 3b aa 95 1f bb
       -0.004231262 0.0043312837 0.0059272023 -0.0024350681
000140 08 f0 20 3b 66 af db ba be 65 b3 3a 5e 1b b6 bb
       0.0024557132 -0.0016760647 0.0013686938 -0.0055574616
000150 cf 4d a1 3a f2 b4 d4 3b 56 0e e2 ba e6 a7 34 39
       0.0012306514 0.006491297 -0.0017246704 0.00017228685
000160 bb af 5e bb 70 ba 61 bb fe af 1d bc b8 ad 35 3a
       -0.0033979255 -0.00344434 -0.009624479 0.0006930488
000170 ac 1e 0e 3b 1c 68 96 ba bd ae 81 3b b6 c4 81 bb
       0.0021685762 -0.0011475119 0.003957598 -0.0039602173
000180 70 48 8b 3b e5 3d c6 ba 3d f9 e0 3a bb 8d 37 3b
       0.0042505786 -0.0015124647 0.0017164123 0.0028008062

exp_avg_sq f4 [50, 2]
000000 b5 93 94 37 0b 9f 05 38 ed 9f ec 36 bd fd 53 37
       1.7711756e-05 3.185779e-05 7.051966e-06 1.2635658e-05
000010 cd 4d a8 36 49 c0 a9 37 8e f8 67 38 75 e3 d8 37
       5.0158474e-06 2.023591e-05 5.5306176e-05 2.5855124e-05
000020 01 8d 0e 38 00 a3 ee 37 4d b8 89 37 be 71 9c 38
       3.398676e-05 2.8447714e-05 1.6417494e-05 7.459846e-05
000030 b7 b1 8f 38 00 9c 8f 37 81 34 88 37 75 2d 91 37
       6.851873e-05 1.7119572e-05 1.6236912e-05 1.7306515e-05
000040 bb e8 78 38 e0 71 90 38 9f 78 e5 36 67 60 17 38
       5.9344555e-05 6.887666e-05 6.838774e-06 3.6090987e-05
000050 c7 1e 8b 37 32 96 ba 37 18 28 7b 37 a4 0b 4c 37
       1.6584423e-05 2.2242868e-05 1.4970101e-05 1.2162058e-05
000060 67 4c 8a 38 bc 28 af 39 5a 67 8a 38 99 f6 ac 38
       6.594584e-05 0.0003340895 6.5996035e-05 8.2475315e-05
000070 eb 28 54 38 42 f8 6b 38 4d 69 6c 37 62 00 5e 38
       5.0582847e-05 5.6259574e-05 1.4091213e-05 5.292928e-05
000080 4f fb 27 38 2d 42 88 39 d3 97 8e 36 1c da 30 37
       4.0049952e-05 0.00025989246 4.2496044e-06 1.05412e-05
000090 80 01 d8 37 32 1b 01 38 fe 9e d3 37 cc 48 67 38
       2.5749905e-05 3.0781324e-05 2.5227197e-05 5.514249e-05
0000a0 2e c0 6e 37 dc fe 3c 37 54 b5 53 37 a6 14 c1 38
       1.4230651e-05 1.1265012e-05 1.2618799e-05 9.206803e-05
0000b0 76 3b 6f 37 68 12 32 38 e8 a4 c8 36 58 fb f2 36
       1.4259354e-05 4.245565e-05 5.979662e-06 7.2414223e-06
0000c0 df 0b bb 37 a0 02 3b 39 00 0f b0 37 37 f4 d6 37
       2.2297665e-05 0.00017834688 2.098782e-05 2.562451e-05
0000d0 e9 2c 91 36 81 f0 a5 37 a1 95 b6 37 f9 81 33 39
       4.326565e-06 1.9781526e-05 2.1765767e-05 0.00017119189
0000e0 dc 33 65 37 87 66 e8 37 1f 5a 16 37 13 0d d4 38
       1.3661538e-05 2.7704298e-05 8.96168e-06 0.00010111383
0000f0 c7 af 5f 36 4e f8 f2 35 7c 43 32 37 06 29 50 38
       3.3331905e-06 1.8102671e-06 1.0625339e-05 4.962927e-05
000100 f7 e1 1f 37 c8 02 1d 38 ce f1 44 36 35 9d dc 37
       9.52975e-06 3.7434307e-05 2.9347025e-06 2.6299249e-05
000110 71 5b ca 38 b9 21 49 39 c6 f5 a2 36 1c 83 3d 37
       9.649143e-05 0.00019181416 4.856588e-06 1.1295804e-05
000120 8f c7 4b 36 8e db 3a 36 1d 9e 77 36 69 a2 fc 37
       3.0365516e-06 2.7843957e-06 3.6897902e-06 3.0116369e-05
000130 06 f9 1a 37 2c 24 5b 38 e2 c9 60 38 09 6c fc 38
       9.237096e-06 5.2247357e-05 5.359378e-05 0.000120364195
000140 86 75 47 37 b9 b2 b2 37 34 32 99 37 1b c4 3f 37
       1.1888687e-05 2.1302478e-05 1.8262399e-05 1.14301465e-05
000150 af 9c d9 38 94 dc 35 38 5c 35 3b 38 d6 89 01 39
       0.00010376551 4.3359192e-05 4.463397e-05 0.00012353747
000160 7a 44 b3 36 9f 59 b8 37 92 02 2d 37 6f fe 0f 37
       5.3425874e-06 2.1976242e-05 1.0312202e-05 8.582704e-06
000170 98 b6 0c 39 68 75 7d 38 9f b2 c4 38 c1 7e 80 37
       0.00013419462 6.0429244e-05 9.379279e-05 1.5317813e-05
000180 5c c7 6e 37 91 e9 bc 38 14 9a a0 37 de 69 ae 37
       1.4232322e-05 9.008044e-05 1.9145235e-05 2.0791715e-05

exp_avg f4 [50]
000000 59 d0 a1 bb f4 7d c6 3c 0e 0b 75 3c 37 2f 52 3c
       -0.004938167 0.024229981 0.014956249 0.01282864
000010 14 55 b9 3c 8f 09 2f 3c ce 7e fb 3c b8 73 2d bb
       0.022623576 0.010683431 0.030700114 -0.0026466679
000020 fc bb cd bc b6 94 ab bc 63 80 8d 3b 2b b7 41 3c
       -0.025114052 -0.020944934 0.0043182834 0.011823456
000030 9f 7f 24 ba b3 01 29 bc 86 22 6d 3c 46 54 94 bc
       -0.00062751205 -0.0103153465 0.014473563 -0.018106591
000040 a9 86 d3 bb a8 98 b4 3c 4a af 2b 3b fa aa cb bc
       -0.0064552617 0.022045448 0.002619701 -0.024861801
000050 49 fb 13 bc 2e 87 09 3b 0e 8b 00 bc a9 99 86 3c
       -0.009032079 0.0020985114 -0.007845653 0.016430693
000060 53 bf c2 bb 42 28 9e 3c 1e b3 98 3c 5f 4a d2 b9
       -0.005943218 0.019306306 0.018640097 -0.00040109732
000070 ff 74 08 bd a7 d8 6b bc 50 2b 1f 3b dc c3 76 3c
       -0.0333147 -0.014394916 0.002428729 0.015061345
000080 3d 64 7d 3c 5d 42 26 bc f2 21 1d bc 7f 7a c3 bb
       0.015465793 -0.010147658 -0.009590613 -0.0059655304
000090 a0 7d 40 3c 35 34 9e 3c cc ba d1 bc f7 a3 1e 3c
       0.011748701 0.019312004 -0.025601767 0.009682647
0000a0 ad 66 b5 3c 04 df c9 3c e3 ea e7 bc d0 4f 54 bb
       0.022143686 0.024642475 -0.028310245 -0.0032396205
0000b0 2c d8 78 3c be 54 de 3a 8d 3a 96 3b 97 1d a5 3a
       0.015188258 0.0016962511 0.0045846165 0.001259732
0000c0 20 32 02 3c 7c 77 8f bc
       0.007946521 -0.01751303

exp_avg_sq f4 [50]
000000 2b 54 43 3a 6b 56 57 39 f9 4b c7 39 f4 75 9c 3a
       0.00074512017 0.00020536191 0.00038012842 0.0011937008
000010 e3 73 2d 39 85 86 c7 3a 78 b6 1a 39 2d e1 28 3a
       0.00016541737 0.0015222585 0.0001475456 0.0006442245
000020 4b ac 36 3b d2 62 e7 3a b8 37 d0 39 17 fb 55 39
       0.002787369 0.0017653352 0.00039714365 0.00020406801
000030 71 fd 14 3c 90 60 03 3b d7 e4 c1 3a d5 5f 16 3b
       0.009093628 0.002004657 0.0014792931 0.0022945304
000040 1d 58 17 3c 10 3c ea 38 13 75 70 3a 8d 44 6d 3a
       0.009237316 0.00011169177 0.0009172719 0.00090510474
000050 e1 5b fa 39 46 16 47 3b 88 d0 8c 3a 3e d1 10 39
       0.0004775217 0.0030378266 0.00107433 0.00013810859
000060 4c 42 a9 3b a9 c4 3a 3a 02 53 f1 39 3b 2e b6 3b
       0.005165374 0.00071246416 0.00046028948 0.0055597103
000070 53 79 08 39 36 dc 25 3b 0a 68 a2 37 82 17 6e 3a
       0.00013015167 0.0025308258 1.9360352e-05 0.00090824824
000080 56 4e 01 39 c0 d2 3e 3a 6d 3a 1a 3c 10 2e 30 39
       0.00012331581 0.0007279329 0.009413344 0.00016801828
000090 ff 67 2d 38 a1 53 e5 39 13 3d c2 3a a9 4e aa 3b
       4.1343268e-05 0.00043740592 0.0014819227 0.0051973653
0000a0 08 43 40 39 38 16 95 39 85 00 51 3a 3a e7 53 3b
       0.00018335518 0.0002843605 0.00079727947 0.0032333867
0000b0 22 48 18 3a 65 fd 9f 39 6d 80 48 3a c8 0d d6 39
       0.00058090885 0.00030515637 0.00076485315 0.0004082753
0000c0 b9 a2 d8 3a b3 a5 14 3a
       0.0016527987 0.0005670443

exp_avg f4 [50, 50]
000000 38 34 cb 39 f9 bf 07 3a 01 f6 65 b9 e9 22 58 39
       0.00038758083 0.00051784475 -0.00021930785 0.0002061237
000010 77 51 04 ba 12 35 1f 39 5e b2 a8 b9 24 1e 14 b9
       -0.00050475396 0.00015183192 -0.0003217635 -0.00014125608
000020 2f 0c 0d 39 1b 52 dd 38 b1 c2 3c b9 4f c2 fa b8
       0.00013451347 0.000105533945 -0.00018001605 -0.00011957122
000030 b9 c1 bb 34 0d 8b 9b 39 0c cc c0 b9 c4 7a 15 39
       3.4972416e-07 0.00029667505 -0.0003677312 0.00014255481
000040 ac f7 be 39 58 07 c7 b9 f1 17 25 39 67 db 85 39
       0.00036424154 -0.0003796171 0.00015744545 0.00025531204
000050 6f 1e 97 b9 93 ce 23 3a b7 86 16 b9 fa c6 6c 38
       -0.0002882364 0.00062487385 -0.000143553 5.6452096e-05
000060 da 3e 4e ba fd 87 22 b9 93 b2 8c 39 83 6f e9 37
       -0.0007867642 -0.00015500184 0.0002683593 2.7827691e-05
000070 be 6b 11 3a 96 dd fb b8 2a d4 53 b8 6e 36 3e b9
       0.0005547366 -0.00012009886 -5.0503913e-05 -0.00018140089
000080 64 3b 38 3a c7 28 a0 39 15 54 9d 39 95 85 a9 39
       0.0007027893 0.0003054796 0.0003000802 0.00032333718
000090 1d b1 ec b9 6d 15 7d b9 94 d0 75 38 94 91 55 39
       -0.00045145387 -0.00024135942 5.8606805e-05 0.00020367495
0000a0 88 5e f2 b9 69 c7 90 b9 d1 00 5c b9 ad bc c6 39
       -0.00046228268 -0.00027614392 -0.00020981139 0.00037906077
0000b0 5d 3d cb b9 cc 12 f2 39 98 47 ca 39 89 01 6e b9
       -0.00038764896 0.00046171842 0.00038581784 -0.0002269802
0000c0 a6 cb 77 38 df a1 3d 38 6b 20 c2 39 f7 a6 a7 39
       5.907905e-05 4.5211866e-05 0.00037026717 0.0003197712
0000d0 fb 26 a6 b9 dc ae b3 38 7f 1f a5 b9 ec 59 03 38
       -0.0003169103 8.567955e-05 -0.0003149472 3.131658e-05
0000e0 cc 2c b3 b9 21 ea 2b b5 f9 1b a8 39 8c 38 9d 39
       -0.00034174917 -6.4043167e-07 0.00032064298 0.00029987504
0000f0 3a 3a bb b9 b7 12 12 b9 fa 2d 74 36 0e 42 a5 39
       -0.00035710802 -0.00013930617 3.6385595e-06 0.00031520467
000100 32 96 b3 b9 49 b2 b1 39 46 d1 6a 39 87 d9 76 b9
       -0.00034253445 0.00033892904 0.0002239394 -0.00023541423
000110 f6 6f 2c 37 16 29 c5 39 a4 b2 9c b9 f1 6a 55 39
       1.0278067e-05 0.0003760538 -0.00029887736 0.00020353102
000120 17 54 ad 38 43 f0 00 b9 f5 66 ca b9 77 9d 5c b9
       8.264946e-05 -0.00012296536 -0.0003860515 -0.00021039495
000130 ea 5d 23 37 5d ce 6d 39 aa 36 f3 39 02 ac 2d 38
       9.737423e-06 0.00022678958 0.000463893 4.140661e-05
000140 9a 72 1f 37 f2 1a da b8 8a cf 00 39 dc 76 96 39
       9.503821e-06 -0.00010400069 0.00012284346 0.00028698787
000150 4d 1f 2a 39 2d 41 94 38 80 f1 e5 b9 66 0a bb b9
       0.00016224124 7.06933e-05 -0.00043858215 -0.00035675167
000160 69 d0 10 39 b1 70 d5 38 a2 5e b5 b9 fe 5e a2 b9
       0.00013810549 0.00010177622 -0.00034593517 -0.00030969823
000170 2c 87 3c 39 ac 38 37 38 c6 c1 bf b9 a3 d7 11 39
       0.00017979433 4.368338e-05 -0.0003657473 0.00013908609
000180 6f a3 c1 39 02 a2 7c b9 55 10 7f b9 f2 c8 2b 39
       0.00036933596 -0.00024092945 -0.00024324779 0.00016382689
000190 e6 73 57 39 44 dc 72 b9 02 36 b2 38 d4 d2 b1 39
       0.00020547173 -0.00023160974 8.497761e-05 0.0003391715
0001a0 7a 2f bf b9 fe 12 8b b9 07 6b cd 36 40 bb ee b8
       -0.00036465732 -0.00026526296 6.1219357e-06 -0.000113836024
0001b0 79 60 97 38 18 fc 6d b9 26 69 dd 38 08 44 fe 38
       7.2182105e-05 -0.00022695994 0.000105576866 0.000121243356
0001c0 f9 44 49 b9 0c 14 7f 39 99 14 9a b8 e6 cf 8a 38
       -0.00019194548 0.00024326163 -7.347129e-05 6.619077e-05
0001d0 1d 7e 9e 39 5a 35 50 b9 20 fe 50 b9 ef ea ad 38
       0.0003023007 -0.00019856301 -0.00019931095 8.2930426e-05
0001e0 a7 2e 90 b8 dc 60 19 3a 87 cb 53 b9 af 48 9c 39
       -6.875145e-05 0.000585092 -0.00020198348 0.00029808792
0001f0 b8 49 14 39 40 94 54 39 cf 44 ae 39 4b 85 c9 b8
       0.00014141842 0.00020273123 0.00033239133 -9.6092546e-05
000200 65 39 3c 39 33 0c da b8 d5 af 55 39 15 b9 70 b7
       0.00017950458 -0.00010397322 0.00020378765 -1.43482075e-05
000210 35 bc 90 38 89 ee 6c 38 4f 78 d4 39 39 54 9f 39
       6.9015114e-05 5.6488938e-05 0.00040525428 0.00030389594
000220 b3 92 21 b9 82 58 2f b9 89 3c 9e 38 d8 42 ac 38
       -0.00015408806 -0.00016722272 7.545303e-05 8.21405e-05
000230 96 27 62 b9 30 f1 a1 38 df 2c 38 b9 48 75 ca 39
       -0.00021567786 7.722003e-05 -0.00017564323 0.00038615824
000240 79 30 ff b8 9e 62 26 b9 73 73 16 39 a8 a5 86 b9
       -0.00012168376 -0.00015867731 0.00014348123 -0.00025681895
000250 e1 4f 38 b8 3d 93 39 39 06 9a f7 b8 f4 6a 80 39
       -4.394341e-05 0.00017697825 -0.00011806567 0.0002449375
000260 e8 a5 00 b9 4a e1 e4 b9 75 1c e8 39 57 08 65 39
       -0.00012268836 -0.00043655402 0.0004427169 0.00021842249
000270 20 bf f1 b8 87 29 80 39 a3 ee 5a 39 75 cc fc 39
       -0.00011527375 0.00024445003 0.00020878999 0.00048217518
000280 80 8d c6 b9 50 a2 43 b9 03 c3 1b 39 00 0f 26 b9
       -0.0003787093 -0.00018657115 0.000148546 -0.00015836582
000290 aa 6a d0 b6 5a 2b 63 39 97 4e b1 b9 a2 69 86 39
       -6.2113004e-06 0.00021664557 -0.00033818625 0.00025637174
0002a0 d8 08 07 38 9e f8 3d 37 30 9a 33 b8 6c 7a 6d ba
       3.2194745e-05 1.1323164e-05 -4.2820524e-05 -0.0009059075
0002b0 9f 11 e1 39 78 56 02 ba 72 92 cd 38 03 b9 7c b9
       0.00042928473 -0.00049719913 9.802439e-05 -0.00024101515
0002c0 65 41 0e ba 14 ad c2 39 ac 3b 7e b9 69 14 8c 39
       -0.00054266147 0.00037131517 -0.00024245557 0.00026718088
0002d0 7b d2 eb b8 27 95 9b 38 13 da 1a b9 ef a2 a1 36
       -0.00011244878 7.418758e-05 -0.00014767823 4.817142e-06
0002e0 a0 93 06 ba a4 ab fc b9 a1 8b d8 38 38 f9 80 38
       -0.0005133692 -0.00048193068 0.000103256905 6.149936e-05
0002f0 44 d7 80 38 33 59 18 b9 e5 2e 69 39 3f d5 11 b9
       6.143612e-05 -0.00014529079 0.00022238081 -0.00013907718
000300 82 87 8c 39 14 0f 2e ba 3d 7a 14 38 be 46 a2 b8
       0.00026803842 -0.000663982 3.5399793e-05 -7.737939e-05
000310 09 93 4b b8 56 2b 31 39 79 4f 11 b9 26 f6 15 35
       -4.853591e-05 0.0001689618 -0.00013857883 5.586502e-07
000320 f7 25 b1 37 19 1c f0 b9 52 7f f1 b9 81 cb 25 ba
       2.1117723e-05 -0.00045797302 -0.00046061963 -0.0006324575
000330 df 82 be 39 84 31 97 b9 e5 81 81 b9 10 02 93 39
       0.0003633713 -0.00028837856 -0.00024701576 0.00028039562
000340 ab b0 ec 39 9c e0 46 3a 3f 82 1d ba d4 a8 82 b9
       0.00045145056 0.000758657 -0.0006008483 -0.0002492132
000350 28 61 aa b8 da bb 73 38 b7 c9 c3 b8 4c 05 f4 39
       -8.1243285e-05 5.8110665e-05 -9.335897e-05 0.00046543253
000360 be 1b 62 b9 9f f5 98 39 4f eb e3 b9 3e 18 96 39
       -0.00021563374 0.000291747 -0.00043472133 0.0002862829
000370 94 68 fa b8 a3 ec 9b ba 54 e4 f9 39 55 85 48 ba
       -0.00011940408 -0.0011896085 0.000476631 -0.00076492626
000380 04 94 81 3a ad 06 27 ba 08 46 18 ba dc 18 01 3a
       0.0009886031 -0.0006371539 -0.00058087753 0.0004924664
000390 04 6c 0f b9 f1 86 ac 39 9e ae 7a 39 0f b7 48 39
       -0.00013677782 0.00032906936 0.00023906908 0.00019141681
0003a0 8a 37 35 ba b3 14 d3 37 ec 3b 53 ba bc 87 eb b9
       -0.0006912878 2.5162799e-05 -0.000805794 -0.00044923823
0003b0 c8 2e 2b b8 9b 85 55 b9 23 c9 57 39 de 10 5a b9
       -4.0813145e-05 -0.00020363035 0.00020578927 -0.00020796384
0003c0 5f a2 68 39 21 c1 e2 b9 75 37 41 3a 11 0c 40 ba
       0.00022185732 -0.0004324997 0.00073706295 -0.0007326017
0003d0 a5 fa 44 b8 38 fd 46 ba 2b 68 73 38 06 f7 ba b8
       -4.6963472e-05 -0.0007590833 5.803273e-05 -8.915183e-05
0003e0 7e 4a 15 ba a8 ef a4 39 98 f4 93 b8 6b ca a1 3a
       -0.0005694999 0.00031459075 -7.055065e-05 0.001234365
0003f0 d1 87 65 37 6f 87 ad b9 3b 0f 82 39 bf 77 59 3a
       1.3681086e-05 -0.00033098037 0.0002480688 0.00082957366
