models/onlyadam_q/ckpt/ckpt-4.pt (torch, 36475 bytes, 63 tensors)

qlayers.0.weights f4 [2, 1, 4, 3]
0	0x400a87b7	2.1645334
1	0x40968eca	4.7049303
2	0x3fbfe850	1.4992771
3	0x40b6238e	5.69184
4	0x409e8f90	4.9550247
5	0x40c3d79a	6.1200686
6	0x405202f6	3.2814307
7	0x402e6357	2.7248132
8	0x4058ad43	3.385575
9	0x403ed40d	2.9816926
10	0x3f6ff0d3	0.93726844
11	0x3eaf1d82	0.342022
12	0x4030a959	2.7603362
13	0x3f905350	1.1275425
14	0x4083e73d	4.1219773
15	0x40364588	2.8479939
16	0x3fef2cfe	1.8685606
17	0x40a32d9e	5.0993185
18	0x40c2987f	6.0811152
19	0x40315ab0	2.7711601
20	0x40974970	4.7277145
21	0x40229d98	2.5408688
22	0x40118901	2.273987
23	0x3fe4767c	1.7848659

qlayers.1.weights f4 [2, 1, 4, 3]
0	0x40846782	4.137635
1	0x40c6fc19	6.2182736
2	0x404b94b5	3.1809514
3	0x4030e5ba	2.7640214
4	0x407f3c76	3.9880652
5	0x3f8fdd03	1.1239322
6	0x3f28b41a	0.65899813
7	0x3fd049a7	1.6272477
8	0x407e16a9	3.970133
9	0x4072bb0e	3.792667
10	0x40a2f83d	5.0928025
11	0x403dd062	2.9658437
12	0x40b60458	5.6880302
13	0x40b16bb2	5.5443964
14	0x3f8b75fd	1.0895382
15	0x4010ea7a	2.2643113
16	0x408344fd	4.1021714
17	0x409faab4	4.989588
18	0x3ed1890a	0.40924865
19	0x40825157	4.072429
20	0x40afd8f9	5.495236
21	0x409cc07f	4.898498
22	0x3f599114	0.84986997
23	0x3f181c64	0.5941832

qlayers.2.weights f4 [2, 1, 4, 3]
0	0x40c4411e	6.132949
1	0x3f6b4148	0.91896486
2	0x40aa059b	5.3131843
3	0x409dd865	4.9326653
4	0x3f174fe4	0.5910628
5	0x40604c2a	3.5046487
6	0x403cc413	2.9494674
7	0x401fa3ad	2.494365
8	0x3fe74d39	1.8070441
9	0x4004801c	2.0703192
10	0x40c3684f	6.106483
11	0x3d2a6610	0.04160124
12	0x3fc1414d	1.5098053
13	0x408c9556	4.3932295
14	0x4095db0b	4.6829886
15	0x3ff603c4	1.9219899
16	0x3fde7f08	1.7382517
17	0x3f9e2fac	1.2358298
18	0x406b4ed9	3.6766875
19	0x4082aaa6	4.083331
20	0x3fbf7919	1.4958831
21	0x3ff83acc	1.9392943
22	0x40022d4d	2.034015
23	0x4029cd1b	2.6531436

clayers.0.0.weight f4 [10, 2]
0	0x3cc86aed	0.024465049
1	0x3ecf15ed	0.40446416
2	0x3f12f0fd	0.5739897
3	0xbf2e5600	-0.68099976
4	0xbe05b025	-0.13055475
5	0x3dcb72a8	0.09933978
6	0x3e3920e2	0.1807895
7	0x3dd3251e	0.10309814
8	0x3e9f6669	0.3113282
9	0xbcdda049	-0.027053969
10	0xbcd1395f	-0.025540052
11	0x3e1f9f82	0.15588191
12	0xbe8baaa3	-0.27278623
13	0xbe8dff99	-0.27734068
14	0x3eb5045d	0.3535489
15	0x3ef1015b	0.47071347
16	0x3eae5d17	0.34055397
17	0x3e9473b2	0.2899452
18	0x3f24386c	0.6414859
19	0x3e9c6f98	0.3055389

clayers.0.0.bias f4 [10]
0	0x3e1901ca	0.14942089
1	0x3ded1f1f	0.115782015
2	0xbe6bae13	-0.23015623
3	0xbe8a869c	-0.27055824
4	0xbe939b35	-0.2882935
5	0x3e37f1c8	0.17963326
6	0xbe2d5376	-0.16926369
7	0x3ef3d11a	0.4762047
8	0x3ef58ae2	0.47957522
9	0x3dec4ad1	0.115377076

clayers.0.2.weight f4 [10, 10]
0	0x3e1efbba	0.15525714
1	0xbdac7661	-0.084210165
2	0xbe833207	-0.25624105
3	0xbe461730	-0.19344783
4	0xbe660888	-0.22464192
5	0xba40e2e7	-0.000735803
6	0x3e47ad02	0.19499591
7	0xbe83a37e	-0.25710672
8	0x3e9c46d4	0.30522788
9	0xbd25bf67	-0.04046574
10	0xbe87a519	-0.26493147
11	0xbe987ee5	-0.29784313
12	0xbe0390ec	-0.12848252
13	0xbe830d30	-0.25596
14	0xbe5eac84	-0.21745497
15	0x3e14880b	0.14505021
16	0xbdfd85cd	-0.12379036
17	0x3e8f8910	0.28034258
18	0x3d81cdc5	0.063380755
19	0xbe89e935	-0.26935735
20	0x3e587078	0.21136653
21	0xbe734562	-0.23756936
22	0xbe0ce02e	-0.13757393
23	0xbcfc5f4f	-0.030807165
24	0xbd8def25	-0.06930379
25	0xbe4535b0	-0.19258761
26	0x3e9e2d52	0.30893952
27	0xbe8c725a	-0.27430993
28	0x3dfd221f	0.12360024
29	0xbdc01b3f	-0.09380197
30	0x3e78a057	0.24279915
31	0xbe6f7d7a	-0.2338771
32	0xbd8aca65	-0.06776885
33	0x3e63d6bd	0.22249885
34	0xbe9a1469	-0.30093697
35	0xbda6dbb6	-0.08147375
36	0xbe461592	-0.19344166
37	0xbe49a0ab	-0.19690196
38	0x3e9cb691	0.30608037
39	0x3ddfd925	0.10930089
40	0x3e97a36b	0.29616866
41	0x3e4b9348	0.19880402
42	0xbc02af3d	-0.00797635
43	0x3d80f892	0.06297411
44	0x3e0ca0ec	0.13733262
45	0xbe9aa1be	-0.30201524
46	0xbd8f6f5c	-0.07003662
47	0xbe73d0bd	-0.23810096
48	0x3e416072	0.18884447
49	0xbe9be1cd	-0.3044571
50	0x3e106305	0.14100273
51	0xbdc09037	-0.09402507
52	0x3dcdc9bf	0.10048246
53	0x3e4b7bdb	0.19871466
54	0x3d4de44a	0.05026654
55	0xbe04dcc8	-0.12974846
56	0xbe7a1e03	-0.24425511
57	0xbd44b0ab	-0.048020046
58	0xbe79f0e1	-0.24408294
59	0xbc18cc41	-0.009326042
60	0xbe8ddeb7	-0.2770898
61	0x3ce1ea05	0.02757741
62	0x3e7646d3	0.24050455
63	0x3e12cf56	0.14336905
64	0x3e7708c5	0.24124439
65	0x3e0888ea	0.13333479
66	0x3e00b439	0.1256875
67	0x3e8a2a08	0.26985192
68	0xbe54f401	-0.20796205
69	0x3e1dd73c	0.15414137
70	0x3e6975e9	0.22798885
71	0x3d365d0c	0.04452233
72	0x3e1e114e	0.15436289
73	0x3e936ed7	0.28795502
74	0x3c0aa03e	0.008461056
75	0xbc8f7605	-0.01751233
76	0x3d5b9bde	0.053615443
77	0xbe969b85	-0.29415527
78	0x3ca600a9	0.020263987
79	0xbe8233bb	-0.25430092
80	0x3d84e72e	0.064894065
81	0x3e850ed5	0.25987878
82	0xbcdda4e8	-0.027056172
83	0x3e51974a	0.20467868
84	0xbe1ad519	-0.15120353
85	0xbcb13242	-0.02163041
86	0xbddaf45f	-0.10691141
87	0x3b510666	0.0031894683
88	0x3e880409	0.2656558
89	0xbe93c5b1	-0.28861764
90	0x3e7379c7	0.23776923
91	0x3e15b3a4	0.14619309
92	0x3c65ca6e	0.014025314
93	0xbe861e43	-0.26194963
94	0x3c64a1dd	0.013954607
95	0x3e436586	0.19081697
96	0x3e7ddfc6	0.24792394
97	0x3db502fd	0.088384606
98	0x3dc7c7b5	0.09754888
99	0x3e6f23b6	0.23353466

clayers.0.2.bias f4 [10]
0	0x3e49caa1	0.19706203
1	0x3c96a9a9	0.018391447
2	0x3d24fbc5	0.04027917
3	0x3e84d73f	0.2594547
4	0xbd98cb82	-0.07460691
5	0x3e16fb9f	0.14744423
6	0x3e3c35c8	0.18379891
7	0x3e9ec8cf	0.3101258
8	0x3dc366c7	0.095410876
9	0xbe747d21	-0.23875858

clayers.0.4.weight f4 [1, 10]
0	0x3e38b89a	0.1803917
1	0xbea2b5ec	-0.3177942
2	0x3e8c07bb	0.27349648
3	0xbda340f8	-0.07971376
4	0x3dfd4b47	0.12367874
5	0x3dfbdf1c	0.12298414
6	0x3e6a532d	0.22883292
7	0xbe16b0c2	-0.14715865
8	0xbd3d34dd	-0.046192992
9	0xbe574b80	-0.21024895

clayers.1.0.weight f4 [10, 2]
0	0x3e44e01d	0.19226117
1	0x3eb4e8ff	0.35334012
2	0xbe9dfd1e	-0.30857176
3	0xbe9396f5	-0.2882611
4	0x3e6b25a9	0.22963585
5	0xbd3b4136	-0.045716487
6	0xbebec7ba	-0.37261754
7	0x3f2e5e9d	0.6811312
8	0x3f1bfa9b	0.6092927
9	0xbec33982	-0.38129812
10	0x3eee5839	0.46551684
11	0x3ef6d5ba	0.48209935
12	0x3e04e8da	0.12979451
13	0xbf2af39f	-0.66777986
14	0xbe876cbe	-0.2645015
15	0x3ec11305	0.37709823
16	0x3eb4867a	0.35258847
17	0x3f140ae4	0.5782912
18	0xbeee19af	-0.4650397
19	0xbea2e253	-0.31813297

clayers.1.0.bias f4 [10]
0	0x3f05e60d	0.52304155
1	0xbe2c63eb	-0.1683499
2	0x3e8ac977	0.2710683
3	0x3e71eed2	0.23626259
4	0x3f327aeb	0.6971881
5	0x3f1b6af4	0.6071007
6	0x3e155731	0.14584042
7	0xbea01538	-0.3126619
8	0xbf260655	-0.6485341
9	0x3f123adf	0.5712108

clayers.1.2.weight f4 [10, 10]
0	0x3dc7c6b0	0.097546935
1	0xbe6f6ad2	-0.23380592
2	0x3e2726b4	0.16323358
3	0x3e863f07	0.2621996
4	0xbe7354c9	-0.23762812
5	0x3e48766c	0.19576424
6	0x3e8fbc92	0.28073555
7	0xbe3c3bb4	-0.1838215
8	0x3e9484d0	0.29007578
9	0xbe81fa9c	-0.25386512
10	0x3e62eb95	0.2216018
11	0xbddd0134	-0.10791245
12	0x3e6c67fd	0.23086543
13	0xbdef7aab	-0.11693319
14	0x3e9fd270	0.3121524
15	0xbdb101e9	-0.086429425
16	0xbdb72afb	-0.08943745
17	0xbe4d660e	-0.20058462
18	0x3e4b8e57	0.19878517
19	0x3e81aa0f	0.25325057
20	0xbe1ca035	-0.15295489
21	0x3d2138dd	0.03936087
22	0xbdefcca7	-0.11708956
23	0xbe8549ca	-0.2603286
24	0xbe80dae0	-0.25166988
25	0xbd43f368	-0.047839552
26	0xbe7eaaea	-0.24869886
27	0xbd829457	-0.0637595
28	0x3e32431b	0.17408411
29	0xbe2e967e	-0.17049596
30	0x3e841cc3	0.25803193
31	0xbda42a6b	-0.08015903
32	0xbe64acb9	-0.22331513
33	0xbdbc5c80	-0.091973305
34	0x3db83b2d	0.08995662
35	0xbe3b05e6	-0.18263969
36	0xbe350574	-0.17677861
37	0xbd8de760	-0.06928897
38	0xbdd19063	-0.10232618
39	0x3ea27b1c	0.3173455
40	0xbe15686b	-0.14590614
41	0xbdbf95a7	-0.09354716
42	0xbda8ea37	-0.08247798
43	0xbe10a3b4	-0.14124948
44	0x3d9f74cd	0.0778595
45	0x3e644a8a	0.2229406
46	0xbe9e02ee	-0.3086161
47	0x3e001cbf	0.12510966
48	0x3c2c53c6	0.01051802
49	0xbda6e2ab	-0.08148702
50	0x3e804036	0.2504899
51	0xbe6d5372	-0.23176363
52	0xbe904a73	-0.281818
53	0x3dc5df96	0.09661786
54	0x3d8197c1	0.06327773
55	0xbe772a02	-0.24137118
56	0x3e97ce41	0.29649547
57	0x3dc51d8c	0.09624776
58	0x3d07f56a	0.03319303
59	0x3d9aeb0b	0.07564362
60	0x3e27dd02	0.16392902
61	0xbe9fe678	-0.3123052
62	0x3e28f3f7	0.16499315
63	0x3e87f7f9	0.26556376
64	0xbe97955e	-0.29606146
65	0x3e6a103c	0.22857755
66	0xbe749b0b	-0.23887269
67	0x3bc067a5	0.0058717304
68	0x3dad176e	0.084517345
69	0xbe761554	-0.24031574
70	0x3dc2329b	0.094823085
71	0xbe3b42fa	-0.18287268
72	0xbdb58c81	-0.088646896
73	0xbd326e34	-0.04356213
74	0x3e338547	0.1753131
75	0x3c541600	0.012944698
76	0x3e8f3db0	0.2797675
77	0xbe7464c2	-0.23866561
78	0xbe5aacfa	-0.21355048
79	0x3e16a035	0.14709552
80	0xbe970fc8	-0.29504228
81	0xbe7de078	-0.2479266
82	0xbd19c936	-0.037545405
83	0x3e28b6f1	0.16476037
84	0xbe5c09d9	-0.21488132
85	0xbcef1189	-0.029183166
86	0xbe486fa5	-0.19573839
87	0xbe1e5926	-0.15463695
88	0x3e48d58e	0.19612715
89	0xbe435e4e	-0.19078943
90	0xbdbacd6a	-0.09121211
91	0xbe6a4b43	-0.22880273
92	0x3cb883e4	0.022523828
93	0x3e906b3e	0.2820682
94	0x3d180d1c	0.037121877
95	0xbe9e8afb	-0.3096541
96	0xbe684166	-0.22681198
97	0xbe09c8ee	-0.13455555
98	0x3d9666dd	0.07343838
99	0x3e0a95c0	0.13533688

clayers.1.2.bias f4 [10]
0	0x3e406c3e	0.18791291
1	0x3d6431d5	0.055711586
2	0x3d6701ea	0.05639831
3	0x3d7c04ea	0.061528124
4	0x3e7c6f95	0.2465194
5	0x3e659411	0.22419764
6	0xbe82c8a0	-0.2554369
7	0xbe7cb50f	-0.24678443
8	0xbe259730	-0.16170955
9	0xbe1cb5a3	-0.15303664

clayers.1.4.weight f4 [1, 10]
0	0x3e8708fb	0.2637404
1	0x3e4f4c2f	0.20243905
2	0xbe0c100f	-0.13678001
3	0x3e2865b4	0.16445047
4	0xbe108297	-0.14112316
5	0x3cae567a	0.02128147
6	0xbe71f295	-0.23627694
7	0x3d94331e	0.07236312
8	0x3d8c42a3	0.068486474
9	0x3dac05e6	0.083995625

clayers.2.0.weight f4 [10, 2]
0	0x3e0c89e0	0.1372447
1	0x3df436fb	0.11924549
2	0x3ec6a058	0.38794208
3	0x3d949766	0.072554395
4	0x3d437516	0.047719084
5	0xbe9a8dc2	-0.30186278
6	0x3e8bcc47	0.2730429
7	0xbf0e5c22	-0.55609334
8	0x3e819b4b	0.25313792
9	0x3dda3b08	0.106557906
10	0xbed22a8b	-0.41048083
11	0xbf1c00c2	-0.60938656
12	0xbe0910d9	-0.13385333
13	0xbe949e11	-0.29026845
14	0xbedd93de	-0.43276876
15	0xbdd0f0db	-0.102021895
16	0x3f27cd5a	0.65547717
17	0xbb13c43d	-0.0022547387
18	0x3e97b850	0.29632807
19	0xbe4befa3	-0.19915633

clayers.2.0.bias f4 [10]
0	0x3ee01a37	0.4377
1	0x3d947838	0.072494924
2	0xbeb25b4b	-0.34835276
3	0xbf2937a5	-0.6610053
4	0x3da316c2	0.07963325
5	0xbc6232d9	-0.013806068
6	0xbf0f4a4e	-0.55972755
7	0x3e3beef0	0.18352866
8	0xbeee3b00	-0.46529388
9	0xbf142f84	-0.57885003

clayers.2.2.weight f4 [10, 10]
0	0xbe081e95	-0.13292916
1	0xbb98601e	-0.00465013
2	0xbe6214b1	-0.22078206
3	0xbe4f3206	-0.20233926
4	0xbdf144c9	-0.11780698
5	0x3deab638	0.11460537
6	0x3e6f2621	0.23354389
7	0x3cd2fc56	0.025755089
8	0xbbb60452	-0.0055547142
9	0xbe885e8e	-0.2663464
10	0x3e03ff3a	0.1289033
11	0x3dd3b3e8	0.10337049
12	0xbe630659	-0.2217039
13	0x3e601d55	0.2188619
14	0xbde180ff	-0.11010932
15	0xbccced73	-0.025015568
16	0x3c2cf6d8	0.010556899
17	0x3e13d3f4	0.14436322
18	0xbe13f935	-0.14450534
19	0xbe26c56b	-0.16286246
20	0x3e3de079	0.18542661
21	0x3e5d4d9c	0.21611637
22	0xbd3a3f1f	-0.045470353
23	0xbe7711aa	-0.24127832
24	0x3e79b243	0.24384408
25	0xbdb24164	-0.087038785
26	0xbe02fabd	-0.12790962
27	0x3d127650	0.035757363
28	0x3ce20ac9	0.027593033
29	0x3d573885	0.052544136
30	0x3cd8a54a	0.026446003
31	0xbe85d37c	-0.26137912
32	0xbd727826	-0.059196614
33	0xbe17e007	-0.14831553
34	0xbd364071	-0.04449505
35	0xbb3e61f9	-0.0029050095
36	0xbce8e049	-0.02842726
37	0x3d12bf30	0.03582686
38	0xbdd02c37	-0.10164683
39	0xbd90fe55	-0.0707976
40	0xbda32886	-0.079667136
41	0xbc56d77c	-0.013112899
42	0xbe758f2d	-0.23980398
43	0xbe620075	-0.22070487
44	0x3e7fe9b6	0.24991497
45	0x3e9b4380	0.30324936
46	0xbd688b6b	-0.056773584
47	0xbca1c7e0	-0.019748628
48	0xbe63c448	-0.22242844
49	0x3e168138	0.1469773
50	0x3d352e5d	0.04423367
51	0x3e127a31	0.14304425
52	0xbe1a87b3	-0.15090828
53	0x3d3162aa	0.043306984
54	0x3e915723	0.28386793
55	0xbdfe1a62	-0.12407376
56	0x3e0000ea	0.12500349
57	0x3e249da8	0.16075766
58	0xbe9811bd	-0.29701033
59	0x3e9ef0fd	0.31043234
60	0xbca9dc0c	-0.02073481
61	0xbdde003c	-0.108398885
62	0xbdba5cde	-0.09099744
63	0x3e94aa2f	0.2903609
64	0xbe002001	-0.12512209
65	0xbda9d8ad	-0.08293281
66	0xbdc55623	-0.0963557
67	0xbe2f7f39	-0.17138375
68	0xbe43d8d9	-0.1912569
69	0xbc2a55ad	-0.010396403
70	0xbd9c79ce	-0.0764042
71	0xbe1ff91c	-0.15622371
72	0x3cf68219	0.030091332
73	0xbcb9fbd8	-0.022703096
74	0x3e05702b	0.1303107
75	0xbe211dfd	-0.15734096
76	0x3e8dd4b7	0.2770135
77	0xbe0239bc	-0.12717336
78	0x3aff3873	0.0019471779
79	0x3e91a1a4	0.28443635
80	0xbdb7bd96	-0.089717075
81	0x3e36ba4f	0.17844509
82	0xbd5b5e88	-0.05355695
83	0xbe03c484	-0.12867934
84	0xbe50d9c9	-0.20395578
85	0x3e304285	0.17212875
86	0x3e86d9dd	0.26338091
87	0x3e37f4c2	0.17964461
88	0xbb38870d	-0.0028156668
89	0xbe408f2d	-0.18804617
90	0x3e94231a	0.2893303
91	0x3d803a20	0.062610865
92	0xbe5d510e	-0.21612951
93	0xbe1684f6	-0.14699158
94	0xbe611a20	-0.21982622
95	0xbe24356e	-0.16036007
96	0xbde46373	-0.11151781
97	0x3d92c12d	0.071657516
98	0xbe060f3d	-0.1309175
99	0xbd99b9b5	-0.07506124

clayers.2.2.bias f4 [10]
0	0xbe796cd6	-0.24357924
1	0x3d93f51f	0.072244875
2	0xbe59aaab	-0.21256511
3	0xbe941cb5	-0.28928152
4	0xbc815ebf	-0.015792249
5	0xbe577980	-0.21042442
6	0xbe567147	-0.2094165
7	0xbe9f0e39	-0.3106554
8	0xbe76ea19	-0.24112739
9	0x3daa49b3	0.08314838

clayers.2.4.weight f4 [1, 10]
0	0xbe69bef9	-0.22826757
1	0x3e48c9c5	0.19608219
2	0x3e995ca9	0.29953507
3	0x3e00c8c5	0.12576587
4	0x3b9ad22d	0.004724762
5	0x3e94bd78	0.29050803
6	0x3e8d1222	0.27552897
7	0xbe923034	-0.285524
8	0xbe81a69e	-0.2532243
9	0xbe02c521	-0.12770511

addups.0.weight f4 [1, 3]
0	0x3e4224d3	0.1895936
1	0x3f06950c	0.5257118
2	0xbe831db8	-0.2560861

addups.1.weight f4 [1, 3]
0	0x3da35505	0.079752006
1	0xbdcb65ee	-0.09931551
2	0x3eeebf15	0.4663016

addups.2.weight f4 [1, 3]
0	0xbebb8eb3	-0.36632308
1	0x3d714746	0.058905862
2	0xbee72db3	-0.45152053

exp_avg f4 [2, 1, 4, 3]
0	0xa39af372	-1.6799817e-17
1	0x39a1dde9	0.0003087365
2	0x3df0177e	0.11723231
3	0xa1eb5687	-1.5947123e-18
4	0x3ce1ac44	0.027547963
5	0xbc1858c9	-0.009298512
6	0xa2d13567	-5.6706105e-18
7	0x3d10f701	0.03539181
8	0xba8352ac	-0.0010019145
9	0xa1a1c3c8	-1.0961607e-18
10	0x3d2bd018	0.0419465
11	0x3d3347c8	0.043769628
12	0x203511a5	1.5337134e-19
13	0xa0cf1094	-3.5078134e-19
14	0x2185c11b	9.063545e-19
15	0x3d277d3a	0.04089091
16	0x3c875f0a	0.01652481
17	0x9e3c0db5	-9.955472e-21
18	0xbcc3e5b9	-0.023913251
19	0x3c61c7e9	0.013780572
20	0x1f50c5fe	4.420949e-20
21	0xbceeedce	-0.029166128
22	0xbd7e6c9a	-0.06211529
23	0x00000000	0.0

exp_avg_sq f4 [2, 1, 4, 3]
0	0x0676b52f	4.640057e-35
1	0x315ad872	3.184621e-09
2	0x39f3a16a	0.00046468835
3	0x052c383e	8.097731e-36
4	0x37d89d58	2.5822475e-05
5	0x3643bab8	2.916595e-06
6	0x047ed33d	2.9954552e-36
7	0x3831bb5d	4.2374584e-05
8	0x3314e709	3.466906e-08
9	0x023daa61	1.3934423e-37
10	0x387999e2	5.950954e-05
11	0x38883b7b	6.4960645e-05
12	0x0294078e	2.1750982e-37
13	0x0103942c	2.4167208e-38
14	0x01a624b6	6.1031447e-38
15	0x386d9bd7	5.665034e-05
16	0x371a8265	9.209475e-06
17	0x00d54158	1.9584402e-38
18	0x37a246e1	1.934491e-05
19	0x36d70852	6.408468e-06
20	0x0093a57a	1.355918e-38
21	0x37f14458	2.8761264e-05
22	0x3908f132	0.00013059823
23	0x00000000	0.0

exp_avg f4 [2, 1, 4, 3]
0	0x1f69c78f	4.950474e-20
1	0xba0cb4eb	-0.0005367535
2	0xb6cf54cb	-6.178952e-06
3	0x9fb0e99d	-7.492538e-20
4	0x3a350387	0.00069051277
5	0xb94df4c9	-0.00019641513
6	0x1f4d194f	4.3431373e-20
7	0xb91e501f	-0.00015097902
8	0x38e67d53	0.00010990598
9	0x1f02e2dc	2.7716224e-20
10	0xb896514b	-7.1676994e-05
11	0xbb25a46b	-0.0025275003
12	0x1e739911	1.2895966e-20
13	0x9e0b058f	-7.359748e-21
14	0x1ee89e88	2.4629522e-20
15	0xb81487d9	-3.5412468e-05
16	0x393383f7	0.00017119931
17	0x1ed419ce	2.2457046e-20
18	0xb8feabc5	-0.000121436584
19	0xb97fcd07	-0.00024395074
20	0x1d021eaa	1.722121e-21
21	0x39633a54	0.00021670136
22	0xb93360c3	-0.00017106817
23	0x00000000	0.0

exp_avg_sq f4 [2, 1, 4, 3]
0	0x0002f6c2	2.72191e-40
1	0x32294065	9.851736e-09
2	0x2bb7ee98	1.3069155e-12
3	0x0004fd0d	4.5812e-40
4	0x328c98aa	1.6367569e-08
5	0x30b59abe	1.3213464e-09
6	0x000d05af	1.1959e-39
7	0x305752bf	7.8334134e-10
8	0x2fe4836f	4.1566348e-10
9	0x000424f1	3.80594e-40
10	0x2f3f2e30	1.7387758e-10
11	0x346ba5cc	2.1946397e-07
12	0x00002479	1.3084e-41
13	0x00017fc8	1.37675e-40
14	0x00005b3a	3.2726e-41
15	0x2e3b5c28	4.260073e-11
16	0x308934de	9.983088e-10
17	0x00006d9e	3.9323e-41
18	0x300a954a	5.041626e-10
19	0x310cefb6	2.0508941e-09
20	0x000029c4	1.4983e-41
21	0x30de864f	1.6190799e-09
22	0x30895373	9.99178e-10
23	0x00000000	0.0

exp_avg f4 [2, 1, 4, 3]
0	0x1e38cfd4	9.783857e-21
1	0xbb754702	-0.0037426357
2	0x3bbcefe6	0.005765903
3	0x9f278083	-3.5469928e-20
4	0xbab44d21	-0.0013755896
5	0xba681472	-0.0008853144
6	0xa0b6cd5a	-3.096789e-19
7	0x3aa19b30	0.0012329575
8	0xbb08b1a8	-0.0020857845
9	0x1ffc914c	1.06966525e-19
10	0x3a9650f2	0.0011468215
11	0x3a838c1d	0.0010036264
12	0x1f4c321a	4.3240123e-20
13	0x9f019ad8	-2.7444896e-20
14	0x1f944e2c	6.280976e-20
15	0x3baa09aa	0.0051891403
16	0x3ba26ee5	0.0049570673
17	0x1d4fc804	2.7499628e-21
18	0xbab6a42d	-0.0013934426
19	0xbafeed05	-0.00194493
20	0x1db94776	4.904298e-21
21	0xbb847392	-0.0040420974
22	0xba45595b	-0.00075282686
23	0x00000000	0.0

exp_avg_sq f4 [2, 1, 4, 3]
0	0x01e35cee	8.351998e-38
1	0x34fd1194	4.7137712e-07
2	0x35967108	1.1208767e-06
3	0x0062c699	9.071122e-39
4	0x338901d4	6.379892e-08
5	0x32e2d0ac	2.6404756e-08
6	0x0058ce4c	8.155529e-39
7	0x335bd6ea	5.1185374e-08
8	0x341d6712	1.4659261e-07
9	0x002ae510	3.939263e-39
10	0x333e2910	4.427517e-08
11	0x33118f90	3.3891013e-08
12	0x0000ea15	8.3973e-41
13	0x0000616f	3.4953e-41
14	0x0003811a	3.2182e-40
15	0x3573e0c6	9.085164e-07
16	0x355e1829	8.27366e-07
17	0x000266e2	2.20578e-40
18	0x338c9f11	6.548192e-08
19	0x34088484	1.2714196e-07
20	0x00005f34	3.4152e-41
21	0x3513bdcf	5.5037975e-07
22	0x32a2dd70	1.895998e-08
23	0x00000000	0.0

exp_avg f4 [10, 2]
0	0xbb0feaa4	-0.0021959925
1	0xbb924128	-0.0044633336
2	0xb9bade3c	-0.00035642262
3	0x3a253cf4	0.0006303333
4	0x00000000	0.0
5	0x00000000	0.0
6	0x3b0d8f4b	0.0021600302
7	0x3b489878	0.0030608457
8	0x3ab40a81	0.001373604
9	0x3a294795	0.0006457505
10	0xba175d5e	-0.00057741057
11	0xbba9eb76	-0.00518554
12	0xba9f531d	-0.0012155507
13	0xbaaf3fa1	-0.0013370403
14	0xba40b52d	-0.0007351216
15	0xbbee4099	-0.0072708842
16	0xbb024294	-0.001987611
17	0xbbe91f54	-0.0071143303
18	0x3adcfb30	0.0016859528
19	0x3c193981	0.009352089

exp_avg_sq f4 [10, 2]
0	0x342f65ca	1.6335176e-07
1	0x3533aa66	6.693066e-07
2	0x31977a94	4.408614e-09
3	0x3263da5a	1.3262786e-08
4	0x00000000	0.0
5	0x00000000	0.0
6	0x342ad536	1.591005e-07
7	0x34abeea4	3.2024866e-07
8	0x33925d38	6.815611e-08
9	0x32979efb	1.765101e-08
10	0x323fbe30	1.1160907e-08
11	0x3571958c	8.9997116e-07
12	0x3356ebae	5.0040107e-08
13	0x338323cd	6.106675e-08
14	0x329afc7b	1.8042774e-08
15	0x35ee9ef1	1.777864e-06
16	0x340f61c4	1.335348e-07
17	0x35e3bc61	1.6967643e-06
18	0x33ce05dc	9.593688e-08
19	0x3646bdc0	2.9614748e-06

exp_avg f4 [10]
0	0xbb8e559a	-0.0043437006
1	0xbac524f7	-0.0015040924
2	0x00000000	0.0
3	0x3b16ad94	0.0022991644
4	0x3ab108d8	0.0013506664
5	0xbb5c2dd7	-0.0033596659
6	0x3b390d0d	0.0028236539
7	0xbb1a0d70	-0.0023506545
8	0xbc13950b	-0.009007703
9	0x3becb3ba	0.0072235735

exp_avg_sq f4 [10]
0	0x352a94ad	6.3546287e-07
1	0x33a54c74	7.697318e-08
2	0x00000000	0.0
3	0x3441e1ba	1.8056645e-07
4	0x338d7fb3	6.5890525e-08
5	0x34ca28ac	3.7655025e-07
6	0x34916170	2.707925e-07
7	0x3446411f	1.8463878e-07
8	0x36368587	2.7197837e-06
9	0x35ed19be	1.7665368e-06

exp_avg f4 [10, 10]
0	0x3c48c609	0.0122542465
1	0x3bcd3248	0.0062620975
2	0x00000000	0.0
3	0x39344c2c	0.00017194514
4	0x38e91ba5	0.00011115455
5	0x3bfd9ff7	0.0077400166
6	0x39befb83	0.00036427015
7	0x3cc8f32c	0.024530016
8	0x3cadc7bf	0.02121341
9	0x3c6d7b11	0.014494673
10	0xbca19a84	-0.019727
11	0xba3a96e0	-0.0007117819
12	0x00000000	0.0
13	0xb999f3f1	-0.00029364185
14	0xb765b04b	-1.369051e-05
15	0xbc340e11	-0.010989682
16	0xb97df696	-0.0002421982
17	0xbd08e455	-0.03342088
18	0xbcda72b1	-0.026666017
19	0xbc9763b5	-0.018480161
20	0xb7852bf9	-1.5875312e-05
21	0x3a0a2537	0.00052698277
22	0x00000000	0.0
23	0x00000000	0.0
24	0x00000000	0.0
25	0x39f292a9	0.00046267107
26	0x39bb6e74	0.00035749713
27	0x39b5d9c1	0.0003468525
28	0x3a36a536	0.00069673674
29	0x00000000	0.0
30	0xbba9eb7b	-0.005185542
31	0xbb2da973	-0.0026498705
32	0x00000000	0.0
33	0xb89844e8	-7.2607596e-05
34	0xb844be32	-4.6907175e-05
35	0xbb56aa32	-0.0032755253
36	0xb9218971	-0.00015405357
37	0xbc2a0f67	-0.010379649
38	0xbc131169	-0.008976319
39	0xbbc8f1f2	-0.0061323578
40	0x00000000	0.0
41	0x37ae416c	2.077288e-05
42	0x00000000	0.0
43	0x00000000	0.0
44	0x00000000	0.0
45	0x368b2761	4.147107e-06
46	0x00000000	0.0
47	0x373ae4b0	1.1139709e-05
48	0x377d2345	1.5088187e-05
49	0x34c14f1c	3.600661e-07
50	0x3996cc9c	0.00028762675
51	0x3a8df89c	0.0010831538
52	0x00000000	0.0
53	0x00000000	0.0
54	0x00000000	0.0
55	0x3a2e8e43	0.0006658772
56	0x3982fefa	0.00024985505
57	0x3a87b006	0.0010352142
58	0x3ab005d4	0.0013429471
59	0xb80b49c6	-3.320889e-05
60	0x3c7dfcf4	0.015502203
61	0x3c01caa1	0.007921846
62	0x00000000	0.0
63	0x39640e15	0.0002174902
64	0x39136bcc	0.0001405917
65	0x3c206ca8	0.009791531
66	0x39f197c7	0.00046080185
67	0x3cfe35d7	0.031031532
68	0x3cdbd6f0	0.026835889
69	0x3c9635d5	0.018336216
70	0xbb8feb7c	-0.0043920856
71	0xbb77d655	-0.003781696
72	0x00000000	0.0
73	0x00000000	0.0
74	0xb7c97c74	-2.401902e-05
75	0xbb578efe	-0.0032891626
76	0xb9973b7d	-0.00028845287
77	0xbc0c0017	-0.008544943
78	0xbbfd3327	-0.007727045
79	0xbb5bda96	-0.0033547035
80	0xbb4087fe	-0.0029377933
81	0xbac4c541	-0.00150124
82	0x00000000	0.0
83	0xb82c55f0	-4.108803e-05
84	0xb7de97c6	-2.6535137e-05
85	0xbaf33d62	-0.0018557722
86	0xb8b6f94a	-8.72487e-05
87	0xbbc0af4b	-0.0058802716
88	0xbba6a262	-0.0050852755
89	0xbb63a8f5	-0.0034738157
90	0xbc53df77	-0.012931696
91	0xbb890cba	-0.0041824253
92	0x00000000	0.0
93	0xb94cd3e0	-0.00019533886
94	0xb9045d2a	-0.00012623207
95	0xbbec6871	-0.007214599
96	0x00000000	0.0
97	0xbccbbafc	-0.024869435
98	0xbca8c264	-0.020600505
99	0xbc848d68	-0.016180709

exp_avg_sq f4 [10, 10]
0	0x36aaabe8	5.0864073e-06
1	0x35b249b4	1.3283484e-06
2	0x00000000	0.0
3	0x308ec9e3	1.038924e-09
4	0x2ff26470	4.409091e-10
5	0x36080dd7	2.0273635e-06
6	0x319bba82	4.532297e-09
7	0x37ab15f5	2.0395013e-05
8	0x377fe088	1.5251462e-05
9	0x36ef6bf1	7.135321e-06
10	0x375c46a0	1.31294655e-05
11	0x32917727	1.6934406e-08
12	0x00000000	0.0
13	0x314e2818	2.9999736e-09
14	0x2d123a5f	8.3121e-12
15	0x3688a25f	4.0720183e-06
16	0x31090f27	1.9944737e-09
17	0x381e0b4a	3.768065e-05
18	0x37c92cd4	2.3981942e-05
19	0x37416640	1.1527503e-05
20	0x2d89657b	1.5620163e-11
21	0x32252395	9.6123545e-09
22	0x00000000	0.0
23	0x00000000	0.0
24	0x00000000	0.0
25	0x31f88629	7.233002e-09
26	0x3197f848	4.4229047e-09
27	0x318a8721	4.031691e-09
28	0x328d0099	1.6414832e-08
29	0x00000000	0.0
30	0x35734e56	9.063855e-07
31	0x347e284e	2.3670256e-07
32	0x00000000	0.0
33	0x2f49dd7f	1.8359535e-10
34	0x2eaae7c3	7.771874e-11
35	0x34c20342	3.6137686e-07
36	0x305d78a3	8.0570767e-10
37	0x3673d84e	3.6335728e-06
38	0x36365a65	2.717273e-06
39	0x35aa8469	1.2704523e-06
40	0x00000000	0.0
41	0x2eb204b4	8.095338e-11
42	0x00000000	0.0
43	0x00000000	0.0
44	0x00000000	0.0
45	0x2c630b7e	3.226502e-12
46	0x00000000	0.0
47	0x2dccc6a7	2.3280334e-11
48	0x2e3bd5a5	4.2708632e-11
49	0x28db1392	2.4322372e-14
50	0x317b95b0	3.6610395e-09
51	0x332c51ef	4.012139e-08
52	0x00000000	0.0
53	0x00000000	0.0
54	0x00000000	0.0
55	0x327e8b9f	1.4816492e-08
56	0x3112a907	2.1341877e-09
57	0x331b9cbb	3.6231295e-08
58	0x33811aa1	6.0118744e-08
59	0x2ea613a6	7.552296e-11
60	0x3708859f	8.137343e-06
61	0x360e9d36	2.1251158e-06
62	0x00000000	0.0
63	0x30e45176	1.6612336e-09
64	0x3041c2fe	7.049009e-10
65	0x3659aa82	3.2434768e-06
66	0x31f919c4	7.249783e-09
67	0x3808d9fd	3.2627944e-05
68	0x37ccad23	2.4399318e-05
69	0x373f8191	1.1414654e-05
70	0x352dfd14	6.48158e-07
71	0x35013294	4.8129846e-07
72	0x00000000	0.0
73	0x00000000	0.0
74	0x2da9b831	1.9294873e-11
75	0x34c33f0f	3.6367462e-07
76	0x31427c4e	2.8301375e-09
77	0x3624b165	2.4541162e-06
78	0x3606b6a1	2.007386e-06
79	0x34cae76e	3.779382e-07
80	0x349bd46b	2.9025554e-07
81	0x33a2c707	7.579916e-08
82	0x00000000	0.0
83	0x2e80b423	5.852765e-11
84	0x2dd9a0ae	2.47414e-11
85	0x33f88e8f	1.1574331e-07
86	0x2f8da93f	2.5768007e-10
87	0x359c2830	1.1634602e-06
88	0x35698f2b	8.70076e-07
89	0x34da531d	4.0666137e-07
90	0x36bd3811	5.639166e-06
91	0x351e4cfa	5.89716e-07
92	0x00000000	0.0
93	0x30b7584b	1.3340097e-09
94	0x301b6672	5.6534255e-10
95	0x35eb38a6	1.7525351e-06
96	0x00000000	0.0
97	0x37af13da	2.087087e-05
98	0x377037eb	1.4318134e-05
99	0x3714ada1	8.861914e-06

exp_avg f4 [10]
0	0x3ceb801c	0.02874761
1	0xbcf6ad23	-0.030111855
2	0x3b7a28ad	0.0038171217
3	0xbc474ae9	-0.012163856
4	0x38322a04	4.2477637e-05
5	0x3b9da848	0.0048113205
6	0x3d14f573	0.03636689
7	0xbc6790fb	-0.014133687
8	0xbbe1cd4a	-0.0068909274
9	0xbcb4db5e	-0.022077259

exp_avg_sq f4 [10]
0	0x37eb1520	2.802402e-05
1	0x38006680	3.061304e-05
2	0x3504d676	4.9485914e-07
3	0x36a78154	4.9920436e-06
4	0x2fba1807	3.3850275e-10
5	0x355035e7	7.7564476e-07
6	0x383c0a72	4.483242e-05
7	0x36e1cd98	6.729457e-06
8	0x35d685b4	1.5983155e-06
9	0x3789d501	1.643086e-05

exp_avg f4 [1, 10]
0	0x3d1abc68	0.037777334
1	0x3bf41cf1	0.007449739
2	0x394701a7	0.00018978734
3	0x3d7c0139	0.061524604
4	0x34ae0df9	3.2420192e-07
5	0x3a979e7d	0.0011567619
6	0x3d3137cf	0.043266114
7	0x3c783b20	0.015150815
8	0x3d0baa6c	0.034098074
9	0x3d133a00	0.035943985

exp_avg_sq f4 [1, 10]
0	0x384b8ca9	4.852997e-05
1	0x35f899da	1.8522217e-06
2	0x30b69cc0	1.3286794e-09
3	0x39060166	0.00012779757
4	0x28b19ba2	1.9718443e-14
5	0x33457fd8	4.598391e-08
6	0x38859ca8	6.371114e-05
7	0x3701ad46	7.7293425e-06
8	0x382411fe	3.9117404e-05
9	0x3836a260	4.3543405e-05

exp_avg f4 [10, 2]
0	0xbabe7f36	-0.0014533761
1	0xbb2067bb	-0.002447589
2	0xba4d8f0b	-0.00078414445
3	0xba020951	-0.00049604947
4	0xba8d203b	-0.0010767052
5	0xbaf8ece2	-0.0018991495
6	0xb84fd28d	-4.9548737e-05
7	0x39427072	0.00018543171
8	0xb9948183	-0.00028325254
9	0xbb4a2e30	-0.0030850284
10	0x3a05cd7c	0.0005104167
11	0x3b4fec42	0.0031726514
12	0xba199783	-0.0005859064
13	0x39fbfaa7	0.000480612
14	0xb9d98ec9	-0.0004149585
15	0x3b86b847	0.004111323
16	0xba94a211	-0.0011339803
17	0xbb665a24	-0.0035148943
18	0x39bdc463	0.0003619521
19	0xbad9ca69	-0.0016616109

exp_avg_sq f4 [10, 2]
0	0x3399a522	7.154655e-08
1	0x34587e2f	2.0162473e-07
2	0x32b1ca64	2.0697549e-08
3	0x320df749	8.263506e-09
4	0x332980f6	3.9465668e-08
5	0x3403aa96	1.2262385e-07
6	0x2ec44e9b	8.927011e-11
7	0x30affdec	1.2805095e-09
8	0x313a5321	2.7113816e-09
9	0x34ac9b1d	3.2150356e-07
10	0x321952b1	8.924574e-09
11	0x34b8492b	3.4325907e-07
12	0x324b18f9	1.1821833e-08
13	0x320589f2	7.772984e-09
14	0x31c7895c	5.807278e-09
15	0x351ac71b	5.765921e-07
16	0x333b6396	4.3629903e-08
17	0x34e0a907	4.1846235e-07
18	0x3198df6e	4.4491832e-09
19	0x33c7a6a2	9.29697e-08

exp_avg f4 [10]
0	0xbbebb5a7	-0.0071932855
1	0x3ae164f2	0.0017196222
2	0xbb4d5a36	-0.0031334287
3	0xb9c44c49	-0.0003744087
4	0xbb4ec08b	-0.003154787
5	0x3b786439	0.0037901534
6	0xbb5ba122	-0.003351279
7	0x3b485dc6	0.0030573471
8	0xbb1dd964	-0.0024085874
9	0xbb695159	-0.0035601465

exp_avg_sq f4 [10]
0	0x35ea583f	1.7460042e-06
1	0x33d5df58	9.9592114e-08
2	0x34b23b58	3.3198262e-07
3	0x31a372ef	4.756991e-09
4	0x34b46991	3.3604422e-07
5	0x350400a3	4.917476e-07
6	0x34cad6f1	3.7781822e-07
7	0x34aaf7c2	3.1845235e-07
8	0x3453162e	1.9658975e-07
9	0x34e63cbc	4.2885029e-07

exp_avg f4 [10, 10]
0	0xbc69521b	-0.014240767
1	0xb97e44e7	-0.00024248996
2	0xbbab1c33	-0.0052218675
3	0xbc37f537	-0.011227897
4	0xbc2e08a8	-0.010622181
5	0xbc988db5	-0.018622259
6	0xbb1c0605	-0.00238073
7	0xbadd0bce	-0.001686448
8	0xbb1f356e	-0.0024293321
9	0xbbafb0a7	-0.005361635
10	0xbc347f94	-0.011016745
11	0xb9728e32	-0.0002313189
12	0xbb8596c6	-0.0040768115
13	0xbc0d6ea1	-0.008632333
14	0xbc095b4c	-0.008383583
15	0xbc6ac450	-0.014329031
16	0xbb024394	-0.0019876705
17	0xbaa93100	-0.001290828
18	0xbaf3baa6	-0.0018595054
19	0xbb9350ee	-0.0044957316
20	0x00000000	0.0
21	0x00000000	0.0
22	0x00000000	0.0
23	0x00000000	0.0
24	0x00000000	0.0
25	0x00000000	0.0
26	0x00000000	0.0
27	0x00000000	0.0
28	0x00000000	0.0
29	0x00000000	0.0
30	0xbb913032	-0.004430794
31	0xb9447cea	-0.0001873855
32	0xbb07b8ca	-0.0020709508
33	0xbb376fd5	-0.002799024
34	0xbba4cbb5	-0.0050291666
35	0xbbb2302d	-0.005437872
36	0xbad30d02	-0.0016101899
37	0xb9c4c573	-0.00037531144
38	0xb86fcb95	-5.717164e-05
39	0xbb66ecb9	-0.0035236313
40	0x3c017c2f	0.007903143
41	0x392e06bc	0.00016596442
42	0x3b3fa70a	0.002924385
43	0x3bcaee47	0.0061929557
44	0x3bc510b7	0.0060139555
45	0x3c286d8e	0.010280026
46	0x3abae319	0.0014258354
47	0x3a72cfc8	0.0009262529
48	0x3aaed452	0.0013338423
49	0x3b535670	0.0032247566
50	0xba8853d7	-0.0010400963
51	0xb7b719eb	-2.1827369e-05
52	0xb9c9db24	-0.0003850098
53	0xba5598df	-0.0008148085
54	0xba4f8456	-0.0007916143
55	0xbab143db	-0.0013524251
56	0xb944cfd6	-0.00018769442
57	0xb8ff4dec	-0.000121738616
58	0xb93826e1	-0.00017562091
59	0xb9dea249	-0.00042464052
60	0x3c16350e	0.009167923
61	0x00000000	0.0
62	0x3b0e52aa	0.0021716752
63	0x3c1f42b9	0.009720498
64	0x3b29cdcd	0.002591002
65	0x3c450c45	0.012026851
66	0x00000000	0.0
67	0x3ac9d3db	0.0015398221
68	0x3b116144	0.002218322
69	0x3ab140d6	0.0013523351
70	0xba9bc224	-0.001188342
71	0xb8a1bfdf	-7.712817e-05
72	0xba4a1bed	-0.000770985
73	0xb991f2c8	-0.0002783744
74	0xbb0a928f	-0.0021144485
75	0xbac0b659	-0.0014702781
76	0xba352bfd	-0.0006911157
77	0x00000000	0.0
78	0x00000000	0.0
79	0xbaaa5599	-0.0012995481
80	0x00000000	0.0
81	0x00000000	0.0
82	0x00000000	0.0
83	0x00000000	0.0
84	0x00000000	0.0
85	0x00000000	0.0
86	0x00000000	0.0
87	0x00000000	0.0
88	0x00000000	0.0
89	0x00000000	0.0
90	0x00000000	0.0
91	0x00000000	0.0
92	0x00000000	0.0
93	0x00000000	0.0
94	0x00000000	0.0
95	0x00000000	0.0
96	0x00000000	0.0
97	0x00000000	0.0
98	0x00000000	0.0
99	0x00000000	0.0

exp_avg_sq f4 [10, 10]
0	0x36e6b667	6.8757686e-06
1	0x31078561	1.9720903e-09
2	0x35779f1f	9.224622e-07
3	0x368fa7a5	4.2812485e-06
4	0x368010d3	3.816656e-06
5	0x3745a12f	1.17796435e-05
6	0x344d0375	1.909337e-07
7	0x33d074e6	9.7070185e-08
8	0x3456a58d	1.999053e-07
9	0x3581cda2	9.671096e-07
10	0x368a2557	4.1170674e-06
11	0x30fa281e	1.8201296e-09
12	0x35171e45	5.629593e-07
13	0x3629d243	2.530535e-06
14	0x361fe21f	2.3824466e-06
15	0x36ea0bc4	6.975113e-06
16	0x340fc2b1	1.3388741e-07
17	0x337426e5	5.684605e-08
18	0x33fb6fe3	1.17084504e-07
19	0x3537a156	6.8407587e-07
20	0x00000000	0.0
21	0x00000000	0.0
22	0x00000000	0.0
23	0x00000000	0.0
24	0x00000000	0.0
25	0x00000000	0.0
26	0x00000000	0.0
27	0x00000000	0.0
28	0x00000000	0.0
29	0x00000000	0.0
30	0x35315b07	6.60701e-07
31	0x30a41897	1.1939559e-09
32	0x341b4734	1.4461403e-07
33	0x348d4678	2.631457e-07
34	0x35655039	8.542589e-07
35	0x3585a257	9.956519e-07
36	0x33bc9e9d	8.783284e-08
37	0x31a23de2	4.721856e-09
38	0x2f103f49	1.3119207e-10
39	0x34e16cf3	4.1988787e-07
40	0x360eb946	2.1267492e-06
41	0x30814a95	9.407183e-10
42	0x349c142e	2.9071947e-07
43	0x35af7c84	1.3074755e-06
44	0x35a5283a	1.2305165e-06
45	0x3671dee8	3.6041547e-06
46	0x33947eaa	6.914827e-08
47	0x32fc8231	2.9395865e-08
48	0x3381d656	6.046018e-08
49	0x34bda0b6	3.5320926e-07
50	0x331bcdb4	3.6275836e-08
51	0x2d8cc3ce	1.6003112e-11
52	0x31aaa457	4.9663345e-09
53	0x32bf5cb6	2.2277487e-08
54	0x32b46d20	2.1004382e-08
55	0x3383d41e	6.138747e-08
56	0x30a24450	1.1806467e-09
57	0x300917bd	4.9874044e-10
58	0x308dff25	1.0331617e-09
59	0x31cf7d1f	6.0387175e-09
60	0x36402a53	2.8634865e-06
61	0x00000000	0.0
62	0x342c400d	1.604205e-07
63	0x36580c6e	3.2193743e-06
64	0x3475dd2d	2.2897866e-07
65	0x36a5a4b7	4.9365585e-06
66	0x00000000	0.0
67	0x33ae48ba	8.115735e-08
68	0x343367bc	1.6708412e-07
69	0x3384fcbb	6.1927004e-08
70	0x334ba2b0	4.7412584e-08
71	0x2f5ca1da	2.0066385e-10
72	0x32abcaa3	1.9999169e-08
73	0x31318e42	2.5837754e-09
74	0x3421a916	1.5055807e-07
75	0x339c2092	7.2702406e-08
76	0x328a6c02	1.611443e-08
77	0x00000000	0.0
78	0x00000000	0.0
79	0x337342b3	5.663851e-08
80	0x00000000	0.0
81	0x00000000	0.0
82	0x00000000	0.0
83	0x00000000	0.0
84	0x00000000	0.0
85	0x00000000	0.0
86	0x00000000	0.0
87	0x00000000	0.0
88	0x00000000	0.0
89	0x00000000	0.0
90	0x00000000	0.0
91	0x00000000	0.0
92	0x00000000	0.0
93	0x00000000	0.0
94	0x00000000	0.0
95	0x00000000	0.0
96	0x00000000	0.0
97	0x00000000	0.0
98	0x00000000	0.0
99	0x00000000	0.0

exp_avg f4 [10]
0	0xbc91e24c	-0.017808102
1	0xbc6646c8	-0.0140549615
2	0x00000000	0.0
3	0xbbf28644	-0.0074012596
4	0x3c2531ec	0.010082703
5	0xbaadec3b	-0.0013269255
6	0x3c112cc3	0.00886077
7	0xbb1dd8b1	-0.0024085457
8	0x00000000	0.0
9	0x00000000	0.0

exp_avg_sq f4 [10]
0	0x37341efe	1.0736052e-05
1	0x36e0db9d	6.7012866e-06
2	0x00000000	0.0
3	0x35f81e17	1.8486197e-06
4	0x36684fa4	3.461705e-06
5	0x337d9730	5.9043657e-08
6	0x363392f2	2.6758612e-06
7	0x34513a7c	1.9485918e-07
8	0x00000000	0.0
9	0x00000000	0.0

exp_avg f4 [1, 10]
0	0xbd0e5ff9	-0.034759495
1	0xbcdda74c	-0.027057312
2	0x00000000	0.0
3	0xbbd3a3dd	-0.006458743
4	0xbc8f3437	-0.017480953
5	0xbc91cdcf	-0.017798332
6	0xbc8e7f6d	-0.017394746
7	0xbb22a3c1	-0.0024816843
8	0x00000000	0.0
9	0x00000000	0.0

exp_avg_sq f4 [1, 10]
0	0x382bcfc9	4.0963092e-05
1	0x37cf76fd	2.4731731e-05
2	0x00000000	0.0
3	0x35bc6260	1.4035722e-06
4	0x372fb6df	1.0473391e-05
5	0x373360da	1.0691781e-05
6	0x372d98f4	1.0347216e-05
7	0x345dc1fb	2.0652799e-07
8	0x00000000	0.0
9	0x00000000	0.0

exp_avg f4 [10, 2]
0	0x3c3c6021	0.011497528
1	0x3bb525c5	0.005528184
2	0x3ca0b164	0.019615836
3	0x3c19b996	0.009382626
4	0x00000000	0.0
5	0x00000000	0.0
6	0x00000000	0.0
7	0x00000000	0.0
8	0x3ca45a92	0.020062719
9	0x3c1e662b	0.009667913
10	0x36838818	3.9199476e-06
11	0xb611843c	-2.1683654e-06
12	0x00000000	0.0
13	0x00000000	0.0
14	0x3818508d	3.6314643e-05
15	0xb8341860	-4.2938045e-05
16	0xba355c3b	-0.00069183455
17	0xb9cb085c	-0.00038725405
18	0x00000000	0.0
19	0x00000000	0.0

exp_avg_sq f4 [10, 2]
0	0x36972804	4.504809e-06
1	0x358baa9c	1.0405961e-06
2	0x375b1d20	1.3060198e-05
3	0x364883f5	2.9879131e-06
4	0x00000000	0.0
5	0x00000000	0.0
6	0x00000000	0.0
7	0x00000000	0.0
8	0x376501a4	1.3649846e-05
9	0x3654ec21	3.1727907e-06
10	0x2b1107d1	5.1525196e-13
11	0x2a32825b	1.5854802e-13
12	0x00000000	0.0
13	0x00000000	0.0
14	0x2e43fc70	4.4562076e-11
15	0x2e88ac22	6.215141e-11
16	0x328960f7	1.5992994e-08
17	0x31af1a9e	5.0961964e-09
18	0x00000000	0.0
19	0x00000000	0.0

exp_avg f4 [10]
0	0x3c38e30c	0.011284601
1	0x3c9d1341	0.01917422
2	0x00000000	0.0
3	0x00000000	0.0
4	0x3ca0aad2	0.019612703
5	0xb4cb27cf	-3.784066e-07
6	0x00000000	0.0
7	0xb773ce4b	-1.453196e-05
8	0xba30c72c	-0.0006743546
9	0x00000000	0.0

exp_avg_sq f4 [10]
0	0x3691915f	4.33826e-06
1	0x37515295	1.2476598e-05
2	0x00000000	0.0
3	0x00000000	0.0
4	0x375acdd0	1.3041732e-05
5	0x27b3d036	4.9908223e-15
6	0x00000000	0.0
7	0x2cfb4641	7.141649e-12
8	0x328273c0	1.5186629e-08
9	0x00000000	0.0

exp_avg f4 [10, 10]
0	0x00000000	0.0
1	0x00000000	0.0
2	0x00000000	0.0
3	0x00000000	0.0
4	0x00000000	0.0
5	0x00000000	0.0
6	0x00000000	0.0
7	0x00000000	0.0
8	0x00000000	0.0
9	0x00000000	0.0
10	0x3cfbe5e2	0.030749265
11	0x3cc94f25	0.024573872
12	0x00000000	0.0
13	0x00000000	0.0
14	0x3c9c165e	0.019053634
15	0xb6a41aaa	-4.890685e-06
16	0x00000000	0.0
17	0xb90d1891	-0.0001345596
18	0x3c13bc55	0.00901707
19	0x00000000	0.0
20	0x3d3ff49d	0.04686414
21	0x3d18723f	0.03721833
22	0x00000000	0.0
23	0x00000000	0.0
24	0x3cece00e	0.028915431
25	0xb4cd955b	-3.8292896e-07
26	0x00000000	0.0
27	0xb7f6f474	-2.9439318e-05
28	0x3c60bfbe	0.01371759
29	0x00000000	0.0
30	0x00000000	0.0
31	0x00000000	0.0
32	0x00000000	0.0
33	0x00000000	0.0
34	0x00000000	0.0
35	0x00000000	0.0
36	0x00000000	0.0
37	0x00000000	0.0
38	0x00000000	0.0
39	0x00000000	0.0
40	0x39918b8c	0.00027760526
41	0x39674886	0.00022056894
42	0x00000000	0.0
43	0x00000000	0.0
44	0x39414c79	0.00018434403
45	0x34195a37	1.4282055e-07
46	0x00000000	0.0
47	0xb51ffb88	-5.959814e-07
48	0x38965503	7.168392e-05
49	0x00000000	0.0
50	0xb73e178b	-1.1330364e-05
51	0x374479b0	1.1710843e-05
52	0x00000000	0.0
53	0x00000000	0.0
54	0x366c30f8	3.5195244e-06
55	0x00000000	0.0
56	0x00000000	0.0
57	0x00000000	0.0
58	0x37d09591	2.486518e-05
59	0x00000000	0.0
60	0x00000000	0.0
61	0x00000000	0.0
62	0x00000000	0.0
63	0x00000000	0.0
64	0x00000000	0.0
65	0x00000000	0.0
66	0x00000000	0.0
67	0x00000000	0.0
68	0x00000000	0.0
69	0x00000000	0.0
70	0x00000000	0.0
71	0x00000000	0.0
72	0x00000000	0.0
73	0x00000000	0.0
74	0x00000000	0.0
75	0x00000000	0.0
76	0x00000000	0.0
77	0x00000000	0.0
78	0x00000000	0.0
79	0x00000000	0.0
80	0x00000000	0.0
81	0x00000000	0.0
82	0x00000000	0.0
83	0x00000000	0.0
84	0x00000000	0.0
85	0x00000000	0.0
86	0x00000000	0.0
87	0x00000000	0.0
88	0x00000000	0.0
89	0x00000000	0.0
90	0xbc9f12aa	-0.01941808
91	0xbc7e3f96	-0.01551809
92	0x00000000	0.0
93	0x00000000	0.0
94	0xbc45213e	-0.012031851
95	0x364d35a5	3.0578606e-06
96	0x00000000	0.0
97	0x38b24406	8.500372e-05
98	0xbbbaa4c6	-0.005695912
99	0x00000000	0.0

exp_avg_sq f4 [10, 10]
0	0x00000000	0.0
1	0x00000000	0.0
2	0x00000000	0.0
3	0x00000000	0.0
4	0x00000000	0.0
5	0x00000000	0.0
6	0x00000000	0.0
7	0x00000000	0.0
8	0x00000000	0.0
9	0x00000000	0.0
10	0x38067249	3.2054526e-05
11	0x37abc8cb	2.047829e-05
12	0x00000000	0.0
13	0x00000000	0.0
14	0x374ea32d	1.2316549e-05
15	0x2bbdf6c8	1.3497753e-12
16	0x00000000	0.0
17	0x3027c183	6.102924e-10
18	0x3638137f	2.7429485e-06
19	0x00000000	0.0
20	0x389c104e	7.441697e-05
21	0x3844efd2	4.695339e-05
22	0x00000000	0.0
23	0x00000000	0.0
24	0x37edd675	2.8352466e-05
25	0x285ed960	1.2370611e-14
26	0x00000000	0.0
27	0x2e14f48f	3.3868516e-11
28	0x36d4eab8	6.345417e-06
29	0x00000000	0.0
30	0x00000000	0.0
31	0x00000000	0.0
32	0x00000000	0.0
33	0x00000000	0.0
34	0x00000000	0.0
35	0x00000000	0.0
36	0x00000000	0.0
37	0x00000000	0.0
38	0x00000000	0.0
39	0x00000000	0.0
40	0x318e8e83	4.1489456e-09
41	0x31322e53	2.5928741e-09
42	0x00000000	0.0
43	0x00000000	0.0
44	0x30f851a6	1.8067581e-09
45	0x268958e3	9.530377e-16
46	0x00000000	0.0
47	0x28967ad2	1.670661e-14
48	0x2f93ebaf	2.6906607e-10
49	0x00000000	0.0
50	0x2ca5245f	4.69362e-12
51	0x2cbb1251	5.316893e-12
52	0x00000000	0.0
53	0x00000000	0.0
54	0x2b106543	5.1299606e-13
55	0x00000000	0.0
56	0x00000000	0.0
57	0x00000000	0.0
58	0x2dcf68b9	2.3579682e-11
59	0x00000000	0.0
60	0x00000000	0.0
61	0x00000000	0.0
62	0x00000000	0.0
63	0x00000000	0.0
64	0x00000000	0.0
65	0x00000000	0.0
66	0x00000000	0.0
67	0x00000000	0.0
68	0x00000000	0.0
69	0x00000000	0.0
70	0x00000000	0.0
71	0x00000000	0.0
72	0x00000000	0.0
73	0x00000000	0.0
74	0x00000000	0.0
75	0x00000000	0.0
76	0x00000000	0.0
77	0x00000000	0.0
78	0x00000000	0.0
79	0x00000000	0.0
80	0x00000000	0.0
81	0x00000000	0.0
82	0x00000000	0.0
83	0x00000000	0.0
84	0x00000000	0.0
85	0x00000000	0.0
86	0x00000000	0.0
87	0x00000000	0.0
88	0x00000000	0.0
89	0x00000000	0.0
90	0x3755afac	1.2736691e-05
91	0x370881a6	8.136418e-06
92	0x00000000	0.0
93	0x00000000	0.0
94	0x36a42fcb	4.8931447e-06
95	0x2b12fcc4	5.22204e-13
96	0x00000000	0.0
97	0x2f85804f	2.4283728e-10
98	0x35927489	1.0911764e-06
99	0x00000000	0.0

exp_avg f4 [10]
0	0x00000000	0.0
1	0x3d43ec3b	0.04783271
2	0x3d957073	0.072968386
3	0x00000000	0.0
4	0x39c4df4a	0.00037550397
5	0xb7d003e7	-2.479735e-05
6	0x00000000	0.0
7	0x00000000	0.0
8	0x00000000	0.0
9	0xbcf7772a	-0.030208189

exp_avg_sq f4 [10]
0	0x00000000	0.0
1	0x38a27a65	7.74756e-05
2	0x393cf41d	0.00018020016
3	0x00000000	0.0
4	0x32044eec	7.701356e-09
5	0x2dc94274	2.2880565e-11
6	0x00000000	0.0
7	0x00000000	0.0
8	0x00000000	0.0
9	0x38012740	3.079255e-05

exp_avg f4 [1, 10]
0	0x00000000	0.0
1	0x3d0d675c	0.0345224
2	0x3cf79ab3	0.030225134
3	0x00000000	0.0
4	0x39a594a9	0.00031582013
5	0x353737c5	6.825397e-07
6	0x00000000	0.0
7	0x00000000	0.0
8	0x00000000	0.0
9	0x3d34064a	0.04395131

exp_avg_sq f4 [1, 10]
0	0x00000000	0.0
1	0x382a4533	4.0595605e-05
2	0x38030246	3.123495e-05
3	0x00000000	0.0
4	0x31e460ac	6.6466637e-09
5	0x299c991f	6.954354e-14
6	0x00000000	0.0
7	0x00000000	0.0
8	0x00000000	0.0
9	0x3888969c	6.5130385e-05

exp_avg f4 [1, 3]
0	0xbadc98ca	-0.0016830203
1	0x3b835258	0.004007619
2	0xbe078535	-0.13234408

exp_avg_sq f4 [1, 3]
0	0x33cfb6fc	9.672473e-08
1	0x3525a3c6	6.170561e-07
2	0x3a1cc2cb	0.0005979954

exp_avg f4 [1, 3]
0	0xbb22f06d	-0.0024862543
1	0xbbf9343c	-0.007605104
2	0xbd4b7e8f	-0.049681243

exp_avg_sq f4 [1, 3]
0	0x34606f02	2.090201e-07
1	0x360440ad	1.970718e-06
2	0x38aec303	8.33329e-05

exp_avg f4 [1, 3]
0	0x3c4d2949	0.01252205
1	0x3e39ed9f	0.18157052
2	0xbd4141b2	-0.047181793

exp_avg_sq f4 [1, 3]
0	0x36b55d8f	5.405112e-06
1	0x3a923fd3	0.0011157937
2	0x38a09781	7.657614e-05
