models/onlyadam_q/ckpt/ckpt-2.pt (torch, 36475 bytes, 63 tensors)

qlayers.0.weights f4 [2, 1, 4, 3]
2.1645334 4.7069383 1.5012763 5.69184 4.957019 6.1180677 3.2814307 2.726812
3.383592 2.9816926 0.93926734 0.34401888 2.7603362 1.1275425 4.1219773 2.8499916
1.8705616 5.0993185 6.079117 2.7731607 4.7277145 2.5388696 2.2719889 1.7848659
00000000: b787 0a40 3d9f 9640 d229 c03f 8e23 b640
00000010: e69f 9e40 36c7 c340 f602 5240 1684 2e40
00000020: c58c 5840 0dd4 3e40 d373 703f 3e23 b03e
00000030: 59a9 3040 5053 903f 3de7 8340 4366 3640
00000040: 906e ef3f 9e2d a340 2088 c240 777b 3140
00000050: 7049 9740 d77c 2240 4468 1140 7c76 e43f

qlayers.1.weights f4 [2, 1, 4, 3]
4.137635 6.2162833 3.1789627 2.7640214 3.9900527 1.1219429 0.65899813 1.625261
3.9721189 3.792667 5.090804 2.9638565 5.6880302 5.5443964 1.0895382 2.2623158
4.1041646 4.989588 0.40725803 4.0704446 5.495236 4.900482 0.84787834 0.5941832
00000000: 8267 8440 cbeb c640 2074 4b40 bae5 3040
00000010: 065d 7f40 d39b 8f3f 1ab4 283f 8d08 d03f
00000020: 3237 7e40 0ebb 7240 dee7 a240 d3af 3d40
00000030: 5804 b640 b26b b140 fd75 8b3f c8c9 1040
00000040: 5155 8340 b4aa 9f40 2084 d03e 1541 8240
00000050: f9d8 af40 c0d0 9c40 8e0e 593f 641c 183f

qlayers.2.weights f4 [2, 1, 4, 3]
6.132949 0.91696215 5.3151855 4.9326653 0.5890615 3.502647 2.9494674 2.4963675
1.8050424 2.0703192 6.108485 0.043604072 1.5098053 4.3932295 4.6829886 1.9239906
1.7402539 1.2358298 3.6746864 4.0813274 1.4958831 1.9372925 2.0320077 2.6531436
00000000: 1e41 c440 08be 6a3f 0016 aa40 65d8 9d40
00000010: bccc 163f 5e2b 6040 13c4 3c40 7cc4 1f40
00000020: a10b e73f 1c80 0440 b678 c340 2f9a 323d
00000030: 4d41 c13f 5695 8c40 0bdb 9540 5345 f63f
00000040: a4c0 de3f ac2f 9e3f 102e 6b40 3c9a 8240
00000050: 1979 bf3f 33f9 f73f 6a0c 0240 1bcd 2940

clayers.0.0.weight f4 [10, 2]
0.022467619 0.40246037 0.5720129 -0.67899036 -0.13055475 0.09933978 0.1827831 0.10508964
0.31327537 -0.025223056 -0.027546989 0.15387493 -0.27478456 -0.2793324 0.3515404 0.46871012
0.33855432 0.28793955 0.6434868 0.30753696
00000000: 030e b83c 490f ce3e 706f 123f 50d2 2dbf
00000010: 25b0 05be a872 cb3d 7e2b 3b3e 3d39 d73d
00000020: a165 a03e 95a0 cebc 39aa e1bc 6491 1d3e
00000030: 90b0 8cbe a804 8fbe 1afd b33e c6fa ef3e
00000040: fe56 ad3e d06c 933e 8dbb 243f 7c75 9d3e

clayers.0.0.bias f4 [10]
0.14741896 0.11378694 -0.23015623 -0.26856598 -0.28634632 0.17762376 -0.1672675 0.4741963
0.4775694 0.11737532
00000000: fff4 163e 2109 e93d 13ae 6bbe 7b81 89be
00000010: fc9b 92be 01e3 353e 2c48 2bbe dcc9 f23e
00000020: fa83 f43e 7962 f03d

clayers.0.2.weight f4 [10, 10]
0.15725486 -0.0822125 -0.25624105 -0.19147782 -0.22268398 0.0012626047 0.19698724 -0.25510952
0.30722517 -0.038470056 -0.2669323 -0.29985106 -0.12848252 -0.2579384 -0.21926096 0.1430489
-0.12578517 0.27834165 0.061379623 -0.27135792 0.20975114 -0.2355869 -0.13757393 -0.030807165
-0.06930379 -0.19058733 0.31092176 -0.27230343 0.12559998 -0.09380197 0.2407977 -0.2358785
-0.06776885 0.22052209 -0.30290255 -0.08347578 -0.19543761 -0.19890298 0.3040793 0.10730116
0.29616866 0.19974619 -0.00797635 0.06297411 0.13733262 -0.30107334 -0.07003662 -0.23715883
0.18978663 -0.30351838 0.14271292 -0.09203354 0.10048246 0.19871466 0.05026654 -0.12774086
-0.24226446 -0.046023175 -0.24207315 -0.01090942 -0.27509183 0.029575326 0.24050455 0.14533952
0.24320284 0.13533343 0.12767914 0.2718494 -0.20596452 0.15613732 0.22598495 0.042519595
0.15436289 0.28795502 0.0064534107 -0.019515885 0.051620927 -0.29615897 0.018260513 -0.2563053
0.06289086 0.25787562 -0.027056172 0.20269856 -0.15317297 -0.023634132 -0.10890958 0.0011866451
0.26365292 -0.29061928 0.23576811 0.14419147 0.014025314 -0.2639235 0.011992291 0.18881467
0.24792394 0.08638399 0.095548116 0.23153636
00000000: 6b07 213e 075f a8bd 0732 83be c312 44be
00000010: 4507 64be fc7d a53a 06b7 493e b79d 82be
00000020: 9e4c 9d3e c792 1dbd 5aab 88be 1486 99be
00000030: ec90 03be 8110 84be f285 60be 697b 123e
00000040: d4cd 00be cc82 8e3e 3369 7b3d 6def 8abe
00000050: 01c9 563e b13d 71be 2ee0 0cbe 4f5f fcbc
00000060: 25ef 8dbd 5329 43be 2331 9f3e 5b6b 8bbe
00000070: 489d 003e 3f1b c0bd ac93 763e 228a 71be
00000080: 65ca 8abd 8bd0 613e 0b16 9bbe 5af5 aabd
00000090: cc20 48be 39ad 4bbe 48b0 9b3e b6c0 db3d
000000a0: 6ba3 973e 448a 4c3e 3daf 02bc 92f8 803d
000000b0: eca0 0c3e 4926 9abe 5c6f 8fbd c4d9 72be
000000c0: 6d57 423e c366 9bbe 5623 123e 157c bcbd
000000d0: bfc9 cd3d db7b 4b3e 4ae4 4d3d 80ce 02be
000000e0: 2d14 78be cc82 3cbd 06e2 77be 6dbd 32bc
000000f0: d6d8 8cbe f447 f23c d346 763e e2d3 143e
00000100: 2a0a 793e d994 0a3e 52be 023e d82f 8b3e
00000110: 5de8 52be 76e2 1f3e 9968 673e 0729 2e3d
00000120: 4e11 1e3e d76e 933e 2277 d33b c7df 9fbc
00000130: 7770 533d 26a2 97be 1297 953c 733a 83be
00000140: eccc 803d 4608 843e e8a4 ddbc 3690 4f3e
00000150: 60d9 1cbe 5e9c c1bc fc0b dfbd 3489 9b3a
00000160: 84fd 863e 0dcc 94be 326d 713e eea6 133e
00000170: 6eca 653c fb20 87be 507b 443c a258 413e
00000180: c6df 7d3e 17ea b03d bbae c33d de17 6d3e

clayers.0.2.bias f4 [10]
0.19905889 0.01639116 0.04227557 0.25745398 -0.0736647 0.14945038 0.18579604 0.30812386
0.09340832 -0.24076
00000000: 18d6 4b3e c146 863c 2629 2d3d 02d1 833e
00000010: 85dd 96bd 8509 193e 5141 3e3e 69c2 9d3e
00000020: dc4c bf3d ca89 76be

clayers.0.4.weight f4 [1, 10]
0.18238641 -0.31578505 0.27543205 -0.07771355 0.12461706 0.124971405 0.23082699 -0.14515643
-0.044190083 -0.2082474
00000000: 81c3 3a3e 94ae a1be 6e05 8d3e 4828 9fbd
00000010: 3b37 ff3d 02f1 ff3d e95d 6c3e e3a3 14be
00000020: a900 35bd ce3e 55be

clayers.1.0.weight f4 [10, 2]
0.1902633 0.35133725 -0.31057397 -0.29026502 0.2276416 -0.047711372 -0.37457833 0.68305707
0.60729426 -0.3832979 0.46750492 0.4840919 0.12780821 -0.6657775 -0.26650307 0.37909058
0.35059196 0.57629347 -0.46304336 -0.32013538
00000000: 62d4 423e 7ae2 b33e 8d03 9fbe 9e9d 94be
00000010: e11a 693e 006d 43bd bbc8 bfbe d4dc 2e3f
00000020: a377 1b3f 9f3f c4be ce5c ef3e e5da f73e
00000030: 28e0 023e 6570 2abf 1773 88be 2918 c23e
00000040: ca80 b33e f887 133f 0514 edbe c9e8 a3be

clayers.1.0.bias f4 [10]
0.52104086 -0.16634819 0.26906925 0.23426938 0.6951879 0.60909045 0.14383747 -0.31066853
-0.6505315 0.56921214
00000000: ef62 053f 2e57 2abe 72c3 893e 50e4 6f3e
00000010: d6f7 313f 5aed 1b3f 214a 133e f20f 9fbe
00000020: 3b89 26bf e3b7 113f

clayers.1.2.weight f4 [10, 10]
0.09554993 -0.23581079 0.1612349 0.26020387 -0.23962682 0.19376867 0.2787338 -0.18581352
0.28807807 -0.25586793 0.21960518 -0.109906964 0.22886768 -0.118928984 0.3101552 -0.08842493
-0.09143481 -0.20257694 0.19678721 0.25125226 -0.15295489 0.03936087 -0.11708956 -0.2603286
-0.25166988 -0.047839552 -0.24869886 -0.0637595 0.17408411 -0.17049596 0.25602913 -0.08215382
-0.22531636 -0.093977846 0.08795671 -0.18464215 -0.17877623 -0.07129538 -0.1041525 0.3153465
-0.1439124 -0.09155573 -0.08048299 -0.13925666 0.07985385 0.22493312 -0.30662155 0.12709871
0.012513236 -0.07949141 0.24848437 -0.23376757 -0.28382418 0.09461284 0.06127188 -0.24337605
0.29448953 0.094244964 0.031186754 0.07363712 0.16592221 -0.3123052 0.16698742 0.26755697
-0.2940696 0.23056938 -0.23887269 0.0078615425 0.08651322 -0.238318 0.09281847 -0.18487357
-0.09064991 -0.045571767 0.17331079 0.010941313 0.2777668 -0.23866561 -0.21355048 0.1450903
-0.29504228 -0.2479266 -0.037545405 0.16476037 -0.21488132 -0.029183166 -0.19573839 -0.15463695
0.19612715 -0.19078943 -0.09121211 -0.22880273 0.022523828 0.2820682 0.037121877 -0.3096541
-0.22681198 -0.13455555 0.07343838 0.13533688
00000000: afaf c33d 6278 71be c31a 253e 7139 853e
00000010: bc60 75be 4b6b 463e 32b6 8e3e e645 3ebe
00000020: f87e 933e 1f01 83be 2ee0 603e e716 e1bd
00000030: 4a5c 6a3e 0a91 f3bd aacc 9e3e 2118 b5bd
00000040: 2c42 bbbd 5470 4fbe 9682 493e 23a4 803e
00000050: 35a0 1cbe dd38 213d a7cc efbd ca49 85be
00000060: e0da 80be 68f3 43bd eaaa 7ebe 5794 82bd
00000070: 1b43 323e 7e96 2ebe 4016 833e 4340 a8bd
00000080: 55b9 66be 7577 c0bd a622 b43d d512 3dbe
00000090: 1e11 37be 5003 92bd e84d d5bd 1975 a13e
000000a0: c65d 13be 9281 bbbd 44d4 a4bd 4c99 0ebe
000000b0: 6a8a a33d de54 663e 80fd 9cbe 2a26 023e
000000c0: 5104 4d3c 64cc a2bd b072 7e3e c460 6fbe
000000d0: 6751 91be 60c4 c13d 39f8 7a3d 9237 79be
000000e0: 55c7 963e 8103 c13d 5d7b ff3c 0fcf 963d
000000f0: 83e7 293e 78e6 9fbe c0fe 2a3e 3afd 883e
00000100: 4a90 96be 611a 6c3e 0b9b 74be b3cd 003c
00000110: d82d b13d a209 74be 9c17 be3d 7f4f 3dbe
00000120: a9a6 b9bd 76a9 3abd 6278 313e 3143 333c
00000130: 7337 8e3e c264 74be faac 5abe 8d92 143e
00000140: c80f 97be 78e0 7dbe 36c9 19bd f1b6 283e
00000150: d909 5cbe 8911 efbc a56f 48be 2659 1ebe
00000160: 8ed5 483e 4e5e 43be 6acd babd 434b 6abe
00000170: e483 b83c 3e6b 903e 1c0d 183d fb8a 9ebe
00000180: 6641 68be eec8 09be dd66 963d c095 0a3e

clayers.1.2.bias f4 [10]
0.18591483 0.053715006 0.05639831 0.059527464 0.2485131 0.22219214 -0.25344405 -0.2487886
-0.16170955 -0.15303664
00000000: 7560 3e3e 4404 5c3d ea01 673d 12d3 733d
00000010: 387a 7e3e 5686 633e 6bc3 81be 70c2 7ebe
00000020: 3097 25be a3b5 1cbe

clayers.1.4.weight f4 [1, 10]
0.26174334 0.20043927 -0.13678001 0.16244763 -0.14311194 0.019280983 -0.23826744 0.07035772
0.068486474 0.083995625
00000000: 3903 863e f43f 4d3e 0f10 0cbe ac58 263e
00000010: f08b 12be 27f3 9d3c 61fc 73be b517 903d
00000020: a342 8c3d e605 ac3d

clayers.2.0.weight f4 [10, 2]
0.13923782 0.12123921 0.3899382 0.074550554 0.047719084 -0.30186278 0.2730429 -0.55609334
0.25513473 0.10855396 -0.4084776 -0.6113834 -0.13385333 -0.29026845 -0.4307693 -0.10402335
0.6534691 -0.004249912 0.29632807 -0.19915633
00000000: 5c94 0e3e 434c f83d fba5 c73e f6ad 983d
00000010: 1675 433d c28d 9abe 47cc 8b3e 225c 0ebf
00000020: 05a1 823e 8a51 de3d fa23 d1be 9f83 1cbf
00000030: d910 09be 119e 94be cb8d dcbe 320a d5bd
00000040: c049 273f d942 8bbb 50b8 973e a3ef 4bbe

clayers.2.0.bias f4 [10]
0.43969333 0.074491195 -0.34835276 -0.6610053 0.08163021 -0.015764574 -0.55972755 0.18153006
-0.4673024 -0.57885003
00000000: 7c1f e13e d78e 983d 4b5b b2be a537 29bf
00000010: bd2d a73d b524 81bc 4e4a 0fbf 04e3 393e
00000020: 4342 efbe 842f 14bf

clayers.2.2.weight f4 [10, 10]
-0.13292916 -0.00465013 -0.22078206 -0.20233926 -0.11780698 0.11460537 0.23354389 0.025755089
-0.0055547142 -0.2663464 0.13090035 0.1053673 -0.2217039 0.2188619 -0.10811283 -0.02668924
0.010556899 0.1423618 -0.14250453 -0.16286246 0.18742405 0.21811354 -0.045470353 -0.24127832
0.24584092 -0.088436514 -0.12790962 0.033858504 0.02959417 0.052544136 0.026446003 -0.26137912
-0.059196614 -0.14831553 -0.04449505 -0.0029050095 -0.02842726 0.03582686 -0.10164683 -0.0707976
-0.07797144 -0.011412044 -0.23980398 -0.22070487 0.25161818 0.30482414 -0.056773584 -0.02147391
-0.22071654 0.1469773 0.042293333 0.14494102 -0.15090828 0.043306984 0.28571653 -0.12407376
0.12500349 0.16075766 -0.295105 0.31043234 -0.02073481 -0.108398885 -0.09099744 0.2903609
-0.12512209 -0.08293281 -0.0963557 -0.17138375 -0.1912569 -0.010396403 -0.0764042 -0.15622371
0.030091332 -0.022703096 0.1303107 -0.15734096 0.2770135 -0.12717336 0.0019471779 0.28443635
-0.089717075 0.17844509 -0.05355695 -0.12867934 -0.20395578 0.17212875 0.26338091 0.17964461
-0.0028156668 -0.18804617 0.28733048 0.06061124 -0.21612951 -0.14699158 -0.22182555 -0.15867935
-0.11151781 0.07366115 -0.13292065 -0.07506124
00000000: 951e 08be 1e60 98bb b114 62be 0632 4fbe
00000010: c944 f1bd 38b6 ea3d 2126 6f3e 56fc d23c
00000020: 5204 b6bb 8e5e 88be be0a 063e d0ca d73d
00000030: 5906 63be 551d 603e 426a ddbd 65a3 dabc
00000040: d8f6 2c3c 4bc7 113e b5ec 11be 6bc5 26be
00000050: 17ec 3f3e 2859 5f3e 1f3f 3abd aa11 77be
00000060: b9bd 7b3e 341e b5bd bdfa 02be 37af 0a3d
00000070: 796f f23c 8538 573d 4aa5 d83c 7cd3 85be
00000080: 2678 72bd 07e0 17be 7140 36bd f961 3ebb
00000090: 49e0 e8bc 30bf 123d 372c d0bd 55fe 90bd
000000a0: 7eaf 9fbd 95f9 3abc 2d8f 75be 7500 62be
000000b0: 19d4 803e e911 9c3e 6b8b 68bd 0eea afbc
000000c0: 8403 62be 3881 163e c63b 2d3d 6b6b 143e
000000d0: b387 1abe aa62 313d 7049 923e 621a febd
000000e0: ea00 003e a89d 243e 0118 97be fdf0 9e3e
000000f0: 0cdc a9bc 3c00 debd de5c babd 2faa 943e
00000100: 0120 00be add8 a9bd 2356 c5bd 397f 2fbe
00000110: d9d8 43be ad55 2abc ce79 9cbd 1cf9 1fbe
00000120: 1982 f63c d8fb b9bc 2b70 053e fd1d 21be
00000130: b7d4 8d3e bc39 02be 7338 ff3a a4a1 913e
00000140: 96bd b7bd 4fba 363e 885e 5bbd 84c4 03be
00000150: c9d9 50be 8542 303e ddd9 863e c2f4 373e
00000160: 0d87 38bb 2d8f 40be fb1c 933e 7e43 783d
00000170: 0e51 5dbe f684 16be 3d26 63be d77c 22be
00000180: 7363 e4bd a8db 963d 5a1c 08be b5b9 99bd

clayers.2.2.bias f4 [10]
-0.24357924 0.07424281 -0.21056677 -0.28928152 -0.014106094 -0.2123518 -0.2094165 -0.3106554
-0.24112739 0.08114777
00000000: d66c 79be 9d0c 983d d19e 57be b51c 94be
00000010: 3f1d 67bc c072 59be 4771 56be 390e 9fbe
00000020: 19ea 76be cd30 a63d

clayers.2.4.weight f4 [1, 10]
-0.22826757 0.19807562 0.30152568 0.12576587 0.00627233 0.29163405 0.27552897 -0.285524
-0.2532243 -0.12570387
00000000: f9be 69be 56d4 4a3e 9361 9a3e c5c8 003e
00000010: 1e88 cd3b 0f51 953e 2212 8d3e 3430 92be
00000020: 9ea6 81be 84b8 00be

addups.0.weight f4 [1, 3]
0.18760638 0.5276204 -0.25807783
00000000: e31b 403e 2112 073f c722 84be

addups.1.weight f4 [1, 3]
0.07775296 -0.1013087 0.46430135
00000000: f23c 9f3d f07a cfbd e8b8 ed3e

addups.2.weight f4 [1, 3]
-0.3643386 0.06090419 -0.4535066
00000000: 978a babe ac76 793d 0432 e8be

exp_avg f4 [2, 1, 4, 3]
-5.3518933e-18 0.00015986369 0.065093726 4.508929e-20 0.015654536 -0.0051118927 -1.1910153e-18 0.019693768
-0.00059389434 -1.1568208e-18 0.023318652 0.024571741 5.801061e-19 -2.096996e-19 5.6558785e-19 0.02288577
0.009076398 -3.758144e-19 -0.013305256 0.0075890827 -1.7741135e-19 -0.016192092 -0.03463939 0.0
00000000: 3473 c5a2 15a1 2739 dc4f 853d 9bed 541f
00000010: f13d 803c aa81 a7bb 49c3 afa1 d354 a13c
00000020: 93af 1bba 74b7 aaa1 c206 bf3c ad4a c93c
00000030: 9437 2b21 d191 77a0 9cee 2621 f07a bb3c
00000040: 2cb5 143c 77d7 dda0 4afe 59bc d7ad f83b
00000050: 4a73 51a0 47a5 84bc 08e2 0dbd 0000 0000

exp_avg_sq f4 [2, 1, 4, 3]
3.761074e-35 1.4118877e-09 0.00023468585 7.4381364e-36 1.3590265e-05 1.4466469e-06 1.673274e-36 2.1483927e-05
1.9613143e-08 1.3517603e-37 3.0119048e-05 3.3460034e-05 9.0248627e-38 2.507916e-39 1.999008e-38 2.9021181e-05
4.5604584e-06 1.2045214e-38 9.806174e-06 3.1886834e-06 1.0903638e-38 1.452149e-05 6.6472814e-05 0.0
00000000: 16f9 4706 620c c230 0116 7639 1131 1e05
00000010: be01 6437 692a c235 ae58 0e04 6238 b437
00000020: c279 a832 f9fd 3702 2aa8 fc37 7057 0c38
00000030: 1dae f501 0d4f 1b00 36ac d900 8372 f337
00000040: 0a06 9936 2829 8300 3285 2437 2afd 5536
00000050: e8ba 7600 53a1 7337 5267 8b38 0000 0000

exp_avg f4 [2, 1, 4, 3]
6.3076625e-20 -0.0003097655 -3.5768314e-06 -1.059796e-20 0.0004028969 -0.000113888214 -7.451851e-20 -8.8354966e-05
6.454652e-05 -2.8830715e-20 -3.9951712e-05 -0.0014778805 2.1693329e-21 -3.6083295e-20 1.3013612e-20 -2.0011414e-05
9.760896e-05 5.2134645e-21 -7.0041264e-05 -0.0001438218 -8.38936e-21 0.00012790559 -9.827904e-05 0.0
00000000: 7bef 941f 0668 a2b9 7f09 70b6 9730 489e
00000010: e83b d339 45d7 eeb8 adf3 af9f 364b b9b8
00000020: 265d 8738 3226 089f d391 27b8 71b5 c1ba
00000030: 00e9 231d 0766 2a9f f7d1 751e 2fde a7b7
00000040: 69b3 cc38 89f5 c41d 1ee3 92b8 dfce 16b9
00000050: 7578 1e9e 651e 0639 281b ceb8 0000 0000

exp_avg_sq f4 [2, 1, 4, 3]
2.28215e-40 5.326286e-09 7.102706e-13 1.15033e-40 9.017153e-09 7.2018047e-10 4.73417e-40 4.3373596e-10
2.31526e-10 2.29751e-40 8.8418155e-11 1.2134315e-07 7.47e-43 1.10513e-40 1.2025e-41 2.2195822e-11
5.284544e-10 7.57e-42 2.7228764e-10 1.149821e-09 5.14e-42 9.09556e-10 5.3594346e-10 0.0
00000000: 2c7c 0200 8202 b731 64ec 472b aa40 0100
00000010: dce9 1a32 32f6 4530 b227 0500 e972 ee2f
00000020: c790 7e2f 7480 0200 ff6e c22e 8d4a 0234
00000030: 1502 0000 1134 0100 8521 0000 8c3c c32d
00000040: ac42 1130 1a15 0000 14b1 952f bb07 9e30
00000050: 540e 0000 5004 7a30 ab51 1330 0000 0000

exp_avg f4 [2, 1, 4, 3]
-8.784006e-19 -0.0020344693 0.0031623878 8.7833753e-20 -0.00075455697 -0.00048381832 -1.4060746e-19 0.00067203987
-0.0011409337 -1.3366566e-20 0.0006245197 0.0005451047 1.2965026e-20 -6.7239775e-21 4.792238e-20 0.0028554494
0.0027018443 1.8306202e-20 -0.00076523994 -0.0010505506 1.0080171e-20 -0.002208075 -0.000394423 0.0
00000000: 09a1 81a1 bb54 05bb 1040 4f3b 3f64 cf1f
00000010: 76cd 45ba ffa8 fdb9 ffff 25a0 d52b 303a
00000020: 628b 95ba bf7c 7c9e cfb6 233a 5be5 0e3a
00000030: 05e7 741e 5206 fe9d 9a4e 621f 7e22 3b3b
00000040: 6d11 313b aee5 ac1e 629a 48ba a1b2 89ba
00000050: b768 3e1e 5ab5 10bb 8fca ceb9 0000 0000

exp_avg_sq f4 [2, 1, 4, 3]
4.818531e-38 2.2903222e-07 5.535929e-07 6.25655e-40 3.1516873e-08 1.2955609e-08 4.215834e-39 2.4993918e-08
7.204942e-08 1.796208e-39 2.1583404e-08 1.64415e-08 1.0741e-41 3.921e-42 2.80815e-40 4.5141297e-07
4.0398407e-07 1.98336e-40 3.2417674e-08 6.1054536e-08 3.3345e-41 2.6984426e-07 8.597528e-09 0.0
00000000: 432c 8301 e6eb 7534 9d9a 1435 12d0 0600
00000010: 2b5d 0733 5f93 5e32 08e8 2d00 35b2 d632
00000020: 96b9 9a33 198f 1300 6866 b932 3e3b 8d32
00000030: f11d 0000 ee0a 0000 cc0e 0300 ba59 f234
00000040: 26e3 d834 e128 0200 9c3b 0b33 161d 8333
00000050: f45c 0000 1ddf 9034 54b4 1332 0000 0000

exp_avg f4 [10, 2]
-0.0012247156 -0.0024047666 -0.00021354562 0.00031810883 0.0 0.0 0.0012381093 0.0017670549
0.00088826596 0.0004968434 -0.00030510704 -0.002729387 -0.0006749242 -0.0007650687 -0.00037709402 -0.0039435728
-0.001102494 -0.0037818798 0.00093019084 0.0052239974
00000000: a386 a0ba 4a99 1dbb 37eb 5fb9 d8c7 a639
00000010: 0000 0000 0000 0000 0e48 a23a 869c e73a
00000020: 85da 683a 993e 023a c6f6 9fb9 84df 32bb
00000030: 65ed 30ba e48e 48ba b4b4 c5b9 1639 81bb
00000040: 8f81 90ba 6ad9 77bb 0dd8 733a 112e ab3b

exp_avg_sq f4 [10, 2]
8.320839e-08 3.1999213e-07 2.5466254e-09 5.5896328e-09 0.0 0.0 8.487206e-08 1.730441e-07
4.4323055e-08 1.4274474e-08 5.1410263e-09 4.116455e-07 2.526609e-08 3.2529265e-08 7.86098e-09 8.600565e-07
6.7280325e-08 7.9093377e-07 4.7862866e-08 1.511592e-06
00000000: 4cb0 b233 62cb ab34 b500 2f31 ee0e c031
00000010: 0000 0000 0000 0000 e942 b633 00ce 3934
00000020: b75d 3e33 cd3b 7532 f2a4 b031 2000 dd34
00000030: b808 d932 4eb6 0b33 f50c 0732 a2de 6635
00000040: c07b 9033 8e50 5435 c791 4d33 e8e1 ca35

exp_avg f4 [10]
-0.0023697068 -0.00084932515 0.0 0.0013246873 0.0008731868 -0.0017010027 0.001583083 -0.0012137775
-0.0047879373 0.0040342747
00000000: 154d 1bbb 3fa5 5eba 0000 0000 21a1 ad3a
00000010: 93e6 643a 2ef4 deba 737f cf3a 9d17 9fba
00000020: 21e4 9cbb f331 843b

exp_avg_sq f4 [10]
3.1089093e-07 4.0036795e-08 0.0 9.719963e-08 4.2835104e-08 1.5985567e-07 1.3913329e-07 8.141754e-08
1.267349e-06 9.0127514e-07
00000000: 86e8 a634 ecf4 2b33 0000 0000 10bc d033
00000010: b2f9 3733 cba4 2b34 ab64 1534 c4d7 ae33
00000020: c819 aa35 28ef 7135

exp_avg f4 [10, 10]
0.006851801 0.0035024162 0.0 0.000105901294 7.0368966e-05 0.004312737 0.00020954746 0.013750139
0.011887164 0.008183783 -0.010857668 -0.00037055893 0.0 -0.00017753904 -1.0954427e-05 -0.0060306326
-0.00013731413 -0.018388439 -0.014654852 -0.01019509 -1.5647436e-05 0.00031001982 0.0 0.0
0.0 0.00025404245 0.0002113262 0.00018209813 0.0003832844 0.0 -0.0028411222 -0.0014522878
0.0 -4.3894943e-05 -2.9162302e-05 -0.0017883187 -8.687965e-05 -0.005701482 -0.0049290084 -0.0033932952
0.0 2.5645535e-05 0.0 0.0 0.0 5.1198854e-06 0.0 1.3752729e-05
1.8627392e-05 4.4452608e-07 4.7736386e-05 0.0006221656 0.0 0.0 0.0 0.0003045178
0.00014411264 0.00043308016 0.00064554485 -3.560326e-05 0.008656997 0.0044251713 0.0 0.0001337991
8.8905515e-05 0.005448989 0.00026475362 0.017372781 0.01501898 0.01033988 -0.002368126 -0.0020544692
0.0 0.0 -1.2417104e-05 -0.001777842 -0.00016374192 -0.004613513 -0.004178174 -0.0018014149
-0.0015918156 -0.000813683 0.0 -2.4587915e-05 -1.633386e-05 -0.0010019616 -4.8673577e-05 -0.00319439
-0.0027615947 -0.0019011421 -0.0070986217 -0.0022913814 0.0 -0.00011907183 -7.911317e-05 -0.0039319154
0.0 -0.013693581 -0.011333706 -0.009022363
00000000: 1385 e03b cb88 653b 0000 0000 5317 de38
00000010: 0d93 9338 dc51 8d3b f8b9 5b39 4348 613c
00000020: 61c2 423c 4615 063c 5ce4 31bc 9447 c2b9
00000030: 0000 0000 c629 3ab9 e8c8 37b7 9d9c c5bb
00000040: fbfb 0fb9 5aa3 96bc e81a 70bc 4f09 27bc
00000050: 9d42 83b7 288a a239 0000 0000 0000 0000
00000060: 0000 0000 0031 8539 7297 5d39 98f1 3e39
00000070: 90f3 c839 0000 0000 1f32 3abb b15a beba
00000080: 0000 0000 d61b 38b8 91a1 f4b7 0566 eaba
00000090: 2833 b6b8 7fd3 babb 8583 a1bb 0c62 5ebb
000000a0: 0000 0000 5e21 d737 0000 0000 0000 0000
000000b0: 0000 0000 7bcb ab36 0000 0000 85bb 6637
000000c0: 0542 9c37 33a7 ee34 8e38 4838 d418 233a
000000d0: 0000 0000 0000 0000 0000 0000 b0a7 9f39
000000e0: f11c 1739 090f e339 c839 293a b654 15b8
000000f0: 14d6 0d3c 0701 913b 0000 0000 6c4c 0c39
00000100: c972 ba38 6f8d b23b a1ce 8a39 5d51 8e3c
00000110: 2b12 763c 9a68 293c 9032 1bbb 46a4 06bb
00000120: 0000 0000 0000 0000 0e53 50b7 7a06 e9ba
00000130: 23b2 2bb9 f42c 97bb 10e9 88bb 741d ecba
00000140: 78a4 d0ba 574d 55ba 0000 0000 2542 ceb7
00000150: b204 89b7 4154 83ba db26 4cb8 f958 51bb
00000160: dffb 34bb be2f f9ba 8e9b e8bb 002b 16bb
00000170: 0000 0000 34b6 f9b8 8fe9 a5b8 4cd7 80bb
00000180: 0000 0000 0b5b 60bc 02b1 39bc 89d2 13bc

exp_avg_sq f4 [10, 10]
2.6011908e-06 6.796747e-07 0.0 6.255934e-10 2.7730238e-10 1.0303619e-06 2.4367504e-09 1.0476956e-05
7.830145e-06 3.7127827e-06 6.525098e-06 7.586342e-09 0.0 1.7509456e-09 6.9399174e-12 2.0127761e-06
1.0453745e-09 1.8714209e-05 1.188551e-05 5.752346e-06 1.4681697e-11 5.368185e-09 0.0 0.0
0.0 3.5779595e-09 2.4902207e-09 1.8342622e-09 8.148055e-09 0.0 4.468031e-07 1.16746584e-07
0.0 1.0728751e-10 4.7525157e-11 1.7699473e-07 4.1836593e-10 1.7995369e-06 1.3449246e-06 6.3763576e-07
0.0 8.111553e-11 0.0 0.0 0.0 3.2329645e-12 0.0 2.3326964e-11
4.2794174e-11 2.437109e-14 1.7409262e-10 2.1491823e-08 0.0 0.0 0.0 5.120979e-09
1.1527255e-09 1.0366111e-08 2.3022356e-08 7.214708e-11 4.152112e-06 1.0849196e-06 0.0 9.984974e-10
4.4257917e-10 1.6447062e-06 3.889517e-09 1.6723643e-05 1.2498716e-05 5.9264135e-06 3.1021435e-07 2.3358795e-07
0.0 0.0 8.524103e-12 1.748582e-07 1.4866415e-09 1.1775107e-06 9.658414e-07 1.7950958e-07
1.401902e-07 3.663066e-08 0.0 3.3633207e-11 1.4893028e-11 5.553612e-08 1.3123419e-10 5.646141e-07
4.2197806e-07 2.0004813e-07 2.7895294e-06 2.9056673e-07 0.0 7.9008283e-10 3.500865e-10 8.55569e-07
0.0 1.0381665e-05 7.111431e-06 4.5094653e-06
00000000: 1e90 2e36 e472 3635 0000 0000 39f6 2b30
00000010: d772 982f f74a 8a35 c473 2731 2fc6 2f37
00000020: 375e 0337 1f29 7936 2af2 da36 1655 0232
00000030: 0000 0000 eca5 f030 382d f42c 3b13 0736
00000040: d8ac 8f30 75fc 9c37 e067 4737 4704 c136
00000050: 3e24 812d 0e73 b831 0000 0000 0000 0000
00000060: 0000 0000 21e0 7531 6d20 2b31 5d19 fc30
00000070: 86fb 0b32 0000 0000 27e0 ef34 1db6 fa33
00000080: 0000 0000 80ed eb2e 9204 512e f10b 3e34
00000090: c5ff e52f 9e87 f135 4283 b435 ff29 2b35
000000a0: 0000 0000 fc5f b22e 0000 0000 0000 0000
000000b0: 0000 0000 e97f 632c 0000 0000 a72f cd2d
000000c0: f535 3c2e e883 db28 b76a 3f2f 059d b832
000000d0: 0000 0000 0000 0000 0000 0000 9cf4 af31
000000e0: ec6d 9e30 a316 3232 b2c2 c532 32a7 9e2e
000000f0: 5f52 8b36 8e9d 9135 0000 0000 813b 8930
00000100: 7b4f f32f adbf dc35 8ea4 8531 c049 8c37
00000110: 94b1 5137 81db c636 898b a634 2bd0 7a34
00000120: 0000 0000 0000 0000 26f5 152d a8c0 3b34
00000130: 8c52 cc30 f60a 9e35 0fa2 8135 38bf 4034
00000140: 3087 1634 d653 1d33 0000 0000 a0eb 132e
00000150: 1e00 832d 9c86 6e33 244b 102f fc8f 1735
00000160: 398c e234 d0cc 5634 c033 3b36 30ff 9b34
00000170: 0000 0000 232d 5930 4b76 c02f 41aa 6535
00000180: 0000 0000 e92c 2e37 ba9e ee36 0350 9736

exp_avg f4 [10]
0.016141595 -0.016624462 0.002136499 -0.0066930493 5.244153e-05 0.0025340465 0.020394288 -0.007720436
-0.0037499238 -0.0120997215
00000000: 613b 843c 0630 88bc 8104 0c3b 5e51 dbbb
00000010: aaf4 5b38 3f12 263b ec11 a73c b6fb fcbb
00000020: 48c1 75bb e93d 46bc

exp_avg_sq f4 [10]
1.4439562e-05 1.5299385e-05 2.5344534e-07 2.4800881e-06 3.3918077e-10 3.553564e-07 2.3048833e-05 3.2990124e-06
7.7812786e-07 8.103848e-06
00000000: 7241 7237 2e57 8037 4311 8834 976f 2636
00000010: 7377 ba2f d0c7 be34 fe58 c137 9a64 5d36
00000020: 8ae0 5035 c3f5 0737

exp_avg f4 [1, 10]
0.021422569 0.0038100956 0.00012648606 0.0339517 4.002493e-07 0.00067700644 0.024605503 0.008262177
0.018513342 0.019682026
00000000: 627e af3c ccb2 793b 58a1 0439 f010 0b3d
00000010: d8e1 d634 2279 313a 7b91 c93c 155e 073c
00000020: 4ba9 973c 333c a13c

exp_avg_sq f4 [1, 10]
2.5447267e-05 8.0187425e-07 8.986324e-10 6.382648e-05 1.9757938e-14 2.544737e-08 3.3576587e-05 3.7777017e-06
1.8964218e-05 2.1441676e-05
00000000: 9777 d537 6140 5735 a203 7730 95da 8538
00000010: b4f6 b128 5c97 da32 96d4 0c38 6c84 7d36
00000020: 5915 9f37 a6dd b337

exp_avg f4 [10, 2]
-0.00081264577 -0.0013308637 -0.0004267742 -0.00026587042 -0.00061264227 -0.0010765588 -3.1764303e-05 0.00012457256
-0.00015739103 -0.0017054733 0.00029606168 0.0018152812 -0.00034475292 0.00026113156 -0.00022659478 0.0023564165
-0.00063799816 -0.001965384 0.00020423045 -0.0009049603
00000000: bc07 55ba 6070 aeba aac0 dfb9 8664 8bb9
00000010: ba99 20ba 521b 8dba a93a 05b8 b19f 0239
00000020: 5509 25b9 308a dfba ba38 9b39 bbee ed3a
00000030: f4bf b4b9 7ce8 8839 139a 6db9 1c6e 1a3b
00000040: 553f 27ba accd 00bb b226 5639 dc3a 6dba

exp_avg_sq f4 [10, 2]
3.65818e-08 9.798174e-08 1.0083558e-08 3.9145274e-09 2.0807231e-08 6.425359e-08 5.5752996e-11 8.7867524e-10
1.3724646e-09 1.61108e-07 4.8739435e-09 1.8283866e-07 6.5962125e-09 3.7755963e-09 2.8442233e-09 3.080111e-07
2.2557593e-08 2.1401705e-07 2.3103512e-09 4.5321833e-08
00000000: 1d1e 1d33 086a d233 f53b 2d32 8c80 8631
00000010: 96bb b232 c9fb 8933 4b34 752e 4687 7130
00000020: 4ea1 bc30 08fd 2c34 a977 a731 4f52 4434
00000030: e6a4 e231 7fba 8131 1b74 4331 b95c a534
00000040: acc4 c132 8fcc 6534 21c4 1e31 e2a7 4233

exp_avg f4 [10]
-0.003959153 0.0009377906 -0.0017400752 -0.00015541601 -0.0017409555 0.0021948314 -0.0018153525 0.0017452418
-0.0013491608 -0.0019820873
00000000: c8bb 81bb 10d6 753a 3c13 e4ba 2bf7 22b9
00000010: c630 e4ba 29d7 0f3b 1ff1 edba 99c0 e43a
00000020: 53d6 b0ba e8e5 01bb

exp_avg_sq f4 [10]
8.678122e-07 4.8705957e-08 1.6770545e-07 1.3446029e-09 1.6784074e-07 2.674149e-07 1.8242659e-07 1.6891525e-07
1.0085958e-07 2.175933e-07
00000000: 9af3 6835 c430 5133 8612 3434 02cd b830
00000010: b637 3434 3991 8f34 0ae1 4334 125f 3534
00000020: 2498 d833 97a3 6934

exp_avg f4 [10, 10]
-0.0079901675 -0.00012882386 -0.0029050505 -0.00633738 -0.0059067276 -0.01051954 -0.0012996376 -0.0009674941
-0.0013585774 -0.0029070184 -0.006193787 -0.00013130986 -0.0022794744 -0.004871976 -0.00470109 -0.008098013
-0.0011136463 -0.0007396007 -0.0010385716 -0.0025064969 0.0 0.0 0.0 0.0
0.0 0.0 0.0 0.0 0.0 0.0 -0.002408339 -0.000106235675
-0.0011362714 -0.0015044798 -0.0027800007 -0.002962779 -0.0009009941 -0.00019882979 -1.4190555e-05 -0.001957828
0.004501168 9.542823e-05 0.0016565213 0.0035406156 0.0034163634 0.0058850944 0.0008093028 0.00053751306
0.0007547404 0.0018214873 -0.00055419496 -1.1747846e-05 -0.00020397142 -0.00043590387 -0.00042064834 -0.00072453317
-9.9649835e-05 -6.616161e-05 -9.293425e-05 -0.00022429341 0.0052312636 0.0 0.0012331016 0.005547266
0.0014849778 0.006901186 0.0 0.0008909638 0.0012514483 0.0007548574 -0.0006354578 -4.225686e-05
-0.0004174706 -0.00013728469 -0.0011502255 -0.0007940881 -0.0003794911 0.0 0.0 -0.00068920845
0.0 0.0 0.0 0.0 0.0 0.0 0.0 0.0
0.0 0.0 0.0 0.0 0.0 0.0 0.0 0.0
0.0 0.0 0.0 0.0
00000000: 31e9 02bc e414 07b9 a962 3ebb cca9 cfbb
00000010: 398d c1bb 265a 2cbc 9a58 aaba 6e9f 7dba
00000020: 4b12 b2ba ad83 3ebb 40f5 cabb 39b0 09b9
00000030: 3c63 15bb 19a5 9fbb 9a0b 9abb 87ad 04bc
00000040: c5f7 91ba c3e1 41ba ae20 88ba 0a44 24bb
00000050: 0000 0000 0000 0000 0000 0000 0000 0000
00000060: 0000 0000 0000 0000 0000 0000 0000 0000
00000070: 0000 0000 0000 0000 39d5 1dbb d8ca deb8
00000080: f1ee 94ba f731 c5ba ac30 36bb 2f2b 42bb
00000090: b130 6cba f77c 50b9 f813 6eb7 e74e 00bb
000000a0: 897e 933b a420 c838 a21f d93a ac09 683b
000000b0: 11e5 5f3b c0d7 c03b 6427 543a e4e7 0c3a
000000c0: c5d9 453a f9be ee3a 6547 11ba 9d18 45b7
000000d0: 29e1 55b9 078a e4b9 778a dcb9 99ee 3dba
000000e0: 19fb d0b8 3ec0 8ab8 b2e5 c2b8 4e30 6bb9
000000f0: 056b ab3b 0000 0000 06a0 a13a d7c5 b53b
00000100: 96a3 c23a 5823 e23b 0000 0000 928f 693a
00000110: a307 a43a 9fe1 453a da94 26ba f53c 31b8
00000120: f5df dab9 14f4 0fb9 2ac3 96ba 5a2a 50ba
00000130: 6ff6 c6b9 0000 0000 0000 0000 ffab 34ba
00000140: 0000 0000 0000 0000 0000 0000 0000 0000
00000150: 0000 0000 0000 0000 0000 0000 0000 0000
00000160: 0000 0000 0000 0000 0000 0000 0000 0000
00000170: 0000 0000 0000 0000 0000 0000 0000 0000
00000180: 0000 0000 0000 0000 0000 0000 0000 0000

exp_avg_sq f4 [10, 10]
3.5380856e-06 9.1900954e-10 4.6751066e-07 2.2264478e-06 1.9328452e-06 6.1347127e-06 9.352162e-08 5.1939043e-08
1.0226328e-07 4.6781625e-07 2.1261046e-06 9.560636e-10 2.8788045e-07 1.3157714e-06 1.2246246e-06 3.6354243e-06
6.871659e-08 3.0349852e-08 5.9757795e-08 3.4802673e-07 0.0 0.0 0.0 0.0
0.0 0.0 0.0 0.0 0.0 0.0 3.2089847e-07 6.25749e-10
7.147026e-08 1.2515521e-07 4.2795673e-07 4.857056e-07 4.4976055e-08 2.1843023e-09 1.3661805e-11 2.1230008e-07
1.123693e-06 5.0534993e-10 1.5214181e-07 6.954444e-07 6.472206e-07 1.9215095e-06 3.6316457e-08 1.6043927e-08
3.1581045e-08 1.8392281e-07 1.6980673e-08 7.632638e-12 2.2998305e-09 1.0506731e-08 9.782067e-09 2.9028135e-08
5.489386e-10 2.421784e-10 4.774163e-10 2.780706e-09 1.5181794e-06 0.0 8.433524e-08 1.7070877e-06
1.223968e-07 2.6430666e-06 0.0 4.407325e-08 8.681269e-08 3.1584566e-08 2.2347775e-08 9.893171e-11
9.647607e-09 1.0420466e-09 7.325192e-08 3.4903547e-08 7.9774e-09 0.0 0.0 2.6299713e-08
0.0 0.0 0.0 0.0 0.0 0.0 0.0 0.0
0.0 0.0 0.0 0.0 0.0 0.0 0.0 0.0
0.0 0.0 0.0 0.0
00000000: d96f 6d36 8c9d 7c30 2dfe fa34 156a 1536
00000010: 07b6 0136 c8d8 cd36 0ed6 c833 9513 5f33
00000020: d59b db33 2d28 fb34 33ae 0e36 7f66 8330
00000030: fd8d 9a34 9099 b035 c85d a435 1df8 7336
00000040: 5891 9333 045a 0233 3254 8033 6ed8 ba34
00000050: 0000 0000 0000 0000 0000 0000 0000 0000
00000060: 0000 0000 0000 0000 0000 0000 0000 0000
00000070: 0000 0000 0000 0000 f347 ac34 2c01 2c30
00000080: 317b 9933 6762 0634 edc1 e534 6f61 0235
00000090: b22b 4133 a71a 1631 4d57 702d 9af4 6334
000000a0: ccd1 9635 d7e8 0a30 6c5c 2334 93ae 3a35
000000b0: a9bc 2d35 48f3 0036 5efa 1b33 f8d0 8932
000000c0: baa3 0733 517c 4534 e5dc 9132 5846 062d
000000d0: 0c0b 1e31 1781 3432 fc0d 2832 8b59 f932
000000e0: 1fe4 1630 9423 852f 2f3b 0330 b316 3f31
000000f0: 3fc4 cb35 0000 0000 ca1b b533 161f e535
00000100: 2d6c 0334 8a5f 3136 0000 0000 0d4b 3d33
00000110: c86d ba33 99a7 0733 47f7 bf32 9a8d d92e
00000120: a0be 2532 c137 8f30 ab4e 9d33 dbe8 1533
00000130: fa0c 0932 0000 0000 0000 0000 aee9 e132
00000140: 0000 0000 0000 0000 0000 0000 0000 0000
00000150: 0000 0000 0000 0000 0000 0000 0000 0000
00000160: 0000 0000 0000 0000 0000 0000 0000 0000
00000170: 0000 0000 0000 0000 0000 0000 0000 0000
00000180: 0000 0000 0000 0000 0000 0000 0000 0000

exp_avg f4 [10]
-0.009933619 -0.007903227 0.0 -0.0040756003 0.0057434603 -0.00070714665 0.0050620115 -0.0012911164
0.0 0.0
00000000: 9ec0 22bc 897c 01bc 0000 0000 9d8c 85bb
00000010: a333 bc3b cf5f 39ba 3bdf a53b ad3a a9ba
00000020: 0000 0000 0000 0000

exp_avg_sq f4 [10]
5.467709e-06 3.461681e-06 0.0 9.1956144e-07 1.8295791e-06 2.7647262e-08 1.4217659e-06 9.228505e-08
0.0 0.0
00000000: 4377 b736 3a4f 6836 0000 0000 c8d7 7635
00000010: dc8f f535 f97c ed32 81d3 be35 3e2e c633
00000020: 0000 0000 0000 0000

exp_avg f4 [1, 10]
-0.019503377 -0.014970357 0.0 -0.003507683 -0.010155086 -0.009809069 -0.010039841 -0.0013230157
0.0 0.0
00000000: 8cc5 9fbc 3a46 75bc 0000 0000 28e1 65bb
00000010: 8561 26bc 38b6 20bc 257e 24bc 0a69 adba
00000020: 0000 0000 0000 0000

exp_avg_sq f4 [1, 10]
2.1078822e-05 1.240994e-05 0.0 6.808246e-07 5.726867e-06 5.3269737e-06 5.5951646e-06 9.678344e-08
0.0 0.0
00000000: 6dd2 b037 4934 5037 0000 0000 e9c1 3635
00000010: 6a29 c036 5bbe b236 19be bb36 42d7 cf33
00000020: 0000 0000 0000 0000

exp_avg f4 [10, 2]
0.006565385 0.0031484514 0.011051635 0.0052855317 0.0 0.0 0.0 0.0
0.011267228 0.0054492154 2.080222e-06 -9.378455e-07 0.0 0.0 2.0077918e-05 -2.3504119e-05
-0.00035877028 -0.00021956091 0.0 0.0
00000000: 7122 d73b 4056 4e3b eb11 353c 4132 ad3b
00000010: 0000 0000 0000 0000 0000 0000 0000 0000
00000020: 2e9a 383c 558f b23b f199 0b36 41c0 7bb5
00000030: 0000 0000 0000 0000 006d a837 b62a c5b7
00000040: 5519 bcb9 ef39 66b9 0000 0000 0000 0000

exp_avg_sq f4 [10, 2]
2.3910627e-06 5.498091e-07 6.770105e-06 1.5485252e-06 0.0 0.0 0.0 0.0
7.035745e-06 1.6459329e-06 2.3962554e-13 4.8842623e-14 0.0 0.0 2.2332464e-11 3.0579234e-11
7.113421e-09 2.6708875e-09 0.0 0.0
00000000: 2576 2036 9896 1335 c22a e336 ecd6 cf35
00000010: 0000 0000 0000 0000 0000 0000 0000 0000
00000020: 9714 ec36 d3e9 dc35 aee5 862a b6f7 5b29
00000030: 0000 0000 0000 0000 3d70 c42d 287d 062e
00000040: 506a f431 c08a 3731 0000 0000 0000 0000

exp_avg f4 [10]
0.006437951 0.010796272 0.0 0.0 0.011006515 -2.2783692e-07 0.0 -8.065064e-06
-0.00034789403 0.0
00000000: 72f5 d23b d9e2 303c 0000 0000 0000 0000
00000010: ab54 343c 56a3 74b4 0000 0000 304f 07b7
00000020: 8c65 b6b9 0000 0000

exp_avg_sq f4 [10]
2.2990228e-06 6.460632e-06 0.0 0.0 6.7136234e-06 2.9012306e-15 0.0 3.6033596e-12
6.6871015e-09 0.0
00000000: e948 1a36 68c8 d836 0000 0000 0000 0000
00000010: 9645 e136 420e 5127 0000 0000 5b90 7d2c
00000020: 5ec4 e531 0000 0000

exp_avg f4 [10, 10]
0.0 0.0 0.0 0.0 0.0 0.0 0.0 0.0
0.0 0.0 0.017249817 0.013800309 0.0 0.0 0.010717012 -4.575281e-06
0.0 -7.361906e-05 0.0049590482 0.0 0.026238296 0.020866875 0.0 0.0
0.016236365 -4.7275182e-07 0.0 -2.0850086e-05 0.007529942 0.0 0.0 0.0
0.0 0.0 0.0 0.0 0.0 0.0 0.0 0.0
0.00025374632 0.00020032549 0.0 0.0 0.00016722549 2.3744358e-08 0.0 -4.7478383e-07
6.4423395e-05 0.0 -7.383017e-06 8.21512e-06 0.0 0.0 2.6354348e-06 0.0
0.0 0.0 1.6770815e-05 0.0 0.0 0.0 0.0 0.0
0.0 0.0 0.0 0.0 0.0 0.0 0.0 0.0
0.0 0.0 0.0 0.0 0.0 0.0 0.0 0.0
0.0 0.0 0.0 0.0 0.0 0.0 0.0 0.0
0.0 0.0 -0.010738657 -0.008591182 0.0 0.0 -0.0066716904 2.8445304e-06
0.0 4.583281e-05 -0.003087377 0.0
00000000: 0000 0000 0000 0000 0000 0000 0000 0000
00000010: 0000 0000 0000 0000 0000 0000 0000 0000
00000020: 0000 0000 0000 0000 7d4f 8d3c b11a 623c
00000030: 0000 0000 0000 0000 6896 2f3c 5d85 99b6
00000040: 0000 0000 ef63 9ab8 837f a23b 0000 0000
00000050: b2f1 d63c 02f1 aa3c 0000 0000 0000 0000
00000060: 2002 853c 84ce fdb4 0000 0000 38e7 aeb7
00000070: bbbd f63b 0000 0000 0000 0000 0000 0000
00000080: 0000 0000 0000 0000 0000 0000 0000 0000
00000090: 0000 0000 0000 0000 0000 0000 0000 0000
000000a0: 4109 8539 770e 5239 0000 0000 0000 0000
000000b0: 4059 2f39 65f6 cb32 0000 0000 cbe5 feb4
000000c0: 0c1b 8738 0000 0000 a2bb f7b6 acd3 0937
000000d0: 0000 0000 0000 0000 6ddc 3036 0000 0000
000000e0: 0000 0000 0000 0000 0daf 8c37 0000 0000
000000f0: 0000 0000 0000 0000 0000 0000 0000 0000
00000100: 0000 0000 0000 0000 0000 0000 0000 0000
00000110: 0000 0000 0000 0000 0000 0000 0000 0000
00000120: 0000 0000 0000 0000 0000 0000 0000 0000
00000130: 0000 0000 0000 0000 0000 0000 0000 0000
00000140: 0000 0000 0000 0000 0000 0000 0000 0000
00000150: 0000 0000 0000 0000 0000 0000 0000 0000
00000160: 0000 0000 0000 0000 31f1 2fbc 07c2 0cbc
00000170: 0000 0000 0000 0000 329e dabb a9e4 3e36
00000180: 0000 0000 9b3c 4038 9755 4abb 0000 0000

exp_avg_sq f4 [10, 10]
0.0 0.0 0.0 0.0 0.0 0.0 0.0 0.0
0.0 0.0 1.6489616e-05 1.0554652e-05 0.0 0.0 6.3657644e-06 1.2354105e-12
0.0 3.0010355e-10 1.3614679e-06 0.0 3.8147613e-05 2.412917e-05 0.0 0.0
1.4609679e-05 1.23953895e-14 0.0 2.4693294e-11 3.1387533e-06 0.0 0.0 0.0
0.0 0.0 0.0 0.0 0.0 0.0 0.0 0.0
3.7758903e-09 2.3529538e-09 0.0 0.0 1.6373878e-09 1.0768985e-16 0.0 1.4215564e-14
2.426317e-10 0.0 3.0818445e-12 3.8620235e-12 0.0 0.0 4.0226172e-13 0.0
0.0 0.0 1.6366847e-11 0.0 0.0 0.0 0.0 0.0
0.0 0.0 0.0 0.0 0.0 0.0 0.0 0.0
0.0 0.0 0.0 0.0 0.0 0.0 0.0 0.0
0.0 0.0 0.0 0.0 0.0 0.0 0.0 0.0
0.0 0.0 6.3859384e-06 4.0874515e-06 0.0 0.0 2.4651963e-06 4.760422e-13
0.0 1.1624339e-10 5.273817e-07 0.0
00000000: 0000 0000 0000 0000 0000 0000 0000 0000
00000010: 0000 0000 0000 0000 0000 0000 0000 0000
00000020: 0000 0000 0000 0000 2e53 8a37 e313 3137
00000030: 0000 0000 0000 0000 8099 d536 5bde ad2b
00000040: 0000 0000 d2fb a42f aebb b635 0000 0000
00000050: b000 2038 ff68 ca37 0000 0000 0000 0000
00000060: 181c 7537 a54b 5f28 0000 0000 5b34 d92d
00000070: 5fa3 5236 0000 0000 0000 0000 0000 0000
00000080: 0000 0000 0000 0000 0000 0000 0000 0000
00000090: 0000 0000 0000 0000 0000 0000 0000 0000
000000a0: 15bd 8131 9ab1 2131 0000 0000 0000 0000
000000b0: 760a e130 de50 f824 0000 0000 dc0a 8028
000000c0: 6063 852f 0000 0000 93dd 582c 04e2 872c
000000d0: 0000 0000 0000 0000 0674 e22a 0000 0000
000000e0: 0000 0000 0000 0000 ddf6 8f2d 0000 0000
000000f0: 0000 0000 0000 0000 0000 0000 0000 0000
00000100: 0000 0000 0000 0000 0000 0000 0000 0000
00000110: 0000 0000 0000 0000 0000 0000 0000 0000
00000120: 0000 0000 0000 0000 0000 0000 0000 0000
00000130: 0000 0000 0000 0000 0000 0000 0000 0000
00000140: 0000 0000 0000 0000 0000 0000 0000 0000
00000150: 0000 0000 0000 0000 0000 0000 0000 0000
00000160: 0000 0000 0000 0000 cb46 d636 f126 8936
00000170: 0000 0000 0000 0000 c06f 2536 75fe 052b
00000180: 0000 0000 369f ff2e 6591 0d35 0000 0000

exp_avg f4 [10]
0.0 0.02671605 0.040671818 0.0 0.0003461054 -1.6554437e-05 0.0 0.0
0.0 -0.01663196
00000000: 0000 0000 9edb da3c 7e97 263d 0000 0000
00000010: 7b75 b539 62de 8ab7 0000 0000 0000 0000
00000020: 0000 0000 c03f 88bc

exp_avg_sq f4 [10]
0.0 3.9544415e-05 9.1639435e-05 0.0 7.0450548e-09 1.5555649e-11 0.0 0.0
0.0 1.5315187e-05
00000000: 0000 0000 7edc 2538 8c2e c038 0000 0000
00000010: f510 f231 35d4 882d 0000 0000 0000 0000
00000020: 0000 0000 1d79 8037

exp_avg f4 [1, 10]
0.0 0.019685883 0.017436195 0.0 0.00032077782 9.444102e-07 0.0 0.0
0.0 0.024109993
00000000: 0000 0000 4a44 a13c 5ad6 8e3c 0000 0000
00000010: 122e a839 6083 7d35 0000 0000 0000 0000
00000020: 0000 0000 5282 c53c

exp_avg_sq f4 [1, 10]
0.0 2.1495573e-05 1.6875152e-05 0.0 6.410445e-09 6.9020846e-14 0.0 0.0
0.0 3.2177737e-05
00000000: 0000 0000 6451 b437 1d8f 8d37 0000 0000
00000010: df42 dc31 cf6b 9b29 0000 0000 0000 0000
00000020: 0000 0000 95f6 0638

exp_avg f4 [1, 3]
-0.0006820963 0.0028075199 -0.07602171
00000000: b5ce 32ba 5efe 373b 45b1 9bbd

exp_avg_sq f4 [1, 3]
2.6059032e-08 4.449157e-07 0.00032069793
00000000: 6bd8 df32 c0dc ee34 5923 a839

exp_avg f4 [1, 3]
-0.0013808609 -0.004340926 -0.027418438
00000000: 01fe b4ba 543e 8ebb a29c e0bc

exp_avg_sq f4 [1, 3]
1.0561017e-07 1.0452954e-06 4.16239e-05
00000000: cecb e233 144c 8c35 5395 2e38

exp_avg f4 [1, 3]
0.007387199 0.101212166 -0.027684065
00000000: 5110 f23b 5348 cf3d b1c9 e2bc

exp_avg_sq f4 [1, 3]
3.0336146e-06 0.00056749117 4.2587562e-05
00000000: 1a95 4b36 b0c3 143a 0ca0 3238
