models/onlyadam_q/ckpt/ckpt-1.pt (torch, 36475 bytes, 63 tensors)

qlayers.0.weights f4 [2, 1, 4, 3]
00000000: b787 0a40 71a7 9640 964a c03f 8e23 b640
00000010: 16a8 9e40 05bf c340 f602 5240 7894 2e40
00000020: 6c7c 5840 0dd4 3e40 5ab5 703f 43a6 b03e
00000030: 59a9 3040 5053 903f 3de7 8340 a476 3640
00000040: 568f ef3f 9e2d a340 ef7f c240 da8b 3140
00000050: 7049 9740 756c 2240 e357 1140 7c76 e43f
2.1645334 4.7079396 1.5022762 5.69184 4.9580183 6.117068 3.2814307 2.7278118
3.382594 2.9816926 0.9402672 0.34501848 2.7603362 1.1275425 4.1219773 2.8509912
1.8715618 5.0993185 6.078117 2.7741609 4.7277145 2.5378697 2.2709892 1.7848659

qlayers.1.weights f4 [2, 1, 4, 3]
00000000: 8267 8440 9ce3 c640 c563 4b40 bae5 3040
00000010: 626d 7f40 1a7b 8f3f 1ab4 283f d7e7 cf3f
00000020: 8d47 7e40 0ebb 7240 addf a240 789f 3d40
00000030: 5804 b640 b26b b140 fd75 8b3f 68b9 1040
00000040: 805d 8340 b4aa 9f40 3601 d03e e838 8240
00000050: f9d8 af40 edd8 9c40 16cd 583f 641c 183f
4.137635 6.2152843 3.1779644 2.7640214 3.9910512 1.1209443 0.65899813 1.6242627
3.973117 3.792667 5.089804 2.9628582 5.6880302 5.5443964 1.0895382 2.2613163
4.1051636 4.989588 0.40625924 4.0694466 5.495236 4.90148 0.84687936 0.5941832

qlayers.2.weights f4 [2, 1, 4, 3]
00000000: 1e41 c440 797c 6a3f 321e aa40 65d8 9d40
00000010: 308b 163f fb1a 6040 13c4 3c40 e0d4 1f40
00000020: dbea e63f 1c80 0440 e880 c340 26b3 363d
00000030: 4d41 c13f 5695 8c40 0bdb 9540 1866 f63f
00000040: 6be1 de3f ac2f 9e3f ad1d 6b40 0a92 8240
00000050: 1979 bf3f 6cd8 f73f 04fc 0140 1bcd 2940
6.132949 0.9159618 5.316186 4.9326653 0.58806133 3.5016468 2.9494674 2.4973679
1.8040422 2.0703192 6.1094856 0.044604443 1.5098053 4.3932295 4.6829886 1.9249907
1.7412542 1.2358298 3.6736863 4.080327 1.4958831 1.9362922 2.0310068 2.6531436

clayers.0.0.weight f4 [10, 2]
00000000: c6de af3c 2b8c cd3e 2e2e 123f b290 2dbf
00000010: 25b0 05be a872 cb3d a731 3c3e 5045 d93d
00000020: c3e7 a03e 619c c6bc 2ade e9bc f98a 1c3e
00000030: 8633 8dbe 7e87 8fbe ec79 b33e 9e77 ef3e
00000040: e5d3 ac3e a7e9 923e 1ffd 243f 8af8 9d3e
0.021468531 0.40146002 0.57101715 -0.6779891 -0.13055475 0.09933978 0.18378316 0.106089234
0.3142682 -0.02424449 -0.028548319 0.15287389 -0.27578372 -0.2803306 0.35053957 0.46770948
0.33755413 0.28693888 0.6444873 0.30853683

clayers.0.0.bias f4 [10]
00000000: d3ee 153e 73fd e63d 13ae 6bbe 6efe 88be
00000010: db19 92be 90dc 343e 5e42 2abe a846 f23e
00000020: cc00 f43e bf6e f23d
0.14641885 0.1127881 -0.23015623 -0.26756614 -0.2853535 0.17662263 -0.1662688 0.4731953
0.47656858 0.118375294

clayers.0.2.weight f4 [10, 10]
00000000: 7c0d 223e e552 a6bd 0732 83be 950d 43be
00000010: 9a02 63be c244 143b e2bc 4a3e b11a 82be
00000020: a5cf 9d3e ca7a 19bd 742e 89be 4c09 9abe
00000030: ec90 03be 5e93 84be 6a86 61be 3275 113e
00000040: cfd3 01be b1ff 8d3e 5250 773d 8972 8bbe
00000050: 1fcd 553e ad38 70be 2ee0 0cbe 4f5f fcbc
00000060: 25ef 8dbd 5723 42be c0b3 9f3e 37e8 8abe
00000070: 36a3 013e 3f1b c0bd 7a8d 753e 5490 72be
00000080: 65ca 8abd 23cb 603e 8298 9bbe c801 adbd
00000090: cf26 49be 67b3 4cbe 312d 9b3e 70b4 d93d
000000a0: 6ba3 973e e939 4d3e 3daf 02bc 92f8 803d
000000b0: eca0 0c3e 7bce 99be 5c6f 8fbd 212a 72be
000000c0: 1107 433e 300f 9bbe 8202 133e 7e70 babd
000000d0: bfc9 cd3d db7b 4b3e 4ae4 4d3d 00c8 01be
000000e0: 570e 77be 3a69 38bd 93db 76be 48e6 42bc
000000f0: cc55 8cbe 8b78 fa3c d346 763e 14d9 153e
00000100: d90e 7a3e f29a 0b3e 30c4 033e dfb2 8b3e
00000110: 4ee2 51be 78e8 203e 5162 663e 2510 2a3d
00000120: 4e11 1e3e d76e 933e 12ad b23b e811 a8bc
00000130: 9a58 4f3d 4825 98be 0565 8d3c 97bd 83be
00000140: d180 7d3d 2585 833e e8a4 ddbc b28a 4e3e
00000150: 6fde 1dbe 8fce c9bc 2918 e1bd 5750 4339
00000160: 657a 863e 274f 95be 0467 703e b6a0 123e
00000170: 6eca 653c a3a3 87be 2b2e 343c 6952 403e
00000180: c6df 7d3e c2dd ae3d 63a2 c13d c711 6c3e
0.15825456 -0.081212796 -0.25624105 -0.1904815 -0.22168961 0.002262399 0.19798616 -0.2541099
0.30822483 -0.037470616 -0.26793253 -0.30085218 -0.12848252 -0.25893682 -0.22023931 0.14204863
-0.12678455 0.2773414 0.060379334 -0.2723582 0.20879029 -0.2345912 -0.13757393 -0.030807165
-0.06930379 -0.18958794 0.31191826 -0.2713029 0.12659916 -0.09380197 0.2397975 -0.2368787
-0.06776885 0.2195249 -0.30389792 -0.08447605 -0.1964371 -0.19990312 0.30307916 0.10630119
0.29616866 0.20041622 -0.00797635 0.06297411 0.13733262 -0.30040345 -0.07003662 -0.23648883
0.19045664 -0.30285025 0.14356425 -0.091034874 0.10048246 0.19871466 0.05026654 -0.1267395
-0.24126564 -0.045022227 -0.24107198 -0.011895724 -0.27409208 0.030575057 0.24050455 0.1463359
0.24419726 0.13633326 0.12867808 0.27284905 -0.20496485 0.1571368 0.22498442 0.041519303
0.15436289 0.28795502 0.0054527605 -0.02051635 0.050621606 -0.29715943 0.017260084 -0.25730583
0.061890427 0.2568752 -0.027056172 0.20170096 -0.15416883 -0.024634628 -0.10990936 0.00018626578
0.26265255 -0.2916195 0.23476797 0.14319119 0.014025314 -0.26492032 0.010997335 0.18781437
0.24792394 0.08538391 0.09454801 0.23053657

clayers.0.2.bias f4 [10]
00000000: 21dc 4c3e 982a 7c3c 4f40 313d ec4d 833e
00000010: 397e 95bd bf0f 1a3e 5d47 3f3e 4f3f 9d3e
00000020: 6440 bd3d fc8f 77be
0.20005848 0.0153910145 0.04327422 0.25645387 -0.07299466 0.15045069 0.18679567 0.30712363
0.09240797 -0.2417602

clayers.0.4.weight f4 [1, 10]
00000000: 78c9 3b3e 582b a1be 9287 8d3e fa1b 9dbd
00000010: b64a 003e 4dfe 003e da63 6d3e aa9d 13be
00000020: ace7 30bd 9b38 54be
0.18338573 -0.3147838 0.27642494 -0.07671352 0.125285 0.12597008 0.23182622 -0.14415613
-0.04318969 -0.20724718

clayers.1.0.weight f4 [10, 2]
00000000: 49ce 413e 575f b33e a386 9fbe af20 95be
00000010: e314 683e f384 47bd ef4b c0be a31d 2f3f
00000020: 1f36 1b3f adc2 c4be 9adf ef3e d65d f83e
00000030: 4fda 013e db2e 2abf 23f6 88be 1e9b c23e
00000040: c5fd b23e 7446 133f f890 ecbe e56b a4be
0.18926348 0.35033676 -0.31157407 -0.29126498 0.22664218 -0.048710775 -0.37557933 0.684046
0.6062946 -0.38429776 0.46850282 0.4850909 0.12680934 -0.66477746 -0.26750287 0.3800897
0.34959236 0.5752938 -0.46204352 -0.32113567

clayers.1.0.bias f4 [10]
00000000: 6421 053f 0e51 29be 6440 893e ddde 6e3e
00000010: 4db6 313f ce2e 1c3f f143 123e f98c 9ebe
00000020: bfca 26bf 5c76 113f
0.52004075 -0.16534826 0.2680694 0.23327203 0.69418794 0.6100892 0.1428373 -0.3096693
-0.65153116 0.5682123

clayers.1.2.weight f4 [10, 10]
00000000: 9ca3 c13d 847e 72be ac14 243e 71b6 843e
00000010: d266 76be 4c65 453e 1e33 8e3e c64b 3fbe
00000020: effb 923e 3684 83be 25da 5f3e d422 e3bd
00000030: 3856 693e 0c9d f5bd a349 9e3e 1f24 b7bd
00000040: 4d4e bdbd 3776 50be 827c 483e 1721 803e
00000050: 35a0 1cbe dd38 213d a7cc efbd ca49 85be
00000060: e0da 80be 68f3 43bd eaaa 7ebe 5794 82bd
00000070: 1b43 323e 7e96 2ebe 1f93 823e 354c aabd
00000080: 85bf 67be 2084 c2bd 5d16 b23d 1319 3ebe
00000090: 3117 38be 2c10 94bd 8327 d7bd 0af2 a03e
000000a0: d757 12be db75 b9bd 4fc8 a2bd 6593 0dbe
000000b0: 5496 a53d c35a 673e 847a 9cbe f02b 033e
000000c0: 1364 5d3c 64c0 a0bd 576c 7d3e 0867 70be
000000d0: 96d4 91be b7b7 bf3d cade 763d e53d 7abe
000000e0: 2744 963e 00f7 be3d 6b48 f73c 4dc2 943d
000000f0: 6aed 2a3e 78e6 9fbe ae04 2c3e 2e80 893e
00000100: 5f0d 96be 3c20 6d3e 0b9b 74be 732a 113c
00000110: dc39 b33d 9f03 73be 2d0b bc3d 8f55 3ebe
00000120: 07b3 bbbd d3c2 3ebd 3972 303e 0fe0 223c
00000130: 67b4 8d3e c264 74be faac 5abe 648c 133e
00000140: c80f 97be 78e0 7dbe 36c9 19bd f1b6 283e
00000150: d909 5cbe 8911 efbc a56f 48be 2659 1ebe
00000160: 8ed5 483e 4e5e 43be 6acd babd 434b 6abe
00000170: e483 b83c 3e6b 903e 1c0d 183d fb8a 9ebe
00000180: 6641 68be eec8 09be dd66 963d c095 0a3e
0.09455034 -0.23681074 0.1602351 0.25920442 -0.2406266 0.19276923 0.27773374 -0.18681249
0.28707835 -0.25686806 0.2186056 -0.11090627 0.22786796 -0.11992845 0.30915555 -0.089424364
-0.0924345 -0.20357595 0.19578746 0.25025246 -0.15295489 0.03936087 -0.11708956 -0.2603286
-0.25166988 -0.047839552 -0.24869886 -0.0637595 0.17408411 -0.17049596 0.2550287 -0.083153166
-0.22631653 -0.09497857 0.08695672 -0.18564253 -0.17977597 -0.07229647 -0.10505583 0.3143466
-0.1429132 -0.09055682 -0.07948362 -0.13825758 0.080853134 0.22593217 -0.30562222 0.1280973
0.013512629 -0.078491956 0.2474836 -0.23476803 -0.28482503 0.09361213 0.060271062 -0.24437673
0.2934887 0.09324455 0.030185899 0.072636224 0.16692129 -0.3123052 0.1679866 0.26855606
-0.29307076 0.23156828 -0.23887269 0.008860218 0.0875127 -0.2373185 0.09181819 -0.18587326
-0.09165006 -0.046572518 0.17231072 0.009941115 0.276767 -0.23866561 -0.21355048 0.14409024
-0.29504228 -0.2479266 -0.037545405 0.16476037 -0.21488132 -0.029183166 -0.19573839 -0.15463695
0.19612715 -0.19078943 -0.09121211 -0.22880273 0.022523828 0.2820682 0.037121877 -0.3096541
-0.22681198 -0.13455555 0.07343838 0.13533688

clayers.1.2.bias f4 [10]
00000000: 665a 3d3e 24ec 573d ea01 673d 5dba 6f3d
00000010: 2780 7f3e fd7f 623e 7a40 81be 9dc8 7fbe
00000020: 3097 25be a3b5 1cbe
0.18491516 0.052715436 0.05639831 0.05852734 0.2495123 0.22119136 -0.25244504 -0.24978872
-0.16170955 -0.15303664

clayers.1.4.weight f4 [1, 10]
00000000: 3380 853e cf39 4c3e 0f10 0cbe 6f52 253e
00000010: b591 13be cec1 953c 3402 75be 090b 8e3d
00000020: a342 8c3d e605 ac3d
0.2607437 0.19943927 -0.13678001 0.16144727 -0.14411052 0.01828089 -0.23926622 0.069356985
0.068486474 0.083995625

clayers.2.0.weight f4 [10, 2]
00000000: 469a 0f3e 1f58 fa3d fd28 c83e fcb9 9a3d
00000010: 1675 433d c28d 9abe 47cc 8b3e 225c 0ebf
00000020: 0924 833e 905d e03d 07a1 d0be efc4 1cbf
00000030: d910 09be 119e 94be c30a dcbe 8b16 d7bd
00000040: 2608 273f 1105 acbb 50b8 973e a3ef 4bbe
0.14023694 0.12223839 0.39093772 0.07555005 0.047719084 -0.30186278 0.2730429 -0.55609334
0.2561343 0.10955346 -0.40747854 -0.61237997 -0.13385333 -0.29026845 -0.4297696 -0.105023466
0.6524681 -0.0052496274 0.29632807 -0.19915633

clayers.2.0.bias f4 [10]
00000000: 72a2 e13e e09a 9a3d 4b5b b2be a537 29bf
00000010: d039 a93d f83a 89bc 4e4a 0fbf fddc 383e
00000020: 7ac5 efbe 842f 14bf
0.44069248 0.07549071 -0.34835276 -0.6610053 0.0826298 -0.016751751 -0.55972755 0.1805305
-0.4683035 -0.57885003

clayers.2.2.weight f4 [10, 10]
00000000: 951e 08be 1e60 98bb b114 62be 0632 4fbe
00000010: c944 f1bd 38b6 ea3d 2126 6f3e 56fc d23c
00000020: 5204 b6bb 8e5e 88be c910 073e e2d6 d93d
00000030: 5906 63be 551d 603e 365e dbbd fa91 e2bc
00000040: d8f6 2c3c 27c1 103e 89e6 10be 6bc5 26be
00000050: 25f2 403e 345f 603e 1f3f 3abd aa11 77be
00000060: c2c3 7c3e fb27 b7bd bdfa 02be ffa3 063d
00000070: f1a0 fa3c 8538 573d 4aa5 d83c 7cd3 85be
00000080: 2678 72bd 07e0 17be 7140 36bd f961 3ebb
00000090: 49e0 e8bc 30bf 123d 372c d0bd 55fe 90bd
000000a0: 08b2 9dbd 8b0d 2bbc 2d8f 75be 7500 62be
000000b0: 9053 813e 9155 9c3e 6b8b 68bd de8f b7bc
000000c0: 6404 61be 3881 163e 512e 293d 3a6d 153e
000000d0: b387 1abe aa62 313d 82c9 923e 621a febd
000000e0: ea00 003e a89d 243e 2898 96be fdf0 9e3e
000000f0: 0cdc a9bc 3c00 debd de5c babd 2faa 943e
00000100: 0120 00be add8 a9bd 2356 c5bd 397f 2fbe
00000110: d9d8 43be ad55 2abc ce79 9cbd 1cf9 1fbe
00000120: 1982 f63c d8fb b9bc 2b70 053e fd1d 21be
00000130: b7d4 8d3e bc39 02be 7338 ff3a a4a1 913e
00000140: 96bd b7bd 4fba 363e 885e 5bbd 84c4 03be
00000150: c9d9 50be 8542 303e ddd9 863e c2f4 373e
00000160: 0d87 38bb 2d8f 40be e999 923e f72a 743d
00000170: 0e51 5dbe f684 16be 5c2c 64be af7e 21be
00000180: 7363 e4bd 19e8 983d 9b22 09be b5b9 99bd
-0.13292916 -0.00465013 -0.22078206 -0.20233926 -0.11780698 0.11460537 0.23354389 0.025755089
-0.0055547142 -0.2663464 0.13189997 0.10636689 -0.2217039 0.2188619 -0.10711329 -0.027657498
0.010556899 0.14136182 -0.14150442 -0.16286246 0.18842371 0.21911317 -0.045470353 -0.24127832
0.2468405 -0.089431725 -0.12790962 0.032871243 0.030594321 0.052544136 0.026446003 -0.26137912
-0.059196614 -0.14831553 -0.04449505 -0.0029050095 -0.02842726 0.03582686 -0.10164683 -0.0707976
-0.076999724 -0.010440241 -0.23980398 -0.22070487 0.25259066 0.30534032 -0.056773584 -0.022407468
-0.21974331 0.1469773 0.041303936 0.14592448 -0.15090828 0.043306984 0.28669363 -0.12407376
0.12500349 0.16075766 -0.2941296 0.31043234 -0.02073481 -0.108398885 -0.09099744 0.2903609
-0.12512209 -0.08293281 -0.0963557 -0.17138375 -0.1912569 -0.010396403 -0.0764042 -0.15622371
0.030091332 -0.022703096 0.1303107 -0.15734096 0.2770135 -0.12717336 0.0019471779 0.28443635
-0.089717075 0.17844509 -0.05355695 -0.12867934 -0.20395578 0.17212875 0.26338091 0.17964461
-0.0028156668 -0.18804617 0.2863305 0.059611287 -0.21612951 -0.14699158 -0.22282547 -0.15770982
-0.11151781 0.07466144 -0.13392107 -0.07506124

clayers.2.2.bias f4 [10]
00000000: d66c 79be c218 9a3d bb98 56be b51c 94be
00000010: 6a37 57bc a475 5abe 4771 56be 390e 9fbe
00000020: 19ea 76be 7824 a43d
-0.24357924 0.075242534 -0.209567 -0.28928152 -0.01313577 -0.21333939 -0.2094165 -0.3106554
-0.24112739 0.08014768

clayers.2.4.weight f4 [1, 10]
00000000: f9be 69be 42da 4b3e 7de4 9a3e c5c8 003e
00000010: bc6c ec3b bfbf 953e 2212 8d3e 3430 92be
00000020: 9ea6 81be a864 ffbd
-0.22826757 0.19907477 0.30252448 0.12576587 0.0072151106 0.29247853 0.27552897 -0.285524
-0.2532243 -0.124703705

addups.0.weight f4 [1, 3]
00000000: 3d17 3f3e 0a53 073f b6a5 84be
0.18661208 0.5286108 -0.25907677

addups.1.weight f4 [1, 3]
00000000: b830 9d3d c386 d1bd d435 ed3e
0.07675308 -0.10230782 0.4633013

addups.2.weight f4 [1, 3]
00000000: c607 babe 058f 7d3d dcb4 e8be
-0.36334056 0.061903972 -0.45450485

exp_avg f4 [2, 1, 4, 3]
00000000: e236 5323 b07f aa38 5aa8 0c3d fdbd eba2
00000010: e9c9 083c 26e0 2fbb 9468 83a2 0666 2a3c
00000020: 383d a9b9 0fd2 aaa1 adaa 493c 637e 553c
00000030: c579 8721 48eb 13a0 e85f 4620 bc8e 463c
00000040: eb11 9c3b 2380 1f9f f03a e6bb aea8 823b
00000050: eff8 b8a0 adf1 0bbc e202 96bc 0000 0000
1.1449955e-17 8.130015e-05 0.03434024 -6.3898036e-18 0.00834892 -0.0026836484 -3.5618348e-18 0.010400301
-0.00032279803 -1.157525e-18 0.012308759 0.013030621 9.180188e-19 -1.2529232e-19 1.6802985e-19 0.012118991
0.004762878 -3.3775552e-20 -0.007026069 0.0039873933 -3.1335543e-19 -0.008541507 -0.018311922 0.0

exp_avg_sq f4 [2, 1, 4, 3]
00000000: 3769 8b05 bcaf 3530 9c4e f738 7cab ad04
00000010: b0e3 e936 8d53 4135 3bda d703 0e79 3537
00000020: 0503 3332 735f 3602 232f 7e37 a66f 8e37
00000030: b26b e501 0318 1100 80be 1e00 2b68 7637
00000040: 8c3c 1836 013e 0100 c4a4 a536 9865 d535
00000050: d4eb 6a00 e0cd f436 68a5 0c38 0000 0000
1.3110147e-35 6.609715e-10 0.0001179252 4.0829588e-36 6.9704474e-06 7.2019685e-07 1.26866675e-36 1.0816626e-05
1.0419858e-08 1.3398641e-37 1.5150555e-05 1.697971e-05 8.427585e-38 1.569817e-39 2.823403e-39 1.4686996e-05
2.2685008e-06 1.14078e-40 4.9365644e-06 1.5899304e-06 9.819162e-39 7.2957337e-06 3.3532648e-05 0.0

exp_avg f4 [2, 1, 4, 3]
00000000: aa8f 341f 977a 2eb9 ec15 01b6 8bdb b51e
00000010: a31c 6439 928f 80b8 3095 fd9d 9b59 48b8
00000020: fa8f 1238 fc9e a51e 320b b1b7 f55c 51ba
00000030: d371 4d1d c2c4 199f 21e4 421e 3743 32b7
00000040: 40aa 5a38 c567 1e1e 91b4 1db8 c496 a3b8
00000050: bb8d 009e aca1 9138 ffd2 5cb8 0000 0000
3.823532e-20 -0.00016639601 -1.9235258e-06 1.9254921e-20 0.00021754442 -6.130258e-05 -6.71228e-21 -4.7767167e-05
3.49432e-05 1.7535809e-20 -2.1105257e-05 -0.0007986569 2.719037e-21 -3.2561764e-20 1.03174504e-20 -1.0625276e-05
5.2133808e-05 8.385909e-21 -3.7599882e-05 -7.800528e-05 -6.805573e-21 6.9442525e-05 -5.2648593e-05 0.0

exp_avg_sq f4 [2, 1, 4, 3]
00000000: 8797 0100 9944 3e31 ec49 d02a 5a67 0000
00000010: 069c a231 3b99 ce2f 8f0c 0000 35e0 7a2f
00000020: dd40 062f b855 0000 2ce7 432e 54fa 8833
00000030: 1002 0000 8f27 0100 ad1d 0000 119c 462d
00000040: 866b 952f 9a13 0000 8f71 1b2f 2442 2730
00000050: e90c 0000 ab8d 0430 a962 982f 0000 0000
1.46193e-40 2.7687632e-09 3.6999516e-13 3.7076e-41 4.7325583e-09 3.7580059e-10 4.505e-42 2.2817022e-10
1.2210273e-10 3.075e-41 4.454319e-11 6.378528e-08 7.4e-43 1.06026e-40 1.0646e-41 1.1289651e-11
2.7179342e-10 7.032e-42 1.4137512e-10 6.084824e-10 4.631e-42 4.822264e-10 2.771874e-10 0.0

exp_avg f4 [2, 1, 4, 3]
00000000: 7ccc 34a1 5941 8bba 9365 d93a c7f6 451e
00000010: f27a cfb9 44d0 84b9 bf1d 911f 0b3f b839
00000020: 6aaa 1cba daee da1f 9324 ab39 8031 9539
00000030: db77 2f1e da57 239c f75e 7a1f df9b c43a
00000040: 722e b93a b8e6 3f1f ba8f d2b9 435e 0fba
00000050: a14f a41e 5581 97ba ddfc 53b9 0000 0000
-6.1257005e-19 -0.0010624334 0.0016586058 1.04801255e-20 -0.00039573718 -0.00025332172 6.14591e-20 0.00035142186
-0.00059763214 9.272174e-20 0.00032642912 0.00028456375 9.289208e-21 -5.404572e-22 5.3018112e-20 0.0015000066
0.0014128222 4.063667e-20 -0.00040161406 -0.0005469063 1.7397109e-20 -0.001155893 -0.00020216727 0.0

exp_avg_sq f4 [2, 1, 4, 3]
00000000: 1d4d 4c01 7e66 f233 17b1 9334 9e1e 0000
00000010: 7286 8632 337e dc31 f01c 0400 b22a 5432
00000020: 9d66 1933 955c 0900 ce0f 3732 db1d 0b32
00000030: 0e18 0000 1500 0000 920f 0300 1398 7134
00000040: 7453 5634 53cc 0100 e58c 8a32 1c77 0033
00000050: 5e54 0000 1f76 0f34 0c6f 8c31 0000 0000
3.7524208e-38 1.12876464e-07 2.7509734e-07 1.0983e-41 1.5660792e-08 6.41719e-09 3.77723e-40 1.2349732e-08
3.5716415e-08 8.59732e-40 1.06555955e-08 8.097653e-09 8.629e-42 3e-44 2.81092e-40 2.2500198e-07
1.9960663e-07 1.65133e-40 1.6129386e-08 2.991065e-08 3.0265e-41 1.3360885e-07 4.087161e-09 0.0

exp_avg f4 [10, 2]
00000000: d7af 2bba f898 a4ba 730b f9b8 2016 2339
00000010: 0000 0000 0000 0000 0d96 2a3a 93a9 753a
00000020: 83bb 043a 25d6 a039 eb03 1eb9 b7e0 b6ba
00000030: 36ff bcb9 6736 d9b9 13af 3db9 a7fa 05bb
00000040: d17c 17ba e563 00bb 25aa fd39 2ab1 343b
-0.00065493345 -0.0012557795 -0.00011875378 0.00015553134 0.0 0.0 0.00065073447 0.0009371277
0.0005063342 0.00030677128 -0.00015069514 -0.0013952468 -0.000360483 -0.00041429998 -0.00018089665 -0.002044359
-0.0005778792 -0.0019590792 0.00048382688 0.0027571418

exp_avg_sq f4 [10, 2]
00000000: 363a 3833 c253 2934 9fd2 c130 7e3b 2631
00000010: 0000 0000 0000 0000 68df 3533 0498 bc33
00000020: 4c39 dc32 69ad 2132 220e 1c31 db06 5134
00000030: bc3f 5f32 0571 9332 f5df 6031 4861 e034
00000040: 926d 0f33 f30c ce34 9814 c932 620f 4c35
4.289378e-08 1.5769822e-07 1.410246e-09 2.4189997e-09 0.0 0.0 4.2345533e-08 8.782084e-08
2.5637426e-08 9.410862e-09 2.2709021e-09 1.9467136e-07 1.29948e-08 1.7164448e-08 3.2723595e-09 4.1794033e-07
3.3394436e-08 3.8379912e-07 2.3408845e-08 7.6018307e-07

exp_avg f4 [10]
00000000: 9a23 a3ba 2f02 efb9 0000 0000 a050 373a
00000010: bf86 023a 4a03 63ba 8529 5f3a 2405 23ba
00000020: 69d4 21bb 4838 0b3b
-0.0012446523 -0.0004558726 0.0 0.000699291 0.0004979185 -0.0008659853 0.0008512962 -0.00062187226
-0.0024693257 0.0021243263

exp_avg_sq f4 [10]
00000000: f756 2634 1084 b232 0000 0000 fe06 5233
00000010: cef6 d432 de0b a133 17a1 9b33 e118 2633
00000020: 2eae 2335 ef46 f234
1.5491592e-07 2.0781982e-08 0.0 4.8900795e-08 2.4792282e-08 7.499305e-08 7.247052e-08 3.8672514e-08
6.0975697e-07 4.5127624e-07

exp_avg f4 [10, 10]
00000000: 02ae 6d3b cf00 f33a 0000 0000 40a5 7538
00000010: 872d 2638 435a 153b 789d eb38 6bc6 ee3b
00000020: 3564 ce3b e398 8e3b 2b62 babb 91d0 45b9
00000030: 0000 0000 4d0c c9b8 5803 e3b6 f0ce 4ebb
00000040: 5b46 99b8 a0b2 1dbc 822e fbbb 4bc7 aebb
00000050: 0f1a 2db7 d5e7 3439 0000 0000 0000 0000
00000060: 0000 0000 29bc 0d39 cba3 f438 089c c638
00000070: 8298 5639 0000 0000 da31 c3ba 0d91 47ba
00000080: 0000 0000 97bc c9b7 4879 88b7 ea4f 75ba
00000090: cf7f 41b8 2718 44bb ce7f 29bb 5a37 eaba
000000a0: 0000 0000 a208 ef37 0000 0000 0000 0000
000000b0: 0000 0000 17e2 be36 0000 0000 4a2f 8037
000000c0: b19e ad37 c795 0435 e2e5 f836 3884 af39
000000d0: 0000 0000 0000 0000 0000 0000 b5a0 1e39
000000e0: 4b3f a238 f0c7 5a39 6c15 ac39 827a b1b7
000000f0: 870f 963b eb6b 193b 0000 0000 0017 9b38
00000100: bad5 5138 e696 3c3b d3c1 1439 8ec0 163c
00000110: 7a4e 023c 2d0f b43b c76f a1ba cfd6 8cba
00000120: 0000 0000 0000 0000 d3f3 d6b6 9bbb 72ba
00000130: 2cee b6b8 257b 1dbb cfbf 0ebb 4aaa 75ba
00000140: 3389 59ba 8068 deb9 0000 0000 9bd3 60b7
00000150: 1018 18b7 dfb1 08ba 7aa5 d7b7 e089 daba
00000160: 3de6 bcba 0a83 82ba e821 74bb 5c14 9dba
00000170: 0000 0000 9362 89b8 67e1 39b8 6ec1 06bb
00000180: 0000 0000 25c2 ebbb 3309 c3bb 043a 9cbb
0.0036267047 0.001853967 0.0 5.8566453e-05 3.9619885e-05 0.0022789396 0.00011235004 0.007286837
0.0062985667 0.0043517216 -0.005687972 -0.00018865081 0.0 -9.586718e-05 -6.7655164e-06 -0.003155645
-7.308713e-05 -0.009625107 -0.0076654563 -0.005333816 -1.0317671e-05 0.00017252502 0.0 0.0
0.0 0.00013516903 0.000116653355 9.470439e-05 0.00020465444 0.0 -0.0014892176 -0.0007612862
0.0 -2.4048886e-05 -1.626894e-05 -0.00093579164 -4.6133817e-05 -0.0029921622 -0.002586353 -0.0017869279
0.0 2.849504e-05 0.0 0.0 0.0 5.6887616e-06 0.0 1.528081e-05
2.0697104e-05 4.9391787e-07 7.417738e-06 0.00033477112 0.0 0.0 0.0 0.00015127922
7.736551e-05 0.00020864583 0.00032822357 -2.1157091e-05 0.0045794877 0.0023410271 0.0 7.39526e-05
5.002853e-05 0.0028776466 0.00014186585 0.009201182 0.007953281 0.005494973 -0.0012316637 -0.001074517
0.0 0.0 -6.406082e-06 -0.0009259523 -8.722799e-05 -0.0024029699 -0.0021781807 -0.00093713833
-0.00082983373 -0.00042420998 0.0 -1.3400709e-05 -9.0655085e-06 -0.0005214493 -2.5707053e-05 -0.001667317
-0.0014411878 -0.0009957266 -0.0037251655 -0.0011984217 0.0 -6.55103e-05 -4.431736e-05 -0.002056207
0.0 -0.0071947747 -0.0059520244 -0.004767658

exp_avg_sq f4 [10, 10]
00000000: 5189 b035 6d88 b834 0000 0000 6091 bc2f
00000010: 1e98 2c2f e969 0b35 967b ad30 d52a b236
00000020: f11d 8536 af2c fe35 131e 5936 0f91 7431
00000030: 0000 0000 83a0 7c30 f20b a12c c2a7 8535
00000040: 13d5 1230 bc6d 1b37 c929 c536 09ec 3e36
00000050: c446 3b2d ef8a 4c31 0000 0000 0000 0000
00000060: 0000 0000 321c fb30 ea06 bb30 2d89 7630
00000070: 10e9 8f31 0000 0000 9321 6e34 edea 7833
00000080: 0000 0000 4d5c 7e2e 47d0 e82d 720e bc33
00000090: 2503 6a2f c854 7035 fc8f 3335 ca6d ab34
000000a0: 0000 0000 b28d b22e 0000 0000 0000 0000
000000b0: 0000 0000 35ba 632c 0000 0000 3b64 cd2d
000000c0: 3066 3c2e 28bc db28 2a98 c12c a989 4032
000000d0: 0000 0000 0000 0000 0000 0000 6d44 1d31
000000e0: a986 2430 1b94 9531 7814 3932 d0dd 442e
000000f0: 1ebd 0c36 131d 1335 0000 0000 9454 1630
00000100: 8a98 892f 9149 5e35 e44d 0a31 f209 0e37
00000110: 593f d436 27a2 4a36 dde2 2234 16f2 f733
00000120: 0000 0000 0000 0000 a463 902c 631f b833
00000130: a025 5130 7100 1b35 86b7 fe34 1c99 bc33
00000140: 83e1 9333 5494 9a32 0000 0000 99f5 9d2d
00000150: 2294 102d 8191 e932 b252 912e 4a3f 9534
00000160: c104 5f34 b7ea d433 8640 ba35 5e36 1a34
00000170: 0000 0000 e3ee eb2f 7df2 572f 04fd e234
00000180: 0000 0000 9cb1 ad36 6cbe 6d36 d08a 1836
1.3152986e-06 3.4371934e-07 0.0 3.4300296e-10 1.5697352e-10 5.1935655e-07 1.2622532e-09 5.3097997e-06
3.9671945e-06 1.8937479e-06 3.2353025e-06 3.558913e-09 0.0 9.1905167e-10 4.5772214e-12 9.958096e-07
5.341729e-10 9.2642695e-06 5.875922e-06 2.8449597e-06 1.06454325e-11 2.9764882e-09 0.0 0.0
0.0 1.8270667e-09 1.3608006e-09 8.9689217e-10 4.188344e-09 0.0 2.2177692e-07 5.7955663e-08
0.0 5.7834893e-11 2.646784e-11 8.75706e-08 2.1283293e-10 8.953034e-07 6.689222e-07 3.1931114e-07
0.0 8.119673e-11 0.0 0.0 0.0 3.2362006e-12 0.0 2.3350313e-11
4.283701e-11 2.4395484e-14 5.5022835e-12 1.1207171e-08 0.0 0.0 0.0 2.2885402e-09
5.9854216e-10 4.3533084e-09 1.0773071e-08 4.476225e-11 2.0971706e-06 5.4804076e-07 0.0 5.4689875e-10
2.502854e-10 8.28085e-07 2.0125919e-09 8.466175e-06 6.325467e-06 3.019473e-06 1.5169958e-07 1.1545869e-07
0.0 0.0 4.1037885e-12 8.573877e-08 7.6087225e-10 5.774264e-07 4.7444718e-07 8.7822826e-08
6.886241e-08 1.7995411e-08 0.0 1.79579e-11 8.218344e-12 2.7190938e-08 6.608526e-11 2.7799462e-07
2.0770223e-07 9.914714e-08 1.3876859e-06 1.4362146e-07 0.0 4.291599e-10 1.9640285e-10 4.2279873e-07
0.0 5.176478e-06 3.5426592e-06 2.2730565e-06

exp_avg f4 [10]
00000000: 2744 0c3c a3eb 0ebc 04b9 963a 3d63 66bb
00000010: 2f65 7438 0da4 ad3a af1d 313c c37b 84bb
00000020: e260 00bb 33d8 cfbb
0.008561171 -0.008723172 0.0011499231 -0.0035154365 5.8268368e-05 0.0013247743 0.0108103 -0.004043074
-0.0019588997 -0.0063429116

exp_avg_sq f4 [10]
00000000: c4ee f536 0754 ff36 befb 0d34 c7de a535
00000010: 3ba7 ba2f d171 3c34 1a10 4437 f465 db35
00000020: 4803 ce34 7bff 8636
7.329365e-06 7.6093743e-06 1.3223232e-07 1.2358295e-06 3.3952027e-10 1.755027e-07 1.1686259e-05 1.6346444e-06
3.8372877e-07 4.023253e-06

exp_avg f4 [1, 10]
00000000: 7404 3b3c 98cc fc3a cb24 9738 674a 923c
00000010: 0dc2 ee34 abf9 be39 5b19 573c 318d 8d3b
00000020: f445 1e3c 42f4 283c
0.011414636 0.0019287048 7.207094e-05 0.017857743 4.4472145e-07 0.0003642564 0.013128604 0.00431981
0.009660233 0.010312142

exp_avg_sq f4 [1, 10]
00000000: d098 5a37 f3b5 c734 15c7 0e30 85c1 0538
00000010: 4f24 b228 7df2 6332 1596 9037 e075 fa35
00000020: ae90 1c37 cc68 3237
1.3029392e-05 3.7199024e-07 5.194221e-10 3.18899e-05 1.9777716e-14 1.32682745e-08 1.7236025e-05 1.8660758e-06
9.33201e-06 1.0634027e-05

exp_avg f4 [10, 2]
00000000: e508 e1b9 2b97 35ba 9309 6bb9 dbd7 12b9
00000010: 14d4 aab9 c027 16ba ff2f 88b7 70f0 9838
00000020: 7ea1 aeb8 53f4 6bba 33b4 2839 38d9 7e3a
00000030: 5aed 41b9 a3fb 0f39 abff fab8 e310 a53a
00000040: 3062 b1b9 a753 88ba bf17 e238 9b21 f8b9
-0.0004292197 -0.0006927128 -0.00022414913 -0.00014004057 -0.00032582937 -0.0005727969 -1.6234813e-05 7.29271e-05
-8.327047e-05 -0.0009000946 0.00016088858 0.0009721699 -0.00018494335 0.00013731285 -0.00011968551 0.0012593534
-0.00033833226 -0.0010400907 0.00010780943 -0.00047327284

exp_avg_sq f4 [10, 2]
00000000: 8340 9e32 2e18 4e33 11a2 ac31 abc4 0631
00000010: c463 3632 92ea 0c33 7fd6 e72d a530 1230
00000020: 7b99 3e30 95fb ad33 9ce1 3131 37f6 ca33
00000030: 630c 6b31 be91 0131 48e0 c430 d74a 2a34
00000040: e1a7 4432 f84f e833 59be 9f30 4e67 c032
1.8422957e-08 4.7985104e-08 5.0242837e-09 1.961136e-09 1.0616478e-08 3.280963e-08 2.6356915e-11 5.318362e-10
6.9339706e-10 8.101703e-08 2.5885134e-09 9.451144e-08 3.4204042e-09 1.8854815e-09 1.4324621e-09 1.585971e-07
1.1446873e-08 1.0817888e-07 1.1622873e-09 2.239872e-08

exp_avg f4 [10]
00000000: e549 08bb 5894 013a d3a7 70ba 3e03 92b8
00000010: bb4a 70ba b998 9a3a c7a0 79ba 250b 743a
00000020: cf4e 3bba 6f07 89ba
-0.0020795998 0.00049430644 -0.0009180281 -6.9624264e-05 -0.0009166409 0.0011794782 -0.0009522554 0.0009309522
-0.0007145227 -0.0010454486

exp_avg_sq f4 [10]
00000000: b52e e834 b0e2 d132 15fc b433 853f 0530
00000010: 2b70 b433 2960 1534 53bb c233 cc1d ba33
00000020: c346 5b33 44b6 ea33
4.324735e-07 2.4433888e-08 8.4277566e-08 4.8475385e-10 8.4023064e-08 1.3911689e-07 9.067903e-08 8.66672e-08
5.105427e-08 1.0929628e-07

exp_avg f4 [10, 10]
00000000: 3fda 8abb 5643 8eb8 4735 c9ba 58db 5cbb
00000010: 68a3 4cbb 5454 b7bb cf26 33ba 03de 07ba
00000020: 6476 3cba 22f0 c7ba 7b56 57bb 93b6 92b8
00000030: cd13 9eba 4fb6 29bb 8738 23bb 181f 8dbb
00000040: a289 1aba 9a99 cfb9 55fb 0fba e894 adba
00000050: 0000 0000 0000 0000 0000 0000 0000 0000
00000060: 0000 0000 0000 0000 0000 0000 0000 0000
00000070: 0000 0000 0000 0000 f98f a4ba ab3f 6db8
00000080: 8b3a 1cba 57f7 4bba 8acc bfba b0af caba
00000090: cfe6 f9b9 c3ab d4b8 6042 5eb6 f25a 87ba
000000a0: be77 1d3b 1892 5638 e230 673a ff34 f83a
000000b0: 9ab6 ee3a 8a64 4e3b 9f03 e239 35cf 9739
000000c0: 7093 d239 cddd 7d3a 1705 96b9 076c ccb6
000000d0: 9341 dcb8 a577 6cb9 336c 63b9 7aa1 c4b9
000000e0: fd52 57b8 0ea1 10b8 bd9d 48b8 ebdb f1b8
000000f0: 1a61 373b 0000 0000 3e99 2c3a 486a 423b
00000100: 6a02 513a cd8c 723b 0000 0000 fd51 fb39
00000110: 8854 2e3a ad41 d239 1b4b aeb9 908a bbb7
00000120: 35a2 65b9 d0b8 94b8 4880 1eba f033 dab9
00000130: 8d27 52b9 0000 0000 0000 0000 5bee bdb9
00000140: 0000 0000 0000 0000 0000 0000 0000 0000
00000150: 0000 0000 0000 0000 0000 0000 0000 0000
00000160: 0000 0000 0000 0000 0000 0000 0000 0000
00000170: 0000 0000 0000 0000 0000 0000 0000 0000
00000180: 0000 0000 0000 0000 0000 0000 0000 0000
-0.0042374427 -6.78363e-05 -0.0015350961 -0.0033700075 -0.0031225327 -0.0055947695 -0.0006834091 -0.00051829236
-0.00071892724 -0.001525406 -0.0032857943 -6.9958296e-05 -0.0012060344 -0.0025896018 -0.002490552 -0.004306685
-0.00058951427 -0.0003959656 -0.00054924685 -0.001324323 0.0 0.0 0.0 0.0
0.0 0.0 0.0 0.0 0.0 0.0 -0.0012555114 -5.65645e-05
-0.00059596513 -0.0007780692 -0.0014633101 -0.0015463736 -0.00047664947 -0.00010140941 -3.3119213e-06 -0.0010326786
0.002402767 5.1157636e-05 0.0008819235 0.0018936693 0.0018212378 0.0031493031 0.00043108777 0.00028955346
0.0004016417 0.0009684235 -0.00028614022 -6.09225e-06 -0.000105026316 -0.00022551285 -0.00021688714 -0.00037504343
-5.1337283e-05 -3.448227e-05 -4.783062e-05 -0.000115327384 0.002798146 0.0 0.0006584114 0.00296654
0.0007973077 0.0037010193 0.0 0.00047935537 0.00066501694 0.00040103254 -0.00033243824 -2.235666e-05
-0.00021899569 -7.091614e-05 -0.0006046337 -0.00041618897 -0.00020041894 0.0 0.0 -0.00036226478
0.0 0.0 0.0 0.0 0.0 0.0 0.0 0.0
0.0 0.0 0.0 0.0 0.0 0.0 0.0 0.0
0.0 0.0 0.0 0.0

exp_avg_sq f4 [10, 10]
00000000: 1200 f135 10fc fc2f 8907 7d34 306e 9835
00000010: 78dd 8235 7b0f 5236 7998 4833 b4bf e632
00000020: f6fc 5d33 57d8 7934 4de8 9035 9d87 0630
00000030: 852d 1c34 8b03 3435 a681 2635 dbf0 f835
00000040: 0143 1533 36ae 8632 3391 0133 f450 3c34
00000050: 0000 0000 0000 0000 0000 0000 0000 0000
00000060: 0000 0000 0000 0000 0000 0000 0000 0000
00000070: 0000 0000 0000 0000 4041 2934 90e5 af2f
00000080: d68b 1833 c201 8233 f5ea 6534 6261 8034
00000090: a528 c332 2557 8d30 5a5f 9a2b 5803 e533
000000a0: bef9 1a35 76e0 8f2f 6707 a733 6185 c034
000000b0: 3a13 b234 5e1e 8535 eaa1 9f32 c109 1032
000000c0: c791 8a32 8666 c933 8ba9 0c32 ad96 822c
000000d0: 399a 9730 73bd ae31 dba0 a131 dba5 7132
000000e0: 9ae3 902f 21bc 022f f48a 7b2f a5cc b630
000000f0: c02c 5235 0000 0000 7130 3a33 9c3b 6c35
00000100: f483 8833 67d8 b735 0000 0000 8161 c532
00000110: a1f1 3d33 4126 8a32 18dd 3d32 c3d2 5b2e
00000120: 48c9 a431 233d 0a30 2804 1d33 ffc9 9432
00000130: ee03 8a31 0000 0000 0000 0000 1b76 6132
00000140: 0000 0000 0000 0000 0000 0000 0000 0000
00000150: 0000 0000 0000 0000 0000 0000 0000 0000
00000160: 0000 0000 0000 0000 0000 0000 0000 0000
00000170: 0000 0000 0000 0000 0000 0000 0000 0000
00000180: 0000 0000 0000 0000 0000 0000 0000 0000
1.795592e-06 4.6017634e-10 2.3565202e-07 1.1356951e-06 9.750211e-07 3.130145e-06 4.6704802e-08 2.68627e-08
5.168564e-08 2.3268636e-07 1.0796444e-06 4.8941634e-10 1.4545192e-07 6.706038e-07 6.202848e-07 1.8547538e-06
3.4752706e-08 1.5678875e-08 3.016721e-08 1.7538315e-07 0.0 0.0 0.0 0.0
0.0 0.0 0.0 0.0 0.0 0.0 1.576309e-07 3.1995429e-10
3.5517438e-08 6.0539165e-08 2.1412764e-07 2.3912713e-07 2.271947e-08 1.0283868e-09 1.0968824e-12 1.0664252e-07
5.7732893e-07 2.6171038e-10 7.77789e-08 3.5859833e-07 3.3169073e-07 9.91811e-07 1.8583666e-08 8.384121e-09
1.6131606e-08 9.378441e-08 8.187622e-09 3.7115506e-12 1.1030529e-09 5.0856044e-09 4.704004e-09 1.40657574e-08
2.6355168e-10 1.1890268e-10 2.2877683e-10 1.3300406e-09 7.8296216e-07 0.0 4.3350557e-08 8.8003594e-07
6.3569956e-08 1.3697544e-06 0.0 2.2978158e-08 4.4224752e-08 1.608271e-08 1.1051519e-08 4.998203e-11
4.7959112e-09 5.029099e-10 3.655819e-08 1.7321325e-08 4.0167754e-09 0.0 0.0 1.3123578e-08
0.0 0.0 0.0 0.0 0.0 0.0 0.0 0.0
0.0 0.0 0.0 0.0 0.0 0.0 0.0 0.0
0.0 0.0 0.0 0.0

exp_avg f4 [10]
00000000: 4264 acbb cf66 89bb 0000 0000 7f37 0cbb
00000010: cbf3 483b 9f72 bfb9 6bab 313b e1b0 31ba
00000020: 0000 0000 0000 0000
-0.005260975 -0.004193164 0.0 -0.0021395383 0.003066289 -0.00036515758 0.002711023 -0.0006778371
0.0 0.0

exp_avg_sq f4 [10]
00000000: 33be 3936 6efd eb35 0000 0000 64c2 f534
00000010: ee62 7c35 9313 6532 624a 4535 8356 4533
00000020: 0000 0000 0000 0000
2.7677859e-06 1.7582622e-06 0.0 4.5776244e-07 9.402128e-07 1.3334005e-08 7.349646e-07 4.594632e-08
0.0 0.0

exp_avg f4 [1, 10]
00000000: 5f5c 29bc 5717 01bc 0000 0000 7d18 f0ba
00000010: 154e b3bb f8d8 a8bb 15b9 b0bb 2755 33ba
00000020: 0000 0000 0000 0000
-0.010336964 -0.0078791 0.0 -0.0018317845 -0.0054719546 -0.005152818 -0.0053931572 -0.0006840997
0.0 0.0

exp_avg_sq f4 [1, 10]
00000000: f244 3337 7f4e d036 0000 0000 be24 b434
00000010: 75f0 4836 302f 3236 9e31 4336 4d00 4933
00000020: 0000 0000 0000 0000
1.0685284e-05 6.208021e-06 0.0 3.3554346e-07 2.9942287e-06 2.6551534e-06 2.9086145e-06 4.6799233e-08
0.0 0.0

exp_avg f4 [10, 2]
00000000: 53fc 653b 405f dc3a 2862 c03b 4003 383b
00000010: 0000 0000 0000 0000 0000 0000 0000 0000
00000020: 95e0 c33b 2bb9 3d3b fbf9 9235 c0bf e5b4
00000030: 0000 0000 0000 0000 f30e 3237 32b5 4eb7
00000040: 41cb 40b9 07a2 f3b8 0000 0000 0000 0000
0.0035093024 0.0016813055 0.005871076 0.002807811 0.0 0.0 0.0 0.0
0.0059777 0.002894948 1.0950602e-06 -4.279409e-07 0.0 0.0 1.0613107e-05 -1.2320745e-05
-0.00018386265 -0.00011617323 0.0 0.0

exp_avg_sq f4 [10, 2]
00000000: b84a a535 15c3 9734 3752 6736 14a1 5335
00000010: 0000 0000 0000 0000 0000 0000 0000 0000
00000020: a7cc 6f36 e7f7 6035 5703 072a b2f3 a428
00000030: 0000 0000 0000 0000 ab27 462d 7d86 852d
00000040: 384f 6831 997d b930 0000 0000 0000 0000
1.2315204e-06 2.8267883e-07 3.4469538e-06 7.8838025e-07 0.0 0.0 0.0 0.0
3.5732899e-06 8.380725e-07 1.1991567e-13 1.8313344e-14 0.0 0.0 1.1263805e-11 1.5180074e-11
3.3805474e-09 1.3496219e-09 0.0 0.0

exp_avg f4 [10]
00000000: 336e 613b 00e2 bb3b 0000 0000 0000 0000
00000010: f845 bf3b 2d8e 08b4 0000 0000 6d06 8fb6
00000020: dffe 39b9 0000 0000
0.003439796 0.0057337284 0.0 0.0 0.0058371983 -1.271771e-07 0.0 -4.26248e-06
-0.00017737922 0.0

exp_avg_sq f4 [10]
00000000: 1ecf 9e35 ec9f 5c36 0000 0000 0000 0000
00000010: c5a8 6436 9517 e926 0000 0000 c6b3 ff2b
00000020: f836 5831 0000 0000
1.1832196e-06 3.2875641e-06 0.0 0.0 3.4072884e-06 1.6174015e-15 0.0 1.8168737e-12
3.1463383e-09 0.0

exp_avg f4 [10, 10]
00000000: 0000 0000 0000 0000 0000 0000 0000 0000
00000010: 0000 0000 0000 0000 0000 0000 0000 0000
00000020: 0000 0000 0000 0000 46d6 153c 1fde ef3b
00000030: 0000 0000 0000 0000 e869 ba3b 7f37 45b6
00000040: 0000 0000 7875 22b8 56aa 2a3b 0000 0000
00000050: 75b3 633c 3f34 353c 0000 0000 0000 0000
00000060: 7c18 0d3c db79 87b4 0000 0000 6fb4 4eb7
00000070: 5374 813b 0000 0000 0000 0000 0000 0000
00000080: 0000 0000 0000 0000 0000 0000 0000 0000
00000090: 0000 0000 0000 0000 0000 0000 0000 0000
000000a0: d4f4 2839 5f57 0539 0000 0000 0000 0000
000000b0: 770c de38 1278 16b2 0000 0000 0ae0 b3b4
000000c0: 4793 2a38 0000 0000 125e 90b6 7022 a636
000000d0: 0000 0000 0000 0000 5323 db35 0000 0000
000000e0: 0000 0000 0000 0000 f704 3037 0000 0000
000000f0: 0000 0000 0000 0000 0000 0000 0000 0000
00000100: 0000 0000 0000 0000 0000 0000 0000 0000
00000110: 0000 0000 0000 0000 0000 0000 0000 0000
00000120: 0000 0000 0000 0000 0000 0000 0000 0000
00000130: 0000 0000 0000 0000 0000 0000 0000 0000
00000140: 0000 0000 0000 0000 0000 0000 0000 0000
00000150: 0000 0000 0000 0000 0000 0000 0000 0000
00000160: 0000 0000 0000 0000 d748 b9bb 9e4e 94bb
00000170: 0000 0000 0000 0000 b383 66bb 8ddf f335
00000180: 0000 0000 7ce4 c837 5f0a d3ba 0000 0000
0.0 0.0 0.0 0.0 0.0 0.0 0.0 0.0
0.0 0.0 0.009145325 0.00732018 0.0 0.0 0.0056888945 -2.938759e-06
0.0 -3.873321e-05 0.002604147 0.0 0.013897766 0.01105982 0.0 0.0
0.008611795 -2.523437e-07 0.0 -1.2320567e-05 0.0039506345 0.0 0.0 0.0
0.0 0.0 0.0 0.0 0.0 0.0 0.0 0.0
0.00016112934 0.00012716417 0.0 0.0 0.00010588107 -8.75845e-09 0.0 -3.3504358e-07
4.066832e-05 0.0 -4.3024856e-06 4.9511946e-06 0.0 0.0 1.6327052e-06 0.0
0.0 0.0 1.0491573e-05 0.0 0.0 0.0 0.0 0.0
0.0 0.0 0.0 0.0 0.0 0.0 0.0 0.0
0.0 0.0 0.0 0.0 0.0 0.0 0.0 0.0
0.0 0.0 0.0 0.0 0.0 0.0 0.0 0.0
0.0 0.0 -0.005654435 -0.0045259735 0.0 0.0 -0.0035173714 1.8169973e-06
0.0 2.3948254e-05 -0.0016101113 0.0

exp_avg_sq f4 [10, 10]
00000000: 0000 0000 0000 0000 0000 0000 0000 0000
00000010: 0000 0000 0000 0000 0000 0000 0000 0000
00000020: 0000 0000 0000 0000 ce51 0c37 32cd b336
00000030: 0000 0000 0000 0000 1b30 5936 2417 732b
00000040: 0000 0000 9df4 242f ac0a 3635 0000 0000
00000050: 3306 a237 e137 4d37 0000 0000 0000 0000
00000060: 8ad9 f836 fc6b e527 0000 0000 8185 852d
00000070: 037b d135 0000 0000 0000 0000 0000 0000
00000080: 0000 0000 0000 0000 0000 0000 0000 0000
00000090: 0000 0000 0000 0000 0000 0000 0000 0000
000000a0: 026a 3231 ad3f de30 0000 0000 0000 0000
000000b0: 7e14 9a30 7b81 0d23 0000 0000 1c38 4a28
000000c0: 7dd9 352f 0000 0000 2443 022c 1781 2c2c
000000d0: 0000 0000 0000 0000 2b11 962a 0000 0000
000000e0: 0000 0000 0000 0000 86a4 412d 0000 0000
000000f0: 0000 0000 0000 0000 0000 0000 0000 0000
00000100: 0000 0000 0000 0000 0000 0000 0000 0000
00000110: 0000 0000 0000 0000 0000 0000 0000 0000
00000120: 0000 0000 0000 0000 0000 0000 0000 0000
00000130: 0000 0000 0000 0000 0000 0000 0000 0000
00000140: 0000 0000 0000 0000 0000 0000 0000 0000
00000150: 0000 0000 0000 0000 0000 0000 0000 0000
00000160: 0000 0000 0000 0000 9390 5636 fd77 0936
00000170: 0000 0000 0000 0000 890d a635 55db b92a
00000180: 0000 0000 7d3c 7c2e 7a2e 8b34 0000 0000
0.0 0.0 0.0 0.0 0.0 0.0 0.0 0.0
0.0 0.0 8.363697e-06 5.3585036e-06 0.0 0.0 3.236352e-06 8.6363056e-13
0.0 1.5002617e-10 6.7815813e-07 0.0 1.9314792e-05 1.22319625e-05 0.0 0.0
7.416301e-06 6.3677345e-15 0.0 1.5179637e-11 1.5607515e-06 0.0 0.0 0.0
0.0 0.0 0.0 0.0 0.0 0.0 0.0 0.0
2.5962668e-09 1.6170724e-09 0.0 0.0 1.1210799e-09 7.671044e-18 0.0 1.1225419e-14
1.6539121e-10 0.0 1.8511382e-12 2.451433e-12 0.0 0.0 2.6657265e-13 0.0
0.0 0.0 1.1007311e-11 0.0 0.0 0.0 0.0 0.0
0.0 0.0 0.0 0.0 0.0 0.0 0.0 0.0
0.0 0.0 0.0 0.0 0.0 0.0 0.0 0.0
0.0 0.0 0.0 0.0 0.0 0.0 0.0 0.0
0.0 0.0 3.1972638e-06 2.0484433e-06 0.0 0.0 1.2371903e-06 3.3014794e-13
0.0 5.735189e-11 2.5924584e-07 0.0

exp_avg f4 [10]
00000000: 0000 0000 2594 673c aa1a b03c 0000 0000
00000010: 6fab 6739 22ca 23b7 0000 0000 0000 0000
00000020: 0000 0000 a32e 0fbc
0.0 0.0141344415 0.02149709 0.0 0.0002209374 -9.76262e-06 0.0 0.0
0.0 -0.008739146

exp_avg_sq f4 [10]
00000000: 0000 0000 f496 a737 47d4 4138 0000 0000
00000010: abb8 a731 3eab 272d 0000 0000 0000 0000
00000020: 0000 0000 d221 0037
0.0 1.9978244e-05 4.6212484e-05 0.0 4.881334e-09 9.530874e-12 0.0 0.0
0.0 7.637269e-06

exp_avg f4 [1, 10]
00000000: 0000 0000 774d 2c3c 596b 193c 0000 0000
00000010: b3dc 6939 4e93 1534 0000 0000 0000 0000
00000020: 0000 0000 282f 4f3c
0.0 0.010516516 0.009363973 0.0 0.00022302828 1.3930295e-07 0.0 0.0
0.0 0.01264552

exp_avg_sq f4 [1, 10]
00000000: 0000 0000 188d 3937 fc1b 1337 0000 0000
00000010: 31e9 aa31 7bd4 0b27 0000 0000 0000 0000
00000020: 0000 0000 3d24 8637
0.0 1.105971e-05 8.768398e-06 0.0 4.974162e-09 1.940531e-15 0.0 0.0
0.0 1.599092e-05

exp_avg f4 [1, 3]
00000000: 4857 9ab9 9052 d53a ede0 26bd
-0.00029438199 0.0016275216 -0.04074185

exp_avg_sq f4 [1, 3]
00000000: cee1 1432 3335 8e34 8f0d 2e39
8.666076e-09 2.648827e-07 0.00016598984

exp_avg f4 [1, 3]
00000000: fff3 3eba 9c12 18bb 622a 6cbc
-0.0007284283 -0.0023204451 -0.014414402

exp_avg_sq f4 [1, 3]
00000000: f1e4 6333 c589 1035 574b ae37
5.3060777e-08 5.384466e-07 2.07775e-05

exp_avg f4 [1, 3]
00000000: d353 833b 631c 5b3d 956f 75bc
0.0040077954 0.05349387 -0.0149802165

exp_avg_sq f4 [1, 3]
00000000: 1096 d735 aa07 9639 043f bc37
1.6062422e-06 0.0002861594 2.244069e-05
