models/onlyadam/ckpt/ckpt-1000.pt (torch, 106817 bytes, 30 tensors)

linears.0.weight f4 [50, 2]
0.09145081 0.4230093 -0.1700636 0.20622692 0.21745232 0.16827706 -0.0063731233 0.27078915
0.12257273 0.39086172 0.0663578 0.70228267 0.35483572 0.29010618 0.25305688 -0.08710555
-0.5304678 -0.12948333 0.10783643 -0.34467775 0.04379171 -0.46441865 -0.07218347 0.43236968
0.52493036 -0.1007933 0.27765182 0.2788588 -0.27456313 -0.27921152 0.2309571 -0.22361888
0.02110434 -0.29980528 -0.011363365 -0.008070355 -0.1680066 -0.21473788 0.025069151 -0.21176343
-0.2653907 -0.35451037 -0.07005071 0.1766895 0.04022884 -0.21395454 0.021449897 -0.16001193
-0.20409304 0.0956514 0.2615081 -0.19754596 0.2616011 -0.42766967 0.22415316 0.12160477
0.16926032 0.06013334 -0.12239521 0.32591987 0.09797129 0.049506992 0.14231041 -0.2565111
-0.1941863 -0.23320085 -0.0088311145 0.09392994 -0.31208253 0.1328628 0.03032804 0.09230061
-0.27933785 -0.19191928 0.16360545 0.16132662 0.22132295 0.25194028 0.043765604 -0.13831837
0.117769435 0.6401647 -0.010910373 0.11386713 -0.011423644 0.1270087 0.18045901 0.35118073
-0.055463403 -0.32694054 0.18106169 0.3428386 0.043234907 -0.0777797 -0.38295674 -0.19312094
0.22894938 0.1252067 -0.055492565 0.0923489
00000000: 904a bb3d ad94 d83e 2725 2ebe 262d 533e
00000010: d2ab 5e3e d250 2c3e a2d5 d0bb e0a4 8a3e
00000020: 6907 fb3d 071f c83e 99e6 873d ccc8 333f
00000030: 07ad b53e cc88 943e ac90 813e 6564 b2bd
00000040: bdcc 07bf 4797 04be 59d9 dc3d 9a79 b0be
00000050: f05e 333d 48c8 edbe edd4 93bd 8f5f dd3e
00000060: d661 063f b86c cebd 6128 8e3e 95c6 8e3e
00000070: 8a93 8cbe d0f4 8ebe 0580 6c3e 59fc 64be
00000080: 02e3 ac3c 1480 99be 682d 3abc 8639 04bc
00000090: ec09 2cbe 3fe4 5bbe d25d cd3c 83d8 58be
000000a0: 4ae1 87be 6282 b5be bf76 8fbd 18ee 343e
000000b0: ffc6 243d e616 5bbe b2b7 af3c 2bda 23be
000000c0: c4fd 50be e2e4 c33d 64e4 853e 7d49 4abe
000000d0: 94f0 853e 85f7 dabe 6888 653e ec0b f93d
000000e0: 9452 2d3e 614e 763d 57aa fabd f8de a63e
000000f0: 2ca5 c83d d8c7 4a3d d2b9 113e 6c55 83be
00000100: c6d8 46be 34cc 6ebe 61b0 10bc 575e c03d
00000110: 48c9 9fbe 300d 083e 8272 f83c 1a08 bd3d
00000120: 5f05 8fbe 7d86 44be 3088 273e ce32 253e
00000130: 7ca2 623e 51fe 803e 9043 333d 55a3 0dbe
00000140: 1a31 f13d d5e1 233f 6cc1 32bc 2b33 e93d
00000150: 3c2a 3bbc 920e 023e 3fca 383e f6cd b33e
00000160: 982d 63bd c064 a7be 3c68 393e 8a88 af3e
00000170: 1617 313d f74a 9fbd e812 c4be 7fc1 45be
00000180: b571 6a3e 2f36 003e 2c4c 63bd 6c21 bd3d

linears.0.bias f4 [50]
-0.066503175 0.20335841 -0.0048162444 -0.12621213 -0.18485206 0.09336845 0.11422377 0.010052039
-0.018166088 0.11454753 0.066754095 -0.117459126 0.10433791 -0.09971389 -0.003967898 0.015164167
0.14764096 -0.20073736 0.013684504 -0.07472662 0.09687294 0.0025667371 0.03302931 0.0025425516
-0.13142803 0.012637376 0.04138457 -0.17817475 0.35009733 -0.062824555 -0.11154414 0.037757687
0.040227767 -0.17982341 -0.1263456 0.037697185 -0.22140121 -0.03578848 0.070146404 -0.062453043
-0.053354606 0.068599336 0.019164244 -0.09819953 0.0294472 -0.13060188 -0.029494476 -0.09173991
0.21289062 -0.08318077
00000000: d132 88bd 303d 503e 96d1 9dbb c13d 01be
00000010: dc49 3dbe f537 bf3d 27ee e93d 4fb1 243c
00000020: 0cd1 94bc e597 ea3d 5fb6 883d 698e f0bd
00000030: 1daf d53d cc36 ccbd 2405 82bb 2073 783c
00000040: 312f 173e 188e 4dbe f834 603c 450a 99bd
00000050: 5265 c63d b436 283b be49 073d f0a0 263b
00000060: 1295 06be ff0c 4f3c de82 293d 7173 36be
00000070: f53f b33e 29aa 80bd 4171 e4bd cea7 1a3d
00000080: dfc5 243d a123 38be be60 01be 5d68 1a3d
00000090: 00b7 62be f196 12bd eba8 8f3d c3ce 7fbd
000000a0: 5c8a 5abd cf7d 8c3d 55fe 9c3c d61c c9bd
000000b0: 413b f13c 80bc 05be 669e f1bc 22e2 bbbd
000000c0: 0000 5a3e ae5a aabd

linears.1.weight f4 [50, 50]
-0.110599406 0.0030706888 -0.06277674 0.2518931 0.009594795 -0.1446056 -0.05990856 0.16102666
0.09660964 -0.109241515 0.033920642 0.15622605 -0.1748478 0.16694361 0.26789242 -0.08720868
-0.081937835 0.0750643 -0.105179764 0.055501904 0.14009297 -0.26716623 0.17549394 -0.0015072312
-0.11021036 0.22709772 -0.20816872 -0.002944651 -0.33222649 0.010873437 0.020399073 -0.11467446
0.17139429 0.057410825 -0.2205719 -0.036188573 0.093993 -0.023375828 -0.101030834 0.11976686
-0.17817289 -0.4245816 -0.23470727 -0.106501 0.116545826 -0.18854451 -0.17764825 0.30886325
-0.19721279 0.02517022 0.03728664 0.22240262 -0.09693574 0.17569724 0.12254659 0.0079582175
0.061960645 -0.12517677 0.17673823 -0.2757653 -0.11279615 0.43353522 -0.32040545 -0.20961216
0.0009883614 -0.29967305 -0.2623552 0.1490559 0.18237905 -0.20896176 -0.030973397 0.254854
-0.1062768 -0.2526909 0.25342166 -0.15753 -0.03162616 0.16880766 -0.22575304 0.060195945
-0.08254548 -0.34692475 -0.30064213 -0.07964533 0.29899487 0.28174368 -0.2635085 0.1563628
0.27850008 -0.062030513 0.27065596 0.14611736 -0.06624898 0.023236055 -0.23002654 -0.21456136
-0.11721373 -0.18138282 -0.18233247 0.30401826 0.124862894 -0.16089869 -0.11049907 0.19625846
-0.095854424 0.104527645 -0.014755383 0.11780307 0.36800686 0.36050063 -0.081468716 0.029456645
-0.1185018 -0.041323733 -0.1690668 0.016921448 -0.12924097 -0.029190304 0.043147717 0.11452425
-0.0514401 -0.1537408 0.16115604 0.31040794 0.15570182 0.029839335 -0.15152623 -0.2666408
-0.2119425 -0.100654356 -0.12266502 0.06507906 -0.14595695 -0.17184643 0.039652437 0.038368918
-0.064252704 0.2437804 0.009633876 -0.1047726 -0.08038142 -0.35429826 -0.048737768 0.08098418
0.03675012 -0.042743538 -0.029972397 0.060025297 -0.095532805 -0.14883687 0.091574214 -0.11362068
0.18750137 0.17447592 0.2702266 0.060654998 0.07231407 0.13740028 -0.22636914 -0.20331411
-0.1521832 0.30898654 -0.23944855 0.2553451 -0.09473677 -0.123213194 -0.22563827 0.22102684
-0.0158962 0.020887494 -0.16608068 0.041399416 -0.03542964 0.104337 0.07882795 -0.0486326
-0.11300955 -0.08039791 -0.2436959 0.27132052 -0.058242794 -0.15758036 -0.20799021 0.07253713
0.047779333 -0.024349432 0.27804962 0.16525677 0.0038647132 0.16022755 0.20292976 -0.24312842
-0.1004443 0.10626322 -0.07907739 0.32979664 -0.00916528 -0.14006509 -0.15799494 -0.046187382
-0.02062228 -0.07257737 0.06819882 0.008849537 0.060372405 -0.100967385 -0.04347807 -0.02374095
-0.034293886 -0.11515909 0.050543882 -0.3155988 0.20518783 0.03131991 -0.0847112 0.016328618
0.13561256 0.16027264 0.07118334 0.14264421 0.010626186 -0.09862025 0.13208854 -0.008149404
-0.065702915 0.053911123 -0.19774878 -0.03267259 -0.12807837 0.02220825 0.029460145 0.051517617
0.081203386 -0.16477649 0.04332 -0.23893753 0.16443773 0.1792387 0.27483496 -0.073572434
0.10952814 0.14717703 0.009982379 -0.03065325 0.0135664735 -0.03134981 0.3748578 -0.14809075
0.20598236 0.0849761 -0.08329512 -0.1855737 0.13732596 -0.21932237 0.15203708 0.11862952
00000000: f181 e2bd 9c3d 493b 1791 80bd 22f8 803e
00000010: 7d33 1d3c 7e13 14be ae62 75bd 2ce4 243e
00000020: 46db c53d 04ba dfbd 5ff0 0a3d b9f9 1f3e
00000030: 4d0b 33be 44f3 2a3e 3229 893e 779a b2bd
00000040: 06cf a7bd 50bb 993d 7d68 d7bd f755 633d
00000050: 8874 0f3e 03ca 88be afb4 333e 498e c5ba
00000060: f8b5 e1bd 4e8c 683e 2e2a 55be 0cfb 40bb
00000070: 9719 aabe 8026 323c f51b a73c 71da eabd
00000080: fc81 2f3e 9d27 6b3d 9add 61be 783a 14bd
00000090: 677f c03d aa7e bfbc 41e9 cebd 5448 f53d
000000a0: f472 36be c262 d9be 1a57 70be 321d dabd
000000b0: 94af ee3d d011 41be 6ce9 35be 5323 9e3e
000000c0: 26f2 49be c731 ce3c e0b9 183d 83bd 633e
000000d0: 3f86 c6bd fae9 333e b5f9 fa3d 2f63 023c
000000e0: 72ca 7d3d 572e 00be defa 343e 1c31 8dbe
000000f0: ab01 e7bd 54f8 dd3e 2f0c a4be 92a4 56be
00000100: e88b 813a bf6e 99be 6c53 86be 1ca2 183e
00000110: 93c1 3a3e 12fa 55be ecbb fdbc 397c 823e
00000120: a7a7 d9bd b460 81be 7cc0 813e 8b4f 21be
00000130: 6f8a 01bd eadb 2c3e ce2b 67be 0690 763d
00000140: 9b0d a9bd 1fa0 b1be c4ed 99be 171d a3bd
00000150: db15 993e b540 903e 96ea 86be 921d 203e
00000160: 9097 8e3e b513 7ebd 6b93 8a3e ca9f 153e
00000170: 8cad 87bd 8a59 be3c 148c 6bbe f9b5 5bbe
00000180: c10d f0bd 6bbc 39be 5db5 3abe 48a8 9b3e
00000190: 1eb8 ff3d a0c2 24be 564d e2bd faf7 483e
000001a0: 534f c4bd 9712 d63d 90c0 71bc bc42 f13d
000001b0: 656b bc3e 8a93 b83e 12d9 a6bd 104f f13c
000001c0: 12b1 f2bd 1343 29bd d91f 2dbe d99e 8a3c
000001d0: bf57 04be 8120 efbc a9bb 303d b18b ea3d
000001e0: dbb2 52bd 3a6e 1dbe 1706 253e caed 9e3e
000001f0: 4c70 1f3e 9f71 f43c b129 1bbe 2585 88be
00000200: 7407 59be df23 cebd cc37 fbbd 2c48 853d
00000210: bd75 15be 83f8 2fbe 986a 223d ba28 1d3d
00000220: ec96 83bd 92a1 793e 68d7 1d3c 0493 d6bd
00000230: 049f a4bd 9566 b5be 41a1 47bd 09db a53d
00000240: 4b87 163d d913 2fbd ac88 f5bc 16dd 753d
00000250: b4a6 c3bd b168 18be 438b bb3d f6b1 e8bd
00000260: 5c00 403e d1a9 323e 245b 8a3e 6071 783d
00000270: 6619 943d a9b2 0c3e 50cd 67be 9331 50be
00000280: ead5 1bbe 7c33 9e3e 0032 75be 98bc 823e
00000290: 5a05 c2bd 3357 fcbd b80d 67be dc54 623e
000002a0: bf38 82bc 401c ab3c 0e11 2abe 6f92 293d
000002b0: ac1e 11bd a3ae d53d 8c70 a13d fa32 47bd
000002c0: 8d71 e7bd a9a7 a4bd 6b8b 79be 86ea 8a3e
000002d0: ff8f 6ebd bf5c 21be 63fb 54be 598e 943d
000002e0: 43b4 433d 7678 c7bc 855c 8e3e 1239 293e
000002f0: 2147 7d3b b112 243e d2cc 4f3e a8f6 78be
00000300: beb5 cdbd 88a0 d93d 54f3 a1bd 1bdb a83e
00000310: f829 16bc 396d 0fbe 6dc9 21be fb2e 3dbd
00000320: 0ef0 a8bc 72a3 94bd d3ab 8b3d a6fd 103c
00000330: 0e49 773d fdc7 cebd 1016 32bd 617c c2bc
00000340: bf77 0cbd 87d8 ebbd 1a07 4f3d 2a96 a1be
00000350: c21c 523e 4e49 003d 117d adbd 98c3 853c
00000360: 05de 0a3e 831e 243e 92c8 913d 5311 123e
00000370: 7419 2e3c 6af9 c9bd 3842 073e 1485 05bc
00000380: 408f 86bd e9d1 5c3d a87e 4abe b2d3 05bd
00000390: fa26 03be 13ee b53c 6756 f13c 2304 533d
000003a0: f64d a63d 2bbb 28be 5070 313d 0aac 74be
000003b0: 5d62 283e 5a8a 373e 2bb7 8c3e 25ad 96bd
000003c0: 4a50 e03d 93b5 163e 228d 233c 861c fbbc
000003d0: ea45 5e3c a968 00bd 5ded bf3e 1aa5 17be
000003e0: 0aed 523e f307 ae3d a296 aabd 0807 3ebe
000003f0: 2d9f 0c3e 0b96 60be 9caf 1b3e 09f4 f23d

linears.1.bias f4 [50]
-0.091423765 -0.05750375 -0.0255002 -0.12894087 -0.034546915 -0.06597092 0.027787315 0.2084335
-0.08145931 -0.13741495 0.024513733 0.010378644 -0.019760765 0.015787873 -0.14111578 0.07954902
0.033400983 -0.12894303 -0.006998101 0.048352964 0.025368309 -0.04236473 0.15592913 -0.07135607
-0.07984955 -0.00670449 0.0077624405 -0.12049525 -0.03812376 -0.080841005 0.056636356 0.06569551
-0.0018977163 -0.0011840041 0.015233938 0.02216378 0.1343743 -0.003933719 0.035357963 0.13106422
-0.030184962 -0.039169066 0.0031075638 0.058688708 -0.030708916 0.06664743 -0.09784246 -0.09171188
-0.06376872 0.0009924546
00000000: 623c bbbd 0d89 6bbd cce5 d0bc 1309 04be
00000010: 1181 0dbd c31b 87bd 39a2 e33c 976f 553e
00000020: 24d4 a6bd 81b6 0cbe 06d1 c83c 300b 2a3c
00000030: 54e1 a1bc 9255 813c a880 10be 99ea a23d
00000040: 78cf 083d a409 04be 5350 e5bb c20d 463d
00000050: 33d1 cf3c a486 2dbd e3ab 1f3e 2223 92bd
00000060: 2988 a3bd 57b1 dbbb 125c fe3b 37c6 f6bd
00000070: a927 1cbd f88f a5bd 86fb 673d 5e8b 863d
00000080: cbbc f8ba 9630 9bba c497 793c d190 b53c
00000090: 6b99 093e 6de6 80bb 83d3 103d b335 063e
000000a0: 7446 f7bc be6f 20bd 45a8 4b3b 9263 703d
000000b0: 4491 fbbc 737e 883d a161 c8bd 70d3 bbbd
000000c0: 2d99 82bd 4015 823a

linears.2.weight f4 [50, 50]
0.0011629362 0.09674054 0.201676 0.1419125 0.22004882 0.3991994 -0.057649057 0.035884295
0.025039684 0.2813678 -0.12676579 -0.22334792 0.27250597 -0.07238158 0.13363199 -0.08521879
-0.17016703 -0.11638156 0.4516016 0.26315925 -0.11477766 0.1288458 -0.12863062 0.0055436715
0.30981073 -0.032380223 0.25426582 -0.2159546 0.3419541 0.046277195 -0.058284473 -0.1326107
-0.011024713 -0.2136506 -0.048970632 -0.15455197 -0.11656609 -0.23088399 -0.2702207 0.30157417
0.08746656 0.24440864 -0.20033619 -0.11440516 -0.025315665 -0.22684301 0.27658036 0.34380692
0.040914036 -0.08676483 -0.029995633 0.05022538 -0.008315535 -0.3516766 -0.053559046 0.23603764
0.17859706 0.19950645 -0.13509588 -0.088495865 0.10519582 0.03815213 -0.060775295 -0.013851422
-0.29825827 0.0488003 -0.21028702 0.034479767 0.102940455 -0.1604352 0.29192322 0.32380092
0.075500764 0.2005525 0.13086116 0.15381172 -0.37578923 -0.06030669 -0.08445819 0.20537758
-0.08832888 0.31581905 -0.16628513 0.25911924 0.23797807 0.008514629 0.22563703 0.22838052
-0.16631414 0.23912323 0.1740606 0.21055464 0.08292593 -0.08050646 0.21470495 0.43626347
-0.09906679 -0.12577018 -0.08581968 -0.26890498 0.019079577 -0.16610514 -0.17164716 0.09034705
-0.07187769 -0.03825302 -0.112079315 0.022560844 0.038169798 -0.031857077 0.05243058 0.022551402
0.13205224 -0.42843947 -0.14003272 0.026370252 0.22913821 0.019695703 0.22813436 -0.037865624
-0.04591596 -0.3503559 -0.027611753 0.08530446 0.19821121 -0.19223669 -0.009044585 -0.00023270161
-0.022175761 -0.09941812 0.021109236 -0.033375006 0.13894661 -0.025987668 0.012839743 0.29932028
-0.13646048 0.15751612 0.19758366 0.060797043 -0.049569868 0.028085185 0.20683919 0.17970434
-0.028445646 -0.26184154 -0.13775246 0.12027055 -0.30014908 -0.010336083 0.26384088 0.18083756
0.04067259 -0.20533651 0.01856846 0.19699876 0.16237979 -0.19059296 0.1712476 0.42782873
0.1350806 -0.19714057 0.24328315 0.05721151 -0.0011535545 -0.19478461 0.12165643 -0.035506506
0.14952539 -0.037862416 0.1916663 0.009358514 -0.15785865 0.25965804 0.26645926 -0.27103922
-0.20284854 0.032627385 0.04113151 0.37705523 -0.19806361 0.037572715 -0.09119804 0.15692367
-0.024287049 -0.094550885 -0.015368405 -0.07506051 -0.3612366 0.03709908 -0.08743712 0.034100287
0.027315805 0.043860063 0.17758866 0.26691207 0.15962325 0.0025722946 -0.119974196 0.29505476
0.030840287 0.26308346 -0.06256609 0.35795665 -0.019900534 -0.01280721 0.1105654 0.18958129
0.2117525 0.29346865 -0.06388875 -0.20181046 0.03114111 -0.25615692 0.19161226 0.022887953
-0.18997668 0.18016648 0.086495794 -0.18348882 -0.051932093 -0.30008176 0.11311762 0.07823542
-0.05067459 -0.093847625 -0.010027771 -0.05315576 0.085893326 0.121469885 0.013914372 0.016122181
-0.26686776 0.18155779 -0.13144642 -0.13003364 0.079858445 0.37284008 0.013021547 -0.31355664
-0.20175794 -0.0333246 0.0432224 0.04808978 0.082785934 -0.15316255 -0.050627947 0.05776478
0.012785275 -0.028303761 -0.065543555 -0.14411415 -0.024241237 0.2084492 -0.13446014 -0.17552705
00000000: aa6d 983a e71f c63d 2784 4e3e 8351 113e
00000010: 7a54 613e dd63 cc3e 6b21 6cbd 69fb 123d
00000020: 0620 cd3c 710f 903e e4ce 01be 51b5 64be
00000030: e785 8b3e cb3c 94bd d3d6 083e 3087 aebd
00000040: 4440 2ebe 7559 eebd 5338 e73e cfbc 863e
00000050: 8d10 ebbd 27f0 033e bfb7 03be b0a7 b53b
00000060: 839f 9e3e 20a1 04bd 212f 823e 3423 5dbe
00000070: 9c14 af3e 288d 3d3d b3bb 6ebd 19cb 07be
00000080: ffa0 34bc 39c7 5abe 6e95 48bd df42 1ebe
00000090: 34ba eebd da6c 6cbe 5e5a 8abe ee67 9a3e
000000a0: ab21 b33d 4246 7a3e ee24 4dbe 414d eabd
000000b0: cc62 cfbc 8949 68be f19b 8d3e 7607 b03e
000000c0: 7a95 273d c2b1 b1bd 67b9 f5bc 21b9 4d3d
000000d0: e23d 08bc f50e b4be bb60 5bbd dab3 713e
000000e0: 26e2 363e 6b4b 4c3e 9356 0abe 523d b5bd
000000f0: e870 d73d 6845 1c3d 84ef 78bd 13f1 62bc
00000100: 4fb5 98be d3e2 473d 7b55 57be a83a 0d3d
00000110: 72d2 d23d 2049 24be f676 953e 3cc9 a53e
00000120: 25a0 9a3d a25d 4d3e 7800 063e d280 1d3e
00000130: 7267 c0be 2604 77bd 6af8 acbd 804e 523e
00000140: c6e5 b4bd 09b3 a13e a646 2abe 47ab 843e
00000150: 86b0 733e f180 0b3c 650d 673e 95dc 693e
00000160: 414e 2abe b8dc 743e f13c 323e a39b 573e
00000170: 12d5 a93d 92e0 a4bd 9ddb 5b3e ed5d df3e
00000180: 87e3 cabd e6c9 00be 3ac2 afbd eaad 89be
00000190: c64c 9c3c 7717 2abe 46c4 2fbe e007 b93d
000001a0: 9c34 93bd 33af 1cbd d789 e5bd 85d1 b83c
000001b0: ef57 1c3d 917c 02bd 73c1 563d b8bd b83c
000001c0: b438 073e 6b5c dbbe bd64 0fbe 6d06 d83c
000001d0: 35a3 6a3e e258 a13c 0e9c 693e fc18 1bbd
000001e0: 6012 3cbd d961 b3be 0b32 e2bc 1bb4 ae3d
000001f0: e1f7 4a3e b2d9 44be bd2f 14bc 5d01 74b9
00000200: f1a9 b5bc ba9b cbbd 47ed ac3c 3bb4 08bd
00000210: 0548 0e3e 17e4 d4bc c95d 523c 8240 993e
00000220: 4cbc 0bbe e84b 213e 5f53 4a3e 5206 793d
00000230: c609 4bbd e712 e63c a7cd 533e 6a04 383e
00000240: d806 e9bc 1810 86be fb0e 0dbe 6850 f63d
00000250: 24ad 99be ad58 29bc 2716 873e 7b2d 393e
00000260: 4d98 263d bc43 52be e21c 983c 0bba 493e
00000270: e346 263e cd2a 43be 885b 2f3e 5e0c db3e
00000280: 9252 0a3e 38df 49be 381f 793e 9e56 6a3d
00000290: de32 97ba 9e75 47be 0227 f93d 456f 11bd
000002a0: 2f1d 193e 9f15 1bbd 2c44 443e 7454 193c
000002b0: b3a5 21be e6f1 843e 596d 883e a7c5 8abe
000002c0: 87b7 4fbe 4ba4 053d 8479 283d 620d c13e
000002d0: 30d1 4abe d9e5 193d 0ac6 babd 99b0 203e
000002e0: a2f5 c6bc e5a3 c1bd c3cb 7bbc 53b9 99bd
000002f0: 01f4 b8be 34f5 173d 3c12 b3bd beac 0b3d
00000300: 65c5 df3c 9ca6 333d cdd9 353e b3a8 883e
00000310: 4774 233e f193 283b 08b5 f5bd 6b11 973e
00000320: c5a4 fc3c e0b2 863e a622 80bd 1846 b73e
00000330: 7206 a3bc 55d5 51bc 1d70 e23d 9921 423e
00000340: a6d5 583e 8641 963e 1bd8 82bd 67a7 4ebe
00000350: a41b ff3c 0027 83be 0136 443e 847f bb3c
00000360: 3f89 42be 907d 383e b524 b13d 7ee4 3bbe
00000370: bfb6 54bd 51a4 99be 36aa e73d e439 a03d
00000380: 2990 4fbd 2f33 c0bd 854b 24bc dbb9 59bd
00000390: d7e8 af3d 34c5 f83d 1bf9 633c aa12 843c
000003a0: e4a2 88be 49ea 393e e499 06be 8a27 05be
000003b0: d38c a33d e5e4 be3e 5458 553c 7f8a a0be
000003c0: a299 4ebe 607f 08bd f909 313d caf9 443d
000003d0: ac8b a93d a5d6 1cbe 405f 4fbd c39a 6c3d
000003e0: 5479 513c 4add e7bc b33b 86bd a992 13be
000003f0: 8f95 c6bc b573 553e ebaf 09be 5dbd 33be

linears.2.bias f4 [50]
-0.053853136 0.019265497 0.046410546 0.0057734447 -0.057413075 0.029491188 -0.049344372 0.02539254
-0.016042192 0.06145727 0.0013028466 0.008370649 -0.062486786 0.03888057 0.024095623 0.018742993
0.037630033 0.029344905 -0.01811691 0.009516808 0.020568267 0.032324772 0.029463183 -0.025584357
-0.020583251 -0.008699168 -0.033139348 -0.045971166 0.04015015 0.025267212 -0.025031872 0.028192716
0.029949833 0.0062129246 0.033442672 0.087367706 0.023843199 0.037580185 -0.026469795 -0.05850711
-0.04740146 -0.037593342 0.025775533 -0.037118573 0.027835084 -0.01881136 -0.063595094 -0.038858686
-0.008321431 0.027035503
00000000: 1b95 5cbd add2 9d3c fc18 3e3d 2a2f bd3b
00000010: f929 6bbd 8197 f13c 531d 4abd 0404 d03c
00000020: ea6a 83bc 9eba 7b3d 47c4 aa3a 0c25 093c
00000030: 25f2 7fbd 3c41 1f3d 2f64 c53c e88a 993c
00000040: f321 1a3d ba64 f03c ea69 94bc 63ec 1b3c
00000050: c87e a83c fb66 043d c65c f13c 4996 d1bc
00000060: 359e a8bc f586 0ebc 20bd 07bd 434c 3cbd
00000070: 7c74 243d 2ffd ce3c a40f cdbc 69f4 e63c
00000080: 5a59 f53c ca95 cb3b 2ffb 083d d7ed b23d
00000090: d052 c33c aeed 193d 2fd7 d8bc 27a5 6fbd
000000a0: 0928 42bd 7afb 19bd 3627 d33c a509 18bd
000000b0: 6706 e43c 481a 9abc 253e 82bd 492a 1fbd
000000c0: 9d56 08bc 8f79 dd3c

linears.3.weight f4 [50, 50]
-0.026060801 -0.15476006 0.023594081 0.25007343 0.3034759 0.35999247 0.15023963 0.004378628
0.2467844 -0.28473845 0.09687333 -0.034748066 0.017368313 -0.06921794 0.24150176 0.023800684
0.23708466 0.008914482 0.2086448 -0.034050982 -0.03285842 0.060624834 -0.11297266 0.38278556
-0.6277213 0.023517683 0.339687 0.3384217 0.0055145896 0.21328156 -0.12423384 -0.21267651
0.04371795 -0.018123357 -0.015555105 0.24800001 0.008609857 0.019583924 -0.21871431 0.28555933
0.39515585 -0.24181473 0.016453115 0.8564071 -0.16379772 -0.25342277 0.080154255 -0.11976232
0.021428293 0.47110766 -0.20342018 0.18039435 -0.091240995 -0.043042816 -0.44207928 0.06307498
0.037703272 -0.029684601 -0.067977846 -0.14833607 0.14089687 0.030149067 0.1687551 -0.068525255
-0.21848074 -0.10712864 0.15250956 -0.24263154 0.11924888 0.04165227 -0.11766485 -0.006612879
0.051555872 -0.072751656 -0.14958206 -0.009490937 0.18171978 -0.42217913 0.16713262 0.10342919
0.12826812 -0.057251204 -0.0962078 -0.033075333 -0.0979229 -0.08442008 0.12820424 -0.12157412
0.16770196 0.01758919 -0.14121917 0.38128927 -0.0275664 -0.11815183 -0.061169624 0.11804821
0.15207389 0.13185656 0.08591756 0.16199976 0.16542824 0.08890173 -0.017187431 0.010360304
-0.113939784 0.12730917 -0.16408634 -0.38359815 -0.14745958 0.3133977 0.0013953918 0.1838301
-0.1541327 0.27129748 0.041703027 0.21887657 -0.14980735 0.042440876 0.08817599 0.1287341
-0.06710343 0.11341523 -0.121192604 -0.1726949 0.00836647 -0.1346917 -0.10337463 0.098268926
0.040485565 0.021903595 0.07583024 -0.0631874 0.37953624 -0.039589487 -0.10659345 -0.10313322
0.21155088 0.16227886 -0.0052547376 -0.25133857 -0.08571521 0.031464648 0.17270897 0.08676069
-0.08155881 -0.16766906 -0.14312023 0.10747314 -0.009637487 -0.094054 -0.26590246 -0.15443388
0.20894721 0.28637502 -0.12915528 0.34761012 0.07684801 -0.14605671 -0.11826482 0.1641077
-0.08527787 -0.07548501 -0.107695915 -0.072030604 0.25491545 0.054857377 0.11491428 -0.11894852
-0.022826927 0.14332706 0.14068395 -0.006720937 0.16270317 -0.08763149 0.04939729 -0.03811036
-0.029502176 0.12498783 0.079578616 -0.065495335 -0.10173775 0.03206933 -0.17712988 -0.26541403
0.11789777 -0.19185126 -0.015777852 0.02244976 -0.14307071 -0.0052299276 -0.05099935 0.0034359966
-0.259233 -0.10504178 0.025513403 0.057205938 0.096169785 0.010581787 0.011335364 -0.02097759
0.37363476 -0.06260856 -0.14705727 -0.14438681 0.07799127 -0.1501577 0.13731904 -0.21119596
-0.018189982 -0.3236093 0.0693427 -0.08029325 -0.0789526 -0.10900572 0.006848408 0.048701633
-0.33772027 0.18440992 0.07626267 0.041475702 0.1796112 0.028200878 0.023372836 -0.077930085
-0.019746365 -0.02829656 -0.12807581 -0.069611184 -0.24031278 -0.251169 0.13589549 0.2553343
-0.2326344 0.05588982 -0.28635177 -0.16620235 0.19861045 -0.00051491987 0.05613847 0.060593136
-0.29528907 0.1761839 -0.038451664 0.084263824 -0.044789407 0.20861275 0.14101826 0.33679333
0.22524698 -0.119758174 -0.14218983 -0.15518509 0.3595436 0.24080157 -0.19554013 0.0062394417
00000000: 767d d5bc 6c79 1ebe 6048 c13c a009 803e
00000010: 3161 9b3e ef50 b83e 6bd8 193e 987a 8f3b
00000020: 0db5 7c3e 3dc9 91be 8665 c63d fd53 0ebd
00000030: fe47 8e3c 23c2 8dbd 3d4c 773e a7f9 c23c
00000040: 52c6 723e 0c0e 123c fca6 553e 0b79 0bbd
00000050: 8d96 06bd bf51 783d 365e e7bd 78fc c33e
00000060: 58b2 20bf 28a8 c03c 74eb ad3e 9c45 ad3e
00000070: bbb3 b43b 7b66 5a3e 506e febd dfc7 59be
00000080: 9811 333d 6f77 94bc d7da 7ebc b7f3 7d3e
00000090: 5c10 0d3c 776e a03c a5f6 5fbe d534 923e
000000a0: de51 ca3e 489e 77be afc8 863c 7f3d 5b3f
000000b0: 97ba 27be a1c0 81be ea27 a43d f245 f5bd
000000c0: 638a af3c 0635 f13e 614d 50be 4cb9 383e
000000d0: 8fdc babd aa4d 30bd 3758 e2be 752d 813d
000000e0: bf6e 1a3d 1f2d f3bc f837 8bbd 69e5 17be
000000f0: 4547 103e 2dfb f63c 23ce 2c3e f856 8cbd
00000100: 6ab9 5fbe 4366 dbbd 772b 1c3e 6774 78be
00000110: c238 f43d 929b 2a3d 45fa f0bd dab0 d8bb
00000120: 402c 533d d2fe 94bd 0a2c 19be e07f 1bbc
00000130: c014 3a3e dd27 d8be d024 2b3e afd2 d33d
00000140: b858 033e 3d80 6abd 9808 c5bd 007a 07bd
00000150: cd8b c8bd 6fe4 acbd f947 033e dafb f8bd
00000160: 10ba 2b3e 3417 903c c29b 10be 5938 c33e
00000170: eed2 e1bc 96f9 f1bd 008d 7abd 43c3 f13d
00000180: 42b9 1b3e 6805 073e 8cf5 af3d 44e3 253e
00000190: 0566 293e 1c12 b63d a8cc 8cbc 44be 293c
000001a0: 4359 e9bd 565d 023e 4006 28be fa66 c4be
000001b0: a5ff 16be aa75 a03e 94e5 b63a f53d 3c3e
000001c0: f6d4 1dbe 81e7 8a3e cbd0 2a3d 2e21 603e
000001d0: 1967 19be 7cd6 2d3d 9d95 b43d dfd2 033e
000001e0: 866d 89bd 3e46 e83d d433 f8bd efd6 30be
000001f0: 8513 093c 9fec 09be 14b6 d3bd 3841 c93d
00000200: 31d4 253d 2b6f b33c e34c 9b3d 6568 81bd
00000210: 9352 c23e 9628 22bd ab4d dabd 8237 d3bd
00000220: cba0 583e 6e2c 263e ef2f acbb 73af 80be
00000230: 758b afbd 13e1 003d 9fda 303e 97af b13d
00000240: 4e08 a7bd 70b1 2bbe 1c8e 12be e11a dc3d
00000250: 8de6 1dbc 629f c0bd 5e24 88be ea23 1ebe
00000260: 42f6 553e bf9f 923e 4841 04be f4f9 b13e
00000270: 7d62 9d3d e48f 15be d334 f2bd d90b 283e
00000280: 2aa6 aebd e397 9abd ad8f dcbd c884 93bd
00000290: 4784 823e 21b2 603d 2e58 eb3d 489b f3bd
000002a0: 89ff babc 54c4 123e 740f 103e 4e3b dcbb
000002b0: a99b 263e 2378 b3bd d054 4a3d 9c19 1cbd
000002c0: 8cae f1bc 9ff9 ff3d 1dfa a23d 6b22 86bd
000002d0: e25b d0bd 215b 033d 8961 35be 59e4 87be
000002e0: 6374 f13d a874 44be 8e40 81bc 8fe8 b73c
000002f0: 2181 12be d05f abbb b2e4 50bd 752e 613b
00000300: 30ba 84be 2520 d7bd 7c01 d13c c650 6a3d
00000310: aaf4 c43d 3b5f 2d3c f6b7 393c 32d9 abbc
00000320: 0e4d bf3e eb38 80bd 2e96 16be 23da 13be
00000330: e3b9 9f3d f1c2 19be 5d9d 0c3e c143 58be
00000340: 2803 95bc 1eb0 a5be 8c03 8e3d ca70 a4bd
00000350: e7b1 a1bd 643e dfbd 9c68 e03b 5d7b 473d
00000360: ace9 acbe f4d5 3c3e 9a2f 9c3d 6de2 293d
00000370: 00ec 373e 8705 e73c 6478 bf3c cf99 9fbd
00000380: 21c3 a1bc 30ce e7bc 4e26 03be 4f90 8ebd
00000390: 8e14 76be 3999 80be 3028 0b3e 2dbb 823e
000003a0: b637 6ebe b9ec 643d b39c 92be f330 2abe
000003b0: 8a60 4b3e b0fb 06ba 74f1 653d 8230 783d
000003c0: 2130 97be 8d69 343e 7e7f 1dbd 8392 ac3d
000003d0: 1975 37bd 959e 553e 1767 103e 2d70 ac3e
000003e0: 25a7 663e c643 f5bd 369a 11be d7e8 1ebe
000003f0: 1916 b83e b094 763e ac3b 48be 3b74 cc3b

linears.3.bias f4 [50]
0.020437937 0.001872576 0.024636628 0.030497454 -0.034224015 0.026251515 -0.030068202 -0.008843932
-0.034052648 -0.041615646 0.012524486 -0.012115266 -0.020396747 0.04629579 0.023119066 -0.041129846
0.04330519 -0.0169171 -0.019000068 0.028039157 0.02026159 0.044538826 -0.036587648 -0.19488798
0.011877153 -0.0017871791 -0.020205226 0.032801874 0.028188424 0.037813157 -0.014050566 -0.027602697
-0.023804301 -0.009257281 -0.024688415 -0.012465709 0.0050889975 0.036851134 -0.040237978 0.014191777
0.023834707 0.010588384 0.038587462 0.035137035 -0.0018745665 0.049915496 -0.015447449 -0.047403138
0.03844892 -0.023728387
00000000: 766d a73c 3971 f53a c1d2 c93c ccd5 f93c
00000010: 7b2e 0cbd 6b0d d73c 9751 f6bc 24e6 10bc
00000020: ca7a 0bbd 2b75 2abd 8033 4d3c 1c7f 46bc
00000030: 1417 a7bc a7a0 3d3d 3264 bd3c c577 28bd
00000040: c860 313d bb95 8abc 08a6 9bbc 60b2 e53c
00000050: a2fb a53c 586e 363d eedc 15bd b790 47be
00000060: 6498 423c c83f eaba 6e85 a5bc 425b 063d
00000070: 69eb e63c f8e1 1a3d 5834 66bc 0d1f e2bc
00000080: 3d01 c3bc daab 17bc 5c3f cabc f93c 4cbc
00000090: 9bc1 a63b 37f1 163d 94d0 24bd a184 683c
000000a0: 0141 c33c e77a 2d3c e30d 1e3d daeb 0f3d
000000b0: 04b4 f5ba 3174 4c3d 4c17 7dbc cb29 42bd
000000c0: 9d7c 1d3d 0962 c2bc

linears.4.weight f4 [3, 50]
0.10388834 -0.27267513 0.1882435 0.21637785 -0.5720912 0.27916476 -0.30036923 0.21306343
-0.57468927 -0.116782516 0.85477865 -0.23402068 -0.38321552 0.39210248 0.3955447 -0.32012588
0.44244993 -0.36502078 -0.14398614 0.6098026 0.44734123 0.1793045 -0.37076044 0.10442515
0.45590332 -0.17378803 -0.0027940187 0.35746267 0.5091824 0.09267012 -0.082211405 0.10577011
-0.44056964 0.036665034 -0.29239097 -0.4879063 0.09188547 0.24084683 -0.43923214 0.43431017
0.21243058 0.1369369 0.62040323 0.8193328 -0.0033150814 0.25680804 -0.52969533 -0.3441941
0.19076721 -0.1617813 0.09303922 -0.46764502 -0.044175584 -0.3635339 0.050243232 0.0053469683
-0.015456254 -0.009389564 0.046192937 0.6021586 -0.25633126 0.07938174 -0.36409706 -0.0402081
0.12753251 0.2175544 0.15962502 0.16997288 -0.3049827 0.14597668 -0.1241773 -0.12565154
-0.006802655 -0.26903364 0.157028 0.14332241 0.16419658 -0.013281062 -0.11469346 -0.20214476
-0.16290678 -0.16996478 0.038130898 0.13721672 -0.23629305 -0.084322445 -0.21886313 -0.3567007
0.04850184 0.20761934 -0.087695405 0.079608895 -0.19018956 0.41600257 0.25735092 -0.114290066
-0.53441393 -0.02823049 0.4142169 -0.023891395 -0.29801625 -0.18706743 0.3482404 0.21177757
-0.10289653 0.18683615 0.11186091 0.18525489 -0.14976905 -0.11729029 -0.14683838 -0.07837476
0.3774491 -0.23966168 0.41949755 -0.095696464 -0.2183414 -0.16880351 0.4193006 0.23741713
-0.058478534 -0.22483723 0.09563308 0.017646099 0.26154065 0.11962275 0.46619126 -0.067790575
0.0830682 0.07163221 0.5066866 -0.48934028 -0.23155536 0.32279098 -0.20951575 -0.04593195
0.2236818 -0.061466295 0.34356117 0.09460455 0.016599417 0.112827316 0.00034044063 0.018832166
0.24538407 -0.43524 -0.046749525 0.1895151 -0.3227944 0.023481311
00000000: 69c3 d43d 139c 8bbe e7c2 403e 2892 5d3e
00000010: 9274 12bf afee 8e3e ffc9 99be 4d2d 5a3e
00000020: d61e 13bf ac2b efbd c6d2 5a3f 1ea3 6fbe
00000030: d334 c4be a8c1 c83e d684 ca3e 8ae7 a3be
00000040: cc88 e23e 01e4 babe 1a71 13be 061c 1c3f
00000050: e909 e53e 999b 373e 50d4 bdbe dadc d53d
00000060: 296c e93e 7df5 31be db1b 37bb 5905 b73e
00000070: c759 023f d5c9 bd3d 745e a8bd 009e d83d
00000080: 5892 e1be 132e 163d 45b4 95be dbce f9be
00000090: 732e bc3d 8da0 763e 09e3 e0be e75d de3e
000000a0: 6787 593e 3039 0c3e bfd2 1e3f cbbf 513f
000000b0: d641 59bb 587c 833e 1d9a 07bf 363a b0be
000000c0: 7b58 433e ffa9 25be 598b be3d 2b6f efbe
000000d0: 75f1 34bd 1e21 babe d9cb 4d3d 9f35 af3b
000000e0: 3a3c 7dbc b0d6 19bc ce34 3d3d 1127 1a3f
000000f0: da3d 83be e592 a23d ee6a babe 40b1 24bd
00000100: e297 023e 95c6 5e3e be74 233e 5f0d 2e3e
00000110: b126 9cbe e97a 153e ab50 febd ccaa 00be
00000120: cee8 debb c7be 89be f3cb 203e 1cc3 123e
00000130: 2623 283e d098 59bc 68e4 eabd 09ff 4ebe
00000140: 09d1 26be 3f0b 2ebe 252f 1c3d 8a82 0c3e
00000150: cef6 71be 3fb1 acbd a81d 60be 79a1 b6be
00000160: dea9 463d 2a9a 543e a699 b3bd fd09 a33d
00000170: 0dc1 42be 4afe d43e 80c3 833e e910 eabd
00000180: 5acf 08bf a143 e7bc 3d14 d43e e3b7 c3bc
00000190: 9695 98be 9b8e 3fbe 914c b23e 38dc 583e
000001a0: 6abb d2bd fa51 3f3e 5517 e53d 75b3 3d3e
000001b0: 0f5d 19be e435 f0bd cd5c 16be f282 a0bd
000001c0: 0241 c13e df69 75be 62c8 d63e 82fc c3bd
000001d0: e394 5fbe d4da 2cbe 91ae d63e 7a1d 733e
000001e0: 3087 6fbd bb3b 66be 47db c33d 8d8e 903c
000001f0: a8e8 853e c6fc f43d 9fb0 ee3e c9d5 8abd
00000200: a91f aa3d e8b3 923d 37b6 013f cf8a fabe
00000210: d91c 6dbe dc44 a53e 4c8b 56be 2423 3cbd
00000220: d70c 653e 15c4 7bbd 40e7 af3e 08c0 c13d
00000230: 80fb 873c 0212 e73d 2b7d b239 ea45 9a3c
00000240: f645 7b3e c7d7 debe 6e7c 3fbd 3f10 423e
00000250: 4f45 a5be e15b c03c

linears.4.bias f4 [3]
0.030043958 -0.03505073 -0.01137471
00000000: bf1e f63c 5b91 0fbd fe5c 3abc

exp_avg f4 [50, 2]
0.00013205246 -0.007698029 0.009875385 0.00040391862 0.00217989 -0.0069035953 0.010734198 -0.0054322737
0.021369893 -0.008967992 -0.015705759 -0.019328535 0.015377554 -0.010093952 -0.0088583995 0.009879665
0.0041522398 -0.0006616112 -0.0056247963 0.0026479976 0.017752616 0.013859249 0.0066999947 -0.00554193
-0.014807433 -0.004196881 0.021849355 -0.009683619 -0.0017922644 0.004076323 -0.013038688 0.0055647376
-0.04171254 0.015135637 -0.009365167 0.0006259771 -0.01243458 0.0032243 -0.010321533 0.002158109
-0.017454764 0.009907062 0.015057421 -0.004622522 -0.029212449 0.013016437 -0.028912378 0.009180795
0.003068652 -0.0069038947 -0.009723874 -0.0038451655 0.010109503 0.014083225 0.015111254 -0.002788751
-0.0075222435 0.0033871203 0.00046703982 -0.000611493 -0.0004824442 0.003075136 -0.0150394235 0.003654578
-0.0032479127 0.009371678 0.01849711 -0.0071149054 0.014112159 -0.0020183544 0.012865108 -0.0017740135
0.014429953 -0.0013667783 -0.0024527202 -0.0012710717 0.0068953237 -0.0028674817 -0.030614616 0.006095283
-0.008186816 -0.009604631 0.01865821 -0.0025404273 0.024102528 -0.009956771 0.023743672 -0.01140319
-0.016934663 0.004568738 0.008572294 -0.0064370986 -0.0075052227 0.0049198084 -0.0068843537 -0.0026110075
-0.010406497 0.005240814 0.017081773 -0.0077879084
00000000: 9077 0a39 bf3f fcbb 5ecc 213c 0ac5 d339
00000010: 7cdc 0e3b 8e37 e2bb 7dde 2f3c 3701 b2bb
00000020: ea0f af3c 7cee 12bc 5da9 80bc e056 9ebc
00000030: 23f2 7b3c 1a61 25bc d222 11bc 52de 213c
00000040: 830f 883b fa6f 2dba 3650 b8bb 078a 2d3b
00000050: ef6d 913c e711 633c a18b db3b 1499 b5bb
00000060: e09a 72bc fd85 89bb 6bfd b23c 0ba8 1ebc
00000070: 6aea eaba ad92 853b 39a0 55bc 6758 b63b
00000080: c5da 2abd 76fb 773c 5b70 19bc 9d18 243a
00000090: 69ba 4bbc c74e 533b a61b 29bc 106f 0d3b
000000a0: 4bfd 8ebc 3b51 223c 67b3 763c 8678 97bb
000000b0: f24e efbc e542 553c a7d9 ecbc 0c6b 163c
000000c0: 701b 493b 113a e2bb e250 1fbc 2cff 7bbb
000000d0: 54a2 253c 54bd 663c 3195 773c 7ac3 36bb
000000e0: 277d f6bb 73fa 5d3b 06dd f439 9a4c 20ba
000000f0: 90f0 fcb9 3988 493b ea67 76bc a581 6f3b
00000100: efda 54bb ab8b 193c 4087 973c 2724 e9bb
00000110: af36 673c 5e46 04bb 2dc8 523c 0486 e8ba
00000120: 9c6b 6c3c 7825 b3ba d1bd 20bb 179a a6ba
00000130: 2bf2 e13b 5cec 3bbb 81cb fabc f1ba c73b
00000140: ff21 06bc be5c 1dbc 1ad9 983c 4c7d 26bb
00000150: aa72 c53c b921 23bc 1782 c23c 72d4 3abc
00000160: 90ba 8abc 5ab5 953b cf72 0c3c 4cee d2bb
00000170: 5fee f5bb 5836 a13b 2596 e1bb 701d 2bbb
00000180: 0380 2abc 22bb ab3b 13ef 8b3c b631 ffbb

exp_avg_sq f4 [50, 2]
0.0073213708 0.001799456 0.008688946 0.004036693 0.0034663335 0.00490383 0.00068425917 0.0005026809
0.011183036 0.0014736798 0.04866934 0.004874314 0.010733844 0.004596673 0.0018618478 0.0018070997
0.0035297095 0.0025617066 0.001481004 0.0008835007 0.092157446 0.016447179 0.0047305007 0.0011598377
0.022325194 0.0071636806 0.020427756 0.0029501265 0.00025065703 0.00018479154 0.0058757733 0.002639711
0.072121255 0.011373627 0.029395154 0.01270611 0.011948353 0.0021817833 0.0050237565 0.0027981126
0.008649067 0.0045896894 0.019104397 0.0039531635 0.058570314 0.010407495 0.06282896 0.015021491
0.0049683605 0.0014209917 0.004283169 0.003049446 0.0749361 0.012147651 0.020734763 0.007957399
0.0010336294 0.0024781383 0.01856836 0.0046436996 0.00052276446 0.0013549521 0.024887366 0.0059008636
0.00057943875 0.0007779351 0.0044773957 0.0013449894 0.008323456 0.0025533712 0.028973235 0.0059980014
0.011410606 0.0013041713 0.010045676 0.003643832 0.0032366437 0.0018204437 0.07400741 0.016100291
0.01624367 0.0033065672 0.037054155 0.011879115 0.04259769 0.010618186 0.010098175 0.0032769446
0.005306714 0.0017441561 0.0013708855 0.00012559256 0.0009967963 0.0039628404 0.0050989855 0.0031281621
0.0013400376 0.00047347436 0.0031080288 0.0020709832
00000000: 1ce8 ef3b b9db eb3a 155c 0e3c 3c46 843b
00000010: 6d2b 633b 4fb0 a03b db5f 333a 58c6 033a
00000020: 0d39 373c 7d28 c13a 8059 473d b6b8 9f3b
00000030: 01dd 2f3c b09f 963b 3f09 f43a 34dc ec3a
00000040: b352 673b 4ee2 273b 3f1e c23a ba9a 673a
00000050: 0bbd bc3d 3cbc 863c 5102 9b3b b205 983a
00000060: 53e3 b63c 4fbd ea3b 1c58 a73c e956 413b
00000070: 9e6a 8339 9ac4 4139 8f89 c03b 00ff 2c3b
00000080: 4fb4 933d 7358 3a3c 1bce f03c 4a2d 503c
00000090: 06c3 433c 40fc 0e3b 539e a43b 8a60 373b
000000a0: d1b4 0d3c 1b65 963b d380 9c3c 8a89 813b
000000b0: 6de7 6f3d 3384 2a3c 78ac 803d b31c 763c
000000c0: a1cd a23b 9240 ba3a d359 8c3b 37d9 473b
000000d0: 1978 993d f106 473c f3db a93c c05f 023c
000000e0: d97a 873a 4368 223b ac1c 983c 2d2a 983b
000000f0: 210a 093a a698 b13a 97e0 cb3c 085c c13b
00000100: 7ae5 173a 57ee 4b3a 1eb7 923b 5b4a b03a
00000110: 1b5f 083c 7656 273b 4759 ed3c e28a c43b
00000120: 8df3 3a3c baf0 aa3a 9e96 243c 5bcd 6e3b
00000130: df1d 543b f49b ee3a 3291 973d c2e4 833c
00000140: 7211 853c feb2 583b 19c6 173d 9fa0 423c
00000150: ea7a 2e3d e6f7 2d3c d172 253c 02c2 563b
00000160: f2e3 ad3b 2b9c e43a 49af b33a 7fb1 0339
00000170: efa6 823a b7da 813b 6415 a73b da01 4d3b
00000180: 33a4 af3a a73c f839 12b0 4b3b 55b9 073b

exp_avg f4 [50]
0.008286238 -0.0074555813 0.00055021135 0.008386233 0.015251451 0.001871426 -0.0096386345 -0.0024374381
-0.0028538697 -0.019352729 -0.01279283 0.024479661 -0.014527907 0.0023473331 0.0032515828 -0.015754696
-0.015575748 0.02677632 0.00067406864 -0.0013113001 -0.0003191382 0.0016302646 -0.004491462 -0.0076003773
0.010561571 -0.014270822 -0.012955521 0.00917631 -0.017540947 0.021855462 0.0075592403 -0.007217141
-0.0018508869 0.01255937 0.013911428 -0.007032506 0.0070077316 0.0036616859 0.0003817006 0.0069261077
0.0063649975 -0.005027613 -0.0033602128 0.008905655 -0.010940996 0.006513168 0.005454839 -0.0004957176
-0.009752779 0.018167894
00000000: 00c3 073c f34d f4bb 0f3c 103a 6966 093c
00000010: 39e1 793c a34a f53a 5deb 1dbc 6dbd 1fbb
00000020: fd07 3bbb 9d89 9ebc 0599 51bc 9289 c83c
00000030: 7506 6ebc b7d5 193b 8218 553b fe0f 81bc
00000040: 6c31 7fbc 035a db3c fbb3 303a eedf abba
00000050: 0152 a7b9 9aae d53a 1d2d 93bb 960c f9bb
00000060: 710a 2d3c 2ad0 69bc 6543 54bc 3c58 163c
00000070: 08b2 8fbc 3a0a b33c 81b3 f73b c47d ecbb
00000080: 7599 f2ba d1c5 4d3c c2ec 633c f070 e6bb
00000090: 1da1 e53b e5f8 6f3b fd1e c839 67f4 e23b
000000a0: 7891 d03b adbe a4bb 0437 5cbb 06e9 113c
000000b0: dd41 33bc 6a6c d53b 82be b23b 0cf3 01ba
000000c0: 1fca 1fbc d6d4 943c

exp_avg_sq f4 [50]
0.0026911744 0.0047882637 0.0036814972 0.001016642 0.001911874 0.0068815323 0.008104672 0.0021751784
0.0024923757 0.0017767036 0.026553968 0.0029414583 0.0071629295 0.0054733525 0.0011105366 0.0047812914
0.016663654 0.016959105 0.0023874294 0.0032101618 0.004940893 0.0066009383 0.013495726 0.016930128
0.0017080918 0.0031324546 0.019513046 0.0029801119 0.003365313 0.010275173 0.001561547 0.008281354
0.0014345897 0.0009270022 0.0039701397 0.014225809 0.0028717762 0.011662605 0.0017955623 0.016781816
0.0045307083 0.016328897 0.013320113 0.003980619 0.0032484517 0.00041650547 0.002366762 0.00209824
0.0003999953 0.004696466
00000000: 6a5e 303b dee6 9c3b 4645 713b d840 853a
00000010: d997 fa3a 7a7e e13b 75c9 043c 708d 0e3b
00000020: 2057 233b 48e0 e83a b587 d93c 7bc5 403b
00000030: 02b7 ea3b cf59 b33b 6d8f 913a 61ac 9c3b
00000040: 3782 883c d2ed 8a3c 6b76 1c3b 9461 523b
00000050: 37e7 a13b af4c d83b 2d1d 5d3c 0db1 8a3c
00000060: 0de2 df3a de49 4d3b d3d9 9f3c fb4d 433b
00000070: 958c 5c3b 3359 283c d3ac cc3a 84ae 073c
00000080: d808 bc3a 1102 733a f217 823b 5e13 693c
00000090: 6934 3c3b 8314 3f3c 1359 eb3a 057a 893c
000000a0: 5676 943b 2ec4 853c 9a3c 5a3c da6f 823b
000000b0: fae3 543b 6b5e da39 ad1b 1b3b a082 093b
000000c0: 76b6 d139 d0e4 993b

exp_avg f4 [50, 50]
0.00043150454 -1.8101984e-05 0.00061804906 9.049541e-05 0.00031785938 0.0005339235 0.0012207815 0.00045959465
-0.001031788 8.987814e-05 -9.985453e-05 -2.1853584e-06 0.0010154265 0.00064101134 -0.0008381519 0.00034001318
-4.645803e-05 -0.00023951296 -0.0005420826 -0.00019806433 -0.000685167 1.8877894e-06 -6.145345e-05 -9.483897e-05
-0.000471956 0.0004130887 0.00040321873 0.00030579674 0.0007826842 -9.226819e-05 0.00013439647 0.00015387319
-0.0005715288 -0.00011952283 -0.0006658064 0.00019245793 -0.0011095883 0.00046170587 0.00081541785 -9.219724e-05
0.0004994377 0.00015191284 0.0001113597 0.0005368607 -0.00035074775 0.0004798568 -1.1270494e-05 -0.001104936
0.0008827795 -0.000112249036 -0.0018993326 0.0012449932 -0.0011542243 -0.0015383593 -0.0025595482 -0.001394738
-0.0012479781 -0.00046820665 0.0019664082 0.0013366482 0.0015803699 -0.0017074315 -0.0009080854 -0.0021942304
0.0016065331 -4.494698e-05 0.001712941 -0.0011430163 0.0012158027 8.893186e-05 0.0023689675 -0.00029681562
0.00071599276 0.00042668745 -0.0004720196 -0.0002314973 0.00038197782 -0.0020180352 0.0014259374 -0.0009097927
-0.0010893011 0.00052576116 0.00148982 -0.0013291565 -0.00020291915 -0.0001407848 5.3751563e-05 -0.0011529321
-0.0009907589 -0.000102900696 -0.0024234867 0.000109850254 -0.00023071216 -0.002138522 0.0013184908 -0.002271398
-6.3544176e-05 0.0011791008 0.00023559626 -0.00060671865 -0.00047588212 7.371598e-05 -0.0011069134 0.0006510058
-2.8431115e-05 -0.0025854798 -0.0023767676 -0.0014670084 0.0030060094 -0.00095518347 8.391844e-05 0.00046445188
-0.0026932573 -0.0011982275 0.0015359708 -0.0012455296 -0.00078998355 0.0007528749 0.00080100074 5.1431216e-05
0.0012050015 0.00050932023 -0.00047926637 -0.00026332072 0.0017375408 -0.0013887074 -0.00069186994 -0.0005806723
-0.0019952266 0.0008238995 -0.00011773866 -0.0009350341 0.00086168817 0.0007621602 0.002146669 -0.00021532789
0.0021557836 -0.00066896307 -0.001429352 -0.00013571607 -0.0017827657 -7.830981e-05 0.00011494826 -0.0006719583
0.00022075989 -0.0005257218 -0.0002350478 0.0024785097 -0.0018751831 0.0007122516 -0.0018720919 0.0011627685
-0.00048783945 -0.0020639554 -0.0028825037 5.2795018e-05 0.0003518047 0.00053919305 -0.0003244174 0.0021582304
0.0018584812 -0.0023230985 0.0017472629 -0.001624823 0.00072278245 0.00090892764 0.0023828177 -0.0015994301
0.0008025433 0.000121577206 0.0018602002 -0.00066813064 0.0010916091 0.00064321945 -0.0016203834 0.0008229484
0.0011946779 -0.0017941417 0.0027210645 -0.0016172054 -0.0010345672 0.0012444508 0.0010479988 -0.0018249738
-0.0018324287 -3.7668266e-05 -0.0014368092 -0.00079101365 -0.00013604858 2.3792278e-05 -0.0018107158 0.00012142364
-0.00034124678 -0.0019477425 0.0013332866 -0.0021785845 8.777002e-05 -0.00051786023 0.0014735505 -0.0010764214
0.0013183954 0.0040914756 -0.0009802761 0.001037019 0.00024791862 0.002089793 -0.0007441149 -0.0029276435
0.004211331 -0.0023577437 -0.0024334867 0.0023465652 -0.004521394 -0.0014721872 0.00074248266 -0.0033548255
-0.001204187 -0.0014778217 0.00023072492 -0.002206242 0.00080836203 0.0019271085 -0.0016313749 -0.0013410775
0.0017328891 -0.0034870731 -0.0038257614 -0.00263512 0.0014327816 0.0026897804 -0.0014498956 -0.0026783012
0.0005558592 -0.00060758396 0.0029032354 0.0006612217 -0.00023557429 -0.0006963983 7.193718e-05 -0.0018761122
0.0014220501 0.0014520132 0.0011764455 -2.7739512e-05 -0.0013970879 -0.00027844537 -0.0012123673 0.001842666
0.00023879057 0.0006051753 0.0007533598 0.00436381 -0.0010512648 0.00062028406 -0.00042355896 0.00060712424
00000000: 8f3b e239 b7d9 97b7 9204 223a 5ac8 bd38
00000010: 5da6 a639 00f7 0b3a a102 a03a c0f5 f039
00000020: 0f3d 87ba f67c bc38 fe68 d1b8 2ca8 12b6
00000030: 0f18 853a 8b09 283a 6cb7 5bba cc43 b239
00000040: eedb 42b8 c525 7bb9 8c1a 0eba 7daf 4fb9
00000050: c79c 33ba f35f fd35 92e0 80b8 49e4 c6b8
00000060: dd70 f7b9 d493 d839 1a67 d339 5853 a039
00000070: 0c2d 4d3a 1b80 c1b8 c7ec 0c39 0559 2139
00000080: a6d2 15ba 55a8 fab8 8389 2eba 88ce 4939
00000090: 9b6f 91ba 1d11 f239 c4c1 553a 045a c1b8
000000a0: b2ec 023a cb4a 1f39 c989 e938 1dbc 0c3a
000000b0: 91e4 b7b9 4a95 fb39 6716 3db7 80d3 90ba
000000c0: 546a 673a 3e67 ebb8 07f3 f8ba 0a2f a33a
000000d0: 5749 97ba c6a2 c9ba 18be 27bb a4cf b6ba
000000e0: 3293 a3ba a279 f5b9 dbde 003b 7932 af3a
000000f0: 6a24 cf3a e5cb dfba 940c 6eba 14cd 0fbb
00000100: 4e92 d23a 7485 3cb8 c384 e03a 43d1 95ba
00000110: 925b 9f3a ee80 ba38 ae40 1b3b eb9d 9bb9
00000120: 76b1 3b3a 05b5 df39 6679 f7b9 15be 72b9
00000130: 3244 c839 0341 04bb 85e6 ba3a 287f 6eba
00000140: e1c6 8eba 3cd3 093a 1046 c33a 1737 aeba
00000150: b2c6 54b9 a29f 13b9 4d73 6138 fb1d 97ba
00000160: 5adc 81ba 64cc d7b8 5cd3 1ebb 685f e638
00000170: 53eb 71b9 7226 0cbb 36d1 ac3a bcdb 14bb
00000180: 0543 85b8 0f8c 9a3a 640a 7739 330c 1fba
00000190: d17f f9b9 f797 9a38 da15 91ba 42a8 2a3a
000001a0: 5b7f eeb7 2771 29bb 8bc3 1bbb a248 c0ba
000001b0: 7800 453b 4765 7aba 5ffd af38 ad81 f339
000001c0: 5c81 30bb d80d 9dba a152 c93a 0a41 a3ba
000001d0: e616 4fba 945c 453a 40fa 513a d9b7 5738
000001e0: 24f1 9d3a e783 053a 0b46 fbb9 4f0e 8ab9
000001f0: 32be e33a 4a05 b6ba 9b5e 35ba 4238 18ba
00000200: 59c2 02bb f6fa 573a 76ea f6b8 141d 75ba
00000210: eae2 613a b5cb 473a 21af 0c3b a4c9 61b9
00000220: 0c48 0d3b 5a5d 2fba 1859 bbba 014f 0eb9
00000230: b1ab e9ba 423a a4b8 6110 f138 5c26 30ba
00000240: c87b 6739 98d0 09ba 2a77 76b9 7e6e 223b
00000250: b4c8 f5ba 65b6 3a3a fb60 f5ba 0968 983a
00000260: b4c4 ffb9 6d43 07bb 63e8 3cbb 3870 5d38
00000270: 6d72 b839 a258 0d3a 9116 aab9 1971 0d3b
00000280: 4898 f33a 203f 18bb 6a04 e53a 03f8 d4ba
00000290: 1c79 3d3a 1a45 6e3a 0c29 1c3b f8a3 d1ba
000002a0: c561 523a 44f7 fe38 f6d1 f33a 7d25 2fba
000002b0: 5314 8f3a ba9d 283a 0b63 d4ba 22bb 573a
000002c0: bd96 9c3a 6829 ebba e353 323b 69f8 d3ba
000002d0: 519a 87ba d71c a33a 015d 893a f633 efba
000002e0: 1b2e f0ba fefd 1db8 5153 bcba 075c 4fba
000002f0: 43a8 0eb9 8795 c737 8a55 edba d2a4 fe38
00000300: 5ee9 b2b9 654b ffba adc1 ae3a 95c6 0ebb
00000310: 2c11 b838 03c1 07ba 2624 c13a b516 8dba
00000320: 02ce ac3a c911 863b 9c7c 80ba 95ec 873a
00000330: 13fb 8139 e9f4 083b b510 43ba b5dd 3fbb
00000340: 34ff 893b 6084 1abb 227b 1fbb d5c8 193b
00000350: 3428 94bb 68f6 c0ba 2ba3 423a a2dc 5bbb
00000360: d0d5 9dba 78b3 c1ba c0ee 7139 9996 10bb
00000370: 42e8 533a 0897 fc3a dcd3 d5ba 18c7 afba
00000380: 1c22 e33a 6187 64bb a0b9 7abb fab1 2cbb
00000390: 2ccc bb3a 0747 303b 6c0a beba 7086 2fbb
000003a0: 14b7 113a 4546 1fba 3544 3e3b d655 2d3a
000003b0: 7e04 77b9 808e 36ba fbdc 9638 e1e7 f5ba
000003c0: 1564 ba3a 7a51 be3a f632 9a3a 26b2 e8b7
000003d0: 7e1e b7ba 4efc 91b9 4ce8 9eba 9c85 f13a
000003e0: db63 7a39 a0a4 1e3a 1f7d 453a 4bfe 8e3b
000003f0: 98ca 89ba 8f9a 223a 1f11 deb9 6b27 1f3a
