models/onlyadam/ckpt/ckpt-23000.pt (torch, 106859 bytes, 30 tensors)

linears.0.weight f4 [50, 2]
0	0x3e0f8cca	0.1401855
1	0xbe971195	-0.29505602
2	0xbdc49a63	-0.095997594
3	0xbe8fb42c	-0.28067148
4	0xbe1be41a	-0.15223733
5	0xbe7bb41e	-0.24580428
6	0x3db721c0	0.08941984
7	0x3d3e3c77	0.046444383
8	0xbdb838c8	-0.08995205
9	0xbe374d4e	-0.17900583
10	0xbdd6d518	-0.10489863
11	0x3e9caf92	0.306027
12	0x3de8d085	0.11367897
13	0xbe5dfb3d	-0.21677871
14	0x3dc8d269	0.098057576
15	0xbe9ea88e	-0.30987972
16	0xbe8efccb	-0.2792724
17	0x3dd92db5	0.10604421
18	0xbd6fa76d	-0.05850928
19	0xbeab4ca5	-0.33456913
20	0x3e7a10d0	0.24420476
21	0x3d178dc9	0.03700045
22	0x3e646cfb	0.22307198
23	0x3e024741	0.12722494
24	0xbd306541	-0.043065313
25	0xbe683671	-0.22677018
26	0x3ed83f37	0.4223573
27	0x3e9a4011	0.30127004
28	0xbe1fa1bb	-0.15589039
29	0xbf514343	-0.8174326
30	0x3e948041	0.290041
31	0xbe0152e3	-0.12629275
32	0xbe56d747	-0.2098056
33	0xbe7e20b7	-0.24817167
34	0x3efe945e	0.4972257
35	0xbeb261c1	-0.34840205
36	0x3d0d780f	0.034538325
37	0xbf298b79	-0.66228443
38	0x3ec5dbb2	0.38644177
39	0x3ed9d226	0.42543143
40	0x3e8186ef	0.2529826
41	0xbf7d803a	-0.99023783
42	0xbd423daf	-0.047422107
43	0xbe4f043f	-0.20216464
44	0xbcca3e49	-0.024687903
45	0x3ed8ae0b	0.42320284
46	0xbbb57beb	-0.005538454
47	0xbe68e945	-0.22745235
48	0x3d94bd2f	0.072626464
49	0xbe9b9783	-0.30389032
50	0xbeb3f09d	-0.3514451
51	0xbd148533	-0.03625984
52	0x3d334d58	0.043774933
53	0xbe8e817d	-0.27833167
54	0xbdae1147	-0.08499389
55	0x3ed81e0e	0.4221043
56	0x3ee321d4	0.44361746
57	0xbee119ad	-0.43964902
58	0x3e594571	0.21217896
59	0x3e8e52de	0.27797598
60	0x3e8a3118	0.2699058
61	0x3ebd15a4	0.36930573
62	0xbef50404	-0.47854626
63	0x3e704583	0.23464017
64	0xbecf848a	-0.40530807
65	0xbd9035e6	-0.0704153
66	0x3dc3ec31	0.09566534
67	0x3e8ca9f6	0.2747342
68	0xbe1f7e8b	-0.15575616
69	0x3e2799fe	0.16367337
70	0x3cdc8f4a	0.026923794
71	0x3e99516d	0.29944935
72	0x3e9bc397	0.3042266
73	0xbd8f3a37	-0.069935255
74	0xbe908f38	-0.28234267
75	0x3e5c2965	0.21500166
76	0xbe007038	-0.12542808
77	0xbe8fbd27	-0.28074
78	0xbddebaa0	-0.1087544
79	0x3ec68cd4	0.38779318
80	0x3d6e5995	0.0581909
81	0xbe27435c	-0.1633429
82	0xbb7b28f5	-0.0038323973
83	0x3e92383d	0.2855853
84	0x3ccee044	0.025253423
85	0x3f033f8d	0.51268846
86	0x3e10925a	0.14118329
87	0x3e0ac0f8	0.13550174
88	0x3d940813	0.072281025
89	0xbe46011d	-0.19336362
90	0xbe58be71	-0.21166398
91	0xbe3d1e9b	-0.18468706
92	0xbee43f3b	-0.4457949
93	0xbcccf95c	-0.025021248
94	0x3e30f06d	0.17279215
95	0x3e18fa13	0.14939146
96	0x3dbb9526	0.09159307
97	0xbe4f8b42	-0.20267966
98	0x3f0f590f	0.5599527
99	0xbdb19530	-0.086710334

linears.0.bias f4 [50]
0	0x3e7a6804	0.24453741
1	0x3d744b13	0.05964191
2	0xbef1438c	-0.47121847
3	0xbe2c428e	-0.16822264
4	0xbc3acceb	-0.011401395
5	0x3a7e922a	0.0009711111
6	0x3df88b6e	0.12135969
7	0x3d59452f	0.053044494
8	0xbc5c7f42	-0.013458075
9	0x3d2ba2c3	0.04190327
10	0xbd98579c	-0.07438585
11	0x3e0567d6	0.13027892
12	0xbcd4ded8	-0.025985166
13	0xbda7c5de	-0.08192037
14	0x3e14291a	0.14468804
15	0x3ef53d08	0.47898126
16	0x3d3251ad	0.043534923
17	0x3da513c8	0.080604136
18	0x3b6a8787	0.0035786347
19	0xbe0e91e8	-0.13922846
20	0x3e0a9598	0.13533628
21	0xbe351c43	-0.17686562
22	0xbd6e4d11	-0.058178965
23	0x3d0f5b6d	0.0349993
24	0x3e316255	0.17322667
25	0xbe1110e4	-0.141666
26	0x3eaa12d3	0.33217487
27	0xbd96fad1	-0.07372058
28	0x3f2d8833	0.6778595
29	0x3badf237	0.0053084153
30	0xbda779ae	-0.081775054
31	0xbe17b151	-0.14813735
32	0xbddb0b11	-0.1069547
33	0xbdc1e2e6	-0.094671056
34	0x3c01934e	0.007908655
35	0xbe52156d	-0.20515986
36	0x3e114dc0	0.14189816
37	0xbe30235d	-0.1720099
38	0x3d7fb8fe	0.06243228
39	0xbe9c73ee	-0.30557197
40	0xbc13363f	-0.008985101
41	0xbd43beab	-0.047789257
42	0xbec9786f	-0.39349696
43	0x3c01340d	0.007885945
44	0x3cf164df	0.029467044
45	0xbe0427c0	-0.12905788
46	0x3c11e64e	0.008905007
47	0x3dd1ecd9	0.10250253
48	0x3d62da0f	0.055383738
49	0x3d83bffb	0.06433102

linears.1.weight f4 [50, 50]
0	0x3e694430	0.22779918
1	0x3d0bbada	0.034113742
2	0xbf0aaebc	-0.54172873
3	0xbd1608cd	-0.036629487
4	0xbe8fc721	-0.2808161
5	0x3daf9356	0.08573024
6	0xbac29935	-0.0014846685
7	0xbe21f93e	-0.15817735
8	0x3e09f54a	0.13472477
9	0xbdf0b0ca	-0.1175247
10	0xbe00c7fa	-0.12576285
11	0x3edab5d0	0.42716837
12	0xbd3e8e70	-0.046522558
13	0x3d4c9748	0.04994896
14	0xbc5b6cc6	-0.013392633
15	0x3ead590d	0.33857003
16	0x3e1b9be1	0.15196182
17	0xbe4e7ec0	-0.20165539
18	0xbe2899aa	-0.16464868
19	0x3d1e41d6	0.038637005
20	0xbdbd13cd	-0.09232292
21	0xbec0f7aa	-0.37688953
22	0x3e545e40	0.20739079
23	0xbe1cf04e	-0.15326044
24	0x3df8f3c5	0.1215587
25	0xbd8fbd8d	-0.07018576
26	0x3ebd5678	0.36980033
27	0x3e64978d	0.22323437
28	0x3e936bf8	0.2879331
29	0x3e0d1f4e	0.13781473
30	0x3dca1697	0.0986759
31	0x3e307821	0.17233326
32	0x3d9773c2	0.07395126
33	0x3e755a8a	0.23960319
34	0xbced9701	-0.029002668
35	0xbe0040d7	-0.12524734
36	0x3ead35a0	0.33829975
37	0x3ea43d10	0.32077837
38	0x3df8ac68	0.12142259
39	0xbd316a08	-0.04331401
40	0xbd665dbf	-0.056241747
41	0x3e953193	0.29139385
42	0xbe271fa0	-0.16320658
43	0xbd076773	-0.03305764
44	0x3e4e9058	0.2017225
45	0xbe125c6c	-0.14293069
46	0xbd97ee4b	-0.07418498
47	0x3d949db2	0.072566405
48	0x3de6c483	0.112679504
49	0x3de8f2b0	0.11374414
50	0xbc9143cf	-0.017732529
51	0x3c41c6d4	0.0118271895
52	0xbe144694	-0.14480048
53	0xbea6487a	-0.3247717
54	0x3e3bbaa4	0.18332916
55	0x3cc97b3f	0.024594901
56	0x3e057549	0.13033022
57	0x3e17e7a9	0.14834465
58	0xbd7f918f	-0.062394675
59	0x3da7e380	0.08197689
60	0x3da3f898	0.080064
61	0x3c8cdd53	0.01719538
62	0x3ea2654d	0.3171791
63	0xbe0d8715	-0.13821061
64	0xbe058322	-0.13038304
65	0xbe1baf76	-0.15203652
66	0x3d74cb30	0.059764087
67	0xbe03301c	-0.12811321
68	0xbe09e61d	-0.13466688
69	0xbe708fbd	-0.23492332
70	0xbe82b415	-0.25528017
71	0xbcd7b30f	-0.026330499
72	0x3dd3db06	0.1034451
73	0x3e756bc9	0.23966898
74	0x3e690a2e	0.2275779
75	0x3ec149fe	0.37751764
76	0x3e738778	0.23782146
77	0x3e1b72c6	0.15180501
78	0x3d96dd29	0.07366402
79	0xbe377c84	-0.17918593
80	0xbe296b00	-0.16544724
81	0xbe3c32e2	-0.18378785
82	0x3d196d6d	0.037457872
83	0x3dc80537	0.0976662
84	0xbe5d84f8	-0.21632755
85	0xbda5a570	-0.08088195
86	0xbe028843	-0.12747292
87	0x3d7854f6	0.0606279
88	0x3d01235e	0.03152787
89	0xbd7e1d1c	-0.06203948
90	0x3e9afa63	0.30269155
91	0xbe14d8ab	-0.14535777
92	0x3ded3415	0.115821995
93	0xbe4b158b	-0.19832437
94	0x3dcc778f	0.099837415
95	0x3dd091d6	0.10184066
96	0x3dfa8633	0.12232628
97	0xbd88cc81	-0.06679631
98	0x3d88baf5	0.06676284
99	0xbcf01488	-0.029306665
100	0x3e86c4bd	0.26321974
101	0xbb6af1f9	-0.0035849793
102	0xba08983b	-0.00052106724
103	0x3bbf278a	0.005833571
104	0x3df08d7c	0.11745736
105	0xbd89c7e1	-0.06727577
106	0xbdcb615b	-0.099306785
107	0x3e3e7421	0.18598987
108	0xbdedfa11	-0.11619962
109	0xbe78ca3e	-0.242959
110	0xbd618912	-0.05506236
111	0xbe693bdc	-0.22776741
112	0x3e10dd76	0.1414698
113	0xbdd0cd63	-0.101954244
114	0xbda1a503	-0.078928016
115	0xba860e90	-0.0010227729
116	0x3e2dc89b	0.16971056
117	0xbcab6b08	-0.02092506
118	0x3b1db6ca	0.002406525
119	0xbdb46c9e	-0.088097796
120	0xbea28d03	-0.31748208
121	0x3d992a9e	0.07478832
122	0xbc52bb24	-0.012862001
123	0x3dbb3020	0.091400385
124	0x3e3d7df0	0.18505073
125	0x3d821969	0.06352503
126	0x3d266a06	0.040628456
127	0x3e26cf82	0.16290095
128	0x3dd52ddd	0.10409138
129	0xbe5b409b	-0.21411364
130	0xbe6a6229	-0.22889008
131	0xbe078a42	-0.13236335
132	0x3e16f409	0.1474153
133	0x3d81406a	0.06311114
134	0x3b5f940a	0.0034115338
135	0xbe1e5460	-0.15461874
136	0xbd8134e9	-0.0630892
137	0xbe47e039	-0.19519128
138	0x3c871c3c	0.016492955
139	0xbd9a9bb0	-0.07549226
140	0xbc994c15	-0.018713037
141	0xbde83d31	-0.11339796
142	0xbcc45fa5	-0.023971388
143	0xbdec16b0	-0.11527765
144	0x3d3e3eb5	0.04644652
145	0xbe0cb903	-0.13742451
146	0x3dd3e3f3	0.10346212
147	0xbd51c99e	-0.051217668
148	0x3e39e280	0.18152809
149	0x3e789168	0.24274218
150	0xbe815880	-0.25262833
151	0x3ccfd190	0.025368482
152	0x3dd28d54	0.102808625
153	0x3dd133cb	0.10214957
154	0x3e5a5424	0.2132116
155	0xbddd2cc6	-0.107995555
156	0x3e4b0bb2	0.1982868
157	0x3e2b094d	0.16702767
158	0xbdfd0296	-0.12354009
159	0x3e5f5fde	0.21813914
160	0x3db09d58	0.08623761
161	0xbdc92525	-0.09821538
162	0x3d99e6b2	0.07514705
163	0xbd75eb83	-0.060039055
164	0xbe35ddc7	-0.17760383
165	0x3d8ff97f	0.070300095
166	0x3e094e9b	0.13408892
167	0x3e78035e	0.24220034
168	0x3e0a4714	0.13503677
169	0xbdd3aeee	-0.103360996
170	0x3d737bb0	0.05944413
171	0xbb2e7dca	-0.002662527
172	0x3d4e550f	0.050374087
173	0xbe6ce939	-0.23135842
174	0xbd98615f	-0.07440447
175	0xbe1dd91b	-0.1541485
176	0x3e0f8fcf	0.14019702
177	0xbe08d939	-0.13364114
178	0xbd9c0ba9	-0.076194115
179	0x3e899815	0.26873842
180	0x3e68d6cc	0.22738189
181	0xbe4fa485	-0.20277603
182	0x3d079071	0.033096734
183	0x3e6b7d30	0.22996974
184	0x3e7e3890	0.24826264
185	0xbcf546c9	-0.02994098
186	0x3d3b5a30	0.045740306
187	0xbd2889b6	-0.041146956
188	0x3e7bb37f	0.24580191
189	0xbe865d07	-0.2624285
190	0x3d40322b	0.046922844
191	0xbe4a3a89	-0.19748892
192	0xbe1b2c6e	-0.15153667
193	0xbe705988	-0.23471653
194	0x3e08bf3e	0.13354203
195	0xbdd0fc9b	-0.10204431
196	0x3e7cf8cc	0.24704283
197	0xbe007571	-0.125448
198	0xbdd1c716	-0.10243051
199	0xbd9b562f	-0.075847976
200	0xbb50408f	-0.0031776761
201	0x3e185be5	0.14878805
202	0x3e828e95	0.25499406
203	0xbccddeba	-0.025130618
204	0x3e74f707	0.23922358
205	0xbcb4daed	-0.022077048
206	0xbc5eda0d	-0.013601792
207	0x3d70e91d	0.058816064
208	0xbe251884	-0.16122633
209	0xbdbfad61	-0.09359241
210	0x3d66a155	0.056306202
211	0xbc429018	-0.011875175
212	0x3e20f3ff	0.15718077
213	0x3d6e30db	0.05815206
214	0xbe3ba5c0	-0.18324947
215	0xbd402614	-0.046911314
216	0x3d848854	0.06471315
217	0x3d10c640	0.035345316
218	0xbd9e54a3	-0.07730987
219	0xbe38d9d8	-0.18051851
220	0xbe858365	-0.2607681
221	0x3dbaf353	0.09128442
222	0xbde8ac1d	-0.11360953
223	0x3d900005	0.07031254
224	0x3c09cc58	0.008410536
225	0xbddd1ccd	-0.10796509
226	0xbe3aff0f	-0.1826136
227	0xbe0d10bc	-0.13775915
228	0xbb16d43f	-0.0023014692
229	0xbe22b017	-0.15887485
230	0xbe147160	-0.14496374
231	0x3e5e83d2	0.21729973
232	0xbced37cd	-0.028957272
233	0xbcbd76fb	-0.023128023
234	0x3cdb30b0	0.026756614
235	0xbd92dcdf	-0.07171034
236	0xbe2cb2f4	-0.1686514
237	0x3e4585b4	0.19289285
238	0x3dff4b42	0.12465526
239	0xbd8bedd7	-0.06832474
240	0x3ebb8075	0.36621442
241	0x3d078c9c	0.03309308
242	0x3d77056a	0.060307898
243	0xbe6174bc	-0.22017187
244	0xbc981488	-0.018564478
245	0x3e44da9e	0.19224021
246	0x3dfe7222	0.12424113
247	0xbe1c88cb	-0.15286557
248	0x3d65565b	0.055990558
249	0xbd509ac4	-0.050928846
250	0x3d309083	0.043106567
251	0x3d675157	0.056474056
252	0x3ec45ed6	0.38353604
253	0xbe04f6fb	-0.1298484
254	0x3ef55a58	0.4792049
255	0xbd5b64af	-0.053562816

linears.1.bias f4 [50]
0	0x3e49fba4	0.197249
1	0xbc27e4f2	-0.010247456
2	0xbcd04a6c	-0.025426112
3	0xbd1eb64b	-0.038748067
4	0xbdf10376	-0.11768238
5	0xbdbf2cec	-0.0933474
6	0xbe4f00ec	-0.20215195
7	0xbd1c9f75	-0.038238008
8	0x3ba35853	0.0049848943
9	0x3d491e37	0.04910108
10	0x3d9e044d	0.07715664
11	0xbd0ed5ed	-0.034871984
12	0x3e4257db	0.18978827
13	0x3d5c1f83	0.05374099
14	0x3c8b2add	0.016988212
15	0x3de46968	0.11152917
16	0x3e6d120d	0.23151417
17	0x3dde7dbd	0.108638264
18	0x3b125359	0.002232751
19	0x3d239e22	0.03994573
20	0xbcaebdbf	-0.021330712
21	0x3da4b3ad	0.08042083
22	0xbdb54861	-0.08851696
23	0xbd2a05a5	-0.04150929
24	0x3daee27d	0.08539293
25	0x3a92c449	0.0011197414
26	0xbc89d14d	-0.016823435
27	0x3e829e90	0.255116
28	0xbca897b5	-0.020580152
29	0xbeaa45af	-0.3325629
30	0x3b8711af	0.004121981
31	0xbe8fc63b	-0.28080925
32	0x3bb0717d	0.0053846226
33	0xbd40fc53	-0.047115635
34	0xbce49a12	-0.027905498
35	0x3d85d4cf	0.06534731
36	0xbcc4d561	-0.024027528
37	0x3cfebb1f	0.031095086
38	0xbe227950	-0.1586659
39	0xbe049024	-0.1294561
40	0x3d1de6c6	0.03855016
41	0xbc20bd45	-0.00981075
42	0x3d7b0278	0.06128165
43	0x3dfb8c83	0.1228266
44	0xbb27fa55	-0.0025631387
45	0xbc208b53	-0.0097988425
46	0x3be20205	0.0068972134
47	0x3cee68ae	0.02910265
48	0x3df3e7eb	0.11909469
49	0xbde7c9ae	-0.11317764

linears.2.weight f4 [50, 50]
0	0x3db16e5d	0.08663628
1	0x3df03a0c	0.117298216
2	0x3d3d3f2b	0.04620282
3	0x3e577697	0.21041332
4	0xbed81b94	-0.4220854
5	0xbcb0ca37	-0.021580799
6	0xbd9bf47b	-0.0761499
7	0xbde4ef91	-0.11178506
8	0xbe69ab0f	-0.2281916
9	0xbdb50570	-0.08838928
10	0xbdb1c291	-0.08679689
11	0x3dc7b41e	0.097511515
12	0x3d84cc8b	0.06484326
13	0x3ea55f67	0.3229935
14	0x3dacdba2	0.08440329
15	0x3e76b276	0.24091515
16	0xbe36c88e	-0.17849943
17	0x3e7cabb4	0.24674875
18	0xbccdbce4	-0.025114484
19	0x3e4305cb	0.19045179
20	0xbe1ca1e4	-0.15296131
21	0x3dc5992c	0.09648356
22	0x3cb1d9c5	0.021710286
23	0xbd1b5d0e	-0.03793054
24	0xbd674d05	-0.056469936
25	0xbe0c243c	-0.13685697
26	0x3c79c27d	0.0152441235
27	0xbd3da51c	-0.04630004
28	0x3e08673f	0.13320635
29	0x3c843267	0.016137315
30	0xbe333588	-0.1750089
31	0xbe8e0b28	-0.27742887
32	0xbc515803	-0.012777331
33	0xbd12556e	-0.035726003
34	0x3e140874	0.1445635
35	0x3e4d38ed	0.20041247
36	0xbd61e7b8	-0.055152625
37	0x3d584ae5	0.0528058
38	0xbe751f7f	-0.23937796
39	0x3e42ec7e	0.19035527
40	0xbda6cb87	-0.081442885
41	0x3dfb61db	0.12274524
42	0x3e50dd3e	0.20396897
43	0x3dede1cd	0.11615334
44	0x3c3836e9	0.01124356
45	0x3e037e14	0.12841064
46	0xbe846a7b	-0.25862488
47	0x3ce03eef	0.02737376
48	0x3d548277	0.051882233
49	0xbf0c2386	-0.54741704
50	0xbd8781d9	-0.06616563
51	0xbe1effcd	-0.15527268
52	0xbd816735	-0.06318513
53	0xbe384f1b	-0.17998926
54	0xbe28d9d3	-0.16489343
55	0xbe6cb3c4	-0.2311545
56	0xbe4fc8bf	-0.20291422
57	0x3c9e51d4	0.019326128
58	0x3e3574e6	0.17720374
59	0xbd40c0c0	-0.04705882
60	0xbe8d6283	-0.2761422
61	0x3f0639fc	0.5243223
62	0x3ec7779d	0.38958445
63	0x3db9cc62	0.09072186
64	0x3ea03bac	0.31295526
65	0xbe6621dd	-0.22473855
66	0xbe802b6f	-0.25033137
67	0x3e78308d	0.2423727
68	0x3e009e5a	0.12560406
69	0xbcd825aa	-0.026385147
70	0xbda0c074	-0.078492075
71	0xbe1fc5d3	-0.15602808
72	0xbd368c27	-0.044567253
73	0xbe110fc0	-0.14166164
74	0xbea8e094	-0.3298384
75	0x38bcceb7	9.003042e-05
76	0xbb82f6cd	-0.003996706
77	0xbd778c50	-0.060436547
78	0xbdd316e5	-0.10307101
79	0xbd076da0	-0.03306353
80	0xbe2f1ed7	-0.17101608
81	0xbe995143	-0.2994481
82	0xbd412152	-0.047150917
83	0x3da500f1	0.0805682
84	0x3e8f1c9e	0.2795152
85	0xbe2b377b	-0.16720383
86	0x3e3979a8	0.18112814
87	0x3d220469	0.039554987
88	0xbed7f309	-0.4217761
89	0x3ec119f3	0.3771511
90	0xbdd965a3	-0.10615089
91	0xbe41f812	-0.18942288
92	0x3dfbd6fb	0.12296864
93	0x3cd87bb2	0.02642617
94	0xbe5dd24e	-0.21662256
95	0x3d020c6a	0.03175012
96	0x3c092c4d	0.008372379
97	0xbe055249	-0.1301967
98	0x3e529465	0.2056442
99	0x3e776890	0.24160981
100	0x3d4d929f	0.050188657
101	0x3ec23cc3	0.37936983
102	0x3ea9782f	0.33099505
103	0xbdfd83ae	-0.123786315
104	0xbdb12013	-0.08648696
105	0x3aa2f7cd	0.001243347
106	0x3e5edc36	0.21763691
107	0x3dd401bf	0.103518955
108	0x3e915dfe	0.28392023
109	0x3e043dd4	0.1291421
110	0xbd1ef360	-0.03880632
111	0xbbc09d4e	-0.005878127
112	0x3dab8d01	0.08376504
113	0xbe490e07	-0.19634257
114	0x3ef033e0	0.46914577
115	0x3e445cb6	0.19175991
116	0x3e086c2b	0.13322513
117	0x3c9d251c	0.019182734
118	0x3d8a1647	0.0674253
119	0xbe788fe9	-0.24273647
120	0x3da08fa0	0.07839894
121	0xbc994673	-0.01871035
122	0x3d722b3b	0.05912326
123	0x3e598552	0.21242264
124	0x3dfff76e	0.12498365
125	0xbeb71ea4	-0.35765564
126	0x3d364be5	0.044505972
127	0x3e0d9e35	0.13829882
128	0x3dec3042	0.11532642
129	0xbe5b9604	-0.21443945
130	0xbe0bdf96	-0.1365951
131	0x3cdf034d	0.027223254
132	0x3cee4468	0.029085353
133	0xbea4b0c2	-0.32166106
134	0x3d020c4c	0.03175001
135	0x3e073bd4	0.13206416
136	0x3e503dd7	0.2033609
137	0xbd9f7a4b	-0.077869974
138	0x3dacdb05	0.08440212
139	0xbce87ad3	-0.02837888
140	0x3dfd3149	0.12362916
141	0x3e19e92d	0.15030356
142	0x3c1fb594	0.009747881
143	0x3df618bd	0.12016437
144	0xbe4a7566	-0.19771346
145	0xbddaf9af	-0.106921546
146	0x3d92134b	0.07132586
147	0x3ebe21ea	0.3713525
148	0x3c9a0197	0.018799586
149	0x3e6da645	0.23207958
150	0xbe2afac8	-0.16697228
151	0x3ddbace6	0.10726337
152	0x3e9088bc	0.2822932
153	0xbda0ea3c	-0.07857177
154	0x3d5b2fee	0.053512506
155	0x3d6fd76a	0.058555044
156	0x3de0b414	0.10971847
157	0x3eaad6eb	0.33367094
158	0xbe89475a	-0.2681225
159	0xbe35d5e4	-0.17757374
160	0xbdff9a51	-0.124806054
161	0x3e0f392f	0.13986658
162	0x3d2a7f4f	0.041625317
163	0x3dc1ed30	0.09469068
164	0x3ef83b23	0.48482618
165	0xbd4f382e	-0.050590687
166	0xbe6d1d7a	-0.23155776
167	0xbe12df7f	-0.1434307
168	0x3d9c956b	0.07645687
169	0x3cf284ae	0.029604282
170	0xbdd3453e	-0.10315941
171	0xbe331398	-0.17487943
172	0xbd44614b	-0.04794435
173	0xbd8a4ebe	-0.067533
174	0x3eaccc0f	0.33749434
175	0xbe2e63ef	-0.17030309
176	0x3e88388a	0.26605636
177	0xbdd4e6be	-0.10395573
178	0x3e116a93	0.14200811
179	0x3e609e08	0.21935284
180	0xbe9a78a1	-0.30170158
181	0xbc7fe0f8	-0.015617602
182	0x3e374b17	0.17899738
183	0x3e958419	0.29202345
184	0x3da60d4b	0.08108004
185	0x3e0299c4	0.1275397
186	0x3e6a1403	0.22859196
187	0xbe683f0a	-0.22680297
188	0xbe4aca4d	-0.19803734
189	0x3e25df2f	0.16198419
190	0x3e59a7e3	0.2125545
191	0x3dc14f96	0.09439008
192	0x3cd73134	0.026268579
193	0x3de249cd	0.11049233
194	0xbe16f0a2	-0.14740232
195	0x3dc59e4a	0.09649332
196	0xbe6f10ab	-0.23346202
197	0x3e99b8a4	0.30023682
198	0x3e8171e8	0.25282216
199	0xbdf674ab	-0.120339714
200	0xbd45c4fb	-0.04828356
201	0xbc43b826	-0.01194576
202	0x3bab3d95	0.005225847
203	0xbda030df	-0.078218214
204	0xbcdc7ddf	-0.026915489
205	0x3d894d3b	0.06704184
206	0x3e219e0c	0.15782946
207	0xbd179946	-0.037011407
208	0xbe08f1f7	-0.13373552
209	0x3c3d6553	0.011559802
210	0x3e085829	0.1331488
211	0xbcd5242a	-0.02601822
212	0xb9d29191	-0.00040162777
213	0x3d6cf8cd	0.057854462
214	0xbcf2e31d	-0.029649312
215	0x3ddf6a3e	0.10908936
216	0x3de28785	0.110610045
217	0x3dc195c7	0.09452396
218	0xbde446c2	-0.111463085
219	0xbe4912c5	-0.19636066
220	0x3e582555	0.21107991
221	0xbe1a391a	-0.15060845
222	0x3e19a5d5	0.15004666
223	0xbd99db69	-0.07512552
224	0xbe0f0bbf	-0.13969325
225	0xbd97479c	-0.07386705
226	0x3c90b12b	0.017662605
227	0x3e424859	0.18972911
228	0x3b3d0fb0	0.0028848462
229	0xbda87fd1	-0.08227504
230	0xbde9b9a7	-0.114123635
231	0x3d7c2e29	0.06156746
232	0xbe27e54b	-0.16396062
233	0xbe2c0a2f	-0.1680076
234	0x3d92d889	0.07170207
235	0x3ddb3ea9	0.10705311
236	0x3dc956a1	0.09830976
237	0x3da687a9	0.08131344
238	0xbe48c0d9	-0.19604816
239	0xbe3dbd3d	-0.1852922
240	0xbdc4312c	-0.09579691
241	0xbe154210	-0.14575982
242	0x3e2c0f8d	0.16802807
243	0xbd8857e6	-0.0665739
244	0x3e889481	0.266758
245	0xbc3c5e58	-0.011497103
246	0x3e997d36	0.2997834
247	0xbe79aad2	-0.24381569
248	0xbdd6947d	-0.10477541
249	0x3cd4e57c	0.025988333
250	0xbd8ac80e	-0.06776439
251	0xbe35c32c	-0.17750233
252	0xbe0cf807	-0.1376649
253	0x3e509bf2	0.20371988
254	0xbe3e59f3	-0.18589
255	0xbb016aca	-0.001974749

linears.2.bias f4 [50]
0	0xbbebbdb0	-0.0071942434
1	0x3d94db76	0.07268421
2	0x38c69f73	9.4710755e-05
3	0xbc45c535	-0.012070944
4	0xbcf55da4	-0.029951878
5	0x3d48a347	0.04898384
6	0x3cd5acee	0.026083436
7	0xbb723f2c	-0.0036963923
8	0xbc4a069b	-0.012330676
9	0x3cb019e2	0.021496717
10	0xbda8364c	-0.08213481
11	0x3c947c04	0.018125542
12	0x3d2f882b	0.04285447
13	0x3daddba5	0.084891595
14	0xbd22512d	-0.039628197
15	0xbcb82492	-0.022478376
16	0xbd0e403e	-0.034729235
17	0x3d4ef725	0.050528664
18	0x3d90451b	0.07044431
19	0xbc555cfd	-0.013022658
20	0xbd3df657	-0.046377506
21	0xbd746d17	-0.05967435
22	0x3db5c655	0.088757195
23	0xbd8f7a2a	-0.07005723
24	0xbd69ad05	-0.05704977
25	0x3bce4855	0.0062952437
26	0xbd14e893	-0.036354613
27	0xbdec2964	-0.11531332
28	0x3ca624bd	0.02028119
29	0xbca7641f	-0.020433484
30	0x3cf48e28	0.029852942
31	0xbde250f6	-0.11050598
32	0x3d071ba8	0.03298536
33	0xbca16437	-0.019701106
34	0x3da373c4	0.07981065
35	0xbc50ab88	-0.012736209
36	0x3d20d68b	0.039267104
37	0xbbe00b90	-0.006837316
38	0xbd146fd5	-0.036239464
39	0x3cbbcae4	0.022923894
40	0xbaf6ce59	-0.0018829807
41	0xbdd02a17	-0.10164278
42	0xbd9a45bb	-0.07532831
43	0xbd951276	-0.07278912
44	0xbd925341	-0.07144786
45	0xbbdf2dc5	-0.006810876
46	0x3d4b1b7b	0.049586754
47	0xbc77fa00	-0.015135288
48	0x3d1c4c3f	0.03815865
49	0x3a54ecec	0.00081224623

linears.3.weight f4 [50, 50]
0	0xbd245fa9	-0.04013029
1	0xbe8fcb1d	-0.2808465
2	0x3dc507f7	0.0962066
3	0x3e885c0d	0.2663273
4	0xbe281008	-0.16412365
5	0xbbe8217f	-0.007084071
6	0xbeb4da6e	-0.353229
7	0x3d3d5cad	0.04623096
8	0x3df8f5af	0.121562354
9	0xbde83709	-0.11338622
10	0xbe012d03	-0.12614827
11	0x3dc5476c	0.09632763
12	0xbe858798	-0.26080012
13	0xbebf146f	-0.37320277
14	0xbd321c3b	-0.043483954
15	0x3e0e437d	0.13892932
16	0x3c8a7fc4	0.016906627
17	0xbec7de17	-0.3903663
18	0xbe844f5c	-0.25841796
19	0xbed6471e	-0.41851133
20	0x3e07a9a2	0.13248304
21	0xbe29ab4e	-0.16569254
22	0x3ec7cbb0	0.3902259
23	0xbe093c80	-0.13401985
24	0x3e744331	0.23853756
25	0xbec782f1	-0.38967088
26	0xbd03339f	-0.03203165
27	0x3e3aee0f	0.18254875
28	0xbc9b25ca	-0.018938918
29	0x3c9358be	0.017986652
30	0xbeaef6b2	-0.3417259
31	0xbe1aade0	-0.1510539
32	0xbd4dbd66	-0.050229453
33	0xbe1fd6e9	-0.15609325
34	0xbe87a5a1	-0.26493552
35	0x3dde7136	0.10861437
36	0xbe1d41a3	-0.1535707
37	0x3e204f15	0.15655167
38	0x3eacc80a	0.33746368
39	0x3d846d10	0.064661145
40	0xbc904c4d	-0.017614508
41	0x3de1dc50	0.110283494
42	0x3e266752	0.16250351
43	0xbdcb2564	-0.09919241
44	0x3e37391a	0.17892876
45	0x3e9c0ec0	0.30480003
46	0xbf338276	-0.7012094
47	0xbe0b237d	-0.13587756
48	0x3dcddd17	0.10051935
49	0x3d0cacb1	0.03434438
50	0xbd4375be	-0.04771971
51	0xbd98e4ea	-0.07465537
52	0x3dadb427	0.08481627
53	0xbe4db29b	-0.20087664
54	0xbdb6d0df	-0.08926558
55	0xbe604b17	-0.21903645
56	0x3e82cba3	0.25545987
57	0xbe18c62c	-0.14919347
58	0x3d605f26	0.05477824
59	0x3e1043c3	0.14088349
60	0xbe4bd2d6	-0.19904646
61	0xbe513d89	-0.2043363
62	0xbeb49421	-0.35269263
63	0x3d9fe705	0.07807735
64	0xbec2d6a0	-0.3805437
65	0xbe378d64	-0.1792503
66	0xbe26f153	-0.16302995
67	0xbe55897e	-0.2085323
68	0x3c941a8d	0.018079067
69	0xbe75d66c	-0.24007577
70	0xbd87c2da	-0.06628962
71	0xbc8f44ad	-0.017488802
72	0x3e3d2a82	0.18473247
73	0xbcfb64eb	-0.03068777
74	0x3cc73d82	0.024321321
75	0x3cb64838	0.022251233
76	0x3e4441ef	0.19165777
77	0xbd8b3040	-0.06796312
78	0xbe0d7273	-0.1381319
79	0xbe6c6496	-0.23085245
80	0xbe127dfd	-0.14305873
81	0xbd2c11ed	-0.042009283
82	0x3d022895	0.031776983
83	0x3dc01567	0.09379082
84	0xbe73ac79	-0.23796262
85	0x3d71f020	0.05906689
86	0x3ccc8fc5	0.024970898
87	0x3dd246cd	0.102674104
88	0x3c068923	0.008211407
89	0x3e68d9a0	0.22739267
90	0xbe955037	-0.29162762
91	0xbda41ebe	-0.08013676
92	0x3e5dc424	0.21656853
93	0x3e49515b	0.19659941
94	0x3d4ef445	0.050525922
95	0xbc5ed74d	-0.013601136
96	0x3e927461	0.28604415
97	0xbb87f35e	-0.0041488847
98	0xbdc1fb38	-0.09471744
99	0xbe13452a	-0.14381853
100	0x3e306630	0.17226481
101	0xbdc8fa75	-0.09813396
102	0x3e8ce09d	0.27515116
103	0x3e4abe1e	0.19799086
104	0x3dcfef70	0.10153091
105	0x3c357a53	0.011076528
106	0xbb40a5d2	-0.0029395712
107	0xbe1f3583	-0.15547757
108	0x3ea27143	0.31727037
109	0xbd683549	-0.05669144
110	0xbd8743e8	-0.06604749
111	0xbe4a4778	-0.19753826
112	0xbe0b9dd3	-0.13634424
113	0xbe44e945	-0.1922961
114	0x3e12d85c	0.14340347
115	0x3b2908f3	0.0025792688
116	0xbd82eb22	-0.06392504
117	0xbd777e20	-0.060423017
118	0xbdc8d0a1	-0.09805418
119	0xbe683c04	-0.22679144
120	0xbe67efc9	-0.22650065
121	0xbd5c6709	-0.0538092
122	0x3e1af101	0.15130998
123	0x3cec96b6	0.028880458
124	0x3eb7c8c6	0.35895365
125	0xbdb56c90	-0.08858597
126	0x3e3c61d8	0.183967
127	0x3d879aa2	0.06621291
128	0xbdb49325	-0.08817128
129	0xbec8bae9	-0.392051
130	0xbe956555	-0.29178873
131	0x3db1164c	0.08646831
132	0x3d09e46c	0.033665106
133	0x3de759df	0.112964384
134	0xbd4857d6	-0.048911892
135	0x3e8def39	0.27721575
136	0x3d9fccf2	0.07802762
137	0xbd8869dd	-0.06660817
138	0x3e61d191	0.220526
139	0xbd152b4d	-0.036418248
140	0x3e2b5404	0.16731268
141	0xbda93e11	-0.08263791
142	0x3e8a4331	0.27004388
143	0xbe8bb569	-0.27286842
144	0x3e004aab	0.12528484
145	0xbd696b89	-0.05698732
146	0xbf1d8755	-0.61534625
147	0xbdb0c0c8	-0.0863052
148	0x3e1d0813	0.15335111
149	0xbea3060d	-0.31840554
150	0xbe8c424c	-0.2739433
151	0x3e5cda97	0.2156776
152	0x3e1ae371	0.15125825
153	0xbd97c44e	-0.07410489
154	0xbd6a071f	-0.057135697
155	0x3e13a6e2	0.1441913
156	0x3dedc12c	0.1160911
157	0xbd6de810	-0.05808264
158	0x3e41459e	0.18874213
159	0x3db0db84	0.08635619
160	0xbeb7848f	-0.35843322
161	0xbd949e62	-0.072567716
162	0x3ef0e6de	0.47051138
163	0xbe0417b1	-0.12899663
164	0x3e52e9de	0.20597026
165	0xbdd6ea64	-0.10493925
166	0x3de0a0f3	0.109681986
167	0x3ea57630	0.32316732
168	0x3dfafeb4	0.12255612
169	0x3e964fc6	0.29357737
170	0x3ddd32fa	0.10800739
171	0xbe02d046	-0.12774763
172	0xbea5e3df	-0.32400414
173	0xbd88cefe	-0.066801056
174	0xbe16eaf0	-0.14738059
175	0xbd92066b	-0.071301304
176	0x3d3f891d	0.04676162
177	0x3e83d9b5	0.25752035
178	0x3e2d50a9	0.169253
179	0xbd58204b	-0.052765172
180	0x3e52b278	0.20575893
181	0xbe981052	-0.2969995
182	0xbe61c80a	-0.22048965
183	0xbe262603	-0.16225438
184	0x3e87511e	0.26429075
185	0xbdf2b300	-0.11850548
186	0xbdb9d760	-0.09074283
187	0xbd885fec	-0.06658921
188	0xbe399cf7	-0.18126284
189	0x3e53a8ba	0.20669833
190	0xbda583af	-0.08081757
191	0x3d8f7d5e	0.07006334
192	0xbde6df2d	-0.11273036
193	0x3dfd8755	0.12379328
194	0xbdb5702f	-0.08859288
195	0x3e67bbbb	0.22630207
196	0x3dcd0aec	0.10011849
197	0x3ad6d299	0.0016389667
198	0x3cd041b3	0.025421953
199	0x3c3cfbad	0.011534614
200	0x3d18743a	0.037220217
201	0xbd559f8c	-0.05215411
202	0x3e8881bc	0.2666148
203	0x3e15c4c5	0.14625843
204	0xbe181c6b	-0.1485459
205	0xbe97491f	-0.29547974
206	0x3d868b63	0.06569555
207	0xbe29bd2c	-0.1657607
208	0xbeedf79e	-0.4647798
209	0x3e03e2ed	0.12879534
210	0xbed16856	-0.40899915
211	0x3e58cde3	0.2117229
212	0x3db998a7	0.09062319
213	0x3e1febf7	0.15617357
214	0xbdb0d7a7	-0.086348824
215	0xbe471009	-0.1943971
216	0xbe60af6d	-0.2194192
217	0xbcd2c21b	-0.025727322
218	0x3dfa6c47	0.122276835
219	0xbd9fe439	-0.07807202
220	0x3bb74bf0	0.0055937693
221	0x3e737755	0.2377599
222	0x3e549e6f	0.20763563
223	0x3e0adacd	0.13560028
224	0xbe0306c4	-0.1279555
225	0xbcd780f6	-0.02630661
226	0x3dd7e848	0.10542351
227	0x3d8bc87e	0.0682535
228	0xbe9ccdd4	-0.30625784
229	0xbe08051b	-0.13283198
230	0xbd06ea8c	-0.032938525
231	0x3dc4616a	0.09588893
232	0xbe9b2134	-0.3029877
233	0xbe6b90e2	-0.23004487
234	0x3dbe62fb	0.09296223
235	0x3e288ab3	0.1645916
236	0xbcf46e07	-0.029837621
237	0x3e075507	0.13216029
238	0x3d98ee7a	0.07467361
239	0x3ed57876	0.41693467
240	0x3daa9bf2	0.083305255
241	0x3ee0bf61	0.4389601
242	0xbe2d38f7	-0.16916262
243	0xbeb65e04	-0.35618603
244	0xbeb44dd9	-0.35215643
245	0x3d010e75	0.031507928
246	0x3dbb2e2f	0.09139668
247	0x3e41fd17	0.18944202
248	0x3d945816	0.072433636
249	0x3e57ca10	0.21073174
250	0x3d8411fb	0.06448742
251	0xbe0986cb	-0.13430326
252	0x3eb87bf7	0.36032078
253	0xbd7a0edc	-0.061049327
254	0x3c32f60d	0.010922921
255	0xbc305618	-0.010762714

linears.3.bias f4 [50]
0	0xbdd8b43a	-0.105812505
1	0x3c52628e	0.01284088
2	0xbd25677f	-0.040381905
3	0x3ce7f540	0.028315187
4	0x3b999f8a	0.004688208
5	0xbada6dcb	-0.0016664801
6	0x3d09c401	0.03363419
7	0x3e4d6bb6	0.2006062
8	0xbadcc639	-0.0016843743
9	0x38a2edf1	7.769082e-05
10	0x3e0c23e6	0.13685569
11	0x399678ca	0.00028700224
12	0xbd846d61	-0.06466175
13	0xbd8a8616	-0.06763856
14	0x3cd9de2c	0.026595198
15	0xba0518ac	-0.0005077224
16	0x3ceda90d	0.029011274
17	0x3d0ce223	0.03439535
18	0xbcb4bf26	-0.022063803
19	0x3d8aabcd	0.0677105
20	0x3d5b044c	0.053470895
21	0x3a93e6c5	0.0011283985
22	0x3dc46432	0.09589423
23	0xbc9dffdc	-0.019287042
24	0xbd0e426f	-0.034731325
25	0xbd0babd1	-0.034099404
26	0x3d1b429a	0.037905313
27	0x3b0df903	0.0021663315
28	0xbdf3e4b9	-0.1190886
29	0x3cc25eee	0.023726907
30	0x3d6796b7	0.056540217
31	0xbcc10ae3	-0.023564762
32	0xbd3f1c43	-0.04665781
33	0xbe546f33	-0.20745544
34	0x3d07b148	0.033128053
35	0x3caf9e2b	0.021437725
36	0xbdda8e2b	-0.10671648
37	0xbd6f5070	-0.05842632
38	0xbd8cc616	-0.068737194
39	0xbd73264b	-0.05936269
40	0xbdce45ef	-0.100719325
41	0xbc22fff5	-0.00994872
42	0x3c9d67c4	0.019214518
43	0x3d03eed1	0.032210175
44	0x3d54264e	0.051794343
45	0x3cad4384	0.021150358
46	0x3c8f8791	0.017520698
47	0xbd691ec1	-0.056914095
48	0x3cf2369a	0.029567052
49	0xbd39dfb1	-0.045379344

linears.4.weight f4 [3, 50]
0	0xbf0dba46	-0.55362356
1	0xbdd7531b	-0.10513898
2	0xbee0e340	-0.43923378
3	0x3eafce51	0.34337094
4	0x3de6865b	0.11256095
5	0x3eda446b	0.42630324
6	0xbe878402	-0.264679
7	0x3e032b5c	0.12809509
8	0xbea1df94	-0.3161589
9	0x3e8f6e87	0.28014013
10	0x3e343b74	0.17600805
11	0x3e6ad13f	0.22931384
12	0xbd9b1992	-0.075732365
13	0xbe985a30	-0.29756308
14	0xbf00b8d6	-0.5028204
15	0x3f426283	0.75931567
16	0x3de34c40	0.11098528
17	0x3e68517d	0.22687335
18	0xbe9416b8	-0.28923583
19	0x3e8084e9	0.25101402
20	0x3f0ab271	0.5417853
21	0x3ef34230	0.47511435
22	0x3dcb0fb5	0.09915105
23	0x3f48b445	0.7840007
24	0xbf135c92	-0.57563126
25	0xbeb2bad5	-0.34908167
26	0x3e00b6bb	0.12569706
27	0xbe0f75e8	-0.14009821
28	0x3ea9b647	0.3314688
29	0x3f2733a8	0.65313196
30	0x3f10789b	0.5643403
31	0x3ec880e1	0.39160827
32	0xbecb2ff3	-0.3968502
33	0x3e448afd	0.19193645
34	0x3eb14fe7	0.34631273
35	0x3e95de62	0.29271227
36	0xbf14f353	-0.58183783
37	0xbe812d2a	-0.2522977
38	0xbea99c60	-0.33127117
39	0x3de9166a	0.11381228
40	0xbebb9888	-0.3663981
41	0xbe97d61e	-0.29655546
42	0x3ebddeab	0.37083945
43	0x3f2b13ba	0.66826975
44	0x3f644c0d	0.89178544
45	0x3ef1fadf	0.47261712
46	0x3eb673a2	0.35635096
47	0xbd8aa59e	-0.0676987
48	0x3e896adc	0.2683934
49	0x3ebbaea4	0.36656678
50	0x3ca905f3	0.02063272
51	0x3ef81804	0.48455822
52	0x3da8a62e	0.08234821
53	0x3efce864	0.4939605
54	0x3ed21060	0.41028118
55	0x3e3a287c	0.18179506
56	0xbde5f50b	-0.11228379
57	0x3afda8f6	0.0019352722
58	0xbd4ca90c	-0.049965903
59	0xbdee7755	-0.116438545
60	0xbe1cc230	-0.15308452
61	0xbd9d0fda	-0.07669039
62	0xbe6a680a	-0.2289125
63	0x3e87fd79	0.26560572
64	0xbe991620	-0.29899693
65	0x3d8e2946	0.06941466
66	0x3ebd8413	0.37014827
67	0xbe926020	-0.28588963
68	0x3e433c32	0.19065931
69	0xbe5d288b	-0.21597497
70	0xbecee7c5	-0.404112
71	0xbe2ac711	-0.166775
72	0x3d735006	0.05940249
73	0xbd5b1082	-0.05348254
74	0xbdbe3279	-0.09286971
75	0xbe95d455	-0.2926356
76	0x3e2484e0	0.16066313
77	0xbe843a78	-0.25825858
78	0x3f20f30f	0.6287088
79	0x3d858d0d	0.06521044
80	0xbef491cb	-0.4776748
81	0x3e1708e8	0.14749491
82	0xbe623357	-0.22089897
83	0x3d44bf8b	0.048034232
84	0xbda33c6f	-0.07970511
85	0x3d650a79	0.05591819
86	0x3de95764	0.113936216
87	0x3e5f7eb2	0.21825674
88	0x3e8f231d	0.27956477
89	0x3e503a5a	0.2033476
90	0xbece6ff1	-0.4031978
91	0xbe331f7d	-0.1749248
92	0x3dcc1933	0.09965744
93	0x3de5d5cd	0.1122242
94	0xbe73a9bf	-0.23795222
95	0xbe533425	-0.2062536
96	0x3e8801c7	0.26563856
97	0x3e2ec85f	0.17068623
98	0xbb889341	-0.0041679447
99	0xbd726312	-0.059176512
100	0x3e364a57	0.17801796
101	0xbe3b424c	-0.18287009
102	0x3f0fb55e	0.5613612
103	0x3ece6a2d	0.4031538
104	0x3e0f6bd2	0.14005974
105	0xbf05a248	-0.52200747
106	0xbebc0af4	-0.36727107
107	0xbf45890a	-0.7716223
108	0xbd4eaff6	-0.05046078
109	0xbdc2d256	-0.09512775
110	0xbf60f5f5	-0.878753
111	0x3ea20c96	0.31650227
112	0x3f7de3ac	0.99175525
113	0x3f332687	0.69980663
114	0xbe65da64	-0.2244659
115	0x3d9cdb36	0.07658999
116	0xbe80da9f	-0.25166795
117	0xbe151d79	-0.14562024
118	0x3edb731a	0.42861253
119	0xbdc87f9e	-0.09789966
120	0x3e46dd8e	0.19420454
121	0x3e3583aa	0.17726007
122	0xbee488a1	-0.4463549
123	0x3e34480a	0.17605606
124	0x3f1e4774	0.6182778
125	0x3e7b2446	0.24525556
126	0x3ec08af7	0.37606022
127	0xbf299e14	-0.66256833
128	0x3e6a2385	0.22865112
129	0xbde73dc5	-0.112910785
130	0xbde26899	-0.11055107
131	0x3e30d109	0.1726724
132	0xbe4d7069	-0.20062412
133	0x3ef39d6a	0.47581035
134	0xbdec75ec	-0.11545929
135	0x3e0c3bc3	0.13694672
136	0x3dc5318c	0.09628591
137	0x3c2e5439	0.010640197
138	0xbdbfd559	-0.09366865
139	0x3ce659cc	0.02811899
140	0x3f38e06c	0.7221744
141	0xbd47dfc7	-0.048797395
142	0x3e996dbe	0.2996654
143	0x3e494188	0.19653904
144	0x3f24b776	0.6434244
145	0x3e83e44a	0.25760108
146	0xbdfde9d3	-0.12398114
147	0x3c882082	0.016617063
148	0x3e4d7e3f	0.2006769
149	0x3e4f73b6	0.20258984

linears.4.bias f4 [3]
0	0x3cb51e6d	0.022109235
1	0xbcefe11a	-0.029282141
2	0xbef7dcf8	-0.48410773

exp_avg f4 [50, 2]
0	0xbaf03c92	-0.0018328598
1	0x3a2a2cbc	0.00064916513
2	0xbb4528b8	-0.0030084085
3	0x3b001dad	0.0019548938
4	0x3aa53c76	0.001260652
5	0x3a3f52a0	0.0007298384
6	0xbabc63a5	-0.0014372958
7	0x3aad4f5f	0.0013222507
8	0xb9cd13c0	-0.00039115362
9	0x3897159e	7.2042676e-05
10	0x38c48a92	9.371819e-05
11	0xba276b59	-0.00063865405
12	0xbb5b6787	-0.0033478455
13	0x3ae23277	0.0017257471
14	0xb9d6c774	-0.00040965865
15	0x3a668171	0.0008793092
16	0x3b5eadd5	0.0033978124
17	0xba9f9d58	-0.0012177629
18	0xba9acf23	-0.0011810999
19	0x3a55fa98	0.00081626466
20	0xbaacbd10	-0.0013178904
21	0x3a7742fc	0.00094322837
22	0x39c1dbdc	0.00036975637
23	0xba99e3aa	-0.0011740823
24	0xbb7cc9d3	-0.0038572445
25	0x3b374a32	0.0027967808
26	0xba66f2df	-0.00088099943
27	0x3a903eec	0.001100508
28	0x3bcaacae	0.006185136
29	0xbb7f5773	-0.0038962036
30	0xba8ab686	-0.0010582961
31	0xb9957444	-0.0002850612
32	0xbb013ebd	-0.0019721233
33	0x3aa7b205	0.0012794143
34	0x3aa5ef7e	0.0012659875
35	0xba8cf0e4	-0.0010752943
36	0x3b8c98f7	0.004290696
37	0xbaf10625	-0.0018388672
38	0xb95b8f23	-0.0002093879
39	0x39a5702c	0.00031554827
40	0x3c05b8bc	0.00816172
41	0xbb0e832c	-0.0021745665
42	0xba493cd1	-0.0007676604
43	0x3b060cde	0.0020454447
44	0xba03b7c9	-0.00050246395
45	0x392dced0	0.0001657561
46	0xbb210012	-0.0024566692
47	0x3a80906e	0.0009808668
48	0xbb237149	-0.002493935
49	0x3a5d3fe3	0.0008440001
50	0x3acc231c	0.0015574428
51	0xba17965f	-0.00057826
52	0xbb3c898c	-0.0028768508
53	0x399e91a5	0.00030244622
54	0xbb59de85	-0.0033244204
55	0x3b0d4761	0.0021557438
56	0xb9493589	-0.00019188797
57	0xbae623ca	-0.0017558273
58	0x3b7570f0	0.003745135
59	0xbb2924d2	-0.00258093
60	0x39923327	0.00027885402
61	0xb95afd4f	-0.00020884465
62	0x3b13e4d6	0.0022566817
63	0xba6606f4	-0.000877484
64	0x38e4bd73	0.00010907175
65	0xb9c2c278	-0.00037147454
66	0x3977151d	0.00023563621
67	0xba041570	-0.0005038595
68	0x3b20ca0a	0.0024534487
69	0xbaed8cd6	-0.0018123637
70	0x3b2a8eb3	0.0026024997
71	0xb9658597	-0.00021888908
72	0xbaaa61c0	-0.0012999102
73	0xb97e81f3	-0.00024271737
74	0x39a8d8ef	0.00032205085
75	0x390f2806	0.00013652453
76	0xbb49ee1d	-0.0030812093
77	0x3ac65ed4	0.0015134462
78	0x3963b47a	0.0002171564
79	0x3a1c6fa8	0.0005967566
80	0xba8fe921	-0.0010979512
81	0x3aa97cf7	0.0012930919
82	0x3ad41c9d	0.0016182844
83	0xba6586bf	-0.00087557355
84	0xba3556fe	-0.0006917565
85	0x3ac111a2	0.0014729986
86	0x3a8494d9	0.0010115161
87	0xb9bb6b21	-0.00035747237
88	0xbb8352e2	-0.004007683
89	0x3b0ead19	0.0021770655
90	0x39a99053	0.00032341722
91	0x3a1a2ee8	0.00058816234
92	0x3b80498c	0.0039150175
93	0xbb0c954b	-0.002145129
94	0x3abc358e	0.0014359222
95	0xbb19c273	-0.0023461848
96	0xbac1c009	-0.0014781962
97	0x3a96f912	0.001151832
98	0xbb7f39a2	-0.0038944264
99	0x3ae90a39	0.0017779536

exp_avg_sq f4 [50, 2]
0	0x3b8399dd	0.0040161447
1	0x3ad5e201	0.0016317965
2	0x3bf389ce	0.007432199
3	0x3ba977eb	0.005171766
4	0x3ba6124e	0.0050681
5	0x3ab03786	0.0013444282
6	0x3af337c4	0.0018556048
7	0x3b587d39	0.0033033623
8	0x3b3d4b39	0.0028883948
9	0x3af46ae3	0.0018647577
10	0x3b47c92e	0.0030484903
11	0x3a0ec49b	0.00054461666
12	0x3bf055fc	0.007334469
13	0x3bdd6459	0.006756347
14	0x3b7d51f0	0.0038653575
15	0x3ae98585	0.0017816281
16	0x3bc14c3e	0.0058989814
17	0x3bb5ec56	0.005551855
18	0x3b05eaf1	0.0020434225
19	0x3a862fd7	0.0010237646
20	0x3b075dc4	0.0020655254
21	0x3b685ed6	0.0035456917
22	0x3a9ac586	0.0011808134
23	0x3aa54693	0.0012609534
24	0x3c3fde3f	0.011710702
25	0x3c71b322	0.014752181
26	0x3a5aa890	0.0008341158
27	0x3ae3af18	0.0017370908
28	0x3c8379ea	0.016049344
29	0x3cff38fc	0.031155102
30	0x3aa645bc	0.0012685577
31	0x39aa0320	0.00032427255
32	0x3b9d277e	0.0047959676
33	0x3b31d274	0.0027133496
34	0x3ab22909	0.0013592552
35	0x3b0c69e7	0.0021425427
36	0x3c1a5902	0.009420635
37	0x3bd78fef	0.0065784375
38	0x3ae3a39b	0.0017367484
39	0x3a14b8ff	0.00056733185
40	0x3d1ca8c0	0.03824687
41	0x3cc1c859	0.023655104
42	0x3b82ea1d	0.0039951936
43	0x3bba97be	0.0056943586
44	0x3b340cc4	0.002747343
45	0x395e70cd	0.00021213591
46	0x3bbf41cc	0.005836701
47	0x3b8e9de9	0.0043523205
48	0x3bdbb9e9	0.006705512
49	0x3b81b663	0.00395851
50	0x3a0a7aee	0.00052826
51	0x380e2a6a	3.389494e-05
52	0x3c25452b	0.010087292
53	0x3adce0b8	0.0016851639
54	0x3b8f911f	0.0043813135
55	0x3bdb6a6f	0.0066960375
56	0x3b057a4b	0.0020367082
57	0x3b46bc07	0.0030324475
58	0x3c587538	0.013211541
59	0x3c60a72b	0.013711731
60	0x3b2fa888	0.0026803333
61	0x3b2d4f8e	0.0026445123
62	0x3b322045	0.0027179879
63	0x3b476fcb	0.0030431624
64	0x39858918	0.0002546988
65	0x37f2be24	2.893719e-05
66	0x3a831728	0.0010001408
67	0x3999341d	0.00029221262
68	0x3b992412	0.0046734894
69	0x3bc532ff	0.006018042
70	0x3c1bebe0	0.009516686
71	0x3ade0464	0.0016938564
72	0x3a25770c	0.000631199
73	0x39e920c9	0.0004446565
74	0x390fa41c	0.00013698678
75	0x38187e96	3.6357516e-05
76	0x3bfaf0d9	0.007658106
77	0x3bd2eb8d	0.0064367712
78	0x3a534861	0.00080597965
79	0x3a067040	0.0005128421
80	0x3b9ad0e4	0.0047246087
81	0x3b9c8181	0.0047761803
82	0x3b86c9c0	0.004113406
83	0x3b5f1394	0.003403877
84	0x3af075d7	0.0018345666
85	0x3b1b1a2e	0.0023666727
86	0x3abe973b	0.001454092
87	0x3b0c40fb	0.0021401036
88	0x3c272067	0.010200596
89	0x3c1c979c	0.009557631
90	0x3a2efadf	0.0006674956
91	0x399099f2	0.00027580519
92	0x3bf9be85	0.0076215887
93	0x3c18ee3e	0.009334145
94	0x3b92739e	0.004469349
95	0x3be13c68	0.006873656
96	0x3b380076	0.0028076447
97	0x3b7758bf	0.0037742106
98	0x3be751a6	0.007059294
99	0x3bcffb06	0.006347063

exp_avg f4 [50]
0	0x3ad24692	0.001604276
1	0x3b6552c5	0.0034991961
2	0x3aad04b4	0.0013200254
3	0x3b1e5930	0.0024162047
4	0x3aee24bf	0.001816891
5	0xbab6a4ca	-0.0013934609
6	0x3b8c73ab	0.0042862496
7	0x3b0f3fe9	0.0021858162
8	0xbb8580ee	-0.0040742075
9	0x3b2d7ee0	0.0026473328
10	0x3b0e7670	0.0021738075
11	0xba8f5781	-0.0010936112
12	0x3bb2421a	0.005440009
13	0x390ccd4d	0.00013427921
14	0xbbe52ce7	-0.006993878
15	0x379379dc	1.758051e-05
16	0x3b3d9e8d	0.0028933615
17	0xb9ddb1f8	-0.00042285002
18	0xbb62cc25	-0.0034606543
19	0xb9ce672d	-0.00039368254
20	0xbbe97d24	-0.0071255136
21	0x3b1cc58a	0.0023921453
22	0xba5ebc9c	-0.0008496733
23	0x3b4b210b	0.0030995037
24	0x3b41d547	0.0029576586
25	0xba4d22be	-0.00078253064
26	0x3aea978e	0.001789795
27	0x3b5068d5	0.0031800766
28	0xba1f6479	-0.000608034
29	0xbb98f6e2	-0.0046681026
30	0xb8ffecc5	-0.00012203449
31	0xbb47a637	-0.0030464062
32	0xb95c9908	-0.00021037844
33	0xba2b9afb	-0.0006546226
34	0xbb3e6625	-0.0029052582
35	0xbab5d844	-0.0013873656
36	0x3aa1c027	0.0012340591
37	0xba5e5f19	-0.00084827986
38	0x3b793a6d	0.003802921
39	0xb902f96b	-0.00012490682
40	0x3b11f4d8	0.0022271182
41	0xbb23c687	-0.0024990158
42	0x3a632efc	0.0008666364
43	0xba2c36f8	-0.000656947
44	0x3bb232d7	0.0054381895
45	0x3a07953a	0.0005172078
46	0xbb89e13c	-0.0042077582
47	0xbb69a66c	-0.0035652174
48	0x3acaf4af	0.0015484298
49	0x3b8da39c	0.0043224823

exp_avg_sq f4 [50]
0	0x3b9b6964	0.004742788
1	0x3c45ed1e	0.012080459
2	0x3b5948e1	0.0033155011
3	0x3b83d4dc	0.0040231775
4	0x3bccde9e	0.006252124
5	0x3b02bc6a	0.001994873
6	0x3c412900	0.01178956
7	0x3bb68724	0.0055703092
8	0x3c35e3d5	0.011101683
9	0x3b52aa70	0.0032145046
10	0x3bb7e818	0.0056123845
11	0x3b956e01	0.0045602326
12	0x3ce8e0a2	0.028427426
13	0x3b54abaf	0.0032450964
14	0x3d3b00ec	0.045655176
15	0x3a3e2737	0.0007253768
16	0x3c06af84	0.008220557
17	0x3b933f48	0.0044936277
18	0x3c89834f	0.016786246
19	0x3adabf75	0.0016689139
20	0x3d92a181	0.07159711
21	0x3c512af3	0.012766588
22	0x39cff902	0.00039667642
23	0x3c1d8f27	0.00961665
24	0x3c1170ea	0.0088770185
25	0x3993f85a	0.0002822306
26	0x3be36f98	0.0069407932
27	0x3c21621e	0.009850053
28	0x3b2b7942	0.0026164805
29	0x3cfa4ffe	0.030555721
30	0x3bf04739	0.007332709
31	0x3b76ddc5	0.0037668806
32	0x39d5aac1	0.00040753747
33	0x39eac808	0.00044780993
34	0x3c261011	0.0101356665
35	0x3bb6ae40	0.0055749714
36	0x3a7606aa	0.00093851483
37	0x398aa37d	0.0002644322
38	0x3c2d2099	0.010566854
39	0x398bcf4a	0.00026666588
40	0x3c3b4c7d	0.01143181
41	0x3bccf1e8	0.0062544234
42	0x3ad7ab3e	0.0016454232
43	0x3b57161b	0.0032819572
44	0x3c92f36c	0.017938338
45	0x3b0ca4a2	0.0021460433
46	0x3c756d76	0.014979711
47	0x3c8f80a6	0.017517399
48	0x3bb2bad6	0.0054544015
49	0x3c3ca39a	0.011513615

exp_avg f4 [50, 50]
0	0xb9085a38	-0.0001300358
1	0x379fc75e	1.9047115e-05
2	0x391b0ac9	0.0001478597
3	0xb6fc311d	-7.515903e-06
4	0x381e235a	3.770306e-05
5	0x38933258	7.0188835e-05
6	0xb8c3647e	-9.317043e-05
7	0xb8a2a963	-7.756313e-05
8	0x391dafb6	0.00015038144
9	0x35544800	7.908093e-07
10	0xb8dc4427	-0.00010503112
11	0xb90b5287	-0.00013286817
12	0x37713a0d	1.4378235e-05
13	0xb92ae869	-0.00016299043
14	0xb7c17822	-2.3063334e-05
15	0xb964e055	-0.00021827345
16	0x38a877b5	8.0331614e-05
17	0xb992fc53	-0.00028035286
18	0xb874ce43	-5.836623e-05
19	0xb8f40c0a	-0.00011637069
20	0xb94b16ca	-0.00019368078
21	0x384d0125	4.8876875e-05
22	0x384df008	4.9099355e-05
23	0xb7913882	-1.731166e-05
24	0xb8b5c178	-8.666789e-05
25	0x3956d68b	0.00020488554
26	0xb8cfa057	-9.900395e-05
27	0x38a922c8	8.0650265e-05
28	0xb992bd96	-0.00027988543
29	0xb8be69c1	-9.079604e-05
30	0xb8b9b39f	-8.8549445e-05
31	0x3992705e	0.0002793101
32	0x396a1ce5	0.00022326743
33	0xb7464377	-1.1817428e-05
34	0x38b62910	8.686085e-05
35	0x383eb3fe	4.546716e-05
36	0xb942e574	-0.0001858676
37	0x3942ca23	0.00018576584
38	0x38097079	3.2768094e-05
39	0x3906acbc	0.00012843584
40	0xb81be61b	-3.7169182e-05
41	0x37eaf54d	2.80092e-05
42	0x38c61d43	9.446826e-05
43	0xb889ed72	-6.576897e-05
44	0xb860529d	-5.34827e-05
45	0x3901894e	0.00012353549
46	0x396506fa	0.00021841741
47	0xb8d2e595	-0.00010056343
48	0xb89046c3	-6.8796355e-05
49	0xb99bc8c8	-0.00029713497
50	0xb870bc31	-5.7395726e-05
51	0xb8eb26c4	-0.00011212894
52	0xb9fccda5	-0.00048218403
53	0xb91ae65d	-0.00014772401
54	0xb8d8c83d	-0.0001033698
55	0x3989df01	0.00026296827
56	0xb8cb325a	-9.689173e-05
57	0xb9656df1	-0.00021880098
58	0x3938437f	0.00017572752
59	0xb93ffe14	-0.00018309831
60	0xb90e52e0	-0.00013573049
61	0x38f0c8c2	0.00011481486
62	0xb931d26a	-0.00016958421
63	0xb7e209af	-2.6945809e-05
64	0xb9caca5e	-0.00038679218
65	0x395b23c1	0.00020898787
66	0xb8663e95	-5.4894557e-05
67	0xb9c0dd65	-0.00036786046
68	0xb9f32b3f	-0.00046380793
69	0x37c0a455	2.2964707e-05
70	0xba1f1bf1	-0.0006069532
71	0xb9913abb	-0.00027700313
72	0x398c017b	0.00026703984
73	0xb90b0394	-0.00013257406
74	0xb8d0cece	-9.956733e-05
75	0xb73e6767	-1.1348958e-05
76	0x389988ba	7.321076e-05
77	0x39931f48	0.0002806133
78	0x38c59e55	9.423184e-05
79	0x38f90d21	0.00011875691
80	0x38b1f5a2	8.4857704e-05
81	0x396d1d5d	0.0002261302
82	0x37a8a9be	2.0106203e-05
83	0x38a7b3e3	7.996687e-05
84	0x39446c9d	0.00018732478
85	0x37dee665	2.6571748e-05
86	0xb8554869	-5.0850595e-05
87	0x38fec276	0.00012147885
88	0xb8ccc3e7	-9.763968e-05
89	0x38877f35	6.460996e-05
90	0xb91d17e1	-0.00014981582
91	0x392f9d4e	0.00016747901
92	0x37c5870b	2.3547114e-05
93	0x38417f9a	4.6133624e-05
94	0xb916c8e0	-0.00014379947
95	0xb928a941	-0.0001608478
96	0x392e05c0	0.00016596075
97	0x390533fb	0.00012703233
98	0xb90e0bca	-0.00013546567
99	0xb96a317e	-0.00022334416
100	0xb96c7df6	-0.00022553638
101	0xb804f144	-3.169595e-05
102	0xbb15713b	-0.0022803086
103	0xba9816b9	-0.0011603452
104	0xb9134bdf	-0.00014047277
105	0x3aafd114	0.001341375
106	0xba08263e	-0.0005193687
107	0xba8a4fbb	-0.0010552326
108	0x3acb2bd2	0.001550073
109	0xb9ecdb0e	-0.00045176636
110	0xbabc2cb1	-0.0014356581
111	0xb734db25	-1.077986e-05
112	0xba15b04a	-0.0005710168
113	0xbac4a69e	-0.0015003269
114	0xba4c8c75	-0.0007802912
115	0x3a5a81b4	0.00083353673
116	0x3a063934	0.0005120218
117	0xbb3708bf	-0.0027928797
118	0xbaec3229	-0.001802032
119	0xbaa3fe7a	-0.0012511753
120	0xbb2875b0	-0.0025704913
121	0xbaa3cd6f	-0.0012497137
122	0x3a81e311	0.000990959
123	0xb9e45847	-0.0004355332
124	0xb9a04830	-0.00030571362
125	0x3a521ba6	0.0008014984
126	0x3a3d7a9f	0.000722805
127	0x3a9cee85	0.001197294
128	0x39a10384	0.00030710932
129	0xb93ea66e	-0.00018181812
130	0xba21ffac	-0.00061797607
131	0x3b0a3fb6	0.0021095104
132	0x3a970bf2	0.0011523946
133	0xb921450b	-0.00015379877
134	0x3aa26b8d	0.0012391672
135	0xb9aff960	-0.000335644
136	0xba6d205b	-0.0009045654
137	0x3a89fff1	0.0010528547
138	0x38fa9579	0.000119487704
139	0x3856028f	5.102396e-05
140	0xba4e14cc	-0.00078613753
141	0x3a16cc5d	0.00057524984
142	0xba1fe49f	-0.0006099436
143	0xb984058d	-0.00025181138
144	0xba410ba5	-0.0007364101
145	0xb9582621	-0.0002061357
146	0x3b06c1d1	0.00205623
147	0x3914203c	0.00014126388
148	0xba3c6d90	-0.0007187957
149	0xbb23f2c1	-0.0025016519
150	0x39100e7c	0.00013738306
151	0x383e6821	4.5396508e-05
152	0xba881e54	-0.0010385015
153	0xb9fbc467	-0.00048020782
154	0xb8495037	-4.799684e-05
155	0x39ca6eb9	0.00038610937
156	0xb844fd45	-4.6965917e-05
157	0xb98742b4	-0.00025798904
158	0x39e6360f	0.00043909295
159	0xb8be26e3	-9.067149e-05
160	0xb9fce471	-0.00048235388
161	0x38e32ee1	0.000108329354
162	0xb941c8d3	-0.00018480727
163	0xba04c6ce	-0.00050650246
164	0xb8bde356	-9.054567e-05
165	0x3a22f09c	0.0006215663
166	0x3945b491	0.0001885465
167	0xba42e022	-0.0007433911
168	0xba04a280	-0.0005059615
169	0xb9fe85ff	-0.0004854649
170	0xba224e40	-0.000619147
171	0xba058b7a	-0.0005094331
172	0x397395fb	0.00023230158
173	0xb8c46bca	-9.3660856e-05
174	0x3876e27b	5.8861897e-05
175	0x38e4564b	0.000108879605
176	0x39fd3713	0.00048296954
177	0x3992a3c8	0.00027969317
178	0x3a16976e	0.00057446107
179	0xb851e065	-5.0038467e-05
180	0xb9843edd	-0.0002522384
181	0x39ff8fff	0.00048744676
182	0x397a6579	0.0002387966
183	0xb906b00c	-0.00012844818
184	0x39bf9e0a	0.00036548107
185	0xb98f18d0	-0.00027293572
186	0xb914d400	-0.00014193356
187	0x39299d60	0.00016175723
188	0x38c04a29	9.169087e-05
189	0xb9772eab	-0.00023573141
190	0xb9757233	-0.00023407563
191	0x39009542	0.00012262634
192	0xba02766f	-0.00049767544
193	0xb88eefe1	-6.8157686e-05
194	0xb943bca1	-0.00018666919
195	0xb9329499	-0.0001703076
196	0x3a1e6480	0.00060421973
197	0x3905bb04	0.00012753537
198	0xb927c8df	-0.00016001191
199	0xba2f1eae	-0.0006680292
200	0xb89d1e94	-7.492039e-05
201	0xb81d09da	-3.7440892e-05
202	0x38fd3855	0.00012074473
203	0x388b5a54	6.6448614e-05
204	0xb7325008	-1.06282605e-05
205	0x35c2d2e2	1.4515501e-06
206	0xb8155d34	-3.561117e-05
207	0xb7a60d45	-1.9794921e-05
208	0xb7b030e8	-2.1003609e-05
209	0xb803bc11	-3.1407984e-05
210	0x3854b30c	5.071149e-05
211	0xb78bf722	-1.6685171e-05
212	0xb6636e78	-3.3889937e-06
213	0x389520f7	7.111014e-05
214	0xb8b922f1	-8.827996e-05
215	0xb902ca85	-0.0001247321
216	0xb82c7d8c	-4.112492e-05
217	0x36c8c787	5.9836925e-06
218	0xb80c2eeb	-3.3422297e-05
219	0x38aeba8c	8.3317136e-05
220	0xb8a864b6	-8.029623e-05
221	0x38405e85	4.5864395e-05
222	0x380fed41	3.4314817e-05
223	0xb7a49124	-1.961791e-05
224	0xb87a718f	-5.9710404e-05
225	0x3702e8be	7.802793e-06
226	0xb8e3a7fe	-0.000108554945
227	0x3817ca2c	3.6189493e-05
228	0xb9309dcd	-0.00016843453
229	0x37e39ce5	2.7133568e-05
230	0x387ca155	6.0231734e-05
231	0x36dd3538	6.5925087e-06
232	0xb7168e61	-8.973847e-06
233	0x384d16be	4.889699e-05
234	0xb75c238b	-1.3121297e-05
235	0x38a29394	7.7522505e-05
236	0xb796cfcf	-1.7978162e-05
237	0x3813cfd4	3.5241086e-05
238	0xb82bb99a	-4.0942432e-05
239	0x38d41254	0.000101123616
240	0x367e791d	3.7919447e-06
241	0x37d493c3	2.5341176e-05
242	0x390ecbd8	0.00013618113
243	0x377823b9	1.4790269e-05
244	0xb716a370	-8.97875e-06
245	0x377cceef	1.5068551e-05
246	0xb84e6f7b	-4.921805e-05
247	0xb74921e3	-1.19884235e-05
248	0xb783b9d9	-1.5702959e-05
249	0x38131fc7	3.5077126e-05
250	0x38e4f519	0.0001091754
251	0x389564f7	7.12368e-05
252	0xb9a21e22	-0.000309215
253	0xb93495c8	-0.00017221936
254	0x37a2530d	1.9350578e-05
255	0x3890d252	6.90563e-05
