models/onlyadam/ckpt/ckpt-1.pt (torch, 106691 bytes, 30 tensors)

linears.0.weight f4 [50, 2]
000000 ae 38 c3 3c a5 38 14 be 80 c2 ab bd c4 6c 5a be
       0.023830738 -0.14474733 -0.08386707 -0.21330553
000010 5f f1 c1 bd 38 d0 01 be e6 0d 8e 3d bb 46 2e 3d
       -0.09469866 -0.12677085 0.06936245 0.042547923
000020 80 b9 42 bd d9 34 76 bd 89 f3 c3 bc bd a8 62 3e
       -0.047540188 -0.060108993 -0.023919838 0.22134681
000030 5d d2 b8 3d c2 12 17 bd c7 7b a4 bc 1a d8 41 be
       0.090244986 -0.036883123 -0.020078553 -0.18930092
000040 41 db 7d be f5 3f a9 3d e9 4e 62 bd fb 58 9c be
       -0.2479067 0.08264152 -0.055251036 -0.30536637
000050 66 b7 68 3e 07 9d 5b bc 45 15 20 3e da 8d a5 3d
       0.22726211 -0.013404137 0.15633114 0.08083697
000060 c6 88 8d bd 2e b4 32 be cd 00 a8 3e ac de 41 3e
       -0.06910853 -0.17451546 0.3281311 0.18932599
000070 4d 7d 26 be 8f 3f b8 be 01 5f 6b 3e 29 9f 87 3d
       -0.16258736 -0.3598599 0.2298546 0.06622154
000080 5e c9 69 be 81 6a 03 be 95 44 dc 3e c2 be 60 be
       -0.22830722 -0.12833597 0.43021074 -0.21947768
000090 4f 40 9f 3c 5a 18 be be 1e 47 a8 3e 66 68 97 3e
       0.019439844 -0.37127954 0.32866758 0.29571837
0000a0 e2 ff 4a 3e 33 9f 0d bf 82 b6 42 3d ec 31 a7 bd
       0.19824174 -0.55321044 0.047537334 -0.08163819
0000b0 9e bb 3b 3d 8e 81 7c 3e ac 30 da bc ab 90 18 be
       0.045833223 0.24658796 -0.026634537 -0.14898936
0000c0 f0 8f 9a 3d cf 13 f1 bd 78 06 8e be 32 ad 6a bd
       0.07546985 -0.11771356 -0.2773931 -0.05729408
0000d0 d3 23 39 3d d1 a0 1a be 79 c4 7b bd 51 2d 89 3e
       0.04520018 -0.15100409 -0.061466668 0.26792386
0000e0 49 05 5f 3e 32 fd c0 bd c0 8c 44 3e 1a 7d 87 3e
       0.2177936 -0.09423293 0.19194317 0.26462632
0000f0 20 19 6b 3e 8c 6e c2 3e 21 b5 bb be 15 c3 93 3e
       0.22958803 0.37974966 -0.36661628 0.28859773
000100 93 6f c4 be fb ea 8d bd 6f c6 01 3e 79 a0 46 3e
       -0.38366374 -0.069295846 0.12673353 0.19397153
000110 af 4b 19 be 2d 77 11 3e 4b 0c b2 bc ae fd 59 3e
       -0.14970277 0.14205618 -0.021734377 0.21288177
000120 a6 b9 00 3e b9 68 ab bd 63 f6 f8 be 67 cf 24 3e
       0.1257082 -0.08369584 -0.48625478 0.16094743
000130 bc 6f 14 be 48 27 45 be fb 39 66 bc 89 42 92 3e
       -0.14495748 -0.19253266 -0.01405191 0.28566387
000140 46 41 c0 3b 57 2b ea bc 8e 21 4f bd b1 fa 2b 3e
       0.005867156 -0.02858512 -0.05056911 0.1679485
000150 bf 2b f3 3d c9 fc 44 3e a4 e5 2f 3e e0 fc 20 3d
       0.11873578 0.19237055 0.17177445 0.03930366
000160 7d c5 56 3d 0a 21 da bd 2c fd 20 be 10 11 73 be
       0.052434433 -0.10650833 -0.15721577 -0.23736978
000170 93 48 df be 70 97 27 bd 14 33 31 3e 20 3d ba 3d
       -0.43610057 -0.040915906 0.17304641 0.0909369
000180 d7 16 1e 3e 03 b0 ed bd 16 02 e5 3e 77 69 d1 bd
       0.154384 -0.11605837 0.44728154 -0.10225194

linears.0.bias f4 [50]
000000 6f 12 83 3a 6d 12 83 ba 6b 12 83 ba 6f 12 83 ba
       0.001 -0.0009999998 -0.0009999996 -0.001
000010 6d 12 83 ba 6d 12 83 3a 6e 12 83 ba 6d 12 83 3a
       -0.0009999998 0.0009999998 -0.0009999999 0.0009999998
000020 6e 12 83 3a 6d 12 83 ba 6e 12 83 ba 6d 12 83 3a
       0.0009999999 -0.0009999998 -0.0009999999 0.0009999998
000030 6e 12 83 ba 69 12 83 ba 6e 12 83 3a 6d 12 83 3a
       -0.0009999999 -0.0009999993 0.0009999999 0.0009999998
000040 6d 12 83 ba 6f 12 83 3a 6c 12 83 3a 6e 12 83 3a
       -0.0009999998 0.001 0.0009999997 0.0009999999
000050 6d 12 83 3a 6a 12 83 3a 6d 12 83 3a 6f 12 83 ba
       0.0009999998 0.0009999995 0.0009999998 -0.001
000060 6d 12 83 ba 6e 12 83 ba 6d 12 83 3a 6f 12 83 ba
       -0.0009999998 -0.0009999999 0.0009999998 -0.001
000070 6c 12 83 3a 6e 12 83 3a 6f 12 83 3a 6d 12 83 3a
       0.0009999997 0.0009999999 0.001 0.0009999998
000080 6e 12 83 ba 6f 12 83 ba 6e 12 83 3a 6e 12 83 ba
       -0.0009999999 -0.001 0.0009999999 -0.0009999999
000090 6e 12 83 3a 6f 12 83 ba 6e 12 83 ba 6e 12 83 ba
       0.0009999999 -0.001 -0.0009999999 -0.0009999999
0000a0 6d 12 83 3a 6e 12 83 3a 6e 12 83 3a 6e 12 83 3a
       0.0009999998 0.0009999999 0.0009999999 0.0009999999
0000b0 6f 12 83 ba 6d 12 83 ba 6f 12 83 3a 6e 12 83 3a
       -0.001 -0.0009999998 0.001 0.0009999999
0000c0 6d 12 83 ba 6d 12 83 ba
       -0.0009999998 -0.0009999998

linears.1.weight f4 [50, 50]
000000 9c f9 4f 3e fb fa dd 3d f2 b8 86 be 80 dc b4 3d
       0.20310062 0.10838886 -0.26312977 0.088311195
000010 89 96 cf bd 5d 28 50 3c 7c 8a 84 3d 0a 57 ac bd
       -0.10136134 0.012704936 0.06471726 -0.08415039
000020 3d a6 bd 3d d7 5d d6 bc c7 44 94 bd 6b 71 8e 3e
       0.09260223 -0.026167793 -0.07239681 0.27820906
000030 f5 d1 b7 3d 15 c2 21 3d f0 6d 30 3b 21 2c 01 3e
       0.08975593 0.03949173 0.0026920997 0.1261449
000040 26 8a 50 3e c2 7e 2c be 88 97 a0 bd 5a f4 2f 38
       0.203652 -0.1684523 -0.07841402 4.195082e-05
000050 bf 8c 00 bd 4e 7f 8e bd 10 4e f1 3d 20 28 55 bd
       -0.031384226 -0.06957875 0.11782467 -0.05204022
000060 88 4e 41 3e 80 75 10 bc eb 1c 68 3e 17 e9 3b 3e
       0.18877614 -0.008817077 0.22667281 0.18350635
000070 8a 15 78 3e fb 54 7c 3d 9d 50 72 3d 1a bf f7 3d
       0.24226967 0.06160448 0.05915891 0.120969966
000080 e2 91 f7 3d b0 88 56 3e c5 d2 c7 bd 9c 83 b9 bd
       0.12088372 0.2095058 -0.09756998 -0.090583056
000090 68 8a 8e 3e 0c 4f 98 3e cb e7 42 3e 89 03 e8 bc
       0.2783997 0.29747808 0.19033735 -0.028321998
0000a0 f0 db a8 3d 06 fb 3a 3e 01 ca 11 be 08 6f 00 be
       0.08245075 0.1825982 -0.14237215 -0.12542355
0000b0 9e af 8f 3e c4 c7 9f bc 6b 79 98 bd 89 14 9d bd
       0.28063673 -0.019504435 -0.07445034 -0.076699324
0000c0 d7 9c 46 3e 23 97 10 3e e4 6d 7e bd e7 6d 3e bd
       0.19395767 0.14120154 -0.06211652 -0.04649153
0000d0 16 74 4c be 1e 47 97 be cb 06 b2 3d f9 98 8a 3c
       -0.19966158 -0.29546446 0.08692702 0.016918646
0000e0 3f 14 88 3d ff 85 1d 3e 35 ec 93 bd 36 2f 86 3d
       0.06644487 0.15383147 -0.07222787 0.065519735
0000f0 66 6e d2 3d ce fd 76 3d 2e 37 8d 3e 72 1d 86 bd
       0.10274963 0.06030064 0.2758116 -0.06548585
000100 87 cd 56 3c b0 63 17 be e7 03 d0 bb 68 d5 a9 bd
       0.013110525 -0.14784122 -0.0063481214 -0.08292657
000110 7d 4d 0f bb 19 cc 39 be 3d 53 09 bd 1d 27 cb bd
       -0.0021866255 -0.18144263 -0.033526648 -0.0991957
000120 83 38 ca 3d 96 fe 39 3e ab 2a 1e 3e bd 32 b4 3e
       0.0987406 0.18163523 0.15445964 0.3519496
000130 cb b9 1b 3e cd 02 c3 3d f8 d6 88 bd d2 3c 0d be
       0.15207593 0.095220186 -0.06681627 -0.13792732
000140 be d2 12 be 92 c1 5c be 02 17 bf 3c 5a 9a 21 3e
       -0.14338204 -0.21558216 0.0233264 0.15781537
000150 6f e0 5a be f2 3d 5b bc d1 f7 03 be 57 56 7e 3d
       -0.21374677 -0.013381468 -0.12887503 0.06209406
000160 51 c2 12 bd 64 63 6e bd 7f e4 72 3e c4 e7 d5 bd
       -0.035829846 -0.058200255 0.23719977 -0.104445964
000170 f8 3a 37 3e 71 3d 21 be e3 ae 5a 3d ce 73 92 3d
       0.17893589 -0.15746094 0.05338944 0.07150994
000180 a3 42 d4 3d f6 1f e9 bc a3 20 52 3d 01 92 a1 bc
       0.103642724 -0.028457623 0.051300656 -0.01972294
000190 f4 df 2d 3e 42 8f a8 bd e4 3d c0 bd 73 99 df bb
       0.16979963 -0.08230449 -0.09386805 -0.0068237125
0001a0 a5 e9 8c 3c 60 32 a9 bc e0 76 48 be 10 6f 0e 3e
       0.017201254 -0.020653903 -0.19576597 0.13909554
0001b0 c8 38 a3 bd 48 7c 96 be e1 cd a3 bd 22 90 3c be
       -0.079698145 -0.29391694 -0.07998253 -0.18414357
0001c0 0b 40 77 3d 80 d5 bd bd 48 67 6f bc 44 82 a0 bb
       0.06036381 -0.092692375 -0.0146120265 -0.0048983414
0001d0 a5 51 02 3e 45 4f fa bc 45 6a 89 3d ee 36 70 bd
       0.12726457 -0.030555377 0.067097224 -0.058646135
0001e0 0a 1e 34 be 97 c2 da bb 3b 21 f8 3c 22 50 dc bb
       -0.17589584 -0.006676029 0.030289283 -0.0067234198
0001f0 2f 3e a6 3d 24 36 90 3d 7e 0b e5 bd 3a 2a 38 3e
       0.08117329 0.070415765 -0.111838326 0.17984858
000200 82 af a7 3b ef 16 27 be f2 3f 4e be 51 41 fb bd
       0.0051173577 -0.16317342 -0.2014158 -0.122683175
000210 26 d2 2e 3e 98 65 f8 3d 3d 83 4d 3d c1 8d 6c bd
       0.17072353 0.121287525 0.050173987 -0.057752375
000220 54 b1 c8 bd 6f b7 1f be fd 96 81 bd 05 cb dc bc
       -0.09799448 -0.15597318 -0.06327627 -0.026952276
000230 f1 15 c8 bd 7b a8 f7 bc e7 94 4a 3d 72 8e c3 bd
       -0.0976981 -0.030231705 0.04945841 -0.09548654
000240 b0 56 1d bd 4b 11 42 be d1 f9 05 3e ca e4 5a bb
       -0.03841275 -0.18951909 0.13083579 -0.003340053
000250 9e b3 fb 3d ef e0 58 3e 65 e6 87 be 4f b3 26 3d
       0.12290119 0.21179555 -0.26542965 0.040698346
000260 70 0f d9 3d 8c 66 77 3d da b7 53 3e e4 b3 cc bd
       0.105986476 0.06040053 0.20675603 -0.09995249
000270 c5 24 e6 3d bc 58 29 3e 4e 5c 5f bd 99 f2 73 3e
       0.11237482 0.16537756 -0.054531388 0.23823012
000280 9b fa d7 3c c1 85 ec bd 2b 01 a0 3d b3 d4 c3 bd
       0.026364615 -0.11548949 0.07812723 -0.095620535
000290 b0 8b df bd 82 59 5c 3d f4 de 24 3e 82 0e 48 3e
       -0.10915315 0.0537963 0.16100675 0.19536784
0002a0 e8 0f 38 3e 55 da 12 be d5 b8 07 3e e8 df 23 bd
       0.17974818 -0.143411 0.13254102 -0.040008456
0002b0 55 b7 23 3d 73 33 72 be 59 53 e6 bd 4c 58 fe bd
       0.03996976 -0.23652439 -0.11246366 -0.12419185
0002c0 ec 97 0a 3e f3 cf 14 be cf 56 00 be f2 6b 78 3e
       0.13534516 -0.14532451 -0.12533115 0.24259928
0002d0 77 d7 41 3e 6b 06 28 be f0 95 a3 3d b0 cc 58 3e
       0.1892985 -0.16408698 0.07987583 0.21171832
0002e0 fd 75 9e 3e a3 09 37 bd 33 28 7c 3c ee 61 97 3c
       0.30949393 -0.044686925 0.015390444 0.018479314
0002f0 77 1b 88 3e 90 de 8d be 3a 8c 81 3c 96 cf 3f be
       0.26583454 -0.27708864 0.015813936 -0.18731532
000300 1b b4 38 be 20 2a 84 be ec 4f ae 3d 85 ca ac bd
       -0.18037455 -0.2581339 0.08511338 -0.08437065
000310 71 8b 98 3e 34 bf 11 be f1 f2 25 be d5 c7 08 be
       0.29793885 -0.14233094 -0.16205956 -0.1335748
000320 89 63 78 bc 6e 97 7c 3d 95 ac d6 3c cb c4 28 bd
       -0.01516045 0.061667852 0.02620534 -0.0412033
000330 3b 89 4d 3d 8c 68 aa 3b 62 68 f2 bc 78 03 d7 3c
       0.0501797 0.0052004512 -0.02959079 0.026246771
000340 60 04 31 be 50 ad 18 be 31 d0 73 3d fb ed 31 3e
       -0.17286825 -0.14909863 0.05952472 0.17375939
000350 7f cd 73 3d d8 ea 09 3e c4 eb 88 bd dc 73 d7 3d
       0.05952215 0.13468492 -0.06685594 0.10520145
000360 b0 e9 53 bd 6d 75 cc 3d b9 f1 71 39 9b 7c ed bd
       -0.051736534 0.09983335 0.000230736 -0.11596032
000370 b9 7d 8f bd 30 e6 75 bd e0 cc ae bd e7 22 b4 bb
       -0.070064016 -0.060033977 -0.085351706 -0.0054973247
000380 7a ca 03 bd 3f 54 5f be 9f 9d 33 be 38 ee 22 be
       -0.03217552 -0.21809481 -0.17540596 -0.15911186
000390 bc 53 a7 bd b1 6b 74 bd 7e 9c c8 bd 2c b0 2d 3e
       -0.08170268 -0.059673015 -0.097954735 0.16961735
0003a0 1d b0 b9 bd d0 48 3c 3d 06 d0 34 3d 58 65 2f bd
       -0.09066794 0.045967877 0.0441437 -0.04282126
0003b0 1c 52 b5 bd 38 df 1c 3e c9 12 8b 3c b2 97 77 bd
       -0.08853552 0.15319526 0.01697673 -0.060447402
0003c0 d4 2d 8a 3e a0 a6 b9 3d 77 5e fd 3d d1 c2 d4 bd
       0.2698809 0.09064984 0.12371533 -0.10388721
0003d0 48 a0 88 bd fa 45 92 3d d4 c9 d5 3d 16 2a d4 3c
       -0.06671196 0.07142253 0.10438886 0.025898974
0003e0 f8 b9 06 3d f8 a4 0c bd b2 8d a9 3d 8e 40 17 3b
       0.032892197 -0.034337014 0.08278979 0.002307925
0003f0 61 22 b8 3d aa 55 4b be 61 99 1e 3e 45 86 92 bd
       0.08990932 -0.19856897 0.15488197 -0.07154516

linears.1.bias f4 [50]
000000 6d 12 83 3a 6e 12 83 3a 6f 12 83 ba 6e 12 83 ba
       0.0009999998 0.0009999999 -0.001 -0.0009999999
000010 6d 12 83 ba 6d 12 83 ba 4b 12 83 ba 6e 12 83 ba
       -0.0009999998 -0.0009999998 -0.0009999959 -0.0009999999
000020 6e 12 83 ba 6d 12 83 ba 6d 12 83 3a 6d 12 83 3a
       -0.0009999999 -0.0009999998 0.0009999998 0.0009999998
000030 6d 12 83 3a 6f 12 83 3a 6d 12 83 ba 6d 12 83 3a
       0.0009999998 0.001 -0.0009999998 0.0009999998
000040 6d 12 83 3a 6d 12 83 3a 6e 12 83 ba 6e 12 83 3a
       0.0009999998 0.0009999998 -0.0009999999 0.0009999999
000050 6f 12 83 ba 6d 12 83 3a 6f 12 83 ba 6e 12 83 ba
       -0.001 0.0009999998 -0.001 -0.0009999999
000060 6e 12 83 3a 6e 12 83 3a 6e 12 83 ba 6d 12 83 3a
       0.0009999999 0.0009999999 -0.0009999999 0.0009999998
000070 6d 12 83 ba 69 12 83 ba 6e 12 83 3a 6b 12 83 3a
       -0.0009999998 -0.0009999993 0.0009999999 0.0009999996
000080 6e 12 83 3a 6e 12 83 3a 6d 12 83 ba 6e 12 83 3a
       0.0009999999 0.0009999999 -0.0009999998 0.0009999999
000090 6d 12 83 ba 6e 12 83 3a 66 12 83 ba 6f 12 83 ba
       -0.0009999998 0.0009999999 -0.000999999 -0.001
0000a0 6e 12 83 ba 6e 12 83 ba 6e 12 83 3a 6d 12 83 3a
       -0.0009999999 -0.0009999999 0.0009999999 0.0009999998
0000b0 6e 12 83 3a 6e 12 83 ba 6f 12 83 3a 6e 12 83 ba
       0.0009999999 -0.0009999999 0.001 -0.0009999999
0000c0 6e 12 83 3a 6d 12 83 ba
       0.0009999999 -0.0009999998

linears.2.weight f4 [50, 50]
000000 2a 4f fe 3c 87 86 17 3e 48 da 5b bc c7 c7 7b 3e
       0.031043608 0.14797412 -0.0134187415 0.24587928
000010 09 d4 c1 be d5 44 99 3d 49 69 28 3c fe 49 b7 bd
       -0.37857082 0.07483832 0.010279008 -0.0894966
000020 17 ad 37 be 22 23 6f bd af 98 4b bd 31 fa 39 3c
       -0.17937122 -0.058383115 -0.049706157 0.011351154
000030 51 b2 13 3e 0f 4c 9c 3e ce 22 84 bd ac 87 31 3e
       0.14423491 0.30526778 -0.06451951 0.17336911
000040 62 50 9f bd 8b e8 3a 3e c8 23 06 be 4b f5 2a 3e
       -0.07779004 0.1825277 -0.13099587 0.16695134
000050 04 38 a9 bd 64 b0 e0 bc 6f 11 a0 3c 41 b5 05 3d
       -0.08262637 -0.02742786 0.019539563 0.03264356
000060 da 38 38 be 4f dd ca bd 7c 6b 8d bd 56 05 0b bd
       -0.17990437 -0.099054925 -0.06905267 -0.033940636
000070 b8 cf e3 3d f6 81 0e 3d 8a 82 04 be e0 32 fc bd
       0.111236036 0.03479191 -0.12940422 -0.12314391
000080 c4 a6 36 bd aa 5d 1b be a1 98 17 3d 4d a9 35 3e
       -0.044592634 -0.15172449 0.037010793 0.17740364
000090 94 3c 4d bd 73 44 ce 3b 62 4d ae bd e9 20 e9 3d
       -0.0501066 0.006294781 -0.08510853 0.1138323
0000a0 04 f9 9b bd ab c5 19 3e 42 dc 1d 3e 3f cf 5f 3d
       -0.07615855 0.1501681 0.15416053 0.054641005
0000b0 c9 7d 7d bc 96 31 48 3d 80 ff 82 be ef e1 78 bc
       -0.015471884 0.048875414 -0.25585556 -0.0151905855
0000c0 df 9f f2 bb 71 47 69 be b4 37 1b be ed 42 0f be
       -0.007404312 -0.22781159 -0.15157968 -0.13990374
0000d0 25 dc fe bd 43 a2 9d ba 73 c4 7a bd 2c c7 21 bd
       -0.12444333 -0.0012026507 -0.061222505 -0.039496586
0000e0 9d 7c 80 3c 43 5d 49 3d 2f 34 42 3e c9 0b c3 bd
       0.01568442 0.049161207 0.18965219 -0.09523732
0000f0 bd fc 1c bd 94 27 9f 3d 8c 0a 5b bd 35 70 2e bd
       -0.038326968 0.07771221 -0.053476855 -0.042587478
000100 9a 2d 88 3e 75 bb 18 be c0 57 3b be b7 b4 85 bd
       0.2659729 -0.14915259 -0.18295193 -0.06528609
000110 64 c5 16 3d ca f4 1e be 97 02 95 3b ee 58 9a bd
       0.03680934 -0.15523067 0.004547428 -0.07536493
000120 65 d3 52 3d 6f e5 a4 bd ac 92 8a be 09 3a cd 3c
       0.051471133 -0.080515735 -0.27065027 0.025052087
000130 43 03 91 bd 94 07 32 bd 91 21 3f bd bd 0d 0b 3d
       -0.070807 -0.04346426 -0.04666287 0.03394865
000140 7e ac db bd 9c 7c e6 bd 52 ae 1a 3e 75 ba 18 be
       -0.1072626 -0.11254236 0.1510556 -0.14914878
000150 6b 05 dd 3d bf 9e 96 bc 27 c8 83 3e ff 64 9c bd
       0.10792049 -0.018386243 0.25738642 -0.07636451
000160 d0 94 ca bd 2b f1 92 3e 5d 4c f5 bd 8e 3e 39 3a
       -0.09891665 0.28699622 -0.11977456 0.00070665113
000170 49 d5 16 3e 1f c2 7b bd 4f fa 22 be ed df 45 3d
       0.147298 -0.061464425 -0.15915798 0.048309255
000180 dc 77 11 bd 5e 58 64 bd 55 85 c7 3c de 7a 28 3e
       -0.035514697 -0.055748336 0.02435557 0.1645312
000190 81 67 a3 3c 59 b4 72 3e cb 47 1e 3e 5b f1 1f be
       0.019946815 0.2370161 0.15457074 -0.15619414
0001a0 79 20 12 be 4a 80 22 bd 7c d0 aa 3d 02 ed 78 3d
       -0.142702 -0.039673127 0.083405465 0.060772903
0001b0 1e 1e 18 3e 21 09 02 3e b3 ab 5f bd f5 95 bf 3c
       0.14855239 0.12698795 -0.054607105 0.023386935
0001c0 7c 8e 6d 3d 89 75 3b be a7 c4 5e 3e ab 9c a0 3d
       0.05799721 -0.18306555 0.21754704 0.07842382
0001d0 43 e4 cf 3d 5e 71 77 bc 65 19 dd bd c4 ed 50 be
       0.10150959 -0.015102712 -0.10795859 -0.204032
0001e0 6c 26 6e bb e2 10 29 3d c2 ed 5e 3d 0f 16 32 3e
       -0.003633882 0.041275866 0.054425962 0.17391227
0001f0 91 fa 52 bd a0 e9 4a be ea 71 09 be c6 10 57 3c
       -0.05150849 -0.19815683 -0.13422361 0.013126558
000200 0e c2 43 bd b2 ec 15 be 9c fd 7e bd c3 12 70 bd
       -0.047792487 -0.14641073 -0.06225358 -0.058611643
000210 35 2e 6e 3d 00 4e a8 be ed 34 ac 3d 60 d9 12 3d
       0.058149535 -0.3287201 0.08408532 0.035851836
000220 f7 e7 03 3d 0b 30 73 bc a6 73 82 3d 60 59 16 3c
       0.03220364 -0.014842997 0.063697144 0.009176582
000230 6a 01 a4 3c c9 a4 e9 3d 90 82 b0 bc d8 9d b6 3d
       0.020020206 0.114083834 -0.021546632 0.08916825
000240 c9 ab f6 bd ca fa ca be 1b af 16 3e d2 a1 51 3e
       -0.12044484 -0.39644462 0.14715235 0.20471886
000250 a2 58 89 3a a6 87 41 3e fe 75 71 be 63 64 6b 3d
       0.0010478685 0.18899402 -0.23580167 0.057468783
000260 3d 9e 10 3c b5 a0 9c bd 74 2b 29 3d b4 c9 11 3d
       0.008826789 -0.0764784 0.041301206 0.03559275
000270 87 ae a0 3d d9 63 a6 3e 00 f0 7f be 1c 39 39 be
       0.078457884 0.32498053 -0.24993896 -0.18088192
000280 06 8f 98 bd 72 b5 05 3d 52 0f 66 bd 9c b3 a0 3d
       -0.074491546 0.032643743 -0.056166954 0.07846758
000290 60 f5 72 3e e0 fd 0a be 15 0f 7e bc e0 ca 5f be
       0.23726416 -0.13573408 -0.0155065255 -0.21854734
0002a0 c0 89 8e ba 6f 35 4b 3d c3 55 a3 bd 5e be 0d be
       -0.0010874793 0.049611505 -0.07975342 -0.1384215
0002b0 eb 1f f6 bc 7b 88 85 bd 58 33 fa 3d 8e 79 a9 bc
       -0.030044517 -0.06520172 0.12216824 -0.020687845
0002c0 cf 2d 9e 3d 33 05 fd bd ba a7 68 3c e8 72 84 3e
       0.07723581 -0.12354507 0.014200145 0.25868917
0002d0 6a 06 90 be 6a 93 15 3d f1 18 25 3e 5c de 0b 3e
       -0.28129894 0.036517538 0.16122796 0.13659042
0002e0 2c dd 92 3c c7 6d 78 3d e2 08 f0 3d 84 f0 3d be
       0.017927729 0.060651567 0.11720444 -0.1854878
0002f0 81 33 26 bd a4 8d 8e 3c 9c e7 86 3e 90 f7 e0 3d
       -0.04057646 0.017401524 0.2634858 0.10984719
000300 c6 19 38 bc df 07 80 3d 9e 51 f7 bd 21 d3 25 bd
       -0.011236614 0.06251501 -0.12076114 -0.04048455
000310 6d fb 38 be a2 98 61 3e 8a 4b 4a 3e 7d f2 ae bd
       -0.18064661 0.22030881 0.19755378 -0.08542345
000320 f5 62 02 bd de b2 85 3b 0a 20 14 3d 9e 83 9b bd
       -0.031832654 0.0040801605 0.036163367 -0.07593463
000330 75 c2 60 bd 58 ef cc 3d b8 c2 2c 3e 56 44 8c bd
       -0.05487295 0.10006589 0.16871154 -0.068489715
000340 fa 5b ca bd 6f 0c 98 3c 57 b2 17 3e 10 21 25 bd
       -0.098808244 0.018560616 0.14814125 -0.040314734
000350 89 b1 63 bc 05 12 81 3d 07 de 1b bc 09 6f 07 3e
       -0.013897308 0.06302265 -0.009513385 0.1322595
000360 99 f5 0e 3e 3c dd 50 3d 72 44 3d be c7 0a 33 be
       0.13960876 0.050992236 -0.18483141 -0.1748458
000370 d8 be 5d 3e f8 01 c5 bd 19 4e c7 3d 2f 40 c4 bd
       0.21654832 -0.09619516 0.09731693 -0.095825545
000380 1a 4b bb bd 01 58 ca bd 48 03 5c 3c 51 2d 25 3e
       -0.09145184 -0.09880067 0.013428517 0.16130568
000390 0d 2e 9e bc 31 6c 1a be 11 15 31 bd 80 a7 92 3d
       -0.019309068 -0.15080334 -0.04323298 0.07160854
0003a0 54 76 f1 bd 19 e0 1f be b3 b2 19 3d 8b 70 00 3e
       -0.117901474 -0.1561283 0.037523936 0.12542932
0003b0 0c 10 09 3e 8f 2f b8 3d 9a 22 4c be 40 6c 35 be
       0.13385028 0.08993446 -0.19935074 -0.17717075
0003c0 11 de c9 bd 6e 84 07 be 34 54 31 3e e0 3a 35 bd
       -0.09856809 -0.13234112 0.17317277 -0.0442456
0003d0 aa 74 74 3e 83 36 71 bb 4f 1d ab 3e c8 83 77 be
       0.23872629 -0.0036806173 0.33420798 -0.24171364
0003e0 80 aa d4 bd 7c 14 94 bd 80 94 79 bd 33 6a 25 be
       -0.10384083 -0.072304696 -0.060932636 -0.16153793
0003f0 a0 c3 19 be 86 44 45 3e 3e e7 3f be fe c6 8a 3c
       -0.15016031 0.19264421 -0.18740556 0.01694059

linears.2.bias f4 [50]
000000 6d 12 83 ba 6d 12 83 3a 6f 12 83 ba 6d 12 83 ba
       -0.0009999998 0.0009999998 -0.001 -0.0009999998
000010 6d 12 83 3a 6d 12 83 3a 6e 12 83 3a 6e 12 83 3a
       0.0009999998 0.0009999998 0.0009999999 0.0009999999
000020 6e 12 83 ba 6e 12 83 3a 6d 12 83 3a 6d 12 83 3a
       -0.0009999999 0.0009999999 0.0009999998 0.0009999998
000030 6f 12 83 3a 6f 12 83 3a 6f 12 83 ba 6e 12 83 ba
       0.001 0.001 -0.001 -0.0009999999
000040 6e 12 83 ba 6e 12 83 3a 6e 12 83 3a 6e 12 83 3a
       -0.0009999999 0.0009999999 0.0009999999 0.0009999999
000050 6d 12 83 3a 6f 12 83 ba 6f 12 83 ba 6b 12 83 3a
       0.0009999998 -0.001 -0.001 0.0009999996
000060 6e 12 83 ba 6e 12 83 3a 66 12 83 ba 6d 12 83 ba
       -0.0009999999 0.0009999999 -0.000999999 -0.0009999998
000070 6f 12 83 3a 6e 12 83 3a 6e 12 83 3a 6e 12 83 ba
       0.001 0.0009999999 0.0009999999 -0.0009999999
000080 6e 12 83 ba 6e 12 83 ba 6d 12 83 ba 6e 12 83 ba
       -0.0009999999 -0.0009999999 -0.0009999998 -0.0009999999
000090 6e 12 83 ba 6d 12 83 ba 6e 12 83 ba 6d 12 83 3a
       -0.0009999999 -0.0009999998 -0.0009999999 0.0009999998
0000a0 6d 12 83 3a 6e 12 83 ba 6f 12 83 ba 6d 12 83 ba
       0.0009999998 -0.0009999999 -0.001 -0.0009999998
0000b0 66 12 83 ba 6d 12 83 3a 6e 12 83 3a 6d 12 83 3a
       -0.000999999 0.0009999998 0.0009999999 0.0009999998
0000c0 6e 12 83 3a 6b 12 83 ba
       0.0009999999 -0.0009999996

linears.3.weight f4 [50, 50]
000000 b6 eb a9 bd db 9d 7a bd 5b a1 8b 3d 18 78 f1 3d
       -0.082969114 -0.0611857 0.068178855 0.11790484
000010 dc a8 7c be 5c 17 04 bd a0 53 1f be cf 37 95 bd
       -0.2467379 -0.03224884 -0.15559244 -0.07286035
000020 0a 0a 23 bc 10 68 0d bd 95 c5 2c be d0 16 f5 3d
       -0.009951124 -0.03452307 -0.16872247 0.11967242
000030 04 81 1a be 02 c1 6e be 96 49 cc bd db 20 d2 3d
       -0.15088278 -0.23315814 -0.09974973 0.10260173
000040 d3 3a 9d bd 97 14 3e be 2f db e7 bd 15 80 8c be
       -0.076772355 -0.18562542 -0.11321103 -0.2744147
000050 f3 10 8c bd 23 6d 93 be 55 05 9b 3e 9a 3f 65 be
       -0.0683917 -0.28794202 0.30277506 -0.22387543
000060 9c 18 0a 3e 35 fd 8e be 7f fa 1c bc 8f 4e c3 3d
       0.1348595 -0.27927557 -0.009581207 0.09536468
000070 d7 03 1e bd 52 40 06 3e ac 55 ab 3a 5a 7c 1c be
       -0.03857788 0.13110474 0.0013071797 -0.15281811
000080 53 53 5d bd 85 6d 0a be fe 54 51 bd 6a a8 8c 3b
       -0.054034542 -0.13518341 -0.051106445 0.0042925375
000090 19 77 42 be 1e 52 d9 3d 78 b3 1b bc f4 11 f3 3d
       -0.18990745 0.10611366 -0.009503238 0.11868659
0000a0 f4 e0 12 bd a3 ba 71 bd 4a ef 43 bc 13 6f 35 bc
       -0.035859063 -0.05901588 -0.011958906 -0.011073845
0000b0 4c 93 d3 3d 77 8d ae 3e 56 a6 3c be 0a bd be bd
       0.10330829 0.34092304 -0.18422827 -0.093134
0000c0 aa 3e 26 3e 8a 0e 1d 3d 6b 0f 3d bd 44 47 6b bd
       0.16234842 0.038343944 -0.04615728 -0.05744101
0000d0 50 63 a2 3d 7e 32 f7 bd 54 7f 65 bd 48 4b db bd
       0.079290986 -0.120701775 -0.056029633 -0.10707718
0000e0 d3 1e 45 3e 8a a0 c5 bd 8c f8 31 3d 98 20 f9 3d
       0.1925004 -0.09649761 0.043449923 0.1216442
0000f0 d2 f9 99 bd c5 90 ed bd ea ab 13 be 57 3e 58 3d
       -0.075183526 -0.11599878 -0.14421049 0.052793827
000100 10 25 11 be c8 17 55 be a3 18 1b be f6 62 45 be
       -0.14174294 -0.20809853 -0.15146117 -0.19276032
000110 96 39 b4 bb 23 45 10 be c9 07 b9 bd 8b c8 25 3d
       -0.005500029 -0.14088874 -0.09034688 0.040474456
000120 e4 5f 8c 3d 4c 91 0e bc 10 30 9a 3d 97 73 2d 3d
       0.06854227 -0.008701634 0.075286984 0.042346563
000130 0d 35 aa 3d fd ad bc bc d4 aa 52 bd e6 50 05 be
       0.083109 -0.023032183 -0.051432446 -0.13019142
000140 e4 20 c4 bd d9 a2 8f bd 4b bc 1f bc d6 99 bb 3d
       -0.09576586 -0.070134826 -0.009749482 0.09160201
000150 21 de 55 be 48 0f 78 3d ad c7 c5 3d e5 d9 b5 3d
       -0.20885517 0.06056145 0.09657226 0.08879451
000160 af 01 4e bd f2 a4 0e 3e fc 51 b7 be ce 53 01 be
       -0.050294574 0.13930109 -0.35804737 -0.12629625
000170 75 9c 1f 3e e9 ca f8 3d ed 7a d8 3c f8 0d c8 ba
       0.15587027 0.12148077 0.026425803 -0.0015262952
000180 96 aa 91 3e c6 c3 ab 3d 7c 90 9d bd 14 de 3f be
       0.2845046 0.0838695 -0.07693574 -0.1873706
000190 b5 4e 15 3d c0 50 28 3d 91 63 9b 3e be de d9 3d
       0.036452014 0.041092634 0.303494 0.10638188
0001a0 ea d2 0f 3e d1 8f 43 3c 52 74 51 3d 75 39 36 be
       0.14045301 0.011936144 0.051136322 -0.17795356
0001b0 73 32 58 3e c6 8b d7 3c 3a e0 e0 bb f7 56 95 bd
       0.21112995 0.026311766 -0.0068626674 -0.07291978
0001c0 c2 17 e4 bc 66 f3 ea bc 82 3d 2b 3e f6 70 3f bc
       -0.02784336 -0.028680515 0.16722682 -0.011684647
0001d0 0f d7 1b be b1 58 20 3c 33 f8 dc bd 67 aa 13 bd
       -0.15218757 0.009786771 -0.10789528 -0.03605118
0001e0 70 4f a6 be ae 7f a9 bd bd 32 d7 3b cf 4c 51 3d
       -0.3248248 -0.08276306 0.006567328 0.05109864
0001f0 1c bd be 3e ad b0 ca 3d c4 b4 06 3e 40 f7 a5 3d
       0.37253654 0.098969795 0.13154894 0.081038
000200 c8 45 94 bd f4 dd 7b be 06 8f b6 bd 4e c0 e3 3d
       -0.07239872 -0.24596387 -0.08913998 0.111206636
000210 6e 95 35 bd d6 97 51 3d f5 4b a6 3d e2 19 56 3e
       -0.04433196 0.051170193 0.081199564 0.20908311
000220 ca aa bd 3b e9 05 57 3d 5e f5 2d bd ac a9 29 bd
       0.005788182 0.05249587 -0.04247033 -0.041421577
000230 54 8d 87 3e 21 58 3b be 3a 30 55 3e 77 3b 7c be
       0.26475012 -0.18295337 0.20819178 -0.24632059
000240 b2 60 05 3e 7e b3 ce 3c 02 3d b0 be 4a a8 ea 3a
       0.13025168 0.025232073 -0.34421545 0.0017902937
000250 28 d8 fd 3d c7 74 8e be 98 38 8b be e8 4e 41 3e
       0.12394744 -0.2782347 -0.27191615 0.18877757
000260 6e d3 0e 3e 2b a2 56 bd d4 1e 93 bd 74 45 01 3d
       0.13947842 -0.05240075 -0.071836144 0.031560376
000270 c8 9e 5a 3d 56 4f 24 3d 46 91 27 3e 2f c0 8a 3d
       0.05337408 0.040114723 0.16364011 0.06774937
000280 bc 1e 7b be 42 21 9e bd 87 52 67 3e 8b 58 6b bc
       -0.24523443 -0.07721187 0.22590075 -0.014364372
000290 6d 8b 80 3e e8 45 1f be 4c d5 c4 3d 0f 9e 06 3e
       0.25106373 -0.15554011 0.09610996 0.13146232
0002a0 3f 24 bf 3d 79 45 16 3e 61 ff e8 3d ec 2c 20 be
       0.09333085 0.14674939 0.11376835 -0.15642136
0002b0 a2 c7 67 be 04 a3 5d bb 24 cd d7 bd c4 e9 c4 bd
       -0.22634748 -0.0033819089 -0.10537174 -0.096149
0002c0 40 ea 04 3d 8f cf 8f 3e 4a 2a dd 3d 73 f5 b3 bd
       0.03244996 0.28088042 0.107990816 -0.0878705
0002d0 9d f6 96 3d 4d 8c 10 be 62 21 79 be 20 d8 58 be
       0.073712565 -0.1411602 -0.24329141 -0.21176195
0002e0 f0 6b f0 3d 66 7a d6 bd 6e 08 92 3d c2 21 3c bd
       0.117393374 -0.104725644 0.07130514 -0.04593063
0002f0 70 e6 36 be e7 21 51 3e 9a a7 eb 3c cb a2 de 3d
       -0.17861342 0.20423089 0.028766442 0.10870894
000300 16 b7 f0 bd 05 d9 57 3d dd 2c c8 bd 00 19 1b 3e
       -0.11753671 0.0526972 -0.09774182 0.15146255
000310 6b db 8e 3b f4 ce 62 bd bb 4a 46 bd 45 23 4d 3d
       0.0043596528 -0.055373147 -0.048411112 0.050082464
000320 6f 80 78 3d ea 18 4e bd 9b be 64 3e da 9e 63 3e
       0.06066936 -0.05031673 0.22338335 0.22228566
000330 bb 60 21 be c4 f7 81 be 31 e0 f0 3c ba db 29 be
       -0.15759556 -0.25384343 0.029403778 -0.16587725
000340 5e 56 9c be 1c 6b 43 3e ce 45 74 be 2a 2c 19 3e
       -0.30534643 0.19083828 -0.23854753 0.14958254
000350 84 e5 e8 3d c1 3b d5 3d 77 d0 ec bd 9b fc 25 be
       0.11371902 0.10411788 -0.11563199 -0.16209643
000360 ca c5 3c be 32 bf 63 bd ed f7 ac 3d 4f 6b 45 3b
       -0.18434826 -0.05560226 0.084457256 0.0030123775
000370 83 0b 7c 3c 4f f9 87 3e 14 4e 0d 3e 4e 5c 36 3e
       0.015383604 0.26557395 0.13799316 0.17808649
000380 ef b0 db bd c7 2b 57 bd 12 a1 c9 3d 40 2f c0 3d
       -0.10727107 -0.052531984 0.09845175 0.09384012
000390 eb 0b 90 be f3 22 eb bd a2 cd 9e bd 95 79 63 3d
       -0.28134093 -0.114812754 -0.07754065 0.05553587
0003a0 5b 3b 91 be d8 43 2f be d0 99 37 3d 10 17 8f 3d
       -0.28365597 -0.17115724 0.04482442 0.06986821
0003b0 43 2c 09 bd 19 41 12 3e 37 a9 3d 3e 17 e2 c9 3e
       -0.033489477 0.14282645 0.18521582 0.39430305
0003c0 ca e8 19 3d 3f 47 e3 3e e5 57 28 be df 55 8e be
       0.03757552 0.44390294 -0.16439779 -0.2779989
0003d0 f0 8c a5 be 01 2f af 3d c8 ef af 3c ec 31 f4 3d
       -0.3233409 0.08553887 0.021476641 0.11923584
0003e0 0c de 94 3d 93 d6 3c 3e 17 8d 51 3e 5a 7d 35 be
       0.072689146 0.18441229 0.20463978 -0.17723599
0003f0 41 1e 9f 3e 1a 19 7f bd dd 37 06 bd 58 56 9a bd
       0.3107777 -0.062279798 -0.03276812 -0.07536

linears.3.bias f4 [50]
000000 6d 12 83 ba 6d 12 83 3a 6e 12 83 ba 6e 12 83 3a
       -0.0009999998 0.0009999998 -0.0009999999 0.0009999999
000010 6e 12 83 3a 6f 12 83 3a 6e 12 83 ba 6d 12 83 3a
       0.0009999999 0.001 -0.0009999999 0.0009999998
000020 6e 12 83 ba 6e 12 83 3a 6d 12 83 3a 6d 12 83 3a
       -0.0009999999 0.0009999999 0.0009999998 0.0009999998
000030 69 12 83 ba 6f 12 83 ba 6e 12 83 ba 6e 12 83 3a
       -0.0009999993 -0.001 -0.0009999999 0.0009999999
000040 6d 12 83 3a 6d 12 83 3a 6f 12 83 ba 6d 12 83 3a
       0.0009999998 0.0009999998 -0.001 0.0009999998
000050 6d 12 83 3a 6f 12 83 3a 6d 12 83 3a 6e 12 83 3a
       0.0009999998 0.001 0.0009999998 0.0009999999
000060 6d 12 83 ba 6d 12 83 ba 6f 12 83 3a 6e 12 83 ba
       -0.0009999998 -0.0009999998 0.001 -0.0009999999
000070 6e 12 83 3a 6e 12 83 3a 6e 12 83 3a 6e 12 83 3a
       0.0009999999 0.0009999999 0.0009999999 0.0009999999
000080 6e 12 83 ba 6b 12 83 ba 6d 12 83 3a 6e 12 83 3a
       -0.0009999999 -0.0009999996 0.0009999998 0.0009999999
000090 6d 12 83 ba 6d 12 83 ba 6f 12 83 ba 6d 12 83 3a
       -0.0009999998 -0.0009999998 -0.001 0.0009999998
0000a0 6e 12 83 ba 6d 12 83 ba 6e 12 83 3a 6f 12 83 3a
       -0.0009999999 -0.0009999998 0.0009999999 0.001
0000b0 6e 12 83 3a 6d 12 83 3a 6e 12 83 3a 6d 12 83 ba
       0.0009999999 0.0009999998 0.0009999999 -0.0009999998
0000c0 6e 12 83 3a 6d 12 83 3a
       0.0009999999 0.0009999998

linears.4.weight f4 [3, 50]
000000 39 e9 d7 bd 41 ef f2 bb 12 d5 c8 be 18 32 18 3e
       -0.105425306 -0.007413775 -0.3922506 0.14862859
000010 ad a2 bd 3d a4 e0 a1 3e c3 22 52 be b6 85 cd 3d
       0.092595436 0.316167 -0.20521073 0.10035269
000020 57 14 05 be 33 21 4c 3e 23 ca 1f 3e 94 f9 9c 3d
       -0.1299604 0.1993454 0.15604453 0.07664791
000030 3a bd 40 bd e9 6d 7a be a9 8a a5 be c7 80 bd 3e
       -0.04705546 -0.2445599 -0.32332352 0.37012312
000040 23 20 90 3c 1a da db 3d f0 62 3f be 0d 1d 52 3e
       0.017593449 0.10734959 -0.18690085 0.20518894
000050 16 37 50 3e e7 ac 7f 3e 66 db e2 3d 65 f1 f9 3e
       0.20333514 0.24968301 0.11077003 0.48816982
000060 af 71 8b be 60 e2 e9 bd 74 af 77 3d f5 35 04 be
       -0.2723517 -0.11420131 0.06047006 -0.12911208
000070 fc 4f 11 3d eb 59 3c 3e 21 b3 7d 3e d8 9a f5 3d
       0.03547667 0.18393676 0.24775364 0.11992425
000080 6a c2 5c be d4 18 af bc 9f b4 32 3e 44 b9 9a 3d
       -0.21558538 -0.021374144 0.17451714 0.07554868
000090 03 e9 2a be 4f 05 a8 bd f6 24 84 be d3 b9 2a 3d
       -0.1669045 -0.082041375 -0.2580945 0.041681122
0000a0 14 2e 19 be 02 37 40 be 45 34 f1 3d 22 50 d2 3e
       -0.14958984 -0.18770984 0.11777548 0.4107676
0000b0 51 dd 20 3f a9 cb 4a 3e 33 62 f3 3d 31 51 91 bd
       0.628377 0.19804253 0.118839644 -0.07095564
0000c0 3f a8 28 3e 1a 79 60 3e 79 02 7a bc b8 d6 c7 3e
       0.16470431 0.21921197 -0.015259379 0.39031005
0000d0 e8 be 49 3d 56 fc 9e 3e a1 6d bc 3e f9 a2 bd 3d
       0.049254328 0.31051892 0.3680239 0.092596
0000e0 4b ca 2e be 09 89 ea bc d0 b3 35 bb 53 e0 a4 bc
       -0.17069356 -0.028629797 -0.0027725585 -0.020126497
0000f0 f1 21 3f be 8f cb bc bd fd d5 46 be a4 fe ad 3e
       -0.18665291 -0.09218513 -0.19417568 0.33983338
000100 fe 9e 73 be 36 c2 45 bc 05 5d 99 3e 70 08 9b be
       -0.2379112 -0.012070229 0.2995378 -0.30279875
000110 db 03 4e 3e 55 b7 5b be e6 7b c8 be e4 82 22 3c
       0.20118658 -0.21456654 -0.39157027 0.009918902
000120 02 94 75 3d 3d af d0 3b 97 15 69 bd da 58 d0 bd
       0.059955604 0.0063685463 -0.056905355 -0.10173197
000130 2d 80 ed 3d 07 ab 3e be 68 e4 12 3f b3 4e 16 3e
       0.11596713 -0.18619929 0.5737977 0.14678459
000140 70 6a c8 be c1 0b e4 3d 75 e0 58 bd b6 63 dd 3a
       -0.39143705 0.111350544 -0.052948434 0.0016890678
000150 bb e8 58 bd f6 dd 12 3b 61 f9 1f 3d d8 a1 5b 3e
       -0.052956324 0.002241013 0.039056186 0.21448457
000160 36 a7 79 3e df f7 33 3e ff fa 07 be b5 2f 38 be
       0.24380192 0.17575024 -0.13279341 -0.17986949
000170 80 40 03 3e 84 67 10 3e ee ac 3e be 06 43 02 be
       0.12817574 0.14101988 -0.18620655 -0.1272088
000180 be 81 21 3e 51 dd 7b 3e b9 04 89 3d df b1 6b bd
       0.15772149 0.24596144 0.06690354 -0.057542678
000190 5e fe 82 3d ad 12 11 3e 06 50 58 3e 6d d2 3e 3e
       0.06396173 0.1416728 0.21124277 0.18634959
0001a0 af 2f 73 3e 13 76 8e be f5 68 84 be bc 23 57 be
       0.23748659 -0.27824458 -0.25861326 -0.21009725
0001b0 e2 60 d8 3b 5f 03 9f be 12 45 55 be 83 45 0d 3e
       0.006603346 -0.3105726 -0.2082713 0.13796048
0001c0 08 a1 bc 3e 62 38 bc 3e d5 66 c8 bd 58 2a b2 3c
       0.36841607 0.36761767 -0.09785239 0.021748707
0001d0 8d c6 be bb 6d 8f 8d 3c c6 a7 70 3e 2d 3d 70 3d
       -0.005822009 0.017280305 0.235015 0.05865209
0001e0 98 4e 7a 3e 4a 1b aa bb f6 33 04 be 82 71 39 3e
       0.24444044 -0.0051912414 -0.12910447 0.18109706
0001f0 ef 56 c6 3e 0a c8 57 3e 40 56 27 3e a7 b5 ff be
       0.387382 0.21072403 0.16341496 -0.49943277
000200 1a 40 45 3e 63 93 ea 3d 20 b1 3d be 46 c7 be 3d
       0.19262734 0.11453893 -0.18524599 0.09315352
000210 01 47 b2 bd f2 43 58 3d 33 37 81 bb 66 6e 07 3e
       -0.08704949 0.052799173 -0.003943348 0.13225707
000220 36 b4 bf 3d da 61 25 ba bc 8a 69 be c1 55 98 3d
       0.093605444 -0.00063088315 -0.22806829 0.07438231
000230 bb 14 db 3e 79 e3 d0 bd 13 5f c7 3d 57 cb 8a bd
       0.42789254 -0.10199637 0.09734931 -0.06777065
000240 53 3b df 3e 28 2a d7 3c 75 4a 13 bd 4c 67 af bd
       0.43599948 0.026265219 -0.03595968 -0.08564624
000250 8a fd 28 3d 21 81 42 3e
       0.04125742 0.18994571

linears.4.bias f4 [3]
000000 6e 12 83 3a 6e 12 83 3a 6e 12 83 3a
       0.0009999999 0.0009999999 0.0009999999

exp_avg f4 [50, 2]
000000 d0 b9 e9 bb 3d 7e d6 bc 4a ad 0f 3c c0 bd 4d 3a
       -0.0071327463 -0.026183242 0.008769343 0.00078484043
000010 1c fd 03 3c 2d b3 ae bb 5c eb 20 3c e0 e7 1d 3b
       0.008055951 -0.005331418 0.009821739 0.0024094507
000020 10 f0 d8 ba cd 39 cc 3a b8 f2 de 3b 40 4c af bc
       -0.0016551036 0.0015581191 0.0068038367 -0.021398664
000030 08 89 84 3b 62 18 2e bb cd 10 d5 bb 87 ec aa ba
       0.0040446557 -0.0026564826 -0.006502247 -0.0013040461
000040 1a 5a 05 3b 53 20 db bc c0 1f 96 39 1f 00 6b 3b
       0.0020347894 -0.026748812 0.00028633885 0.0035858226
000050 ab be 40 bc 5b bf a0 3c 50 95 51 3c 07 82 45 bc
       -0.011764209 0.019622495 0.0127919465 -0.012054927
000060 f7 0a 70 bc 2f d7 f5 3c aa 09 39 ba e6 0d 35 3b
       -0.014651052 0.030009834 -0.000705863 0.0027626692
000070 f3 ce ec bb 15 46 2e bc 5b 5c 1d 3c 9e 30 3a bc
       -0.0072268187 -0.010636826 0.009604539 -0.01136413
000080 62 93 a8 bb bc 19 94 3c 37 35 5c 3c b7 7b ee bc
       -0.0051445225 0.018078677 0.013440422 -0.029111726
000090 a4 1b 18 3c 67 4e 15 bc 3b 54 21 3c f7 a6 b3 bc
       0.009283934 -0.009112931 0.009846742 -0.021930201
0000a0 d2 f6 47 3c 4d e7 37 bc 23 82 8d bb f2 21 2b 3c
       0.012204843 -0.01122458 -0.004318492 0.010445105
0000b0 70 b5 31 bb 1f cd 0c bc 99 95 3d bc 05 9f c9 3c
       -0.0027116202 -0.008593827 -0.011571311 0.02461196
0000c0 9d e2 fc bb 67 89 db 3b 80 60 e9 bc 88 e5 1e 3d
       -0.007717444 0.0066997292 -0.028488398 0.038793117
0000d0 e7 90 6b 3b 64 7d 42 bc 8c 6f bd bc 7b ec 43 3d
       0.0035944523 -0.011870716 -0.023124479 0.047832947
0000e0 e6 aa 46 ba 3b cd 5d bb 83 ed e2 3b ba 2f ea bc
       -0.00075785664 -0.003384425 0.0069252863 -0.02858721
0000f0 fd bb e9 3c 28 7d fd bc 27 92 0b bb 9d ab 33 bb
       0.028532023 -0.030943468 -0.002129683 -0.0027415522
000100 2a 4d 48 bc cc ff 02 3d 3b b2 8f bc bf 27 35 3d
       -0.012225429 0.03198223 -0.017541042 0.044227358
000110 c8 04 d6 3c 8d d0 32 bd 80 2e f1 bb 71 bc 86 3c
       0.026125327 -0.04365592 -0.0073602796 0.016447278
000120 2d 7d 22 3b f2 85 a9 bc 09 ff 0a bc a5 60 d5 3c
       0.002479385 -0.020693753 -0.008483657 0.02604706
000130 0f a2 7e 3c cd e2 4c b9 f3 96 d2 bc 7b d3 31 3d
       0.0155415675 -0.00019539446 -0.025706744 0.043414574
000140 bf 0b b7 bb f3 39 6a 3a 4a 40 b8 bb 0a 3c 9c bc
       -0.005586117 0.00089350267 -0.005622898 -0.019071598
000150 82 a9 1f bc f0 a9 af bb 4a 51 13 3c f3 b2 06 bd
       -0.009745004 -0.0053608343 0.008991549 -0.032885503
000160 9b a9 13 3c 4c 9f 01 3c ea d6 88 bc 40 48 80 3c
       0.009012605 0.0079115145 -0.016704042 0.015659451
000170 a0 ca 02 3c 72 95 9d bc 68 f8 ae 3c dd cc c9 bc
       0.00798288 -0.0192363 0.021358684 -0.02463382
000180 c7 1e 62 bc 78 b5 ec 3c c0 36 6a bc 82 cf bb 3c
       -0.013801283 0.028895125 -0.01429528 0.022926096

exp_avg_sq f4 [50, 2]
000000 37 b6 aa 36 d6 c5 8f 38 e3 04 01 37 8f 47 84 33
       5.0876074e-06 6.855621e-05 7.690137e-06 6.1597454e-08
000010 43 c3 d9 36 17 c0 3e 36 13 d8 21 37 c5 d6 1b 35
       6.4898354e-06 2.8424017e-06 9.6466565e-06 5.805453e-07
000020 97 11 93 34 8a 56 82 34 b2 54 9b 36 f1 0e 40 38
       2.7393682e-07 2.4277352e-07 4.62922e-06 4.5790282e-05
000030 ec 91 db 35 a5 6e 3d 35 92 dd 8d 36 fb 97 36 34
       1.635924e-06 7.0568996e-07 4.2279216e-06 1.7005361e-07
000040 c8 48 de 34 0f 0d 96 38 8f db 0c 32 2e 94 ac 35
       4.1403678e-07 7.15499e-05 8.198994e-09 1.2858125e-06
000050 e5 30 68 37 9c 7f 21 38 1d 44 89 37 03 cf 73 37
       1.3839662e-05 3.8504237e-05 1.636339e-05 1.4532127e-05
000060 72 10 b4 37 10 de bc 38 5a fe 55 33 0d e1 4c 35
       2.146533e-05 9.005901e-05 4.982426e-08 7.6323414e-07
000070 94 3e af 36 26 d2 3d 37 dc c3 1a 37 b1 aa 58 37
       5.2226915e-06 1.1314207e-05 9.224717e-06 1.29143455e-05
000080 6f 9c 31 36 07 16 09 38 34 89 97 37 69 bb b1 38
       2.6466112e-06 3.268386e-05 1.8064493e-05 8.4749256e-05
000090 f0 9a 10 37 c6 53 0b 37 49 ab 22 37 dd b7 49 38
       8.619143e-06 8.304551e-06 9.695833e-06 4.809337e-05
0000a0 0d e9 79 37 ce 60 53 37 c3 4e fa 35 30 0a 37 37
       1.4895818e-05 1.2599119e-05 1.8649374e-06 1.0910022e-05
0000b0 a3 60 45 35 fa cf f7 36 92 a3 60 37 c1 11 7e 38
       7.3528844e-07 7.3853853e-06 1.3389525e-05 6.0574854e-05
0000c0 be d8 c7 36 19 9d 96 36 d8 33 aa 38 04 cd 1d 39
       5.9558943e-06 4.488637e-06 8.115888e-05 0.00015049061
0000d0 15 69 ad 35 0f 6a 6c 37 6f 49 60 38 c8 e9 6f 39
       1.2920087e-06 1.409139e-05 5.3474152e-05 0.00022879906
0000e0 16 ae 76 33 ca bc 99 35 fa ec a0 36 a0 62 ab 38
       5.743467e-08 1.1454333e-06 4.7959593e-06 8.172286e-05
0000f0 64 b9 aa 38 4c cd c8 38 21 80 f3 34 4d c2 49 35
       8.1407634e-05 9.574983e-05 4.5355503e-07 7.516108e-07
000100 0e c1 7a 37 8a 82 d6 38 c4 0d 01 38 91 1b 4d 39
       1.494611e-05 0.0001022863 3.0768817e-05 0.00019560593
000110 33 23 8f 38 7d d7 47 39 df c6 b5 36 36 ec e2 37
       6.825328e-05 0.00019058395 5.417372e-06 2.7051294e-05
000120 43 04 25 35 00 9d 33 38 d9 7f f1 36 f9 47 8e 38
       6.147349e-07 4.2823143e-05 7.197243e-06 6.7844936e-05
000130 63 9e ca 37 99 2e 83 31 67 96 8a 38 64 a3 45 39
       2.4154031e-05 3.8178993e-09 6.6083674e-05 0.00018848252
000140 47 69 51 36 98 71 ab 33 91 2d 54 36 c3 8e 18 38
       3.1204706e-06 7.9834706e-08 3.1616985e-06 3.637258e-05
000150 33 53 1f 37 72 dc 40 36 ee a3 07 37 3d cc e2 38
       9.49651e-06 2.8738546e-06 8.084795e-06 0.00010814562
000160 c1 46 08 37 2d 06 d2 36 29 10 ea 37 42 b4 cd 37
       8.122705e-06 6.2592067e-06 2.7902499e-05 2.4521843e-05
000170 8a d4 d5 36 3b 34 1b 38 65 57 3f 38 58 85 7e 38
       6.3726375e-06 3.7003523e-05 4.561934e-05 6.0682505e-05
000180 48 c8 9f 37 df 18 af 38 e9 6c ab 37 80 74 5c 38
       1.904754e-05 8.349283e-05 2.0435504e-05 5.2560586e-05

exp_avg f4 [50]
000000 23 1e c4 bd 5e 09 99 3c a3 85 70 3b c0 d4 e4 3c
       -0.095760606 0.018681224 0.0036700747 0.027933478
000010 a5 09 97 3c 6f 7b 42 bd 37 23 50 3c 8e 57 b2 bc
       0.018437216 -0.047480997 0.012703708 -0.021770265
000020 56 15 9f bd 67 0e 03 3c 88 d7 39 3d 9b f4 0d bc
       -0.077677414 0.007999039 0.045371562 -0.0086642755
000030 c1 d4 3f 3d 90 30 ec 3a d0 d5 99 bd 60 f7 d8 bb
       0.046833757 0.0018019844 -0.075114846 -0.0066212863
000040 ed 22 5a 3d 75 13 55 bd 7b 6f b6 bb ca c8 63 bd
       0.053255964 -0.05202051 -0.0055674887 -0.05561141
000050 77 f7 ff bb 99 72 05 bb b7 4e 74 bc 7d 78 78 3d
       -0.0078114825 -0.0020362495 -0.014911345 0.06066178
000060 6a 1c 8d 3b 3f 32 b5 3d ad bc be bc 1f 3d c3 3d
       0.0043063657 0.08847474 -0.023283327 0.09533142
000070 52 ee 7d bb a9 e7 90 bd fa bc 51 bd 91 e8 c0 bb
       -0.0038746786 -0.07075436 -0.051205613 -0.005887099
000080 d2 f4 9b 3d 83 b5 11 3e c2 ca 93 bd 03 02 b2 3c
       0.07615055 0.14229397 -0.07216407 0.021729475
000090 7d 64 a0 bd 42 5c da 3c 0a 72 eb 3c 42 5d ab 3d
       -0.078316666 0.02665532 0.028740901 0.08367397
0000a0 53 9d 75 bc 45 ba 84 bd 91 4c 44 bd 0d dd a0 bd
       -0.014991122 -0.064808406 -0.047924582 -0.07854662
0000b0 3a ba f7 3c 1b ef 14 3c 0f 8d 0f bd 02 99 16 bd
       0.030240167 0.00909021 -0.035046633 -0.036767013
0000c0 d2 21 92 3d b3 b7 14 3c
       0.07135357 0.009077

exp_avg_sq f4 [50]
000000 74 63 70 3a 50 60 12 38 ae c8 b4 35 ec a2 a3 38
       0.0009170093 3.489881e-05 1.346945e-06 7.802792e-05
000010 ce 93 0e 38 4e 65 6c 39 fe 60 87 37 65 c9 46 38
       3.3993092e-05 0.00022544453 1.613842e-05 4.7394442e-05
000020 04 2c 1e 3a 62 b2 d6 36 8e db 57 39 5d e4 fb 36
       0.00060337805 6.3984635e-06 0.00020585788 7.506968e-06
000030 a8 fe 65 39 76 54 ae 34 6f e8 13 3a 81 1b 93 36
       0.00021934009 3.247148e-07 0.000564224 4.3841433e-06
000040 cd b2 94 39 1b e1 8d 39 52 04 50 36 90 24 a2 39
       0.00028361977 0.00027061332 3.099693e-06 0.0003092629
000050 24 bf cc 36 7b 9a de 34 ea 84 ba 37 22 ee c0 39
       6.1019255e-06 4.1463122e-07 2.223482e-05 0.00036798517
000060 65 e7 f8 35 58 33 4d 3a fa 60 63 38 12 3d 6e 3a
       1.8544785e-06 0.000782778 5.4211334e-05 0.00090880797
000070 bd 80 c9 35 e6 3b 03 3a 16 78 89 39 e1 95 68 36
       1.5013135e-06 0.0005006179 0.00026220147 3.4657935e-06
000080 cd 03 18 3a cb b1 04 3b f8 83 08 3a e0 0a 46 38
       0.0005798906 0.0020247574 0.0005207653 4.7217007e-05
000090 39 c9 20 3a 01 01 95 38 a7 3b ad 38 26 89 37 3a
       0.00061335 7.105061e-05 8.260394e-05 0.00070013327
0000a0 36 85 bc 37 2f 35 dc 39 55 d5 70 39 4b bb 21 3a
       2.2473378e-05 0.00042001295 0.00022967656 0.00061695714
0000b0 1c c7 bf 38 23 a2 0a 37 07 cb 00 39 76 bf 0d 39
       9.144677e-05 8.263191e-06 0.00012282665 0.00013518133
0000c0 5a 77 05 3a 12 3b 0a 37
       0.0005091332 8.239194e-06

exp_avg f4 [50, 50]
000000 da 32 2b 3a 9b 73 f3 3a 37 e7 c3 3a a5 d9 59 ba
       0.000653071 0.0018573882 0.0014946227 -0.00083103246
000010 ba a4 42 3a 25 fd 8a ba 4c ad 0a ba 5d 3a a4 3a
       0.0007425059 -0.0010604007 -0.00052901055 0.0012529601
000020 57 f6 c8 3a c3 a3 08 3b 97 26 e7 ba cd 8c e3 ba
       0.0015332204 0.0020849563 -0.0017635402 -0.0017360687
000030 a3 ba cb 3a 80 eb 68 bb 2b 1b 4d 3b ef 19 12 bb
       0.0015543293 -0.003554076 0.003129671 -0.002229329
000040 1c d9 26 3b 90 ab 0e bb e7 b7 ee 3a dd 27 83 bb
       0.0025458997 -0.002176974 0.0018212766 -0.004002555
000050 1d 70 9f 3a 3a 36 b6 38 13 8c e2 ba 1b ef 8c 3a
       0.001216415 8.688537e-05 -0.0017284177 0.0010752411
000060 f3 b7 89 38 8b a1 26 3b 87 73 02 3a 42 c9 82 ba
       6.566932e-05 0.0025425877 0.00049763214 -0.0009978192
000070 73 58 9f ba 73 4c 40 bb 07 98 6f bb 3d 35 ae 3a
       -0.0012157097 -0.0029342442 -0.0036559121 0.0013291013
000080 7a 1e 5d 3b d1 c2 09 bb e3 a8 d2 39 3b ac 86 ba
       0.003374009 -0.002102066 0.00040180152 -0.0010274717
000090 00 69 0f ba 58 13 3e 3b 11 79 12 3b 1a c0 bf ba
       -0.00054706633 0.002900323 0.0022349993 -0.0014629394
0000a0 a0 e2 fd 38 5a ea 0c ba a6 7f 04 bb 6f 35 d5 ba
       0.00012106192 -0.0005375497 -0.0020217686 -0.0016266535
0000b0 cd 41 36 39 dc 4c 27 3b c0 48 6b 3b 8d 0d fc ba
       0.00017381385 0.002552799 0.0035901517 -0.0019230113
0000c0 60 72 1a ba 33 21 40 bb b3 6b 13 39 80 d7 db 3a
       -0.0005891677 -0.0029316663 0.00014059134 0.0016772598
0000d0 7a e9 d0 3a 5e e9 89 ba 2b 57 55 3a 8d 56 ba b9
       0.0015938722 -0.0010521819 0.0008138294 -0.0003554117
0000e0 3c 8e 8d ba 33 e6 5a 3a 17 57 41 3b b7 04 ca 3a
       -0.0010799835 0.00083503424 0.0029501372 0.0015412782
0000f0 dc 90 3d bb 5b 1c 15 bb bd 93 b9 3a 18 b2 95 bb
       -0.0028925454 -0.0022752497 0.0014158409 -0.0045683496
000100 98 a3 41 3b 32 13 4f bb 08 b5 57 3b ad 52 9c bb
       0.0029546972 -0.0031597135 0.00329143 -0.004770598
000110 40 47 4d 3a ba 24 9b bb 67 87 6d ba 52 36 bf b9
       0.00078307465 -0.0047346028 -0.0009061009 -0.0003647083
000120 70 26 a8 ba 1a e8 51 3a 88 60 22 ba 65 df 73 3b
       -0.0012828838 0.0008007303 -0.0006194194 0.003721201
000130 f3 52 17 b9 9a 29 42 37 4d 98 25 bb 07 76 4d bb
       -0.00014431383 1.1572987e-05 -0.002526778 -0.0031350867
000140 03 e3 74 bb 2b f1 77 3b f7 ea a3 3b e0 4b 0e bb
       -0.0037366755 0.0037832956 0.005002375 -0.0021712705
000150 00 bd c5 3a 4d ff b1 b9 54 50 b7 ba 98 86 b7 3b
       0.0015086234 -0.00033950285 -0.0013985732 0.0056007616
000160 b7 e9 1c 3b d3 b9 26 ba 1a a6 a7 37 8d 80 31 39
       0.0023943016 -0.00063600874 1.9985298e-05 0.00016927924
000170 85 2e 07 bb 09 81 1a bb 57 c3 c6 b9 b7 9e 2e 3b
       -0.0020627093 -0.0023575446 -0.00037911042 0.0026644894
000180 d5 d1 b4 3b ae b9 24 bb 2a 52 d8 ba 63 d6 ad bb
       0.005518178 -0.0025135088 -0.0016503979 -0.005305098
000190 f6 2a 85 bb 40 7a 82 bb 43 0d e7 ba 00 16 04 b7
       -0.0040639592 -0.0039818585 -0.0017627854 -7.872935e-06
0001a0 c7 f3 42 ba 4b db be 3b 37 4b 20 bb 35 6f 91 bb
       -0.00074368384 0.0058244816 -0.0024458894 -0.0044383057
0001b0 8e 54 c5 3b a5 6e d3 bb 25 36 81 bb 8a d0 f5 b9
       0.0060220426 -0.006452399 -0.003943222 -0.00046885415
0001c0 f5 d1 55 bb 2d 9d be b9 e7 60 c2 bb 93 03 04 bb
       -0.0032626365 -0.0003635673 -0.005931962 -0.0020143732
0001d0 cd 3f d3 39 49 8b 44 bc be 9d 11 bc c0 46 06 3b
       0.0004029259 -0.011996099 -0.008887706 0.0020488948
0001e0 c7 5d 65 bc 75 d9 38 bb 95 d6 ae 3b 6d 56 59 bb
       -0.013999409 -0.0028205786 0.0053356388 -0.0033163086
0001f0 38 af 88 bb e5 44 44 3b a2 4c 96 bb 4d cd f5 3b
       -0.0041712783 0.002994829 -0.004586772 0.0075012804
000200 0e f5 c0 bb 7d 98 61 3b 51 1e ad 3b 9f 9b 4b 3c
       -0.005888588 0.0034423165 0.005283155 0.01242724
000210 9b 35 8e 3b cc f8 3d 3b 52 a6 c2 3b 76 f0 b9 3b
       0.0043398864 0.0028987406 0.005940237 0.005674417
000220 50 bb 89 bb b2 e7 3c 3c fb e8 28 bb 60 28 ea 3b
       -0.0042032376 0.01152985 -0.0025773633 0.0071459264
000230 a2 7f 4f ba 02 da a4 3b 57 98 40 3b 67 fc e9 ba
       -0.0007915442 0.0050308714 0.0029387677 -0.0017851711
000240 0f 1f 69 bb 57 3e 5c bb 16 ab bd 3b 53 07 fa b9
       -0.003557149 -0.0033606493 0.0057882173 -0.00047689173
000250 72 52 b0 bb f2 25 1c bc 67 60 4e ba ca da 29 bb
       -0.005380922 -0.009530531 -0.00078726414 -0.0025917762
000260 2b 0e 0e bb fb c4 a3 3a c7 03 8e ba c7 47 a8 3a
       -0.0021675925 0.0012494618 -0.0010834866 0.0012838774
000270 05 23 6c 3a 97 a2 d9 ba f3 01 27 bb cd 07 34 bb
       0.0009007904 -0.0016604242 -0.002548334 -0.002747047
000280 15 d6 37 3b b7 58 2c 3b f3 db 0e bb aa b6 af 3b
       0.0028051187 0.0026297995 -0.002179858 0.0053623514
000290 c3 2c 8e bb ab ca 60 3b 60 06 7c bb 00 3c 77 3b
       -0.004338832 0.0034300487 -0.0038455948 0.0037724972
0002a0 5a 48 0a bb 23 7b c2 3b 00 5d ca b9 cd 24 8d b6
       -0.0021100254 0.005935089 -0.00038597733 -4.2064116e-06
0002b0 07 4e 17 3b ba 3a bf ba b3 19 c5 38 3b d9 80 bb
       0.002308728 -0.0014589645 9.398479e-05 -0.003932146
0002c0 cd 09 0a ba ed 56 8b 3a ba 0a 08 3b a7 ff 8a 3b
       -0.00052657427 0.0010630764 0.0020758347 0.004241902
0002d0 ed ce a9 3b e3 f8 2d bb 05 90 aa bb 40 16 46 3b
       0.005182138 -0.0026546053 -0.0052051567 0.0030225664
0002e0 7d e4 66 ba 60 40 a3 3a 0d 0d 84 3a 2b 31 9b bb
       -0.0008807851 0.0012455098 0.001007469 -0.004736086
0002f0 4a 58 54 bb 93 55 e8 3a 5a 8f 1a b9 93 db 12 3a
       -0.0032401257 0.0017725698 -0.00014739987 0.0005602177
000300 e3 07 3e 3b 93 05 25 3b b3 6d ce b8 3d bc 70 bb
       0.00289964 0.0025180324 -9.8432785e-05 -0.0036733293
000310 5b fa b5 bb 4b cb 3e 3b 91 ca 93 3a f0 15 9a 3b
       -0.0055535263 0.0029112871 0.001127558 0.004702322
000320 80 fd 35 bb ba ee 3f bb 3b 79 b8 ba 63 56 0f 39
       -0.0027769506 -0.002928658 -0.0014074215 0.00013669724
000330 4b b9 20 ba d7 8c 83 3b ab c3 c5 ba 5f 01 4d bb
       -0.00061311264 0.004014592 -0.0015088221 -0.0031281335
000340 55 73 70 3b 8f 3b 97 bb 07 c3 14 bb 00 2f 3c b7
       0.0036689837 -0.0046152542 -0.0022699253 -1.1216616e-05
000350 15 7c 1d bb 40 b5 b9 39 8a 78 91 bb ba e8 74 ba
       -0.0024030257 0.00035420991 -0.004439418 -0.000934254
000360 f7 7b 2e b9 70 e7 f4 bb f9 00 cc bb 3a 8c 02 3b
       -0.00016640114 -0.0074738786 -0.006225702 0.0019920007
000370 d0 b5 1f bc e5 f1 f3 ba a0 68 79 3b 13 7b 1a bb
       -0.009747937 -0.0018611519 0.0038056746 -0.0023571893
000380 a7 dd 33 bb e1 d7 c6 3a 6b ce 4a bb e9 f4 a7 3b
       -0.0027445348 0.0015170538 -0.0030945789 0.005125631
000390 bf 9a 6e bb 19 02 34 3b 18 d9 85 3b f8 84 02 3c
       -0.0036408154 0.002746707 0.0040847175 0.0079662725
0003a0 e3 de 12 3b d7 bc 13 3b 02 ba 7a 3b eb 15 80 3b
       0.0022410683 0.0022542977 0.0038257842 0.003908863
0003b0 4b 1d 2e bb 05 3a e5 3b a0 4d 07 bb 88 ec a2 3b
       -0.0026567753 0.006995442 -0.0020645633 0.0049720444
0003c0 d7 21 0d ba a3 7f 5e 3b 97 99 14 3b a3 c2 68 ba
       -0.00053837657 0.003395059 0.0022674554 -0.0008879101
0003d0 4a a6 1a bb 0d 7f 2c bb 50 53 4d 3b cd fc 79 37
       -0.002359765 -0.0026320845 0.0031330176 1.4900416e-05
0003e0 a7 51 60 bb f9 2b ba bb d2 26 02 bb 40 87 d5 ba
       -0.0034228356 -0.0056815115 -0.0019859564 -0.0016290918
0003f0 3f cd 0e ba 92 f2 66 b9 ab be 52 b9 9c bd 38 3b
       -0.0005447454 -0.00022024874 -0.0002009819 0.0028189188
