models/onlyadam/ckpt/ckpt-25000.pt (torch, 106859 bytes, 30 tensors)

linears.0.weight f4 [50, 2]
0.14071006 -0.29686034 -0.096221 -0.28109276 -0.15246773 -0.24779738 0.08961026 0.047243632
-0.09029177 -0.18057323 -0.10578384 0.30885038 0.11386304 -0.21751471 0.09841206 -0.3100233
-0.2793833 0.10694183 -0.058434416 -0.33580053 0.24376105 0.03660125 0.22479485 0.12645355
-0.042910106 -0.22729197 0.4242848 0.30333513 -0.15698202 -0.8191898 0.28983533 -0.1296217
-0.21028073 -0.24924281 0.4974649 -0.3482519 0.033844687 -0.66325736 0.3874432 0.42712942
0.25153255 -0.99318945 -0.04842206 -0.20282526 -0.02477533 0.42455178 -0.005272019 -0.22813891
0.07289147 -0.30452117 -0.35234523 -0.03762883 0.04376618 -0.28253412 -0.08448502 0.42210734
0.4442096 -0.44153038 0.21263035 0.27806622 0.27162874 0.3685964 -0.4787736 0.23488258
-0.40633366 -0.069226995 0.09766707 0.27519426 -0.15550967 0.16431116 0.026688077 0.30031988
0.30610782 -0.069996044 -0.28439564 0.21974272 -0.12476619 -0.28156483 -0.10862691 0.38830057
0.058069415 -0.16427262 -0.0036069865 0.28666946 0.02441619 0.51408005 0.14016113 0.13592085
0.07262914 -0.19418068 -0.2129755 -0.18278325 -0.44546762 -0.024790734 0.17315038 0.14896512
0.09022534 -0.20292638 0.56091046 -0.08728379
00000000: 4c16 103e 14fe 97be 840f c5bd 64eb 8fbe
00000010: 8020 1cbe 99be 7dbe 9685 b73d 8a82 413d
00000020: e4ea b8bd 30e8 38be 33a5 d8bd a321 9e3e
00000030: 0731 e93d 2dbc 5ebe 438c c93d 60bb 9ebe
00000040: 540b 8fbe 5104 db3d ed58 6fbd 0cee abbe
00000050: 7f9c 793e 31eb 153d 9f30 663e 0a7d 013e
00000060: 82c2 2fbd 3abf 68be db3b d93e be4e 9b3e
00000070: e5bf 20be 6cb6 51bf 4c65 943e 8dbb 04be
00000080: d553 57be 8239 7fbe b8b3 fe3e 134e b2be
00000090: baa0 0a3d 3ccb 29bf f55e c63e b5b0 da3e
000000a0: e0c8 803e aa41 7ebf 3656 46bd 6db1 4fbe
000000b0: a2f5 cabc da5e d93e e7c0 acbb 3f9d 69be
000000c0: 1f48 953d 33ea 9bbe 9866 b4be b020 1abd
000000d0: 2a44 333d 50a8 90be 7b06 adbd 741e d83e
000000e0: 716f e33e 4510 e2be c5bb 593e b25e 8e3e
000000f0: ec12 8b3e abb8 bc3e d021 f5be 0f85 703e
00000100: f70a d0be e2c6 8dbd ac05 c83d 43e6 8c3e
00000110: ed3d 1fbe 2f41 283e f4a0 da3c 87c3 993e
00000120: 2aba 9c3e 165a 8fbd 4e9c 91be 3c04 613e
00000130: 6b85 ffbd 4429 90be c977 debd 55cf c63e
00000140: 32da 6d3d 1537 28be 3163 6cbb 57c6 923e
00000150: 7604 c83c c09a 033f 6686 0f3e d62e 0b3e
00000160: 96be 943d 4dd7 46be 4016 5abe 882b 3bbe
00000170: 5514 e4be f015 cbbc 554e 313e 508a 183e
00000180: 10c8 b83d efcb 4fbe d497 0f3f d8c1 b2bd

linears.0.bias f4 [50]
0.24605063 0.059600182 -0.4719227 -0.16811238 -0.012104938 0.0012201976 0.12171196 0.05334507
-0.013978305 0.041488353 -0.07418853 0.13113116 -0.026229493 -0.080565415 0.14522848 0.47925255
0.043618772 0.08199121 0.0041170707 -0.13860273 0.13632286 -0.17707968 -0.05774942 0.035134625
0.1741611 -0.14580888 0.33301327 -0.07472069 0.6799732 0.0055714543 -0.08275649 -0.14945862
-0.1117361 -0.09770921 0.007384362 -0.20597963 0.14530315 -0.17548862 0.062174607 -0.3111869
-0.00873667 -0.047958553 -0.39440274 0.008835035 0.029650351 -0.12982813 0.008185689 0.10320988
0.05724928 0.06518481
00000000: b2f4 7b3e 521f 743d da9f f1be a725 2cbe
00000010: ca53 46bc 0aef 9f3a 1f44 f93d 5c80 5a3d
00000020: 4305 65bc b1ef 293d 28f0 97bd 3f47 063e
00000030: 3cdf d6bc 7bff a4bd c6b6 143e 9760 f53e
00000040: 99a9 323d 02eb a73d 7ee8 863b e0ed 0dbe
00000050: 3898 0b3e 6054 35be a88a 6cbd 53e9 0f3d
00000060: 4a57 323e ec4e 15be b780 aa3e 2907 99bd
00000070: b912 2e3f bf90 b63b 3c7c a9bd ae0b 19be
00000080: e5d5 e4bd c41b c8bd 85f8 f13b 53ec 52be
00000090: 59ca 143e 4ab3 33be cdaa 7e3d e453 9fbe
000000a0: 4024 0fbc 3070 44bd 28ef c9be d3c0 103c
000000b0: 4be5 f23c aaf1 04be 451d 063c b45f d33d
000000c0: 397e 6a3d 9d7f 853d

linears.1.weight f4 [50, 50]
0.22663446 0.0279255 -0.547267 -0.038214568 -0.2856422 0.08924387 -0.0030575253 -0.1612835
0.13527817 -0.12509575 -0.12552586 0.429159 -0.055830784 0.051234204 -0.01742241 0.33924028
0.14931223 -0.20287412 -0.17081638 0.04026083 -0.09620609 -0.38597754 0.21242559 -0.15979943
0.11935536 -0.070854895 0.36950433 0.227011 0.28731847 0.1410731 0.101393715 0.17307624
0.07314042 0.24541147 -0.027269898 -0.122229286 0.3383296 0.32143667 0.11645865 -0.042011525
-0.059833243 0.29721606 -0.16253914 -0.030512013 0.19867937 -0.14558421 -0.07443928 0.07525867
0.11028353 0.113625444 -0.01690046 0.011834466 -0.1452421 -0.32589832 0.18314019 0.025225028
0.12993273 0.14780886 -0.061541703 0.08173882 0.07871476 0.017320888 0.3167688 -0.14267774
-0.13169608 -0.15135446 0.060658414 -0.12845613 -0.1358826 -0.23778127 -0.2574426 -0.026839998
0.10403206 0.23931326 0.22769704 0.37993187 0.23911932 0.15196113 0.07550788 -0.17944844
-0.16668688 -0.18294919 0.040100712 0.09666432 -0.21564105 -0.08239124 -0.12802191 0.060457766
0.031790905 -0.06459849 0.3020866 -0.14496154 0.11287521 -0.19833131 0.09933783 0.10182944
0.12399446 -0.066561244 0.06619762 -0.030543482 0.26349047 -0.0038137764 -0.00042803882 0.005545863
0.117138624 -0.06756619 -0.09922103 0.18625806 -0.11636951 -0.24301109 -0.055114504 -0.22725089
0.14132832 -0.10222485 -0.07949005 -0.0007048218 0.1693415 -0.02005897 0.0023883083 -0.0880064
-0.31799063 0.07479361 -0.013004198 0.09128535 0.18512829 0.063515365 0.040682606 0.16217972
0.104519 -0.21379526 -0.22875124 -0.13276091 0.14684527 0.06302108 0.0032475945 -0.15458539
-0.06247164 -0.19605754 0.016242644 -0.07622736 -0.01866569 -0.113372035 -0.024470562 -0.11455951
0.046464495 -0.13752702 0.103469424 -0.050767474 0.18162768 0.24297075 -0.25248608 0.025295615
0.10346224 0.10256877 0.21332256 -0.10880413 0.19855523 0.16782159 -0.124345064 0.21822068
0.08693217 -0.09829968 0.07550767 -0.05973326 -0.17824174 0.06978465 0.13374652 0.24351995
0.13552213 -0.10292374 0.059784073 -0.002032099 0.049844332 -0.23101781 -0.074287094 -0.15389156
0.13956247 -0.13446972 -0.07720139 0.26883423 0.22751176 -0.2034492 0.032641247 0.22983344
0.2473972 -0.029585572 0.04672463 -0.04186147 0.24561924 -0.26260346 0.04767697 -0.19780532
-0.15110876 -0.23425587 0.13398124 -0.101663634 0.24667823 -0.12553783 -0.10186049 -0.07535321
-0.0039654686 0.14931673 0.25503385 -0.025893237 0.2405659 -0.020319887 -0.015528923 0.056798957
-0.15941659 -0.09394935 0.05473294 -0.017361939 0.15673119 0.05640296 -0.18643728 -0.04718455
0.066200055 0.034204513 -0.080524735 -0.18161216 -0.26504672 0.09102799 -0.11153364 0.069247566
0.007629843 -0.10410979 -0.18243976 -0.1364212 -0.0015340454 -0.1609023 -0.14604302 0.21885449
-0.026436336 -0.023893712 0.028451294 -0.07197351 -0.17161083 0.19505772 0.1255495 -0.06844215
0.3646026 0.03435865 0.05954146 -0.22230554 -0.020245675 0.19585772 0.12588292 -0.15683214
0.05382921 -0.052195664 0.042495187 0.056788146 0.3843776 -0.1301166 0.47966778 -0.053851742
00000000: dd12 683e 05c4 e43c b119 0cbf e186 1cbd
00000010: b23f 92be 7dc5 b63d c360 48bb 8027 25be
00000020: 5c86 0a3e 1a19 00be da89 00be baba db3e
00000030: d2ae 64bd f5da 513d 71b9 8ebc e7b0 ad3e
00000040: 4ee5 183e 3cbe 4fbe 7dea 2ebe 8ae8 243d
00000050: b307 c5bd d99e c5be 1886 593e 76a2 23be
00000060: 9570 f43d 5f1c 91bd ac2f bd3e 9275 683e
00000070: 681b 933e 7775 103e 82a7 cf3d e63a 313e
00000080: a5ca 953d 254d 7b3e 1f65 dfbc 5953 fabd
00000090: 8a39 ad3e 5993 a43e df81 ee3d 4714 2cbd
000000a0: b413 75bd b42c 983e a970 26be 54f4 f9bc
000000b0: 9b72 4b3e 0714 15be 9f73 98bd 3821 9a3d
000000c0: 55dc e13d 75b4 e83d d572 8abc 59e5 413c
000000d0: 58ba 14be 25dc a6be 1a89 3b3e b8a4 ce3c
000000e0: 160d 053e 355b 173e 2713 7cbd af66 a73d
000000f0: 3435 a13d 89e4 8d3c 852f a23e 1d1a 12be
00000100: 56db 06be aafc 1abe f574 783d 018a 03be
00000110: cf24 0bbe ef7c 73be 84cf 83be 8edf dbbc
00000120: c30e d53d 890e 753e 6a29 693e 6e86 c23e
00000130: b2db 743e b39b 1b3e e0a3 9a3d 55c1 37be
00000140: f7af 2abe 0857 3bbe a540 243d f1f7 c53d
00000150: 02d1 5cbe bdbc a8bd 2d18 03be 90a2 773d
00000160: 2e37 023d 374c 84bd 18ab 9a3e cc70 14be
00000170: 1e2b e73d 5d17 4bbe a271 cb3d f48b d03d
00000180: cff0 fd3d 4351 88bd 9e92 873d 5336 fabc
00000190: 39e8 863e 8df0 79bb 666a e0b9 12ba b53b
000001a0: 60e6 ef3d 2560 8abd 6534 cbbd 6fba 3e3e
000001b0: 2353 eebd e6d7 78be bfbf 61bd 75b4 68be
000001c0: 5fb8 103e 435b d1bd aecb a2bd cac3 38ba
000001d0: dc67 2d3e b652 a4bc 2a85 1c3b b33c b4bd
000001e0: abcf a2be 642d 993d 8f0f 55bc d0f3 ba3d
000001f0: 4592 3d3e 5814 823d cea2 263d 7112 263e
00000200: 0f0e d63d 25ed 5abe c43d 6abe 7af2 07be
00000210: 9b5e 163e 3211 813d 98d5 543b a24b 1ebe
00000220: 43e2 7fbd 4fc3 48be 4b0f 853c 171d 9cbd
00000230: cae8 98bc 992f e8bd 7d76 c8bc 2d9e eabd
00000240: 8e51 3e3d e2d3 0cbe c7e7 d33d 8ef1 4fbd
00000250: 9bfc 393e 53cd 783e db45 81be c038 cf3c
00000260: 03e4 d33d 930f d23d 3b71 5a3e b3d4 debd
00000270: 1052 4b3e 6cd9 2b3e a0a8 febd 3e75 5f3e
00000280: 7e09 b23d 5851 c9bd c4a3 9a3d ddaa 74bd
00000290: 0185 36be 41eb 8e3d d9f4 083e 4b5d 793e
000002a0: 50c6 0a3e afc9 d2bd 25e0 743d f72c 05bb
000002b0: 9229 4c3d ef8f 6cbe d523 98bd c095 1dbe
000002c0: 77e9 0e3e 6eb2 09be c31b 9ebd a4a4 893e
000002d0: d8f8 683e fd54 50be d4b2 053d 7559 6b3e
000002e0: b155 7d3e 715d f2bc 5362 3f3d ef76 2bbd
000002f0: 9c83 7b3e f673 86be ed48 433d 7a8d 4abe
00000300: 41bc 1abe c5e0 6fbe 6132 093e 0635 d0bd
00000310: 3899 7c3e fd8c 00be 3c9c d0bd c952 9abd
00000320: c3f0 81bb 7ce6 183e cc93 823e 0e1e d4bc
00000330: e856 763e e475 a6bc 066d 7ebc 06a6 683d
00000340: 1a3e 23be 8468 c0bd a62f 603d a03a 8ebc
00000350: 247e 203e ca06 673d 6ae9 3ebe 9644 41bd
00000360: e593 873d 081a 0c3d 27ea a4bd 8af8 39be
00000370: 34b4 87be e26c ba3d c06b e4bd abd1 8d3d
00000380: c303 fa3b 8337 d5bd 7dd1 3abe 00b2 0bbe
00000390: 0612 c9ba 93c3 24be 4d8c 15be 641b 603e
000003a0: 0491 d8bc bfbc c3bc b012 e93c d966 93bd
000003b0: c0ba 2fbe 36bd 473e 0c90 003e 662b 8cbd
000003c0: 31ad ba3e a8bb 0c3d bfe1 733d 10a4 63be
000003d0: 42da a5bc ed8e 483e 74e7 003e 9b98 20be
000003e0: 057c 5c3d 1fcb 55bd 6f0f 2e3d b09a 683d
000003f0: 24cd c43e 493d 05be 0497 f53e a593 5cbd

linears.1.bias f4 [50]
0.20354985 -0.009836819 -0.025591046 -0.039476015 -0.11772636 -0.09376952 -0.20246871 -0.038629863
0.0051804725 0.047678042 0.07877873 -0.035884403 0.19195436 0.05433806 0.017482601 0.114115864
0.23125486 0.11059539 0.0016838231 0.04037938 -0.01949492 0.078502156 -0.08964803 -0.04143713
0.08542344 0.0011402984 -0.01735824 0.25694317 -0.02071391 -0.334419 0.0044591064 -0.2823573
0.006287104 -0.048664145 -0.028906062 0.06512408 -0.0241347 0.031572577 -0.15883285 -0.12995948
0.042997513 -0.009053814 0.062474243 0.1262844 -0.0022512092 -0.010434568 0.0068355044 0.029479017
0.12227653 -0.110834554
00000000: 5f6f 503e 9c2a 21bc 50a4 d1bc 9ab1 21bd
00000010: 851a f1bd 3c0a c0bd f553 4fbe 593a 1ebd
00000020: f4c0 a93b 0d4a 433d be56 a13d 86fb 12bd
00000030: af8f 443e 9691 5e3d ac37 8f3c 94b5 e93d
00000040: 13ce 6c3e d67f e23d bab3 dc3a d964 253d
00000050: cfb3 9fbc bdc5 a03d 6399 b7bd fbb9 29bd
00000060: 7cf2 ae3d 1176 953a de32 8ebc 0e8e 833e
00000070: 38b0 a9bc f838 abbe b21d 923b 2391 90be
00000080: 0d04 ce3b 0e54 47bd 68cc ecbc c65f 853d
00000090: 22b6 c5bc 3f52 013d 14a5 22be 1914 05be
000000a0: 291e 303d 7356 14bc fee4 7f3d b350 013e
000000b0: 0689 13bb c0f5 2abc 5efc df3b fb7d f13c
000000c0: 1e6c fa3d 3afd e2bd

linears.2.weight f4 [50, 50]
0.08669621 0.11594599 0.0444961 0.21000291 -0.4245953 -0.025144942 -0.07972737 -0.113880515
-0.22853431 -0.089460164 -0.08694275 0.0981271 0.06524991 0.32336742 0.08398721 0.24116069
-0.18087584 0.2474511 -0.02488516 0.19170709 -0.15303889 0.09657246 0.02132913 -0.0405693
-0.056713115 -0.13529599 0.013290977 -0.046737656 0.13137312 0.015148854 -0.17541651 -0.2817848
-0.011940537 -0.035397124 0.1452107 0.19917698 -0.056320477 0.054791816 -0.23891227 0.19122252
-0.080920324 0.12277229 0.20555897 0.11621873 0.010228379 0.12623723 -0.25663283 0.02646196
0.051589265 -0.5485921 -0.06570463 -0.15353438 -0.06160162 -0.18112208 -0.16405183 -0.23623468
-0.20620559 0.022339415 0.17832853 -0.04704365 -0.2792456 0.5263197 0.3930106 0.09133445
0.31300035 -0.22465429 -0.25085622 0.24681018 0.12877823 -0.026776826 -0.07920776 -0.15795882
-0.04529231 -0.14104252 -0.32948443 -0.0017936645 -0.0018568195 -0.061462894 -0.10203076 -0.033061936
-0.174541 -0.30135417 -0.049893014 0.08290849 0.28099266 -0.1675692 0.18220462 0.036089104
-0.42812058 0.37890983 -0.10581374 -0.18992229 0.12232909 0.026670303 -0.20999998 0.032284565
0.006155174 -0.13011762 0.20694438 0.2414507 0.051412426 0.3855848 0.3345579 -0.1225535
-0.08747394 0.0017003838 0.21763355 0.102847114 0.29577616 0.1276788 -0.03906731 -0.0046611005
0.08505848 -0.19618484 0.47503686 0.19768587 0.1343907 0.021542272 0.06976889 -0.24165736
0.08168103 -0.02047973 0.058435813 0.21214843 0.13052686 -0.36117283 0.04664688 0.1471183
0.11810407 -0.21759155 -0.13550729 0.026007824 0.026232427 -0.32175025 0.030436167 0.13578016
0.21017985 -0.0790948 0.08319037 -0.033096492 0.12788959 0.15395027 0.008740712 0.12139915
-0.19942807 -0.09937103 0.07120426 0.37810263 0.01995965 0.23364036 -0.16781566 0.10731431
0.2816066 -0.07817023 0.053613838 0.059071016 0.10985944 0.33269963 -0.267313 -0.17855644
-0.1267735 0.14216898 0.041691497 0.09403329 0.48464644 -0.050820544 -0.23657556 -0.14219438
0.07583544 0.029741475 -0.10150119 -0.17889354 -0.047570925 -0.06764259 0.3370461 -0.1700433
0.26551005 -0.10486253 0.14065121 0.21767715 -0.30180836 -0.01428152 0.17958163 0.2942535
0.08041689 0.12603271 0.22906159 -0.22563009 -0.19782382 0.16534805 0.213037 0.093944006
0.026446983 0.1096494 -0.14892593 0.095869794 -0.23309602 0.29962933 0.2514668 -0.12010569
-0.04810556 -0.012183436 0.0037251553 -0.08015711 -0.026700927 0.06680414 0.15788244 -0.03747258
-0.13356626 0.012481762 0.13138123 -0.024540456 0.0035350376 0.059601177 -0.03248278 0.10553949
0.104776666 0.09773745 -0.111215994 -0.1951791 0.21077125 -0.14873865 0.14911841 -0.074816525
-0.14140303 -0.072401 0.015971025 0.1885351 5.9334507e-05 -0.07963695 -0.114730045 0.06131786
-0.16738564 -0.1667735 0.072843455 0.10367236 0.098292395 0.08186673 -0.19746764 -0.18456537
-0.098120935 -0.14820333 0.16710195 -0.065843225 0.26690874 -0.011619167 0.3002309 -0.24467926
-0.102879085 0.026466666 -0.06757701 -0.17894568 -0.13879547 0.20215937 -0.18664055 -0.0034540119
00000000: c88d b13d 1775 ed3d 8b41 363d 010b 573e
00000010: 8e64 d9be c4fc cdbc 1a48 a3bd 303a e9bd
00000020: e604 6abe e436 b7bd 0a0f b2bd dcf6 c83d
00000030: bfa1 853d 6a90 a53e 7d01 ac3d d4f2 763e
00000040: 8437 39be d263 7d3e f7db cbbc dd4e 443e
00000050: 3ab6 1cbe c8c7 c53d 6dba ae3c ff2b 26bd
00000060: 034c 68bd 088b 0abe 66c2 593c fc6f 3fbd
00000070: ad86 063e e632 783c 63a0 33be 1946 90be
00000080: 3ea2 43bc 93fc 10bd 1db2 143e 0df5 4b3e
00000090: 4db0 66bd 626d 603d 6ba5 74be d6cf 433e
000000a0: 8eb9 a5bd 0a70 fb3d 0d7e 523e 1604 ee3d
000000b0: ee94 273c 5544 013e 6165 83be c1c6 d83c
000000c0: 444f 533d 8870 0cbf 2690 86bd 1e38 1dbe
000000d0: fb51 7cbd 1178 39be 34fd 27be 81e7 71be
000000e0: 8f27 53be 2601 b73c c19b 363e d8b0 40bd
000000f0: 47f9 8ebe e3bc 063f af38 c93e 8e0d bb3d
00000100: 9541 a03e c60b 66be 3a70 80be cfbb 7c3e
00000110: 71de 033e 135b dbbc ae37 a2bd f5bf 21be
00000120: 6e84 39bd 736d 10be 2fb2 a8be 6519 ebba
00000130: 8660 f3ba 84c0 7bbd 81f5 d0bd f46b 07bd
00000140: e0ba 32be 184b 9abe 9e5c 4cbd edcb a93d
00000150: 45de 8f3e 4397 2bbe d993 3a3e 2bd2 133d
00000160: 9f32 dbbe 7800 c23e e0b4 d8bd fd7a 42be
00000170: ad87 fa3d ae7b da3c 3c0a 57be d23c 043d
00000180: 58b1 c93b 8e3d 05be 3ae9 533e da3e 773e
00000190: d695 523d 5f6b c53e 2c4b ab3e 54fd fabd
000001a0: 8925 b3bd 6adf de3a 54db 5e3e 82a1 d23d
000001b0: f96f 973e 3bbe 023e 0b05 20bd 25bc 98bb
000001c0: 2433 ae3d aee4 48be 0838 f33e 2a6e 4a3e
000001d0: b79d 093e 6b79 b03c fee2 8e3d 0775 77be
000001e0: 6248 a73d 1bc5 a7bc 645a 6f3d 703d 593e
000001f0: d5a8 053e a5eb b8be cd10 3f3d 2ea6 163e
00000200: 8ce0 f13d 52d0 5ebe 6cc2 0abe 5c0e d53c
00000210: 63e5 d63c 73bc a4be 4555 f93c f409 0b3e
00000220: 6339 573e 74fc a1bd b65f aa3d 3090 07bd
00000230: 7df5 023e 24a5 1d3e 3435 0f3c 1ea0 f83d
00000240: df36 4cbe 0a83 cbbd 8ad3 913d ab96 c13e
00000250: 6b82 a33c 6b3f 6f3e ded7 2bbe 9bc7 db3d
00000260: be2e 903e b717 a0bd 2f9a 5b3d 73f4 713d
00000270: fcfd e03d 9b57 aa3e 40dd 88be 80d7 36be
00000280: ead0 01be bf94 113e b4c4 2a3d 8794 c03d
00000290: 9423 f83e 3429 50bd dd40 72be 679b 11be
000002a0: 9c4f 9b3d 65a4 f33c dbdf cfbd de2f 37be
000002b0: bbd9 42bd 3388 8abd 4e91 ac3e d51f 2ebe
000002c0: eff0 873e 2bc2 d6bd df06 103e c2e6 5e3e
000002d0: a086 9abe 09fd 69bc 3fe4 373e 65a8 963e
000002e0: 9cb1 a43d b80e 013e 1f8f 6a3e 930b 67be
000002f0: 5492 4abe 0051 293e 5f26 5a3e b765 c03d
00000300: 58a7 d83c dd8f e03d 0a80 18be 6257 c43d
00000310: b9b0 6ebe 0469 993e 42c0 803e f9f9 f5bd
00000320: 560a 45bd 099d 47bc bc21 743b 6929 a4bd
00000330: e7bb dabc 9cd0 883d efab 213e d97c 19bd
00000340: 98c5 08be 4e80 4c3c cd88 063e 1109 c9bc
00000350: 17ac 673b 5d20 743d aa0c 05bd 1725 d83d
00000360: 2695 d63d 922a c83d 36c5 e3bd 08dd 47be
00000370: 6bd4 573e f24e 18be 7fb2 183e 6839 99bd
00000380: f5cb 10be fa46 94bd abd5 823c 580f 413e
00000390: f1dd 7838 b218 a3bd 96f7 eabd 7028 7b3d
000003a0: 2467 2bbe acc6 2abe f32e 953d 2d52 d43d
000003b0: 864d c93d bea9 a73d f534 4abe b4fe 3cbe
000003c0: a1f3 c8bd 9dc2 17be c61c 2b3e d0d8 86bd
000003d0: 43a8 883e 525e 3ebc ddb7 993e 338d 7abe
000003e0: 45b2 d2bd 9fd0 d83c d165 8abd 893d 37be
000003f0: 6620 0ebe de02 4f3e b31e 3fbe b45c 62bb

linears.2.bias f4 [50]
-0.0066965604 0.072511 0.0015425055 -0.01214842 -0.031307384 0.049237058 0.025996374 -0.004943393
-0.012295091 0.02282334 -0.0836549 0.018386817 0.042956136 0.08792426 -0.04020287 -0.021612458
-0.034552835 0.051044982 0.07190887 -0.013741959 -0.045700938 -0.06143786 0.090453245 -0.07122163
-0.058331326 0.005185151 -0.036186323 -0.1195772 0.019695833 -0.021655997 0.030457584 -0.11109469
0.030319123 -0.018802889 0.08036596 -0.013133046 0.0390239 -0.006097879 -0.03535993 0.02278683
-0.002617953 -0.102931865 -0.07493534 -0.07219827 -0.07149646 -0.007947481 0.051345233 -0.014931979
0.03801384 0.00067026453
00000000: d26e dbbb a680 943d e52d ca3a 2b0a 47bc
00000010: 2c3c 00bd ccac 493d 59f6 d43c 30fc a1bb
00000020: 5971 49bc 03f8 ba3c 4353 abbd f39f 963c
00000030: c6f2 2f3d a211 b43d c4ab 24bd 9c0c b1bc
00000040: 4687 0dbd 8b14 513d f544 933d f425 61bc
00000050: e830 3bbd 44a6 7bbd 8d3f b93d a5dc 91bd
00000060: d4ec 6ebd 33e8 a93b 1c38 14bd e4e4 f4bd
00000070: 2859 a13c eb67 b1bc 2f82 f93c 9d85 e3bd
00000080: cf5f f83c 8408 9abc e996 a43d fd2b 57bc
00000090: 86d7 1f3d b7d0 c7bb 93d5 10bd 72ab ba3c
000000a0: f791 2bbb f1cd d2bd b377 99bd b0dc 93bd
000000b0: bc6c 92bd 2736 02bc 614f 523d 42a5 74bc
000000c0: 66b4 1b3d b1b4 2f3a

linears.3.weight f4 [50, 50]
-0.042608492 -0.28178328 0.0922106 0.26472464 -0.15966094 -0.007153545 -0.35400185 0.052255493
0.11935184 -0.10660934 -0.11475412 0.096318334 -0.26076588 -0.37381655 -0.041185815 0.13514513
0.012327969 -0.39392287 -0.26289034 -0.41361794 0.1319319 -0.1611903 0.3860421 -0.13029017
0.24432294 -0.38864002 -0.029150907 0.18958503 -0.018078016 0.02296713 -0.34332925 -0.15194498
-0.05562388 -0.15530999 -0.26990804 0.10556507 -0.15199734 0.16274235 0.3308207 0.064093724
-0.011273097 0.106847934 0.16234623 -0.09896012 0.18034363 0.3080674 -0.7063781 -0.13603808
0.097398795 0.033881135 -0.04839326 -0.07360702 0.08132259 -0.2028092 -0.092202164 -0.21915767
0.25782728 -0.14851725 0.057694945 0.1396288 -0.1998711 -0.20535412 -0.3544219 0.077705726
-0.38336653 -0.17802925 -0.16498017 -0.20880234 0.017588593 -0.24097973 -0.066714846 -0.01872494
0.18417121 -0.030570589 0.024415767 0.022485042 0.19233039 -0.06798349 -0.13930492 -0.23254584
-0.14249375 -0.043342564 0.031966608 0.0968268 -0.2384323 0.057475958 0.022967907 0.10351205
0.00949072 0.22941485 -0.29111597 -0.089913934 0.21688423 0.20086084 0.051547807 -0.01487966
0.28583023 -0.008221826 -0.09510353 -0.14340232 0.1724864 -0.09853336 0.27106005 0.19766574
0.09915273 0.010789138 0.00013692971 -0.15405692 0.31721616 -0.05453915 -0.06265282 -0.19922425
-0.135631 -0.18745983 0.14049602 0.0034124106 -0.068918146 -0.056921273 -0.09737673 -0.22537139
-0.22491442 -0.054741673 0.15003209 0.02694641 0.3586301 -0.08910305 0.18530108 0.06624449
-0.086616285 -0.39083907 -0.29060668 0.08549184 0.034707274 0.113525055 -0.04838884 0.27612314
0.07790972 -0.06699937 0.21750423 -0.03554146 0.1678992 -0.08541028 0.27016777 -0.2719172
0.124462396 -0.056214634 -0.6137614 -0.08846051 0.1533714 -0.31754753 -0.2726947 0.21467817
0.15110655 -0.072935455 -0.05817037 0.14982334 0.11611899 -0.06005483 0.1950855 0.08796682
-0.3625619 -0.07277116 0.46991017 -0.12673318 0.20160434 -0.09638398 0.1104964 0.32426563
0.12217687 0.29215652 0.10802523 -0.12830664 -0.3261545 -0.06830799 -0.148246 -0.07113967
0.04435162 0.25531313 0.17002691 -0.053263478 0.20518138 -0.3019558 -0.22065376 -0.16171244
0.26622957 -0.11846949 -0.09439914 -0.066216126 -0.18144274 0.2064349 -0.08075132 0.06813314
-0.11222968 0.124000095 -0.0867616 0.22835796 0.101991884 0.0007871437 0.027146585 0.009771999
0.0376373 -0.05264945 0.2685344 0.1469048 -0.14974284 -0.29366013 0.06555236 -0.16512051
-0.46408442 0.12505506 -0.41044813 0.21154772 0.089940086 0.15573609 -0.08641622 -0.19438295
-0.21906304 -0.02548603 0.12223828 -0.080532074 0.004876564 0.23721991 0.20809056 0.13576208
-0.12804763 -0.026105773 0.103745766 0.06777809 -0.30627793 -0.13408405 -0.03342698 0.095409565
-0.30394173 -0.2273343 0.09372118 0.1677231 -0.030315481 0.13272125 0.07418011 0.41499388
0.084327 0.44090232 -0.16927758 -0.35574797 -0.351899 0.02707998 0.091322705 0.18882519
0.072361805 0.2112613 0.06098733 -0.13403116 0.36147833 -0.06571146 0.0156286 -0.009232936
00000000: 3e86 2ebd e645 90be e9d8 bc3d fd89 873e
00000010: 287e 23be 4968 eabb bb3f b5be db09 563d
00000020: bd6e f43d ff55 dabd 3504 ebbd 8c42 c53d
00000030: 1b83 85be e264 bfbe 75b2 28bd 7c63 0a3e
00000040: 40fb 493c 42b0 c9be 9099 86be bbc5 d3be
00000050: 2819 073e 120f 25be 4fa7 c53e c96a 05be
00000060: cb2f 7a3e d3fb c6be e2cd eebc 9422 423e
00000070: 5918 94bc 9025 bc3c dac8 afbe 7797 1bbe
00000080: ded5 63bd 9509 1fbe 6331 8abe 8032 d83d
00000090: 31a5 1bbe eea5 263e 5561 a93e 9243 833d
000000a0: ccb2 38bc 17d3 da3d 173e 263e 9aab cabd
000000b0: 00ac 383e 03bb 9d3e 32d5 34bf 914d 0bbe
000000c0: 0579 c73d f2c6 0a3d 0338 46bd 47bf 96bd
000000d0: 758c a63d 37ad 4fbe 7dd4 bcbd de6a 60be
000000e0: f001 843e e814 18be 8951 6c3d dafa 0e3e
000000f0: 02ab 4cbe 5a48 52be ca76 b5be 2e24 9f3d
00000100: 9e48 c4be 4d4d 36be 90f0 28be 48d0 55be
00000110: f415 903c 64c3 76be cba1 88bd 0c65 99bc
00000120: 6197 3c3e 2c6f fabc 9303 c83c 8d32 b83c
00000130: 42f2 443e ee3a 8bbd f3a5 0ebe 7f20 6ebe
00000140: e2e9 11be f987 31bd 6bef 023d 214d c63d
00000150: 9927 74be e96b 6b3d 3127 bc3c 20fe d33d
00000160: f77e 1b3c baeb 6a3e 270d 95be cc24 b8bd
00000170: e616 5e3e 77ae 4d3e cb23 533d d1c9 73bc
00000180: 5758 923e d6b4 06bc a4c5 c2bd 0fd8 12be
00000190: 46a0 303e dccb c9bd 62c8 8a3e e368 4a3e
000001a0: 9610 cb3d edc4 303c ca94 0f39 19c1 1dbe
000001b0: 286a a23e 7264 5fbd 1f50 80bd 7101 4cbe
000001c0: dae2 0abe 78f5 3fbe 30de 0f3e c0a2 5f3b
000001d0: f524 8dbd 4826 69bd 736d c7bd c2c7 66be
000001e0: f74f 66be ce38 60bd 03a2 193e b8be dc3c
000001f0: 5d9e b73e a97b b6bd 91bf 3d3e 31ab 873d
00000200: e163 b1bd 0f1c c8be 66ca 94be 5916 af3d
00000210: 3729 0e3d d37f e83d 6033 46bd 0360 8d3e
00000220: 228f 9f3d f736 89bd 6eb9 5e3e ec93 11bd
00000230: c5ed 2b3e 96eb aebd 6e53 8a3e bb38 8bbe
00000240: 24e6 fe3d 5141 66bd 781f 1dbf c92a b5bd
00000250: 640d 1d3e 9795 a2be a49e 8bbe 98d4 5b3e
00000260: adbb 1a3e 2f5f 95bd 0e44 6ebd 4a6b 193e
00000270: cbcf ed3d 0efc 75bd 7ec4 473e f327 b43d
00000280: b7a1 b9be 0c09 95bd 1198 f03e 58c6 01be
00000290: 5e71 4e3e f764 c5bd f04b e23d 2506 a63e
000002a0: de37 fa3d 8a95 953e 553c dd3d d162 03be
000002b0: b9fd a6be 0fe5 8bbd cdcd 17be adb1 91bd
000002c0: 0baa 353d 67b8 823e 891b 2e3e ce2a 5abd
000002d0: 111b 523e f399 9abe 0ff3 61be f297 25be
000002e0: 3e4f 883e 22a0 f2bd 5654 c1bd 529c 87bd
000002f0: 20cc 39be ac63 533e f360 a5bd 6389 8b3d
00000300: add8 e5bd c3f3 fd3d 11b0 b1bd abd6 693e
00000310: 1fe1 d03d 5258 4e3a 8462 de3c bc1a 203c
00000320: 9229 1a3d f3a6 57bd 577d 893e 366e 163e
00000330: 3056 19be 9f5a 96be 5140 863d 5a15 29be
00000340: 799c edbe 6f0e 003e 4226 d2be f79f 583e
00000350: 8232 b83d 4879 1f3e fdfa b0bd 530c 47be
00000360: 1052 60be 14c8 d0bc 1058 fa3d 00ee a4bd
00000370: 95cb 9f3b c7e9 723e b115 553e 3705 0b3e
00000380: eb1e 03be c6db d5bc a978 d43d 3dcf 8a3d
00000390: 76d0 9cbe 544d 09be bbea 08bd 1766 c33d
000003a0: 409e 9bbe 53ca 68be e4f0 bf3d 9bbf 2b3e
000003b0: 2c58 f8bc 14e8 073e beeb 973d 147a d43e
000003c0: a2b3 ac3d f3bd e13e 1a57 2dbe 9924 b6be
000003d0: 1b2c b4be d6d6 dd3c 6607 bb3d 645b 413e
000003e0: 6d32 943d e254 583e dacd 793d 773f 09be
000003f0: b013 b93e bb93 86bd 8d07 803c be45 17bc

linears.3.bias f4 [50]
-0.111480914 0.012754795 -0.040118627 0.02984011 0.004816609 -0.0024747297 0.035256777 0.20212294
0.0020949328 -0.00023494019 0.13851911 0.00035710578 -0.06572557 -0.06702117 0.028645033 -0.0009889829
0.029463261 0.033582695 -0.021051263 0.068136275 0.054045875 0.0018126742 0.098146476 -0.021820605
-0.036200948 -0.033834107 0.038126837 0.0012368216 -0.12102882 0.023328736 0.05562232 -0.022897743
-0.047835983 -0.21026918 0.03318675 0.02269318 -0.109950066 -0.0595948 -0.06951307 -0.061872814
-0.10295354 -0.011381227 0.019697506 0.031143637 0.052000444 0.021556048 0.017577657 -0.056370284
0.030065952 -0.04669724
00000000: 1b50 e4bd 7df9 503c 6e53 24bd 3f73 f43c
00000010: a5d4 9d3b 132f 22bb 6969 103d 51f9 4e3e
00000020: 244b 093b 475a 76b9 f4d7 0d3e ed39 bb39
00000030: 219b 86bd 6542 89bd fda8 ea3c c2a0 81ba
00000040: f05c f13c 028e 093d b373 acbc 088b 8b3d
00000050: 355f 5d3d 4197 ed3a 0501 c93d 20c1 b2bc
00000060: 7247 14bd a295 0abd e32a 1c3d d91c a23a
00000070: f5dd f7bd e81b bf3c 3bd4 633d 0c94 bbbc
00000080: aaef 43bd ce50 57be d4ee 073d 0ce7 b93c
00000090: 802d e1bd ad19 74bd de5c 8ebd 596e 7dbd
000000a0: 4ed9 d2bd 5378 3abc aa5c a13c f120 ff3c
000000b0: 6bfe 543d 4f96 b03c 05ff 8f3c 87e4 66bd
000000c0: df4c f63c 9b45 3fbd

linears.4.weight f4 [3, 50]
-0.55226576 -0.10595305 -0.43484783 0.3430501 0.112247236 0.42661288 -0.2670126 0.12857974
-0.32009584 0.27960378 0.1741967 0.23264149 -0.07997971 -0.29542354 -0.50454515 0.7564578
0.11216132 0.22561757 -0.28720322 0.2508987 0.54337007 0.47450745 0.096809216 0.7834421
-0.5768419 -0.34683698 0.12647018 -0.14016616 0.33392105 0.6576313 0.5651956 0.3914388
-0.39726475 0.19271973 0.3438532 0.2963389 -0.58802015 -0.25488484 -0.33111027 0.11349138
-0.36864588 -0.2996899 0.37137708 0.67059124 0.884559 0.46915042 0.35444197 -0.069346026
0.26553166 0.3668616 0.020607734 0.48545724 0.08057407 0.49351802 0.40362024 0.17983876
-0.11094461 0.0016593898 -0.047307618 -0.11619794 -0.14960827 -0.077091694 -0.2267462 0.26052403
-0.29842547 0.071570866 0.36954167 -0.28513807 0.1902647 -0.21641849 -0.40038723 -0.16829374
0.05802701 -0.05421087 -0.09346389 -0.28607526 0.1582379 -0.25786996 0.6238592 0.06517632
-0.4736582 0.14600421 -0.21984269 0.04933459 -0.07943866 0.05749192 0.113282606 0.21674813
0.2799263 0.20224978 -0.40317547 -0.17584237 0.100235395 0.10961888 -0.23754542 -0.20389786
0.2624893 0.16848125 -0.0037240223 -0.060669094 0.17651303 -0.18505062 0.5589406 0.40483943
0.13637066 -0.52494776 -0.36866823 -0.7847267 -0.047970857 -0.09033909 -0.8827991 0.3207894
0.99776673 0.70336884 -0.21260059 0.06692158 -0.2535547 -0.14694545 0.4352914 -0.09571699
0.19327071 0.1715661 -0.45035717 0.17011042 0.6140288 0.24473768 0.37851456 -0.66211426
0.22571659 -0.111939676 -0.1128845 0.17179096 -0.19939198 0.47862047 -0.11416763 0.1417674
0.09067366 0.01438169 -0.09121555 0.02589793 0.722797 -0.045764364 0.2971912 0.19194718
0.64848644 0.25545105 -0.12586848 0.019895615 0.19937621 0.20485704
00000000: 4a61 0dbf eafd d8bd 60a4 debe 43a4 af3e
00000010: e1e1 e53d 016d da3e e0b5 88be 68aa 033e
00000020: 9ae3 a3be 3a28 8f3e 9f60 323e 9239 6e3e
00000030: 67cc a3bd c141 97be df29 01bf 38a7 413f
00000040: d6b4 e53d 4b08 673e 4d0c 93be cb75 803e
00000050: 4d1a 0b3f a4f2 f23e e943 c63d a98f 483f
00000060: e9ab 13bf 9e94 b1be 6681 013e b887 0fbe
00000070: b3f7 aa3e 865a 283f a9b0 103f ab6a c83e
00000080: 4966 cbbe 5258 453e 870d b03e bbb9 973e
00000090: 7d88 16bf 4480 82be 4987 a9be 2b6e e83d
000000a0: 27bf bcbe f470 99be 2325 be3e deab 2b3f
000000b0: 7572 623f 7c34 f03e 6b79 b53e 4a05 8ebd
000000c0: c4f3 873e 49d5 bb3e 8dd1 a83c da8d f83e
000000d0: 0504 a53d 65ae fc3e 50a7 ce3e a727 383e
000000e0: ed36 e3bd e27f d93a a2c5 41bd 30f9 edbd
000000f0: e932 19be 40e2 9dbd 2830 68be 6863 853e
00000100: 39cb 98be bf93 923d 9134 bd3e 9efd 91be
00000110: c0d4 423e cf9c 5dbe 8eff ccbe 3255 2cbe
00000120: bbad 6d3d 380c 5ebd ff69 bfbd 7578 92be
00000130: 1e09 223e 8807 84be 3db5 1f3f 2a7b 853d
00000140: 5483 f2be 2182 153e 711e 61be 1113 4a3d
00000150: bcb0 a2bd a67c 6b3d b600 e83d 39f3 5d3e
00000160: 8052 8f3e 911a 4f3e 046d cebe 0610 34be
00000170: 3748 cd3d dd7f e03d 1b3f 73be 9aca 50be
00000180: ff64 863e 5986 2c3e ba0e 74bb 2880 78bd
00000190: d5bf 343e e97d 3dbe bb16 0f3f 1d47 cf3e
000001a0: c0a4 0b3e fa62 06bf 15c2 bcbe d9e3 48bf
000001b0: 177d 44bd b303 b9bd 1fff 61bf 823e a43e
000001c0: a46d 7f3f fb0f 343f f8b3 59be 2e0e 893d
000001d0: ecd1 81be de78 16be 84de de3e 4507 c4bd
000001e0: c2e8 453e 06af 2f3e 3795 e6be 6d31 2e3e
000001f0: fe30 1d3f 849c 7a3e a9cc c13e 5280 29bf
00000200: 4022 673e a140 e5bd fd2f e7bd f8e9 2f3e
00000210: 692d 4cbe be0d f53e b8d0 e9bd 792b 113e
00000220: 1db3 b93d 2ea1 6b3c 38cf babd e527 d43c
00000230: 3909 393f 6a73 3bbd 7229 983e cd8d 443e
00000240: 3503 263f 7bca 823e abe3 00be 21fc a23c
00000250: 4729 4c3e 0bc6 513e

linears.4.bias f4 [3]
0.022851204 -0.029267332 -0.49784803
00000000: 7332 bb3c 0bc2 efbc f0e5 febe

exp_avg f4 [50, 2]
-0.0012536813 0.000112379086 -0.0016863026 0.0019122796 -0.0009254856 0.0004837283 -0.0016003362 0.0011219739
-0.001022207 0.00032349632 0.0011180093 -0.00028942997 -0.0021269585 0.002039058 -0.0014046547 0.00018950425
0.0022350827 -0.0014274492 -0.00089973275 0.000674442 -0.0014835832 0.0003052962 0.00059969205 -0.0007419054
-0.0027534373 0.0026864284 -0.0007308868 0.0002182746 0.0039335866 -0.004571337 2.894762e-05 -0.00037396103
-0.0009834523 0.0012282123 0.00024480396 -0.001181627 0.0021260406 -0.0019323346 -0.00014752397 0.00012245002
0.0045093154 -0.0033823634 -0.0013249613 0.0015393065 0.00074272865 0.0004941836 -0.0018071294 0.0011106692
-0.0014193403 0.0011100421 0.0008378385 -0.00025663283 -0.0008187301 0.0007152956 -0.0016206081 0.0020386896
0.00012663384 -0.0018154212 0.0020504494 -0.002618503 3.475039e-05 0.00032442476 0.001854315 -0.00119472
0.00025290484 -3.2696702e-05 -5.127799e-05 0.000159325 0.0020803977 -0.0015207389 0.0004984451 -0.000765055
-0.0006437611 -0.0005352164 0.0005442888 0.00022158462 -0.0015396301 0.0018809761 5.6150957e-06 0.0007563424
-0.0017105234 0.00091420865 0.0012538203 -0.0011524245 -0.00066306506 0.0015227386 0.0006979032 -0.00087372476
-0.0026948387 0.002433636 -0.00023905416 4.444374e-05 0.002424001 -0.0021242218 0.0016924104 -0.0020633365
-0.0008156949 0.001484003 -0.0027393897 0.0015707735
00000000: 9052 a4ba 10ad eb38 ed06 ddba 75a5 fa3a
00000010: 4a9c 72ba ea9c fd39 5fc2 d1ba 320f 933a
00000020: 93fb 85ba f19a a939 2b8a 923a a2be 97b9
00000030: 7164 0bbb b7a1 053b 641c b8ba a9b5 4639
00000040: 777a 123b 3f19 bbba 0bdc 6bba 09cd 303a
00000050: cb74 c2ba 2a10 a039 a734 1d3a 6e7c 42ba
00000060: 0373 34bb ca0e 303b fc98 3fba a4e0 6439
00000070: 51e5 803b 27cb 95bb 8ad4 f237 3310 c4b9
00000080: 2fe7 80ba f7fb a03a 0859 8039 d3e0 9aba
00000090: 0b55 0b3b 6446 fdba aab0 1ab9 ed65 0039
000000a0: e1c2 933b a4aa 5dbb 53aa adba 8ec2 c93a
000000b0: adb3 423a 1a8c 013a 33dd ecba e093 913a
000000c0: 2809 baba d57e 913a 64a2 5b3a ad8c 86b9
000000d0: 0ca0 56ba ad82 3b3a 966a d4ba 899b 053b
000000e0: 03c9 0439 6df3 edba d560 063b 319b 2bbb
000000f0: f2c0 1138 8e17 aa39 7d0c f33a 2798 9cba
00000100: 5098 8439 d123 09b8 5313 57b8 7b10 2739
00000110: 4857 083b 8853 c7ba 16aa 023a f98d 48ba
00000120: 13c2 28ba c44d 0cba 9aae 0e3a 2b59 6839
00000130: 6acd c9ba 168b f63a 4e69 bc36 4745 463a
00000140: a433 e0ba 81a7 6f3a 3a57 a43a f30c 97ba
00000150: 8bd1 2dba a196 c73a 7ef3 363a ad0a 65ba
00000160: e49b 30bb a37d 1f3b 9daa 7ab9 1a69 3a38
00000170: fddb 1e3b 8736 0bbb dfd3 dd3a 0b39 07bb
00000180: 5cd4 55ba e182 c23a 5587 33bb 6ae2 cd3a

exp_avg_sq f4 [50, 2]
0.0033131747 0.0013239216 0.0058492417 0.0037106297 0.0043207267 0.0010099862 0.0013789135 0.002503182
0.002404307 0.0014358043 0.0026538589 0.00039267272 0.0058328537 0.0049847346 0.0033379735 0.0014008627
0.00439082 0.00411431 0.0016651328 0.0007299 0.0015742835 0.0027603419 0.000885483 0.00087989337
0.008676806 0.010769014 0.00061572174 0.0013049796 0.011901181 0.023515677 0.0010311466 0.0002129193
0.0037269464 0.0018403745 0.001015627 0.0015690167 0.0071703517 0.0048683924 0.0015106478 0.00044886637
0.029130904 0.017664682 0.0031214776 0.0043054977 0.0024511197 0.00018966926 0.0045945495 0.0033758387
0.0053361272 0.0029586789 0.00046716622 3.3315857e-05 0.007851409 0.0011564407 0.0032950558 0.0049130227
0.0016573524 0.0023922622 0.010062278 0.010112338 0.0021202688 0.0019548282 0.0021490827 0.002330616
0.00021397814 2.253072e-05 0.0008646999 0.00029042817 0.0035437732 0.0046273316 0.0074484833 0.001214729
0.0004796111 0.00043991694 0.0001498051 2.6266205e-05 0.005873485 0.0045109843 0.0007467409 0.00043663997
0.0037103014 0.003633251 0.0032900558 0.0025456038 0.0015711673 0.0018045873 0.0010995424 0.0015966154
0.00770361 0.0068947757 0.0005405206 0.00017942714 0.0057269162 0.007083575 0.0032320225 0.004800972
0.0022206749 0.0028325038 0.0053796708 0.0048445766
00000000: d921 593b 7087 ad3a ffaa bf3b 092e 733b
00000010: e294 8d3b 8361 843a a9bc b43a 6d0c 243b
00000020: 9491 1d3b 9931 bc3a 5dec 2d3b a4df cd39
00000030: 8621 bf3b fc56 a33b e7c1 5a3b 279d b73a
00000040: dee0 8f3b 55d1 863b 9640 da3a c356 3f3a
00000050: 3058 ce3a dae6 343b c21f 683a a5a8 663a
00000060: 2a29 0e3c 8570 303c 6368 213a d90b ab3a
00000070: 2cfd 423c f3a3 c03c 8a27 873a 1743 5f39
00000080: c93f 743b b938 f13a c91e 853a 77a7 cd3a
00000090: 45f5 ea3b 0987 9f3b ee00 c63a d355 eb39
000000a0: efa3 ee3c 86b5 903c b491 4c3b 2215 8d3b
000000b0: f7a2 203b f4e1 4639 e08d 963b 2d3d 5d3b
000000c0: aeda ae3b 65e6 413b fded f439 a1bc 0b38
000000d0: 32a3 003c b693 973a ddf1 573b 6cfd a03b
000000e0: 853b d93a 80c7 1c3b 41dc 243c 38ae 253c
000000f0: 35f4 0a3b 931c 003b a0d7 0c3b 3fbd 183b
00000100: 525f 6039 5a00 bd37 07ad 623a 9c44 9839
00000110: a63e 683b dfa0 973b 6812 f43b 8b37 9f3a
00000120: 5074 fb39 a7a4 e639 0015 1d39 3f56 dc37
00000130: 5d76 c03b e1d0 933b efc0 433a d3ec e439
00000140: 8728 733b d61b 6e3b fa9d 573b 25d4 263b
00000150: a0ef cd3a e787 ec3a 851e 903a 8645 d13a
00000160: 916e fc3b 92ed e13b b9b1 0d3a 9b24 3c39
00000170: dba8 bb3b 551d e83b 57d0 533b 7951 9d3b
00000180: be88 113b 87a1 393b f347 b03b 41bf 9e3b

exp_avg f4 [50]
0.0024708554 0.0043403422 0.0017438829 0.0022250775 0.002807329 -0.0014590226 0.0043734205 0.0022371353
-0.0036959418 0.0019403815 0.0016669348 -0.0020924413 0.0061056507 -2.4175977e-05 -0.008206303 -0.00024003233
0.0034642657 -0.0019112758 -0.0047329348 -0.0012182968 -0.009977601 0.0035726328 -0.0005206267 0.0034603341
0.003554624 -0.00032497276 0.00330932 0.003253792 -0.0005797801 -0.0062959837 -0.0014896205 -0.0026851925
0.00031453616 -0.00071066787 -0.0034633006 -0.0029420094 -6.825976e-05 -0.00046889187 0.004194183 9.4103576e-05
0.0034261646 -0.0030879618 0.0006121078 -0.0025579468 0.0054840352 0.00097238447 -0.0042907437 -0.0046758656
0.0026755268 0.0040177307
00000000: 13ee 213b 6e39 8e3b 0093 e43a 9bd2 113b
00000010: 2afb 373b ad3c bfba e94e 8f3b e79c 123b
00000020: 9d37 72bb 6654 fe3a 0d7d da3a 5721 09bb
00000030: e911 c83b 84cd cab7 bb73 06bc 30b1 7bb9
00000040: bc08 633b c683 faba bc16 9bbb 42af 9fba
00000050: 1779 23bc d522 6a3b ab7a 08ba c6c6 623b
00000060: b2f4 683b 1b61 aab9 2de1 583b 923d 553b
00000070: 62fc 17ba 8a4e cebb 5f3f c3ba 0efa 2fbb
00000080: 54e8 a439 1d4c 3aba 8bf8 62bb bace 40bb
00000090: ae26 8fb8 9ad5 f5b9 5b6f 893b 7959 c538
000000a0: 8189 603b 675f 4abb dc75 203a 3aa3 27bb
000000b0: 6cb3 b33b 9ee7 7e3a 5e99 8cbb 0138 99bb
000000c0: e457 2f3b 2ba7 833b

exp_avg_sq f4 [50]
0.0038051829 0.009102997 0.0025557633 0.0029853405 0.00496494 0.0014734617 0.009031443 0.0043070884
0.008279426 0.002473758 0.0041794307 0.003366973 0.020936072 0.00247266 0.034538954 0.00050936785
0.006172724 0.0034204882 0.012669351 0.0013226661 0.05559715 0.009826868 0.00032835835 0.007355095
0.006838097 0.00022285244 0.005454383 0.0071919695 0.0019059471 0.023168156 0.005511082 0.0028925268
0.00030390456 0.00036738688 0.0075531555 0.0042955694 0.0007025289 0.0002265218 0.0077200755 0.00019741665
0.008524496 0.0047235093 0.0011986186 0.002614624 0.013277407 0.0015197712 0.011081214 0.012979583
0.004192825 0.008654606
00000000: 6060 793b bd24 153c 987e 273b b4a5 433b
00000010: efb0 a23b 2c21 c13a 9ef8 133c 7a22 8d3b
00000020: 6ea6 073c c61e 223b 9bf3 883b 6fa8 5c3b
00000030: 2082 ab3c 5a0c 223b b878 0d3d 1987 053a
00000040: 9044 ca3b 452a 603b 1c93 4f3c 4f5d ad3a
00000050: d6b9 633d df00 213c 8327 ac39 0203 f13b
00000060: 1d12 e03b 7fad 6939 aeba b23b 9daa eb3b
00000070: f9d0 f93a 25cb bd3c 4e96 b43b 8c90 3d3b
00000080: 6155 9f39 d59d c039 7680 f73b d9c1 8c3b
00000090: eb29 383a 7c86 6d39 b0f8 fc3b a101 4f39
000000a0: 54aa 0b3c abc7 9a3b f71a 9d3a 1d5a 2b3b
000000b0: 7b89 593c 0f33 c73a fb8d 353c 51a8 543c
000000c0: f763 893b 0ccc 0d3c

exp_avg f4 [50, 50]
-1.6417036e-05 -3.5856683e-05 2.3157974e-05 3.9615672e-05 -2.213204e-05 -6.819659e-06 -2.9246937e-06 -1.2938128e-06
-4.619257e-05 -2.951191e-05 5.4914388e-05 2.9616185e-05 -1.348551e-05 9.159802e-05 -7.970612e-05 -1.3553044e-05
-5.2556257e-05 6.9750284e-05 -2.8744596e-05 9.2809714e-05 -2.7779333e-05 5.9967488e-06 2.1089661e-05 -1.4426762e-05
-2.0381889e-05 -4.921149e-05 -4.310078e-05 1.20751e-05 -1.9106648e-05 4.8490212e-05 7.0457696e-05 -6.3938576e-05
-6.434955e-05 4.040919e-05 -2.3519047e-05 4.130886e-05 3.652617e-05 -2.2671233e-05 -4.1154726e-05 3.2866745e-05
5.537815e-06 1.6941522e-05 6.463715e-05 2.9853718e-05 2.0882617e-06 -2.9831937e-05 -8.250294e-05 2.4392091e-05
1.4668954e-06 9.302756e-05 -7.939162e-07 -0.0001539786 -0.0007550998 -0.00021963527 -0.00015868773 0.0003379416
-8.5167805e-05 -0.0002632516 0.00018975143 -0.000245143 -0.00015747956 0.0002199765 -0.00023981828 2.9823655e-05
-0.0004955783 0.00042275526 -0.00010277943 -0.00041501247 -0.00059997773 8.013497e-05 -0.00074553414 -0.00041496486
0.0003365385 -0.00017081725 -8.25539e-05 -0.000110230096 0.0001703272 0.00033823782 0.0003332914 0.00019691451
0.00014164935 0.0002051052 -7.1558694e-05 9.5783944e-05 0.0002281079 -2.8640693e-06 1.9327967e-05 7.984814e-05
-0.0001404612 -7.743663e-06 -0.00019343355 0.00021279522 -4.529264e-05 9.204199e-05 -0.00017492364 -0.00027595548
0.00015283067 0.00022222687 -0.00015184633 -0.00020671758 0.00021850181 -0.00022593512 -0.0029558397 -0.0011116028
-0.00037711786 0.0012078743 -0.00021924093 -0.00086918625 0.0009829919 -0.0005989627 -0.0009861912 0.0005794169
-0.00072616653 -0.0006755101 -0.0010532894 0.0017252683 7.703702e-05 -0.0018547472 -0.001884288 -0.0005608548
-0.0023300697 -0.001532902 0.000977356 -0.00045884657 -5.79472e-05 -7.564065e-05 0.0010382741 0.0010444081
0.0015286022 0.00030150972 -0.00011020456 0.0010762229 0.0001901099 -2.3249388e-05 0.0009547552 -0.00041027178
-0.00014262393 0.00036442984 -0.00013642412 -0.00039785792 -0.0007039406 0.0005800052 -0.0008302233 8.690365e-05
-0.00059902057 -0.0007728317 0.0011497024 0.0006133678 -0.00050567894 -0.0013483753 -2.5438629e-05 -0.00015385852
-0.0010913617 -0.00039554492 -0.00017919365 0.0005309841 -0.00015720502 -0.0004116494 0.00041616714 -0.00030343988
-0.00037040707 0.0002199217 -0.0003220004 -0.0001932548 -0.00054157746 0.00055768224 -2.4849025e-05 -0.00080618035
-0.000818071 -0.00010837906 -0.0010256445 -0.0005992739 0.0004675314 -0.00023220529 -0.00011963355 1.4625462e-06
0.00028319075 0.00049506786 0.0004035956 0.00016596545 4.1712476e-05 0.00050283177 9.159491e-05 6.3619285e-05
0.00040944733 -5.8992464e-05 -0.000106155465 0.00022547369 -0.000118957556 -1.8739915e-05 -0.00030893675 0.00029197522
-0.00014963053 5.6831486e-05 -0.0002812135 -0.00030518393 0.00045161333 0.0002443963 -0.000252846 -0.0005656416
0.00017919246 9.2997136e-05 -0.00031289872 -0.0001635178 2.6888622e-05 1.1032409e-05 8.309153e-05 3.607542e-05
5.8832007e-05 7.1053284e-05 -0.00012828448 3.8056336e-05 5.385877e-06 -0.00019195577 0.00019149634 0.00030890034
0.00010815593 -6.388486e-05 3.0327794e-05 -0.000231893 7.913899e-05 -0.00011806007 -6.576946e-05 4.560955e-05
0.0001409177 -2.1165128e-05 0.00026967275 -6.095466e-05 0.00041632808 -7.077889e-05 -0.00016047532 2.8062402e-06
2.426119e-05 -0.00012359487 3.796591e-05 -0.00019174218 3.971117e-05 -7.8029036e-05 0.00010253971 -0.00023994833
-1.1809595e-05 -5.6963654e-05 -0.00033277014 -4.010514e-05 1.7516477e-05 -3.661435e-05 0.00013008424 2.7646573e-05
3.5949313e-05 -0.000101905796 8.628933e-05 1.2761049e-05 -0.00029120082 -0.000115040595 -1.894702e-05 6.6112814e-05
00000000: 51b7 89b7 d264 16b8 5f43 c237 0129 2638
00000010: 32a8 b9b7 6dd4 e4b6 db45 44b6 12a7 adb5
00000020: e5be 41b8 5890 f7b7 e053 6638 4670 f837
00000030: d33f 62b7 5018 c038 e627 a7b8 e161 63b7
00000040: da6f 5cb8 e646 9238 8d20 f1b7 d6a2 c238
00000050: aa07 e9b7 ae37 c936 b4e9 b037 790a 72b7
00000060: c6f9 aab7 6f68 4eb8 1cc7 34b8 2996 4a37
00000070: 3747 a0b7 f861 4b38 b0c2 9338 c316 86b8
00000080: 67f3 86b8 0a7d 2938 c54a c5b7 0d43 2d38
00000090: ad33 1938 1a2e beb7 8d9d 2cb8 66da 0938
000000a0: 78d1 b936 a41d 8e37 ce8d 8738 5f6e fa37
000000b0: 1024 0c36 993f fab7 6e05 adb8 9e9d cc37
000000c0: 24e2 c435 ca17 c338 811d 55b5 5175 21b9
000000d0: e4f1 45ba e54d 66b9 6a65 26b9 c12d b139
000000e0: 1e9c b2b8 0805 8ab9 03f8 4639 8986 80b9
000000f0: 1921 25b9 7ea9 6639 bb77 7bb9 d02d fa37
00000100: b2e9 01ba 40a5 dd39 498b d7b8 0896 d9b9
00000110: d347 1dba 220e a838 f36f 43ba a48f d9b9
00000120: 6f71 b039 681d 33b9 ca20 adb8 552b e7b8
00000130: dc99 3239 8355 b139 9dbd ae39 d67a 4e39
00000140: b587 1439 8211 5739 c811 96b8 9ddf c838
00000150: 4030 6f39 5634 40b6 7e22 a237 2574 a738
00000160: c448 13b9 c8ea 01b7 6cd4 4ab9 c821 5f39
00000170: 9af8 3db8 ab06 c138 b56b 37b9 1eae 90b9
00000180: 2c41 2039 9205 6939 f038 1fb9 54c2 58b9
00000190: a21d 6539 ffe8 6cb9 c3b6 41bb 33b3 91ba
000001a0: e7b7 c5b9 8951 9e3a 0ae4 65b9 1ada 63ba
000001b0: bcd7 803a b503 1dba 1643 81ba 03e4 173a
000001c0: 365c 3eba b714 31ba 870e 8aba 6622 e23a
000001d0: ef8e a138 fd1a f3ba 37fa f6ba 5406 13ba
000001e0: 15b4 18bb a8eb c8ba a01a 803a 5891 f0b9
000001f0: 550c 73b8 44a1 9eb8 b316 883a 85e4 883a
00000200: 615b c83a f313 9e39 9f1d e7b8 0c10 8d3a
00000210: 3d58 4739 ae07 c3b7 8948 7a3a bf19 d7b9
00000220: 528d 15b9 f210 bf39 120d 0fb9 9697 d0b9
00000230: a788 38ba 7d0b 183a 58a3 59ba 0b40 b638
00000240: 9707 1dba dc97 4aba 9cb1 963a 6bca 203a
00000250: 8a8f 04ba f8bb b0ba 0a65 d5b7 1555 21b9
00000260: 060c 8fba 2461 cfb9 eee5 3bb9 bd31 0b3a
00000270: 67d7 24b9 a6d2 d7b9 0231 da39 0317 9fb9
00000280: 3233 c2b9 c89a 6639 29d2 a8b9 71a4 4ab9
00000290: a6f8 0dba 6c31 123a e072 d0b7 d955 53ba
000002a0: d173 56ba 9149 e3b8 eb6e 86ba 9718 1dba
000002b0: 011f f539 227c 73b9 c6e3 fab8 b44c c435
000002c0: 3879 9439 71c7 013a af99 d339 0307 2e39
000002d0: 6ef4 2e38 78d0 033a a516 c038 586b 8538
000002e0: 17ab d639 ad6e 77b8 c89f deb8 226d 6c39
000002f0: da78 f9b8 a933 9db7 caf8 a1b9 4014 9939
00000300: 24e6 1cb9 585e 6e38 d66f 93b9 1801 a0b9
00000310: 84c6 ec39 5122 8039 6a90 84b9 9147 14ba
00000320: 9ce5 3b39 7507 c338 8e0c a4b9 fa75 2bb9
00000330: e08e e137 d617 3937 6d41 ae38 b04f 1738
00000340: 63c2 7638 7102 9538 1a84 06b9 ae9e 1f38
00000350: 55b8 b436 bc47 49b9 68cc 4839 e7f3 a139
00000360: c6d1 e238 ecf9 85b8 7168 fe37 4e28 73b9
00000370: 6cf7 a538 0497 f7b8 b6ed 89b8 e24c 3f38
00000380: 4fc3 1339 c48b b1b7 dd62 8d39 91a9 7fb8
00000390: 9c46 da39 216f 94b8 4445 28b9 d752 3c36
000003a0: 8284 cb37 3f99 01b9 963d 1f38 660e 49b9
000003b0: 8b8f 2638 85a3 a3b8 960a d738 a49a 7bb9
000003c0: d321 46b7 42ec 6eb8 a777 aeb9 9136 28b8
000003d0: 59f0 9237 5c92 19b8 3967 0839 90ea e737
000003e0: 48c8 1638 42b6 d5b8 3bf6 b438 4a18 5637
000003f0: 50ac 98b9 f341 f1b8 6af0 9eb7 0ca6 8a38
