models/onlyadam/ckpt/ckpt-24000.pt (torch, 106859 bytes, 30 tensors)

linears.0.weight f4 [50, 2]
000000 11 d2 0f 3e 29 99 97 be 1d d1 c4 bd e9 d3 8f be
       0.14044978 -0.2960904 -0.09610198 -0.28091362
000010 0c 04 1c be 27 b1 7c be e8 2e b7 3d d9 cc 3f 3d
       -0.15235919 -0.24676953 0.089444935 0.046826217
000020 72 b3 b8 bd d4 11 38 be a7 a8 d7 bd 1f 83 9d 3e
       -0.090186015 -0.17975551 -0.10530215 0.307641
000030 11 01 e9 3d 2a 61 5e be b5 03 c9 3d dd bd 9e be
       0.113771565 -0.21716753 0.0981516 -0.3100423
000040 ad 03 8f be 67 26 da 3d 3a 86 6f bd 52 a9 ab be
       -0.27932492 0.10651856 -0.058477618 -0.3352762
000050 d9 d5 79 3e b9 a0 16 3d 42 54 65 3e 68 cd 01 3e
       0.24397983 0.03677437 0.22395423 0.12676013
000060 85 1c 30 bd 62 7f 68 be 7e ad d8 3e 33 cc 9a 3e
       -0.04299595 -0.22704843 0.42319864 0.30233917
000070 75 3f 20 be 96 7d 51 bf bf 7d 94 3e ae 4b 03 be
       -0.15649207 -0.81832254 0.29002187 -0.12821838
000080 a8 19 57 be 81 b1 7e be bc 8f fe 3e d8 5c b2 be
       -0.21005881 -0.248724 0.49719036 -0.3483646
000090 db ef 0b 3d 2b ad 29 bf 03 22 c6 3e fb 57 da 3e
       0.03416429 -0.6627986 0.38697824 0.4264525
0000a0 d3 23 81 3e f9 e3 7d bf f3 4e 44 bd 3c 60 4f be
       0.25222644 -0.99175984 -0.047926854 -0.20251554
0000b0 42 32 ca bc 6b 2f d9 3e 71 d1 b0 bb 9a 50 69 be
       -0.024682168 0.4241899 -0.005396061 -0.22784653
0000c0 59 fc 94 3d 71 c7 9b be 40 1d b4 be f0 51 15 bd
       0.07274694 -0.304256 -0.35178566 -0.036455095
0000d0 df 57 33 3d be a1 8f be cb 83 ad bd 14 20 d8 3e
       0.043784972 -0.28053087 -0.08472403 0.42211974
0000e0 03 4b e3 3e 94 ad e1 be 6a 7c 59 3e 3c 57 8e 3e
       0.44393167 -0.44077742 0.21238866 0.2780093
0000f0 ab a3 8a 3e b7 ea bc 3e 50 0e f5 be a5 7f 70 3e
       0.27077994 0.36897823 -0.47862482 0.23486193
000100 fe b7 cf be c4 43 8e bd ea f4 c5 3d 4f d6 8c 3e
       -0.40570062 -0.06946519 0.09665854 0.27507254
000110 cb 64 1f be 2f fb 27 3e 50 88 db 3c 93 8a 99 3e
       -0.15565793 0.16404413 0.026798397 0.29988536
000120 5f 2f 9c 3e 85 89 8f bd 35 25 91 be 79 e6 5e 3e
       0.3050489 -0.07008652 -0.283487 0.21767606
000130 9e 20 00 be 55 f4 8f be ed 59 de bd 6f ce c6 3e
       -0.12512442 -0.28116098 -0.10856996 0.3882937
000140 41 d9 6d 3d 37 cf 27 be 06 2c 73 bb 91 8b 92 3e
       0.058068518 -0.1638764 -0.0037105097 0.28622106
000150 c9 74 cb 3c cf 71 03 3f 2e 0d 10 3e a3 f6 0a 3e
       0.024835961 0.51345533 0.14067528 0.13570647
000160 80 64 94 3d 7b 73 46 be e0 66 59 be ac 02 3c be
       0.07245731 -0.1937999 -0.2123065 -0.18360394
000170 3b 2a e4 be 9f e9 cb bc 67 1a 31 3e 3f be 18 3e
       -0.4456347 -0.024891673 0.17295228 0.14916323
000180 35 2b ba 3d c5 b8 4f be df 77 0f 3f 19 40 b2 bd
       0.09090272 -0.20285328 0.56042284 -0.08703632

linears.0.bias f4 [50]
000000 37 30 7b 3e c0 31 74 3d 89 73 f1 be d7 34 2c be
       0.24530111 0.059617758 -0.4715846 -0.16817032
000010 84 8a 3f bc 6f d1 9a 3a 07 ee f8 3d ec da 59 3d
       -0.01169074 0.0011811684 0.12154775 0.053187296
000020 62 9d 60 bc 99 a5 2a 3d c7 29 98 bd 78 c5 05 3e
       -0.013709398 0.041661832 -0.074298434 0.1306361
000030 c8 fa d5 bc d2 4d a6 bd f4 75 14 3e 2f 43 f5 3e
       -0.026120558 -0.08120312 0.1449812 0.4790282
000040 b2 7f 32 3d e8 85 a6 3d e4 42 7c 3b cd 34 0e be
       0.04357881 0.08131009 0.0038492018 -0.1388733
000050 94 12 0b 3e 4f 46 35 be 38 39 6d bd db 84 0f 3d
       0.13581306 -0.17702602 -0.057915896 0.03503881
000060 6c dd 31 3e eb 34 13 be c0 4c aa 3e 3c 09 98 bd
       0.17369622 -0.14375655 0.3326168 -0.07423636
000070 a0 c6 2d 3f ab 98 b2 3b 77 72 a8 bd c2 5d 18 be
       0.678812 0.0054503283 -0.082249574 -0.14879516
000080 6b f5 df bd 21 da c4 bd aa db fb 3b f7 87 52 be
       -0.10935482 -0.09611917 0.007686098 -0.20559679
000090 5e 02 13 3e 04 c2 31 be 7c 37 7f 3d df e5 9d be
       0.14356372 -0.17359167 0.062308773 -0.3083944
0000a0 1b f3 11 bc 0e e8 43 bd 66 b4 c9 be e7 11 08 3c
       -0.0089080585 -0.047828726 -0.39395446 0.0083050495
0000b0 32 e7 f1 3c e0 98 04 be bc 03 0c 3c 6f ad d2 3d
       0.029529188 -0.12948942 0.008545812 0.10286986
0000c0 e9 92 66 3d 75 8d 84 3d
       0.05629245 0.06472293

linears.1.weight f4 [50, 50]
000000 75 a6 68 3e 78 51 fe 3c fc 6a 0b bf df b9 19 bd
       0.22719748 0.031044707 -0.5446012 -0.037530776
000010 fc ff 90 be 11 49 b3 3d c8 3d 17 bb bb 9d 23 be
       -0.283203 0.08754171 -0.0023077596 -0.15978138
000020 b1 49 0a 3e 8f 91 f8 bd 19 b6 00 be 24 37 db 3e
       0.13504674 -0.12137138 -0.12569465 0.42815506
000030 19 da 51 bd 7f 07 4f 3d 87 fa 7c bc 79 86 ad 3e
       -0.051233385 0.05054426 -0.01544059 0.33891657
000040 42 4b 1a 3e 4f 2a 4f be 7a d8 2b be 2d 5e 21 3d
       0.15067771 -0.20230983 -0.16781798 0.039396454
000050 47 2a c1 bd 90 5d c3 be 5a 04 57 3e 35 66 20 be
       -0.09431892 -0.3815732 0.20997754 -0.15663989
000060 da 9c f6 3d 3b 5b 90 bd d4 45 bd 3e e8 94 66 3e
       0.12041636 -0.07048651 0.36967337 0.2251774
000070 93 44 93 3e 51 c3 0e 3e 11 c8 cc 3d 7e e4 30 3e
       0.28763255 0.13941695 0.09999097 0.17274663
000080 2f af 96 3d 41 4e 78 3e 5f 13 e6 bc 0c 4f fd bd
       0.07357632 0.24248601 -0.028085409 -0.123685926
000090 44 33 ad 3e 71 6b a4 3e bd b0 f3 3d 57 ac 2e bd
       0.33828175 0.3211322 0.118989445 -0.042644825
0000a0 65 f8 6d bd df bb 96 3e f9 cd 26 be 11 4c 02 bd
       -0.058098216 0.2944021 -0.1628951 -0.031810824
0000b0 86 f0 4c 3e 62 b6 13 be 63 17 98 bd e8 5d 97 3d
       0.20013627 -0.14425042 -0.07426336 0.07390958
0000c0 bd 35 e4 3d 35 b9 e8 3d 4f d4 8d bc a2 a5 41 3c
       0.11143062 0.113634504 -0.01731315 0.011819275
0000d0 b0 7b 14 be 77 8f a6 be 82 a1 3b 3e 6d ec cb 3c
       -0.14500308 -0.3253133 0.18323329 0.02489301
0000e0 a8 42 05 3e b5 a5 17 3e 13 f5 7d bd 44 a3 a7 3d
       0.13013709 0.14809306 -0.0620013 0.08185437
0000f0 7e a8 a2 3d e9 52 8d 3c 37 4b a2 3e ee c6 0f be
       0.079422936 0.017251449 0.3169801 -0.1404073
000100 d7 2f 06 be 3f 59 1b be 1b 83 76 3d ad 4c 03 be
       -0.13104187 -0.15170763 0.060183626 -0.12822218
000110 bb 83 0a be 2f 01 72 be 46 40 83 be f8 a9 d9 bc
       -0.13526814 -0.23633264 -0.25634974 -0.026570305
000120 a1 6e d4 3d 25 3e 75 3e 49 18 69 3e 62 ee c1 3e
       0.10372663 0.23949488 0.2276317 0.37877184
000130 86 2a 74 3e ce 82 1b 3e 6d d8 98 3d e9 9d 37 be
       0.23844346 0.15186617 0.07463155 -0.17931332
000140 72 0a 2a be c8 d8 3b be 09 a1 1e 3d 7a 09 c7 3d
       -0.16605547 -0.18344414 0.038727794 0.097186044
000150 dc 30 5d be 60 16 a7 bd 7c b9 02 be 77 bb 77 3d
       -0.2160067 -0.081585646 -0.12766069 0.060481515
000160 d0 9b 01 3d 75 b4 81 bd e2 d4 9a 3e c9 a5 14 be
       0.031642735 -0.063332476 0.30240542 -0.14516367
000170 24 35 ea 3d 80 0f 4b be 39 f9 cb 3d 25 94 d0 3d
       0.11435917 -0.19830132 0.09959645 0.10184506
000180 1d 22 fc 3d 05 92 88 bd d1 2d 88 3d 7a 8f f4 bc
       0.12311194 -0.06668476 0.06649364 -0.029853571
000190 eb d4 86 3e 63 b6 74 bb a4 27 f7 b9 72 e3 ba 3b
       0.2633432 -0.0037340156 -0.00047141046 0.005703383
0001a0 89 29 f0 3d 10 14 8a bd cf 53 cb bd 8f 96 3e 3e
       0.11726672 -0.06742108 -0.099280946 0.18612121
0001b0 02 2f ee bd 48 d8 78 be c5 8a 61 bd 8e f0 68 be
       -0.1163006 -0.24301255 -0.05506398 -0.22748014
0001c0 c9 c5 10 3e 73 06 d1 bd 26 41 a2 bd c5 d3 63 ba
       0.14137949 -0.10206308 -0.07922582 -0.0008690919
0001d0 92 8d 2d 3e 23 a2 a7 bc ba a9 1c 3b bd 46 b4 bd
       0.16948536 -0.020463055 0.0023904876 -0.08802555
0001e0 fc ae a2 be 89 2a 99 3d ce c7 53 bc 8c 06 bb 3d
       -0.31774127 0.07478816 -0.012926055 0.09132108
0001f0 0c 82 3d 3e 57 0a 82 3d 02 69 26 3d 5c 70 26 3e
       0.1850664 0.063496284 0.040627487 0.16253799
000200 63 a4 d5 3d dd 0d 5b be e7 48 6a be e4 c4 07 be
       0.10431745 -0.21392007 -0.22879373 -0.13258702
000210 62 9d 16 3e 45 38 81 3d 0d ba 59 3b 6d 46 1e be
       0.14708474 0.06309561 0.0033222467 -0.15456553
000220 cb 83 80 bd da 57 48 be a1 c5 85 3c ce 5b 9b bd
       -0.062751375 -0.19564763 0.016329588 -0.0758587
000230 0c 1d 99 bc 1e 2c e8 bd a0 4f c6 bc 2a 3f eb bd
       -0.018690608 -0.1133654 -0.02420789 -0.11486657
000240 27 3a 3e 3d 6c cb 0c be c1 d8 d3 3d 7c be 50 bd
       0.046442177 -0.13749474 0.10344077 -0.05096291
000250 c4 ed 39 3e 87 b6 78 3e c4 4a 81 be af ac cf 3c
       0.18157107 0.24288379 -0.25252354 0.025350897
000260 99 2d d3 3d 45 82 d1 3d 36 64 5a 3e 66 fe dd bd
       0.103114314 0.10229925 0.2132729 -0.10839538
000270 30 31 4b 3e 65 71 2b 3e 4b c1 fd bd 75 6d 5f 3e
       0.19842982 0.16742475 -0.12390383 0.21819098
000280 ff 34 b1 3d 2b 3b c9 bd 90 43 9a 3d ca 7c 75 bd
       0.08652686 -0.098257385 0.07532418 -0.05993346
000290 d1 2a 36 be 9d 83 8f 3d a4 28 09 3e 12 b0 78 3e
       -0.1778977 0.07007525 0.1339441 0.24285915
0002a0 6d 89 0a 3e 8a 4f d3 bd fd 39 74 3d a4 00 1b bb
       0.13528986 -0.10317905 0.059625614 -0.0023651505
0002b0 7e 33 4d 3d 9b bb 6c be b3 36 98 bd 18 ae 1d be
       0.050097935 -0.23118441 -0.07432308 -0.15398443
0002c0 f6 48 0f 3e 0a 4b 09 be 7b fd 9c bd 0a 9c 89 3e
       0.13992676 -0.13407531 -0.07665535 0.2687686
0002d0 1c df 68 3e 1c f8 4f be 4c b5 06 3d 7b 63 6b 3e
       0.2274136 -0.2030949 0.032887742 0.22987168
0002e0 e2 cc 7d 3e e4 23 f4 bc dc 49 3d 3d fb 09 2a bd
       0.24785188 -0.02980227 0.046213016 -0.041513424
0002f0 08 a1 7b 3e b4 6e 86 be 73 af 41 3d d5 65 4a be
       0.24573147 -0.26256335 0.047286462 -0.19765408
000300 82 02 1b be 37 21 70 be a0 f6 08 3e 28 97 d0 bd
       -0.15137675 -0.2345017 0.1337533 -0.10185081
000310 f0 d5 7c 3e 55 80 00 be 98 31 d1 bd 7e e7 9a bd
       0.24690986 -0.12548955 -0.102145374 -0.07563685
000320 35 85 68 bb 1e c9 18 3e 38 8d 82 3e 61 98 d1 bc
       -0.0035479788 0.1492047 0.25498366 -0.025585355
000330 2f ea 75 3e 49 7b ad bc ef ff 6e bc fd c2 6c 3d
       0.24015115 -0.021176951 -0.0145873865 0.057803143
000340 6d 13 24 be cd cd bf bd 15 fc 62 3d 38 29 77 bc
       -0.16023035 -0.09365425 0.055416185 -0.015085511
000350 1d cb 20 3e 3e ec 69 3d 2e 35 3d be 4b a9 40 bd
       0.15702482 0.057110064 -0.18477318 -0.04703645
000360 6a 6d 86 3d 33 31 0e 3d 3d 95 a1 bd 38 93 39 be
       0.06563838 0.03471489 -0.07889793 -0.18122566
000370 a6 9f 86 be e9 a4 ba 3d 64 a2 e6 bd 11 12 8f 3d
       -0.26293677 0.09113485 -0.11261442 0.06985868
000380 84 1b 04 3c 87 8a d8 bd 8c d7 3a be fd 63 0c be
       0.008063201 -0.10573297 -0.18246287 -0.13710018
000390 88 79 f7 ba 03 01 24 be 55 2c 15 be d7 66 5f 3e
       -0.0018880824 -0.16016011 -0.14567693 0.21816574
0003a0 3a 1c e1 bc d6 bd c1 bc cb 9e e2 3c 80 4f 93 bd
       -0.02747928 -0.023650091 0.027663609 -0.07192898
0003b0 b1 68 2e be bc b9 46 3e a9 45 00 3e 34 2d 8c bd
       -0.17032124 0.1940679 0.12526573 -0.06844559
0003c0 06 14 bb 3e 9e df 09 3d cb 11 75 3d 51 cc 62 be
       0.36538714 0.033660524 0.05983142 -0.22148253
0003d0 f2 0c 9f bc aa e8 46 3e 3e 2f 00 3e a5 d1 1e be
       -0.019415352 0.19424692 0.12518021 -0.1550966
0003e0 d1 d8 60 3d 1c a2 53 bd 2b 24 2f 3d e9 d3 67 3d
       0.054894272 -0.05166827 0.0427591 0.056598578
0003f0 8c 93 c4 3e fb 1b 05 be a2 73 f5 3e ee c9 5b bd
       0.3839382 -0.12998955 0.47939783 -0.053659372

linears.1.bias f4 [50]
000000 28 87 4d 3e 79 e7 24 bc 6c 10 d1 bc 36 0e 20 bd
       0.2007109 -0.010064953 -0.025520526 -0.039076053
000010 5f f5 f0 bd 0f 9a bf bd 55 3d 4f be d8 8e 1d bd
       -0.11765551 -0.09355556 -0.2023824 -0.038466305
000020 17 d1 a3 3b 5b b1 46 3d aa b0 9f 3d b3 2e 11 bd
       0.0049992907 0.048508983 0.07797368 -0.035444926
000030 6c b3 43 3e 28 e2 5d 3d e4 2c 8d 3c 44 bb e7 3d
       0.19111413 0.054170758 0.01723332 0.11315015
000040 b4 f6 6c 3e 75 a8 e0 3d 44 4d 00 3b 5c 9f 24 3d
       0.23140985 0.10969631 0.0019577304 0.04019104
000050 a7 e7 a6 bc 61 73 a2 3d 17 ad b6 bd ff 2e 2a bd
       -0.020374132 0.07932163 -0.08919733 -0.041548725
000060 4e 1e af 3d 26 56 96 3a 7c 16 8c bc b6 11 83 3e
       0.08550702 0.0011469766 -0.017100565 0.2559945
000070 f1 47 a9 bc 73 c0 aa be 6a 68 8d 3b 21 11 90 be
       -0.020664187 -0.33349952 0.0043154256 -0.28138068
000080 5f 8e bd 3b a1 38 44 bd c6 57 e9 bc 46 a5 85 3d
       0.005784794 -0.047905568 -0.028484236 0.06525664
000090 a3 7d c5 bc a4 57 00 3d 77 7d 22 be 4c d3 04 be
       -0.02410776 0.03133358 -0.15868174 -0.12971228
0000a0 5f 95 28 3d 26 07 18 bc 37 99 7e 3d 9e 3c ff 3d
       0.041158076 -0.009279048 0.062157836 0.12462734
0000b0 cd ca 22 bb 7e d6 25 bc e6 1c e1 3b c6 1d f0 3c
       -0.0024840117 -0.01012194 0.0068699 0.029311072
0000c0 01 42 f7 3d ac 82 e5 bd
       0.12073136 -0.11206564

linears.2.weight f4 [50, 50]
000000 bd 8e b1 3d dd b4 ee 3d 9a 7d 39 3d 38 34 57 3e
       0.08669803 0.11655591 0.0452858 0.21016014
000010 b6 c6 d8 be bf 9a c0 bc 9a df 9f bd 89 3c e7 bd
       -0.42339104 -0.023511289 -0.078063205 -0.11290843
000020 99 e4 69 be f5 22 b6 bd 40 e2 b1 bd f3 50 c8 3d
       -0.2284111 -0.08893386 -0.08685732 0.09781065
000030 bc 4d 85 3d 8a 7d a5 3e 28 6a ac 3d 7b d6 76 3e
       0.06508967 0.3232234 0.08418685 0.24105255
000040 ec 05 38 be 79 11 7d 3e 0e 31 cc bc e0 b5 43 3e
       -0.17971009 0.24713697 -0.024925735 0.19112349
000050 21 be 1c be 04 c4 c5 3d b6 12 b0 3c b1 3c 21 bd
       -0.15306903 0.09656528 0.021493297 -0.03936452
000060 23 ca 67 bd 6a 44 0b be 9a 7b 68 3c 92 70 3e bd
       -0.056589257 -0.13600317 0.014189625 -0.046494074
000070 15 67 07 3e 07 e8 7f 3c b3 77 33 be 3e 36 8f be
       0.13222916 0.0156192845 -0.1752613 -0.2797107
000080 a3 fd 49 bc 21 bc 11 bd c4 5f 14 3e 56 8a 4c 3e
       -0.012328538 -0.035579804 0.14489657 0.19974646
000090 e4 88 64 bd a6 a5 5c 3d c5 f0 74 be de 5a 43 3e
       -0.05579461 0.053868912 -0.23919971 0.19077632
0000a0 88 40 a6 bd 78 71 fb 3d d3 be 51 3e 21 0b ee 3d
       -0.08117777 0.12277502 0.2048295 0.116232164
0000b0 22 21 2f 3c 81 4f 02 3e 09 df 83 be b4 4d dc 3c
       0.010689052 0.12725641 -0.257561 0.02689252
0000c0 a5 01 54 3d 44 4d 0c bf 2e 5b 87 bd c3 32 1e be
       0.05175938 -0.548054 -0.06609188 -0.15449052
0000d0 30 b9 7f bd 3e df 38 be a8 79 28 be 0b a9 6f be
       -0.062432468 -0.1805391 -0.16452658 -0.23404329
0000e0 67 bf 51 be 57 64 ac 3c d3 e2 35 3e 24 5b 41 bd
       -0.2048317 0.02104394 0.17762308 -0.04720606
0000f0 21 3c 8e be a5 84 06 3f 84 4a c8 3e 53 49 ba 3d
       -0.2778025 0.5254615 0.3911935 0.09096017
000100 53 2e a0 3e d5 0e 66 be a6 63 80 be 85 fd 7a 3e
       0.31285343 -0.22466595 -0.25076026 0.24510773
000110 48 8c 02 3e 07 48 db bc fc da a1 bd e3 a5 20 be
       0.12748826 -0.026767744 -0.07903096 -0.15688281
000120 f1 9b 37 bd e6 be 10 be 93 ce a8 be 4f bb 46 ba
       -0.04482645 -0.14135322 -0.32970104 -0.0007581012
000130 46 0b 31 bb 07 15 7a bd ce 3c d2 bd 2d c4 06 bd
       -0.0027014776 -0.06105521 -0.10265504 -0.03290193
000140 97 31 31 be c4 13 9a be 67 72 47 bd d3 a3 a7 3d
       -0.17304073 -0.30093205 -0.048693087 0.08185544
000150 9d 96 8f 3e 6c 83 2b be 5d e1 39 3e 84 79 1a 3d
       0.28044596 -0.16749352 0.18152376 0.037713543
000160 96 a2 d9 be 9a 99 c1 3e 43 74 d9 bd 06 2e 42 be
       -0.42506856 0.378125 -0.10617878 -0.18962869
000170 39 72 fb 3d 65 1c d8 3c 59 69 5a be 5a ab 03 3d
       0.122776456 0.026380727 -0.2132925 0.032145835
000180 a0 d4 e0 3b 60 35 05 be 8b 1f 53 3e 3a 1e 77 3e
       0.0068612844 -0.13008642 0.20617501 0.24132624
000190 a1 e3 4f 3d 5d f5 c3 3e 37 7b aa 3e 51 1a fc bd
       0.050754193 0.38273135 0.3329713 -0.12309707
0001a0 a9 11 b2 bd 6e 95 c8 3a e4 e9 5e 3e b3 77 d3 3d
       -0.08694775 0.0015303323 0.2176891 0.10325565
0001b0 b7 83 94 3e 43 59 03 3e 0e 10 1f bd c0 52 b0 bb
       0.2900674 0.1282702 -0.03883367 -0.0053809583
0001c0 de c5 ac 3d 8b 07 49 be 1b bf f1 3e 72 92 47 3e
       0.08436178 -0.19631784 0.47216114 0.19489458
0001d0 e4 3a 09 3e 4b 93 a6 3c 5f bb 8c 3d ac 14 78 be
       0.13401371 0.020333907 0.06871676 -0.24226636
0001e0 d0 08 a4 3d 6d 7b 9f bc b9 ff 70 3d c0 72 59 3e
       0.08009493 -0.019468034 0.058837626 0.2123518
0001f0 fb e8 02 3e 0b 19 b8 be 27 37 3b 3d 9c 56 12 3e
       0.12784187 -0.35956606 0.045706894 0.14290851
000200 c7 62 ef 3d 59 1c 5d be 4e 97 0b be 7f 5f da 3c
       0.11688762 -0.21592845 -0.13631937 0.026656864
000210 39 b2 e2 3c 2c c6 a4 be 08 f5 fd 3c d5 49 09 3e
       0.027672874 -0.32182443 0.031000629 0.13407071
000220 04 eb 53 3e db f8 a0 bd 8f b4 ab 3d cf 5d fd bc
       0.2069512 -0.078599654 0.08384048 -0.03092852
000230 30 b5 00 3e 59 e9 1b 3e c8 2c 18 3c 10 42 f7 3d
       0.12569118 0.15225734 0.00928802 0.12073147
000240 08 51 4b be c8 b1 d2 bd 69 c2 91 3d a7 f5 bf 3e
       -0.1985513 -0.10287815 0.07117159 0.37492105
000250 51 5b 9e 3c fb 6b 6e 3e 6d 4d 2b be af c4 db 3d
       0.019330652 0.23283379 -0.16728754 0.10730874
000260 00 4d 90 3e e0 ca a0 bd 63 2a 5b 3d 5f c9 70 3d
       0.28183746 -0.07851195 0.05350722 0.058785792
000270 cc bc e0 3d 09 83 aa 3e b1 0b 89 be 37 3e 36 be
       0.1097351 0.33303097 -0.26766732 -0.1779717
000280 37 d7 00 be 7a 6c 10 3e f4 07 2b 3d 16 81 c1 3d
       -0.12582098 0.1410388 0.04175563 0.09448449
000290 22 2e f8 3e af e0 4f bd c3 a7 6f be 63 24 12 be
       0.48472697 -0.050751384 -0.2340384 -0.14271693
0002a0 46 be 9b 3d 36 37 f4 3c e9 81 d1 bd 41 24 35 be
       0.07604651 0.029811483 -0.102298565 -0.17689611
0002b0 6a 18 44 bd bc 9f 8a bd 70 a8 ac 3e b4 2e 2e be
       -0.047874846 -0.06768748 0.33722258 -0.17010003
0002c0 8a f9 87 3e 57 e0 d5 bd 74 98 10 3e 4c b7 5f 3e
       0.2655757 -0.1044318 0.14120656 0.21847266
0002d0 5d 74 9a be d5 dc 74 bc d1 93 37 3e e0 17 96 3e
       -0.30166903 -0.014945229 0.17927481 0.2931509
0002e0 c1 78 a5 3d 79 aa 01 3e ea 5a 6a 3e db 7c 67 be
       0.080796726 0.12662686 0.22886243 -0.22606222
0002f0 d1 bf 4a be 38 a4 27 3e 68 f0 59 3e 03 a2 c0 3d
       -0.19799735 0.16371238 0.21283114 0.09405901
000300 2b 96 d7 3c ef aa e1 3d 37 cb 17 be 4c a5 c4 3d
       0.026316723 0.11018931 -0.14823614 0.096018404
000310 de b6 6e be 29 7f 99 3e 39 25 81 3e 52 4c f6 bd
       -0.23311946 0.29979828 0.2522371 -0.12026276
000320 30 c4 45 bd 99 fd 45 bc 3b 61 91 3b 4a 50 a2 bd
       -0.048282802 -0.012084388 0.0044366396 -0.0792547
000330 d8 41 db bc 44 0f 89 3d cf ad 21 3e c4 50 18 bd
       -0.026764795 0.06692365 0.15788959 -0.0371864
000340 c1 e7 08 be 76 1a 45 3c 2c 36 07 3e 86 3b cd bc
       -0.13369657 0.012030235 0.13204259 -0.025052797
000350 81 a5 d8 3a 98 9c 70 3d ba 45 00 bd 39 fd da 3d
       0.0016528816 0.05874309 -0.031316496 0.1069283
000360 2f 46 dc 3d 3c 21 c5 3d c0 fc e3 bd 95 8b 48 be
       0.10755574 0.096254796 -0.111321926 -0.19584496
000370 33 ef 57 3e 9d 5c 19 be be 34 19 3e 85 6d 99 bd
       0.21087341 -0.14976735 0.14961526 -0.07491592
000380 4d 24 10 be 31 ae 95 bd b8 c2 89 3c 0e 45 41 3e
       -0.14076348 -0.07308615 0.016816482 0.18873999
000390 eb 72 b4 3a 3f 78 a5 bd 8d 77 ea bd a1 1d 7c 3d
       0.0013767158 -0.08079576 -0.11448584 0.061551694
0003a0 cd ac 29 be d8 28 2b be 92 37 94 3d a0 3a d7 3d
       -0.16569825 -0.167148 0.07237162 0.10509229
0003b0 2d 46 c9 3d 83 1d a7 3d f1 77 49 be 49 51 3d be
       0.09827838 0.08159926 -0.1967466 -0.18488039
0003c0 53 10 c7 bd e7 a8 16 be ce 97 2b 3e 77 c2 87 bd
       -0.097199105 -0.14712869 0.16757128 -0.06628888
0003d0 1d 8e 88 3e a2 6e 3d bc 3d 93 99 3e 83 2e 7a be
       0.26670924 -0.011562021 0.29995146 -0.24431805
0003e0 2b a6 d4 bd e3 55 d9 3c 90 91 8a bd e8 67 36 be
       -0.103832565 0.026530212 -0.06766045 -0.17813075
0003f0 cf 85 0d be e0 d0 4f 3e 40 a7 3e be 0b 7b 30 bb
       -0.13820575 0.20294523 -0.18618488 -0.0026928808

linears.2.bias f4 [50]
000000 81 08 e3 bb 38 50 94 3d 60 60 4b 3a 58 b6 44 bc
       -0.006928504 0.07241863 0.00077581964 -0.012006365
000010 94 e1 fb bc 4c 3e 49 3d 48 5a d4 3c 1d 14 8f bb
       -0.030747212 0.049131677 0.025921956 -0.0043664114
000020 03 bd 49 bc 9a 6e b5 3c 75 e0 a9 bd 11 3a 96 3c
       -0.01231313 0.022147465 -0.08294765 0.018338235
000030 6b e4 2f 3d ed 6a b1 3d 0f bc 23 bd fb 52 b4 bc
       0.042942446 0.086629726 -0.03997427 -0.022012224
000040 29 af 0d bd 47 3b 50 3d 48 05 92 3d 83 93 5b bc
       -0.034590874 0.05083778 0.071299136 -0.013401869
000050 1d 75 3c bd 95 3e 78 bd 52 89 b7 3d 56 a5 90 bd
       -0.046010125 -0.060606558 0.08961739 -0.07062785
000060 d5 ac 6c bd 6a 2d bd 3b 1d 05 15 bd 0f f2 f0 bd
       -0.057782013 0.005773236 -0.03638183 -0.11764919
000070 0d 86 a3 3c 69 9b aa bc 26 51 f7 3c 7b 20 e3 bd
       0.019961381 -0.020826058 0.030190062 -0.110901795
000080 1e 91 01 3d 31 4f 9d bc e8 09 a4 3d f6 e3 54 bc
       0.031632535 -0.0192028 0.08009702 -0.012993803
000090 c2 5a 20 3d 34 93 d6 bb 6c e5 12 bd b2 84 ba 3c
       0.039149053 -0.0065483097 -0.035863325 0.022768352
0000a0 00 21 1c bb 03 66 d1 bd 71 c5 99 bd 5d 62 94 bd
       -0.002382338 -0.10224535 -0.07508362 -0.07245324
0000b0 f5 55 92 bd 42 0d f3 bb 38 fb 4e 3d 64 7e 76 bc
       -0.07145301 -0.007417352 0.05053255 -0.015044782
0000c0 c2 ab 1b 3d e6 d4 7d 3a
       0.038005598 0.00096829084

linears.3.weight f4 [50, 50]
000000 bd 62 29 bd f0 0f 90 be 48 cc c0 3d ea ea 87 3e
       -0.04135393 -0.2813716 0.094139636 0.26546413
000010 ba 95 25 be ca 3f e7 bb a7 10 b5 be 8c f4 49 3d
       -0.16170397 -0.007057165 -0.35364267 0.049305484
000020 f5 b3 f6 3d b4 93 e0 bd 78 c4 f6 bd e1 48 c5 3d
       0.12046043 -0.10965672 -0.12049192 0.09633041
000030 62 74 85 be ca 2f bf be c3 d8 2c bd cb 4c 0c 3e
       -0.26065356 -0.37341148 -0.042198908 0.13701169
000040 77 9e 6d 3c 29 c5 c8 be e6 6d 85 be 05 fa d4 be
       0.014503113 -0.3921292 -0.26060408 -0.41597
000050 d4 66 07 3e 67 59 27 be 7d b9 c6 3e 85 52 07 be
       0.1322282 -0.16342698 0.3881339 -0.13215072
000060 54 44 77 3e 33 46 c7 be 3e 96 fa bc c1 92 3e 3e
       0.24147159 -0.38920745 -0.03058922 0.1861067
000070 c7 b6 95 bc 65 76 a8 3c 38 5b af be 53 47 1b be
       -0.018275632 0.020564267 -0.34249282 -0.15163927
000080 e5 18 59 bd 71 6e 1f be b6 f0 88 be 9b 4f db 3d
       -0.053002257 -0.15569474 -0.26746148 0.10708543
000090 a2 82 1c be b9 96 23 3e ca e4 aa 3e f9 bb 83 3d
       -0.15284207 0.15975465 0.33377677 0.06432337
0000a0 5b 1a 6b bc ca f9 dd 3d da 5c 26 3e d7 fa ca bd
       -0.014349545 0.10838659 0.16246358 -0.09911125
0000b0 89 f3 37 3e 90 fc 9c 3e 98 28 34 bf 12 31 0b be
       0.17963995 0.3066144 -0.7037444 -0.13592938
0000c0 45 c4 ca 3d 38 46 0b 3d 41 e6 44 bd 3b de 97 bd
       0.09900717 0.034002513 -0.04807115 -0.07415434
0000d0 ed 0b aa 3d 19 a2 4e be 23 d1 b9 bd f5 64 60 be
       0.08303056 -0.20179023 -0.09073093 -0.21913512
0000e0 2c 63 83 3e b7 67 18 be 1e fa 66 3d 4f 85 0f 3e
       0.256616 -0.14883314 0.056390874 0.14015697
0000f0 93 3b 4c be a4 cc 51 be ec 0d b5 be b8 90 9f 3d
       -0.19944601 -0.2048822 -0.35362184 0.07791275
000100 6c 98 c3 be e6 c6 36 be 17 e4 27 be c0 b9 55 be
       -0.38202226 -0.17849311 -0.16395603 -0.20871639
000110 86 b7 91 3c 8b 47 76 be 28 01 88 bd 67 ff 93 bc
       0.017787706 -0.24050729 -0.066408455 -0.018066121
000120 b4 ca 3c 3e c0 98 fa bc 1c eb c7 3c 67 57 b7 3c
       0.184367 -0.030590415 0.024404101 0.022380544
000130 47 ae 44 3e 1b 24 8b bd 36 1a 0e be 9a 46 6d be
       0.19207107 -0.06793996 -0.13877186 -0.23171464
000140 0e 6d 12 be 97 b9 2e bd 23 71 02 3d d8 1a c3 3d
       -0.14299414 -0.04265746 0.031846177 0.095266044
000150 cc f7 73 be 13 9e 6e 3d 82 8c c3 3c d8 3b d3 3d
       -0.23824996 0.05825622 0.02387071 0.10314149
000160 ff 20 14 3c 93 dd 69 3e a7 29 95 be 7f 12 ae bd
       0.00904107 0.2283843 -0.2913334 -0.084996216
000170 eb fc 5d 3e 99 89 4b 3e 1b 50 51 3d a9 05 6a bc
       0.21678512 0.19876708 0.051101785 -0.014283576
000180 88 5f 92 3e a4 ab cb bb 35 6c c2 bd 0c 08 13 be
       0.2858851 -0.0062155295 -0.09493295 -0.14358538
000190 5f 72 30 3e 21 a6 c9 bd c8 cd 8b 3e 78 5f 4a 3e
       0.17231129 -0.0984614 0.27305436 0.19762981
0001a0 71 97 cd 3d e3 44 30 3c 99 3b be ba 93 4d 1e be
       0.10038651 0.010758611 -0.0014513611 -0.1545928
0001b0 90 57 a2 3e 31 d3 63 bd 7f a9 83 bd 5e 08 4b be
       0.3170743 -0.05562133 -0.06428813 -0.1982741
0001c0 b7 7a 0b be 46 45 42 be 39 09 11 3e 1b 07 43 3b
       -0.13621031 -0.18971738 0.14163674 0.0029758874
0001d0 ac 30 88 bd 70 bb 70 bd 50 3c c8 bd 94 75 67 be
       -0.066499084 -0.058772504 -0.09777129 -0.22603446
0001e0 b1 04 67 be 5e 1b 5e bd 0a 2e 1a 3e c3 4d e5 3c
       -0.22560383 -0.054225318 0.15056625 0.027991181
0001f0 e5 be b7 3e 65 cc b5 bd 1f 40 3d 3e 6a c8 87 3d
       0.35887828 -0.08876876 0.18481492 0.06630023
000200 7a 2c b3 bd 62 62 c8 be 49 02 95 be 04 28 b0 3d
       -0.087487176 -0.3913756 -0.29103306 0.086013824
000210 8e a1 0b 3d fd c4 e7 3d 46 05 48 bd 77 ab 8d 3e
       0.034089617 0.113168694 -0.048833154 0.2766988
000220 7e 54 9f 3d af 96 88 bd 59 1a 60 3e f4 49 13 bd
       0.077797875 -0.066693656 0.21885051 -0.0359592
000230 6c c1 2b 3e d3 0a ac bd 2e 5e 8a 3e 8d 7f 8b be
       0.16773003 -0.08400502 0.27024978 -0.2724575
000240 d5 ee ff 3d 81 d4 67 bd ce 56 1d bf 3f 06 b3 bd
       0.124967255 -0.056599144 -0.6146058 -0.08741426
000250 54 ff 1c 3e 44 c3 a2 be 17 e4 8b be a4 64 5c 3e
       0.15331775 -0.317896 -0.27322456 0.21522766
000260 e2 c6 1a 3e c9 5e 96 bd 29 6f 6c bd d9 94 16 3e
       0.1511493 -0.073422976 -0.057723198 0.14705218
000270 f4 e4 ed 3d 12 26 72 bd 8c c6 44 3e 6a ac b1 3d
       0.11615935 -0.059118338 0.19216365 0.086754635
000280 c7 95 b8 be ac d2 94 bd 8b ad f0 3e e1 f1 02 be
       -0.3605177 -0.07266745 0.47007403 -0.12787582
000290 bc 69 50 3e 44 be cd bd a2 8e e1 3d 35 ba a5 3e
       0.20352834 -0.10046056 0.11013533 0.32368627
0002a0 9e 7b fa 3d 9f ed 95 3e 78 51 dd 3d 67 1b 03 be
       0.12230609 0.29282853 0.108065546 -0.12803422
0002b0 ba 7b a6 be fc 88 8a bd ba 63 17 be a4 db 91 bd
       -0.3251627 -0.06764409 -0.14784136 -0.07121971
0002c0 8d ce 3a 3d 2c 41 83 3e 9d 9f 2d 3e e4 56 59 bd
       0.04560714 0.2563566 0.16955419 -0.05306138
0002d0 02 34 52 3e 4f 61 99 be 8e d2 61 be 76 d6 25 be
       0.20527652 -0.29957053 -0.22052976 -0.16195092
0002e0 bd ce 87 3e b3 be f2 bd 98 b8 bd bd 35 30 88 bd
       0.26524916 -0.11852779 -0.09263724 -0.0664982
0002f0 ba 83 39 be da 90 53 3e 4c 92 a5 bd 56 88 8d 3d
       -0.18116656 0.20660725 -0.080845445 0.0691077
000300 63 58 e6 bd e8 ce fd 3d b3 81 b3 bd 52 b4 68 3e
       -0.11247327 0.1239298 -0.087649725 0.22725037
000310 6f f6 ce 3d c8 61 98 3a 6e fe d7 3c 2d 69 2d 3c
       0.10105597 0.0011625821 0.026366439 0.010584158
000320 0c a2 19 3d 45 c8 56 bd 28 02 89 3e bc 16 16 3e
       0.037508056 -0.052437086 0.26759458 0.1465711
000330 36 b6 18 be 18 c6 96 be 56 54 86 3d 26 7e 29 be
       -0.14913258 -0.2944801 0.065590546 -0.16552028
000340 5e b3 ed be fc ef 01 3e 2f cf d1 be fd bf 58 3e
       -0.4642591 0.12689203 -0.4097838 0.21166988
000350 f6 e1 b8 3d 71 08 20 3e 57 07 b1 bd 1b cb 46 be
       0.09027474 0.1562822 -0.08643978 -0.19413416
000360 02 64 60 be b5 b1 d1 bc c6 66 fa 3d 71 8b a2 bd
       -0.2191315 -0.025597433 0.12226634 -0.079367526
000370 14 11 ae 3b 83 32 73 3e a3 cc 54 3e b3 df 0a 3e
       0.0053120945 0.23749737 0.20781188 0.13561897
000380 fb 19 03 be 90 b1 d6 bc b2 25 d6 3d f5 30 8b 3d
       -0.1280288 -0.026207715 0.104564086 0.06796447
000390 a0 ce 9c be a0 a9 08 be a3 22 08 bd eb b8 c3 3d
       -0.30626392 -0.13345957 -0.033236157 0.09556755
0003a0 a5 60 9b be 4c 3b 6a be dd 39 bf 3d 90 33 2a 3e
       -0.3034717 -0.22874182 0.093372084 0.16621232
0003b0 85 b4 f6 bc 30 8e 07 3e d9 45 98 3d 15 f3 d4 3e
       -0.030115375 0.13237834 0.074351974 0.41591707
0003c0 65 98 ab 3d 40 3e e1 3e d3 3b 2d be 8d 4c b6 be
       0.08378676 0.43992805 -0.16917352 -0.3560528
0003d0 60 37 b4 be ea 14 f0 3c 4d 2a bb 3d 56 ab 41 3e
       -0.35198498 0.029306848 0.091389276 0.18913016
0003e0 88 6b 94 3d 15 04 58 3e 6b 4c 80 3d 50 9a 09 be
       0.072470725 0.21095307 0.062645756 -0.13437772
0003f0 fe 06 b9 3e 3e 43 81 bd 42 61 5b 3c 5d 4c 23 bc
       0.36138147 -0.063116536 0.013389887 -0.009966937

linears.3.bias f4 [50]
000000 74 a0 de bd 99 17 51 3c b5 29 25 bd c0 a1 ee 3c
       -0.10870448 0.012761974 -0.040322978 0.029129863
000010 b3 3b 9d 3b 4b bc 0f bb 4a 17 0d 3d 60 29 4e 3e
       0.0047983765 -0.00219323 0.03444604 0.20132971
000020 6d 49 08 3a 08 99 26 b9 a5 fe 0c 3e 4a 1a 70 39
       0.00051989296 -0.00015888002 0.13769014 0.00022897977
000030 e1 79 85 bd 66 d0 89 bd 97 6e e4 3c bc 1e 50 ba
       -0.06517387 -0.06729202 0.027884765 -0.000793915
000040 60 97 ef 3c 4c 6b 0b 3d 30 15 b1 bc 01 0d 8b 3d
       0.029246986 0.034037873 -0.021616548 0.0678959
000050 af 22 5c 3d cb 90 c7 3a 6b c8 c6 3d de de a8 bc
       0.053744014 0.0015225647 0.097061954 -0.020614084
000060 24 56 11 bd 8a 18 0b bd d8 cb 1b 3d 36 9e e7 3a
       -0.03548254 -0.03395895 0.038036197 0.0017671052
000070 92 fb f5 bd cc 4b c0 3c d9 b1 65 3d 57 e5 bd bc
       -0.12010874 0.023473643 0.056077812 -0.023180647
000080 42 98 41 bd ec d0 55 be b3 db 07 3d 47 cc b4 3c
       -0.047264345 -0.20880479 0.033168506 0.022070063
000090 51 87 dd bd 96 c6 71 bd eb 84 8d bd 28 7a 78 bd
       -0.10816825 -0.059027277 -0.06910118 -0.060663372
0000a0 11 f1 d0 bd f5 3a 2e bc 67 e0 9e 3c 4b e0 01 3d
       -0.1020223 -0.010634174 0.019394113 0.031708043
0000b0 0b a1 54 3d ae 34 ae 3c cb 7d 8f 3c a3 24 68 bd
       0.051911395 0.021265354 0.017516037 -0.056675564
0000c0 42 3d f5 3c 71 18 3d bd
       0.029936437 -0.046165887

linears.4.weight f4 [3, 50]
000000 aa 82 0d bf 7b 1c d8 bd 75 a6 df be 00 9c af 3e
       -0.552775 -0.10552307 -0.43681684 0.34298706
000010 6a 0a e6 3d 78 4a da 3e e6 20 88 be 5b 5c 03 3e
       0.11232455 0.4263494 -0.265876 0.128282
000020 42 df a2 be 66 4a 8f 3e a5 25 33 3e 4c ad 6c 3e
       -0.31810957 0.2798645 0.17494829 0.23112983
000030 b4 e5 9e bd 22 cf 97 be 8c f6 00 bf a9 fa 41 3f
       -0.07758656 -0.29650217 -0.503762 0.757731
000040 aa 95 e4 3d 5e c2 67 3e 1a 81 93 be 57 80 80 3e
       0.11161359 0.22632739 -0.28809434 0.25097916
000050 c0 f0 0a 3f 03 1b f3 3e 51 5f c8 3d b8 9c 48 3f
       0.54273605 0.47481546 0.09783805 0.78364134
000060 2e 81 13 bf 82 10 b2 be dd 12 01 3e b3 69 0f be
       -0.5761899 -0.3477822 0.12604852 -0.14005165
000070 5a 62 aa 3e 75 c9 27 3f e6 93 10 3f a3 7b c8 3e
       0.3327816 0.65541774 0.56475675 0.39156827
000080 a2 45 cb be 7e f7 44 3e 25 94 b0 3e 93 e0 96 3e
       -0.39701563 0.19235036 0.34488025 0.29468212
000090 84 c9 15 bf 46 df 81 be c1 87 a9 be b8 bb e8 3d
       -0.58510613 -0.25365657 -0.33111385 0.113639295
0000a0 f3 1a bc be 18 ba 98 be 5e ff bd 3e 61 57 2b 3f
       -0.3673931 -0.29829478 0.37108892 0.66930205
0000b0 99 3b 63 3f 63 ff f0 3e d7 c0 b5 3e 9b 36 8c bd
       0.88762814 0.47069845 0.35498688 -0.06846353
0000c0 ed 9c 88 3e e3 c0 bb 3e f9 54 a9 3c 92 56 f8 3e
       0.26682225 0.36670598 0.020670401 0.48503548
0000d0 4c cd a7 3d f5 c5 fc 3e 95 60 d0 3e e4 1d 39 3e
       0.08193454 0.4936978 0.40698686 0.18077809
0000e0 c2 a8 e4 bd 9e 6d e4 3a d9 4b 47 bd 23 2c ee bd
       -0.111650005 0.0017427688 -0.04865632 -0.11629512
0000f0 9c 07 1b be 96 7c 9d bd db 3a 69 be 15 b8 86 3e
       -0.15139621 -0.076897785 -0.22776358 0.26312318
000100 22 f8 98 be aa 67 90 3d 79 62 bd 3e 02 2c 92 be
       -0.2987681 0.07051022 0.3698919 -0.285492
000110 3b 0a 43 3e 9d 64 5d be 59 fb cd be 56 95 2b be
       0.19046871 -0.21620412 -0.40230826 -0.16756186
000120 7f 42 70 3d 09 6c 5c bd fe d0 be bd 70 10 94 be
       0.058657166 -0.053813968 -0.09317206 -0.2891879
000130 d4 56 23 3e fa 25 84 be 07 53 20 3f 80 95 85 3d
       0.15951091 -0.25810224 0.6262669 0.065226555
000140 3c 88 f3 be 46 4c 16 3e 8a 9e 61 be f4 98 47 3d
       -0.47564876 0.14677534 -0.22033134 0.04872985
000150 fe 18 a3 bd 41 75 68 3d c2 9a e8 3d 96 ba 5e 3e
       -0.07963751 0.056752447 0.11357643 0.21750864
000160 54 3e 8f 3e 9f a9 4f 3e 9c 6a ce be 92 9a 33 be
       0.2797724 0.20279549 -0.40315711 -0.17539433
000170 c4 b9 cc 3d de eb e2 3d 83 83 73 be 2d 35 52 be
       0.099963695 0.11080144 -0.23780636 -0.20528097
000180 a8 2b 87 3e 1f 99 2d 3e 28 89 83 bb 14 f9 75 bd
       0.26400495 0.16952942 -0.004014153 -0.060051993
000190 ad c1 35 3e ef 7b 3c be 46 6f 0f 3f e7 d8 ce 3e
       0.17749663 -0.18406652 0.56029165 0.40399858
0001a0 5f 6d 0d 3e 37 11 06 bf 20 67 bc be cb 54 47 bf
       0.13811253 -0.5237002 -0.36797428 -0.7786376
0001b0 d9 31 48 bd bd 2f be bd 74 87 61 bf c5 47 a3 3e
       -0.048875663 -0.09286449 -0.8809731 0.31890693
0001c0 15 c0 7e 3f 58 9e 33 3f cc 8d 5f be aa 5d 92 3d
       0.99511844 0.7016349 -0.21831435 0.07146771
0001d0 85 5e 81 be 48 cd 15 be a0 45 dd 3e 8f f4 c5 bd
       -0.25267425 -0.1462909 0.43217182 -0.096657865
0001e0 f2 60 46 3e 78 92 32 3e d6 9a e5 be d7 56 31 3e
       0.19372919 0.17438686 -0.44844693 0.17318283
0001f0 26 ce 1d 3f 8a 2a 7b 3e 18 2e c1 3e 47 ae 29 bf
       0.6164268 0.24527946 0.3773048 -0.6628155
000200 4f 67 68 3e 02 3b e6 bd 51 5d e5 bd 39 88 30 3e
       0.22695659 -0.112417236 -0.11199439 0.17239465
000210 57 7f 4c be 01 6d f4 3e 75 62 eb bd af ae 0e 3e
       -0.19970451 0.47739413 -0.114933886 0.13933824
000220 7d f9 bf 3d b1 e3 4d 3c 89 71 bd bd 23 37 dd 3c
       0.09373758 0.012566493 -0.09250171 0.02700383
000230 84 f3 38 3f a8 33 41 bd e4 c5 98 3e b6 f7 46 3e
       0.72246575 -0.047168404 0.2983848 0.19430432
000240 57 5f 25 3f aa 45 83 3e 20 05 00 be 7f 22 94 3c
       0.645986 0.25639087 -0.12501955 0.018082855
000250 f0 a4 4c 3e 91 6b 50 3e
       0.19984794 0.20353533

linears.4.bias f4 [3]
000000 16 bf b7 3c fd 01 f0 bc 45 88 fb be
       0.022429984 -0.029297823 -0.49127403

exp_avg f4 [50, 2]
000000 ac 10 2b bb 83 a8 44 3a 12 95 4a bb c3 ef a8 3a
       -0.0026102467 0.0007501917 -0.0030911607 0.0012888837
000010 7c 25 5d ba 2c c9 82 3a 90 39 94 ba 29 71 ec 3a
       -0.00084360666 0.0009978167 -0.0011308659 0.0018039095
000020 d3 cc 02 bb 51 26 0d 3a 9c ae c5 3a 58 d4 9d b9
       -0.001995851 0.0005384433 0.0015081945 -0.00030103582
000030 19 76 5a bb 7d ed e4 3a 8d e6 0d bb a0 a1 a4 3a
       -0.0033334552 0.0017465797 -0.0021652312 0.0012560375
000040 78 de 31 3b 57 e6 e0 ba c7 0d ee ba ce 16 16 37
       0.0027140658 -0.001715849 -0.0018162065 8.946006e-06
000050 e3 11 c5 ba 26 9d ed 3a 1d 06 94 3a 44 23 85 ba
       -0.0015035238 0.0018128499 0.0011293326 -0.0010157605
000060 01 2b 84 bb 63 bd 48 3b 36 ef cb b9 0e bc a5 3a
       -0.004033447 0.0030630461 -0.00038897403 0.0012644546
000070 ae 1b 71 3b 06 95 a4 bb f3 16 fe b8 f4 bf 27 ba
       0.003679018 -0.005022648 -0.000121159384 -0.00063991477
000080 fa 2f 18 bb 19 58 63 3a 99 ff 29 3a ab fa b7 ba
       -0.0023221956 0.00086724904 0.00064849254 -0.0014036497
000090 7c 4f 10 3b af 3f 16 bb 22 4d a3 3a c6 da f0 b9
       0.0022020033 -0.0022926142 0.00124589 -0.00045939366
0000a0 3f e5 9e 3b 63 14 6b bb e7 59 08 bb 50 c0 14 3b
       0.0048491056 -0.0035870306 -0.002080554 0.0022697635
0000b0 be 66 b1 3a b2 02 19 39 77 21 43 bb 37 4b c1 3a
       0.0013534648 0.00014592221 -0.0029774585 0.0014747147
0000c0 f9 da 43 bb 18 11 9f 3a 6a 6e 14 3a 30 06 3e b9
       -0.0029885157 0.0012135832 0.0005662205 -0.00018122117
0000d0 73 75 20 bb ad 27 46 b9 f1 a6 a7 ba 3e 58 26 3b
       -0.0024484068 -0.00018897532 -0.0012790841 0.0025382186
0000e0 b3 8a 9b ba 86 7a 93 ba 7e d3 7b 3b 9d 5b 47 bb
       -0.0011866897 -0.0011251725 0.003842562 -0.0030419596
0000f0 2f 33 ce 3a 48 0d a6 ba df 79 0d 3b 91 15 83 ba
       0.0015731807 -0.0012668753 0.0021587533 -0.0010000934
000100 0a b5 c8 b8 67 7c 72 37 ad b6 7d 3a 0d c3 85 b7
       -9.570464e-05 1.4453289e-05 0.0009678405 -1.5945663e-05
000110 9a cf 28 3b 79 6e 0c bb b5 db 06 3b 5b 52 91 b9
       0.0025758506 -0.0021428152 0.0020577733 -0.00027717915
000120 1b 05 4d ba 6d 3f 3e 39 fd 85 08 3a f3 01 e2 38
       -0.000782089 0.0001814344 0.0005207954 0.00010776883
000130 49 d2 41 bb 98 47 a9 3a c4 10 8d 3a 1d ca f6 39
       -0.0029574803 0.0012915013 0.0010762443 0.00047071362
000140 4c 4f 29 bb 6a 09 06 3b d7 22 25 3b 5c 27 82 ba
       -0.0025834618 0.0020452389 0.0025197768 -0.0009929943
000150 ec b1 3f 3a 09 b3 fc 3a 7b 94 af 3a f5 55 c7 b9
       0.0007312584 0.0019279431 0.0013395691 -0.0003802028
000160 e0 43 72 bb 0e 1c f7 3a 2e 52 15 ba 50 25 f6 39
       -0.0036966726 0.0018852965 -0.00056961447 0.00046948576
000170 b5 a3 49 3b 98 60 30 bb b0 a5 1c 3b f4 cc 11 bb
       0.0030767743 -0.0026913043 0.0023902468 -0.0022247406
000180 7c 5d 02 bb 67 24 b6 3a 9b df 40 bb 4e 1a 08 3b
       -0.0019892147 0.0013896347 -0.0029430154 0.0020767632

exp_avg_sq f4 [50, 2]
000000 fc ea 6c 3b a0 33 bc 3a 51 c5 db 3b ce 00 91 3b
       0.0036150804 0.0014358647 0.0067068716 0.0044251448
000010 36 46 a1 3b 77 5d 97 3a 67 6c d5 3a 8c e6 3a 3b
       0.0049217 0.001154824 0.0016282917 0.0028518764
000020 ad fe 28 3b 8e 20 da 3a 7c db 3e 3b 70 00 f2 39
       0.0025786564 0.0016641782 0.0029122522 0.00046158163
000030 2f 71 d9 3b b9 cd bf 3b ef 43 6c 3b 17 8c c7 3a
       0.006635807 0.0058533815 0.0036051234 0.0015224245
000040 37 de ac 3b 8f 21 9d 3b 28 89 f0 3a 12 c1 64 3a
       0.0052755135 0.0047952603 0.0018351423 0.00087262795
000050 bf bd ed 3a 05 10 47 3b 1a ad 83 3a d7 83 8a 3a
       0.0018138214 0.0030374539 0.0010046095 0.0010567856
000060 6e 50 27 3c cb 6c 4e 3c fe d1 3e 3a db b9 c2 3a
       0.010212047 0.01259918 0.0007279216 0.0014856415
000070 05 eb 70 3c ef 39 de 3c 2c 46 9f 3a b5 c9 8a 39
       0.0147044705 0.027127234 0.001215165 0.00026471695
000080 f3 02 8c 3b dd 36 13 3b 12 2e a5 3a e0 08 f0 3a
       0.0042728125 0.002246312 0.0012602231 0.0018313192
000090 10 55 11 3c d5 18 b9 3b 38 3e ce 3a 35 5f 03 3a
       0.008870378 0.005648712 0.0015735095 0.00050114404
0000a0 b0 d9 12 3d af 8d a8 3c 53 99 64 3b 34 d6 a0 3b
       0.035852134 0.020575373 0.0034881427 0.0049083475
0000b0 f3 71 2e 3b 26 99 59 39 ad 9f a9 3b 41 3a 7b 3b
       0.0026618212 0.00020751785 0.0051765055 0.0038334283
0000c0 03 ff c5 3b 0c 2c 61 3b 84 98 0c 3a 70 49 0e 38
       0.0060423627 0.003435853 0.0005363303 3.3923832e-05
0000d0 53 24 18 3c 26 4b bc 3a eb eb 86 3b 1d 15 bb 3b
       0.009286004 0.0014365658 0.004117479 0.005709304
0000e0 8c ab ec 3a fc ea 37 3b 56 b2 41 3c e2 c3 40 3c
       0.0018056496 0.0028063646 0.011822304 0.011765452
0000f0 73 27 18 3b 3b ee 0f 3b 13 d2 20 3b c9 99 30 3b
       0.0023216873 0.0021962065 0.0024539276 0.0026947132
000100 20 cf 7d 39 ea 1a dd 37 e0 15 73 3a a7 d8 a3 39
       0.0002420512 2.6357786e-05 0.0009272974 0.000312512
000110 45 f1 85 3b 8c 7f ab 3b e5 c1 10 3c 40 a3 c0 3a
       0.0040875995 0.0052337106 0.008835291 0.001469709
000120 b6 48 18 3a cb 68 e7 39 5c 33 17 39 9f 27 06 38
       0.00058091746 0.0004413783 0.00014419615 3.198499e-05
000130 c6 2c e1 3b e1 ad b2 3b f5 91 46 3a 44 96 fe 39
       0.0068717925 0.005452857 0.000757485 0.00048558612
000140 a4 7d 87 3b 19 88 85 3b 56 30 6f 3b 0d 1d 43 3b
       0.0041348506 0.004075062 0.0036497316 0.0029771954
000150 b3 b4 da 3a 52 60 08 3b 44 bb a7 3a 70 9c f6 3a
       0.0016685933 0.0020809365 0.0012796898 0.0018814933
000160 60 29 15 3c 81 3e 06 3c ba 6c 1e 3a b5 ec 6e 39
       0.009104103 0.008193613 0.0006043423 0.00022785629
000170 72 c5 df 3b 29 aa 04 3c b2 b6 77 3b 6c 0f bd 3b
       0.0068289572 0.00809721 0.0037798104 0.0057696607
000180 bc 1b 22 3b e2 75 57 3b b0 73 d2 3b 83 3d b4 3b
       0.002473577 0.003287666 0.0064224824 0.005500497

exp_avg f4 [50]
000000 07 ed 15 3b a8 53 65 3b df 12 0c 3b 94 30 1f 3b
       0.0022876875 0.003499249 0.0021373553 0.002429043
000010 ec 01 38 3b 92 1e 8b ba 27 c2 64 3b f6 a0 33 3b
       0.0028077317 -0.0010613969 0.0034905763 0.0027409173
000020 82 8a 5e bb 06 dc 9d 3a 44 50 30 3b 46 c5 24 bb
       -0.0033957069 0.0012043722 0.002690331 -0.0025141998
000030 aa 6d c0 3b 60 d3 90 3a 1a e5 04 bc de b8 2b ba
       0.005872448 0.0011049323 -0.008111263 -0.00065506797
000040 97 78 3d 3b 8f d0 20 bb d6 02 9b bb 4f 04 cd ba
       0.0028910988 -0.0024538373 -0.0047305627 -0.0015641543
000050 36 cf 1d bc ec 08 87 3b 30 a9 1d ba db a5 5d 3b
       -0.0096319225 0.0041209366 -0.00060142856 0.0033820781
000060 39 bc 4b 3b ea 1c a6 39 66 07 fd 3a 1c 04 72 3b
       0.0031087531 0.0003168353 0.0019304573 0.003692872
000070 f6 05 da b9 99 dc cc bb d9 73 46 bb c3 c6 eb ba
       -0.0004158464 -0.006251883 -0.0030281453 -0.0017988313
000080 be 2b 38 3a 76 f3 19 ba 1d 37 5d bb fb ff 03 bb
       0.0007025561 -0.00058727653 -0.0033754774 -0.002014159
000090 87 20 ed 36 e5 d5 29 b9 37 b3 41 3b fc da 9d 37
       7.066937e-06 -0.00016196778 0.0029556283 1.8817831e-05
0000a0 cf 80 78 3b 33 f5 2a bb b6 a8 a2 3a b6 88 ef ba
       0.0037918573 -0.0026086092 0.0012409899 -0.0018274996
0000b0 b9 03 83 3b 70 5b ce 3a 02 6f 8b bb ae 2b 9b bb
       0.0039982465 0.0015743803 -0.0042551765 -0.0047354316
0000c0 da b9 0d 3b e5 df 5b 3b
       0.0021625669 0.00335502

exp_avg_sq f4 [50]
000000 d2 35 8b 3b 5c ad 30 3c 0d e2 3d 3b 61 86 66 3b
       0.0042483592 0.01078352 0.0028973848 0.003517531
000010 b2 25 bc 3b 10 12 e2 3a fe c8 2e 3c d3 ab 9f 3b
       0.0057417983 0.0017247815 0.010668037 0.004872778
000020 68 83 22 3c e5 8b 45 3b 69 0d 9e 3b cc 1a 81 3b
       0.009919025 0.0030143198 0.004823376 0.003939962
000030 32 d1 cb 3c 3d 20 3b 3b d9 9c 26 3d 55 0c 1b 3a
       0.024880026 0.002855315 0.040676925 0.00059146184
000040 b6 66 f2 3b 29 38 80 3b 2b fc 73 3c a1 af c5 3a
       0.007397498 0.003912945 0.0148916645 0.0015082249
000050 50 49 85 3d 8e 87 37 3c 19 f4 bc 39 a4 6c 0c 3c
       0.06508124 0.011201752 0.0003604002 0.008570824
000060 9d 70 03 3c 87 77 82 39 a2 b1 ce 3b de f3 0c 3c
       0.008022455 0.00024884587 0.0063077966 0.008603064
000070 ab f5 10 3b dc 2d de 3c 78 41 cc 3b c4 f3 5f 3b
       0.0022119086 0.027121477 0.0062333904 0.0034172395
000080 bc f3 bc 39 29 8d de 39 e9 3b 10 3c 78 fd a4 3b
       0.0003603975 0.00042448312 0.008803346 0.0050350986
000090 78 9f 5c 3a c4 cc 86 39 d6 4c 1a 3c ea 96 6f 39
       0.00084160967 0.00025711034 0.009417733 0.00022849036
0000a0 1b 28 21 3c a8 9a b6 3b 0e fb b4 3a 97 c4 43 3b
       0.009836222 0.0055726357 0.001380773 0.0029871815
0000b0 55 b8 83 3c 74 28 ea 3a be 42 56 3c 1c 30 7b 3c
       0.016079107 0.0017864839 0.013077436 0.015331294
0000c0 92 23 9e 3b f8 c2 28 3c
       0.0048260177 0.01030039

exp_avg f4 [50, 50]
000000 71 6d 4a b8 66 b7 36 b8 af 41 6d 37 f3 d1 e7 37
       -4.826248e-05 -4.3562985e-05 1.4141594e-05 2.7635111e-05
000010 a3 c8 d0 b7 56 46 e8 37 5e 66 f7 b7 be 32 0f b8
       -2.4888961e-05 2.7689308e-05 -2.9492363e-05 -3.4141114e-05
000020 09 3b 99 b6 54 99 3f b8 15 2e dd 37 59 65 80 37
       -4.566628e-06 -4.5680747e-05 2.6366712e-05 1.5305983e-05
000030 78 13 d5 b7 ff 41 8a 38 1f df ee b8 4d 01 2a b8
       -2.5400645e-05 6.5926455e-05 -0.00011390284 -4.053237e-05
000040 f1 a1 3d b8 4f 59 66 b7 96 a9 96 b8 94 5c ab 38
       -4.521193e-05 -1.3729862e-05 -7.184145e-05 8.1711594e-05
000050 65 f4 db b8 f3 25 e4 b6 5f 29 5b 38 15 ed f7 b7
       -0.00010488256 -6.7993474e-06 5.22522e-05 -2.9555094e-05
000060 73 85 44 b8 21 75 57 b7 b1 c6 7a b8 2d df 4f 38
       -4.6854326e-05 -1.284227e-05 -5.978969e-05 4.9560495e-05
000070 06 0a 9a b8 d4 22 38 38 0c 52 89 38 46 f3 13 37
       -7.345159e-05 4.3901455e-05 6.5479515e-05 8.818524e-06
000080 43 a5 c0 b7 dd 88 42 38 fc 99 ff 36 d5 61 67 38
       -2.296514e-05 4.638067e-05 7.6175183e-06 5.5165805e-05
000090 dd a2 14 b6 19 aa c4 37 d5 3f 3f b8 e7 81 89 38
       -2.2148517e-06 2.3444229e-05 -4.5597397e-05 6.556865e-05
0000a0 87 e1 68 b7 18 82 1a 38 d7 ba bf 38 8e 6d c2 37
       -1.3880787e-05 3.683762e-05 9.142391e-05 2.3177618e-05
0000b0 86 b4 a8 b7 2c b3 b0 b7 b4 60 02 b8 75 70 90 37
       -2.0111223e-05 -2.1064268e-05 -3.1084477e-05 1.7218505e-05
0000c0 b4 76 be b7 ca fa a4 37 14 53 3a 38 17 e4 c8 b8
       -2.270504e-05 1.9667106e-05 4.442323e-05 -9.579228e-05
0000d0 fc f2 50 ba 95 17 90 b9 94 b8 fe b8 49 7f aa 39
       -0.0007970778 -0.0002748339 -0.00012146044 0.00032519762
0000e0 e5 af 87 b8 37 09 7d b9 41 d1 75 39 c6 2c 4c b9
       -6.4700645e-05 -0.00024131393 0.00023442974 -0.00019471635
0000f0 de 30 71 b9 f6 6f 3f 39 75 6f 5f b9 aa 9b e8 b8
       -0.00023001755 0.00018256888 -0.00021308458 -0.00011091617
000100 dc f9 de b9 f1 fc ea 39 a0 a1 d3 b7 f8 b9 e4 b9
       -0.000425293 0.00044820414 -2.5228423e-05 -0.00043626106
000110 42 f7 15 ba e1 75 85 b8 45 1d 38 ba 79 3b db b9
       -0.0005720743 -6.363891e-05 -0.00070234045 -0.00041815246
000120 e2 93 99 39 95 b3 12 b9 e5 ca 11 b8 d0 1b 45 b8
       0.00029292615 -0.00013990545 -3.4759654e-05 -4.6994362e-05
000130 47 94 83 39 7d 64 9c 39 d2 1b ca 39 2e a7 07 39
       0.00025096742 0.00029829508 0.0003854917 0.00012936883
000140 22 24 2a 38 3b 01 81 39 77 59 37 37 ca 4e 0a 38
       4.056481e-05 0.00024605714 1.092848e-05 3.2975142e-05
000150 aa 8c 7f 39 23 9d a3 b8 36 10 a2 b7 95 98 b1 38
       0.00024371097 -7.801715e-05 -1.9319454e-05 8.468438e-05
000160 41 23 9d b8 4f 2e a8 b8 3f d4 46 b9 4c d9 38 39
       -7.49291e-05 -8.01949e-05 -0.0001896182 0.00017628557
000170 42 2c 3d b9 0f 39 44 38 cd f4 2b b9 24 98 7a b9
       -0.00018040932 4.678318e-05 -0.00016399026 -0.00023898535
000180 b9 84 86 39 cb 26 46 39 d4 86 13 b9 ba 07 9e b9
       0.00025657358 0.00018897203 -0.0001406924 -0.00030141865
000190 42 d7 9d b8 4b 45 83 b9 19 35 36 bb e8 7f 94 ba
       -7.526438e-05 -0.00025037894 -0.0027802645 -0.0011329623
0001a0 0e 11 b5 b9 69 0b b5 3a 22 b6 e2 b9 ee 99 8b ba
       -0.00034535717 0.0013812605 -0.0004324178 -0.0010650733
0001b0 f3 79 a7 3a 21 a9 2e ba 82 8f 9b ba 62 58 c5 39
       0.0012777433 -0.00066627754 -0.001186833 0.00037640618
0001c0 a8 84 45 ba a4 33 7c ba e2 06 a3 ba 10 4e a8 3a
       -0.0007534721 -0.0009620732 -0.0012437964 0.0012840647
0001d0 bc 7b 36 39 f6 f4 18 bb 7d 93 09 bb 01 61 3f ba
       0.00017402967 -0.0023339367 -0.002099245 -0.00073005265
0001e0 79 5a 32 bb 8e cf c4 ba 70 7d 95 3a 28 60 0d ba
       -0.002721457 -0.0015015469 0.0011405181 -0.00053930515
0001f0 a1 93 8e b9 ce 65 a6 39 7b 36 57 3a 7f ac a3 3a
       -0.00027194343 0.00031737838 0.00082097173 0.0012487321
000200 02 34 5e 3a 39 e3 55 39 b8 31 4f b9 2e 8f d3 3a
       0.00084763777 0.0002039791 -0.0001975958 0.0016140693
000210 47 18 1f 3a 77 36 aa 37 b8 2b 96 3a 78 96 93 b9
       0.0006068986 2.0290941e-05 0.0011457121 -0.00028150133
000220 ac 47 06 ba 5d 51 43 3a b2 78 0a b9 f8 a1 c2 b8
       -0.0005122374 0.0007450784 -0.00013205668 -9.28081e-05
000230 6d df 53 ba f0 af 34 3a eb 6b 23 ba 80 dd 01 b7
       -0.0008082304 0.0006892672 -0.00062340376 -7.740571e-06
000240 45 02 41 ba 5d 09 1f ba 05 69 cd 3a 46 56 f8 39
       -0.0007362704 -0.0006066764 0.0015671557 0.00047366525
000250 d1 fa 31 ba bb 6d fa ba b3 1b 86 b4 fa 38 c8 38
       -0.0006789389 -0.0019106189 -2.49796e-07 9.547356e-05
000260 64 3e 79 b9 93 66 52 b9 41 37 5f 38 f0 b5 17 39
       -0.00023769733 -0.00020065373 5.3218802e-05 0.00014468259
000270 8c 3a 5e b8 e7 5d d2 b8 e5 8f 90 39 ae 9e 1d 38
       -5.298345e-05 -0.00010031071 0.0002757303 3.75795e-05
000280 1f a1 95 b9 86 72 d7 b8 77 c9 33 b7 b8 03 da b9
       -0.0002853954 -0.000102733306 -1.0716139e-05 -0.0004158297
000290 55 36 f5 38 f1 d1 73 38 ed b5 50 39 7c 30 e9 b9
       0.000116926305 5.8131238e-05 0.00019904198 -0.00044477347
0002a0 10 d8 f3 b8 c7 2a cf b9 13 f2 5e b9 20 78 ed b8
       -0.00011627388 -0.00039513988 -0.0002126175 -0.00011323416
0002b0 aa 60 34 38 f6 60 17 b6 d7 a6 4f 37 1a 20 74 39
       4.300537e-05 -2.2557192e-06 1.2377007e-05 0.00023281612
0002c0 7e a0 24 39 ff 23 b7 38 7a 9e 90 37 f0 cb 26 b9
       0.00015700047 8.732825e-05 1.7239934e-05 -0.00015906966
0002d0 b1 81 88 b9 a6 85 c8 39 cd 17 a1 39 52 7d 00 b9
       -0.0002603657 0.00038246549 0.00030726046 -0.00012253717
0002e0 fd 6d 3c 39 6d fc 09 b9 eb 19 57 b9 37 17 3d 39
       0.00017970051 -0.00013159374 -0.00020513653 0.00018033093
0002f0 a8 8f 03 39 42 e4 80 b8 77 a2 b6 b8 00 25 2a 37
       0.0001254665 -6.146032e-05 -8.708698e-05 1.0141404e-05
000300 09 04 6a b9 a1 6b ec b8 1f 46 a0 b8 f8 b4 a9 38
       -0.00022317482 -0.000112734044 -7.6424556e-05 8.092256e-05
000310 84 78 e2 39 15 ef 93 b8 0b bf a0 b8 23 6e 03 ba
       0.0004319587 -7.054039e-05 -7.664979e-05 -0.0005013665
000320 c6 cb dd 38 ff a2 8c 38 87 34 b7 b9 11 4a 43 b9
       0.00010576057 6.7060806e-05 -0.00034943616 -0.00018624241
000330 d9 f7 77 37 c3 4e ba 38 48 ad bd 37 9c 12 24 b8
       1.4780054e-05 8.883842e-05 2.2611246e-05 -3.911798e-05
000340 f7 87 16 39 eb b3 cf 37 bb 96 42 b9 dd 30 73 37
       0.00014355766 2.4760104e-05 -0.00018557433 1.4495306e-05
000350 6b 49 eb b7 95 ff 81 b9 7f 21 a8 38 70 37 7f 39
       -2.8048371e-05 -0.0002479522 8.0171034e-05 0.00024339347
000360 f9 00 f2 38 c3 c1 60 b9 3e 22 bf b8 bc a0 86 b9
       0.000115396404 -0.00021434487 -9.113968e-05 -0.00025678228
000370 56 b2 d1 b8 ac 2d 21 b9 7c 3a 5d 37 53 22 de 36
       -9.999114e-05 -0.0001537117 1.3186243e-05 6.6201114e-06
000380 90 77 a3 38 7c ac 61 38 9a 0f 70 39 09 c4 eb 37
       7.794716e-05 5.380482e-05 0.00022893996 2.8105469e-05
000390 38 7a 90 39 c7 8e 90 b8 d3 e3 28 b9 f6 13 18 39
       0.0002755688 -6.8930494e-05 -0.000161066 0.00014503286
0003a0 14 21 e4 38 9e 71 d1 b8 82 47 db 38 3c 67 23 b9
       0.000108780485 -9.9870595e-05 0.00010456053 -0.00015583349
0003b0 2c 34 31 b8 85 e6 ad 37 76 1b b0 38 de f6 29 b9
       -4.2248677e-05 2.0730551e-05 8.397449e-05 -0.00016209061
0003c0 4f 07 6c b8 17 a8 c6 b6 80 c9 90 b9 36 8f 4f b8
       -5.627359e-05 -5.920428e-06 -0.0002761595 -4.948602e-05
0003d0 38 7b 0d b8 f7 02 e7 b7 fc 8f 76 39 30 1c a3 37
       -3.3731776e-05 -2.7538726e-05 0.00023514027 1.944424e-05
0003e0 aa dc ac b7 ab 93 80 b9 d7 10 10 38 c5 20 4c b7
       -2.0606753e-05 -0.00024524084 3.434796e-05 -1.2166977e-05
0003f0 6f f9 db b9 65 94 39 b9 fb 4d 24 b8 96 b1 36 39
       -0.00041956778 -0.00017698256 -3.9173272e-05 0.00017423028
