models/onlyadam/ckpt/ckpt-600.pt (torch, 106775 bytes, 30 tensors)

linears.0.weight f4 [50, 2]
0	0x3da6495e	0.081194624
1	0x3e9b4fc0	0.30334282
2	0xbe13b6db	-0.14425223
3	0x3e6e6c83	0.23283581
4	0x3e684ee4	0.22686344
5	0x3e13ee94	0.14446479
6	0x3c547b10	0.0129687935
7	0x3e574cda	0.2102541
8	0x3e21d009	0.15802015
9	0x3ea6dc13	0.32589778
10	0x3d674431	0.056461517
11	0x3efba3ad	0.49148312
12	0x3ea8516a	0.32874614
13	0x3e5b6bd6	0.21427855
14	0x3e828dde	0.2549886
15	0xbd0845dc	-0.033269748
16	0xbf063830	-0.52429485
17	0xbdcff7a2	-0.10154654
18	0x3dd7cc91	0.10537065
19	0xbe7a10c5	-0.2442046
20	0x3d1d6808	0.03842929
21	0xbeb20f4b	-0.34777293
22	0xbd734309	-0.0593901
23	0x3ea76797	0.3269622
24	0x3efb4a5f	0.49080178
25	0xbda9eb08	-0.08296782
26	0x3e8914cb	0.26773676
27	0x3e359214	0.17731506
28	0xbe96bdc3	-0.29441652
29	0xbe01528d	-0.12629147
30	0x3e4b9057	0.1987928
31	0xbe478e9e	-0.19487998
32	0x3ca404d1	0.020021828
33	0xbe29032c	-0.16505116
34	0xbc1ef81b	-0.009702708
35	0xbcf002dc	-0.029298238
36	0xbe3a7c8d	-0.18211575
37	0xbe56bbcf	-0.20970081
38	0x3d0b7d0a	0.034054793
39	0xbe400b7d	-0.18754382
40	0xbe8476c0	-0.2587185
41	0xbe9d675e	-0.30742925
42	0xbd82b01b	-0.06381246
43	0x3e1ad3aa	0.15119806
44	0x3d1f13ca	0.03883723
45	0xbe0a734b	-0.13520543
46	0x3c93e209	0.018052118
47	0xbddc1a7d	-0.1074724
48	0xbe3d0978	-0.18460643
49	0x3d2d8a60	0.042368293
50	0x3e75a12e	0.23987266
51	0xbe431c5f	-0.19053791
52	0x3e817a57	0.2528865
53	0xbea63a63	-0.3246642
54	0x3e719096	0.23590311
55	0x3d892b2c	0.066976875
56	0x3e4564f4	0.19276792
57	0x3dd16bb6	0.10225622
58	0xbde5cf29	-0.11221153
59	0x3e86a4a9	0.262975
60	0x3d9c8c59	0.07643957
61	0x3d82298d	0.063555814
62	0x3e0c06db	0.1367449
63	0xbe7954b2	-0.24348715
64	0xbe50fe39	-0.20409478
65	0xbe21a6fe	-0.15786359
66	0x3cd44ea9	0.025916414
67	0x3d01f4b6	0.031727515
68	0xbe9ca860	-0.3059721
69	0x3dce1a3f	0.100636
70	0x3d0da0a4	0.034577027
71	0x3dc3dc99	0.0956356
72	0xbe891b4e	-0.26778644
73	0xbe47cfc7	-0.19512855
74	0x3e2662fa	0.16248694
75	0x3e073e6d	0.13207407
76	0x3e68dd13	0.22740583
77	0x3e4c2f30	0.19939876
78	0x3d16d89e	0.036827676
79	0xbdc7b15c	-0.097506255
80	0x3df8760a	0.12131889
81	0x3ed5d358	0.41762805
82	0xbc650a0d	-0.013979447
83	0x3daf5921	0.08561922
84	0xbc5af3c4	-0.013363782
85	0x3d887c90	0.066643834
86	0x3e57b807	0.21066295
87	0x3e97e8c9	0.29669788
88	0xbccef8de	-0.025265153
89	0xbe7b9651	-0.2456906
90	0x3e02bcb9	0.12767304
91	0x3dfa2de5	0.12215785
92	0xbc9f5775	-0.019450882
93	0xbd97b4d7	-0.07407539
94	0xbec10249	-0.37697056
95	0xbe2ab150	-0.16669202
96	0x3e304f87	0.17217837
97	0x3e139573	0.14412479
98	0xbd006756	-0.03134855
99	0x3d33796d	0.043816973

linears.0.bias f4 [50]
0	0x3d517a5f	0.051142093
1	0x3e456412	0.19276455
2	0x3c47c66a	0.012193302
3	0xbbc50525	-0.006012576
4	0x3bdd5ca9	0.0067554307
5	0x3e2afa66	0.16697082
6	0x3de31f7c	0.110899895
7	0xbd113675	-0.035452325
8	0xbcdeb685	-0.027186641
9	0xbd13ad06	-0.03605368
10	0x3c0640ca	0.008194158
11	0x3d45c170	0.04828018
12	0xbbccbcba	-0.006248084
13	0xbd2e3ac0	-0.042536497
14	0xbd50a356	-0.05093702
15	0xbd0c584e	-0.0342639
16	0xbcf48190	-0.029846936
17	0xbda44037	-0.080200605
18	0xbd123116	-0.035691343
19	0xbdeabdd8	-0.11461991
20	0xbcee9ef2	-0.029128525
21	0x3ce28a1b	0.027653744
22	0xbd385378	-0.045001477
23	0xbd093338	-0.03349611
24	0xbc744e97	-0.014911315
25	0xbd137466	-0.035999678
26	0x3ba69e24	0.00508477
27	0xbdc3f070	-0.09567344
28	0x3e473fd8	0.19457948
29	0x3aa65b9d	0.0012692098
30	0xbd504248	-0.05084446
31	0xbcbf7d8c	-0.023375295
32	0xbca12cb5	-0.019674638
33	0xbd1a683d	-0.037697066
34	0xbcceb21b	-0.025231412
35	0x3cad3b63	0.021146482
36	0xbdebf9bf	-0.11522245
37	0xbc85e092	-0.016342435
38	0x3df6161c	0.12015936
39	0xbd81897b	-0.063250504
40	0x3d49fd78	0.049313992
41	0x3d880505	0.066415824
42	0x3d17af6e	0.037032537
43	0x3d042032	0.032257266
44	0xbde820ff	-0.113344185
45	0xbbfdd52e	-0.0077463603
46	0xbd13c1ab	-0.036073368
47	0xbd92dab5	-0.07170621
48	0x3da5889c	0.08082697
49	0xbcb9d4e2	-0.022684518

linears.1.weight f4 [50, 50]
0	0xbda427d2	-0.080154076
1	0x3c93e577	0.018053753
2	0xbcbdff9d	-0.023193175
3	0x3e8b5623	0.27214155
4	0x3cf67eb0	0.030089706
5	0xbdfa7ba3	-0.12230613
6	0xbb5ce956	-0.0033708415
7	0x3e3e1dd7	0.1856607
8	0x3d83a6cc	0.06428298
9	0xbde18abf	-0.11012792
10	0x3cec5f09	0.02885391
11	0x3e273506	0.1632882
12	0xbe157137	-0.1459397
13	0x3e4aabbe	0.19792077
14	0x3e5ff834	0.21872026
15	0xbd964202	-0.07336809
16	0xbdde8de2	-0.10866906
17	0x3c885ff9	0.016647326
18	0xbe1252f9	-0.14289464
19	0x3b9d7a9c	0.004805876
20	0x3ddacee9	0.10683996
21	0xbe8533a1	-0.26015952
22	0x3e1be74b	0.1522495
23	0xbd0d0f57	-0.034438457
24	0xbe160f28	-0.14654219
25	0x3e79b287	0.24384509
26	0xbe437276	-0.19086632
27	0x3c531350	0.012883022
28	0xbe85e566	-0.2615158
29	0x3c0247dc	0.007951703
30	0x3d2ca547	0.04214981
31	0xbde0e509	-0.10981185
32	0x3e02273d	0.1271028
33	0x3d2ddc63	0.042446505
34	0xbe813671	-0.25236848
35	0x3c6782b3	0.014130282
36	0x3d0f117b	0.03492878
37	0x3c7b56a0	0.015340477
38	0xbd28537e	-0.04109525
39	0x3dad6203	0.0846596
40	0xbe214215	-0.15747865
41	0xbeb4bf38	-0.35302138
42	0xbe4566fb	-0.19277565
43	0xbd975f8c	-0.07391271
44	0x3d77e510	0.060521185
45	0xbe0d3293	-0.13788824
46	0xbe4c7912	-0.1996806
47	0x3e859396	0.26089162
48	0xbdfac8e3	-0.12245347
49	0xbb95a876	-0.0045672012
50	0xbbdd58e2	-0.0067549804
51	0x3e4c8930	0.19974208
52	0xbdc1008c	-0.094239324
53	0x3de7d241	0.113193996
54	0x3da482ea	0.080327824
55	0xbd1b6d35	-0.037945945
56	0x3d9c9b6d	0.076468326
57	0xbdab3a81	-0.08360768
58	0x3e172293	0.14759283
59	0xbe50b7e8	-0.20382655
60	0xbd2b2d64	-0.041791335
61	0x3ebcd03a	0.36877614
62	0xbe8a58c2	-0.27020842
63	0xbe60fb6e	-0.21970913
64	0xbc07f3ae	-0.008297844
65	0xbe70c5af	-0.2351291
66	0xbe1711aa	-0.14752832
67	0x3db50404	0.088386565
68	0x3e447223	0.19184165
69	0xbe2529a5	-0.16129167
70	0xbc2c211e	-0.010505943
71	0x3e4b9b8a	0.19883552
72	0xbd214505	-0.039372463
73	0xbe489a5a	-0.1959013
74	0x3e4d5519	0.20051993
75	0xbdb8989e	-0.090134844
76	0x3d4a1feb	0.049346846
77	0x3e201f19	0.15636863
78	0xbe2cc33f	-0.16871355
79	0xbc64cf81	-0.013965488
80	0xbdc81026	-0.09768705
81	0xbe8e7550	-0.27823877
82	0xbe983c75	-0.29733625
83	0xbe1224d8	-0.14271867
84	0x3e6ee7a5	0.23330553
85	0x3e865601	0.2623749
86	0xbe918a6a	-0.28425914
87	0x3e15365c	0.14571518
88	0x3e91cadf	0.2847509
89	0xbcc971b7	-0.024590356
90	0x3e59caf1	0.21268822
91	0x3df4da0c	0.11955652
92	0xbddc166f	-0.10746466
93	0xbb1fb30d	-0.0024368197
94	0xbe3c287f	-0.18374823
95	0xbe77108b	-0.24127404
96	0xbdc2126b	-0.09476169
97	0xbe4fa6e8	-0.20278513
98	0xbe20841c	-0.15675396
99	0x3e422363	0.18958811
100	0x3e09e952	0.13467911
101	0xbe135211	-0.14386775
102	0xbdd1211b	-0.102113925
103	0x3e686dba	0.22698107
104	0xbdad4fb0	-0.08462465
105	0x3d9c7eee	0.076413974
106	0xbc42dc21	-0.011893303
107	0x3ddfef7b	0.10934349
108	0x3ebd14ff	0.3693008
109	0x3ea7fa60	0.32808208
110	0xbdb812ff	-0.08987998
111	0x3d397ad1	0.045283142
112	0xbe021fe4	-0.12707478
113	0xbd064504	-0.032780662
114	0xbe345c2a	-0.17613283
115	0xbb8b7918	-0.004256379
116	0xbe3c887d	-0.18411441
117	0xbc9effcf	-0.019409088
118	0x3d059eae	0.032622032
119	0x3d9f46cd	0.07777176
120	0xbd6bbac1	-0.05755115
121	0xbdf8487c	-0.121232
122	0x3de50ce7	0.111841016
123	0x3e86a893	0.26300487
124	0x3e2e2cb3	0.17009239
125	0x3c3cf3f8	0.011532776
126	0xbe27ec44	-0.16398722
127	0xbe858841	-0.26080516
128	0xbe5e66d4	-0.21718913
129	0xbd96d100	-0.07364082
130	0xbde4f20a	-0.11178978
131	0x3d2542fe	0.04034709
132	0xbe20a49a	-0.1568779
133	0xbe1585c3	-0.14601807
134	0x3d59b667	0.053152468
135	0x3d78eab6	0.060770713
136	0xbd8954f6	-0.06705658
137	0x3e830f9b	0.25597844
138	0x3c8b32db	0.016992023
139	0xbe14ba39	-0.14524163
140	0xbdc3bb25	-0.09557179
141	0xbe97e202	-0.29664618
142	0xbb1f9c86	-0.002435477
143	0x3db78422	0.08960749
144	0x3c7fb3ae	0.015606804
145	0xbcd7dfe5	-0.026351878
146	0xbd5248c9	-0.051338945
147	0x3d6c3153	0.057664227
148	0xbdb82ed4	-0.08993307
149	0xbda3280d	-0.079666235
150	0xbd237af5	-0.039912183
151	0xbe036587	-0.12831698
152	0x3e013f9a	0.12621918
153	0x3d02e522	0.0319568
154	0x3dc20b78	0.09474844
155	0xbd274986	-0.0408416
156	0x3d218da3	0.039441716
157	0x3e36015b	0.17773955
158	0xbe725f91	-0.23669268
159	0xbdb9b37e	-0.090674385
160	0xbcae2d47	-0.021261824
161	0x3e4360bb	0.19079868
162	0xbe3f4789	-0.18679632
163	0x3e1a5486	0.15071306
164	0xbd193832	-0.037407108
165	0xbd6f97ca	-0.058494367
166	0xbd1deebc	-0.038557753
167	0x3dcd37e5	0.10020427
168	0x3d971c03	0.0737839
169	0x3da70d26	0.08156805
170	0xbcb7d55b	-0.022440603
171	0xbd06eb4a	-0.032939233
172	0x3d86ea1b	0.06587621
173	0x3e44fa99	0.1923622
174	0xbce162fa	-0.027513016
175	0x3c327dcd	0.010894251
176	0xbcb4ba95	-0.022061625
177	0xbe238347	-0.15968047
178	0xbe1041cb	-0.14087598
179	0x3e273b72	0.1633127
180	0xbe20930a	-0.15681091
181	0xbd9e5c2f	-0.077324264
182	0xbdf1681d	-0.11787436
183	0xbdfd7435	-0.1237568
184	0xbd0881f5	-0.03332706
185	0xbdada094	-0.084778935
186	0x3e87567c	0.2643317
187	0x3d61c4a9	0.05511919
188	0xbd463ed2	-0.048399754
189	0x3e54c21e	0.20777175
190	0x3d4428d4	0.0478905
191	0xbe8f4c84	-0.27988064
192	0xbe28045a	-0.1640791
193	0xbd0fc5c8	-0.03510073
194	0x3cb53b36	0.02212296
195	0x3e13f696	0.14449534
196	0x3d409d92	0.04702527
197	0xbe0e7de7	-0.13915215
198	0xbe08a579	-0.13344373
199	0xbe793ba3	-0.24339156
200	0xbc3c0507	-0.011475808
201	0xbd778066	-0.060425185
202	0x3d91350e	0.070901975
203	0x3cc1e56a	0.023668963
204	0x3d8fbdfd	0.07018659
205	0xbdebac86	-0.115075156
206	0xbd1e73ef	-0.03868478
207	0xbd103f77	-0.035216775
208	0xbcf33033	-0.02968607
209	0xbdfdbac9	-0.12389142
210	0x3d4808c7	0.048836496
211	0xbe9f871d	-0.3115777
212	0x3e494394	0.19654685
213	0x3d0e2155	0.034699757
214	0xbdb518f9	-0.08842654
215	0x3bd71ceb	0.0065647266
216	0x3df4306e	0.119233
217	0x3e0fe6a0	0.1405282
218	0x3d82885a	0.06373663
219	0x3e00c177	0.12573801
220	0x3b811461	0.003939197
221	0xbdac3cb2	-0.08410014
222	0x3dea2218	0.11432284
223	0xbcebbb42	-0.028775815
224	0xbd616370	-0.05502647
225	0x3d375c32	0.04476566
226	0xbe49d87b	-0.19711487
227	0xbd25ac6d	-0.04044764
228	0xbdec1d98	-0.11529082
229	0x3cf20205	0.029541979
230	0x3cc0697c	0.023487799
231	0x3d30b5b0	0.04314202
232	0x3d9b2538	0.07575458
233	0xbe2f1db9	-0.17101182
234	0x3d57e81c	0.05271159
235	0xbe62b047	-0.22137557
236	0x3e2153df	0.1575465
237	0x3e3c49d1	0.18387534
238	0x3e90d0b2	0.28284222
239	0xbdc07063	-0.09396436
240	0x3dd167ec	0.102249
241	0x3e30c0ec	0.17261094
242	0x3d047a30	0.03234309
243	0xbcb184fc	-0.021669857
244	0x3981b9cc	0.00024743227
245	0xbcb0a1d9	-0.02156155
246	0x3eb7091b	0.35749134
247	0xbe18d2fe	-0.14924237
248	0x3e5ba8f7	0.21451174
249	0x3dd0d9dd	0.10197804
250	0xbdbec72f	-0.09315335
251	0xbe39505e	-0.18097064
252	0x3e146e07	0.14495097
253	0xbe645fe9	-0.22302212
254	0x3e1769f3	0.1478651
255	0x3d845c2a	0.064628914

linears.1.bias f4 [50]
0	0xbd8ebfec	-0.069702
1	0x3c15d889	0.009145864
2	0xbcfe5caa	-0.031050045
3	0xbd006da0	-0.031354547
4	0xbce6c2a0	-0.028168976
5	0xbd39fdd1	-0.045408074
6	0x3d0e4263	0.03473128
7	0x3d9a76b6	0.075421736
8	0xbd8d1280	-0.06888294
9	0xbdda6f49	-0.10665757
10	0xbc60c6c6	-0.013719266
11	0x3cc397de	0.023876127
12	0xbce0d79e	-0.027446564
13	0x3cdb1e8a	0.02674796
14	0xbd8059c2	-0.0626712
15	0x3d4daaa3	0.05021156
16	0x3d048466	0.032352827
17	0xbde6fc9a	-0.11278649
18	0x3c26f5c6	0.010190433
19	0x3d23cc5f	0.039989825
20	0x3c86c5dd	0.01645177
21	0xbd63a4f7	-0.055577245
22	0xbd158d50	-0.03651172
23	0xbd97acfc	-0.07406041
24	0xbdacd9c9	-0.08439977
25	0xbc42c3df	-0.01188752
26	0x3db3f329	0.087866135
27	0xbd79bcd1	-0.060971085
28	0xbcf9dc37	-0.030500514
29	0xbd66b0f4	-0.0563211
30	0x3d445dcb	0.04794101
31	0x3cac9055	0.021064917
32	0xbc751649	-0.0149589265
33	0x3c4c212b	0.01245908
34	0x3cfc4439	0.03079425
35	0xbd6c42e4	-0.05768098
36	0x3d893342	0.0669923
37	0x3cc0a752	0.023517285
38	0x3d5535e5	0.05205335
39	0x3bd75be9	0.006572236
40	0xbcf816e7	-0.030284358
41	0xbd04dc87	-0.032436874
42	0xbd0bf8c6	-0.034172796
43	0x3d32e91c	0.04367934
44	0xbd06d890	-0.032921374
45	0xbc14ec1b	-0.009089495
46	0xbd5da6da	-0.0541142
47	0xbd113801	-0.0354538
48	0xbd2bfd26	-0.041989468
49	0x3a11ac56	0.0005556991

linears.2.weight f4 [50, 50]
0	0xbd2385bc	-0.03992246
1	0x3d547bac	0.051875755
2	0x3df6ba5a	0.120472625
3	0x3e184c3f	0.14872836
4	0x3e721402	0.23640445
5	0x3eb1850f	0.34671828
6	0xbc42652d	-0.0118649425
7	0x3db1bb10	0.086782575
8	0x3d03ffc5	0.032226343
9	0x3e963aee	0.29341835
10	0xbdfc4014	-0.123169094
11	0xbde26100	-0.110536575
12	0x3e0fa250	0.14026761
13	0xbdc74b1f	-0.09731125
14	0x3d96cdea	0.07363494
15	0xbd65cae3	-0.05610169
16	0xbe0bb1ac	-0.13641995
17	0xbd79d5a6	-0.060994767
18	0x3eb73cf0	0.3578868
19	0x3eab55f2	0.3346401
20	0xbda4ab1f	-0.08040451
21	0x3e1878f3	0.14889888
22	0xbd7872e0	-0.06065643
23	0x3cd30fed	0.02576443
24	0x3e57eb8e	0.2108595
25	0xbc01faf6	-0.007933369
26	0x3e763cc9	0.24046625
27	0xbe525e60	-0.20543814
28	0x3eb31cb8	0.34982848
29	0x3d2b3e88	0.04180768
30	0x3d473e54	0.048643425
31	0xbde00809	-0.109390326
32	0xbdb484f7	-0.088144235
33	0xbe89f456	-0.26944226
34	0xbd71a22d	-0.058992554
35	0xbd92d42d	-0.071693756
36	0xbdba955d	-0.0911052
37	0xbe1ed54c	-0.15511054
38	0xbe84148c	-0.25796926
39	0x3eb76241	0.3581715
40	0x3cc415c1	0.023936154
41	0x3e73ecc3	0.23820786
42	0xbe3ee2d4	-0.18641216
43	0xbddcc7e1	-0.107803114
44	0xbce64ce5	-0.028112838
45	0xbe613fbb	-0.21996967
46	0x3e3a1365	0.18171461
47	0x3e822011	0.2541509
48	0x3e14900c	0.14508075
49	0xbd374add	-0.04474913
50	0xbca96318	-0.020677134
51	0x3d9080d3	0.07055821
52	0xbb8c0c5e	-0.004273935
53	0xbe93fad7	-0.28902313
54	0xbd638289	-0.05554441
55	0x3e5b008f	0.21386932
56	0x3e4ec873	0.20193653
57	0x3e05dade	0.13071772
58	0xbe164d33	-0.14677887
59	0xbd8f071c	-0.06983778
60	0x3db9c33e	0.090704426
61	0x3d084d22	0.033276685
62	0xbd7aa423	-0.06119169
63	0x3c19b43b	0.009381349
64	0xbe8cd191	-0.27503636
65	0x3c7208e3	0.014772627
66	0xbe5544fe	-0.208271
67	0x3d78b700	0.060721397
68	0x3dca52fa	0.09879108
69	0xbe23cc19	-0.15995826
70	0x3e800fc5	0.2501203
71	0x3ea6580c	0.3248905
72	0x3c7206d7	0.014772139
73	0x3e2308e0	0.15921354
74	0x3dfc5bd5	0.12322203
75	0x3e253b71	0.16135956
76	0xbeb6437a	-0.35598356
77	0xbd747beb	-0.05968849
78	0xbdc1044c	-0.09424648
79	0x3e4f6043	0.20251565
80	0xbda13c26	-0.078728005
81	0x3e977dcc	0.29588163
82	0xbe2cf983	-0.16892056
83	0x3e89a068	0.26880193
84	0x3e655831	0.22396924
85	0xbd9b52f6	-0.07584183
86	0x3e39ce7b	0.18145172
87	0x3e84b4ec	0.25919282
88	0xbe0ad502	-0.13557819
89	0x3e52f44c	0.20601004
90	0x3e376182	0.1790829
91	0x3e56baf6	0.20969757
92	0x3d230e94	0.039808825
93	0xbdae9708	-0.08524901
94	0x3e56123b	0.20905392
95	0x3ec05f09	0.37572506
96	0xbdb5835c	-0.088629454
97	0xbdd7ef1e	-0.10543655
98	0xbc68063c	-0.014161643
99	0xbe84dbe3	-0.2594901
100	0x3c30b507	0.010785348
101	0xbe148878	-0.14505184
102	0xbe2cac32	-0.16862562
103	0x3e06e693	0.13173895
104	0xbd618117	-0.05505475
105	0x3bf0eb26	0.0073522506
106	0xbe1b5366	-0.15168533
107	0xbc868050	-0.016418606
108	0x3cc71963	0.024304098
109	0xbd9a409d	-0.07531855
110	0x3dae1686	0.0850039
111	0x3c3d6296	0.011559149
112	0x3e145a4f	0.14487575
113	0xbec730b3	-0.38904342
114	0xbe137139	-0.1439866
115	0x3d343e79	0.04400489
116	0x3e41e7c3	0.18936066
117	0x3ca5f744	0.020259507
118	0x3e5a04af	0.21290849
119	0xbd3174d5	-0.04332431
120	0xbddbc7eb	-0.10731491
121	0xbeaf8e5f	-0.34288308
122	0xbe0f756a	-0.14009634
123	0x3d9d0c1a	0.07668324
124	0x3e42bf32	0.19018248
125	0xbe511b2d	-0.20420523
126	0x3ce6c052	0.028167877
127	0xbb0e4605	-0.0021709215
128	0xbca33411	-0.019922288
129	0xbdc2d38a	-0.09513004
130	0x3c30ce20	0.0107913315
131	0xbd1745af	-0.03693169
132	0x3e3cd39c	0.18440098
133	0xbcd18a99	-0.025578784
134	0x3d0043ab	0.031314533
135	0x3dfd9473	0.1238183
136	0xbe251fff	-0.16125487
137	0x3db52942	0.0884576
138	0x3e34fc4e	0.17674372
139	0x3ce720d5	0.028213898
140	0xbcfd02d3	-0.030885136
141	0x3d5ae3dd	0.053439964
142	0x3e3c0d07	0.18364345
143	0x3e1c4e3b	0.15264218
144	0xbcb4d0fe	-0.022072311
145	0xbe83af21	-0.2571955
146	0xbe109437	-0.1411904
147	0x3ddd3653	0.10801377
148	0xbe8d7d3d	-0.27634612
149	0x3b877cfe	0.0041347733
150	0x3e57772a	0.21041551
151	0x3e123270	0.14277053
152	0x3d081a80	0.033228397
153	0xbe1ef75b	-0.15524046
154	0x3d0b5bf2	0.034023233
155	0x3e12f6f3	0.14352016
156	0x3e710751	0.23537947
157	0xbe778e1e	-0.24175307
158	0x3e04460a	0.12917343
159	0x3ecb98c3	0.39764985
160	0x3e11b7c4	0.14230257
161	0xbe38b7ba	-0.18038836
162	0x3e67c9a4	0.22635514
163	0x3da943a0	0.082648516
164	0x3a9e1605	0.0012061006
165	0xbe6535ce	-0.22383806
166	0x3df31577	0.118693285
167	0x3c94369c	0.018092446
168	0x3e05775d	0.13033815
169	0x3ce623cb	0.02809324
170	0x3e124837	0.1428536
171	0x3caf2c8c	0.021383546
172	0xbe4958ff	-0.19662856
173	0x3e6b44f5	0.22975524
174	0x3e690be4	0.22758442
175	0xbe572cb5	-0.21013148
176	0xbe2dce3c	-0.16973203
177	0x3cabadc0	0.020956874
178	0x3d0705dc	0.032964572
179	0x3eba5d31	0.36399224
180	0xbde57a2d	-0.11204944
181	0x3c7ff074	0.015621293
182	0xbdef4e86	-0.11684899
183	0x3e06921d	0.13141675
184	0xbd085ae9	-0.033289824
185	0xbd0ad58f	-0.03389507
186	0xbd78859b	-0.06067429
187	0xbc644653	-0.013932782
188	0xbe9c5dc6	-0.30540293
189	0x3dab72e4	0.08371523
190	0xbdcaf6ba	-0.099103406
191	0x3d18d55f	0.03731286
192	0xbd2605e8	-0.040532976
193	0x3d320a98	0.043467134
194	0x3e3a3b99	0.18186797
195	0x3e14e515	0.14540513
196	0x3e10228c	0.14075679
197	0xbc76fdda	-0.015075171
198	0xbdab1e57	-0.08355396
199	0x3e9da827	0.30792353
200	0xbcef8f6b	-0.029243192
201	0x3e80d68b	0.25163683
202	0xbdbb8bcf	-0.09157526
203	0x3e90608c	0.2819866
204	0x3b8dbd72	0.004325562
205	0x3cc5c395	0.024141112
206	0x3d8b1765	0.067915715
207	0x3e677b1f	0.2260556
208	0x3e3bbe1e	0.18334243
209	0x3e632fcb	0.221862
210	0x3ba76696	0.0051086647
211	0xbe5f7526	-0.21822032
212	0x3d2f1779	0.042746995
213	0xbe4e9b5c	-0.20176452
214	0x3e050041	0.12988378
215	0x3e35360a	0.17696396
216	0xbe5aefe1	-0.21380569
217	0x3dfd750a	0.12375839
218	0x3d762c37	0.06010076
219	0xbe35a45d	-0.17738481
220	0xbd6634fe	-0.05620288
221	0xbe9668b4	-0.29376757
222	0x3dc28d98	0.09499663
223	0x3d917cca	0.0710388
224	0xbd6aabdb	-0.0572928
225	0xbdea9d29	-0.11455757
226	0x3cb88992	0.022526536
227	0xbd913635	-0.07090417
228	0x3db46a50	0.0880934
229	0x3dcf2727	0.101148896
230	0x3bfcbb51	0.0077127595
231	0x3dd9e86c	0.10640034
232	0xbe56e58c	-0.20986003
233	0x3df72c5a	0.12069006
234	0xbde22da3	-0.11043861
235	0xbe04e6dc	-0.12978691
236	0x3e3bfc3a	0.18357936
237	0x3e236bbb	0.15959065
238	0xbcff5ca2	-0.0311721
239	0xbe952d17	-0.29135963
240	0xbe58ea09	-0.21183027
241	0xbbf690c5	-0.007524582
242	0x3dbdf1cf	0.09274637
243	0x3d6eb895	0.0582815
244	0x3da2e22d	0.07953296
245	0x3b42ccd3	0.0029724136
246	0xbda2060c	-0.079113096
247	0xba788765	-0.00094806246
248	0xbb0ee357	-0.0021802986
249	0xbcf5a7bd	-0.02998721
250	0xbda989be	-0.08278225
251	0xbe0a5570	-0.13509154
252	0xbd0f88c4	-0.03504254
253	0x3e2a39c5	0.166236
254	0xbdedb9f6	-0.11607735
255	0xbdef56ca	-0.116864756

linears.2.bias f4 [50]
0	0xbd1173a8	-0.03551069
1	0x3c5f1ea4	0.013618145
2	0x3d16ec21	0.036846284
3	0xba7ca1b7	-0.00096371345
4	0xbcffc64b	-0.031222483
5	0x3ce7c146	0.028290402
6	0x3c2e18ae	0.010626001
7	0xbc266278	-0.010155313
8	0xbce190e5	-0.027534911
9	0x3d08a58c	0.033361003
10	0x3cc4aa8b	0.024007102
11	0x3d0e47a1	0.03473628
12	0xbd139ed1	-0.03604013
13	0x3cfda4b5	0.030962327
14	0x3cd47f7b	0.025939694
15	0x3d0aef38	0.033919543
16	0x3cf0f107	0.029411806
17	0x3cce43d5	0.02517883
18	0xbd020fa8	-0.031753212
19	0x3ca7bcc5	0.020475755
20	0x3d0f2ee7	0.03495684
21	0x3d07022b	0.032961052
22	0x3d1ba8cb	0.03800277
23	0xbce8535e	-0.028360065
24	0xbd0ba8c7	-0.034096505
25	0xbcf596c5	-0.02997912
26	0xbd056015	-0.032562334
27	0xbc8d03c0	-0.017213702
28	0x3d03e47f	0.032200333
29	0x3cf2396c	0.029568397
30	0xbcf27e59	-0.029601263
31	0x3d125f1c	0.035735235
32	0x3cff5a5f	0.031171022
33	0x3ce8525c	0.028359585
34	0x3cf522d8	0.029923841
35	0xbca054f0	-0.019571751
36	0x3cfc8869	0.030826764
37	0x3d0af9da	0.033929683
38	0xbcea17a0	-0.028575718
39	0xbd384e1f	-0.044996377
40	0xbd177007	-0.036972072
41	0xbcfa7db8	-0.030577525
42	0x3d04f8c5	0.032463808
43	0x3afffd50	0.0019530449
44	0x3cf63d06	0.030058395
45	0xbcfe491d	-0.031040723
46	0x3beb452c	0.007179877
47	0xbcf27246	-0.029595505
48	0xbb44faef	-0.0030056795
49	0x3cd80c29	0.026372986

linears.3.weight f4 [50, 50]
0	0xbd028eaa	-0.031874336
1	0xbd6734b1	-0.056446735
2	0xbdce651b	-0.10077878
3	0x3d95f878	0.07322782
4	0x3e748fa7	0.23882924
5	0x3e40495a	0.18777981
6	0x3e16ad66	0.14714584
7	0xbda6396f	-0.08116423
8	0x3e171aa8	0.14756262
9	0xbe87eb4e	-0.2654671
10	0xbc1994db	-0.009373869
11	0x3cea38ae	0.02859148
12	0x3d5fa19d	0.054597486
13	0xbdf02a71	-0.11726845
14	0x3dd1eac4	0.10249856
15	0x3a9690ca	0.0011487242
16	0x3d176138	0.03695795
17	0x3e2d3261	0.1691375
18	0x3de7637f	0.11298274
19	0xbe0a8064	-0.1352554
20	0xbd118438	-0.035526484
21	0x3d3ec1a6	0.046571396
22	0xbe180620	-0.14846087
23	0x3e272a7e	0.16324803
24	0xbe9dad39	-0.3079622
25	0xbdf4a52c	-0.119455665
26	0x3e9ce506	0.3064348
27	0x3efba788	0.49151254
28	0x3bfd2034	0.007724786
29	0x3e230de9	0.15923275
30	0x3d395a3b	0.045252066
31	0xbca031dd	-0.019555027
32	0xbcc03dfd	-0.023467058
33	0x3d16991e	0.036767118
34	0xbd7a01db	-0.061036926
35	0x3e31057e	0.17287251
36	0x3ac99eb5	0.0015382381
37	0x3d13d355	0.036090214
38	0xbe869fb1	-0.2629371
39	0x3e4c187f	0.1993122
40	0x3e63f269	0.22260441
41	0xbe441754	-0.19149524
42	0x3b29f4a9	0.0025933182
43	0x3edef0ea	0.43543178
44	0xbe855e8c	-0.26048696
45	0xbe30ac2e	-0.17253181
46	0x3d4eccd0	0.050488293
47	0xbd115013	-0.035476755
48	0xbc769efc	-0.015052553
49	0x3eb1c8cc	0.34723508
50	0xbe54aa3d	-0.20768066
51	0x3e2a04f0	0.16603446
52	0xbdd081b5	-0.1018099
53	0xbd378ae9	-0.04481021
54	0xbee319fa	-0.44355756
55	0x3d92c6e5	0.07166842
56	0x3ceeb8e4	0.029140897
57	0xbc9259d1	-0.017865093
58	0xbdd1eafa	-0.10249896
59	0xbdd50a6c	-0.104023784
60	0x3e0a5cbe	0.13511941
61	0x3bb23aa8	0.0054391213
62	0x3e1cf757	0.15328728
63	0xbcb49d47	-0.022047652
64	0xbe5e2694	-0.21694404
65	0xbda8dd1a	-0.08245297
66	0x3e3ccd21	0.18437625
67	0xbde0244c	-0.10944423
68	0x3dda1888	0.1064921
69	0x3d779175	0.060441453
70	0xbdd30796	-0.10304181
71	0xbc4f54d8	-0.012654506
72	0x3d7004ad	0.05859821
73	0xbdae7236	-0.08517878
74	0xbd6604fe	-0.056157105
75	0xbc3df48e	-0.011593951
76	0x3e2493a2	0.16071942
77	0xbec27f52	-0.37987763
78	0x3e1aafff	0.151062
79	0x3da61367	0.081091695
80	0x3e0104c4	0.12599474
81	0xbdacb203	-0.084323905
82	0xbd780ed8	-0.06056103
83	0xbd6edbe4	-0.058315173
84	0xbda62ecc	-0.081143945
85	0xbd8edf84	-0.06976226
86	0x3dad3f06	0.084592864
87	0xbdf95574	-0.12174502
88	0x3e2fb356	0.17158255
89	0xbd2d5bea	-0.042323984
90	0xbe0555b4	-0.13020974
91	0x3ec32eed	0.3812174
92	0xbd136da2	-0.035993226
93	0xbe0af664	-0.13570553
94	0xbd6e72fe	-0.058215134
95	0x3db6e602	0.08930589
96	0x3e09942d	0.13435431
97	0x3db914d5	0.090371765
98	0x3d6bb4ab	0.057545345
99	0x3e14cd60	0.1453147
100	0x3e2ac8b1	0.1667812
101	0x3d695a2d	0.056970764
102	0xbbc6c133	-0.0060655116
103	0x3ce8df00	0.028426647
104	0xbdce372c	-0.10069117
105	0x3da7da2a	0.08195908
106	0xbe08a176	-0.13342842
107	0xbeb5dc30	-0.35519552
108	0xbda7069b	-0.08155557
109	0x3e1ea7a7	0.15493642
110	0x3c899a58	0.01679723
111	0x3e173e48	0.14769852
112	0x3bed8f43	0.007249744
113	0x3e5a0b64	0.21293408
114	0x3d3135fa	0.043264367
115	0x3e38cb47	0.18046294
116	0xbe12ab14	-0.14323074
117	0xbd5c476e	-0.05377906
118	0x3dad9136	0.084749624
119	0x3dddce94	0.10830417
120	0xbd13fd1b	-0.036130052
121	0x3da5c266	0.08093719
122	0xbe0827a0	-0.13296366
123	0xbe169b38	-0.14707649
124	0xbd4d3a2c	-0.050104305
125	0xbd961ea0	-0.0733006
126	0xbb38c912	-0.002819602
127	0x3db7447c	0.08948609
128	0x3d0bd812	0.034141608
129	0x3cbac50c	0.022799037
130	0x3d7803bd	0.06055044
131	0xbd4f75ba	-0.050649382
132	0x3ebb2c2f	0.36557147
133	0xbc8436d5	-0.016139427
134	0xbe61f707	-0.2206689
135	0xbe433f2a	-0.19067064
136	0x3e6b85cd	0.2300026
137	0x3e10812a	0.14111772
138	0xbd6a151d	-0.05714904
139	0xbe136965	-0.14395674
140	0xbd9ae98a	-0.07564075
141	0x3cc0823a	0.023499597
142	0x3e74a399	0.23890533
143	0x3df38249	0.11890084
144	0xbda540b1	-0.080689795
145	0xbd8541f0	-0.06506717
146	0xbdb631ef	-0.08896243
147	0x3e207a6d	0.15671702
148	0x3babe8a4	0.005246239
149	0xbd8e0f24	-0.069364816
150	0xbe8a6aa5	-0.27034488
151	0xbe3a7dc9	-0.18212046
152	0x3e2eb596	0.17061457
153	0x3e873228	0.26405454
154	0xbded5ec9	-0.115903445
155	0x3e8f31d8	0.27967715
156	0x3db0723b	0.08615538
157	0xbd9e8cdc	-0.077417105
158	0xbdca52d0	-0.098790765
159	0x3e0b11f1	0.13581063
160	0xbd83f8fa	-0.06443973
161	0xbe065ae3	-0.13120608
162	0xbdd0c142	-0.10193111
163	0xbdc1c4ce	-0.09461366
164	0x3e8588aa	0.2608083
165	0x3d9b2870	0.07576072
166	0x3e17da48	0.14829361
167	0xbe206fb9	-0.15667619
168	0xbceb5149	-0.028725283
169	0x3e198d41	0.1499529
170	0x3e3efc92	0.18651035
171	0xbac6eb4a	-0.0015176323
172	0x3e399fa9	0.18127312
173	0xbd887785	-0.066634215
174	0x3ca759bb	0.020428529
175	0x3cf68bee	0.03009602
176	0xbd1d0dc2	-0.0383432
177	0x3de22cf2	0.11043729
178	0x3d5857e9	0.052818213
179	0xbdbfe9bc	-0.09370753
180	0xbdff8227	-0.124759965
181	0x3d97bdad	0.07409225
182	0xbe180784	-0.14846617
183	0xbe78f5d6	-0.24312529
184	0x3e08e912	0.1337016
185	0xbe709149	-0.23492922
186	0xbc85a787	-0.016315235
187	0xbc230a75	-0.009951224
188	0xbe149e22	-0.14513448
189	0x3d1614a3	0.036640774
190	0xbd78f45d	-0.060779918
191	0xbcfda36a	-0.030961711
192	0xbe685fb9	-0.22692765
193	0xbde68661	-0.112560995
194	0x3c9655a2	0.01835138
195	0x3dafc20d	0.08581934
196	0x3df6712f	0.12033307
197	0x3ba74fbf	0.005105942
198	0x3bf59624	0.007494705
199	0xbc5974cc	-0.013272475
200	0x3ebb8466	0.3662445
201	0xbd9b67fc	-0.07588193
202	0xbdcd5b72	-0.100272074
203	0xbdcb7b92	-0.099356785
204	0x3dc03f37	0.09387057
205	0xbd9227b9	-0.07136483
206	0x3dcdb14e	0.10043584
207	0xbe3071a8	-0.17230856
208	0xbccb6fac	-0.024833523
209	0xbe341339	-0.17585458
210	0x3da49dda	0.0803792
211	0xbd8563eb	-0.065131985
212	0xbdd2a47a	-0.10285278
213	0xbcae4186	-0.021271478
214	0x3ceb1109	0.028694646
215	0x3d79dc67	0.061001208
216	0xbea55e6a	-0.32298595
217	0x3e573dd8	0.21019685
218	0x3d8a197e	0.067431435
219	0x3d9fd1fe	0.07803725
220	0x3e453199	0.19257201
221	0x3c9b431a	0.018952895
222	0x3d68988e	0.056786112
223	0xbd898177	-0.067141466
224	0xbccfe1ee	-0.025376286
225	0xbd288de2	-0.041150935
226	0xbe04c587	-0.12965976
227	0xbda9606f	-0.082703464
228	0xbe6edd89	-0.23326696
229	0xbe80e5cc	-0.2517532
230	0x3de60016	0.11230485
231	0x3e5e41ab	0.21704738
232	0xbe6203bd	-0.22071739
233	0xbce012bb	-0.027352681
234	0xbe4fe512	-0.20302227
235	0xbdbcb819	-0.09214801
236	0x3e38d78c	0.18050975
237	0x3bca4a66	0.0061734198
238	0x3d570ee9	0.052504454
239	0x3d09670f	0.03354555
240	0xbe74e8e4	-0.23916966
241	0x3e387222	0.18012288
242	0xbd6d104c	-0.05787687
243	0x3df0cf81	0.11758328
244	0xbcab84ba	-0.020937312
245	0x3d458c63	0.048229586
246	0x3de2aff2	0.11068715
247	0x3e70ec0d	0.23527546
248	0x3e5fad8a	0.21843544
249	0xbdec46af	-0.11536919
250	0xbe0b6305	-0.13611992
251	0xbe382c5a	-0.17985669
252	0x3eb25152	0.34827667
253	0x3e62f199	0.22162475
254	0xbe3fb192	-0.18720081
255	0xbd4c4554	-0.049870804

linears.3.bias f4 [50]
0	0x3c0340df	0.008011072
1	0xbcd066d7	-0.025439663
2	0x3d02d6d7	0.03194317
3	0x3d157d2d	0.03649633
4	0xbd0a2f2d	-0.033736397
5	0x3d0ec098	0.03485164
6	0xbcdc0e0e	-0.02686217
7	0x3d01ae61	0.03166044
8	0xbd00a940	-0.03141141
9	0xbd109222	-0.035295613
10	0x3cfdc9c5	0.03098
11	0xbd0da441	-0.034580473
12	0xbcede39b	-0.029039195
13	0x3ce6a358	0.02815406
14	0x3d0b6a23	0.034036767
15	0xbd0f1f6d	-0.03494208
16	0x3cfe845f	0.031068979
17	0xbce3115b	-0.027718237
18	0x3ced8e05	0.028998384
19	0x3d05fd44	0.032712236
20	0x3cfa4804	0.030551918
21	0x3c9e9e52	0.019362602
22	0xbcfbece8	-0.030752614
23	0xbd9af76f	-0.075667255
24	0x3d004a7a	0.031321026
25	0x3bf2a5e9	0.007405032
26	0x3d0afede	0.033934467
27	0x3d0491de	0.032365672
28	0x3d0c8853	0.034309696
29	0x3ce780e9	0.028259711
30	0x3cfc0620	0.03076464
31	0xbce81fef	-0.02833554
32	0xbd06b625	-0.03288855
33	0x3d112db2	0.03544397
34	0xbd0a1d8a	-0.033719577
35	0xbc8aa193	-0.016922748
36	0x3d06e4ba	0.032932974
37	0x3d021fe6	0.031768702
38	0xbcf5e315	-0.030015508
39	0x3d1a922f	0.037737068
40	0x3d079e09	0.0331097
41	0x3d03d947	0.032189634
42	0x3d0f227c	0.034944996
43	0x3d014f01	0.031569485
44	0x3cfdac49	0.030965941
45	0x3cb2bfaf	0.021819917
46	0xbd021468	-0.031757742
47	0xbce9b569	-0.028528886
48	0x3cd59e2d	0.0260764
49	0xbce0d20e	-0.027443912

linears.4.weight f4 [3, 50]
0	0x3e184ff7	0.14874254
1	0xbe2e41a0	-0.17017221
2	0x3e0a5adb	0.13511221
3	0x3e3034bb	0.17207615
4	0xbeffc58c	-0.49955404
5	0x3e4fd2da	0.20295277
6	0xbe61d52b	-0.22053973
7	0x3d29ffbd	0.041503657
8	0xbee742dc	-0.45168197
9	0xbda14b3e	-0.078756794
10	0x3f248fbe	0.64281833
11	0xbe0a5c24	-0.13511711
12	0xbead77d3	-0.3388048
13	0x3e5f31f0	0.21796393
14	0x3ebfb91a	0.3744591
15	0xbe35ac46	-0.17741498
16	0x3e85ac76	0.2610814
17	0xbe9c031c	-0.30471122
18	0xbd96961c	-0.0735285
19	0x3ee4f525	0.4471828
20	0x3ebbaeb6	0.3665673
21	0x3e00ef21	0.1259122
22	0xbe9d2de3	-0.3069907
23	0x3dbfad47	0.09359222
24	0x3eb181dc	0.34669387
25	0xbe0389d7	-0.1284555
26	0x3c69f776	0.014280191
27	0x3ea33c34	0.3188187
28	0x3eeb7757	0.45989487
29	0x3d8c0546	0.06836943
30	0xbd944312	-0.07239355
31	0x3df4b154	0.11947885
32	0xbed40a8a	-0.4141429
33	0x3d11c38e	0.035586886
34	0xbe8aa71b	-0.27080616
35	0xbeb20116	-0.34766454
36	0x3d662c10	0.056194365
37	0x3e6a277e	0.22866628
38	0xbebaaa62	-0.36458117
39	0x3e93c118	0.28858256
40	0x3e0c2334	0.13685304
41	0x3df46915	0.11934105
42	0x3f01126f	0.5041875
43	0x3efba6d8	0.4915073
44	0xbc03abd3	-0.008036572
45	0x3e4ef849	0.20211901
46	0xbecb097d	-0.39655676
47	0xbe0d51fe	-0.13800809
48	0x3e6fa0ec	0.2340123
49	0xbe0d90aa	-0.13824716
50	0x3d70e730	0.058814228
51	0xbeb4d32b	-0.35317358
52	0xbcbb249b	-0.022844603
53	0xbec72f9f	-0.3890352
54	0x3d69ef63	0.057113063
55	0xbb517964	-0.0031963224
56	0x3c61bf16	0.013778469
57	0xbcfe7374	-0.031060912
58	0x3d55704f	0.05210906
59	0x3f02b249	0.5105329
60	0xbe52c063	-0.20581202
61	0x3da88afa	0.08229633
62	0xbeb39971	-0.35078004
63	0xbdaf6a79	-0.0856523
64	0x3de059ff	0.109546654
65	0x3e6be5c6	0.2303687
66	0x3e4b125e	0.19831225
67	0x3e5e4c84	0.21708876
68	0xbe9e834a	-0.3095954
69	0x3e02a2d3	0.12757425
70	0xbe371ef1	-0.17882897
71	0xbde96566	-0.11396293
72	0x3b10d007	0.002209665
73	0xbe43930c	-0.19099063
74	0x3e4894bf	0.19587992
75	0x3df3c7b0	0.11903322
76	0x3dfc327c	0.12314317
77	0xbacbff43	-0.0015563745
78	0xbdeb67e9	-0.11494429
79	0xbe4e9e7c	-0.20177644
80	0xbe1baafb	-0.15201943
81	0xbe28b3c1	-0.1647482
82	0x3d5be865	0.053688426
83	0x3e3e3813	0.18576078
84	0xbe6682a6	-0.22510776
85	0xbd77bc37	-0.06048223
86	0xbe506d24	-0.20354134
87	0xbebf1ce2	-0.37326723
88	0x3d500dd1	0.050794426
89	0x3e12f8fd	0.14352794
90	0xbe043bfa	-0.12913504
91	0x3d31e0f3	0.04342742
92	0xbe335408	-0.17512524
93	0x3eb5a8a5	0.35480228
94	0x3e90680d	0.28204384
95	0xbdaa06cd	-0.083020784
96	0xbeffe5cd	-0.49980012
97	0xbb80cf07	-0.0039309296
98	0x3edf6147	0.43628904
99	0xbd3aabd2	-0.045574017
100	0xbe2e5e83	-0.17028241
101	0xbe1a2365	-0.15052564
102	0x3e9675cb	0.29386744
103	0x3e521a4f	0.20517848
104	0xbdb52b62	-0.08846165
105	0x3e44b611	0.19210078
106	0x3df6d327	0.12051993
107	0xbc8ebc39	-0.017423736
108	0xbdcda807	-0.10041814
109	0xbd9d38c9	-0.076768465
110	0xbe5f733e	-0.21821305
111	0xbd5b0817	-0.053474512
112	0x3e953735	0.29143682
113	0xbe8e7079	-0.27820185
114	0x3ee33a8b	0.44380602
115	0xbc9f543a	-0.019449342
116	0xbe54764f	-0.20748256
117	0xbdb58d2f	-0.08864819
118	0x3ecdaac4	0.40169346
119	0x3e0244c9	0.12721552
120	0xbcfef20c	-0.031121276
121	0xbe3cb794	-0.18429404
122	0x3ddc0dcd	0.1074482
123	0xbcb34c7f	-0.021887062
124	0x3e74e60c	0.23915881
125	0x3e1fdf0e	0.15612432
126	0x3ed4fa2f	0.41597125
127	0xbd3e7feb	-0.04650871
128	0x3dbbd2b2	0.09171046
129	0x3d826358	0.063666046
130	0x3edba8b6	0.42902154
131	0xbee34f59	-0.44396475
132	0xbe6d9a1c	-0.2320332
133	0x3ea68ab3	0.32527694
134	0xbe10b9ef	-0.14133428
135	0x3e2b6925	0.16739328
136	0x3e26889a	0.16263047
137	0xbc9e8ad9	-0.019353317
138	0x3eb2a453	0.34890994
139	0xbda824d9	-0.08210153
140	0x3d4d9818	0.050193876
141	0x3e06a114	0.13147384
142	0xbde5bf00	-0.11218071
143	0xbde9ecd8	-0.114221275
144	0x3e4ba79d	0.19888158
145	0xbebad634	-0.3649155
146	0x3b264deb	0.0025376033
147	0x3e542754	0.20718127
148	0xbe944522	-0.28958994
149	0x3b908d24	0.0044113565

linears.4.bias f4 [3]
0	0x3d0b7fb2	0.034057327
1	0xbbb36ccb	-0.0054756156
2	0x3d0ed9bf	0.034875628

exp_avg f4 [50, 2]
0	0x39a1bc46	0.00030848588
1	0xbb109097	-0.0022058839
2	0xbb0665a4	-0.002050736
3	0xbab97ff0	-0.0014152508
4	0xba1b5b99	-0.000592643
5	0xbb1710e2	-0.0023050834
6	0x3a579f59	0.0008225344
7	0xba323957	-0.00067987054
8	0xbac66a85	-0.0015137946
9	0xbb3eae89	-0.002909573
10	0x3a93fc53	0.0011290408
11	0xbbbbfac8	-0.0057366826
12	0xbb900f0a	-0.004396324
13	0xbb43bd31	-0.0029867406
14	0x399bed78	0.00029740832
15	0x3b4ead4a	0.0031536394
16	0x3aa21d3f	0.0012368335
17	0xbb2864f6	-0.0025694943
18	0xba1d63a1	-0.00060039206
19	0x3ba3a570	0.004994087
20	0xbb7a5d90	-0.003820274
21	0x3c0e1ecb	0.008674334
22	0x3abc3cf8	0.0014361432
23	0xbbd0a13c	-0.006366877
24	0xbb060c5f	-0.002045415
25	0x399b3078	0.00029600016
26	0xba106516	-0.0005508227
27	0xbabad690	-0.0014254618
28	0x3af04f71	0.0018334222
29	0xba8ffdb8	-0.0010985648
30	0xbb0b77ee	-0.00212812
31	0x3b42ed58	0.0029743519
32	0x3aac8ca0	0.0013164468
33	0x3b9d7d2f	0.004806183
34	0x3ab313d8	0.001366253
35	0x3a66c987	0.00088038336
36	0x3a1d0c85	0.000599094
37	0x3b2cd392	0.0026371223
38	0x3a66ef5a	0.000880947
39	0x3aa45187	0.0012536504
40	0x3b49b6dc	0.0030779159
41	0x38d9cd0b	0.000103855586
42	0x39ab475f	0.00032668837
43	0xba961014	-0.0011448883
44	0x3ac4c4af	0.001501223
45	0x3b84c714	0.0040520523
46	0x389c70d8	7.4596785e-05
47	0x3b35639b	0.0027677778
48	0x3a2075d8	0.0006121076
49	0xbb42efd0	-0.002974499
50	0xba846b78	-0.0010102829
51	0x3aaf47a5	0.0013372792
52	0xba98ad5e	-0.0011648347
53	0x3c3e2c5f	0.011607259
54	0xba337d8d	-0.00068470166
55	0xba665536	-0.0008786501
56	0xba8d33d9	-0.0010772898
57	0x3a1e0956	0.0006028613
58	0x3b20bc1f	0.0024526191
59	0xbbe4bb34	-0.006980324
60	0xb982f12a	-0.00024975213
61	0x3b10c95a	0.002209267
62	0xb9c9c2c0	-0.00038482808
63	0x3a41c12e	0.0007391152
64	0x39828798	0.00024896557
65	0xbb799c2f	-0.0038087477
66	0x3ac808fe	0.0015261469
67	0x3973ecf4	0.00023262558
68	0x3a6dc608	0.00090703415
69	0xbb8de8e7	-0.0043307426
70	0xbb239fba	-0.002496703
71	0xb97fa782	-0.00024381097
72	0x3aae0d27	0.0013279066
73	0xb994d606	-0.0002838822
74	0xb9ac1525	-0.0003282215
75	0xbb24e7fb	-0.0025162685
76	0xbb11da37	-0.002225531
77	0xbb1e6a3b	-0.0024172205
78	0x3a295098	0.0006458848
79	0x3b99f550	0.004698433
80	0x3a2eb844	0.0006665031
81	0xbb3e9c8a	-0.0029085004
82	0xbaafa5bd	-0.0013400834
83	0xbaf021db	-0.0018320637
84	0xb995dbf5	-0.00028583375
85	0x3a1747b0	0.0005770875
86	0x39693b0c	0.00022242608
87	0x39802757	0.00024443373
88	0x3ae80059	0.0017700299
89	0x3b8a7e2b	0.004226466
90	0xbb17e105	-0.0023174894
91	0x3a35e4bd	0.0006938687
92	0x39e5816a	0.00043774705
93	0x3ace41a3	0.0015736114
94	0x3ae3a6e7	0.0017368466
95	0x3a828253	0.0009957053
96	0xba873e76	-0.0010318297
97	0x3b18bf42	0.0023307358
98	0x3acd7302	0.0015674534
99	0xbaacc262	-0.0013180489

exp_avg_sq f4 [50, 2]
0	0x39142861	0.00014129422
1	0x390ae790	0.0001324697
2	0x38df5db3	0.000106509215
3	0x39016b92	0.00012342472
4	0x3aa4f259	0.0012584432
5	0x3b05507e	0.0020342167
6	0x39698d35	0.00022273215
7	0x399f2e0d	0.00030361154
8	0x394a1f7f	0.00019275954
9	0x39d45e40	0.00040506013
10	0x3993b4af	0.00028172645
11	0x38df8889	0.000106589
12	0x390de2b7	0.00013531266
13	0x39a35092	0.00031149812
14	0x3a2c9233	0.00065830647
15	0x3a45f450	0.0007551359
16	0x39067514	0.00012822851
17	0x38f2998c	0.000115680596
18	0x38dda097	0.000105680134
19	0x3956ea80	0.00020495988
20	0x3b1f627e	0.002432018
21	0x3aaf42b5	0.0013371321
22	0x3a07c96e	0.00051798567
23	0x39e96abf	0.00044520755
24	0x398a6b80	0.00026401505
25	0x3914ae51	0.00014179318
26	0x39cd0d9a	0.0003911078
27	0x393bd06f	0.00017911357
28	0x3910e06a	0.00013816511
29	0x3906b45a	0.00012846422
30	0x39c73235	0.00037993645
31	0x3a74615b	0.00093223684
32	0x39c16c5d	0.00036892566
33	0x388a8236	6.6046065e-05
34	0x39974b2f	0.0002885698
35	0x3904bd22	0.00012658958
36	0x396e6655	0.0002273557
37	0x3997c3c3	0.00028946818
38	0x387041b6	5.7281657e-05
39	0x38c5f966	9.440146e-05
40	0x39babe95	0.0003561868
41	0x39755d58	0.00023399794
42	0x39a6bb0a	0.00031801342
43	0x3995ee6b	0.0002859713
44	0x3a0a7c33	0.00052827894
45	0x3a1073e6	0.0005510434
46	0x3ae7aae2	0.0017674828
47	0x3ad385d2	0.0016137904
48	0x391013f1	0.00013740339
49	0x38bf57f0	9.123969e-05
50	0x39925d75	0.0002791692
51	0x39ce58ff	0.0003935769
52	0x3ad398da	0.0016143576
53	0x3acab3f2	0.0015465005
54	0x39a33295	0.0003112747
55	0x3a2985fd	0.0006466804
56	0x382d0651	4.1252297e-05
57	0x399a1b95	0.0002939372
58	0x3a6ca83a	0.0009027753
59	0x3a6a2933	0.0008932531
60	0x38ab36d9	8.1641316e-05
61	0x39c5d404	0.00037732732
62	0x3a1ef394	0.00060635176
63	0x3a6127cd	0.00085889996
64	0x3a06a4d9	0.00051362586
65	0x39efacf5	0.00045714495
66	0x39c0d9c2	0.00036783336
67	0x39506bb9	0.00019876556
68	0x3a05c70c	0.00051032077
69	0x3a75676b	0.0009361419
70	0x3af2bc4a	0.0018519249
71	0x3adab3d8	0.0016685678
72	0x3987946e	0.00025859795
73	0x393ab631	0.00017806214
74	0x3afdb7a5	0.0019357098
75	0x3b07955f	0.0020688397
76	0x394a6bfd	0.0001930445
77	0x398bea9c	0.00026686944
78	0x3a24b754	0.00062834215
79	0x39e14b4f	0.00042971454
80	0x390932b3	0.00013084225
81	0x38b57090	8.651719e-05
82	0x3a8201c5	0.000991874
83	0x3a68cef0	0.0008880934
84	0x39c2ae8d	0.00037132614
85	0x39848171	0.00025273443
86	0x38da6daa	0.000104154766
87	0x399e9f0f	0.00030254616
88	0x39a2572b	0.00030963993
89	0x39e6b0fc	0.00044000882
90	0x3881bcbb	6.186353e-05
91	0x38f579e2	0.00011705213
92	0x3938c804	0.00017622119
93	0x3a1d3017	0.00059962407
94	0x39c2f268	0.0003718317
95	0x39a5a0c4	0.00031591032
96	0x38ac6666	8.220672e-05
97	0x393f36bb	0.00018235568
98	0x3ab67f67	0.0013923467
99	0x3aa3d753	0.0012500085

exp_avg f4 [50]
0	0x3a7b520e	0.0009587117
1	0x3ae678d1	0.0017583614
2	0x399a64eb	0.0002944836
3	0x3ad5b8d2	0.0016305691
4	0x3b67fd2b	0.0035398703
5	0xb9f34b98	-0.00046404894
6	0xbb41e4e6	-0.0029585897
7	0xbb998607	-0.0046851668
8	0x3a70da17	0.00091877714
9	0xbb875005	-0.004129412
10	0xbba44b90	-0.0050138906
11	0x3c15d32f	0.009144588
12	0xbba275d6	-0.004957895
13	0xba59702b	-0.00082946074
14	0x3b020017	0.001983648
15	0xbc06e732	-0.008233832
16	0xbb1256ae	-0.0022329497
17	0x3b620056	0.0034485064
18	0xbb1c39b5	-0.0023838107
19	0xbb0312f0	-0.0020000301
20	0xbaabc6be	-0.0013105494
21	0x389588bf	7.1303446e-05
22	0xbb7d2f3b	-0.0038632888
23	0xbb324801	-0.0027203562
24	0x3bb369af	0.005475245
25	0xbb97cf43	-0.004632862
26	0xbbd4f6dc	-0.0064991545
27	0x3b19e1e7	0.0023480596
28	0xbbaf97ed	-0.005358687
29	0x3ba6bf86	0.0050887493
30	0x38c61a51	9.4462775e-05
31	0xbb7e3e2f	-0.0038794389
32	0xba8a2563	-0.0010539707
33	0x3b2d5cf0	0.00264531
34	0x3b5a8b81	0.003334731
35	0xbb1de6ac	-0.002409379
36	0x3b97f4c8	0.0046373345
37	0xbb061071	-0.0020456577
38	0xbaf84640	-0.0018941835
39	0x3a3a1ed9	0.00070999336
40	0xbad92c70	-0.001656903
41	0xbabcdbdd	-0.0014408786
42	0xba8f87b6	-0.0010950479
43	0x3b47ae4e	0.0030468884
44	0xbb3c7855	-0.0028758247
45	0xba3d7353	-0.00072269625
46	0xb82340a4	-3.892243e-05
47	0x3b6fa868	0.0036568884
48	0xbc022f59	-0.007945859
49	0x3b5d3bd8	0.0033757593

exp_avg_sq f4 [50]
0	0x39e3f188	0.0004347677
1	0x39abba4b	0.0003275446
2	0x3b62ee12	0.0034626764
3	0x3a65ea09	0.00087705307
4	0x391574c1	0.00014253242
5	0x39f9e3f0	0.00047662808
6	0x3ae6b8bf	0.0017602666
7	0x3b032492	0.0020010811
8	0x395018f6	0.00019845724
9	0x39fde594	0.0004842697
10	0x3b967fc7	0.004592869
11	0x3ad3fc0c	0.0016173138
12	0x3a297db9	0.00064655725
13	0x3a8a7c72	0.0010565652
14	0x3aab43e8	0.0013066502
15	0x3bb70b9f	0.005586102
16	0x39863c24	0.0002560328
17	0x3a8b577c	0.0010630931
18	0x3a9532c5	0.0011382928
19	0x393330e5	0.00017088985
20	0x39c34918	0.00037247757
21	0x3ac9b5c8	0.0015389258
22	0x3b1f29ce	0.0024286392
23	0x3c0889f3	0.008333671
24	0x3a7b8744	0.0009595046
25	0x3b00386b	0.0019564878
26	0x3c0e0555	0.008668263
27	0x39109697	0.00013789009
28	0x3a0a9d0c	0.0005287684
29	0x3bc4379e	0.0059880754
30	0x3a2dc6fc	0.0006629077
31	0x3b7ac99a	0.0038267137
32	0x3aca4978	0.0015433272
33	0x39dc9518	0.00042072753
34	0x3a4f2839	0.0007902417
35	0x3bf47688	0.007460419
36	0x3a449c78	0.00075001223
37	0x3c6909f8	0.014223568
38	0x3a22e4a6	0.0006213881
39	0x3b106f99	0.0022039174
40	0x397d5aef	0.00024161836
41	0x3b910e68	0.004426766
42	0x3b009b40	0.0019623786
43	0x3abc72c2	0.0014377462
44	0x3ac9262f	0.0015346463
45	0x39cc91bd	0.00039018496
46	0x39fb0410	0.00047877477
47	0x3aa2b977	0.0012414892
48	0x39b0f99e	0.00033755315
49	0x3bb86f64	0.005628513

exp_avg f4 [50, 50]
0	0xb95fd150	-0.00021344912
1	0xb6e05e81	-6.686722e-06
2	0x383a4eb4	4.4419154e-05
3	0xb983fe1f	-0.00025175602
4	0xb9a86196	-0.00032116164
5	0xb9ad1617	-0.0003301359
6	0x3998e1df	0.00029159986
7	0x393c8a3d	0.00017980575
8	0xb9c2a04b	-0.0003712199
9	0x399ed87b	0.000302974
10	0x39fd9e51	0.00048373875
11	0xb9bccdc3	-0.0003601146
12	0x3a16bf91	0.00057505915
13	0xb915b78e	-0.00014278127
14	0xb972313d	-0.00023097261
15	0x39b12067	0.00033784212
16	0x3907ebe0	0.00012962474
17	0xb93f486d	-0.0001824216
18	0x37bd3d5e	2.2559132e-05
19	0xb7b2c236	-2.130969e-05
20	0x394856d4	0.00019105832
21	0xb92b0190	-0.00016308413
22	0x389fd3f3	7.6211894e-05
23	0x3858ecec	5.1719064e-05
24	0xb98308e0	-0.0002499288
25	0x39c45f3d	0.0003745499
26	0x3a254e98	0.0006305962
27	0xb90e6637	-0.00013580253
28	0x3a1553a1	0.00056963606
29	0xb9d54290	-0.0004067612
30	0xb90f0342	-0.00013638756
31	0x39be7e28	0.00036333618
32	0xb7e056c2	-2.674328e-05
33	0xb8dfb042	-0.00010666299
34	0xb9f5c001	-0.00046873096
35	0xb7c15485	-2.304675e-05
36	0xb996ebd5	-0.00028785938
37	0xb884c142	-6.3302476e-05
38	0x3989ffd0	0.0002632127
39	0xb797951b	-1.8070035e-05
40	0xb9d9aa33	-0.00041516274
41	0x387cbf0d	6.0259412e-05
42	0x36ffe6fe	7.6264832e-06
43	0xb93b2064	-0.00017845776
44	0x3779acb8	1.4881771e-05
45	0xb86de043	-5.6714063e-05
46	0xb7ede37e	-2.8358536e-05
47	0xb9988f65	-0.00029098536
48	0x393e1e79	0.00018131164
49	0xb90bbf59	-0.00013327356
50	0xba705245	-0.00091675326
51	0xb91d941a	-0.00015027859
52	0xb9c35c1f	-0.00037261934
53	0xba60e0f8	-0.0008578445
54	0xba89a730	-0.0010502096
55	0xba92bdf5	-0.0011195528
56	0xb9820d57	-0.0002480547
57	0x38a6af0d	7.9481026e-05
58	0x396c80bf	0.00022554676
59	0x3a69e7d5	0.00089227903
60	0x3abe5bd5	0.0014523218
61	0xba95508e	-0.0011391805
62	0x393ffa85	0.00018308505
63	0xba22e3e4	-0.0006213768
64	0x39294492	0.0001614264
65	0x3a3e3f1e	0.000725733
66	0x3a0fa919	0.00054802146
67	0xb94f5b7c	-0.00019775139
68	0x3a0e9c0d	0.00054401235
69	0x39a136a3	0.0003074902
70	0x3a5231b4	0.00080182706
71	0xba0db64c	-0.00054058875
72	0x39cb82c9	0.0003881662
73	0x39a47cf4	0.00031373615
74	0xb99cb60f	-0.00029890283
75	0x3a366f72	0.00069593557
76	0x3abf0bbc	0.0014575641
77	0xb9fc10db	-0.00048077744
78	0x39cfcf81	0.0003963672
79	0xba94954f	-0.0011336001
80	0xb9d668ed	-0.00040895437
81	0x3a7e8616	0.00097093114
82	0x39d7e33b	0.00041177295
83	0xb9873a79	-0.00025792772
84	0xba150c41	-0.0005685725
85	0xb9961365	-0.0002862468
86	0x394ca860	0.0001951768
87	0xb9f854d9	-0.00047365463
88	0xb9572079	-0.00020516095
89	0x3929b716	0.00016185301
90	0xbaa5db1d	-0.0012653802
91	0xb8c6ceef	-9.47992e-05
92	0xb90f391a	-0.00013658815
93	0xba5582f0	-0.00081448164
94	0x3a04bd35	0.00050635944
95	0xb9e6207f	-0.0004389323
96	0x391b3745	0.00014802541
97	0x3959b8c8	0.00020763569
98	0xb93f6f27	-0.00018256587
99	0xb9943366	-0.00028267055
100	0xb9cc9ffd	-0.00039029113
101	0xb89d2aac	-7.494292e-05
102	0xb97183d1	-0.00023032656
103	0xb911697d	-0.00013867575
104	0xba04b2e7	-0.0005062059
105	0xba603bbd	-0.00085538236
106	0xb9e935a0	-0.00044481177
107	0xb9297969	-0.00016162325
108	0x39e6a5db	0.0004399259
109	0x38e7aea0	0.00011047465
110	0x39c3e0db	0.0003736083
111	0xb9a52077	-0.0003149544
112	0xb98848e3	-0.00025994246
113	0xb993ccac	-0.00028190517
114	0x3990de8e	0.00027631636
115	0xb7954ec3	-1.779886e-05
116	0x3884b11c	6.32724e-05
117	0x373c2df1	1.121637e-05
118	0x39945b7b	0.00028296918
119	0x38c2c651	9.28758e-05
120	0x3a1448c2	0.0005656594
121	0xb7bf5302	-2.2807628e-05
122	0x37e58fac	2.736583e-05
123	0x37bcb597	2.2495906e-05
124	0x38ed6421	0.00011319691
125	0xb8435fab	-4.658072e-05
126	0x392688bd	0.00015881933
127	0xb935bd35	-0.0001733199
128	0xb9413da1	-0.00018428873
129	0xb90ba123	-0.00013316101
130	0xb8890e6a	-6.535354e-05
131	0x38b9e447	8.8640074e-05
132	0x3970a99e	0.00022951371
133	0xb7ca937c	-2.4148954e-05
134	0x39239fe8	0.00015604461
135	0xb859ad80	-5.1898416e-05
136	0x39bb9bc2	0.00035783468
137	0xb92b85a8	-0.00016357622
138	0xb9abda98	-0.00032778527
139	0x369e408e	4.716282e-06
140	0xba470de0	-0.0007593315
141	0xb77b8608	-1.4991972e-05
142	0xb6ef118f	-7.124799e-06
143	0xba0137c3	-0.00049292686
144	0x3972b040	0.00023144577
145	0xb909b4f1	-0.00013132744
146	0x3806835b	3.2070424e-05
147	0x39d1e797	0.00040036134
148	0xb951ba2c	-0.00020001148
149	0x374abddf	1.2084346e-05
150	0xb9cc1bbd	-0.0003893058
151	0xb9dd253d	-0.0004218015
152	0x36b42e49	5.3698063e-06
153	0xb9b1cf8a	-0.000339147
154	0xb9d5cba6	-0.00040778256
155	0xba04c2bb	-0.00050644175
156	0xb6ee5a7c	-7.1034865e-06
157	0x39aeb51b	0.000333228
158	0xb9a29968	-0.00031013344
159	0x3a018cf4	0.0004941963
160	0x3a1f70e6	0.0006082192
161	0xba10d80f	-0.00055253593
162	0x3a2d6f02	0.0006615968
163	0xb84f8307	-4.9474675e-05
164	0xb8f174ff	-0.00011513568
165	0x3a0b60c8	0.0005316851
166	0x3990ddab	0.00027630976
167	0xb64fa1f1	-3.0939666e-06
168	0x39184683	0.00014522117
169	0x39939289	0.00028147202
170	0x399c63c7	0.0002982898
171	0xb9a283a3	-0.00030997125
172	0x39805bb1	0.00024482378
173	0x393eae22	0.00018184682
174	0xb997e828	-0.00028973934
175	0x3a162bba	0.00057285617
176	0x3a4f712e	0.00079132884
177	0x38e387db	0.000108495085
178	0x390db73c	0.00013515068
179	0xba10ea27	-0.00055280555
180	0xb8354731	-4.3220065e-05
181	0x3a0d9480	0.00054008514
182	0x38275eb3	3.99041e-05
183	0xb828b352	-4.0221326e-05
184	0xba0a2cd8	-0.00052709645
185	0xb8e3a6c3	-0.00010855265
186	0x36dc21c1	6.5604404e-06
187	0xb84f9af4	-4.9496957e-05
188	0xb828bc13	-4.022948e-05
189	0x3932c645	0.00017049264
190	0xba10bc4e	-0.00055212236
191	0xb9025c45	-0.00012432139
192	0xb8e3bf16	-0.00010859796
193	0xb99cf755	-0.00029938915
194	0x399fcec7	0.00030480904
195	0xb88dcf1a	-6.7619796e-05
196	0x38ab094b	8.155646e-05
197	0xb8d84f08	-0.00010314403
198	0xb78176cc	-1.5433317e-05
199	0xb8fcbd2b	-0.00012051532
200	0x37321529	1.06145535e-05
201	0xb931f02e	-0.0001696951
202	0x387b29c4	5.988196e-05
203	0x3886fd51	6.436802e-05
204	0x3918e7e4	0.00014582236
205	0xb970f6f8	-0.00022980187
206	0x37b332b8	2.136208e-05
207	0xb91442f8	-0.00014139328
208	0x397e7cdf	0.00024269846
209	0x382eecb7	4.170529e-05
210	0x38ee37b7	0.00011359102
211	0xb9180974	-0.00014499371
212	0xba0f0657	-0.0005455962
213	0x394b8573	0.00019409302
214	0x37f94231	2.9713936e-05
215	0xb82101bb	-3.8387003e-05
216	0xb8065fe9	-3.2037413e-05
217	0x38838f4f	6.27326e-05
218	0xb8ca245f	-9.638885e-05
219	0x3881ca77	6.188911e-05
220	0xb97318ea	-0.00023183567
221	0x382cb227	4.1173913e-05
222	0xb7b82689	-2.1952454e-05
223	0xb7e201dd	-2.6942167e-05
224	0x3914be9a	0.00014185384
225	0xb88c8d53	-6.702044e-05
226	0x3935d545	0.00017340954
227	0x38685132	5.538873e-05
228	0xb94e1184	-0.00019652216
229	0xb81c9b40	-3.7337886e-05
230	0x387e0b22	6.0568687e-05
231	0x380f7c08	3.420937e-05
232	0xb8932e1a	-7.018093e-05
233	0x3836c016	4.3571075e-05
234	0x39944bdc	0.0002828528
235	0x37bdd5e3	2.2630154e-05
236	0x370d0d40	8.40734e-06
237	0x389f6a50	7.601513e-05
238	0xb77e79d3	-1.5167944e-05
239	0xb5006135	-4.782517e-07
240	0xb7b6b29f	-2.1779268e-05
241	0xb7556745	-1.2719834e-05
242	0x3711ebfe	8.69762e-06
243	0x3935c2bb	0.00017334048
244	0x3891d4b1	6.953756e-05
245	0x3875b370	5.8579666e-05
246	0xb54e4818	-7.684589e-07
247	0x3711f76a	8.700279e-06
248	0xb7911d97	-1.7299126e-05
249	0x38827dad	6.222292e-05
250	0xba24fb5f	-0.0006293561
251	0xb9e44a6a	-0.00043542992
252	0xb96de03e	-0.00022685618
253	0xb9f3360f	-0.0004638885
254	0xba222dbf	-0.0006186626
255	0xba942c4e	-0.0011304708
