models/onlyadam/ckpt/ckpt-7000.pt (torch, 106817 bytes, 30 tensors)

linears.0.weight f4 [50, 2]
000000 ac f4 05 3e 14 b1 8f be f8 82 c0 bd 94 be 8e be
       0.13081616 -0.28064787 -0.0939998 -0.27879775
000010 65 00 15 be 0b 4e 6c be 6c e2 bc 3d 47 89 30 3d
       -0.14550932 -0.23076646 0.09222874 0.043099668
000020 3d 1a a1 bd ad d7 2c be 75 ab c1 bd d2 d0 94 3e
       -0.07866333 -0.16879149 -0.09456531 0.29065567
000030 ae 65 e9 3d ea 95 59 be 4f 3a c8 3d 6d 8c 9b be
       0.11396347 -0.21248594 0.097767465 -0.30380574
000040 73 43 8f be d7 75 ca 3d 05 d9 6f bd d2 cc a9 be
       -0.27981147 0.098857574 -0.058556575 -0.33164078
000050 2b ce 77 3e 2e 23 26 3d 81 e2 58 3e a8 ec 0e 3e
       0.2419974 0.040560894 0.21180154 0.13957465
000060 9e 92 32 bd 96 99 64 be 3f 08 d5 3e 52 b4 93 3e
       -0.043596856 -0.22324213 0.41607854 0.2884851
000070 e4 6e 14 be 10 63 4d bf 29 9f 8d 3e db f5 a7 bd
       -0.14495426 -0.8022928 0.27660492 -0.0820119
000080 be 87 55 be 5f 22 78 be 87 90 ff 3e 53 87 b2 be
       -0.20852563 -0.24231862 0.49914953 -0.3486887
000090 83 f0 25 3d 15 54 27 bf 60 b6 c7 3e bb 2a d0 3e
       0.040512573 -0.65362674 0.3900633 0.406576
0000a0 3a 6b 86 3e 55 a4 76 bf 37 be 2c bd 1c e2 49 be
       0.26253682 -0.963445 -0.04217359 -0.1971516
0000b0 ec 8a d6 bc 19 ce ce 3e 13 0c e2 bb f8 de 62 be
       -0.02618929 0.40391615 -0.006898412 -0.22155368
0000c0 24 f1 92 3d 4f 46 99 be 7f f6 ac be 29 13 2c bd
       0.071749 -0.29936454 -0.33781812 -0.04201046
0000d0 61 bd 27 3d ba 5b 7f be 04 4f b3 bd 09 80 da 3e
       0.04095209 -0.24937335 -0.087553054 0.42675808
0000e0 8f 78 da 3e f7 f5 d3 be 31 48 57 3e 87 c7 8f 3e
       0.42670104 -0.41398594 0.21023633 0.28081915
0000f0 b2 dc 88 3e 9d b9 bf 3e a1 6a f4 be 5a 45 75 3e
       0.26730877 0.374463 -0.477376 0.23952237
000100 86 e1 cf be 96 38 6f bd 11 0b cb 3d ed 33 90 3e
       -0.40601748 -0.058403574 0.0991422 0.28164616
000110 9f 93 1e be 27 15 21 3e 13 b5 d9 3c 2b d8 97 3e
       -0.15486 0.15730725 0.0265756 0.2965711
000120 ee 33 94 3e 81 63 9a bd 8a 81 7e be bc 69 48 3e
       0.2894587 -0.0753851 -0.24854103 0.19571584
000130 10 01 05 be 71 a1 8e be 8f b5 ca bd 2c ed c2 3e
       -0.12988687 -0.27857545 -0.09897911 0.38071573
000140 c7 42 73 3d e5 7f 1d be 3f 2e c1 ba 8f 5c 8c 3e
       0.059389856 -0.15380819 -0.0014738514 0.27414367
000150 8e 5b 18 3d d7 a4 01 3f 0f b0 18 3e 58 9d 08 3e
       0.03719669 0.5064215 0.14910911 0.13341272
000160 ed 60 8f 3d f4 19 40 be 9f 59 4b be 78 b7 4c be
       0.07000909 -0.187599 -0.19858406 -0.19991863
000170 cf 50 e5 be 73 6f cb bc 2b 3f 2f 3e 21 8d 1b 3e
       -0.44788215 -0.024833417 0.1711394 0.15190555
000180 76 99 cb 3d c3 62 50 be 23 2a 0e 3f 35 f4 a9 bd
       0.0994138 -0.20350175 0.55533046 -0.08298532

linears.0.bias f4 [50]
000000 bb b8 68 3e 33 05 6b 3d 34 ba ef be 51 88 2d be
       0.22726719 0.057378005 -0.4682175 -0.16946532
000010 40 ce 4c bc 11 06 98 3b d8 7c ec 3d 62 7d 3e 3d
       -0.012500346 0.004639395 0.115472496 0.046506293
000020 c5 75 15 bc 8c ee 2e 3d 19 14 99 bd 2f 28 01 3e
       -0.009122317 0.042707965 -0.074745364 0.12612985
000030 dc 04 da bc 44 f9 b6 bd ab 89 0f 3e fb 53 f8 3e
       -0.026613645 -0.089342624 0.1401736 0.48501572
000040 e8 3e 30 3d 97 cf 8d 3d 89 6d 3b bb 89 b9 17 be
       0.043028742 0.0692436 -0.0028599224 -0.1481687
000050 25 85 01 3e 0f 0a 32 be fb 02 28 bd c5 d1 00 3d
       0.12648447 -0.1738665 -0.041018467 0.03145005
000060 d5 c8 25 3e 6f a1 c9 bd 26 69 a5 3e 09 55 81 bd
       0.16189893 -0.09845244 0.32306784 -0.06315047
000070 d6 6e 29 3f d7 bf b7 3b 0f 8b a0 bd f9 81 06 be
       0.6618475 0.005607586 -0.07839023 -0.13135518
000080 92 06 8e bd be 3d aa bd e6 cd 37 3c 52 a3 46 be
       -0.06934847 -0.08312558 0.011218524 -0.1939824
000090 2c b3 f0 3d 9f e1 0b be 3c 39 7b 3d 77 ed 83 be
       0.11752924 -0.13660286 0.06133388 -0.2576711
0000a0 81 6e 38 bc cc a7 31 bd 9a 04 c1 be 01 46 cc 3b
       -0.011256815 -0.043372914 -0.37698823 0.006233931
0000b0 46 97 d9 3c 79 f4 f6 bd cf 5b 83 3c 39 40 c7 3d
       0.02656139 -0.12058348 0.016034989 0.097290464
0000c0 2f 4e 16 3d e2 7d 61 3d
       0.036695655 0.05505169

linears.1.weight f4 [50, 50]
000000 d2 b3 6f 3e f8 9f 81 3d 66 2b f1 be ad 99 9d bc
       0.2340844 0.0632934 -0.47103423 -0.019238317
000010 46 07 80 be 9f 8e 67 3d 2d 5e 3a 3c 6f 20 06 be
       -0.2500555 0.0565325 0.011374992 -0.1309831
000020 1e 9d 03 3e 59 7f 92 bd 40 96 fb bd 99 0f d2 3e
       0.12852904 -0.07153196 -0.12284517 0.41027525
000030 36 14 88 3c 45 42 43 3d f2 09 40 3b 74 e5 a2 3e
       0.0166112 0.04767062 0.0029302803 0.31815684
000040 24 81 27 3e 6c 23 43 be ed 12 ec bd eb 7e 16 3d
       0.16357857 -0.19056481 -0.11527047 0.036742132
000050 f7 02 68 bd a1 bc 97 be bd 05 29 3e b8 1a c8 bd
       -0.056643452 -0.296361 0.16506095 -0.09770721
000060 27 7f 10 3e a6 70 88 bd 95 3c b2 3e 2f 41 44 3e
       0.14111005 -0.06662111 0.34811845 0.1916549
000070 8b 4c 93 3e a8 78 f6 3d e9 ee b4 3d 69 b2 28 3e
       0.28769335 0.12034732 0.08834631 0.16474308
000080 3d 87 9f 3d ca 05 5b 3e 4b ef 33 bd 79 09 0f be
       0.077894665 0.21388927 -0.04392938 -0.13968457
000090 f4 ab ad 3e 98 18 a1 3e 5b 33 12 3e be 29 4d bd
       0.33920252 0.31464076 0.14277403 -0.050088637
0000a0 58 93 da bc 0c 5c 76 3e 3b 49 17 be 4e b4 40 bd
       -0.026681587 0.2405855 -0.14774029 -0.047046952
0000b0 05 db 69 3e 52 ec f7 bd c8 cc 9a bd f4 dd 51 3d
       0.22837456 -0.121056214 -0.0755859 0.05123706
0000c0 49 6f 08 3e 53 46 f0 3d bf 70 b7 bc d2 cf 96 3c
       0.13323702 0.11732163 -0.022392629 0.018409643
0000d0 51 80 0d be c7 8c a1 be c6 59 44 3e b4 c9 91 3c
       -0.1381848 -0.31552717 0.19174871 0.017796375
0000e0 88 7e 09 3e 86 7f 1e 3e c8 08 89 bd 8e bb b6 3d
       0.13427174 0.15478334 -0.06691128 0.08922492
0000f0 20 97 b2 3d 01 e2 dc 3b 8f 3e a6 3e bb c1 02 be
       0.08720231 0.006740809 0.32469603 -0.12769215
000100 16 a3 e6 bd 58 20 27 be 0e 72 84 3d 58 d7 02 be
       -0.11261575 -0.16320932 0.06467067 -0.1277746
000110 15 87 f9 bd 70 3c 6f be c6 ed 71 be fe fa 9b bc
       -0.12183968 -0.23362899 -0.2362586 -0.01904058
000120 56 99 c5 3d 35 68 7c 3e 86 8d 6b 3e a7 13 c1 3e
       0.09648387 0.24649127 0.23003206 0.37710306
000130 71 d5 69 3e c4 99 17 3e c0 d0 3d 3d 14 53 3f be
       0.22835328 0.1480475 0.046341658 -0.18684036
000140 5d bf 2d be 3a 70 3c be d7 0d 2b 3d 61 c1 c7 3d
       -0.1696753 -0.18402186 0.041761246 0.09753681
000150 4e 99 63 be 2e 4b 9e bd 73 9f 07 be fe 5b 87 3d
       -0.2222645 -0.07729183 -0.13244419 0.06609343
000160 44 42 19 3d 92 fa 47 bd 7f 82 9e 3e 62 d2 1b be
       0.03741671 -0.048822947 0.30958936 -0.15216973
000170 a3 38 05 3e 24 3d 56 be 00 f2 d8 3d 6f 00 e1 3d
       0.13009886 -0.20921761 0.10593033 0.10986411
000180 ab fe f1 3d 68 db 9c bd 7e e3 94 3d 95 59 ed bc
       0.11816152 -0.07659036 0.07269953 -0.02897338
000190 86 6f 83 3e d2 20 ad bb d6 62 54 ba c8 4c 20 3c
       0.25671023 -0.0052834535 -0.0008101886 0.009783931
0001a0 b0 5c f1 3d 43 5f 83 bd fb e8 d2 bd 5d f4 3a 3e
       0.11785257 -0.06414654 -0.10298344 0.1825728
0001b0 ee 76 ec bd b8 f9 7a be 1b f8 58 bd 78 55 6c be
       -0.115461215 -0.24509323 -0.052970987 -0.23079479
0001c0 09 d5 0f 3e e4 05 c9 bd b3 f8 99 bd 0b 8e ad bb
       0.1404611 -0.09815577 -0.07518139 -0.005296474
0001d0 bf b3 2d 3e 3a 15 db bc dc 92 c0 3a 03 db b2 bd
       0.16963099 -0.02674352 0.0014692205 -0.087331794
0001e0 0a db a0 be 14 4c 98 3d bb 96 0c bc 4f 6b b7 3d
       -0.31417114 0.07436386 -0.008580859 0.08956014
0001f0 2e d8 38 3e 03 c8 80 3d f2 0e 17 3d 15 86 2e 3e
       0.18051216 0.06288149 0.036879487 0.17043336
000200 0f db c4 3d a4 29 5b be ef 0a 69 be bb c7 04 be
       0.096120946 -0.21402603 -0.22758077 -0.12966816
000210 85 b2 1b 3e f6 05 8c 3d 08 d8 a2 3b 50 2b 1a be
       0.15204819 0.068370745 0.0049696006 -0.15055585
000220 69 96 88 bd 9b 17 3f be ec f4 75 3c 38 c9 82 bd
       -0.066693135 -0.18661349 0.015012007 -0.06386036
000230 cb d0 a2 bc e6 34 e3 bd c3 6d 79 bc 8e b3 f2 bd
       -0.01987495 -0.11094074 -0.015223923 -0.118506536
000240 ac 7a 36 3d 9d 8d 0c be 39 10 d2 3d 07 d4 5a bd
       0.044550583 -0.13725896 0.102570005 -0.05342486
000250 71 77 37 3e a8 3d 77 3e 1a 6d 82 be 2a b2 c3 3c
       0.17916657 0.24144614 -0.25473863 0.023888666
000260 17 a6 c3 3d 12 91 c9 3d 6d 4a 57 3e 82 13 cd bd
       0.095531635 0.09842123 0.21024485 -0.100134864
000270 7e 1c 47 3e 40 4b 23 3e ae e2 ee bd ff a0 5c 3e
       0.19444463 0.15946674 -0.116643295 0.2154579
000280 f3 bc a5 3d bc 54 c3 bd e8 ca 8f 3d a8 a6 7b bd
       0.0809268 -0.09537646 0.07021123 -0.061438233
000290 80 f1 30 be 95 38 9d 3d d9 67 0a 3e b5 9c 6c 3e
       -0.17279625 0.07676808 0.13516177 0.23106654
0002a0 36 ff 04 3e 7f 40 da bd 5e b2 64 3d 79 b8 1e bc
       0.1298798 -0.10656833 0.055834167 -0.009687536
0002b0 8c 58 6a 3d 9a a7 71 be 68 b5 9d bd a9 03 23 be
       0.05721335 -0.23599091 -0.07700616 -0.15919365
0002c0 38 8c 14 3e f4 05 00 be 95 bd 86 bd 31 0b 8a 3e
       0.14506614 -0.12502271 -0.06579129 0.26961663
0002d0 9b cf 68 3e fb 31 4a be f5 66 18 3d 1e eb 6e 3e
       0.22735445 -0.19745629 0.037207562 0.23331878
0002e0 24 6e 83 3e f7 a1 fc bc f0 1e 25 3d 16 33 0a bd
       0.25669968 -0.03083895 0.040312707 -0.033740126
0002f0 5b 48 7b 3e 81 99 84 be f5 78 21 3d 42 a6 45 be
       0.2453932 -0.25898364 0.039421994 -0.19301704
000300 3b bc 1c be 73 17 72 be 88 07 03 3e 7f 8f da bd
       -0.15306179 -0.23641758 0.12795842 -0.10671901
000310 35 db 7f 3e 53 20 fb bd 2f cb de bd 5f 7d a3 bd
       0.24985965 -0.12262025 -0.10878598 -0.07982897
000320 f5 65 3e 3c a8 9e 05 3e 9f 52 7c 3e 9e d7 9e bc
       0.011620988 0.13048804 0.24640892 -0.019389924
000330 c0 22 5b 3e d0 fc ed bc 5b 68 de 3b 27 13 8c 3d
       0.21399975 -0.029051214 0.0067873425 0.068395905
000340 3e 0d 3c be 84 c8 d2 bd 17 5f 9e 3d a8 45 1d 3d
       -0.18364426 -0.102921516 0.07732981 0.038396508
000350 bb 83 17 3e 9c d6 ac 3d cd da 27 be 94 87 09 bd
       0.14796345 0.08439371 -0.1639206 -0.033576563
000360 d9 37 0d 3d 95 47 51 3d 5f d7 80 bd c1 f9 27 be
       0.03447709 0.051093657 -0.06291079 -0.16403867
000370 9f 50 6d be da ce ad 3d f6 43 f4 bd ec b0 88 3d
       -0.23175286 0.084867194 -0.11927025 0.0667437
000380 81 a2 75 3c 31 d6 39 be 51 a1 39 be a4 a0 11 be
       0.014992357 -0.18148114 -0.18127944 -0.14221436
000390 dc 59 fc ba e1 b6 fc bd 49 70 fe bd 8b d7 45 3e
       -0.0019252854 -0.12339569 -0.124237604 0.19320504
0003a0 a7 86 97 bd a0 d9 a3 bb b4 87 58 3c 2d ed 86 bd
       -0.0739873 -0.005000308 0.013215948 -0.065882064
0003b0 41 2c d3 bd e3 8f 23 3e e3 e2 d0 3d 8e 91 8c bd
       -0.10311175 0.15972857 0.10199525 -0.068637
0003c0 3e fb be 3e ae 6e 0d 3d 84 e8 8b 3d ac 74 33 be
       0.37301058 0.03452938 0.06831458 -0.17524976
0003d0 3c f9 39 bc 90 20 22 3e a6 b5 cb 3d 8f c2 e8 bd
       -0.011350926 0.15832734 0.09946756 -0.11365234
0003e0 f0 84 8b 3d a5 9b e5 bc a6 c8 51 3d a3 4b 5b 3d
       0.06812465 -0.028028319 0.051216744 0.05353893
0003f0 af 82 bf 3e ac 3f 04 be 67 b5 f2 3e f9 5f 52 bd
       0.3740439 -0.12914914 0.47404024 -0.051361058

linears.1.bias f4 [50]
000000 bd db f4 3d 87 82 7f bc 6f 8c ce bc d6 f3 fe bc
       0.11955974 -0.015595085 -0.025213448 -0.03112213
000010 ba e6 e5 bd 23 88 b3 bd d1 76 48 be e0 75 0f bd
       -0.11225648 -0.087662004 -0.19576575 -0.035024524
000020 6f 37 e6 ba 1f 57 68 3d 8c 02 85 3d 81 48 bc bc
       -0.0017564128 0.05672371 0.064946264 -0.022983791
000030 1d 8d 33 3e 6d 04 3e 3d b1 db 4a 3c d8 7b 1c 3d
       0.17534299 0.04639094 0.01238148 0.038204044
000040 22 66 68 3e 79 50 cc 3d 6e 3c a6 3b e8 2e 14 3d
       0.2269521 0.099762864 0.0050731217 0.036177546
000050 c9 08 12 bd 62 24 c6 3d fb cb 98 bd a4 10 24 bd
       -0.03565291 0.09674908 -0.07460781 -0.040054932
000060 d4 d0 a7 3d 08 0c 89 3a ac 32 63 bc fc 69 7c 3e
       0.08194128 0.0010455856 -0.013867062 0.24649805
000070 3c b9 9f bc 44 8d 96 be f0 86 f4 3a 8f 1b 93 be
       -0.019497506 -0.29404652 0.0018655937 -0.28731963
000080 82 44 ae 38 5e b9 17 bd c7 b8 9b bc 2e b8 81 3d
       8.309727e-05 -0.037042014 -0.019009007 0.063339576
000090 12 37 95 bc ea b9 f3 3c 09 0b 22 be 71 a1 fe bd
       -0.018214736 0.029751737 -0.15824522 -0.12433136
0000a0 b2 75 f6 3a e7 1e b4 bc c7 e8 2b 3d bc d6 c8 3d
       0.0018803386 -0.021987392 0.04197004 0.09806582
0000b0 95 ec 8b bb 00 a9 d3 bb 16 05 00 3c 63 96 b5 3c
       -0.004270146 -0.0064593554 0.007813713 0.022166437
0000c0 bf 7a cc 3d 4a 5d 0a be
       0.099843495 -0.1351215

linears.2.weight f4 [50, 50]
000000 0a 08 b1 3d 1a 57 08 3e 5c 38 7f 3d b4 9f 5b 3e
       0.086441115 0.13314477 0.062309608 0.2144764
000010 55 4c d2 be 8f f0 e4 3b e8 94 46 bd 11 9f c3 bd
       -0.41073862 0.0069866846 -0.04848185 -0.09551824
000020 ea 2c 63 be f0 91 9f bd 62 8c b0 bd e3 23 c0 3d
       -0.22185102 -0.07791507 -0.08620526 0.09381845
000030 21 5c 6e 3d 13 9a a3 3e 42 b6 b4 3d 9f de 73 3e
       0.05819333 0.31953487 0.088238254 0.23815392
000040 c0 87 21 be 4d c4 75 3e 90 16 16 bd 56 66 36 3e
       -0.15774441 0.24000664 -0.03664261 0.17812476
000050 24 9b 15 be ff a9 bf 3d e6 71 c8 3c e3 c7 82 bc
       -0.14609963 0.09358596 0.024468374 -0.015964454
000060 3e ee 5b bd dd 14 1b be 2c dd 02 3d 63 f5 39 bd
       -0.053694002 -0.15144677 0.031949207 -0.045400035
000070 0f e9 19 3e 2b fd c7 3c da 21 2b be 08 db 7b be
       0.15030311 0.024412712 -0.16712132 -0.24595273
000080 a6 dd be bc b9 fb 17 bd 35 cd 0f 3e 90 d4 57 3e
       -0.02329905 -0.037105296 0.14043124 0.2107718
000090 2a 5a 32 bd ac cd 19 3d f1 11 75 be d3 22 3d 3e
       -0.04354302 0.03754966 -0.23932625 0.18470316
0000a0 bf b7 ae bd 81 63 f9 3d e1 b8 42 3e 9b 31 e7 3d
       -0.085311405 0.12177182 0.19015838 0.11288758
0000b0 3f 56 bb 3c bb b0 13 3e ca ee 8b be 87 cb 01 3d
       0.022868274 0.14422886 -0.2733062 0.03168824
0000c0 c9 22 66 3d 22 2f 0a bf e9 18 71 bd 2d ab 27 be
       0.056185517 -0.5397817 -0.058861647 -0.16373892
0000d0 f8 6a a6 bd 2c 77 29 be 44 42 3e be b0 a4 1d be
       -0.081258714 -0.16549367 -0.18579966 -0.15394855
0000e0 77 2b 17 be f3 fb e2 bc 04 9e 41 3e 74 10 08 bd
       -0.14762674 -0.02770803 0.18907934 -0.033218816
0000f0 36 bd 72 be 1d 3c 02 3f 11 f2 bf 3e 1b 50 ba 3d
       -0.2370499 0.50872976 0.3748937 0.0909731
000100 e2 5b a3 3e 26 88 5f be 9a 8f 80 be 89 92 43 3e
       0.3190604 -0.2182928 -0.2510956 0.19098867
000110 98 e1 85 3d fc 32 7d 3a 7c 44 5a bd 90 04 10 be
       0.06537169 0.00096587813 -0.053287968 -0.1406424
000120 ed 45 3b bd 51 8f 1b be a1 f8 a6 be d8 1d 70 3c
       -0.045720983 -0.1519139 -0.32611564 0.014655553
000130 46 ca e3 bd ff 9f 36 bd bb 5c e4 bd 73 16 0d bd
       -0.11122565 -0.044586178 -0.111504994 -0.034445237
000140 c5 90 f9 bd 6b 97 78 be 83 33 e4 bc 64 44 6d 3d
       -0.12185816 -0.24276511 -0.027856594 0.05792655
000150 6a 75 75 3e 38 fd 0e be c7 d4 45 3e d5 12 a5 3d
       0.23970571 -0.13963783 0.1931945 0.080602325
000160 1a 24 bf be 33 ae b6 3e 20 99 cc bd ac 9b 38 be
       -0.3733223 0.35679778 -0.09990144 -0.18028134
000170 f4 81 ee 3d cf 4b 19 3d 62 55 7c be fe c5 99 3c
       0.1164588 0.037425812 -0.24641946 0.018771168
000180 b4 3e 6f 3d 7e bd 08 be 61 74 52 3e 80 5d 87 3e
       0.058409408 -0.13353536 0.20552208 0.26438522
000190 ce 44 33 3d 1f 63 aa 3e 6a e6 97 3e d7 62 09 be
       0.04376679 0.33278748 0.2966798 -0.1341661
0001a0 74 71 9f bd d0 74 9a bb 81 09 5e 3e 41 15 d8 3d
       -0.07785311 -0.004713632 0.21683313 0.10550929
0001b0 e4 16 4a 3e f0 2c 16 3e cf 0d 22 bd 34 c1 09 bc
       0.19735295 0.1466558 -0.03956395 -0.00840788
0001c0 e7 df 95 3d 48 7d 4a be 7e 99 d8 3e ff 23 0d 3e
       0.073180966 -0.19774354 0.42304605 0.13783263
0001d0 73 70 c1 3d ba 5c a8 39 ad c0 0c 3d 86 fe 7d be
       0.09445276 0.00032112544 0.034363437 -0.24804124
0001e0 c2 93 65 3d f6 74 2f bc e3 80 84 3d 4f 91 58 3e
       0.056049116 -0.010709038 0.06469896 0.21149181
0001f0 4b 92 a5 3d 2c e7 a7 be 7f 72 c5 3c 21 e8 91 3d
       0.08084544 -0.32793558 0.024102448 0.07124353
000200 1e 5c ba 3d ee 49 4b be 96 90 be bd 17 bc e9 3c
       0.09099601 -0.1985242 -0.09304921 0.028532071
000210 2c 9c 63 3d ca cc a2 be 42 f8 38 3d ef 53 df 3d
       0.05556886 -0.31796867 0.045158632 0.10904681
000220 89 3e 1e 3e ce f5 84 bd 34 c5 bc 3d ca 8b bc 3a
       0.15453543 -0.06492196 0.09217301 0.0014384922
000230 b1 5d ea 3d 39 49 0e 3e fb dc 5d bc 7f 67 e9 3d
       0.114436515 0.1389512 -0.013541455 0.113966934
000240 9e 91 3e be 87 e1 37 be 52 41 9b 3d c7 f0 9f 3e
       -0.18610236 -0.17957126 0.07580818 0.31238386
000250 97 a0 27 3c 5d 14 5e 3e aa d2 26 be 66 fa da 3d
       0.010231159 0.21687455 -0.162913 0.10692291
000260 2f 44 8f 3e 0e 6e ac bd e9 b8 5e 3d 73 ac 49 3d
       0.27981707 -0.08419429 0.054375563 0.049236726
000270 9f 19 de 3d 14 cc ad 3e 60 a8 8c be 04 cc 2c be
       0.108447306 0.33944762 -0.2747221 -0.16874701
000280 f3 61 e8 bd de 5b f7 3d 91 bd 1a 3d 71 92 cb 3d
       -0.11346807 0.12078069 0.03777844 0.09940041
000290 b3 26 f3 3e 12 65 82 bd 42 b8 42 be ed 5d 1e be
       0.47490463 -0.06366934 -0.19015601 -0.15465517
0002a0 83 d6 9f 3d 47 61 d1 3c d3 5d ef bd f2 9f 17 be
       0.07804587 0.02555908 -0.116878174 -0.14807108
0002b0 b2 cb 49 bd 70 5e 83 bd 36 62 a6 3e 77 ec 28 be
       -0.049266525 -0.06414497 0.32496804 -0.16496454
0002c0 20 16 87 3e 9f b1 e8 bd ce df 17 3e ca 5d 70 3e
       0.26384068 -0.113620035 0.14831468 0.23473278
0002d0 a8 8a 9a be a0 d0 de bc 56 89 33 3e d4 ed 8d 3e
       -0.3018391 -0.02719909 0.17532858 0.2772051
0002e0 2f 10 ad 3d 8c 5d 05 3e 47 d6 61 3e bc 9f 6c be
       0.084503524 0.13023967 0.22054397 -0.23107809
0002f0 bc c1 4d be 0d 10 10 3e f5 7d 54 3e ed b6 c0 3d
       -0.20093435 0.14068623 0.20751174 0.0940989
000300 23 81 b3 3c fd bc e5 3d f9 f2 07 be d2 86 bf 3d
       0.021912163 0.11217687 -0.1327628 0.09351887
000310 80 1a 72 be 55 ce 96 3e bb 3f 86 3e 33 17 07 be
       -0.23642921 0.29454294 0.26220497 -0.13192444
000320 81 41 3a bd 27 d7 3d bc 0b 39 34 3c ef 5f 86 bd
       -0.045472626 -0.011586941 0.010999928 -0.06561267
000330 95 40 ed bc 9a eb 8f 3d 8b b4 1f 3e 4d 11 15 bd
       -0.02896146 0.07027359 0.15596215 -0.036393452
000340 d1 2d 05 be 68 c8 35 3c 8a 4f 17 3e 69 cc 12 bd
       -0.13005759 0.011095144 0.14776435 -0.035839472
000350 a6 ed af bc 53 f9 3f 3d 80 b7 58 bc 9f 85 06 3e
       -0.021475624 0.046868633 -0.013227344 0.1313691
000360 b8 49 04 3e f9 05 9e 3d 79 b0 fc bd b6 e7 4a be
       0.12918746 0.07715983 -0.12338347 -0.19814953
000370 ff 38 5c 3e 38 7a 25 be c3 78 1e 3e 76 0a a9 bd
       0.21506117 -0.16159904 0.15475754 -0.082539484
000380 fb af 05 be 4d 8b ac bd ea 25 c4 3c 28 f1 4b 3e
       -0.13055412 -0.08425007 0.02394386 0.19916213
000390 d3 81 8f 3c 4d 7d d6 bd 33 b4 c6 bd 58 65 5d 3d
       0.01751796 -0.10473118 -0.09702339 0.054051727
0003a0 65 5d 0c be b0 57 38 be 3f 1c 70 3d aa 1f 0f 3e
       -0.13707502 -0.180022 0.058620688 0.13976923
0003b0 04 bc d2 3d 94 b9 a1 3d 7a ae 45 be 8c c2 43 be
       0.102897674 0.07896724 -0.19304839 -0.19117182
0003c0 60 8e 8d bd b2 d6 fa bd 51 95 2d 3e cd 54 83 bd
       -0.069119215 -0.12247981 0.16951491 -0.06412659
0003d0 c2 c6 84 3e 36 68 87 bc 4b 12 9b 3e 69 73 74 be
       0.2593289 -0.016529184 0.30287394 -0.2387215
0003e0 6b 83 f1 bd 2e 39 9f 3c 4c 34 8e bd 44 5c 2f be
       -0.11792644 0.019436445 -0.069435686 -0.1712504
0003f0 cc 8f 02 be d8 10 5c 3e aa a8 41 be 4a 36 61 3c
       -0.12750167 0.214908 -0.18911996 0.013745854

linears.2.bias f4 [50]
000000 17 9d 1e bc 91 ec ae 3d ee b2 fb bb f1 50 58 bc
       -0.009681008 0.08541215 -0.007681242 -0.013202892
000010 00 d6 9f bc 6d 7b 41 3d 49 f4 e8 3c 48 c2 d5 3b
       -0.019511223 0.04723685 0.028436797 0.0065234043
000020 f2 22 84 bc 09 57 b7 3c 19 07 7d bd a0 40 91 3c
       -0.016129944 0.022380369 -0.061774347 0.01773101
000030 0b d7 23 3d 58 7f 70 3d 14 86 10 bd dc a4 cf bc
       0.040000003 0.058715194 -0.035284117 -0.025347166
000040 94 30 16 bd 8f bd 39 3d 3f d2 5b 3d 6e 4e c4 bb
       -0.03666742 0.045346793 0.053667303 -0.005990795
000050 95 a3 33 bd 07 5c 2a bd a7 04 89 3d 2f f9 80 bd
       -0.043857176 -0.04159167 0.066903405 -0.06297528
000060 cf 64 3b bd e3 a4 f8 3b f2 1b 18 bd bc a4 ad bd
       -0.045750435 0.0075880154 -0.037136026 -0.08478686
000070 e8 1d a0 3c 61 15 87 bc 02 84 e9 3c 05 73 c3 bd
       0.01954551 -0.016489686 0.028505329 -0.095434226
000080 82 3c ca 3c 2e 68 fa bc bd cb 99 3d 99 6f 2c bc
       0.024687055 -0.030567255 0.07509563 -0.010524654
000090 fa b7 10 3d 5d 56 ef bb 47 ef 22 bd 60 91 9f 3c
       0.035331704 -0.0073039965 -0.039778974 0.0194785
0000a0 85 50 68 3c ea 61 a5 bd 27 14 a0 bd c4 55 a8 bd
       0.014179354 -0.08075316 -0.07816344 -0.082194835
0000b0 86 51 92 bd 0c 37 e6 39 1d 79 20 3d 1b 4b 92 bc
       -0.071444556 0.00043910032 0.039178003 -0.017858079
0000c0 5c e5 23 3d 08 74 60 bc
       0.040013656 -0.013699539

linears.3.weight f4 [50, 50]
000000 07 ab c5 bc d9 bf 82 be 1b 0d 01 3e 68 8e 91 3e
       -0.024129404 -0.25536993 0.12602656 0.2842896
000010 9d 54 4b be 7a ea 0d bd 8d 1e ab be f1 cc b3 bb
       -0.19856496 -0.034647442 -0.33421746 -0.0054870774
000020 59 11 05 3e 1a e4 35 be eb 16 4c be 63 59 b2 3d
       0.12994899 -0.17762795 -0.19930618 0.087084554
000030 10 1e 88 be 7d 0c c6 be 69 f5 cf bd 14 f4 0f 3e
       -0.26585436 -0.38681403 -0.1015423 0.14057952
000040 94 b2 99 3d c0 dc c3 be 30 1d 70 be e2 21 ea be
       0.07504764 -0.38254356 -0.23448634 -0.45728976
000050 c9 64 de 3d 69 0e 47 be 4b 4c d6 3e 9d f6 1e be
       0.10859067 -0.19439091 0.41855082 -0.15523763
000060 fb 1e 50 3e 07 5b cd be c0 1a 25 bd 76 82 0e 3e
       0.20324318 -0.4010851 -0.040308714 0.13916954
000070 ab f3 9d bd 25 79 49 bc ad 05 ae be 7f d1 0e be
       -0.077124916 -0.0122969495 -0.33988705 -0.13947104
000080 9a a9 8f bc 6a 86 26 be a0 65 6f be 01 7a 05 3e
       -0.017536927 -0.16262212 -0.2337861 0.13034822
000090 d8 36 06 be 40 27 e5 3d cf 85 ce 3e 49 e2 9f 3d
       -0.13106859 0.11189127 0.40336463 0.07806832
0000a0 47 27 80 bd a3 3a 0c 3e 86 64 10 3e 63 1d c1 bd
       -0.062574916 0.13694243 0.14100847 -0.09429433
0000b0 bf 99 22 3e 42 3c 8e 3e 4a ff 2b bf 88 38 12 be
       0.15878962 0.27780348 -0.67186415 -0.14279377
0000c0 16 0f cc 3d 6d c7 42 3d cb 5a 17 bd 5a d6 a6 bd
       0.09963815 0.04755347 -0.03695182 -0.08146353
0000d0 4c a3 e8 3d 1c a3 37 be 04 c0 8a bd cb 29 56 be
       0.113592714 -0.17933315 -0.06774905 -0.2091438
0000e0 2b ba 63 3e ed c2 1b be cd 36 85 3d d5 80 4c 3e
       0.22238986 -0.15211077 0.06504593 0.1997102
0000f0 05 59 3d be 78 1e 34 be 12 53 ab be c1 03 84 3d
       -0.1849099 -0.17589748 -0.33461815 0.064460285
000100 89 c9 b4 be 1b 31 54 be 32 0f 23 be 27 12 56 be
       -0.3531001 -0.20721857 -0.15923765 -0.20905362
000110 84 44 de 3c 97 6b 6a be 06 39 83 bd 39 5e 05 3c
       0.02713228 -0.22892605 -0.06407361 0.00814014
000120 59 55 41 3e 25 50 df bc 81 41 d4 3c 39 a6 b8 3c
       0.18880214 -0.027259896 0.025910141 0.022540199
000130 1a 6a 34 3e 12 c1 89 bd a7 87 08 be 72 8b 5f be
       0.176186 -0.06726278 -0.13332997 -0.21830538
000140 03 b0 f4 bd b4 ef f1 bc 73 12 8c 3c ad 7d a9 3d
       -0.11947634 -0.029533245 0.017098641 0.08275924
000150 3c 77 6c be 6d 27 8d 3d 0b 76 63 3d ec 22 bc 3d
       -0.2309236 0.068922855 0.055532496 0.09186348
000160 82 98 7f bc 74 b9 58 3e f9 d5 96 be ca a9 f2 bc
       -0.015600326 0.21164495 -0.29460123 -0.029621977
000170 d8 d7 5d 3e 57 15 23 3e ca 3d 27 3d fe db 8c 3c
       0.21664369 0.15926109 0.04083041 0.017194744
000180 5c f4 92 3e 04 1d cb 3c 17 3d b6 bd ce 74 18 be
       0.28702056 0.02479411 -0.08898371 -0.14888307
000190 84 14 27 3e 70 77 a0 bd 0d af 9f 3e d0 96 55 3e
       0.1631642 -0.07835281 0.3118824 0.20858312
0001a0 18 15 01 3e 0c 7e b1 3c 4b 84 17 3a 57 f3 41 be
       0.12605703 0.02166655 0.0005779906 -0.18940483
0001b0 4a 0f 9d 3e d5 4e 99 bd d3 b4 c5 bd 99 17 34 be
       0.30675727 -0.07485739 -0.0965363 -0.17587127
0001c0 b6 f4 df bd b0 c5 5b be 7f d7 31 3e 5c 76 a1 bb
       -0.10935347 -0.2146213 0.17367361 -0.0049274396
0001d0 96 12 71 3c 70 77 ac bd 5b 87 d9 bd d2 e0 7f be
       0.014713904 -0.084212184 -0.1062152 -0.24988106
0001e0 5c 28 80 be 2e 5a 51 bd 90 19 27 3e fc ce 0b 3d
       -0.25030792 -0.051111393 0.16318345 0.034132943
0001f0 c0 cd b7 3e 2c 2e ad bd 2e 1a 19 3e 13 57 80 3d
       0.35899162 -0.08456072 0.14951393 0.06266608
000200 1b 46 c5 bd fc e8 cb be 30 ad 9e be 95 96 ce 3d
       -0.09632512 -0.3982619 -0.30991507 0.10087315
000210 63 dc eb 3c de e6 c6 3d 51 94 1a bd e1 01 a3 3e
       0.028791612 0.09712003 -0.0377391 0.3183737
000220 5f c0 ba 3d 97 0b 9e bd b3 ef 80 3e c5 07 65 bd
       0.09118723 -0.07717054 0.25182876 -0.055915613
000230 8d c3 20 3e 14 13 8c bd 43 84 85 3e 40 d3 91 be
       0.15699597 -0.06839576 0.2607747 -0.28481483
000240 d7 1d ff 3d fb 56 51 bd 80 e2 1e bf 39 7f 61 bd
       0.124568634 -0.05110834 -0.6206436 -0.05505297
000250 4a 2e 07 3e bd 99 a4 be 16 e2 90 be 54 43 54 3e
       0.13201252 -0.32148543 -0.2829749 0.20728809
000260 3a 02 22 3e cf 68 9a bd 14 42 2e bd a1 68 e1 3d
       0.15821162 -0.07539522 -0.042543486 0.110062845
000270 f2 fb cc 3d 0d 9b 04 bd fe 94 19 3e 62 1e c5 3d
       0.10008992 -0.03237443 0.14998242 0.09624936
000280 a1 46 9f be 3f ed 8c bd 9c 02 fa 3e f7 f9 18 be
       -0.31108573 -0.068811886 0.48830116 -0.14939104
000290 5f e8 a4 3e 3c 05 22 be f2 99 d4 3d 6b c4 9f 3e
       0.32208535 -0.1582231 0.10380925 0.31204543
0002a0 6e ed 05 3e 3e f6 9a 3e 0e 08 d2 3d 82 a7 d7 bd
       0.13078853 0.30265993 0.102554426 -0.105299965
0002b0 09 62 9c be 9a 67 35 bd c2 cc 0b be 0c 97 91 bd
       -0.30543545 -0.044288255 -0.13652328 -0.07108888
0002c0 14 2d 70 3d 77 8f 8f 3e 9f cb 32 3e 1a 00 52 bd
       0.05863674 0.28039142 0.17460488 -0.051269628
0002d0 7f 59 36 3e b5 9d 79 be 4d 15 5f be 69 c5 30 be
       0.17807578 -0.24376567 -0.2178547 -0.17262806
0002e0 23 9d 7c 3e 92 12 e0 bd 8f 35 6c bd 02 75 87 bd
       0.24669318 -0.10941042 -0.057668265 -0.06614114
0002f0 38 cf 3b be 78 2f 4a 3e f2 c8 95 bd 00 29 a8 3d
       -0.18340766 0.1974467 -0.07313718 0.08210945
000300 75 f7 ec bd 92 02 ed 3d aa ad c8 bd e5 92 51 3e
       -0.11570636 0.11572756 -0.09798749 0.20466192
000310 55 84 9c 3d 91 8c 4c 3c f9 8c ca 3b 08 b8 fc 3c
       0.07642428 0.0124846855 0.006181356 0.030849472
000320 bc b3 08 3d 33 36 4c bd 03 b2 85 3e d5 36 16 3e
       0.033374533 -0.049856376 0.26112375 0.14669354
000330 e8 92 10 be e3 74 a2 be 83 dd 81 3d 3b f4 2e be
       -0.1411854 -0.31729802 0.06341078 -0.17085354
000340 9e af eb be a1 c7 62 3e f5 a4 c8 be 6a 71 5e 3e
       -0.46032423 0.22146465 -0.39188352 0.21722952
000350 55 5e c7 3d 05 81 15 3e 2f 0a c5 bd 52 f9 5b be
       0.09734789 0.14599998 -0.09621083 -0.21481827
000360 3b 95 68 be 27 0b aa bc bc aa 01 3e 2f 05 67 bd
       -0.22713177 -0.020757271 0.12662786 -0.056401428
000370 53 bc 3d 3c c4 b9 75 3e 44 5a 4c 3e bc 68 06 3e
       0.0115805445 0.23996645 0.19956309 0.1312589
000380 47 ba 04 be 66 64 f4 bc 97 4f ea 3d 37 89 8f 3d
       -0.12961684 -0.02983303 0.11440962 0.070085935
000390 31 74 97 be 64 d7 f8 bd 65 a6 e2 bb ed 6b cb 3d
       -0.29580835 -0.121504575 -0.0069168084 0.099326946
0003a0 b1 6c 96 be 3c d7 7b be b2 e9 b5 3d 7d dc 0c 3e
       -0.293798 -0.24593824 0.088824645 0.13755985
0003b0 7b 3f 05 bd eb 33 02 3e e9 66 a9 3d b5 e5 de 3e
       -0.032531243 0.12715118 0.08271582 0.43534628
0003c0 e8 de 9d 3d 13 56 dd 3e 49 c8 28 be bc 32 b4 be
       0.077085316 0.43229732 -0.16482653 -0.35194957
0003d0 c0 92 b5 be 60 50 ab 3d 03 f4 c5 3d 2a 55 49 3e
       -0.35463524 0.0836494 0.09665682 0.19661394
0003e0 cd f1 92 3d 65 b9 53 3e b8 a1 b9 3d c2 c0 fc bd
       0.07175026 0.20676191 0.090640485 -0.12341453
0003f0 de 8b ba 3e be 75 a2 bd 1c 19 2f bc 18 e2 df bc
       0.36434835 -0.07932614 -0.010687139 -0.02732949

linears.3.bias f4 [50]
000000 f6 73 8b bd 88 e3 4c 3c fa 60 1a bd 41 1d 29 3c
       -0.06809227 0.01250542 -0.03769014 0.010321916
000010 8d dd 07 3c 79 f9 32 3c bc 72 72 3c 89 9e 29 3e
       0.008292568 0.010923737 0.014797863 0.16564383
000020 f5 47 15 bd 65 89 e5 3a 25 f1 fe 3d 6b 80 35 3b
       -0.036445577 0.001751226 0.124483384 0.0027694951
000030 4c dc 64 bd 85 fa 9f bd f8 0e f0 ba 81 bf a5 3b
       -0.055874154 -0.07811455 -0.0018315008 0.0050582294
000040 94 59 8e 3c ed 37 38 3d fd 2b c6 bc 5c 0c 81 3d
       0.017376699 0.04497521 -0.024190897 0.063011855
000050 57 86 33 3d fd ed 62 bc 57 5d 9a 3d 6f 4d 80 bb
       0.04382929 -0.013850686 0.075373344 -0.003915481
000060 d7 9b 19 bd 51 68 24 bd 63 d8 c7 3c 3d 48 1f 3c
       -0.037502136 -0.040138546 0.024395173 0.009721813
000070 6e b3 c9 bd 60 41 b4 3c 74 38 6c 3d 5f aa fb bc
       -0.098486766 0.02200383 0.057671025 -0.030720888
000080 fa d1 1b bd 13 b3 44 be bf e0 f9 3c 43 60 2f bc
       -0.038042046 -0.19208936 0.030502675 -0.010704103
000090 c2 e6 b7 bd ed 45 38 bd 40 1e 4e bd 1c 8e 26 bd
       -0.089795604 -0.04498856 -0.050321817 -0.04066287
0000a0 e0 5c ac bd 1e ac bd ba 21 1a 73 3c e2 24 14 3d
       -0.08416152 -0.0014470851 0.014837773 0.036167987
0000b0 cc 1d 3b 3d 3f ac ba 3c c9 18 be 3c a6 b1 67 bd
       0.045682713 0.022787211 0.023205178 -0.056565903
0000c0 5e a2 9c 3c d9 fa b8 bc
       0.019120391 -0.022580551

linears.4.weight f4 [3, 50]
000000 3b 0f 17 bf 85 84 f0 bd 25 aa fa be 8d 1d b7 3e
       -0.59007615 -0.11744026 -0.48957935 0.35764733
000010 d3 95 e1 3d 0a 99 e2 3e 1e 8d 7e be 31 41 fc 3d
       0.11014905 0.44257385 -0.2485852 0.12317122
000020 74 71 98 be 07 03 92 3e d5 87 45 3e 4e 7a 51 3e
       -0.29774058 0.28517935 0.19290097 0.20456812
000030 86 37 50 bd 65 fa a3 be e9 56 fb be 76 7c 4c 3f
       -0.0508342 -0.32026973 -0.49089745 0.7987741
000040 75 e1 cb 3d 80 79 69 3e 83 c2 9d be b5 8f 83 3e
       0.09955112 0.22800255 -0.30812463 0.25695577
000050 34 83 05 3f 43 d6 ed 3e 38 dd e8 3d 63 6c 49 3f
       0.52153325 0.4645253 0.11370319 0.7868101
000060 13 e5 13 bf d5 16 c1 be 7b 5f f4 3d ba 08 19 be
       -0.57771415 -0.37712732 0.11932274 -0.14944735
000070 c7 54 c7 3e 8d 7d 1a 3f 62 b7 0b 3f 0d 38 cc 3e
       0.38931867 0.60347825 0.54576695 0.39886513
000080 79 a4 bb be 3a 5b 48 3e a0 12 be 3e bc c2 80 3e
       -0.3664892 0.1956605 0.37123585 0.2514857
000090 af cd 02 bf f3 40 72 be 44 f7 aa be 90 00 24 3e
       -0.510951 -0.23657589 -0.33391774 0.1601584
0000a0 9b d0 b6 be aa ca 89 be 1b 75 b5 3e f0 16 26 3f
       -0.35706028 -0.26912433 0.35440907 0.6487875
0000b0 46 f1 7b 3f cb bd 01 3f 53 56 be 3e 83 76 f5 bc
       0.9841503 0.50680226 0.37175235 -0.029963737
0000c0 13 a5 95 3e 35 a7 b9 3e a5 33 38 3c 04 9a ee 3e
       0.29227504 0.3626038 0.011242782 0.4660188
0000d0 ce a8 58 3d 19 14 fd 3e 66 6a e3 3e 07 98 4b 3e
       0.05289536 0.49429396 0.44417113 0.19882213
0000e0 db d2 d8 bd 6c 8c d4 3b d9 f8 82 bd db 9d f2 bd
       -0.105870925 0.006486466 -0.0639512 -0.11846515
0000f0 8e 5b 43 be 3a 85 9c bd b6 74 83 be f5 f1 a0 3e
       -0.19077894 -0.076425985 -0.2567498 0.314346
000100 30 14 9c be 07 76 4b 3d 4f ea bb 3e be aa 96 be
       -0.30484152 0.049673107 0.367022 -0.2942714
000110 3b ad 42 3e 75 1c 58 be 82 d8 dd be 67 ef 18 be
       0.19011395 -0.21104605 -0.43329245 -0.14935075
000120 ef 51 a7 3d 2f 5d 29 bd 06 84 b9 bd 31 aa be be
       0.081699245 -0.041348632 -0.090583846 -0.3723922
000130 53 82 2c 3e af 1b 85 be 62 4c 32 3f d5 fe 3b 3d
       0.1684659 -0.25997683 0.696478 0.045897324
000140 a8 f7 02 bf a1 d7 27 3e f8 3a 37 be 5a d8 10 3d
       -0.51159143 0.1639085 -0.17893589 0.03536258
000150 06 9b 94 bd 8c 38 1f 3d a9 d5 0c 3e 63 86 6e 3e
       -0.07256131 0.038872287 0.1375338 0.23293452
000160 d9 73 8d 3e 71 2e 61 3e 71 20 cd be 3d 6a 2b be
       0.27627447 0.21990372 -0.40063813 -0.16739745
000170 e2 a0 b9 3d d5 ea ef 3d 2f d8 6e be 28 a6 45 be
       0.09063889 0.117147125 -0.23324655 -0.19301665
000180 77 79 98 3e fa 33 41 3e a3 4f e6 bb e1 39 e2 bc
       0.2978017 0.18867484 -0.0070285364 -0.02761549
000190 5a a6 59 3e 2e f3 35 be c0 70 10 3f 56 24 c8 3e
       0.21254864 -0.17768547 0.5642204 0.39090222
0001a0 34 19 0f 3e c8 85 ef be 11 43 b8 be 61 9d 1f bf
       0.13974458 -0.46781754 -0.35988668 -0.62349516
0001b0 2c 74 a1 bd 12 65 dc bd e2 24 5d bf f4 60 73 3e
       -0.07883486 -0.10761465 -0.86384404 0.23767453
0001c0 dc 34 52 3f 93 05 26 3f d9 31 da be 42 d3 06 3e
       0.82111907 0.64852256 -0.42616156 0.13166526
0001d0 a3 e9 6c be e5 17 09 be 9c 24 cb 3e ea bc b2 bd
       -0.23136 -0.13388021 0.39676368 -0.08727439
0001e0 b2 f0 45 3e bd a2 66 3e 5c d8 d4 be e0 dd 3b 3e
       0.19330099 0.22523017 -0.4157132 0.18346357
0001f0 5f 97 1a 3f e1 e8 50 3e da d7 c2 3e 4c bc 22 bf
       0.60387224 0.20401336 0.38055307 -0.6356857
000200 32 0a 86 3e 54 b9 eb bd bc 5b e5 bd 20 d2 53 3e
       0.26179653 -0.11509958 -0.111991376 0.20685625
000210 81 1a 4c be 70 d3 d3 3e 50 35 f8 bd b6 3a e2 3d
       -0.19931985 0.41372252 -0.121195436 0.110463545
000220 33 12 10 3e a4 70 55 3d e0 d0 cc bd da 8a 0b 3d
       0.14069442 0.052109376 -0.10000777 0.034067966
000230 7b 98 3a 3f 31 b5 b6 bd e9 4f 95 3e 96 86 56 3e
       0.72888917 -0.08921278 0.2916253 0.20949778
000240 4b 29 19 3f 3f 0c 8a 3e 61 a5 e2 bd 3f 93 a0 3d
       0.59828633 0.26962468 -0.110667 0.07840585
000250 14 b0 53 3e 00 eb 78 3e
       0.20672637 0.24308395

linears.4.bias f4 [3]
000000 f2 2f 82 3c 8f 9e ec bc cc e9 a7 be
       0.015892003 -0.0288842 -0.3279556

exp_avg f4 [50, 2]
000000 84 85 8e 3b 0d e6 44 ba 49 f0 40 3c f0 c0 18 bc
       0.0043494124 -0.0007511087 0.011776038 -0.009323344
000010 35 13 b2 3b bb 68 a8 bb 4d 69 ab 3b 16 7b fa bb
       0.0054344186 -0.005139438 0.0052310587 -0.0076440675
000020 76 2d fd 3b f3 3d a5 bb f0 d7 a3 bb dc 20 3f 3b
       0.0077263666 -0.0050427853 -0.005000107 0.0029163873
000030 4b bb 24 3c 02 c9 0d bc 8e c4 cc 3b e7 6b 82 bb
       0.01005442 -0.008653881 0.006249017 -0.003980148
000040 00 d9 27 bc 53 38 14 3c 5b 6a c6 3b e8 7e 70 bb
       -0.010244608 0.009046632 0.006055159 -0.0036696736
000050 8e 0c a3 3b 6e f4 ac bb a8 9f f6 bb fe d1 ed 3b
       0.004975862 -0.0052781617 -0.0075263567 0.007257699
000060 89 9c 8c 3c 86 6c 89 bc f4 5c 22 3b 0d 18 49 bb
       0.017164486 -0.01677538 0.0024774643 -0.0030684501
000070 3f 2d 93 bc 48 9c c1 3c 68 db 64 bb 8e 1d a4 3b
       -0.017965911 0.023634091 -0.0034920815 0.005008406
000080 90 ab 1e 3c a6 83 02 bc fb 7e c2 bb 49 80 db 3b
       0.009684458 -0.007965958 -0.0059355474 0.0066986424
000090 5a e9 33 bc b1 68 48 3c eb 92 8c bb 25 fa 58 3b
       -0.010980928 0.012231992 -0.004289975 0.0033108082
0000a0 d2 98 a7 bc 18 f3 ac 3c 13 bd 36 3c 4a e4 3f bc
       -0.020458613 0.02111201 0.011153477 -0.011712143
0000b0 da b8 cc ba 4e bc 23 bb 68 3f 1d 3c 42 a6 dc bb
       -0.0015619055 -0.0024984065 0.009597637 -0.0067336867
0000c0 1d 83 11 3c a1 47 da bb 9d fc 81 3a 5a f8 c2 ba
       0.0088813575 -0.006661371 0.0009917204 -0.001487504
0000d0 c6 7f d0 3b 9c dc 0d bb 2d cd 23 3c c9 56 5c bc
       0.006362888 -0.0021646386 0.009997648 -0.013448426
0000e0 be 26 10 bb c1 f1 00 3c 9f a7 90 bc 6b 0b 8f 3c
       -0.0021995748 0.007870139 -0.017658053 0.0174615
0000f0 9d d0 e7 bb a1 fc a8 3b c3 14 91 bb ef 25 87 3b
       -0.007074429 0.005157069 -0.004427524 0.004124395
000100 bd d8 6c 3b 55 95 3c bb 4f a3 ea ba ef b8 c5 b9
       0.0036139928 -0.0028775532 -0.0017901453 -0.00037712554
000110 c4 a1 1a bc 0c e2 0f 3c b4 c0 e4 bb fb 3d 84 3b
       -0.009437982 0.008781921 -0.00698098 0.004035709
000120 79 2f b2 b8 38 3a 86 3a ed 0d 6c 3a 83 a0 d9 ba
       -8.496544e-05 0.0010240739 0.00090047606 -0.0016603622
000130 e7 fc 39 3c 15 b2 28 bc f6 0e d8 3a 9c ac a0 bb
       0.0113518005 -0.010296364 0.0016483951 -0.004903389
000140 db 3d 2c 3c e1 1b 0d bc 5a 9d 0d bc d7 c7 cf 3b
       0.010512794 -0.008612604 -0.008643473 0.0063409614
000150 7d f7 d2 3a 67 9c e6 bb 27 df c4 bb 1f 8d b8 3b
       0.0016095486 -0.0070376876 -0.006008047 0.0056320573
000160 f3 93 5d 3c b7 46 3e bc 95 db c3 3b 43 8b a2 bb
       0.013524043 -0.011613539 0.005977104 -0.004960449
000170 f0 e2 39 bc f8 a4 33 3c 87 20 6d bc 43 98 74 3c
       -0.01134561 0.010964625 -0.014473087 0.01492888
000180 94 a7 ee 3b e0 8a dd bb c9 91 16 3c d6 2a 15 bc
       0.0072831605 -0.00676094 0.009190031 -0.009104451

exp_avg_sq f4 [50, 2]
000000 c9 59 06 3d 38 99 c6 3b c6 41 ee 3d 3f 00 b4 3d
       0.03280047 0.0060607456 0.11633639 0.087891094
000010 90 45 a2 3c a9 2f 1a 3c 67 7c c9 3c 8f f2 13 3d
       0.01980856 0.009410777 0.024595452 0.036119994
000020 3a a6 8d 3c 14 e1 5f 3c 4d 2d 93 3c 54 4b 6e 3c
       0.017291177 0.013664503 0.017965937 0.014544327
000030 80 de be 3d 1c a8 a0 3d de a1 af 3c cc 23 2a 3c
       0.09319782 0.07844564 0.021439489 0.010384511
000040 2a 25 02 3e b1 d1 9d 3d ea 92 ba 3c a4 44 9b 3c
       0.1270949 0.07706011 0.022775132 0.018953629
000050 e6 e9 90 3c ac 86 8d 3c f3 0b a4 3c 4d cf c1 3c
       0.017689656 0.01727613 0.02002523 0.023658419
000060 d7 d3 65 3e 5d 4e 4c 3e c9 0a 20 3c 8a aa 67 3c
       0.22444092 0.19951768 0.009768196 0.014139781
000070 fb ec a7 3e d6 ec 93 3e 02 8c e9 3b 1a b2 55 3b
       0.3279799 0.2889163 0.007127286 0.0032607378
000080 24 6e a3 3d 9b b1 8f 3d 5d c9 fb 3c 2b 30 93 3c
       0.07979992 0.070162974 0.030735666 0.017967304
000090 be ef 3c 3e f6 fc b5 3d cc d4 a2 3b 44 b4 fa 3a
       0.1845083 0.08886139 0.004969215 0.001912721
0000a0 21 32 29 3f 51 16 90 3e fb a3 4a 3d 45 e0 84 3d
       0.66092116 0.28142026 0.04947279 0.064880885
0000b0 b5 5f 25 3c 59 1f 90 3b ff eb 96 3d d6 6e 0c 3d
       0.010093619 0.004398268 0.073692314 0.03428539
0000c0 0a b1 93 3d 98 cd 28 3d c4 d0 98 3b 37 fe 0a 3a
       0.07211502 0.041211694 0.0046635587 0.0005302163
0000d0 a7 12 01 3e 82 3b 38 3d 4c da f9 3d dc 53 ec 3d
       0.12604772 0.044978626 0.1219984 0.115394324
0000e0 34 60 81 3c 8e e3 0a 3d 75 e2 6a 3e 3b 16 44 3e
       0.015792944 0.03390842 0.22937949 0.19149105
0000f0 59 4c e4 3c a0 3c 54 3c 65 0f 06 3d f1 17 42 3d
       0.027868437 0.012953907 0.032729525 0.047386114
000100 df cc ba 3b 93 de 24 3b 0a 81 ae 3b c7 91 b1 39
       0.005700692 0.0025157079 0.0053254412 0.00033868683
000110 a8 8e 8d 3d ef ec 41 3d 7c 80 d7 3d 74 7f d3 3c
       0.06911975 0.047345098 0.10522553 0.02581761
000120 1c cb 5e 3c 19 88 d9 3a dd 30 0c 3a a6 b1 93 3a
       0.01359823 0.0016596346 0.00053478574 0.0011268153
000130 d3 f6 f7 3d 75 d2 04 3e a2 83 19 3b 1e 53 e5 3b
       0.12107625 0.12970908 0.0023424407 0.0069984337
000140 44 a2 74 3d 96 c1 13 3d 01 28 40 3d 20 68 1a 3d
       0.05972506 0.03607329 0.04691315 0.037696958
000150 b4 c3 63 3c 70 75 eb 3c 01 df bc 3c fa fe da 3c
       0.01390164 0.028742522 0.023055555 0.02673291
000160 8d af 45 3e f1 20 1b 3e ad 32 2f 3c a2 6c 02 3c
       0.19305249 0.15149285 0.010693234 0.00796047
000170 02 aa 06 3e 96 d9 b3 3d ab 45 d5 3d 26 e8 f6 3d
       0.1315079 0.087817356 0.10413679 0.120559976
000180 c4 71 0f 3d 7e 81 09 3d c3 75 e9 3d 8d d2 9d 3d
       0.035020605 0.03357076 0.113994144 0.07706175

exp_avg f4 [50]
000000 ba 78 8d bb d1 f1 88 bc 9a b9 29 bc 2d 93 10 bc
       -0.0043173702 -0.01671687 -0.010359192 -0.008824152
000010 96 7b 4c bc 09 6a bb 3b 8c 65 59 bc 20 ca 11 bc
       -0.012480637 0.0057194275 -0.01326884 -0.008898288
000020 2b 6f 5b 3c 14 03 00 bc 8c 22 0c bc 9a 90 58 3c
       0.013393204 -0.007813234 -0.0085531585 0.013218069
000030 58 e4 d6 bc 58 12 5d bb 6f 71 f5 3c 0b 7d e2 3b
       -0.02623193 -0.0033732858 0.029961316 0.006911879
000040 75 d9 65 bc ff e1 31 3c 66 b5 8c 3c c2 32 f8 3b
       -0.014028897 0.010857104 0.017176341 0.00757441
000050 23 fe 02 3d 74 34 9a bc f4 40 05 b8 b7 a8 4f bc
       0.031980645 -0.01882384 -3.1770163e-05 -0.012674502
000060 19 7f 3f bc af fd 76 bb b0 27 e8 bb 12 c7 86 bc
       -0.011688017 -0.0037687828 -0.0070848092 -0.016452346
000070 c1 f2 cc 3b 22 fa e6 3c 8c c6 44 3c 9d 16 7a 3b
       0.0062545245 0.028195444 0.012010228 0.0038160451
000080 7c d8 c7 bb a8 3e f1 3a 16 55 5a 3c e5 7c 1b 3c
       -0.006098805 0.0018405514 0.01332595 0.009490226
000090 4f 6c 35 3b da 4e 08 bb 81 09 79 bc 93 9f aa bb
       0.0027682965 -0.0020798952 -0.01520002 -0.005207011
0000a0 a6 12 81 bc d5 1b 46 3c 92 fe 95 bb 21 d8 1f 3c
       -0.015755963 0.012091597 -0.0045774663 0.009756119
0000b0 9e 52 95 bc 3b 70 31 bc a4 16 81 3c ed 18 c9 3c
       -0.018227872 -0.0108299805 0.015757866 0.024548018
0000c0 60 f1 27 bc cf f7 41 bc
       -0.010250419 -0.011838867

exp_avg_sq f4 [50]
000000 1b ca 32 3d 2f 11 67 3e 1e cc 97 3c 8b b5 53 3d
       0.043649774 0.22565149 0.018529948 0.051686805
000010 ba 83 55 3d 4f 2e 19 3d e6 cf 34 3e 7a 55 54 3d
       0.052127577 0.03739768 0.17657432 0.05183933
000020 4b 4d 69 3e 3a 9f 6e 3d f8 93 1d 3d 1c d0 6f 3d
       0.22783391 0.05825732 0.038471192 0.058548078
000030 71 77 f7 3e 1a b7 95 3c cb 16 22 3f ff 98 af 3b
       0.48333314 0.018275786 0.6331603 0.0053588147
000040 8e dd 37 3e 5f 5e 49 3d a8 4c 96 3e ca 5f 2b 3c
       0.1795561 0.049162265 0.2935536 0.01045985
000050 c2 52 8b 3f af cc 05 3e ed 4e 8c 3b 7f 71 00 3e
       1.0884631 0.13066362 0.0042818696 0.12543295
000060 75 8f 01 3e 61 c9 09 3b c7 e7 2a 3e d1 d3 68 3e
       0.12652381 0.0021024572 0.16689979 0.22737052
000070 f3 77 2c 3d ab e6 f8 3e bb 0f 80 3d 0e 87 8e 3d
       0.04210658 0.48613486 0.06253 0.069593534
000080 a3 25 40 3c fd 96 11 3c 1e df f8 3d 67 2e 03 3e
       0.011727723 0.008886096 0.12151931 0.1281067
000090 4f 45 ac 3c d8 9a 8d 3b 45 38 81 3e bc 78 cb 3b
       0.021029143 0.0043214373 0.25238243 0.006209461
0000a0 3f 36 03 3e f3 bd bf 3d c1 89 b4 3c 4c df 31 3d
       0.12813662 0.09362402 0.022038342 0.043425843
0000b0 bd 3d c8 3e 24 99 10 3d 68 1e 62 3e da cc 95 3e
       0.39109603 0.035302296 0.22081912 0.29257852
0000c0 42 32 81 3d 24 f9 45 3e
       0.06308414 0.19333321

exp_avg f4 [50, 50]
000000 e2 92 0b 39 29 92 f3 38 ad 05 59 39 8d a0 48 38
       0.00013310791 0.000116143674 0.00020696847 4.783324e-05
000010 0d 5b a6 38 23 cd 4c b9 58 fe 00 39 3c c3 47 39
       7.932456e-05 -0.00019531375 0.00012301782 0.0001905085
000020 d8 27 08 b9 7d 7b 29 39 17 96 88 38 de a7 73 b8
       -0.00012984814 0.00016163099 6.512942e-05 -5.8092053e-05
000030 8c 9e 02 39 ca 86 99 b6 4c 73 b4 39 dc ac 7a b7
       0.0001245683 -4.575447e-06 0.00034418178 -1.4941408e-05
000040 b7 6a 88 38 94 25 a0 39 7c 2d cb 39 fe 22 47 b8
       6.5048625e-05 0.00030545576 0.00038753066 -4.7477886e-05
000050 fe 7d 18 3a 99 8c 1b 39 24 3c 6f b9 f4 74 f6 38
       0.0005817114 0.00014834329 -0.0002281522 0.00011751978
000060 89 02 19 39 c0 f6 30 b8 14 5e 6a 38 91 14 84 b9
       0.00014592161 -4.2191474e-05 5.5877565e-05 -0.00025192325
000070 26 78 12 39 33 42 d6 b8 be fd d9 b8 5a b4 70 b9
       0.00013968404 -0.00010216646 -0.000103946295 -0.0002295537
000080 cd 75 74 b8 cb 8c e0 b8 e0 a8 0e b9 7c 0f d6 b8
       -5.8283844e-05 -0.00010707377 -0.00013605086 -0.000102071994
000090 61 e2 be 38 f0 a0 16 b9 f1 08 d9 38 2f ee 2d b9
       9.102072e-05 -0.00014365069 0.00010349032 -0.00016587296
0000a0 e0 17 e4 38 07 b8 19 b9 a2 f7 08 b9 66 c5 1b b8
       0.00010876334 -0.00014659773 -0.00013062221 -3.713872e-05
0000b0 30 78 fd 38 2c a4 c7 38 8d a1 eb b8 82 8e 8e b8
       0.00012086367 9.519639e-05 -0.000112357644 -6.797632e-05
0000c0 ab 16 0e 39 76 ba 3a 39 1c e4 e0 39 d2 3f 46 3a
       0.0001355062 0.00017807804 0.00042894564 0.00075626106
0000d0 0b 1a 85 3b 39 27 c9 3a b7 33 41 3a fe a0 0c bb
       0.0040619425 0.0015346772 0.0007370072 -0.0021458264
0000e0 42 08 5f 3a 0f 05 f2 3a 32 48 ea ba 51 33 b0 3a
       0.00085080054 0.0018464642 -0.0017874299 0.0013443028
0000f0 13 48 c2 3a 22 ae 63 ba fa 92 ad 3a e9 c8 70 3a
       0.0014822505 -0.00086853106 0.0013242655 0.00091852114
000100 04 8c 40 3b a1 a4 0a bb b1 2d 0b 39 91 59 6a 3b
       0.002938033 -0.0021155255 0.00013273094 0.0035758952
000110 a4 35 79 3b 4d 36 0a 3a 47 f5 a6 3b 47 57 17 3b
       0.0038026357 0.00052723737 0.0050951573 0.0023092793
000120 d6 92 0b bb bb db 85 3a c0 48 50 3a 7c 47 0a ba
       -0.0021297238 0.001021258 0.0007945411 -0.0005274934
000130 2d 4c 77 ba fa 99 19 bb 6b af 7d ba d7 48 44 ba
       -0.00094336533 -0.0023437724 -0.00096773234 -0.00074876606
000140 df a6 c8 b9 b8 2a 24 bb f3 e1 7a ba 30 17 0c ba
       -0.000382713 -0.0025049876 -0.0009570412 -0.00053440314
000150 40 00 e1 ba 02 66 89 b8 49 9a 5b 3a b2 2f 9b ba
       -0.0017166212 -6.5516695e-05 0.00083771773 -0.0011839776
000160 05 c1 12 3a 77 82 1f ba b9 3b a6 3a 48 9e a6 ba
       0.000559822 -0.00060848094 0.0012682594 -0.0012711966
000170 0e 40 63 39 06 3a 22 b9 1e b4 9e 3a 26 0c a2 3a
       0.00021672269 -0.0001547114 0.0012108122 0.001236324
000180 2b f9 04 bb c4 54 6a ba 3d dd b1 3a 9d 53 27 3b
       -0.0020290117 -0.00089390227 0.0013569962 0.0025532015
000190 96 0f ac 3a ec 7f ea 3a c2 8a 34 3c 75 6f 92 3b
       0.0013127204 0.0017890907 0.011019411 0.004468853
0001a0 06 a2 ef 3a ca 48 c4 bb 90 c6 22 3b 77 0d a9 3b
       0.001828254 -0.0059901224 0.002483759 0.005159076
0001b0 4f 9f b2 bb 90 af 62 3b dc ea 96 3b 0b ce 00 bb
       -0.00545112 0.0034589507 0.004605634 -0.0019654061
0001c0 91 50 65 3b dc c2 66 3b c5 a7 f0 3b fb 8e b2 bb
       0.0034990648 0.003521136 0.0073442184 -0.0054491735
0001d0 22 68 19 b9 36 b3 2d 3c fb 30 27 3c c2 90 20 3b
       -0.0001463001 0.010601809 0.010204549 0.0024500345
0001e0 06 97 62 3c a0 4b cd 3b 0c 13 bc bb de 8d 32 3b
       0.013829952 0.0062651187 -0.0057395753 0.0027245204
0001f0 ac 29 10 3b 7d 6b 0c bb 65 da 2d bb d8 61 d2 bb
       0.0021997495 -0.0021426373 -0.0026527878 -0.0064203553
000200 67 c3 04 bb 13 d3 ca ba ce 4a b7 b9 57 ac fd bb
       -0.002025807 -0.0015474282 -0.00034960214 -0.007741492
000210 ae 4d 63 bb ca 82 97 ba b0 7d a3 bb 88 71 3a 37
       -0.0034683752 -0.0011559364 -0.0049893484 1.11128975e-05
000220 47 dd 3a 3b 78 47 70 bb f3 ce 99 3a 84 8d dc ba
       0.002851324 -0.0036663692 0.0011734649 -0.0016826843
000230 3a 0c 6a 3b 5b 12 5f bb 49 79 76 3a 20 6e bd b8
       0.0035712854 -0.003403804 0.0009402228 -9.032735e-05
000240 59 a7 5f 3b 10 ae 43 3b 4b 81 d5 bb 59 e2 09 bb
       0.0034126847 0.0029858388 -0.006515657 -0.0021039455
000250 11 45 7d 3b 83 ff 04 3c 65 8d 18 3a ca 4b 03 3a
       0.0038645903 0.008117559 0.0005819409 0.0005008547
000260 8b b1 e2 3a 26 4e 31 3a 6c 7f d0 39 ba 94 a2 ba
       0.0017295344 0.0006763659 0.00039767788 -0.0012403943
000270 64 20 30 3a d1 45 95 3a 4e b5 8f ba 41 d3 57 3a
       0.0006718694 0.0011388605 -0.0010964067 0.00082330784
000280 b3 81 51 3a 34 76 9a b9 67 66 3d 3a eb fc 02 3a
       0.0007992044 -0.00029461237 0.0007225037 0.0004996794
000290 2a ca eb 3a f0 03 0f ba 80 ef d0 38 0e 82 10 3b
       0.0017989327 -0.0005455604 9.962823e-05 0.0022050175
0002a0 a4 10 0b 3b 67 34 45 39 7b 21 40 3b 7c 1b 8f 3a
       0.0021219635 0.00018806905 0.002931683 0.0010918225
0002b0 16 9a a6 ba c4 02 26 3a 0b c5 35 3a 93 13 07 ba
       -0.0012710716 0.00063328096 0.0006933964 -0.0005152758
0002c0 f8 fa d0 b8 83 2d bb ba f6 85 cf 39 96 81 cb b9
       -9.9649595e-05 -0.0014280531 0.00039581925 -0.00038815726
0002d0 25 4f 8f b9 63 18 e1 ba 0c 5a 40 ba 62 3b d4 b9
       -0.00027334053 -0.0017173406 -0.0007337637 -0.00040480035
0002e0 c1 3b 83 ba 7f 41 9d b9 ab b4 38 3a 2d f8 6f ba
       -0.0010012315 -0.00029994172 0.00070459646 -0.00091541075
0002f0 78 ca ca 39 bd 4a 3b ba cf ee 3e 3a ff 03 50 ba
       0.00038679293 -0.0007144621 0.000728351 -0.0007935166
000300 88 b8 c0 b9 7c 92 71 b8 ba 6f 44 3a bd 6c 07 3a
       -0.0003675858 -5.75953e-05 0.0007493455 0.00051660446
000310 84 95 a3 ba ad f7 ba b9 33 22 5f 3a 8f 4b db 3a
       -0.0012480472 -0.00035661217 0.0008511871 0.0016730892
000320 6d 39 e1 b9 c6 01 a4 b9 fd 04 bf 3a 18 f5 59 3a
       -0.0004295813 -0.0003128184 0.001457363 0.0008314415
000330 37 14 8c b8 20 36 bd b9 26 99 a8 b8 f6 a8 40 39
       -6.6794855e-05 -0.00036089215 -8.0393904e-05 0.0001837349
000340 85 c5 2d ba 45 c4 19 b9 23 68 5a 3a 7b 36 2e b8
       -0.0006628859 -0.00014664333 0.00083315576 -4.153557e-05
000350 e3 9f c3 38 2d e1 95 3a 2f 07 af b9 40 b4 92 ba
       9.328106e-05 0.0011434905 -0.00033383953 -0.0011192635
000360 41 9d 0d ba c0 f6 85 3a 16 52 e5 39 5c 37 9e 3a
       -0.0005402156 0.0010220632 0.00043739442 0.0012070942
000370 4d 0c 1b 3a 95 a7 26 3a 26 b1 c2 b8 34 71 2f b8
       0.0005914614 0.0006357369 -9.283637e-05 -4.182868e-05
000380 d7 bc a4 b9 7a 06 d4 b9 48 c3 82 ba 0e 78 24 b9
       -0.00031421214 -0.00040440616 -0.0009976411 -0.00015684983
000390 94 d2 a5 ba ef dd b0 39 84 03 3c 3a 8d f2 3b ba
       -0.0012651258 0.0003373469 0.0007172155 -0.0007169627
0003a0 ad 80 2d ba 57 b8 dc 39 05 6b f6 b9 86 43 2d 3a
       -0.00066186005 0.00042099014 -0.00047000512 0.0006609488
0003b0 13 99 8d 39 88 d5 19 b9 31 11 d7 b9 bd a4 15 3a
       0.00027007665 -0.00014670764 -0.00041020804 0.0005708447
0003c0 c0 c4 80 39 4e 0d 31 38 bd 42 9f 3a 80 ad 8e 39
       0.00024560653 4.221248e-05 0.0012150627 0.00027213618
0003d0 b7 ae 13 39 98 9c ac 38 fc 7e 8e ba b5 61 03 b8
       0.00014084099 8.230767e-05 -0.0010871585 -3.132383e-05
0003e0 39 ab 3b 39 c3 b9 91 3a cb 10 0a b7 ea 3f 12 39
       0.00017897495 0.0011117983 -8.229351e-06 0.00013947455
0003f0 99 fb bc 3a 9d 2c 1b 3a 24 a8 4c 39 19 a3 26 ba
       0.0014418244 0.00059194287 0.00019517593 -0.0006356701
