models/onlyadam/ckpt/ckpt-12000.pt (torch, 106859 bytes, 30 tensors)

linears.0.weight f4 [50, 2]
000000 86 4a 09 3e 88 da 91 be 08 f1 c2 bd fc c7 8e be
       0.13407335 -0.2848704 -0.09518629 -0.2788695
000010 a7 b6 18 be 2d fc 70 be 65 ae b8 3d 81 d3 33 3d
       -0.14913426 -0.23533697 0.09017638 0.043902878
000020 3e 19 ac bd c2 8b 30 be 6c df c6 bd 06 4c 96 3e
       -0.08403252 -0.17240813 -0.09710583 0.29354876
000030 07 81 e5 3d 54 b9 5a be a9 53 c7 3d 22 6d 9d be
       0.11206251 -0.2135976 0.09732754 -0.30747324
000040 2b a9 8e be a2 64 ce 3d 8e b9 6f bd ef 04 a8 be
       -0.2786344 0.10077788 -0.058526568 -0.32816264
000050 95 18 7a 3e e0 30 22 3d 6e ef 5b 3e dc 19 0a 3e
       0.2442344 0.039597392 0.21478054 0.13486427
000060 5f a3 31 bd 36 a1 65 be 22 a8 d4 3e d2 39 95 3e
       -0.043368693 -0.22424778 0.41534525 0.29145676
000070 3e a8 18 be 0c b3 4e bf 59 ed 91 3e 3f 60 ce bd
       -0.1490793 -0.80741954 0.28501394 -0.10076951
000080 61 64 54 be 9f ac 79 be f7 d9 fe 3e 45 95 b2 be
       -0.20741417 -0.24382256 0.4977567 -0.3487951
000090 7c 73 1c 3d b4 40 28 bf fd f1 c3 3e c9 61 d4 3e
       0.038196072 -0.6572373 0.3827056 0.41480854
0000a0 fa 4c 85 3e 43 0b 79 bf 04 be 2e bd 28 6f 4b be
       0.2603529 -0.9728281 -0.04266168 -0.19866621
0000b0 d2 a0 c0 bc 99 ea d1 3e bb f7 dc bb 58 43 64 be
       -0.023514185 0.40999296 -0.006743399 -0.22291315
0000c0 da e5 91 3d dd b7 99 be 11 50 af be 14 3b 14 bd
       0.07123919 -0.3002309 -0.34240773 -0.036189154
0000d0 eb 9f 2c 3d cc d1 83 be ce c6 b0 bd 9e 4f d9 3e
       0.042144697 -0.25746 -0.08631669 0.42443556
0000e0 a9 a2 de 3e 2d c1 d8 be 0d 31 57 3e 54 e1 8e 3e
       0.43483475 -0.4233488 0.21014805 0.27906287
0000f0 25 55 87 3e 1d 84 bf 3e a9 46 f4 be 63 2e 71 3e
       0.26432148 0.37405482 -0.4771016 0.23552851
000100 e3 82 cd be 57 d8 87 bd d8 68 bd 3d 43 ce 8c 3e
       -0.4013892 -0.066330604 0.09248513 0.27501115
000110 31 19 1f be 62 a6 23 3e 13 2d e2 3c 3d 07 98 3e
       -0.15536954 0.15981439 0.027609384 0.29693022
000120 a8 3b 96 3e f8 d5 8b bd dd f1 81 be 5a 64 4b 3e
       0.2934239 -0.06827921 -0.2537984 0.198625
000130 15 33 04 be b0 94 8e be 1e c4 d7 bd 65 83 c3 3e
       -0.12910111 -0.27847815 -0.10535453 0.38186184
000140 83 58 77 3d 52 e9 20 be da cd 58 bb 3d 32 8e 3e
       0.060387146 -0.15714005 -0.0033081681 0.27772704
000150 d6 0d 0a 3d f1 93 01 3f 46 52 16 3e cb 24 0a 3e
       0.0337046 0.50616366 0.14679822 0.13490598
000160 4d 49 8f 3d 39 13 42 be 7f 94 4f be 11 47 46 be
       0.06996403 -0.18952645 -0.2027149 -0.19363047
000170 0f 1e e5 be 9b 54 d4 bc 0b 65 2f 3e 6c 99 1a 3e
       -0.44749495 -0.02591925 0.17128389 0.15097588
000180 f1 63 c7 3d 11 74 4f be 19 48 0e 3f f6 73 aa bd
       0.09735859 -0.2025912 0.5557876 -0.08322899

linears.0.bias f4 [50]
000000 40 df 70 3e 5d 6d 72 3d ec 7b f0 be 09 64 2d be
       0.23522663 0.05918633 -0.46969545 -0.16932692
000010 45 7e 2f bc 23 fd 06 3b 28 9d f2 3d aa 4a 48 3d
       -0.010711257 0.0020597659 0.118463814 0.04889933
000020 6a 8b 32 bc 87 ae 38 3d 50 19 9b bd c4 9a 02 3e
       -0.010897497 0.045088317 -0.07573187 0.12754351
000030 28 b3 d5 bc 6f 75 b7 bd ec 83 11 3e c4 aa f7 3e
       -0.026086405 -0.089579456 0.1421048 0.4837247
000040 39 20 32 3d 08 53 97 3d 38 8f 14 ba 7d 65 14 be
       0.04348776 0.07388884 -0.0005667093 -0.1449184
000050 4f ad 04 3e 19 97 33 be 3a ed 54 bd 23 96 0a 3d
       0.12956737 -0.17538108 -0.05198405 0.033834588
000060 07 13 2b 3e 2f ee eb bd 91 b5 a7 3e 50 84 89 bd
       0.16706477 -0.11520039 0.32755712 -0.0671469
000070 c4 35 2b 3f 2a 8e 9a 3b a7 16 a0 bd 7a 0c 0e be
       0.66878915 0.0047166543 -0.078168206 -0.13871947
000080 90 67 a3 bd ea 48 ad bd e7 d3 2b 3c b1 ab 4b be
       -0.07978737 -0.08461173 0.010487533 -0.19889714
000090 3d 84 ff 3d a8 a9 1a be 08 e6 80 3d b0 a7 8c be
       0.12476394 -0.15103781 0.06293875 -0.27471685
0000a0 17 ec 2a bc e3 d8 3c bd 36 30 c7 be 53 e5 b2 3b
       -0.010432265 -0.046105277 -0.3890397 0.0054594665
0000b0 2f 99 e3 3c d4 03 fe bd 6c 2f 5a 3c d1 df ca 3d
       0.027783005 -0.12403074 0.01331697 0.09905971
0000c0 b1 d2 30 3d c9 d4 71 3d
       0.04316968 0.05904082

linears.1.weight f4 [50, 50]
000000 ab 58 71 3e f1 e6 6e 3d 17 3d fc be 36 52 bb bc
       0.2356898 0.05832571 -0.49265358 -0.02286635
000010 27 23 84 be 44 bc 80 3d d0 0a 1f 3c 7d 4d 0c be
       -0.2580807 0.06285909 0.009707168 -0.13701434
000020 2f 16 04 3e aa 86 a3 bd 54 cd fb bd c4 57 d5 3e
       0.12899087 -0.079846695 -0.122950226 0.41668522
000030 49 f7 15 3b ab 52 46 3d 71 9d 2c 3b e5 6c a9 3e
       0.002288299 0.048418682 0.002633896 0.33090892
000040 0b a4 24 3e ba 16 45 be ae 5e 01 be 07 f2 16 3d
       0.16078202 -0.19246951 -0.12633774 0.03685191
000050 32 de 87 bd 9c 51 a1 be 74 5a 32 3e 20 9b e2 bd
       -0.06634177 -0.31507576 0.17417318 -0.11064744
000060 9a de 0c 3e 9e bf 8c bd a3 8c b7 3e 41 0b 4b 3e
       0.13756791 -0.068724856 0.35849485 0.19828512
000070 47 18 95 3e 3d 97 ff 3d 69 0f b9 3d d4 c7 29 3e
       0.29120085 0.12480018 0.090361424 0.16580135
000080 3d 34 9b 3d c4 dd 5e 3e 94 45 29 bd f5 6f 0f be
       0.07578323 0.21764284 -0.04132612 -0.14007552
000090 09 37 ae 3e 40 42 a1 3e b2 5f 0e 3e 6e b1 57 bd
       0.34026363 0.31495857 0.13903692 -0.052659445
0000a0 eb 7c 07 bd 5d 5d 81 3e 30 44 1f be 4e ef 2f bd
       -0.033078115 0.25266543 -0.15553355 -0.042952828
0000b0 fa ce 63 3e 7e b0 03 be 51 f8 9b bd c1 74 6f 3d
       0.22246924 -0.12860295 -0.07615722 0.058460955
0000c0 23 2d 04 3e 52 50 f0 3d 9c 3e a5 bc 2d 5a 74 3c
       0.12907843 0.1173407 -0.020171456 0.014914078
0000d0 91 55 10 be be cf a2 be bc fa 3f 3e 1f 8e a2 3c
       -0.14095141 -0.3179912 0.18747991 0.01984316
0000e0 6d 2f 09 3e 75 81 1c 3e eb 0f 89 bd 00 ee af 3d
       0.13396998 0.15283759 -0.06692489 0.08590317
0000f0 57 6c b1 3d 16 d7 55 3c d7 9f a4 3e 74 01 01 be
       0.08663242 0.013051769 0.32153198 -0.1259821
000100 5a 21 f6 bd 7e 26 22 be 83 3b 76 3d 3a 24 02 be
       -0.1201808 -0.15834996 0.06011535 -0.12709132
000110 2b a5 01 be e4 4c 6b be fc 85 78 be ca 7c b3 bc
       -0.12660663 -0.2297855 -0.24269861 -0.02191009
000120 9f 3e ca 3d 73 b3 79 3e 26 ec 6a 3e bc 49 be 3e
       0.09875225 0.2438486 0.22941646 0.3716563
000130 45 cd 6c 3e 8a fc 18 3e bb 01 69 3d ff 12 3a be
       0.23125179 0.14940086 0.056886416 -0.18171309
000140 9d 14 29 be 56 f0 3d be 74 90 11 3d 91 49 cb 3d
       -0.1651177 -0.18548712 0.03553815 0.09926141
000150 af 5f 62 be 41 31 9e bd 53 21 03 be 4c 40 80 3d
       -0.22106813 -0.07724238 -0.12805681 0.06262264
000160 bb fb 09 3d 35 4a 56 bd 50 78 9d 3e 6c 30 19 be
       0.033687335 -0.052316863 0.30755854 -0.14959878
000170 a2 70 02 3e ae 7c 4f be 67 7c d5 3d 60 16 d7 3d
       0.12738279 -0.20262405 0.104241185 0.105023146
000180 70 95 ef 3d ea 81 91 bd a9 f3 91 3d 55 7d dc bc
       0.11698425 -0.07104857 0.071265526 -0.026915232
000190 76 15 85 3e fe 7b 4c bb 99 6d f6 b9 80 75 05 3c
       0.25992936 -0.0031201835 -0.00047002433 0.00814569
0001a0 c2 01 f4 3d 3c 9d 86 bd e1 8e ce bd de c9 3c 3e
       0.11914398 -0.06572959 -0.10085846 0.18436381
0001b0 51 78 ec bd 3c ed 78 be 48 17 5e bd 70 7f 6c be
       -0.11546386 -0.24309248 -0.05422142 -0.23095489
0001c0 22 5c 11 3e e8 ad cc bd 07 49 9b bd 4a 88 85 bb
       0.14195302 -0.099941075 -0.07582288 -0.004075085
0001d0 d7 2c 2f 3e 33 91 ce bc e4 18 1c 3b c0 da b4 bd
       0.17106949 -0.02521572 0.0023818547 -0.08830786
0001e0 ac 40 a1 be 1b c2 99 3d 59 66 39 bc 1d 4d bb 3d
       -0.31494653 0.07507726 -0.0113159055 0.091455676
0001f0 65 b4 3b 3e 0f 17 83 3d cf 49 1f 3d 11 38 2b 3e
       0.18330534 0.064008825 0.03888875 0.16720606
000200 2b e5 ca 3d 49 90 5c be 8a ac 6a be b3 6d 05 be
       0.099069916 -0.21539415 -0.22917381 -0.13030128
000210 0b 82 1a 3e 55 15 85 3d ac 67 8c 3b 66 1a 1d be
       0.1508867 0.064982094 0.0042848196 -0.15342101
000220 be 0d 88 bd 98 0e 42 be 2a 04 8c 3c 35 7a 8d bd
       -0.06643246 -0.1895088 0.01709183 -0.06908075
000230 b5 23 9b bc d9 5f e7 bd 79 b7 9f bc d0 bc f3 bd
       -0.018937925 -0.11297578 -0.019496666 -0.119012475
000240 ee 3f 3c 3d 07 a0 0b be a9 34 d3 3d e7 e7 5c bd
       0.045959406 -0.13635264 0.103127785 -0.053932097
000250 70 ea 38 3e 17 8c 77 3e d0 13 82 be 0a 1a cd 3c
       0.18058181 0.24174534 -0.2540574 0.02503683
000260 8c 46 c9 3d 3a c1 cb 3d a4 f8 58 3e 21 e1 d2 bd
       0.09827909 0.099489644 0.21188599 -0.10296846
000270 cb 9f 48 3e 56 10 26 3e 4a a9 f2 bd fa 27 5e 3e
       0.19592206 0.16217169 -0.118486956 0.21694937
000280 ea 3e a8 3d 37 b9 c6 bd e8 40 94 3d c3 4b 7b bd
       0.08215125 -0.09703296 0.072389424 -0.06135155
000290 81 63 32 be c5 6e 97 3d 69 b1 0a 3e b2 de 6f 3e
       -0.1742077 0.073941745 0.13544239 0.23424795
0002a0 45 11 07 3e 34 7b d8 bd 96 78 6a 3d 2c f4 e3 bb
       0.13190182 -0.10570374 0.057243906 -0.006956598
0002b0 1f 69 5e 3d eb 94 6f be 83 3e 9b bd a8 24 20 be
       0.05429947 -0.23396651 -0.075802825 -0.15638983
0002c0 a0 f2 12 3e 0a 5e 03 be f4 4a 90 bd ed 9c 89 3e
       0.14350367 -0.12828842 -0.07045546 0.26877537
0002d0 3d 6d 68 3e fb 4c 4b be 34 e0 13 3d 1c 14 6d 3e
       0.22697921 -0.19853584 0.03610249 0.23152202
0002e0 c6 01 82 3e f2 d8 fe bc b9 cd 24 3d 73 f3 13 bd
       0.25391978 -0.031109307 0.040235255 -0.036120843
0002f0 45 16 7c 3e 27 6a 85 be 86 61 2c 3d 4a ad 47 be
       0.2461787 -0.2605755 0.042085193 -0.19499698
000300 f9 d4 1c be 92 54 72 be 68 4f 05 3e ba 5d d6 bd
       -0.15315618 -0.23665074 0.13018572 -0.10467096
000310 00 57 7f 3e e9 77 fe bd 3b f5 d9 bd c4 dd a1 bd
       0.24935532 -0.12425215 -0.10642477 -0.079036266
000320 db a9 ab 3b 5a f3 0b 3e bb 9b 80 3e b8 de a6 bc
       0.005238754 0.1366705 0.25118813 -0.020369872
000330 82 a3 63 3e b1 90 e7 bc 69 65 27 3a ae 78 88 3d
       0.22230342 -0.028267236 0.0006385656 0.06663643
000340 d1 4b 33 be 9d 0c cb bd 6c f0 8d 3d ed 25 c1 3c
       -0.1750939 -0.09914515 0.069306225 0.023577655
000350 dd 51 1c 3e c9 d2 9a 3d 74 93 2c be f6 89 27 bd
       0.15265603 0.07559735 -0.16853124 -0.040903054
000360 34 d5 37 3d 7f ab 35 3d 56 44 87 bd a4 d0 2c be
       0.04488106 0.044353005 -0.06604831 -0.16876465
000370 f2 57 75 be ec 1d b6 3d ba 1f f4 bd a7 55 8e 3d
       -0.2395933 0.08892426 -0.11920114 0.06949931
000380 59 05 56 3c 05 f8 1e be 96 78 3b be 18 0b 11 be
       0.013062798 -0.155243 -0.18307719 -0.14164388
000390 11 7b 92 bb e4 9e 08 be 86 8a 05 be 39 38 50 3e
       -0.004470237 -0.13341862 -0.13041124 0.20333947
0003a0 a9 ba 69 bd 2a 09 33 bc 44 fc 8c 3c 49 b3 8a bd
       -0.05706278 -0.010927478 0.017210133 -0.06772477
0003b0 f6 92 05 be da 4f 30 3e 84 4c e0 3d 36 b1 8a bd
       -0.13044342 0.17217961 0.10952094 -0.067720816
0003c0 f9 92 be 3e b4 fa 04 3d 4b e9 87 3d 26 fd 42 be
       0.37221506 0.03246565 0.06636294 -0.19041881
0003d0 be 33 4a bc f5 37 2d 3e 6c c5 df 3d ff 92 01 be
       -0.012341438 0.16915877 0.10926327 -0.12653731
0003e0 67 34 86 3d 5c e4 1a bd 86 dc 43 3d f4 f6 5a 3d
       0.06552964 -0.037815437 0.04781773 0.05345817
0003f0 a4 9a c1 3e 73 e6 02 be da 14 f3 3e 83 e9 57 bd
       0.37813294 -0.12783222 0.47476846 -0.05271293

linears.1.bias f4 [50]
000000 8a 9a 05 3e ad 49 60 bc ab 23 cf bc 32 f1 0a bd
       0.13047233 -0.013689441 -0.025285563 -0.033921428
000010 ab 2a ed bd 98 13 ba bd 35 9a 4b be 2b e6 12 bd
       -0.11580404 -0.090857685 -0.19883044 -0.035864037
000020 5c af c9 3a d0 e7 54 3d f8 cf 8a 3d 98 35 dd bc
       0.0015387344 0.051978886 0.06777948 -0.027003095
000030 45 8d 37 3e bc 55 49 3d ab a8 63 3c 09 7e 7d 3d
       0.17924984 0.04915403 0.013895194 0.061887775
000040 75 65 6d 3e 88 1e d1 3d 27 10 9c 3b 33 a8 16 3d
       0.23183234 0.102109015 0.0047626677 0.0367815
000050 6e db fc bc 0e 1b c2 3d 43 fc a3 bd 09 da 27 bd
       -0.030866351 0.094778165 -0.080070995 -0.04097942
000060 27 56 ac 3d 8b 16 85 3a ae 5f 6d bc 48 ff 7c 3e
       0.0841487 0.0010153813 -0.014488144 0.24706757
000070 dc 63 a4 bc de f2 a3 be e6 23 07 3b 78 e3 90 be
       -0.020067148 -0.3202123 0.0020620762 -0.28298545
000080 aa 59 c0 ba d1 5b 21 bd b8 84 b8 bc dc ef 84 3d
       -0.001467516 -0.039394204 -0.022524223 0.06491062
000090 72 d4 ae bc 2d a2 f4 3c 0b 95 21 be f7 20 02 be
       -0.021341536 0.029862488 -0.15779512 -0.12707888
0000a0 0e e5 d3 3b d9 0c 9a bc 9c db 37 3d 7c 81 d4 3d
       0.0064665144 -0.018804954 0.04488717 0.1037626
0000b0 14 f6 ca bb 53 5c d9 bb 6d d8 fa 3b cf 1a d0 3c
       -0.0061938856 -0.0066333204 0.0076551945 0.025403408
0000c0 5e 75 d2 3d ec bc 02 be
       0.10276292 -0.1276738

linears.2.weight f4 [50, 50]
000000 87 2c af 3d d2 b9 01 3e 30 46 67 3d 4c a6 5a 3e
       0.08553415 0.12668541 0.05646342 0.213525
000010 3a e1 d2 be 95 fd 01 bb e3 cf 67 bd 40 a0 cc bd
       -0.4118746 -0.0019834985 -0.05659474 -0.09991503
000020 c2 45 67 be e5 07 a9 bd d4 24 b1 bd 07 ed c2 3d
       -0.22585204 -0.08253459 -0.086496025 0.09517866
000030 b7 55 79 3d 60 d2 a3 3e 25 50 b1 3d 3e 64 75 3e
       0.06087276 0.3199644 0.086578645 0.2396402
000040 18 1a 2a be f3 e5 77 3e fa 19 e8 bc f9 f0 39 3e
       -0.16611516 0.24208812 -0.0283327 0.1815833
000050 1c fa 19 be 93 a9 c1 3d 91 0a c9 3c 1d be b8 bc
       -0.15036815 0.09456172 0.024541171 -0.02255159
000060 7e 4c 61 bd 71 9f 15 be 0d aa dd 3c 83 8e 3a bd
       -0.05500459 -0.14611603 0.027058626 -0.045546066
000070 07 82 13 3e 76 26 b7 3c d4 bd 2f be 5f 09 81 be
       0.1440507 0.022357207 -0.17162257 -0.25202462
000080 98 4b 95 bc 13 7e 15 bd 3f 48 11 3e da 81 54 3e
       -0.018224522 -0.036497187 0.14187716 0.2075266
000090 48 d1 44 bd 71 ff 2c 3d bc cb 75 be a5 5a 3f 3e
       -0.04805115 0.042235795 -0.240035 0.18686922
0000a0 eb 15 ae bd ce db fc 3d cb 38 48 3e 99 d8 e8 3d
       -0.08500274 0.12346612 0.19552915 0.11369438
0000b0 a7 f2 9c 3c a4 32 10 3e b9 f9 89 be f2 c7 03 3d
       0.019158674 0.14081818 -0.26948336 0.032173105
0000c0 6e 88 5c 3d 17 9f 0a bf 86 c0 78 bd 8b 79 28 be
       0.053841047 -0.54149 -0.06073048 -0.16452615
0000d0 da 20 a1 bd a9 eb 37 be 30 87 37 be e4 80 3e be
       -0.07867594 -0.17960991 -0.17922664 -0.18603855
0000e0 e0 0b 30 be 86 c8 a2 bc c1 e8 37 3e 53 3d 26 bd
       -0.1719203 -0.019871008 0.17959882 -0.040585827
0000f0 43 ca 83 be 1d f6 04 3f 28 b2 c2 3e fb ae bd 3d
       -0.2574025 0.5193804 0.38026547 0.092618905
000100 7f e0 a1 3e b5 ad 63 be cb 75 80 be 69 b5 58 3e
       0.3161659 -0.22234233 -0.2508987 0.21162952
000110 91 a5 c0 3d 66 a3 ca bb 7b 1b 89 bd 6a 4e 16 be
       0.09406579 -0.0061840294 -0.066946946 -0.1467835
000120 cc f0 35 bd 2e 9e 1b be 24 6a a7 be f2 f7 63 3c
       -0.044419095 -0.1519706 -0.32698166 0.013914095
000130 83 dc 89 bd 08 ba 4b bd 16 a5 e5 bd 87 7c 08 bd
       -0.067315124 -0.04973796 -0.11213128 -0.033321884
000140 d6 95 12 be 71 3c 84 be 11 2d 25 bd bd ca 8e 3d
       -0.1431497 -0.25827363 -0.04032618 0.06972263
000150 25 df 84 3e 60 2f 1f be 61 a7 3c 3e a9 3e 9e 3d
       0.25951496 -0.15545416 0.18423225 0.07726795
000160 27 9e c4 be de 53 ba 3e 9c e8 d6 bd 8a cf 3f be
       -0.3840191 0.3639211 -0.104935855 -0.18731514
000170 44 11 fa 3d e8 3a 0c 3d 29 09 77 be 70 c7 e3 3c
       0.122103244 0.034235865 -0.24124588 0.02780506
000180 0a e9 41 3d 2c d0 04 be 29 16 55 3e 53 d8 86 3e
       0.047341384 -0.12970036 0.20809235 0.26336917
000190 4a fb 35 3d 0a 94 ad 3e 97 2d 9d 3e 8a 41 05 be
       0.0444291 0.33902007 0.30698845 -0.13013282
0001a0 88 ce a4 bd 93 d6 f8 ba 01 ce 5e 3e ba a0 d9 3d
       -0.08047205 -0.0018984847 0.21758272 0.10626359
0001b0 41 c8 4d 3e d3 85 0c 3e 5b b7 1e bd f4 6f 0a bc
       0.20095922 0.13722925 -0.03874908 -0.008449543
0001c0 2b 37 9b 3d 7f 0e 4b be c1 d6 df 3e 5d a2 1b 3e
       0.07578882 -0.19829749 0.43718532 0.15198655
0001d0 71 6f d5 3d 07 fa a0 3b 35 09 4b 3d 51 f4 7d be
       0.104216464 0.004912618 0.049569327 -0.2480023
0001e0 a3 b9 76 3d 2c bf 44 bc 57 8f 83 3d e3 8f 59 3e
       0.06023563 -0.01200847 0.06423824 0.21246295
0001f0 e9 c0 c3 3d 1b 72 ab be 53 74 02 3d ae 9c b7 3d
       0.09558279 -0.33485493 0.031849217 0.08965431
000200 db ce c8 3d 95 07 4e be 49 b8 03 be b8 ef fd 3c
       0.098050795 -0.2012008 -0.12863268 0.030998096
000210 fc dc 40 3d 78 5a a3 be ed 40 23 3d 74 47 ec 3d
       0.047085747 -0.3190496 0.03985684 0.11537066
000220 82 d0 27 3e 76 0f 8e bd 4a b7 b9 3d 35 0a a9 bb
       0.16388133 -0.06936543 0.09068163 -0.0051586875
000230 28 49 df 3d cf 1e 10 3e 6d 64 80 3c 12 4d ea 3d
       0.10902625 0.14074253 0.015672887 0.11440481
000240 6e 81 41 be 9d d6 1a be 2c 84 95 3d e3 ed aa 3e
       -0.1889703 -0.15120931 0.073006004 0.33384618
000250 a9 67 49 3c 4a 7d 61 3e fb df 28 be d2 e2 d9 3d
       0.012292781 0.2202045 -0.16491692 0.10638966
000260 6e f5 90 3e 56 c1 a7 bd ec 66 62 3d 72 36 5f 3d
       0.28312248 -0.08191173 0.055273935 0.054495282
000270 fb 8f e1 3d 2f 82 ad 3e d5 e1 8c be 02 1c 30 be
       0.1101379 0.33888385 -0.27516046 -0.17198184
000280 9a a3 ef bd 54 db 02 3e 03 e2 24 3d 1b cc c7 3d
       -0.117011264 0.1277898 0.040254604 0.09755727
000290 51 1f f6 3e 38 24 6c bd ad e2 53 be 58 0a 1a be
       0.48070768 -0.05765173 -0.20691939 -0.15043008
0002a0 db ac a3 3d e2 ef d4 3c 60 ce e9 bd 9c 7e 20 be
       0.07991954 0.025993291 -0.11416316 -0.15673298
0002b0 43 f5 45 bd 12 25 85 bd dc f1 aa 3e 56 da 2b be
       -0.048329603 -0.06501211 0.3338765 -0.16782507
0002c0 17 4b 89 3e 30 8c d7 bd 09 b6 17 3e 2a 7f 6b 3e
       0.26815102 -0.105247855 0.14815535 0.22997728
0002d0 eb 52 9a be c2 43 be bc 97 52 35 3e c6 95 90 3e
       -0.30141386 -0.023225669 0.17707287 0.28239268
0002e0 dd d1 ad 3d 9c 6d 06 3e d8 ce 63 3e 60 8d 6c be
       0.08487294 0.1312775 0.22246873 -0.23100805
0002f0 9f be 4b be 44 f6 16 3e 48 c7 54 3e fb c6 c4 3d
       -0.19896935 0.1474238 0.20779145 0.09608265
000300 f4 ca cb 3c 66 8d e4 3d e2 2e 0e be 80 a7 c8 3d
       0.024877049 0.11159782 -0.13885072 0.09797573
000310 89 73 72 be 69 85 99 3e 10 7c 84 3e ea 25 01 be
       -0.23676886 0.29984596 0.25875902 -0.1261212
000320 bc e6 3d bd e7 b3 35 bc 44 b1 3c 3c 29 32 89 bd
       -0.046362624 -0.011090255 0.011516873 -0.066990204
000330 2d 1a ed bc 4e 13 8c 3d d5 c0 1f 3e 9f dc 11 bd
       -0.028943146 0.068396196 0.15600903 -0.03561079
000340 53 c9 06 be 26 e5 00 3c b9 43 15 3e 6b 0e 0f bd
       -0.13162737 0.007867133 0.14576615 -0.03492586
000350 ad f4 97 bc a4 00 47 3d da d8 69 bc f7 d8 0a 3e
       -0.018549288 0.048584595 -0.014272893 0.13559328
000360 d6 a0 04 3e 22 5e a2 3d d7 96 ea bd ed 88 4b be
       0.12951979 0.07928111 -0.11454552 -0.19876452
000370 ac 37 5b 3e fc 4d 23 be c0 8f 1e 3e 7c a6 a2 bd
       0.21407956 -0.15947717 0.15484524 -0.079419106
000380 d8 31 01 be 01 12 a7 bd ee 83 cd 3c f2 00 4f 3e
       -0.1261667 -0.08157731 0.025087323 0.20215204
000390 0b c6 82 3c 99 27 c6 bd 54 83 db bd 88 c1 63 3d
       0.015963575 -0.096755214 -0.10718408 0.055604488
0003a0 54 ce 15 be a5 9c 36 be 94 16 79 3d e7 14 0c 3e
       -0.14629489 -0.17833193 0.060812548 0.13679849
0003b0 72 96 cf 3d 4a 2d 9f 3d 02 59 45 be fd 82 41 be
       0.10136117 0.0777231 -0.19272235 -0.18897624
0003c0 ad 5a 9f bd 4d 10 01 be 90 f4 2e 3e 82 6c 87 bd
       -0.07780967 -0.12603875 0.1708548 -0.06612493
0003d0 3c 5b 88 3e 6a 6a 15 bc 7c a7 99 3e 31 53 70 be
       0.26632106 -0.009119609 0.30010593 -0.23469235
0003e0 2a 3d ea bd 31 52 a0 3c 70 f5 8a bd 53 1a 30 be
       -0.11437447 0.019570442 -0.06785095 -0.17197542
0003f0 c1 77 06 be 1b a0 58 3e 6f b5 40 be 7a 57 e5 3b
       -0.1313162 0.21154825 -0.18819211 0.0069989534

linears.2.bias f4 [50]
000000 52 51 24 bc 55 aa a6 3d 30 5c e0 bb d3 ee 60 bc
       -0.010029154 0.08137957 -0.006846927 -0.013728815
000010 9c 42 b4 bc 8f b9 48 3d aa b5 ea 3c 8d 11 14 3b
       -0.022004418 0.049005087 0.028651077 0.002259347
000020 f1 d9 5e bc bd 49 a2 3c 81 97 8e bd fe 2b 87 3c
       -0.013601766 0.019810552 -0.06962491 0.01650047
000030 55 eb 25 3d 81 04 86 3d 58 e2 14 bd 3d 81 d4 bc
       0.040507633 0.06543828 -0.03634867 -0.025940532
000040 c2 7e 12 bd 3e ef 43 3d 99 32 75 3d 58 86 09 bc
       -0.035765417 0.04783558 0.059862707 -0.008393846
000050 a4 03 44 bd a9 db 44 bd 6f 38 9c 3d 83 97 82 bd
       -0.047855034 -0.048061047 0.07627951 -0.06376555
000060 d7 56 46 bd f1 54 f2 3b 3b c3 19 bd 4e 76 b8 bd
       -0.04842266 0.0073953797 -0.037539702 -0.0900694
000070 0a 05 ae 3c c8 10 8d bc a7 c1 e4 3c 8e dd d3 bd
       0.021242637 -0.017219916 0.027924372 -0.103449926
000080 26 62 23 3d 42 d6 d5 bc 01 14 9f 3d 8d fe 3d bc
       0.039888524 -0.026103143 0.07767487 -0.011596334
000090 00 bb 16 3d c7 64 0e bc 92 1c 27 bd 6d f5 bb 3c
       0.03679943 -0.008691019 -0.04079873 0.022944177
0000a0 e9 8c 36 3c ce eb b9 bd c6 50 a0 bd 6d 2b 9d bd
       0.011141994 -0.09078179 -0.07827906 -0.076742984
0000b0 7d 52 94 bd 0f 6e c4 ba eb 0c 2c 3d a6 d2 87 bc
       -0.07242296 -0.0014986413 0.042004507 -0.016579937
0000c0 48 01 2b 3d 23 10 b7 bb
       0.04174927 -0.0055866404

linears.3.weight f4 [50, 50]
000000 6b 37 f8 bc ac 56 86 be 97 e2 ec 3d 53 7a 8e 3e
       -0.030299863 -0.26238 0.11566656 0.278277
000010 6f 8e 41 be 80 1e cb bc 2f ab ad be 55 7c 68 3c
       -0.1890199 -0.024794817 -0.33919665 0.014189799
000020 1b c2 03 3e 73 ca 22 be f4 d6 35 be 39 9f bb 3d
       0.12867014 -0.15897541 -0.1775778 0.09161229
000030 6b e4 89 be bf bb c3 be 34 6a a7 bd 64 da 13 3e
       -0.26932082 -0.38229176 -0.081745535 0.14438778
000040 2a a1 42 3d c0 ee c2 be 19 19 76 be b9 80 e3 be
       0.04751698 -0.38072777 -0.24033011 -0.44434145
000050 95 e6 fb 3d b1 20 40 be b7 54 d2 3e bd ca 19 be
       0.122998394 -0.18762471 0.41080257 -0.15018745
000060 b0 39 59 3e 0e 35 ca be 74 89 1c bd 5c 36 1a 3e
       0.21213412 -0.39493603 -0.038217023 0.15059799
000070 3b 86 62 bd c4 29 a5 bb aa 11 ae be 65 f2 0f be
       -0.055303793 -0.0050403792 -0.33997852 -0.1405731
000080 2d b3 ce bc 6a 52 21 be 0e d3 78 be aa 38 f8 3d
       -0.025231922 -0.15754095 -0.24299261 0.12120183
000090 6c 98 13 be cc d3 00 3e ab 2e c6 3e 40 c5 99 3d
       -0.14413613 0.12580794 0.3870748 0.075083256
0000a0 ee 30 4c bd 53 9e 07 3e 16 1d 1c 3e 5b e2 c1 bd
       -0.04985135 0.1324399 0.1524547 -0.09467002
0000b0 cb 94 2a 3e 90 5f 91 3e a4 34 2e bf 54 03 10 be
       0.16658323 0.2839322 -0.68049073 -0.1406377
0000c0 ef bf d4 3d ad 3c 34 3d 85 17 2a bd ec 8d a5 bd
       0.10388171 0.044003177 -0.041526336 -0.0808371
0000d0 7c 10 d9 3d 2f 9c 3d be eb a3 96 bd 91 a1 5c be
       0.10598847 -0.1851661 -0.073554836 -0.21546008
0000e0 33 b8 73 3e ee 30 1c be b2 b3 7c 3d 07 34 29 3e
       0.23800735 -0.1525304 0.06169481 0.16523753
0000f0 cf ee 43 be 6f 00 40 be 50 a6 ad be 34 c9 97 3d
       -0.19134067 -0.18750165 -0.3391595 0.07411423
000100 8a 93 b8 be 1a e5 48 be 5e 5e 20 be 3a 2c 54 be
       -0.36050063 -0.19618645 -0.15660998 -0.20719996
000110 aa e3 bc 3c 4b 97 6f be ab 00 87 bd a2 1f d9 bb
       0.023057777 -0.23397557 -0.06591924 -0.0066260854
000120 bf 44 42 3e 33 89 f6 bc 47 b6 c7 3c 09 ab b0 3c
       0.18971537 -0.030094719 0.024378909 0.02156593
000130 fe 89 3a 3e da f8 8b bd 56 79 07 be 6f a5 61 be
       0.18216702 -0.06834574 -0.1322988 -0.22035764
000140 a3 de 09 be f9 66 06 bd c1 2f d5 3c b9 93 a3 3d
       -0.13463835 -0.032813046 0.026023747 0.0798716
000150 1d 7f 6e be 8a 06 89 3d e3 01 38 3d 6a d3 c1 3d
       -0.23290677 0.066907 0.044923674 0.09464152
000160 a0 c3 a8 bb 5a 54 60 3e 48 ea 96 be 4a 57 12 bd
       -0.0051502734 0.21907178 -0.29475617 -0.035727777
000170 b5 f9 5b 3e f9 08 32 3e 27 66 30 3d 2c 5c 49 3b
       0.21481974 0.17386235 0.04306617 0.0030725105
000180 cd f6 92 3e 5e 01 91 3c a8 df b9 bd 2f b9 16 be
       0.2870392 0.017700847 -0.09075862 -0.1471908
000190 5d cd 2b 3e d6 a3 bd bd 18 4a 9c 3e 95 21 4f 3e
       0.16777559 -0.09259765 0.3052528 0.20227654
0001a0 1d 33 fc 3d 76 14 8e 3c db 2e 3c bc 6f 32 2f be
       0.123144366 0.01734374 -0.011485781 -0.17109083
0001b0 02 2c 9d 3e 25 7a 92 bd 0c e6 ae bd 2a 4a 3b be
       0.30697638 -0.071522035 -0.08539972 -0.1829001
0001c0 f4 f0 01 be b1 c4 60 be 8b 90 2e 3e c4 5e ce bb
       -0.12689573 -0.21950032 0.17047326 -0.006297918
0001d0 c4 7a 35 bc a2 06 98 bd 0c bc d1 bd 45 8b 78 be
       -0.011076633 -0.0742314 -0.10240945 -0.24271877
0001e0 09 ee 73 be 66 bd 5b bd 0e de 23 3e c2 f8 09 3d
       -0.23821272 -0.05364742 0.16002676 0.0336845
0001f0 50 8f b7 3e 08 36 ac bd 83 9c 2b 3e 74 1e 84 3d
       0.35851526 -0.08408743 0.16758923 0.06451121
000200 18 04 bc bd f3 9f cc be f8 f1 9a be 7e c2 c6 3d
       -0.09180468 -0.39965782 -0.30262733 0.09705065
000210 a4 9a fa 3c f6 ad d7 3d 05 2a 37 bd 10 b6 99 3e
       0.030591317 0.10531227 -0.044717807 0.30021715
000220 1f e8 b3 3d a5 c2 91 bd 39 ab 79 3e aa 88 46 bd
       0.08784508 -0.071172036 0.24381723 -0.048470177
000230 2d 55 23 3e 25 23 8b bd 00 8b 88 3e 24 f5 91 be
       0.1595046 -0.06793813 0.2666855 -0.2850734
000240 aa c7 00 3e 3a 7a 6b bd d8 2c 1f bf ba c4 80 bd
       0.12576166 -0.05748961 -0.621778 -0.062875226
000250 36 e1 0f 3e 02 57 a4 be 46 7a 8f be 43 3f 58 3e
       0.14050755 -0.32097632 -0.28022975 0.21117882
000260 5b 82 1d 3e 98 26 a2 bd 8b e3 48 bd 05 92 f0 3d
       0.15381758 -0.079175174 -0.049045127 0.11746601
000270 b8 00 dc 3d 1c dc 2d bd 92 92 21 3e 13 3e b7 3d
       0.107423246 -0.04244624 0.15778568 0.089473866
000280 5e 72 a8 be c8 22 91 bd d6 fa f5 3e 24 d1 10 be
       -0.32899755 -0.07086712 0.48042935 -0.14142281
000290 80 71 86 3e c1 30 1a be 53 8c d5 3d 38 57 a1 3e
       0.2625847 -0.1505766 0.10427155 0.31511855
0002a0 0f 2c 03 3e 90 19 9a 3e b9 63 d1 3d d4 b7 f0 bd
       0.12809776 0.30097628 0.10224099 -0.117538124
0002b0 3e 9f 9d be 94 9c 58 bd 14 18 10 be 15 3b 95 bd
       -0.30785555 -0.0528837 -0.14071685 -0.0728666
0002c0 2f b0 68 3d 9a 5d 8b 3e 12 fe 2b 3e 7d 2a 4d bd
       0.056808647 0.2721985 0.16796139 -0.050089348
0002d0 15 b3 4d 3e c2 51 86 be f2 37 62 be b8 79 2c be
       0.20087846 -0.2623425 -0.22091654 -0.16843307
0002e0 9d 2e 81 3e 53 f1 e9 bd bf 18 87 bd 43 bb 89 bd
       0.25230876 -0.11422982 -0.06596517 -0.067251705
0002f0 c5 89 3c be 1a df 4f 3e 2e ef 99 bd 20 59 9e 3d
       -0.1841193 0.2029995 -0.07516323 0.07731843
000300 5b 38 ef bd 8d 1a f5 3d e2 31 c8 bd a1 ea 59 3e
       -0.11680671 0.11967955 -0.097751394 0.2128091
000310 02 13 b1 3d bc c4 08 3c 36 e1 4b 3c 02 bb d1 3c
       0.086462036 0.008347686 0.012443831 0.025601868
000320 b4 cc 0a 3d bd 83 47 bd 61 4b 85 3e 50 49 17 3e
       0.033886626 -0.04870962 0.26034072 0.1477406
000330 4a 9b 12 be 24 91 9d be 8b d9 8a 3d 5b 1a 2c be
       -0.1431705 -0.30774796 0.06779774 -0.16806929
000340 de 65 f0 be b1 05 2c 3e fb bb cb be 2d 43 5a 3e
       -0.46952718 0.16799046 -0.39791855 0.21314688
000350 64 00 c7 3d 8f f3 16 3e 57 ba ad bd 48 eb 53 be
       0.097168714 0.14741348 -0.08482807 -0.20695221
000360 7e 59 64 be f4 a4 cd bc 42 0e ff 3d a4 57 80 bd
       -0.22299764 -0.02510307 0.12453891 -0.06266716
000370 b2 94 01 3c 4d bc 75 3e 33 0f 51 3e 07 6a 09 3e
       0.007908987 0.23997612 0.20415954 0.13419352
000380 c9 3e 03 be 1f 3c f1 bc 85 cd ea 3d 14 f3 8f 3d
       -0.1281692 -0.029447613 0.11464981 0.07028785
000390 f4 02 9b be 9b 14 fb bd 26 c1 6d bc 1e 9e c9 3d
       -0.3027569 -0.122597896 -0.014511382 0.098446116
0003a0 93 bd 97 be 74 a0 79 be 91 05 b7 3d 83 75 16 3e
       -0.2963682 -0.24377614 0.089366086 0.14693265
0003b0 58 d0 e6 bc 43 e5 04 3e 56 1d 9e 3d 26 c4 db 3e
       -0.028175518 0.12978081 0.07720439 0.42923087
0003c0 97 b9 a1 3d 09 e6 da 3e 57 e1 2c be 14 3f b5 be
       0.078967266 0.42753628 -0.16882835 -0.35399687
0003d0 81 d9 b5 be 67 0b 86 3d c5 d5 c0 3d 60 54 46 3e
       -0.35517505 0.065451436 0.09415773 0.19368124
0003e0 27 86 91 3d 84 88 54 3e 35 83 a8 3d 47 59 02 be
       0.07105666 0.20755202 0.08228151 -0.12729369
0003f0 76 75 b7 3e fb 28 6b bd 98 d7 13 bc ae c7 a6 bc
       0.35831803 -0.05741213 -0.0090235695 -0.020358887

linears.3.bias f4 [50]
000000 3f ec a0 bd 8a 49 5f 3c 3e af 21 bd 1e 05 90 3c
       -0.0785756 0.013628373 -0.039473765 0.017580565
000010 09 5f c0 3b 94 b7 bf 3b 37 bc ae 3c 8b 49 3b 3e
       0.005870704 0.0058507416 0.021329982 0.18289773
000020 f1 4f be bc af 46 80 3a 60 90 03 3e b1 71 9e 3b
       -0.023231478 0.000978669 0.12848043 0.0048353304
000030 d5 d7 72 bd b8 5e 96 bd 6f 11 09 3c 77 20 71 3b
       -0.059287865 -0.07342285 0.008365973 0.0036793032
000040 18 44 b7 3c 45 2a 21 3d c7 f2 cb bc f4 8c 84 3d
       0.022371337 0.039346952 -0.024896039 0.06472197
000050 1a 33 43 3d 27 cc 24 bc db 28 a6 3d 0a 5a ff bb
       0.047656156 -0.010058439 0.08113261 -0.007792716
000060 b8 06 06 bd eb b5 1a bd b4 f6 f6 3c 6f f4 f6 3b
       -0.03272125 -0.037771147 0.030146934 0.007536463
000070 e6 46 d8 bd 30 47 d4 3c c8 2b 71 3d 09 69 eb bc
       -0.10560398 0.025912851 0.058879644 -0.028736608
000080 4c 77 1e bd 24 3d 45 be cf 90 02 3d e8 53 ab 3a
       -0.03868799 -0.19261605 0.03187638 0.0013071271
000090 70 7d b7 bd 76 b5 42 bd 34 5d 6c bd 3e 60 37 bd
       -0.08959472 -0.047536336 -0.057706073 -0.044769518
0000a0 cc 5a b6 bd 18 dd b8 bb d2 a0 91 3c 2f 58 19 3d
       -0.08904037 -0.005641591 0.01777688 0.037437614
0000b0 38 87 44 3d 7b 84 b5 3c 13 2b ae 3c 8e b8 6d bd
       0.047980517 0.022157898 0.021260774 -0.058037333
0000c0 aa 55 ab 3c c4 2d 08 bd
       0.020914871 -0.03324677

linears.4.weight f4 [3, 50]
000000 f7 8f 12 bf 40 08 dd bd ac 4b ef be 92 5e b3 3e
       -0.5725092 -0.10792589 -0.4673742 0.3503309
000010 50 07 e7 3d d0 8a dd 3e b7 e2 81 be bc a5 ff 3d
       0.112806916 0.43269968 -0.25368282 0.12482783
000020 e9 b5 98 be ec c6 90 3e 91 36 3e 3e 84 2a 5b 3e
       -0.29826286 0.28276765 0.18575503 0.21402937
000030 59 83 5b bd 19 35 a0 be c1 7e fb be e5 41 49 3f
       -0.05359206 -0.3129051 -0.49120143 0.7861617
000040 53 74 d4 3d 83 66 6e 3e 06 7a 9c be bb 23 82 3e
       0.103737496 0.23281293 -0.30561846 0.25417885
000050 c1 ff 07 3f f5 d9 f0 3e 36 93 e4 3d 61 94 49 3f
       0.53124624 0.47041288 0.11160891 0.78742033
000060 ea 1c 13 bf e8 cf bb be 81 18 f5 3d af 56 14 be
       -0.57465994 -0.36682057 0.119675644 -0.14486192
000070 78 43 b6 3e 96 49 20 3f c7 8d 0e 3f 40 26 cc 3e
       0.3559835 0.62612283 0.55685085 0.39872932
000080 16 12 c4 be 73 9a 45 3e d8 ae b9 3e 73 34 8a 3e
       -0.38295048 0.19297199 0.36266208 0.2699314
000090 6a ce 0b bf 4a 97 76 be 82 f1 aa be f1 82 03 3e
       -0.5461184 -0.2408115 -0.3338738 0.12842919
0000a0 23 28 b7 be 34 93 8e be 44 b4 b9 3e 68 3a 26 3f
       -0.3577281 -0.27846682 0.36270344 0.6493287
0000b0 72 69 74 3f e7 cd fc 3e 7b 58 bd 3e e2 8c 42 bd
       0.95473397 0.4937584 0.36981568 -0.047497638
0000c0 83 16 94 3e 76 2b ba 3e 31 89 8f 3c ba 2a f3 3e
       0.28923425 0.36361283 0.017521473 0.47493535
0000d0 23 2f 8d 3d c9 5d fd 3e 3f ba df 3e f4 8b 47 3e
       0.06893756 0.49485615 0.43696782 0.19486982
0000e0 b7 b0 e2 bd 3c 46 8f 3b cf c2 7f bd b6 51 f4 bd
       -0.11068862 0.0043723863 -0.062441643 -0.119296476
0000f0 1d 58 36 be 39 13 9b bd b6 46 7b be 46 29 97 3e
       -0.1780705 -0.07572026 -0.24538693 0.29523677
000100 ef 01 9c be b4 a0 5a 3d ca 53 bd 3e 6c d9 94 be
       -0.30470225 0.053375915 0.36977988 -0.2907213
000110 eb c7 43 3e a1 ba 59 be e6 17 d8 be c5 d4 1e be
       0.19119231 -0.212626 -0.42205733 -0.15510853
000120 79 2c 97 3d 64 10 41 bd 6f b6 ba bd 88 e0 ac be
       0.07381529 -0.047134772 -0.09116828 -0.33765054
000130 4d b7 2b 3e d7 71 84 be c9 c1 2a 3f 7f 7a 66 3d
       0.16769142 -0.25868103 0.6670194 0.056269165
000140 cd 97 01 bf 74 95 20 3e 16 72 4f be 2c 1a 1f 3d
       -0.50622255 0.15682012 -0.20258364 0.03884332
000150 e9 44 9f bd c7 58 33 3d 4a cd ff 3d dd c1 6b 3e
       -0.077768154 0.043785837 0.12490328 0.23023172
000160 3c 87 8d 3e 10 b1 5a 3e 5d 13 ce be b9 2f 2d be
       0.27642238 0.21356606 -0.40249148 -0.16912736
000170 30 b0 c1 3d ff 72 04 3e 64 93 71 be 4e 19 58 be
       0.09457433 0.12934493 -0.23591381 -0.21103403
000180 43 a2 92 3e e1 6d 3b 3e 24 76 fd bb 0c 24 1b bd
       0.2863942 0.18303634 -0.0077350307 -0.037876174
000190 03 19 43 3e 1a 55 34 be 45 ab 14 3f d7 6b c9 3e
       0.1905251 -0.17610589 0.58073837 0.39340088
0001a0 85 05 17 3e 07 2c fd be a4 fb b9 be 4f a8 2d bf
       0.147482 -0.49447653 -0.363248 -0.67834944
0001b0 d4 de 9d bd e2 86 df bd 8a 5e 60 bf f7 49 87 3e
       -0.07708517 -0.10914399 -0.87644255 0.26423618
0001c0 8c b0 67 3f 49 f1 2b 3f fb c9 b4 be 75 53 f3 3d
       0.90503764 0.67165047 -0.3531035 0.118811525
0001d0 cc b6 73 be 3c 2c 0c be 4c db ca 3e e7 8a cc bd
       -0.238002 -0.13688749 0.39620435 -0.09987431
0001e0 ce 48 48 3e fe 18 57 3e 7d 80 d8 be 5f d9 3f 3e
       0.19559023 0.21005628 -0.4228553 0.18735264
0001f0 a6 b2 1d 3f 36 f5 6a 3e 9c e4 bf 3e 3d 90 23 bf
       0.6160072 0.22945103 0.37479103 -0.63891965
000200 de c6 81 3e 8a 91 ec bd 2e c8 e7 bd c9 79 3c 3e
       0.25347036 -0.11551197 -0.11317478 0.18405832
000210 02 7b 49 be 81 da e2 3e ff ab ef bd 58 a7 f5 3d
       -0.1967583 0.4430733 -0.117027275 0.11994809
000220 40 3d f6 3d 8b 23 d4 3c eb 95 cc bd 75 08 0e 3d
       0.12023401 0.025895854 -0.09989532 0.034676034
000230 0d 8a 3a 3f 36 0c a1 bd 29 7e 9a 3e a5 d2 5c 3e
       0.728669 -0.07863657 0.30174378 0.2156473
000240 f3 51 1d 3f 2e 9c 8c 3e d4 18 ea bd 64 4d 2f 3d
       0.6145317 0.27462906 -0.11430517 0.042798415
000250 95 8a 54 3e a1 22 61 3e
       0.2075599 0.21985866

linears.4.bias f4 [3]
000000 f7 05 93 3c 38 6f ec bc 59 ff c9 be
       0.01794718 -0.028861627 -0.39452627

exp_avg f4 [50, 2]
000000 a2 f7 1d ba b4 8c cd 3a 5f 5e 17 3b d6 7a cc ba
       -0.0006025975 0.0015682192 0.002309702 -0.0015600573
000010 9c 35 90 3b 2a d2 3f bb 7b ab bd 3a db 19 48 bb
       0.004400922 -0.0029269555 0.0014470661 -0.003053299
000020 c8 73 52 3b 34 29 f5 ba f8 02 a9 ba 94 c7 3f 39
       0.0032112468 -0.0018704296 -0.0012894562 0.00018289528
000030 4d a8 b7 3a 1f 10 06 bb 9b 0b 08 3b 92 2b 9d ba
       0.001401195 -0.0020456386 0.002075887 -0.0011991134
000040 6c 8b b6 b9 fe ef ff 3a 0b 21 ac 3a 44 61 08 b9
       -0.00034817623 0.0019526479 0.0013132406 -0.00013006205
000050 02 b1 92 3a 53 f6 e1 ba af d4 3c bb 86 fe 1a 3b
       0.0011191668 -0.0017239548 -0.0028813293 0.0023650243
000060 13 52 68 3b e0 5b 98 bb 6e b1 8b 39 1f 9e 4d ba
       0.003544931 -0.004649624 0.0002664434 -0.0007843691
000070 30 00 3e bb 00 b8 0e 3c d9 93 55 bb 0a 02 58 3b
       -0.002899181 0.008710861 -0.0032589345 0.00329602
000080 3a f5 03 3b f7 e1 cc ba 69 8d a5 ba df fd 0e 3b
       0.002013518 -0.0015631308 -0.0012630644 0.00218188
000090 0e f8 d4 39 e3 e7 5e 3b fb e3 14 bb 46 cf c0 3a
       0.00040620606 0.0034012727 -0.0022718895 0.001471021
0000a0 d6 cc b6 b9 15 20 f2 3b 6c f1 94 3b e6 a5 91 bb
       -0.0003486636 0.0073890784 0.0045453813 -0.0044448255
0000b0 5c 0c d7 ba ab 2f 51 ba 18 83 cd 3a ff 7e c8 ba
       -0.0016406882 -0.00079798204 0.0015679328 -0.0015296637
0000c0 b7 19 bd 3a 2e 4b d4 ba bf 5f 0c 3b 18 9b c1 ba
       0.0014427219 -0.0016196722 0.0021419374 -0.0014770953
0000d0 2d 28 97 ba d5 be e0 3a a5 ce 9d 39 f4 7b 8a bb
       -0.0011532359 0.0017146716 0.00030099336 -0.004226202
0000e0 20 13 28 bb 0b f1 92 3b 3c 31 89 bb 28 f0 ab 3b
       -0.0025646165 0.004484301 -0.0041867774 0.0052471347
0000f0 e7 14 0d bb 76 0b e7 3a 80 dd b4 39 d3 17 cd 39
       -0.0021527351 0.0017627317 0.00034497306 0.00039118397
000100 eb ce b7 3a fe d3 8a ba 9f 1e da b9 c9 9d 3f ba
       0.0014023458 -0.0010591743 -0.00041603015 -0.00073095836
000110 74 7e db ba 15 86 07 3b d8 cf f3 b8 af ae d8 38
       -0.001674606 0.0020679284 -0.00011625857 0.0001033222
000120 89 7e 1b bb 76 33 8a 3a 21 95 45 3a ca 7d 66 ba
       -0.0023726544 0.0010543901 0.00075371756 -0.0008792548
000130 f9 3f f4 3a a5 fe 12 bb 38 be 58 3a f1 8a 11 bb
       0.0018634788 -0.0022429612 0.0008268091 -0.002220806
000140 c9 75 56 3b 45 d7 2f bb d4 12 26 bb 65 a0 d7 3a
       0.0032724014 -0.0026831191 -0.0025340812 0.0016451
000150 3e 23 07 3a 07 1f 66 bb 61 24 db ba ed b2 d2 3a
       0.0005155093 -0.0035113709 -0.0016719216 0.0016075053
000160 a8 f4 f3 3a 50 25 2e bb 94 ab 21 3b 16 c8 bf ba
       0.0018612342 -0.0026572533 0.002466892 -0.0014631774
000170 3b d8 a9 ba 90 55 2d 3b 9d 36 a0 bb 6c 84 af 3b
       -0.0012958118 0.0026448704 -0.004889323 0.005356362
000180 9c b7 23 3b f7 83 0b bb a7 fc 99 b9 55 0e 0b bb
       0.0024981266 -0.0021288374 -0.00029370675 -0.002121826

exp_avg_sq f4 [50, 2]
000000 3f 22 a3 3c ce b1 bb 3b 9c 8a 4f 3d ff 33 16 3d
       0.01991379 0.005727983 0.050669298 0.03667068
000010 5f 22 5c 3c 1f 93 d9 3b 13 47 47 3c 45 a5 9f 3c
       0.013435929 0.0066398527 0.0121629415 0.019487986
000020 d1 5c 50 3c 9c 61 0e 3c 8a 63 1c 3c 10 8b a6 3b
       0.012717442 0.008690264 0.009545216 0.0050824955
000030 7d 01 3c 3d e0 8f 23 3d f0 7a 5d 3c 6e 62 06 3c
       0.045899857 0.03993213 0.01351808 0.008202178
000040 8d c0 53 3d d8 27 13 3d fb d6 3a 3c f2 dc d8 3b
       0.051697303 0.03592667 0.011403794 0.0066181356
000050 c2 72 3d 3c b7 ed 7a 3c ab 77 1b 3c c7 12 37 3c
       0.011563005 0.015315465 0.00948898 0.01117391
000060 79 02 ce 3d 85 7c cc 3d bb 47 95 3b 46 59 16 3c
       0.10059065 0.09984688 0.00455567 0.009176558
000070 65 f4 10 3e db ac 2d 3e 91 3b 8b 3b 51 17 2c 3b
       0.14155729 0.1696047 0.004249044 0.0026259015
000080 7c cc 0d 3d a2 fd d1 3c 74 93 4a 3c 4c 49 4c 3c
       0.03461884 0.025633637 0.012364257 0.012468647
000090 56 f1 9b 3d bd f2 31 3d 14 85 8f 3b be d6 00 3b
       0.076143906 0.043444384 0.004379878 0.0019659246
0000a0 81 3d 92 3e f6 52 0c 3e a5 96 c5 3c 89 cf 0a 3d
       0.2856255 0.13703522 0.024119684 0.033889327
0000b0 8f 4b c0 3b 90 69 70 3a d8 3d 1a 3d a1 44 ad 3c
       0.0058683823 0.00091710035 0.037656635 0.021150889
0000c0 d2 56 1d 3d 86 6c b5 3c e2 82 ec 3a 49 b4 37 39
       0.038412876 0.022146475 0.0018044377 0.00017519401
0000d0 97 0d 6c 3d 57 fe 74 3c 7a 9a 33 3d b6 81 4f 3d
       0.057630148 0.0149532175 0.043848492 0.05066081
0000e0 1c 8c 03 3c 71 e8 6d 3c 93 22 d1 3d 1c 2e b9 3d
       0.00802901 0.01452075 0.10211673 0.09041998
0000f0 b0 d6 75 3c 57 5f 3d 3c af a3 8b 3c 13 be 9d 3c
       0.015004799 0.011558375 0.017045824 0.019255674
000100 65 80 e3 3a 13 5d 44 3a bd 50 44 3b 9d 64 a3 39
       0.001735699 0.0007490676 0.002995535 0.00031164745
000110 ab 48 0d 3d 18 d7 02 3d 5c 49 4f 3d 32 db 36 3c
       0.03449313 0.03194341 0.05060707 0.011160659
000120 18 1a a7 3b fd 45 ad 39 25 8e 2b 39 24 a7 04 3a
       0.005099546 0.00033049277 0.00016360784 0.0005060306
000130 07 48 62 3d 1d ba 4e 3d 3d 82 af 3a 6f fc 34 3b
       0.055244472 0.05047046 0.0013390254 0.0027616282
000140 cc 05 fd 3c f0 98 d4 3c a7 0b c7 3c bf 77 98 3c
       0.030886553 0.025951833 0.024297548 0.018611787
000150 21 6b c0 3b e5 c3 79 3c dc 75 3b 3c 84 6f 54 3c
       0.0058721458 0.015244459 0.011441674 0.0129660405
000160 c1 51 a9 3d 1c bf 86 3d 17 25 8b 3b 7b 84 75 3b
       0.082675464 0.0657942 0.004246365 0.0037462998
000170 8f 80 78 3d 4a 85 51 3d 2c c9 2e 3d b5 af 60 3d
       0.060669478 0.051152505 0.04267232 0.054855067
000180 07 90 91 3c 7b ec a0 3c c0 1a 59 3d dc 76 1c 3d
       0.017768873 0.019644013 0.053004026 0.03819929

exp_avg f4 [50]
000000 d8 1c 03 3b b4 4c 47 bb a0 26 c5 bb 14 fd 10 bb
       0.0020006206 -0.003041071 -0.0060165673 -0.0022123503
000010 7b 5a 93 bb 40 69 7b 3a 82 22 d1 ba 4d b4 25 bb
       -0.00449687 0.00095905736 -0.0015955719 -0.002528447
000020 ce cc 8c 39 c8 1e 45 ba a2 7a f5 ba d8 3c b7 3b
       0.00026855472 -0.00075195404 -0.0018728564 0.00559197
000030 9a fa c7 bb 76 47 44 ba b9 eb c3 3b e4 10 be 3b
       -0.006102872 -0.0007487455 0.005979028 0.0058003534
000040 16 c8 37 bb 2b 2d 68 3b 8b e8 7c 3a 89 92 77 3b
       -0.0028042844 0.0035427313 0.0009647689 0.003777655
000050 bf ed 25 3b e2 a5 02 bc 9d f9 fc 39 3f 7a 0a bb
       0.002531871 -0.00797412 0.00048251162 -0.0021129993
000060 e5 7e f4 ba cc e8 84 bb fb c3 2b 3b 73 c3 15 bb
       -0.001865354 -0.004056072 0.0026209343 -0.0022852093
000070 df a4 cb 3b 51 e8 04 3c c9 7f a8 3b f2 f3 1c bb
       0.0062147225 0.008112029 0.0051421863 -0.0023949114
000080 d3 94 1e bb 2b f5 36 3a f8 46 28 3b 53 9c 8c 3a
       -0.0024197593 0.0006979282 0.0025677066 0.0010727741
000090 76 6f 84 3b 96 66 e4 ba f4 d8 26 bb d0 ba 30 bb
       0.0040416075 -0.0017425593 -0.0025458904 -0.0026966818
0000a0 a3 99 a6 bb 7a 5e 48 3b 1a a2 2b bb 20 bf 48 3b
       -0.005084233 0.003057389 -0.002618915 0.0030631498
0000b0 80 2b 08 bb 76 34 9b bb bc 60 bd 3a f0 7d 15 3c
       -0.002077788 -0.0047364784 0.0014448385 0.009124264
0000c0 e1 d6 69 bb d9 ab 01 3a
       -0.0035681056 0.0004946567

exp_avg_sq f4 [50]
000000 3f a2 db 3c b2 44 b9 3d 92 b5 7a 3c 07 ad e5 3c
       0.026810763 0.09046306 0.015302079 0.028036607
000010 07 60 0e 3d 0d 8e 6d 3c 0d e3 a7 3d 73 5c 03 3d
       0.034759548 0.0144992 0.081976034 0.03207059
000020 d3 e9 c1 3d 98 b5 b7 3c 71 d5 06 3d a6 14 00 3d
       0.094684266 0.022425458 0.032918397 0.031269692
000030 e0 fa 67 3e 5a 29 61 3c d5 73 a4 3e 87 28 7e 3b
       0.22654295 0.013742769 0.32119623 0.003878148
000040 2d a0 8b 3d cb 87 e7 3c 4e 4b 05 3e 0f eb 06 3c
       0.068176605 0.028262993 0.13017008 0.008234753
000050 ec 53 fb 3e 42 a5 92 3d 18 90 83 3a 9f 6f 85 3d
       0.49087465 0.07160427 0.001003745 0.06515431
000060 2e b9 78 3d fb c1 50 3a 76 42 66 3d cd 0c b9 3d
       0.060723476 0.00079634757 0.056215726 0.09035645
000070 44 46 8d 3c b5 8d 62 3e 8a ab 2a 3d 44 59 e5 3c
       0.01724542 0.2212437 0.0416675 0.027996667
000080 3d a9 89 3b 7e 32 31 3b e4 9f 8e 3d 07 cb 43 3d
       0.004201083 0.0027038152 0.069640905 0.047801044
000090 66 ba db 3b bc 1f da 3a 1c 44 c1 3d 57 fa 1e 3b
       0.00670557 0.0016641538 0.09436819 0.00242581
0000a0 78 16 9d 3d d9 e4 34 3d 39 76 34 3c ac f7 af 3c
       0.07670301 0.04416356 0.011014515 0.021480404
0000b0 2e 01 1e 3e 16 f3 8e 3c 80 5d e3 3d 5f d0 06 3e
       0.15430138 0.017449897 0.11101818 0.13165425
0000c0 03 36 05 3d e1 f1 b4 3d
       0.032522213 0.08835197

exp_avg f4 [50, 50]
000000 8f e6 08 b8 8b 45 60 38 bc ae f2 38 49 25 74 b7
       -3.263965e-05 5.347053e-05 0.00011572006 -1.4552214e-05
000010 9e 6d 4a 38 cc 74 0e b5 91 30 c7 b7 5a 9b 26 b6
       4.8262642e-05 -5.3069084e-07 -2.3745264e-05 -2.4826354e-06
000020 29 61 ae 38 0b 8b 4c 38 14 09 9b b8 40 cf d4 b8
       8.315064e-05 4.8766884e-05 -7.392667e-05 -0.00010147551
000030 69 dc 30 38 f2 aa 0c b9 eb bf ac 38 20 48 f3 b8
       4.2166943e-05 -0.00013415123 8.2373466e-05 -0.00011600577
000040 9b ac b4 38 61 6b 17 b9 2e e2 67 38 ff 52 f4 b8
       8.615219e-05 -0.00014440484 5.5285338e-05 -0.00011650286
000050 26 7f a5 37 ce f6 62 38 63 26 f9 b7 e6 a4 c6 37
       1.972874e-05 5.4112454e-05 -2.9700988e-05 2.3680226e-05
000060 c5 80 d1 b6 12 24 09 39 9e 14 9a b7 f2 3e 12 b7
       -6.243676e-06 0.00013078775 -1.8367831e-05 -8.716934e-06
000070 50 be e9 b8 5e 57 cc b8 3a ac d9 b8 11 d7 1e 39
       -0.00011145754 -9.7437514e-05 -0.00010379446 0.00015148173
000080 13 4c 20 39 09 30 4a b8 bd 9e 08 38 52 3f 93 b7
       0.00015287129 -4.820529e-05 3.2572763e-05 -1.7553251e-05
000090 d3 f0 d8 b8 34 96 a0 38 7b e7 83 38 93 30 a3 37
       -0.000103445396 7.657372e-05 6.2896834e-05 1.9453733e-05
0000a0 d8 8b 72 b5 d7 53 cf b7 01 07 bf b6 c2 38 87 b8
       -9.0355525e-07 -2.4715364e-05 -5.693059e-06 -6.4478736e-05
0000b0 5b 1b 8e b6 96 29 d8 38 cb 1f 1b 39 13 bb b2 b8
       -4.2351144e-06 0.000103074286 0.00014793796 -8.522547e-05
0000c0 12 98 60 b7 26 4e 46 b9 be 70 c7 38 68 2c 91 39
       -1.3386847e-05 -0.00018911864 9.510059e-05 0.0002768964
0000d0 b9 ed b1 3a ec a8 f7 39 34 74 8c 39 d8 8d 2b ba
       0.0013574875 0.00047237368 0.0002678946 -0.00065442687
0000e0 6c 63 74 39 4b bd 12 3a cc 70 fd b9 76 16 e9 39
       0.00023306691 0.0005597665 -0.0004833996 0.00044457958
0000f0 85 75 d8 39 21 98 bb b9 29 67 ea 39 ec 21 25 39
       0.0004128629 -0.00035780764 0.00044708818 0.00015748263
000100 22 9d 85 3a a9 1d 3c ba 80 87 06 39 cf 81 79 3a
       0.0010193924 -0.00071760506 0.00012829714 0.0009517939
000110 10 56 9b 3a 55 48 27 b7 ec 64 cf 3a 2b c1 48 3a
       0.001185121 -9.970817e-06 0.0015822924 0.0007658179
000120 c9 b9 29 ba 33 48 ae 39 d8 4a 6c 39 c5 50 f3 b7
       -0.00064745225 0.0003324166 0.00022534595 -2.9005469e-05
000130 5a cb 9e b9 d3 5e 32 ba 1b f9 c0 b9 d6 15 a8 b9
       -0.00030287617 -0.0006804291 -0.00036806692 -0.00032059726
000140 e0 f2 71 b9 5e eb 25 ba 0a d1 db b8 98 fc 50 b9
       -0.00023074029 -0.0006329323 -0.0001048167 -0.00019930524
000150 c6 52 04 ba ae 07 b8 b7 2c 2e 17 39 33 eb 8b b9
       -0.00050477346 -2.1938085e-05 0.00014417683 -0.00026687383
000160 82 04 70 39 38 5f 00 b9 58 36 d0 39 fb b8 d8 b9
       0.00022889863 -0.00012242503 0.0003971334 -0.00041336552
000170 c3 1a ba 38 9c 0b f2 b8 3f f0 c1 39 87 fe f6 39
       8.874156e-05 -0.00011541622 0.00036990826 0.00047110414
000180 11 86 04 ba 44 b6 bd b9 d9 d4 c9 39 b9 d9 27 3a
       -0.0005055378 -0.00036184688 0.0003849629 0.00064029876
000190 dc e0 1c 3a c0 bb 6d 3a fd d5 28 3b ae 90 44 3a
       0.00059844344 0.00090688094 0.0025762313 0.00074983656
0001a0 5f ab 41 3a ca 61 c7 ba 82 ff 3d 3a 6a ca b6 3a
       0.0007387902 -0.0015211639 0.00072478515 0.0013945822
0001b0 c3 60 79 ba 95 71 a4 3a 01 a5 28 3a dd 1b 5c ba
       -0.0009513015 0.0012546057 0.0006433279 -0.0008396486
0001c0 09 5f 91 3a a7 a9 ae b8 a5 22 37 3b 14 39 8a ba
       0.0011090945 -8.328567e-05 0.0027944234 -0.0010545575
0001d0 53 f7 1e 3a 2e fd fd 3a 15 6f 3a 3b 8a 91 14 ba
       0.0006064076 0.0019377822 0.0028447558 -0.0005667439
0001e0 72 c7 7b 3b 91 36 d0 3a bd c8 da ba 01 81 6f 3a
       0.003841844 0.0015885403 -0.0016691905 0.00091363495
0001f0 c9 49 5c 3a 4d 49 33 b7 92 69 fe b8 7b 05 de ba
       0.0008403329 -1.0686298e-05 -0.00012131328 -0.0016938889
000200 49 46 86 38 43 a2 80 ba 30 b8 75 ba 7d 96 b6 ba
       6.4027096e-05 -0.0009813983 -0.00093734544 -0.0013930347
000210 4b 3b 3c b8 1e 7e 46 ba 9d a9 8d ba a5 76 00 ba
       -4.4877914e-05 -0.00075718935 -0.0010807995 -0.0004900492
000220 88 01 b4 39 cc 70 3d ba b3 2e 58 3a 5f 55 41 ba
       0.00034333416 -0.0007226586 0.0008246705 -0.0007375087
000230 6f c8 6f 3a 1c 82 93 ba 89 2b 05 ba 82 0c e4 b9
       0.00091469934 -0.0011253986 -0.00050800346 -0.00043496868
000240 1a 67 70 3a 07 89 91 3a fb b3 59 ba a1 3f 64 ba
       0.0009170637 0.0011103459 -0.0008304712 -0.0008706991
000250 a4 c5 7a 3a 0b a8 9d 3a bb 4f d6 39 59 fa 9b 39
       0.0009566194 0.001202823 0.00040876665 0.00029750427
000260 a9 bc 96 37 fb af 8e b8 f1 2a 2e 39 8f 8e a9 b9
       1.7969245e-05 -6.8038666e-05 0.0001660993 -0.00032340406
000270 55 be 9b 39 1d ab bc 39 8c 23 3f b9 d8 57 b8 39
       0.00029705712 0.00035985644 -0.00018228422 0.00035160664
000280 37 54 9c 36 b0 6b 50 b8 8a 10 6a 39 38 61 47 b9
       4.658966e-06 -4.9691356e-05 0.0002232214 -0.00019014336
000290 50 4b 5a 3a b9 b0 aa 39 23 4b 6c 39 75 4c e7 39
       0.00083272625 0.00032556595 0.00022534704 0.00044116718
0002a0 aa 0c 28 3a 08 30 c1 b9 42 91 7a 3a f1 ae 0f 39
       0.00064105785 -0.00036847615 0.0009558388 0.00013702713
0002b0 eb 67 e6 b9 a4 ce 83 39 0a 6e cc 39 46 e3 ea b8
       -0.00043946443 0.00025140226 0.00038991898 -0.000112003225
0002c0 27 3e c5 39 e5 f4 ec b9 7e 56 3a 3a f2 92 80 b9
       0.00037621075 -0.00045195888 0.0007108225 -0.00024523545
0002d0 22 48 b8 b9 4f 26 dc b9 c8 a7 8e b8 ea 8c 9b b9
       -0.00035148958 -0.00041990212 -6.802339e-05 -0.00029668893
0002e0 f0 55 54 b9 1a f4 c1 b9 ca fa 4f 39 fb bf a5 b9
       -0.0002024991 -0.00036993698 0.00019834485 -0.0003161429
0002f0 93 a0 97 39 6d c2 ff b9 bf d7 3e 39 87 35 a4 b9
       0.00028920601 -0.0004878225 0.00018200184 -0.000313204
000300 ff b7 19 ba 00 1d ef b8 b7 1b 72 39 62 71 ee 38
       -0.00058639044 -0.0001140181 0.00023089243 0.000113698436
000310 c9 19 e3 b8 ce 00 bd b8 94 85 85 39 cd eb 91 39
       -0.00010829006 -9.012372e-05 0.0002546726 0.0002783224
000320 bf 96 81 b9 1b 0c 40 b9 9c 79 46 3a dd 8a e8 39
       -0.00024717112 -0.00018315057 0.0007571222 0.0004435395
000330 3c 2b 59 b8 52 43 30 b9 a0 e0 7a b8 d9 08 98 38
       -5.1777097e-05 -0.00016809747 -5.9813843e-05 7.249573e-05
000340 84 db b3 b9 03 b5 d3 b8 ec 2f ec 39 86 67 88 b7
       -0.00034305092 -0.0001009498 0.00045049132 -1.626067e-05
000350 2b b2 1c 38 59 45 22 3a 56 a7 6f b9 70 dc 16 ba
       3.735923e-05 0.0006190143 -0.00022855154 -0.00057548936
000360 14 37 9a b9 92 b5 02 3a 5c 0f 23 39 ed 05 26 3a
       -0.00029414205 0.00049861625 0.00015550613 0.00063332805
000370 02 61 60 39 82 d7 ab 39 4c 6d 9c 36 d5 1c 1d b8
       0.00021398443 0.00032776227 4.661886e-06 -3.745857e-05
000380 cd af 46 b9 c0 78 4a b9 f8 fa 0c ba c4 f4 11 b8
       -0.00018948242 -0.00019309204 -0.00053779734 -3.479865e-05
000390 1d 24 27 ba 15 d8 49 39 59 1b cd 39 e4 d1 bc b9
       -0.0006375926 0.0001924935 0.00039121023 -0.00036014535
0003a0 af 6a aa b9 4c d5 73 39 cf af 7a b9 a2 7f c2 39
       -0.00032504412 0.00023253745 -0.00023907352 0.00037097657
0003b0 1a 3a 0a 39 86 9f 46 b8 96 65 72 b9 b9 61 b3 39
       0.0001318235 -4.7355446e-05 -0.00023116762 0.0003421435
0003c0 da 35 00 39 b3 57 26 38 14 60 2f 3a ab 27 19 39
       0.00012227093 3.965916e-05 0.0006690037 0.00014605995
0003d0 d9 27 84 38 99 3f 16 38 82 c4 17 ba 20 25 7f b7
       6.301673e-05 3.5822017e-05 -0.0005789475 -1.5207828e-05
0003e0 25 34 8f 38 cc 9e 1a 3a ce 6a 4c 38 06 64 ff 38
       6.828484e-05 0.00058982964 4.873686e-05 0.00012177978
0003f0 d3 fc 17 3a a8 3d 54 39 87 da f8 38 eb 56 98 b9
       0.00057978666 0.00020240864 0.000118662654 -0.00029056458
