models/onlyadam/ckpt/ckpt-900.pt (torch, 106775 bytes, 30 tensors)

linears.0.weight f4 [50, 2]
0.09666535 0.3961644 -0.16760513 0.21126959 0.22286448 0.16265984 0.018212944 0.24762905
0.13419111 0.36461464 0.06481296 0.6670441 0.3568825 0.27395627 0.248801 -0.0709682
-0.5283885 -0.116541594 0.09990432 -0.32259774 0.042138394 -0.44665116 -0.06410332 0.40633878
0.5198811 -0.10914479 0.28399426 0.25766754 -0.28522512 -0.23461334 0.22324336 -0.20991854
0.016514352 -0.2836641 -0.008871423 -0.0132117495 -0.17520325 -0.2069208 0.026971046 -0.20412652
-0.2755045 -0.34189558 -0.06916911 0.16920866 0.03818064 -0.20052128 0.019278044 -0.1465837
-0.19389835 0.080715455 0.26100895 -0.19609252 0.25763008 -0.41069266 0.2282068 0.10799837
0.135361 0.07469864 -0.11775762 0.31585184 0.10745782 0.0517506 0.14325237 -0.25199768
-0.20726435 -0.20140642 0.010254134 0.054107815 -0.3026984 0.12539858 0.02941043 0.088667125
-0.2715917 -0.19062561 0.16461919 0.15589456 0.22956283 0.23760618 0.0413999 -0.13178961
0.11747863 0.6107078 -0.011832018 0.10686604 -0.009978714 0.11362411 0.19733125 0.3356102
-0.06229581 -0.3102969 0.19314426 0.27229807 0.027909165 -0.0741728 -0.386118 -0.18493934
0.20460278 0.13855301 -0.035897538 0.067695856
00000000: 7cf8 c53d 0fd6 ca3e aea0 2bbe 0e57 583e
00000010: 9636 643e 4d90 263e 5033 953c 7892 7d3e
00000020: 6569 093e c5ae ba3e a8bc 843d 67c3 2a3f
00000030: 4eb9 b63e ff43 8c3e b0c5 7e3e c757 91bd
00000040: 7844 07bf 5cad eebd a39a cc3d 882b a5be
00000050: 4f99 2c3d 76af e4be 9a48 83bd a30b d03e
00000060: ee16 053f 4e87 dfbd b267 913e 00ed 833e
00000070: 0709 92be 7b3e 70be e899 643e e3f4 56be
00000080: 1b49 873c 6c3c 91be 7259 11bc 1876 58bc
00000090: 7b68 33be 0ce3 53be 62f2 dc3c 8b06 51be
000000a0: ed0e 8dbe f00c afbe 89a8 8dbd 0945 2d3e
000000b0: 4e63 1c3d 7355 4dbe fdec 9d3c 0a1a 16be
000000c0: 4a8d 46be 254e a53d f7a2 853e 7acc 48be
000000d0: 17e8 833e 4f46 d2be 0baf 693e 402e dd3d
000000e0: 139c 0a3e 9afb 983d e82a f1bd 55b7 a13e
000000f0: d812 dc3d 70f8 533d c0b0 123e d705 81be
00000100: 1b3d 54be 7c3d 4ebe f500 283c 28a0 5d3d
00000110: 49fb 9abe 7c68 003e 24ee f03c 1c97 b53d
00000120: 110e 8bbe 5c33 43be ef91 283e d3a2 1f3e
00000130: 8512 6b3e 094f 733e f192 293d dbf3 06be
00000140: a398 f03d 5957 1c3f 15db 41bc 95dc da3d
00000150: c37d 23bc c2b3 e83d 3411 4a3e 1ad5 ab3e
00000160: e429 7fbd 3cdf 9ebe 9cc7 453e a76a 8b3e
00000170: c3a1 e43c e9e7 97bd 42b1 c5be bd60 3dbe
00000180: 6483 513e d7e0 0d3e 4c09 13bd 20a4 8a3d

linears.0.bias f4 [50]
-0.037148982 0.19204202 0.0010409238 -0.07334192 -0.13192527 0.09924278 0.111301 -0.005040891
-0.01958165 0.062202524 0.05617787 -0.055167057 0.07688376 -0.0764516 -0.016508007 -0.005260721
0.10951818 -0.17127925 0.002267719 -0.08269801 0.07729489 0.011186294 0.012030826 -0.011042686
-0.092588186 -0.008096106 0.03183655 -0.15456325 0.30995107 -0.039479367 -0.0806708 0.016442262
0.014847354 -0.11721185 -0.09589538 0.03382516 -0.18557149 -0.028954862 0.07621515 -0.05997746
-0.030698499 0.066704616 0.027537271 -0.056778513 -0.018945351 -0.064618915 -0.03126816 -0.09035457
0.16017073 -0.055860512
00000000: 8829 18bd aaa6 443e 9b6f 883a 4a34 96bd
00000010: 6b17 07be cc3f cb3d c7f1 e33d 0f2e a5bb
00000020: b269 a0bc 13c8 7e3d c41a 663d daf6 61bd
00000030: 3c75 9d3d a892 9cbd cd3b 87bc 2062 acbb
00000040: 114b e03d d463 2fbe 039e 143b 935d a9bd
00000050: c94c 9e3d b846 373c f11c 453c 62ec 34bc
00000060: e09e bdbd 88a5 04bc 0b67 023d d445 1ebe
00000070: e8b1 9e3e 1eb5 21bd bb36 a5bd ecb1 863c
00000080: 5142 733c c40c f0bd cc64 c4bd 408c 0a3d
00000090: 7406 3ebe bf32 edbc b016 9c3d edaa 75bd
000000a0: 6b7b fbbc 6e9c 883d d895 e13c 9690 68bd
000000b0: 4833 9bbc ec56 84bd 0b13 00bd d10b b9bd
000000c0: cc03 243e fecd 64bd

linears.1.weight f4 [50, 50]
-0.093249075 0.00052888243 -0.0440801 0.2640428 0.023472015 -0.13028555 -0.03388045 0.17302844
0.08056791 -0.11061235 0.027118152 0.16129705 -0.16049333 0.18399204 0.24520668 -0.07907045
-0.099384926 0.06656595 -0.122700445 0.045457754 0.12167102 -0.26628533 0.16789395 -0.012020226
-0.12505537 0.23617479 -0.20136367 0.008745539 -0.31199366 0.010527442 0.03333755 -0.11168292
0.15073088 0.059430897 -0.2343178 -0.016904565 0.06889798 -0.0040899343 -0.075847246 0.115086846
-0.16068469 -0.41282153 -0.22241816 -0.088967375 0.09307799 -0.16307795 -0.17896996 0.28722498
-0.16670364 0.018146638 0.018892935 0.21747075 -0.1000807 0.15388702 0.10672839 -0.010158498
0.05936579 -0.11813752 0.17523083 -0.25569826 -0.09194432 0.4126915 -0.31370342 -0.21630654
0.0063500684 -0.28864184 -0.22978333 0.13891117 0.18891397 -0.19525541 -0.02110144 0.24044514
-0.084808014 -0.23320825 0.2416136 -0.14777596 -0.018161237 0.16447034 -0.21605791 0.042791642
-0.0865977 -0.33237937 -0.29393134 -0.09971054 0.28813607 0.2724745 -0.26483902 0.15043284
0.27327147 -0.05059049 0.24800162 0.13491228 -0.08384883 0.01126083 -0.20832542 -0.22993703
-0.107195154 -0.18179634 -0.17909412 0.27494958 0.13119864 -0.16367595 -0.10659854 0.21082371
-0.087535806 0.09803561 -0.013842601 0.11766405 0.36787057 0.34818745 -0.08758848 0.038218237
-0.1186836 -0.036742266 -0.17236316 0.014434472 -0.15032592 -0.0146754915 0.03817298 0.10918562
-0.056016322 -0.14515537 0.14643066 0.2971301 0.16085292 0.028469661 -0.15271908 -0.26080275
-0.22121751 -0.09124863 -0.115488656 0.05825653 -0.15117359 -0.15192495 0.042381257 0.044635072
-0.063878864 0.24957852 0.012405822 -0.109615624 -0.081065334 -0.34952515 -0.037584145 0.0867967
0.028383812 -0.035230163 -0.03465016 0.059375286 -0.09604185 -0.11428178 0.049953934 -0.109433755
0.17150499 0.11789781 0.20501845 0.04655055 0.0758317 0.15351845 -0.2348802 -0.16307515
-0.11526331 0.27003276 -0.21609133 0.21769619 -0.07449131 -0.10309147 -0.1566724 0.17759402
0.011851799 0.030735191 -0.11953939 0.018712288 -0.00068155903 0.13217667 0.027418233 -0.030574879
-0.08916085 -0.10896436 -0.19780374 0.23837696 -0.091587685 -0.13185015 -0.17383046 -0.012683222
0.0125079 -0.033537477 0.25122568 0.1309133 -0.0043738596 0.16904907 0.16624661 -0.2466005
-0.12031356 0.057534225 -0.048354454 0.25798655 0.0030281995 -0.15241076 -0.12441618 -0.141512
-0.01256507 -0.06786109 0.07060686 0.018155372 0.068431 -0.09896078 -0.04087938 -0.026796091
-0.032269713 -0.12143792 0.044513807 -0.30947 0.20277625 0.033822533 -0.087839544 0.012231561
0.12537508 0.15473232 0.066356994 0.1354416 0.0061779907 -0.09216897 0.12415196 -0.016666623
-0.06235618 0.05030294 -0.20110379 -0.0336329 -0.12265161 0.028083418 0.028411819 0.04647147
0.077085815 -0.16452928 0.046255283 -0.23006673 0.16058728 0.18299867 0.279905 -0.08064158
0.1136129 0.15503089 0.018496972 -0.024203897 0.0050482242 -0.023913842 0.3676956 -0.14849104
0.21067983 0.093373865 -0.082018964 -0.18302861 0.13917513 -0.21595314 0.15424123 0.11240974
00000000: 5ff9 bebd b3a4 0a3a 568d 34bd 9e30 873e
00000010: 6248 c03c 9369 05be 3ac6 0abd 5e2e 313e
00000020: ca00 a53d ba88 e2bd e326 de3c 0e2b 253e
00000030: 5d58 24be 6968 3c3e 7617 7b3e b0ef a1bd
00000040: 538a cbbd bb53 883d 5f4a fbbd e931 3a3d
00000050: a82e f93d 8d56 88be 64ec 2b3e 7bf0 44bc
00000060: 840e 00be ced7 713e 4732 4ebe 7349 0f3c
00000070: a2bd 9fbe 4b7b 2c3c f48c 083d 04ba e4bd
00000080: 3259 1a3e d06d 733d 01f1 6fbe 717b 8abc
00000090: 621a 8d3d db04 86bb cd55 9bbd a7b2 eb3d
000000a0: 878a 24be 585d d3be 96c1 63be 8734 b6bd
000000b0: ac9f be3d e8fd 26be e743 37be 270f 933e
000000c0: 5cb4 2abe 42a8 943c 5bc5 9a3c a7b0 5e3e
000000d0: 1cf7 ccbd 8f94 1d3e 6a94 da3d d46f 26bc
000000e0: 8b29 733d 16f2 f1bd b66f 333e e2ea 82be
000000f0: 4e4d bcbd 4d4c d33e bc9d a0be 767f 5dbe
00000100: 3c14 d03b ddc8 93be 524c 6bbe bb3e 0e3e
00000110: aa72 413e 09f1 47be eddc acbc 4037 763e
00000120: d3af adbd 25ce 6ebe 8e69 773e 9552 17be
00000130: e0c6 94bc ea6a 283e 493e 5dbe 4a46 2f3d
00000140: 235a b1bd a12d aabe 2b7e 96be 0a35 ccbd
00000150: 9286 933e c781 8b3e fb98 87be 110b 1a3e
00000160: 3dea 8b3e f937 4fbd 23f4 7d3e 7226 0a3e
00000170: efb8 abbd 587f 383c 4253 55be 9d74 6bbe
00000180: 2289 dbbd d228 3abe 7364 37be 31c6 8c3e
00000190: f058 063e ab9a 27be 5650 dabd 2ce2 573e
000001a0: f945 b3bd e5c6 c83d 14cc 62bc d9f9 f03d
000001b0: 8859 bc3e a045 b23e 9761 b3bd ba8a 1c3d
000001c0: 6310 f3bd 0f7f 16bd f87f 30be 907e 6c3c
000001d0: 0aef 19be 7971 70bc 455b 1c3d b69c df3d
000001e0: 5f71 65bd 9ca3 14be ebf1 153e 7021 983e
000001f0: a1b6 243e 3539 e93c 6462 1cbe f087 85be
00000200: d886 62be 90e0 babd 5185 ecbd 669e 6e3d
00000210: 40cd 1abe 3792 1bbe f897 2d3d 44d3 363d
00000220: ecd2 82bd 8391 7f3e ca41 4b3c 287e e0bd
00000230: 9505 a6bd f6f4 b2be d5f1 19bd 78c2 b13d
00000240: 2b85 e83c 814d 10bd 54ed 0dbd 8033 733d
00000250: 97b1 c4bd 910c eabd 7f9c 4c3d ce1e e0bd
00000260: 019f 2f3e 6874 f13d 5bf0 513e caab 3e3d
00000270: a64d 9b3d f133 1d3e 6f84 70be 2cfd 26be
00000280: 2c0f ecbd bc41 8a3e 0c47 5dbe c0eb 5e3e
00000290: e68e 98bd 9f21 d3bd bb6e 20be 35db 353e
000002a0: 0c2e 423c 5ec8 fb3c 11d1 f4bd 834a 993c
000002b0: a7aa 32ba 5259 073e 349c e03c 2b78 fabc
000002c0: f799 b6bd b528 dfbd 108d 4abe 1719 743e
000002d0: 5392 bbbd ba03 07be 9d00 32be 4acd 4fbc
000002e0: efed 4c3c 985e 09bd a7a0 803e 230e 063e
000002f0: 9852 8fbb 331b 2d3e 8d3c 2a3e d784 7cbe
00000300: f566 f6bd 02a9 6b3d 520f 46bd d016 843e
00000310: c274 463b 9111 1cbe e9cd febd 86e8 10be
00000320: b9dd 4dbc c1fa 8abd 549a 903d 93ba 943c
00000330: 8d25 8c3d f3ab cabd 2371 27bd 7a83 dbbc
00000340: 3f2d 04bd 72b4 f8bd 1c54 363d da72 9ebe
00000350: 94a4 4f3e 7f89 0a3d 38e5 b3bd e366 483c
00000360: 5362 003e 2672 1e3e 2de6 873d 34b1 0a3e
00000370: be70 ca3b 16c3 bcbd 6243 fe3d 7188 88bc
00000380: 3269 7fbd 750a 4e3d 27ee 4dbe a7c2 09bd
00000390: c430 fbbd 320f e63c e7bf e83c de58 3e3d
000003a0: 2bdf 9d3d 5d7a 28be 2e76 3d3d 9d96 6bbe
000003b0: fe70 243e 0164 3b3e b54f 8f3e 6a27 a5bd
000003c0: e1ad e83d 6bc0 1e3e f686 973c 4047 c6bc
000003d0: 936b a53b f6e6 c3bc 9942 bc3e 090e 18be
000003e0: 74bc 573e cc3a bf3d 8ff9 a7bd da6b 3bbe
000003f0: ed83 0e3e d222 5dbe 6af1 1d3e 1437 e63d

linears.1.bias f4 [50]
-0.08902027 -0.0487197 -0.031984128 -0.092583485 -0.031968776 -0.06082608 0.038534347 0.1736839
-0.08072836 -0.13356063 0.015767049 0.015131833 -0.02331482 0.02222136 -0.12770253 0.068968706
0.031523142 -0.12874858 -0.0027730009 0.04999794 0.021089178 -0.046396848 0.0988181 -0.0720109
-0.07564814 -0.00269752 0.03689263 -0.106075935 -0.03365717 -0.07329802 0.05907381 0.049860876
-0.011330209 0.00074684253 0.011177601 0.031911463 0.11454435 0.00091096375 0.044394173 0.11019877
-0.032438833 -0.03472141 -0.015897349 0.05695697 -0.03029076 0.054498956 -0.08107879 -0.081665546
-0.06776581 0.013892536
00000000: 4250 b6bd 4f8e 47bd ca01 03bd 699c bdbd
00000010: b1f1 02bd c524 79bd 31d6 1d3d 31da 313e
00000020: e954 a5bd 1ec4 08be e629 813c 82eb 773c
00000030: b9fe bebc 9209 b63c 74c4 02be 773f 8d3d
00000040: 691e 013d abd6 03be 3cbb 35bb a4ca 4c3d
00000050: 36c3 ac3c 9f0a 3ebd 2561 ca3d 737a 93bd
00000060: 69ed 9abd e0c8 30bb ba1c 173d 573e d9bd
00000070: 1adc 09bd 461d 96bd 61f7 713d eb3a 4c3d
00000080: 57a2 39bc c1c7 433a 4222 373c 98b5 023d
00000090: 3a96 ea3d becd 6e3a aad6 353d e5af e13d
000000a0: 95de 04bd 0a38 0ebd 283b 82bc b64b 693d
000000b0: 5424 f8bc 4c3a 5f3d a30c a6bd 4440 a7bd
000000c0: cdc8 8abd 859d 633c

linears.2.weight f4 [50, 50]
-0.004267689 0.092159204 0.18462121 0.1580132 0.22162797 0.3880982 -0.048334043 0.037360657
0.024934141 0.27969918 -0.1298913 -0.1913866 0.23441637 -0.07049873 0.123651445 -0.08811653
-0.16275977 -0.105425335 0.42718846 0.27803385 -0.11374114 0.12958564 -0.121497646 0.0067100627
0.2940019 -0.02443887 0.25535193 -0.21775553 0.3418239 0.04311581 -0.042844154 -0.13437672
-0.029239995 -0.22403778 -0.05567259 -0.14745799 -0.12580855 -0.20754942 -0.26452586 0.30847895
0.07749199 0.24148974 -0.2042115 -0.111199394 -0.028002916 -0.23555025 0.25320688 0.32151085
0.072989054 -0.07928904 -0.02804218 0.05444783 -0.011710645 -0.33354446 -0.059136216 0.22667214
0.19207366 0.18361469 -0.14233981 -0.077467225 0.09680164 0.037938494 -0.06236628 -0.0013047956
-0.2937827 0.043074097 -0.20490533 0.033131152 0.102134466 -0.15750736 0.28146753 0.31866232
0.059979223 0.18198597 0.13015103 0.15903717 -0.3682533 -0.06927553 -0.09091132 0.19839147
-0.08478308 0.3129353 -0.16996914 0.2593069 0.22854212 0.014906427 0.21646044 0.23516157
-0.15229012 0.23426202 0.17214882 0.2063802 0.068461746 -0.06927171 0.20851426 0.42647356
-0.09679754 -0.11794049 -0.0731299 -0.27136955 0.01588251 -0.16229174 -0.17285559 0.09597443
-0.07079387 -0.035807185 -0.11528766 0.01435373 0.035338942 -0.03767985 0.05520644 0.018090386
0.13357472 -0.4252102 -0.14066441 0.032561228 0.22669837 0.016574906 0.2248925 -0.037919883
-0.052704293 -0.35083246 -0.055133216 0.08216809 0.19654389 -0.19305904 -0.0027756272 -0.00045232533
-0.022953313 -0.099561036 0.021726133 -0.030745262 0.1440905 -0.027456027 0.013079516 0.28697094
-0.13742965 0.13864474 0.19658397 0.054187346 -0.048219495 0.029288528 0.20430876 0.17913288
-0.02827361 -0.2577122 -0.13951707 0.116368756 -0.30114233 -0.009608112 0.25814494 0.20289125
0.04141683 -0.1927119 0.013157933 0.18466872 0.1826157 -0.21310969 0.1612414 0.42525527
0.12487928 -0.19394724 0.24218558 0.06452867 0.009981769 -0.21078135 0.12536421 -0.043442257
0.1508705 -0.030729303 0.17981333 0.0050645988 -0.17093636 0.2438456 0.26351333 -0.25748748
-0.19069907 0.031164922 0.03496376 0.3743775 -0.1914198 0.028970318 -0.10270991 0.16137405
-0.033552717 -0.09482415 -0.027152307 -0.06447917 -0.34369642 0.032976106 -0.09021323 0.030533656
0.0068986407 0.045988515 0.17381705 0.24810222 0.1624183 0.0083588855 -0.11631309 0.29314196
0.019529324 0.27058852 -0.067095995 0.33965728 -0.01467478 -0.0005846233 0.09277583 0.19337958
0.20374548 0.27613547 -0.04351256 -0.215984 0.040272597 -0.24696508 0.16859315 0.10166859
-0.19803776 0.16233678 0.07969831 -0.1878495 -0.057421226 -0.30220512 0.101923734 0.0742661
-0.051277038 -0.09872587 -0.0048699146 -0.058739867 0.08365879 0.11764813 0.010306384 0.056674946
-0.23421034 0.16382922 -0.124556884 -0.14643277 0.118507676 0.3250834 0.0023872233 -0.32000825
-0.20086576 -0.029716061 0.05599954 0.05056535 0.089508116 -0.11195284 -0.060070153 0.038062748
0.008478626 -0.028452097 -0.06397396 -0.14306177 -0.020896042 0.19323629 -0.13052249 -0.16544719
00000000: f8d7 8bbb f7bd bc3d 580d 3d3e 36ce 213e
00000010: 71f2 623e cfb4 c63e ebf9 45bd 7d07 193d
00000020: af42 cc3c bb34 8f3e 3a02 05be d9fa 43be
00000030: d80a 703e a361 90bd f83c fd3d 7076 b4bd
00000040: 7faa 26be 3de9 d7bd 72b8 da3e 745a 8e3e
00000050: 1df1 e8bd 19b2 043e c2d3 f8bd 16e0 db3b
00000060: 6b87 963e 0634 c8bc 7dbd 823e 4efb 5ebe
00000070: 8b03 af3e 349a 303d 5a7d 2fbd 0d9a 09be
00000080: b788 efbc 296a 65be f108 64bd 3aff 16be
00000090: f5d3 00be d687 54be ef6f 87be f4f0 9d3e
000000a0: 1fb4 9e3d 1649 773e d21c 51be 82bc e3bd
000000b0: 5f66 e5bc 1634 71be 55a4 813e 129d a43e
000000c0: 497b 953d 4b62 a2bd b7b8 e5bc b004 5f3d
000000d0: 01de 3fbc 57c6 aabe d138 72bd be1c 683e
000000e0: f5ae 443e 7d05 3c3e 87c1 11be 23a7 9ebd
000000f0: f03f c63d 6565 1b3d c973 7fbd ad05 abba
00000100: b06a 96be 776e 303d b4d2 51be 88b4 073d
00000110: e02b d13d 9c49 21be 831c 903e b527 a33e
00000120: c6ac 753d 885a 3a3e 5046 053e a4da 223e
00000130: b28b bcbe 54e0 8dbd b72f babd 2227 4b3e
00000140: c0a2 adbd 0e39 a03e 640c 2ebe e0c3 843e
00000150: f206 6a3e 163a 743c cea7 5d3e 32ce 703e
00000160: f1f1 1bbe 62e2 6f3e c847 303e 5555 533e
00000170: ac35 8c3d 54de 8dbd c384 553e be5a da3e
00000180: ca3d c6bd c98a f1bd 21c5 95bd f3f0 8abe
00000190: 0a1c 823c ce2f 26be 0e01 31be 3e8e c43d
000001a0: 60fc 90bd 8eaa 12bd f01b ecbd e82b 6b3c
000001b0: 91bf 103d 3056 1abd 2620 623d 4a32 943c
000001c0: d0c7 083e 27b5 d9be 550a 10be ec5e 053d
000001d0: 9e23 683e 19c8 873c 384a 663e e151 1bbd
000001e0: 75e0 57bd 50a0 b3be 5ed3 61bd be47 a83d
000001f0: cd42 493e 45b1 45be 4ce7 35bb 1426 edb9
00000200: 9608 bcbc a8e6 cbbd 01fb b13c 7ddd fbbc
00000210: 768c 133e 76eb e0bc 774b 563c dbed 923e
00000220: 5cba 0cbe e3f8 0d3e 4f4d 493e 8df3 5d3d
00000230: ce81 45bd 7fee ef3c 5136 513e 9c6e 373e
00000240: 0f9e e7bc daf2 83be 90dd 0ebe be52 ee3d
00000250: 542f 9abe 586b 1dbc 932b 843e b9c2 4f3e
00000260: b2a4 293d 4556 45be 5f94 573c cc19 3d3e
00000270: 9cff 3a3e 6d39 5abe 771c 253e 0fbb d93e
00000280: b5c0 ff3d 1b9a 46be 7fff 773e 9b27 843d
00000290: 938a 233c 11d7 57be 7a5f 003e 82f0 31bd
000002a0: cc7d 1a3e 05bc fbbc fc20 383e eff4 a53b
000002b0: f109 2fbe a9b2 793e 38eb 863e 66d5 83be
000002c0: 9e46 43be 944d ff3c 2936 0f3d 68ae bf3e
000002d0: 8d03 44be 2953 ed3c 9359 d2bd 3d3f 253e
000002e0: 936e 09bd 2a33 c2bd 846e debc a80d 84bd
000002f0: faf8 afbe f411 073d b7c1 b8bd b821 fa3c
00000300: fe0d e23b 745e 3c3d 19fd 313e 820e 7e3e
00000310: fc50 263e b5f3 083c 8f35 eebd b416 963e
00000320: f6fb 9f3c 948a 8a3e a069 89bd 8fe7 ad3e
00000330: 7d6e 70bc 6841 19ba 4101 be3d 4c05 463e
00000340: a8a2 503e a161 8d3e 3a3a 32bd e92a 5dbe
00000350: e1f4 243d 6ae4 7cbe afa3 2c3e 9f37 d03d
00000360: 69ca 4abe 9d3b 263e de38 a33d 9f5b 40be
00000370: 8532 6bbd a1ba 9abe 64bd d03d d318 983d
00000380: df07 52bd ca30 cabd ce93 9fbb 3799 70bd
00000390: 4d55 ab3d 81f1 f03d 1cdc 283c fd23 683d
000003a0: d6d4 6fbe d9c2 273e ae17 ffbd 79f2 15be
000003b0: 27b4 f23d 5571 a63e f672 1c3b 1fd8 a3be
000003c0: c1af 4dbe 196f f3bc c65f 653d 9d1d 4f3d
000003d0: 0850 b73d 8847 e5bd 1f0c 76bd afe7 1b3d
000003e0: efe9 0a3c 5f14 e9bc c804 83bd c97e 12be
000003f0: 2d2e abbc bcdf 453e b0a7 05be fd6a 29be

linears.2.bias f4 [50]
-0.050708275 0.020564415 0.046492904 0.005322736 -0.051581956 0.025964633 -0.030962005 0.012430799
-0.022200398 0.045042567 0.006109462 0.025935285 -0.042009883 0.03748967 0.019865848 0.025038743
0.031126844 0.037232265 -0.02598258 0.0070077134 0.025290253 0.030996043 0.035706796 -0.031364027
-0.014394755 -0.015443425 -0.02775129 -0.045504887 0.035742037 0.02586378 -0.025764385 0.032053668
0.03295714 0.012187634 0.032804467 0.07005373 0.026111139 0.039871853 -0.041374225 -0.060432106
-0.046750832 -0.035667185 0.029190665 -0.037601583 0.027739214 -0.02689911 -0.03663875 -0.031935632
-0.017481074 0.019630073
00000000: 7bb3 4fbd b476 a83c 586f 3e3d 596a ae3b
00000010: 9a47 53bd c8b3 d43c 08a4 fdbc 8daa 4b3c
00000020: 9cdd b5bc 8e7e 383d e231 c83b 3c76 d43c
00000030: 8e12 2cbd c58e 193d b4bd a23c 0d1e cd3c
00000040: b9fd fe3c dc80 183d 6bd9 d4bc f6a0 e53b
00000050: 812d cf3c 6aeb fd3c 4a41 123d 9177 00bd
00000060: fad7 6bbc 6b06 7dbc ac56 e3bc 5563 3abd
00000070: 3e66 123d 47e0 d33c d50f d3bc b54a 033d
00000080: 11fe 063d a4ae 473c fa5d 063d 5478 8f3d
00000090: 07e7 d53c ab50 233d 0578 29bd a887 77bd
000000a0: cd7d 3fbd c117 12bd 4321 ef3c 1e04 1abd
000000b0: 593d e33c 865b dcbc 8412 16bd f0ce 02bd
000000c0: 7834 8fbc 3fcf a03c

linears.3.weight f4 [50, 50]
0.03605502 -0.1208251 0.018949201 0.29096323 0.29516286 0.2855663 0.13983905 -0.034810904
0.18280911 -0.28563425 0.07222742 -0.062450476 0.06741749 -0.12674615 0.16400184 -0.0358665
0.09815306 -0.067396976 0.12475607 -0.07781425 -0.023216696 -0.016355515 -0.18781233 0.3272138
-0.582688 0.020013347 0.39246857 0.48031697 -0.05130785 0.20470877 -0.09121499 -0.25091708
-0.010595928 -0.060499515 -0.06536148 0.19028103 -0.028497022 -0.018399663 -0.2699461 0.35047272
0.40999812 -0.14574845 -0.030409964 0.78909785 -0.198376 -0.23662183 0.06018201 -0.10551042
0.003927131 0.5168911 -0.20505685 0.17455706 -0.09222503 -0.045651607 -0.44421893 0.06705262
0.03312987 -0.0219387 -0.080693215 -0.1365858 0.12671514 0.02194329 0.15979221 -0.045374222
-0.21921593 -0.0895071 0.17067839 -0.20221554 0.11628733 0.049881373 -0.110456966 -0.006713609
0.054049164 -0.08709492 -0.111158654 -0.0061750393 0.17392555 -0.41815832 0.16578963 0.09330264
0.12119494 -0.05806064 -0.08392307 -0.03504009 -0.09413639 -0.058945213 0.116576485 -0.12312016
0.17524268 -0.0041205287 -0.1405282 0.38268462 -0.028639916 -0.12502193 -0.054694276 0.107681245
0.14808638 0.121274546 0.07217135 0.16104332 0.16341256 0.07238157 -0.008906856 0.015324387
-0.10642698 0.124231756 -0.14471045 -0.3705004 -0.12874159 0.21974318 0.008738582 0.17404066
-0.12801781 0.2652706 0.047716774 0.20621333 -0.1422628 0.020942261 0.09286647 0.12764068
-0.048952445 0.10707033 -0.11262107 -0.159856 -0.011303604 -0.12534456 -0.08009064 0.08981355
0.04219001 0.02581279 0.07041311 -0.057858195 0.37539503 -0.035087653 -0.10349417 -0.1113136
0.21917602 0.15750568 -0.00877359 -0.2294477 -0.08018731 0.022521066 0.19672666 0.09899514
-0.08050023 -0.13620545 -0.11624588 0.12151279 -0.0029178746 -0.0905279 -0.2666986 -0.15707552
0.21875905 0.28357625 -0.1305305 0.34320664 0.076544344 -0.11674716 -0.1216557 0.15322925
-0.08888039 -0.08182777 -0.10830242 -0.06566234 0.25102633 0.05961434 0.12172957 -0.11665585
-0.029763829 0.14320278 0.1639707 -0.012519312 0.16462481 -0.08369203 0.044845082 -0.028487552
-0.027889904 0.13354807 0.0788042 -0.06718935 -0.11244553 0.0381384 -0.17592818 -0.27061477
0.11578946 -0.1839727 -0.023592027 0.02006954 -0.14266263 -0.002390299 -0.049997542 0.003558972
-0.26137438 -0.10646427 0.02503265 0.055207156 0.097666346 0.0010510185 0.0085374825 -0.016408356
0.37438175 -0.046069283 -0.13598356 -0.13067552 0.079791844 -0.13138555 0.11418942 -0.20886058
-0.02363135 -0.2615981 0.06858927 -0.07157443 -0.06503775 -0.082407914 0.008184461 0.054306712
-0.33823255 0.1934262 0.07163099 0.0343551 0.18197183 0.013049135 0.024984207 -0.08039216
-0.014531547 -0.032502465 -0.113740906 -0.0697263 -0.23913462 -0.2514937 0.1303068 0.23762496
-0.23462312 0.031177636 -0.29743502 -0.13555218 0.18885624 0.0037167561 0.0485718 0.05151022
-0.2752483 0.18467079 -0.051627383 0.09044839 -0.037028447 0.14902347 0.11765036 0.3013885
0.21892963 -0.11848597 -0.13898927 -0.16514522 0.3610429 0.23757511 -0.1923333 0.00087666675
00000000: 6eae 133d 2673 f7bd 5b3b 9b3c 22f9 943e
00000010: 961f 973e bf35 923e f831 0f3e e195 0ebd
00000020: 5032 3b3e a73e 92be f8eb 933d 12cc 7fbd
00000030: 2e12 8a3d bec9 01be 19f0 273e c0e8 12bd
00000040: 7904 c93d 6d07 8abd 1c80 ff3d 145d 9fbd
00000050: f130 bebc 00fc 85bc e051 40be 9188 a73e
00000060: 0a2b 15bf 08f3 a33c a4f1 c83e 1bec f53e
00000070: 2e28 52bd 2d9f 513e edce babd 3478 80be
00000080: 8b9a 2dbc 57ce 77bd 3ddc 85bd 08d9 423e
00000090: 9672 e9bc e4ba 96bc 6036 8abe 2971 b33e
000000a0: 46eb d13e 153f 15be 511e f9bc 5102 4a3f
000000b0: 1423 4bbe fe4c 72be 6981 763d d915 d8bd
000000c0: 2aaf 803b fa52 043f 6cfa 51be 16bf 323e
000000d0: 7ae0 bcbd 2efd 3abd aa70 e3be e252 893d
000000e0: 30b3 073d cab8 b3bc 7c42 a5bd 26dd 0bbe
000000f0: 9dc1 013e 6ac2 b33c 92a0 233e 52da 39bd
00000100: 247a 60be 804f b7bd 51c6 2e3e 9711 4fbe
00000110: 0d28 ee3d 6950 4c3d 4337 e2bd d6fd dbbb
00000120: a862 5d3d d25e b2bd 26a7 e3bd fc57 cabb
00000130: 8a19 323e d918 d6be c2c4 293e 7415 bf3d
00000140: 0d35 f83d fed0 6dbd dcdf abbd 3386 0fbd
00000150: 94ca c0bd 8970 71bd a7bf ee3d 6c26 fcbd
00000160: d172 333e 8005 87bb a0e6 0fbe 3def c33e
00000170: 429e eabc c005 00be 1b07 60bd fc87 dc3d
00000180: f5a3 173e ca5e f83d 93ce 933d 8ae8 243e
00000190: 9f55 273e ca3c 943d 10ee 11bc 2313 7b3c
000001a0: 63f6 d9bd 386d fe3d fa2e 14be 3ab2 bdbe
000001b0: d6d4 03be 5b04 613e 452c 0f3c b737 323e
000001c0: 1a17 03be 8cd1 873e aa72 433d 9629 533e
000001d0: 57ad 11be 1b8f ab3c c730 be3d 3db4 023e
000001e0: 5c82 48bd b047 db3d e0a5 e6bd 4bb1 23be
000001f0: c032 39bc 535a 00be 9006 a4bd 2bf0 b73d
00000200: 6fcf 2c3d 5875 d33c c034 903d b7fc 6cbd
00000210: c733 c03e 12b8 0fbd c0f4 d3bd 62f8 e3bd
00000220: ae6f 603e 2b49 213e 1bbf 0fbc 56f4 6abe
00000230: 3f39 a4bd 197e b83c b772 493e f7bd ca3d
00000240: 4edd a4bd 7179 0bbe 5212 eebd b3db f83d
00000250: d039 3fbb b166 b9bd b88c 88be 68d8 20be
00000260: 5f02 603e e830 913e caa9 05be c8b8 af3e
00000270: 48c3 9c3d 2319 efbd a026 f9bd 21e8 1c3e
00000280: ec06 b6bd 5195 a7bd a9cd ddbd fa79 86bd
00000290: 8686 803e 2b2e 743d 5a4d f93d 43e9 eebd
000002a0: 46d3 f3bc c0a3 123e efe7 273e cd1d 4dbc
000002b0: 6893 283e ba66 abbd 7aaf 373d ba5e e9bc
000002c0: 5e79 e4bc d3c0 083e 1964 a13d 929a 89bd
000002d0: d849 e6bd 0337 1c3d 8426 34be 058e 8abe
000002e0: 0623 ed3d 5763 3cbe 1144 c1bc e068 a43c
000002f0: 2716 12be 90a6 1cbb 39ca 4cbd a43d 693b
00000300: ddd2 85be f009 dabd 4611 cd3c e620 623d
00000310: 4b05 c83d 54c2 893a cce0 0b3c d16a 86bc
00000320: f7ae bf3e 25b3 3cbd 463f 0bbe cecf 05be
00000330: e869 a33d ef89 06be 25dc e93d 8cdf 55be
00000340: 8896 c1bc 30f0 85be 8878 8c3d 9d95 92bd
00000350: 8332 85bd 7bc5 a8bd 1e18 063c b770 5e3d
00000360: d12c adbe 8511 463e 45b3 923d efb7 0c3d
00000370: d356 3a3e 0acc 553c aeab cc3c a5a4 a4bd
00000380: ba15 6ebc 4e21 05bd fef0 e8bd aacc 8ebd
00000390: b5df 74be c8c3 80be 256f 053e f553 733e
000003a0: 0b41 70be 3e68 ff3c 6749 98be 31ce 0abe
000003b0: 8863 413e d294 733b 39f3 463d 61fc 523d
000003c0: 58ed 8cbe 571a 3d3e 3c77 53bd 013d b93d
000003d0: 24ab 17bd 9c99 183e acf2 f03d 984f 9a3e
000003e0: 172f 603e c6a8 f2bd 3453 0ebe d41b 29be
000003f0: 9dda b83e e446 733e 05f3 44be 1cd0 653a

linears.3.bias f4 [50]
-0.006356817 -0.009102991 0.031093847 0.031715695 -0.03631088 0.029894153 -0.02601388 -0.011582652
-0.032870602 -0.036225773 0.018170781 -0.017996127 -0.025634842 0.03923945 0.026734544 -0.03571275
0.04018557 -0.02053769 -0.0056349966 0.03089778 0.023690728 0.035714913 -0.033223644 -0.18467295
0.018404208 0.013316716 0.004080125 0.030568091 0.02981569 0.0316088 0.008165388 -0.05433716
-0.026674362 0.011884246 -0.033103943 -0.0036323308 0.01556095 0.031170359 -0.033239268 0.019284444
0.02709374 0.019399613 0.037414845 0.0296536 0.017115341 0.036252823 -0.02523844 -0.040273733
0.030057637 -0.022779103
00000000: d94c d0bb b624 15bc 86b8 fe3c 51e8 013d
00000010: b8ba 14bd 95e4 f43c 0f1b d5bc 2ac5 3dbc
00000020: 53a3 06bd 7a61 14bd e4da 943c 9d6c 93bc
00000030: 2900 d2bc 8cb9 203d 6702 db3c 8847 12bd
00000040: a099 243d a83e a8bc c7a5 b8bb 571d fd3c
00000050: 0f13 c23c cd49 123d 8415 08bd e81a 3dbe
00000060: 6cc4 963c 5b2e 5a3c 92b2 853b ef69 fa3c
00000070: 0940 f43c 3b78 013d 1fc8 053c a490 5ebd
00000080: 3184 dabc 24b6 423c 0098 07bd 660c 6ebb
00000090: 5bf3 7e3c fb58 ff3c e625 08bd 69fa 9d3c
000000a0: b1f3 dd3c f0eb 9e3c 4f40 193d 1bec f23c
000000b0: 7935 8c3c d77d 143d d8c0 cebc 12f6 24bd
000000c0: 6f3b f63c 3e9b babc

linears.4.weight f4 [3, 50]
0.12225201 -0.24588493 0.16322662 0.20377694 -0.541984 0.24976541 -0.2612527 0.17103441
-0.5288255 -0.1009535 0.82046777 -0.20002748 -0.37615028 0.32318726 0.389232 -0.27077156
0.35704637 -0.36268246 -0.12253346 0.5410404 0.41873428 0.17480104 -0.3551203 0.09528671
0.4065596 -0.1612239 0.007907201 0.33564267 0.48880082 0.08446529 -0.08467295 0.10757572
-0.42326093 0.03102913 -0.29447058 -0.47929654 0.075810954 0.24310029 -0.4054538 0.41151178
0.18802185 0.13719782 0.5816355 0.73529583 -0.008466118 0.23022692 -0.48460546 -0.25251487
0.20139089 -0.14507794 0.096264064 -0.43980315 -0.046060864 -0.36994508 0.047498204 0.0010891516
0.014905659 -0.010079926 0.0650419 0.5987301 -0.25125286 0.08037426 -0.361112 -0.083051056
0.12253885 0.24437547 0.14542459 0.1719674 -0.29220477 0.12564445 -0.16489433 -0.124948435
0.0023437012 -0.25177273 0.12796034 0.14407383 0.15810116 -0.018832268 -0.11928457 -0.2017935
-0.15727466 -0.16879936 0.044353988 0.15879335 -0.23453268 -0.059246372 -0.22442853 -0.35587186
0.07091676 0.19036093 -0.10301144 0.07461541 -0.17733718 0.3730111 0.26535663 -0.10836528
-0.487564 0.009871496 0.40748647 -0.020816118 -0.27271745 -0.17739777 0.31457072 0.21249956
-0.09639365 0.18475558 0.11338288 0.11156054 -0.12116257 -0.100748286 -0.14156944 -0.092443705
0.34762564 -0.24735175 0.42044285 -0.07497755 -0.20909846 -0.15196045 0.39906874 0.19310395
-0.04150366 -0.1927889 0.10623718 -0.009938526 0.25988126 0.14060456 0.44189936 -0.06770675
0.09126904 0.08091186 0.45902705 -0.48730865 -0.23718809 0.3057872 -0.17284097 0.019014748
0.21564786 -0.035029374 0.34301656 0.08252555 0.032361183 0.08307827 -0.026828239 -0.021613918
0.20898806 -0.40824893 -0.034180216 0.1969441 -0.32611454 0.021135407
00000000: 435f fa3d 42c9 7bbe e124 273e e7aa 503e
00000010: 77bf 0abf 81c2 7f3e eac2 85be a523 2f3e
00000020: 1c61 07bf b5c0 cebd 2d0a 523f 01d4 4cbe
00000030: c596 c0be cd78 a53e 6b49 c73e 92a2 8abe
00000040: c8ce b63e 84b1 b9be d3f2 fabd a081 0a3f
00000050: 5764 d63e 0bff 323e 54d2 b5be ae25 c33d
00000060: 9428 d03e e117 25be 348d 013c 5bd9 ab3e
00000070: 1a44 fa3e 23fc ac3d 0369 adbd a950 dc3d
00000080: a8b5 d8be cd30 fe3c d9c4 96be 5b66 f5be
00000090: c642 9b3d 48ef 783e a497 cfbe acb1 d23e
000000a0: cd88 403e 967d 0c3e 10e6 143f 593c 3c3f
000000b0: 79b5 0abc 9bc0 6b3e 351e f8be a149 81be
000000c0: 6a39 4e3e 508f 14be 1826 c53d e12d e1be
000000d0: 51aa 3cbd 7169 bdbe 7a8d 423d ddc1 8e3a
000000e0: dd36 743c 4626 25bc b034 853d 6046 193f
000000f0: 37a4 80be 439b a43d ace3 b8be ac16 aabd
00000100: a6f5 fa3d 903d 7a3e 2fea 143e 3918 303e
00000110: dd9b 95be f0a8 003e 0fda 28be f7e4 ffbd
00000120: c898 193b 5be8 80be 0908 033e 1788 133e
00000130: 45e5 213e 2146 9abc 784b f4bd f5a2 4ebe
00000140: 9c0c 21be bdd9 2cbe 87ac 353d b99a 223e
00000150: 5629 70be 53ac 72bd 98d0 65be d634 b6be
00000160: ce3c 913d faed 423e a9f7 d2bd f7cf 983d
00000170: e197 35be 50fb be3e d3dc 873e 9eee ddbd
00000180: fda1 f9be 0ebc 213c 11a2 d03e 9086 aabc
00000190: 9fa1 8bbe c3a7 35be 6a0f a13e 7c99 593e
000001a0: 096a c5bd 9130 3d3e 4935 e83d da79 e43d
000001b0: 1524 f8bd 1e55 cebd 94f7 10be 2053 bdbd
000001c0: fdfb b13e c749 7dbe 4944 d73e d48d 99bd
000001d0: e81d 56be 859b 1bbe bd52 cc3e 0bbd 453e
000001e0: beff 29bd 746a 45be e192 d93d 33d5 22bc
000001f0: 280f 853e a4fa 0f3e a240 e23e d6a9 8abd
00000200: 43eb ba3d 1eb5 a53d 9805 eb3e 8580 f9be
00000210: 6fe1 72be 2490 9c3e 39fd 30be d1c4 9b3c
00000220: cbd2 5c3e f67a 0fbd de9f af3e 2803 a93d
00000230: 298d 043d f124 aa3d e5c6 dbbc ac0f b1bc
00000240: f700 563e 0106 d1be 8e00 0cbd b7ab 493e
00000250: 7cf8 a6be 2924 ad3c

linears.4.bias f4 [3]
0.0313689 -0.017854063 0.010519174
00000000: ad7c 003d af42 92bc 9d58 2c3c

exp_avg f4 [50, 2]
0.01900919 -0.020286398 -0.019289589 0.018294903 0.012232716 -0.004227133 -0.00011422916 -0.0046083
-0.009579973 -0.0050349804 0.037885226 -0.035601076 -0.021196 0.0020484708 0.0109937135 0.0017774438
-0.009125152 0.021755278 -0.0058967406 0.019820277 -0.06521205 0.05816536 0.013611164 -0.021156672
0.022103721 -0.02321038 -0.019911354 -0.0041480996 0.00011554367 0.009207002 0.012774554 0.0034758376
0.04632267 -0.0029064892 0.04122908 -0.037455477 0.011089423 -0.00686079 0.020109963 -0.004900829
0.0123796845 -0.0060020895 -0.028885154 0.0079602245 0.04687343 -0.004932893 0.048444867 0.0033614375
0.020637376 -0.008546227 0.0179191 -0.000112398084 -0.06616332 0.045601558 -0.01921924 -0.010644098
-0.016309934 0.021413803 0.02926466 -0.028677912 0.00847631 -0.007515308 0.035291154 -0.01114176
-0.0008844579 0.008470281 -0.0018412048 -0.010867741 -0.009830231 -0.00018638094 -0.033889644 0.012596282
-0.011819592 0.006594383 0.020548712 -0.017797245 -0.007638333 0.0005129287 0.051649526 -0.016316729
0.026300449 -0.031985812 -0.048111852 0.008472881 -0.044088993 0.0061263787 -0.01142283 0.0009819698
0.017556397 0.0040288717 -0.0025191521 -0.016282463 0.0025294404 -0.010392033 0.012181804 0.004625574
-0.0034715917 0.00024291399 0.012121283 -0.013763064
00000000: 29b9 9b3c a92f a6bc 3305 9ebc 31df 953c
00000010: bb6b 483c c383 8abb 508e efb8 3901 97bb
00000020: 52f5 1cbc 7afc a4bb 8a2d 1b3d 6fd2 11bd
00000030: 3ca3 adbc a33f 063b fa1e 343c 1ef9 e83a
00000040: a981 15bc 2038 b23c 7239 c1bb 225e a23c
00000050: e58d 85bd cd3e 6e3d 5c01 5f3c c250 adbc
00000060: dd12 b53c b223 bebc 231d a3bc c8ec 87bb
00000070: 0950 f238 f7d8 163c 5d4c 513c e1ca 633b
00000080: d7bc 3d3d cc7a 3ebb d3df 283d ea6a 19bd
00000090: 69b0 353c 7ad0 e0bb a6bd a43c 2297 a0bb
000000a0: 29d4 4a3c 2dad c4bb 8fa0 ecbc 9a6b 023c
000000b0: 5bfe 3f3d 1ba4 a1bb 206e 463d 904b 5c3b
000000c0: b70f a93c 7905 0cbc 14cb 923c 43b7 ebb8
000000d0: a280 87bd b3c8 3a3d ab71 9dbc 9564 2ebc
000000e0: 699c 85bc 006c af3c 71bc ef3c f1ed eabc
000000f0: 39e0 0a3c f942 f6bb 758d 103d ee8b 36bc
00000100: f7da 67ba efc6 0a3c 9554 f1ba 9c0e 32bc
00000110: fa0e 21bc 416f 43b9 decf 0abd a360 4e3c
00000120: f6a6 41bc b215 d83b c655 a83c 87cb 91bc
00000130: fb4a fabb 1076 063a 748e 533d a9aa 85bc
00000140: 0a74 d73c 8e03 03bd ef10 45bd d7d1 0a3c
00000150: a996 34bd cabf c83b d226 3bbc 70b5 803a
00000160: 6fd2 8f3c a004 843b 5c18 25bb cd62 85bc
00000170: f8c4 253b 5843 2abc 3096 473c 2192 973b
00000180: a583 63bb bab6 7e39 5998 463c 797e 61bc

exp_avg_sq f4 [50, 2]
0.0034451182 0.00047067448 0.003230205 0.001210782 0.0025913683 0.0027607137 0.00025817283 0.00032873356
0.0034477543 0.0005480886 0.02044105 0.0010160581 0.0031518145 0.0016856813 0.0009364218 0.0012702015
0.0020839744 0.0010480388 0.0010812925 0.00046719823 0.041877966 0.0050495625 0.0028123304 0.0005470446
0.008628148 0.0024222466 0.009260339 0.0010640501 0.00017801729 0.00016423981 0.0023942864 0.00100064
0.02008441 0.0026580917 0.014077952 0.004780717 0.0052159503 0.0007617503 0.0009461739 0.00063979335
0.0027173227 0.0020622818 0.0071327495 0.0012540828 0.022268618 0.0033471943 0.024181578 0.0038377491
0.0030366345 0.0003270937 0.001705418 0.0010659292 0.03639314 0.004010629 0.008041533 0.0021392563
0.00026322933 0.0010874007 0.010824265 0.0021634656 0.00023090554 0.00075845286 0.007451084 0.0021656428
0.00040903984 0.0005641096 0.0009795092 0.0002556659 0.0039290586 0.0013789679 0.0130065065 0.00245929
0.0054019396 0.00074736384 0.007158552 0.002556397 0.0011944816 0.00046345976 0.03003552 0.0038139627
0.0071862447 0.00080564147 0.012233788 0.00293532 0.014669604 0.0028768238 0.0021891159 0.001525019
0.0009276754 0.0007364136 0.00013909141 0.00011388009 0.00022542755 0.002066397 0.0021674072 0.00064639037
0.0006981347 0.00042850355 0.002927147 0.0010350508
00000000: 7ec7 613b dcc4 f639 d9b1 533b 1ab3 9e3a
00000010: f2d3 293b 17ed 343b 5f5b 8739 df59 ac39
00000020: b8f3 613b 9aad 0f3a fd73 a73c 412d 853a
00000030: ac8e 4e3b 14f2 dc3a 347a 753a e47c a63a
00000040: 4a93 083b 595e 893a 28ba 8d3a 49f2 f439
00000050: 3b88 2b3d cd76 a53b 134f 383b 8b67 0f3a
00000060: 135d 0d3c 8ebe 1e3b adb8 173c 9977 8b3a
00000070: 27aa 3a39 ca37 2c39 76e9 1c3b e827 833a
00000080: 1088 a43c 6133 2e3b 36a7 663c 90a7 9c3b
00000090: 90ea aa3b 33b0 473a a808 783a ceb7 273a
000000a0: 1c15 323b 5927 073b d7b9 e93b 0960 a43a
000000b0: ad6c b63c 9a5c 5b3b 7218 c63c bf82 7b3b
000000c0: 4602 473b c67d ab39 5588 df3a a6b6 8b3a
000000d0: f910 153d 986b 833b a2c0 033c c432 0c3b
000000e0: 0b02 8a39 1d87 8e3a 4258 313c eec8 0d3b
000000f0: 3c1f 7239 e9d2 463a 3928 f43b 75ed 0d3b
00000100: 6674 d639 c1e0 133a e062 803a e50a 8639
00000110: 55bf 803b 7cbe b43a 3e19 553c 0a2c 213b
00000120: c102 b13b bdea 433a 4992 ea3b 3a89 273b
00000130: 2790 9c3a 84fc f239 0d0d f63c adf3 793b
00000140: 977a eb3b af31 533a 3a70 483c 7f5e 403b
00000150: c758 703c 1889 3c3b 4577 0f3b 25e3 c73a
00000160: 3e2f 733a e10b 413a 11d9 1139 e8d2 ee38
00000170: bf60 6c39 646c 073b 0f0b 0e3b 8672 293a
00000180: 0703 373a c6a8 e039 61d5 3f3b 8baa 873a

exp_avg f4 [50]
0.011250601 0.009411041 -0.003445846 0.030540192 0.03401007 -0.0074028294 0.017703751 -0.015825331
0.011299718 -0.018787919 0.010687967 0.039356753 -0.048438333 0.036324296 -0.016386125 -0.026659094
-0.08710172 0.018770956 -0.022307537 -0.017637396 -0.035921525 0.027118102 -0.06275877 -0.055538226
0.016230915 -0.021097217 0.009794719 0.029324587 -0.016414702 0.015951725 0.016249016 -0.045805182
-0.025341885 0.03279398 0.0430861 0.014187963 0.030782089 0.002090883 0.01798617 -0.030740153
0.005374153 0.02934003 0.04501428 0.044616662 -0.056797095 0.016367203 -0.011963138 -0.0059668366
-0.012865875 0.025427718
00000000: 7154 383c c430 1a3c b4d3 61bb 6d2f fa3c
00000010: 254e 0b3d 6f93 f2bb 7507 913c 20a4 81bc
00000020: 7422 393c 1fe9 99bc 951c 2f3c 8c34 213d
00000030: 4667 46bd c9c8 143d 323c 86bc 2c64 dabc
00000040: 6362 b2bd 8cc5 993c 4cbe b6bc 4d7c 90bc
00000050: 7322 13bd c826 de3c ac87 80bd 0d7c 63bd
00000060: b2f6 843c 12d4 acbc 077a 203c 1e3a f03c
00000070: 2078 86bc 31ad 823c a81c 853c 379e 3bbd
00000080: c999 cfbc fb52 063d 0d7b 303d a174 683c
00000090: b82a fc3c 3207 093b bb57 933c c6d2 fbbc
000000a0: aa19 b03b 815a f03c e560 383d f6bf 363d
000000b0: 12a4 68bd 8314 863c 0a01 44bc 7485 c3bb
000000c0: 64cb 52bc ca4d d03c

exp_avg_sq f4 [50]
0.0012904836 0.0016539935 0.003561806 0.00076990965 0.00079337414 0.0024597566 0.0035356516 0.0017345803
0.0008850279 0.001063212 0.011842948 0.0016583935 0.0029631138 0.0020620213 0.001122759 0.0043003815
0.00465522 0.00577416 0.0013757325 0.000860362 0.0016078746 0.0028100242 0.005397915 0.010201639
0.0010498483 0.0020969824 0.010922835 0.0014235422 0.0011207263 0.0061044153 0.00088576216 0.0041857203
0.0013772321 0.0006135677 0.002579466 0.009154297 0.0009853203 0.011499593 0.0009776541 0.0060174246
0.0020505856 0.007745846 0.0055539254 0.0016546876 0.0019958373 0.00032727345 0.0007363469 0.0013064776
0.000365933 0.004283114
00000000: 7225 a93a d0ca d83a 306d 693b c3d3 493a
00000010: 70fa 4f3a de33 213b 64b6 673b db5a e33a
00000020: 3801 683a 7a5b 8b3a ed08 423c 745e d93a
00000030: cd30 423b fa22 073b 8a29 933a 37ea 8c3b
00000040: d18a 983b 2a35 bd3b ec51 b43a eb89 613a
00000050: 52bf d23a 6228 383b fee0 b03b c624 273c
00000060: 109b 893a 876d 093b b1f5 323c 2696 ba3a
00000070: 56e5 923a 8c07 c83b 7e32 683a 5e28 893b
00000080: 3e84 b43a d5d7 203a 420c 293b e8fb 153c
00000090: dd25 813a ca68 3c3c a124 803a d12d c53b
000000a0: 1e63 063b ded0 fd3b b4fd b53b 1ae2 d83a
000000b0: 98cc 023b e695 ab39 6707 413a 1d3e ab3a
000000c0: b2da bf39 5d59 8c3b

exp_avg f4 [50, 50]
0.0006780457 -0.0014150575 0.0018831049 0.00017074168 0.0009950013 -2.726719e-05 0.003004536 0.0020613165
-0.004099167 0.0008875116 0.00058617414 -0.0006899102 0.00410447 0.002248107 -0.0023733026 0.0018749364
0.0001432014 -2.3843559e-05 -0.0014852454 0.00026343807 -0.0021208685 -0.0005871672 0.00031807538 0.00015308517
-0.0015816664 0.0021815374 0.002337989 0.001812593 0.0010315328 -0.0010484454 0.00094489905 0.0012398801
-0.001747902 0.00013200806 -0.0024928912 0.00025125267 -0.0023248193 0.0014067919 0.0019494096 0.0003553284
0.00043028875 -0.00010822415 -8.059136e-05 0.0015585109 -0.000466677 0.001579949 0.00022963049 -0.0032326998
0.0017256348 -0.00026636088 -0.0032007159 -0.004334141 0.0011106004 -0.0025641196 -0.0024587947 -0.005622442
0.0015396358 0.0041712867 -0.0053260904 0.0049053463 0.005475621 -0.005284438 0.007872768 0.00069741235
-0.0010859545 0.0053192456 0.0034669545 0.00013892837 6.551184e-05 0.0027086695 0.00045723256 -0.0029080634
0.0028237014 0.0019605127 -0.0035250783 0.005662568 0.0075915023 0.0017772755 0.000767353 -0.005076441
0.0009397174 0.004779561 -0.0004723345 -0.00038124432 -0.0055330526 -0.0006625541 -0.0013968891 0.00043783948
0.00030267556 0.002111601 -0.0051267087 -0.001432042 -0.0014674251 -0.0013074287 0.0026916051 -0.0005159075
0.0012673916 -0.0029430287 0.0010818563 -0.0012272099 0.0025410235 -0.004184315 0.004294845 0.0021577661
0.004503416 -0.0020926443 0.0044660736 0.0039706714 -0.007526771 2.3834868e-05 -0.00033152098 0.00017016359
0.007062415 0.006018869 -0.0048884614 0.0031188077 -0.0020191793 0.0017110509 -0.00365641 0.0006262357
-0.005722785 -0.00054199714 -0.00034478348 -0.00024155907 -0.00182889 0.0038584287 0.0034877418 0.0059449826
-0.0010488419 -0.0006062911 0.003059653 0.0013768885 -0.0042690337 0.0017179954 -0.0035235742 0.00058102014
-0.0026262265 0.0038103824 0.0033706378 0.0007576862 0.0007202888 -0.0004380562 6.769915e-05 0.0044634654
-0.0015319199 0.0046685627 0.00045023952 -0.005196618 0.0020063163 0.00039093776 -0.0071813897 -0.004566361
-0.0010337038 -0.005102909 -0.0067093126 -0.010163522 -0.0016442238 0.0038693575 -0.00297726 0.0075651943
0.009413881 -0.008741532 0.0072147716 -0.002622974 0.0017610749 0.0061919554 0.006387338 -0.00034888225
0.002483022 0.003995411 0.0045965146 -0.0040784744 0.004472275 0.0031133767 -0.0038790833 0.0062591764
0.009898075 -0.00034286603 0.0008193957 -0.007500949 -0.00016968764 0.0064516375 0.0019876792 -0.0012701404
-0.005861201 -0.0014164221 0.0005405613 -0.0015839748 -0.0022593825 0.002868004 -0.010908815 -0.0020522967
-0.0023018352 -0.005145361 0.0054913023 -0.0036812893 0.0016979848 -0.0004231421 -0.0002607595 -0.0018938072
-0.0014360172 -0.007548616 0.0028338174 -0.00067630335 0.0011057957 -0.008457673 0.0020873658 0.0054183477
-0.0073120533 0.004080339 0.004710864 -0.0045899567 0.009248795 0.0040030507 -0.0028751122 0.0063713486
0.0012884131 0.0022900384 -0.0016006477 0.0033911264 -0.0030129028 -0.0029038922 0.0022569192 0.001697488
-0.0029967327 0.00705073 0.009192807 0.0054491977 -0.002369013 -0.00470184 0.0028352912 0.004908531
-0.002399765 0.0013170517 -0.005529433 -0.0005948997 -0.0006513302 0.0023472682 0.0010388856 0.0026748253
-0.004877815 -0.001987991 -0.0014887274 0.0014264417 0.0019287168 0.0021909988 0.0015626732 -0.003737659
0.00042739513 -0.00041226987 -0.0042140028 -0.010284638 0.0027843833 -0.0023329689 -0.00086567743 -0.014845835
00000000: e0be 313a 7379 b9ba 84d2 f63a 1f09 3339
00000010: b46a 823a d8bb e4b7 c0e7 443b 2717 073b
00000020: 4e52 86bb e5a7 683a 7ba9 193a 17db 34ba
00000030: ca7e 863b fa54 133b 6989 1bbb 6dc0 f53a
00000040: 5528 1639 a703 c8b7 91ac c2ba 0f1e 8a39
00000050: 45fe 0abb 20ec 19ba 5bc3 a639 7d85 2039
00000060: eb4f cfba 20f8 0e3b f238 193b 8794 ed3a
00000070: 7f34 873a fd6b 89ba 1ab3 773a 7983 a23a
00000080: dc19 e5ba a56b 0a39 c65f 23bb 90ba 8339
00000090: ff5b 18bb 1a64 b83a 5583 ff3a 5f4b ba39
000000a0: 6198 e139 66f6 e2b8 2803 a9b8 f346 cc3a
000000b0: 54ac f4b9 4b16 cf3a f7c8 7039 b4db 53bb
000000c0: b22e e23a 5aa6 8bb9 1ac3 51bb 6905 8ebb
000000d0: 9191 913a ca0a 28bb bb23 21bb 763c b8bb
000000e0: 9bcd c93a 4aaf 883b 7c86 aebb 07bd a03b
000000f0: d76c b33b 1429 adbb c8fc 003c 8dd2 363a
00000100: 9656 8eba 114d ae3b d835 633b 4dad 1139
00000110: 6763 8938 ef83 313b b7b8 ef39 3595 3ebb
00000120: d90d 393b f27b 003b 0005 67bb 108d b93b
00000130: 23c2 f83b 78f3 e83a 3028 493a 4658 a6bb
00000140: 5e57 763a dd9d 9c3b aaa3 f7b9 bfe1 c7b9
00000150: 9c4e b5bb 41af 2dba d217 b7ba d28d e539
00000160: 6db0 9e39 c962 0a3b f3fd a7bb 5bb3 bbba
00000170: 9e56 c0ba 075e abba a465 303b f73d 07ba
00000180: 9b1e a63a d4df 40bb 13cd 8d3a 55da a0ba
00000190: 4d87 263b 941c 89bb c5bb 8c3b 4f69 0d3b
000001a0: 6491 933b bf24 09bb 2458 923b 681c 823b
000001b0: 22a3 f6bb fdf0 c737 fecf adb9 f16d 3239
000001c0: d56b e73b ef39 c53b 632f a0bb e964 4c3b
000001d0: 3554 04bb 5745 e03a 61a0 6fbb f729 243a
000001e0: 3386 bbbb d014 0eba 0ec4 b4b9 054b 7db9
000001f0: 5db7 efba b1dd 7c3b 9992 643b 21ce c23b
00000200: 4b79 89ba 82ef 1eba 7684 483b b678 b43a
00000210: 40e3 8bbb 5c2e e13a c4eb 66bb 9a4f 183a
00000220: c51c 2cbb 9cb7 793b ebe5 5c3b 769f 463a
00000230: c3d1 3c3a e8aa e5b9 b4f9 8d38 4342 923b
00000240: b4ca c8ba befa 983b 200e ec39 6448 aabb
00000250: 677c 033b c7f6 cc39 dd51 ebbb 6aa1 95bb
00000260: 587d 87ba 4e36 a7bb cbd9 dbbb e784 26bc
00000270: ff82 d7ba 0c95 7d3b 221e 43bb 73e5 f73b
00000280: ae3c 1a3c a538 0fbc e469 ec3b 34e6 2bbb
00000290: ded3 e63a e3e5 ca3b e04c d13b 2fea b6b9
000002a0: 32ba 223b f0eb 823b 5c9e 963b b9a4 85bb
000002b0: 298c 923b cb09 4c3b 3838 7ebb c719 cd3b
000002c0: 892b 223c b3c2 b3b9 b7cc 563a 85ca f5bb
000002d0: 2eee 31b9 4268 d33b b943 023b d77a a6ba
000002e0: 510f c0bb 3da7 b9ba 74b4 0d3a 609d cfba
000002f0: 2612 14bb 1ff5 3b3b e3ba 32bc d37f 06bb
00000300: 63da 16bb 6b9a a8bb 62f0 b33b c941 71bb
00000310: ea8e de3a 2cd9 ddb9 8cb6 88b9 a039 f8ba
00000320: be38 bcba 615a f7bb 91b7 393b f349 31ba
00000330: 59f0 903a 0d92 0abc 30cc 083b 658c b13b
00000340: f399 efbb 5db4 853b 975d 9a3b 5967 96bb
00000350: 4288 173c 062c 833b 616c 3cbb bfc6 d03b
00000360: f8df a83a 7814 163b d3cc d1ba a93d 5e3b
00000370: 1f74 45bb 3a4f 3ebb d2e8 133b 3f7e de3a
00000380: d564 44bb cf09 e73b 6d9d 163c 2f8f b23b
00000390: 7141 1bbb e511 9abb 4bd0 393b bed7 a03b
000003a0: 6045 1dbb eca0 ac3a 3f30 b5bb 0bf3 1bba
000003b0: 08be 2aba a0d4 193b 372b 883a 1f4c 2f3b
000003c0: 14d6 9fbb f448 02bb 6721 c3ba 71f7 ba3a
000003d0: ffcc fc3a dc96 0f3b 9dd2 cc3a 83f3 74bb
000003e0: 0114 e039 ed25 d8b9 9e15 8abb e680 28bc
000003f0: 337a 363b b9e4 18bb a1ee 62ba f23b 73bc
