finished_models/model_many_Re/model.ckpt-17000.pt (torch, 107751 bytes, 30 tensors)

linears.0.weight f4 [50, 3]
00000000: f2ef 3f3e 9b2b 083e 4295 423d 734a e8bc
00000010: 60a2 2fbf efbf 243c abed 14be dfa2 14be
00000020: 4ab2 893d 7d06 59bb b4d5 7ebd 095b f63c
00000030: 3be0 adbd d40a 13bf 3210 d23b 9d89 173f
00000040: b9bb 513d 8342 c5bc 3701 5d3e c524 013f
00000050: 6665 fbbd 199e 1d3f 78b0 6dbd b467 73bc
00000060: 4832 ffbd 87f1 a3be 9554 b0bd 38dc 51be
00000070: 34be b63d 8e10 e03c 621b e23e 8c29 6ebf
00000080: 888d bd3c 33a3 c63e 7516 aabe 9981 79be
00000090: 757b b33f e1e2 04be a4d2 523d 573a 3c3f
000000a0: d438 e53e d6ad 2a3d 2607 5c3f ec6a 4c3d
000000b0: 3300 0f3c 1a90 ae3e 433b 0fbf a296 13bd
000000c0: b366 c03e d7c2 ac3e 714e 533c b581 803f
000000d0: c735 1f3d c7a2 983d 6bd9 ca3d 2478 ba3d
000000e0: d320 bebd 21e0 f43d 5459 c1bf 9972 60bc
000000f0: 1347 0fbf ee4b a33e 0f7a 14be d85b 583e
00000100: 095e 43bf c68d 12be 0f99 293e cd53 e73e
00000110: dbfc 0a3f 61f7 6ebe cc86 873e 6160 343c
00000120: 93d0 973d 47ac f43b 7f56 413d 542a 95bd
00000130: 1314 e3bf c1fd 4ab8 9dc5 38bf 72cc d6bf
00000140: 2fda ffbc dba8 013f 9aa3 f73e a003 2b3c
00000150: 69cc 533f 1bdf 3bbf 9aee ef3d 2a76 f13c
00000160: 9dbc 073e 8097 0a3d fc6f 523e 125a c43d
00000170: 1e81 10bd f386 8f3d 93e9 95bf 9b1f 23bd
00000180: 8a36 943e a597 86bf c1cc e73d 84b4 123f
00000190: 98f1 69be 2869 a83d 88c2 503f 9e85 b23e
000001a0: d29b fe3c 6fce df3e 6d26 0fbf 330d d1be
000001b0: 2963 9b3d 5eee 8ebd d31a c83e 6130 46bf
000001c0: 07e9 a0bf 66e2 89bd 5c9a c9be a823 1d3d
000001d0: 0c94 94bd 3b89 b8bc 361d 2fbd 5c94 0c3c
000001e0: e504 503e 49d5 fa3d 8675 3cbd 1a71 5b3f
000001f0: 00d8 9e3e aa08 373c 4666 f33d 919a 773f
00000200: 1161 e23d 3383 8bbe 9750 aebf f367 bc3c
00000210: 3553 e83e d85a f1bd 9bf7 353d 9044 133e
00000220: d2c7 703d 725f 6fbd 0867 e73e dfe2 65bf
00000230: 27af 473e 8db0 163e 9221 773f 9180 14bd
00000240: 30fb 133e 2023 b8bf ff40 87bc 2a32 ffbe
00000250: 7032 a03e 629b 9b3a
0.18743876 0.13297884 0.047505625 -0.028355813 -0.6860714 0.010055526 -0.14543788 -0.14515255
0.06723459 -0.003311544 -0.062215522 0.030072706 -0.08490034 -0.574384 0.006410622 0.59194356
0.051204417 -0.024079567 0.21582495 0.5044673 -0.122751996 0.6156936 -0.05802962 -0.014856268
-0.12460762 -0.32020208 -0.08609883 -0.20494163 0.08922997 0.027351644 0.44161516 -0.93032146
0.023138776 0.38796386 -0.33220258 -0.24365844 1.4022051 -0.12977172 0.051470414 0.7352652
0.4476992 0.04166969 0.8594841 0.049906656 0.008728075 0.34094316 -0.559498 -0.036032327
0.37578353 0.337424 0.01289712 1.0039583 0.038869645 0.07452922 0.099047504 0.09104946
-0.092836045 0.11956812 -1.5105386 -0.013699197 -0.55967826 0.31893867 -0.14499687 0.21128786
-0.7631536 -0.14311895 0.16562293 0.45181122 0.54292077 -0.23336555 0.2647003 0.011009307
0.07412829 0.007466826 0.04720163 -0.07283464 -1.7740501 -4.839688e-05 -0.72176534 -1.6781142
-0.031231968 0.5064828 0.48367006 0.010437876 0.8273378 -0.73387307 0.117154315 0.02947529
0.13255544 0.033835888 0.20550531 0.09587492 -0.035279386 0.070081614 -1.1711906 -0.039825063
0.2894786 -1.0515028 0.113183506 0.57306695 -0.22846067 0.08223182 0.8154683 0.34867567
0.03108016 0.43712184 -0.5591801 -0.40830383 0.07587273 -0.06979059 0.39082965 -0.7741757
-1.2571114 -0.06732635 -0.3937558 0.038364083 -0.072548 -0.022526374 -0.042752467 0.0085802935
0.20314367 0.12247712 -0.046010517 0.85719454 0.3102417 0.011171499 0.118847415 0.96720225
0.1105367 -0.27248535 -1.3618344 0.022998786 0.45375982 -0.11784905 0.044425588 0.14381623
0.058784313 -0.058440633 0.45195794 -0.897993 0.19500409 0.14715786 0.965356 -0.036255423
0.14451289 -1.4385719 -0.016510485 -0.4984296 0.3128848 0.0011871869

linears.0.bias f4 [50]
00000000: bedf 613d 4360 003e 4096 4dbe a35b 8dbd
00000010: d513 b23d 67f5 e73d bd04 253e c436 b03d
00000020: b65e f13a ea5c 46bd b3f4 983e 8b66 1cbe
00000030: 7574 cc3e d247 7abd ee39 293e 65af 343e
00000040: e926 20bd fd9a acbe bd5b 82bd 1916 3d3d
00000050: 011f d0bd ef5f 183d 3901 ad3e 8f13 5dbe
00000060: 288c 9ebd 952e d53d 15a1 0f3e 4a24 febc
00000070: e2df c3bd d698 d0be ae43 873e 0811 913d
00000080: 60ad c2bc d0a3 8dbe a8a7 813c bbd7 7abe
00000090: b5df 733e de32 b4bd 884f 62bc e527 96bc
000000a0: ebc5 13bd c1d6 e73d d0f5 9bbe 6c02 683e
000000b0: dc95 11bc 3028 313d dde3 02bf 914a 47be
000000c0: 0f8b fa3c 5d89 1cbe
0.055145018 0.12536721 -0.20076847 -0.06902244 0.08695189 0.11326104 0.16115089 0.08604196
0.0018415067 -0.048428454 0.2987419 -0.15273492 0.399326 -0.06110365 0.16526005 0.17645033
-0.039099608 -0.33711997 -0.06365154 0.046163652 -0.101621635 0.037200864 0.33789995 -0.21589492
-0.077415764 0.104092754 0.14026292 -0.031023163 -0.09564187 -0.40741605 0.26418823 0.070833266
-0.023764312 -0.27664042 0.015827015 -0.24496357 0.23815806 -0.08798765 -0.013812907 -0.01832957
-0.03607742 0.11320258 -0.30460978 0.22657174 -0.008885827 0.043251216 -0.5112894 -0.19462039
0.030583886 -0.15286775

linears.1.weight f4 [50, 50]
00000000: 4f98 513e 881e 17bf 12a5 44be 3feb b73d
00000010: 3afd 7bbe c07a 143e 2d65 013e 0c1a 98bd
00000020: 11ec da3d 5e50 983d 9545 02bf 4425 3c3e
00000030: 9993 babd e867 cf3d 24a8 01be bbf9 8ebd
00000040: 3972 763e ea24 ffbb 847a 483e 3723 1ebe
00000050: 786e a3bc 47ef 0c3d 985d 5a3b 8c0e f83e
00000060: 599a 34be a68b b1be d203 ebbe 219d e93e
00000070: 36b2 9dbd c124 253d 439f ed3d 61b4 a1bd
00000080: 425f 813d 1e72 a83d 5a37 f43e f1b5 a0bd
00000090: 6c70 813d 4327 163d 1784 9ebe 02bb 843e
000000a0: fa5b 2a3e d40a 463e 8001 e3bd 603c 0ebf
000000b0: 204f ccbd 0411 db3d 812b 0ebe 21bc 8e3e
000000c0: 8add 7bbe 59ba 963d 4b17 3a3e 84ea 0abf
000000d0: 396a a3be d497 c23e b0b6 0f3e 4977 963d
000000e0: 1b30 9ebd f96b 4e3e 257b c7bc 69fe b03d
000000f0: 6062 14be 63b0 013d 3ac4 5f3e ed0c 3bbd
00000100: afb2 7e3e f145 60bd 8536 d33d 1984 9f3d
00000110: 727d 9e3d 1f6c b03c 2016 4dbe 3625 84bd
00000120: 8873 293e 2263 cdbc 0aa7 c63e 599e 80bd
00000130: ec06 7bbe 5f48 113e d4d3 f0bd 3293 f33c
00000140: 616f 01bd e739 de3d ef2b 8bbe d5e5 67bc
00000150: ce58 e13d a131 91be ad23 e6bc 19df 2a3d
00000160: 7d06 ffbd 5987 59be 8656 d93d 8086 643e
00000170: 1233 93bc a1a4 14bd 2bb4 1c3e e34a 98bb
00000180: f2f9 aabe 69fe 1c3d 5c74 b83e 36b0 8f3c
00000190: 08f7 49be 62d8 50bc f390 a2bc b0f8 df3d
000001a0: 89cd 743d 5b50 aebd 7d78 80be 061b d7bd
000001b0: cc3c 30bd 2430 f8bd 8d51 423e 2b33 81be
000001c0: a8dd 59be e44b ba3d 2884 95bd 9b29 0b3c
000001d0: 73e4 24bd dacb 34bd 333e 153d f2ec 20be
000001e0: c3f1 03be b52e 7ebd 36f5 a5bd cf1c 26bd
000001f0: 9738 633e c577 9dbb c57a 9fbb 0a0b b6bd
00000200: 1fed 9bbd 17d9 3b3d 9ad6 983e ac89 be3d
00000210: 5cdf 3dbe 7cde 9cbd 6fe9 82bd fd4c 1ebd
00000220: 20e0 50be ace4 acbd 8032 53be 6732 b83d
00000230: 73e8 0e3d ca94 e13d df37 a23a d800 de3d
00000240: c538 0b3b 7dda 973c f546 1bbe 3e65 77bd
00000250: a9b8 07be 8cac bf3c c47d 063c b108 99bd
00000260: 876b 91bd 9a67 84be 077b 523e 2fd1 b2bc
00000270: 4877 72be ee3a 063d c74f 8b3e 0b0e 97bd
00000280: 18b4 8a3d d443 6eb9 f4b8 74be 9d4c bf3a
00000290: 55ad e7bd 3bea 51be 2b0d df39 c504 55be
000002a0: ba5c fa3d 2613 a3be 6693 de3b 23b3 f23c
000002b0: 5e70 31be 0da9 c43c 3c45 0c3e 36dc a8bc
000002c0: 0800 2bbe 33ce 7dbe 3bd1 d8bd 0845 11bd
000002d0: 0070 d6bd 7d24 8bbe 7bfe 113e 415f 623e
000002e0: abd3 843b 4887 4bbd 516b b3be a780 95bd
000002f0: e98b 243e 7cba 1d3d 9e20 1f3e ab36 d6bd
00000300: 3c80 3ebd 4681 e73d 529e 0ebe 2aca 66bd
00000310: 8a79 1b3c fc19 8dbd d873 18be fca6 c8bc
00000320: 503b 8a3d e51c ab3e 0a66 4abc 2ad7 8cbd
00000330: ed35 893d 5399 8a3d 03f6 2a3e aee6 533e
00000340: c788 62bd 3bac 993d 3743 0b3e e1b7 f53c
00000350: bde0 b73d 62a0 3b3d 3b8d 313d ae9a a9bd
00000360: 737a d0bd f526 63bd 75b4 113e f4cf 17be
00000370: 2179 7cbe d2d6 88bd 7d5c b43d aba5 38be
00000380: 3691 13be f530 4fbe 70cd 1f3e 4660 57be
00000390: 8cf7 0cbc 193a 37be 539a 423e 979d 3ebd
000003a0: a4ca 703e 573b 01bd e531 563d 5392 7a3c
000003b0: 3aca c13d 6123 043e 1351 ea3c 7df0 1d3e
000003c0: 9d4a bcbc eaae 6b3e b11c c4bc 8373 cf3d
000003d0: b611 1dbd 0f30 813b 32ad 723d 3fd1 b7be
000003e0: 4445 81be 91f5 4cbe 7554 51be 1c75 57bd
000003f0: 865e 2c3e bba0 76bd b06c 75be 2fc4 70be
0.20468257 -0.5903096 -0.19203594 0.089804165 -0.24608317 0.1449995 0.12636252 -0.07426843
0.10689557 0.07437204 -0.50887424 0.1837359 -0.09110183 0.101272404 -0.12661797 -0.06981226
0.2406701 -0.007786383 0.19577986 -0.15443121 -0.019950137 0.03440788 0.0033319946 0.48448598
-0.17637004 -0.34676856 -0.45901352 0.45627692 -0.07700007 0.040318254 0.116026424 -0.07895733
0.06316997 0.08224891 0.4769848 -0.078472026 0.06320271 0.036658537 -0.30960152 0.25923926
0.16636649 0.19340068 -0.110842705 -0.55560875 -0.099760294 0.10696605 -0.13883783 0.27877906
-0.24596229 0.07359762 0.18172948 -0.5426409 -0.3191698 0.3800646 0.14034534 0.073469706
-0.07724019 0.20158376 -0.024350712 0.08642275 -0.14490652 0.031662356 0.21852198 -0.045666624
0.2487285 -0.0547542 0.10313133 0.077888675 0.077387705 0.021535931 -0.20027971 -0.0645241
0.16547978 -0.025071684 0.38799316 -0.062802024 -0.24514359 0.14187764 -0.11759153 0.029733274
-0.03160036 0.10850888 -0.27181956 -0.014153917 0.11003266 -0.28358176 -0.028093183 0.04171667
-0.124524094 -0.21243037 0.10612206 0.22316933 -0.017968688 -0.036289815 0.15303104 -0.004647599
-0.33393818 0.038328562 0.36026275 0.017540079 -0.19723141 -0.012746902 -0.019844508 0.10936105
0.059766326 -0.0851142 -0.25091925 -0.10503201 -0.04302673 -0.12118557 0.18976422 -0.2523435
-0.21275961 0.09096506 -0.073005974 0.008493806 -0.04025693 -0.04413972 0.03643627 -0.15715387
-0.12885194 -0.062056262 -0.08103411 -0.040554818 0.22189556 -0.0048055374 -0.00486693 -0.08888824
-0.07613587 0.04586133 0.29851228 0.093036026 -0.18542236 -0.07659623 -0.0639218 -0.03864764
-0.20397997 -0.08442053 -0.20624733 0.089939885 0.03488965 0.110147074 0.001237627 0.10840005
0.0021243554 0.0185368 -0.15163787 -0.060399286 -0.13254036 0.023397706 0.008208696 -0.07472361
-0.07100587 -0.25860292 0.20554744 -0.021828262 -0.23678315 0.032771043 0.27209303 -0.07375725
0.067726314 -0.00022722717 -0.23898679 0.0014594976 -0.11312357 -0.20499508 0.00042543685 -0.208026
0.122247174 -0.31850547 0.0067924736 0.029626435 -0.17328021 0.024006391 0.13698286 -0.020612817
-0.1669923 -0.2478569 -0.105867825 -0.035466224 -0.10470581 -0.27176276 0.14257233 0.22106649
0.004053553 -0.04968956 -0.35042813 -0.07299929 0.16068996 0.038507923 0.15539786 -0.10459646
-0.046509013 0.11303954 -0.13927582 -0.056345142 0.009489426 -0.06889722 -0.14887941 -0.024493687
0.06749594 0.33420482 -0.01235343 -0.06876977 0.06699739 0.067675255 0.16695409 0.20693466
-0.055306222 0.075035535 0.13599859 0.029994907 0.08978412 0.04580725 0.04334758 -0.08281456
-0.10179605 -0.055457074 0.14228995 -0.14825422 -0.24655582 -0.06681599 0.08806703 -0.18031947
-0.14410862 -0.2023352 0.15605712 -0.21032819 -0.008603942 -0.17893256 0.19004183 -0.046537008
0.23514801 -0.03155073 0.052293677 0.0152936755 0.094624 0.12904121 0.028603112 0.1542377
-0.022984797 0.23015943 -0.023939462 0.10129454 -0.03834697 0.0039424966 0.059247203 -0.3590183
-0.25248158 -0.20015551 -0.20442374 -0.05260192 0.16832933 -0.06021188 -0.23967242 -0.23512338

linears.1.bias f4 [50]
00000000: 9560 7fbd 9713 c6bc 08bc a83c fa45 7fbc
00000010: 6bf0 f3bb 917e acbd 5ced cb3c e158 f1bc
00000020: 87fe f13b 8ab4 71bd dee0 84bb b079 cd3c
00000030: 3e61 42bd 85e8 06bc 6749 1c3d eaef 243b
00000040: 959e 093c 1160 2c3d 1f25 4c3d 3972 303b
00000050: 53a1 15be 7ed6 1bbd 900b 2cbd 5053 acbc
00000060: 5c6a 2cbd ae66 303d 31ff a03a 50fb 82bd
00000070: 512f 94bc 3766 863c 49fe 093e d64f c53c
00000080: c440 8c3d 6081 c33c 1238 363c 7a7f c73c
00000090: 9060 c2ba 209d b43d f34d b6bb b9f5 00bc
000000a0: 5874 7c3d 1c77 8abc c2fe 6b3c 4a78 66bb
000000b0: 5a92 373d 28b2 853b adea 4fbd 8e36 743c
000000c0: 53b5 d9bb c555 a23c
-0.062347967 -0.024179263 0.020597473 -0.015580649 -0.0074444315 -0.08422578 0.024893455 -0.029461326
0.0073850784 -0.059010066 -0.0040551266 0.02508244 -0.04745602 -0.008234148 0.03815594 0.0025167414
0.008399625 0.042083804 0.04984009 0.002692355 -0.14612322 -0.038046353 -0.042003214 -0.02103582
-0.04209362 0.043066673 0.0012283084 -0.0639559 -0.018088968 0.016406162 0.13475908 0.02408592
0.068482906 0.023865402 0.011121767 0.024352778 -0.0014829803 0.08819032 -0.0055634915 -0.007871085
0.06163439 -0.016902499 0.014404001 -0.0035166913 0.044817306 0.004080076 -0.050760914 0.014905585
-0.00664393 0.019816289

linears.2.weight f4 [50, 50]
00000000: 2177 8b3e ddb9 0d3d db82 a13c 4b27 d1bc
00000010: 4a96 42bd b8c1 b5bd 4904 d1bd 9b80 123e
00000020: 458b 593d 2aa3 02be 33de a33e 314d ebbd
00000030: 3ed8 42be e136 8e3c 62b3 403d 06a8 d3bd
00000040: 95d7 3cbb bb35 91bb fdfa 10bb fa73 2cbe
00000050: bf53 60be 044a ad3c 06b4 de3d 1bad f1bc
00000060: 439e 583e 737c a13e f8ae 4abd 31c0 6ebe
00000070: 4a42 56bc 5134 663c 60a9 05be 8c01 0b3e
00000080: adef 663a a01c 8c3c a9c0 80bd 2a34 95be
00000090: cbd7 423e 79a7 2bbe d5af d4be 33f9 b3bd
000000a0: 8248 64be a7ba aa3e 01d4 003e 2d44 3e3d
000000b0: 845d bbbd cca2 09be 7a12 1bbe 2cff e13c
000000c0: 1bb6 633e cce3 8fbd 6eec bd3d 5f1c a3bd
000000d0: b912 d3bd e616 2a3e ba33 ad3d 2578 263e
000000e0: 9c1a bebe 8768 8c3e 88dd fd3a 967c 0f3e
000000f0: 2b24 d73e 29dc a2bc 6625 3bbd 5ac0 073e
00000100: 82c2 5b3e 785e fc3d 8723 d2bc d1b7 3f3e
00000110: c382 60bd 2cf9 d7bd bb9b 743a a4dc 953e
00000120: 74c9 093e 402d bc3e 8acc e7bd 45e0 3bbe
00000130: 0a73 1ebe f025 463e 0850 ac3e 98c8 85bd
00000140: 43f2 b7bd 6732 1cbd e260 81bb e928 90be
00000150: 434f 663e 638c 89be d93a 93bd 6c65 50be
00000160: a710 f23c 2f35 2f3e e220 c43d eb1d 983e
00000170: 5fda b0be 1861 f23d a2ee f1bd 95e3 83be
00000180: 298c 5d3c 95d1 643e c72e 6c3d cd8b 7c3e
00000190: 6de6 093e 0f87 2d3e be3d db3d 187e 5bbc
000001a0: 192d 2abc 42b5 463e 259e b5bc 2e6b 90be
000001b0: cf25 1cbd 7e2e e03d 04bb 31be 032f c7bc
000001c0: 5eaa 143e b53b cb3c 877b 4bbe 98e8 663c
000001d0: 895f 1bbd d100 20be 8af1 c7be 1365 503e
000001e0: 8302 333e 7302 82bc a0a3 1abe 3659 abbd
000001f0: e912 b53d 18fd b5be eb29 21b8 4226 d0bd
00000200: c32e 81bd bee6 373e e0a2 1dbe 86ed aabd
00000210: 27c1 113d 137d 99bd 3087 f4bd 2f3f 453d
00000220: 04f8 a03e 2a21 d2bb 8457 ad3d da78 2ebe
00000230: 6eab 1dbe 9ef5 0a3d d9ce 0e3e d231 633e
00000240: 549e 83bd 3684 cd3c ac68 b0bd e428 df3d
00000250: 61b8 b6be 69da cc3d 566c f83d a643 af3d
00000260: d0d6 00be 0a54 cdbd a4eb a63d 308b 663e
00000270: 6169 053e 4a6b 95bd 6953 353c e49c 45be
00000280: f187 11be f9d0 bd3b d2b0 15be 131d 373e
00000290: cf55 0bbe e645 cabe 4444 2ebe aa8c 86be
000002a0: dd47 09be d820 9fbd 11db bf3c 84f8 ebbd
000002b0: 6023 01be 0a50 0ebe dc09 553e 25ec b9be
000002c0: 77c9 563e 0a1e ba3d 5709 18be f174 b8bd
000002d0: 0643 593d 702b bcbe 21ed 3abe 1892 89be
000002e0: a8f4 7b3d 83b3 ee3d 0a9b 8abe 90f7 c0be
000002f0: 3e43 c53e ebc1 9ebd b7da 14be c7cc cdbb
00000300: 623d 693e cdf5 9fbe 7e76 ccbd 7ded a4be
00000310: 2994 7cbe 62a1 b23d d8d0 f7be 260d 2b3d
00000320: 8456 3d3e 9827 383d 94a1 8ebe 6caf 3d3e
00000330: 7b3a 30be d064 af3d 0bb8 6b3d 71eb ba3e
00000340: 5ea0 0e3e 310d 77bd c93d 8d3e 030a 4dbd
00000350: e442 213e 5e9c 5dbe 2393 1ebe 2ae3 e0bd
00000360: 65d9 a03d 429c 80be 9074 fa3c 2cad f93d
00000370: f43e bdbc 8e29 223e b02e 413d 7db3 3a3e
00000380: 72a5 943d 0bf6 763e 23ae 5f3b 581f ef3c
00000390: 9874 4abe eff3 abbc 09b1 40be d067 833e
000003a0: c0b6 89bd 9bcf c83d 511c 9ebd f04c 35be
000003b0: 2896 453d 8024 2d3d 8c3e 06bd dcc5 cebd
000003c0: 5d42 3dbc 03b3 7bbe 3d33 873d a5b4 d23d
000003d0: 251b afbd 51b9 32bc 96bb 683e c595 4abd
000003e0: 646e 4fbe ebe7 343e 5513 573d 60b1 5b3e
000003f0: 0d25 acbe c62d 82bd 664f a2bd 73ac 12be
0.27239326 0.03460108 0.019715717 -0.025531432 -0.047506608 -0.088748395 -0.102058955 0.14306872
0.053111333 -0.12757555 0.32005462 -0.114893325 -0.19027802 0.017360153 0.047046073 -0.10334782
-0.002881502 -0.004431454 -0.0022122257 -0.16841117 -0.21906947 0.021153457 0.108741805 -0.029501488
0.21154122 0.3154026 -0.04948327 -0.23315503 -0.013077328 0.014050559 -0.13052893 0.13574809
0.0008809518 0.017103493 -0.06286747 -0.2914136 0.19027631 -0.16763104 -0.415404 -0.08787765
-0.22293285 0.3334553 0.12580873 0.046451736 -0.09148696 -0.13441008 -0.15143767 0.027587496
0.22237436 -0.07025871 0.09273611 -0.07964396 -0.103063054 0.16610298 0.08457132 0.16256769
-0.37129676 0.27423498 0.001936839 0.1401237 0.4201978 -0.019880371 -0.045689963 0.1325697
0.21460918 0.12322706 -0.025651706 0.18722464 -0.054812204 -0.10545573 0.0009331067 0.29269898
0.13455755 0.36753273 -0.113183096 -0.18347271 -0.15473571 0.1935041 0.3365481 -0.06532401
-0.08981755 -0.038134005 -0.003948317 -0.28156212 0.22491173 -0.2686492 -0.07188959 -0.2035119
0.029548956 0.17110132 0.095765844 0.29710326 -0.34541604 0.118349254 -0.11813094 -0.2575957
0.013522186 0.22345574 0.057661798 0.24662705 0.13466807 0.16946052 0.10705136 -0.013396762
-0.010386729 0.19405082 -0.022170136 -0.28206772 -0.038121995 0.10946368 -0.17356497 -0.02431441
0.14518115 0.024808744 -0.1987134 0.014093541 -0.037932906 -0.15625311 -0.39051467 0.20351057
0.17481427 -0.015870309 -0.1510148 -0.08366625 0.088414975 -0.35544658 -3.842443e-05 -0.10163547
-0.06307747 0.17959115 -0.15394163 -0.08346085 0.035584595 -0.07494559 -0.119398475 0.04815596
0.3143922 -0.006412645 0.08463958 -0.17038289 -0.15397426 0.033925645 0.13946094 0.22186974
-0.06426683 0.025087457 -0.086137146 0.10896471 -0.35687545 0.10002596 0.121300384 0.08557825
-0.12581944 -0.10025795 0.08150414 0.22514033 0.1302848 -0.072958544 0.01106725 -0.1929813
-0.14212014 0.0057927337 -0.14618233 0.17882185 -0.13606952 -0.39506453 -0.17018229 -0.26279193
-0.1340632 -0.07769936 0.023419889 -0.1152201 -0.1261115 -0.1389772 0.20804542 -0.36312976
0.2097529 0.09087761 -0.14847313 -0.0900668 0.053042434 -0.3675189 -0.1825452 -0.26869273
0.06151262 0.11655333 -0.2707141 -0.37688875 0.38527864 -0.07751831 -0.14536558 -0.006280515
0.22777322 -0.3124222 -0.09983538 -0.3221244 -0.24665894 0.087221876 -0.48401523 0.041760586
0.18490034 0.044959635 -0.2785765 0.1852395 -0.17209809 0.0856415 0.057548564 0.36507753
0.13928363 -0.060315315 0.275862 -0.050058376 0.15748173 -0.2164168 -0.15485816 -0.10980828
0.07853965 -0.25119215 0.03057316 0.12191233 -0.023101307 0.15836164 0.047163665 0.18232532
0.07258119 0.24117295 0.0034130893 0.02918975 -0.1977104 -0.02099034 -0.18817534 0.2566514
-0.0672431 0.098052226 -0.07720245 -0.1770513 0.048238903 0.042271137 -0.032774493 -0.100963324
-0.011551467 -0.24580006 0.0660157 0.102883615 -0.08550099 -0.010908441 0.22727808 -0.049459238
-0.20256954 0.17666595 0.05250867 0.21454382 -0.33622018 -0.06356387 -0.079253 -0.14323597

linears.2.bias f4 [50]
00000000: 83f5 053b c254 acbc b032 a13b 01b6 8b3c
00000010: 6a31 2ebd 24d7 43bd 87d0 4abd 7edf fc3d
00000020: 729e 40bc e68b 0a3d e00a 7d3c 58da f13c
00000030: e4b3 973c 9a92 f43a 10d5 4a3d 9137 b4bc
00000040: 36af c3bd 79b4 1cba 4d72 d5bc 0c60 0f3c
00000050: 6ab7 7b3c 0e62 c2bb 0eba 553c a3e5 bb3b
00000060: 1820 6b3d 0843 a0bc d8ea 313d 53ef 2bbd
00000070: e97a f23d b661 22bd 6b67 18bb a166 ff3c
00000080: 44e7 05bc 06a1 b6bc eaa4 363c 1f23 2b3c
00000090: 59c7 45bc 87de ad3c 3be9 d4bb 7c8f 7a3c
000000a0: 2725 3dbc f7c7 cb3c ea1a 50bc 7167 d9bc
000000b0: c6df 1ebd cb19 243c fc1b ed3b 31b6 bc3c
000000c0: 916e 033d bfb6 47ba
0.0020440526 -0.02103651 0.0049193725 0.01705456 -0.042527594 -0.047812596 -0.049515273 0.12347315
-0.011756526 0.033824824 0.015444487 0.02952306 0.018518396 0.0018659413 0.0495196 -0.021999152
-0.09554903 -0.000597782 -0.02605548 0.008750927 0.015363554 -0.005932099 0.013044847 0.005734162
0.057403654 -0.019563213 0.043436855 -0.041976284 0.118398495 -0.039643966 -0.0023255001 0.031176867
-0.008172814 -0.022293579 0.011147717 0.010445385 -0.012071454 0.021224273 -0.00649753 0.015292998
-0.011544502 0.024875624 -0.012701729 -0.026538583 -0.038787626 0.010015915 0.007236002 0.023036094
0.032087866 -0.0007618479

linears.3.weight f4 [50, 50]
00000000: 5d01 5f3e 82bc 193d 1a01 983b f210 b33e
00000010: 50f7 983e 1820 513d c84f 473d 2ee4 a5bc
00000020: 7fc4 98be 9f68 6ebe 2966 d03c 3c15 32be
00000030: 802d 36be ccc5 3d3d 64dc 2cbe ec1e 31be
00000040: 7e26 913d aa51 0d3e ce4d 933e d3fe 203d
00000050: f3eb 1cbe f25b 20be 2289 60bd 4a04 e73b
00000060: aef4 04be 551d 5dbe e020 0d3e 1bc9 f8bd
00000070: f7d4 f3bd 21e2 25be e14b 303e c4e3 b6bd
00000080: c932 233d f8de d83c 638e 93be 60c7 24be
00000090: 7322 3cbe 6263 da3d 2282 9f3d 49fe 803d
000000a0: 859a c3bd cb8d 063e 0636 703d 9146 f63d
000000b0: 80ba a83c c475 afbc b259 c7bd 7f84 8ebd
000000c0: 506c cfbe 474d 47bd 9b83 a53d 44f9 313e
000000d0: b7c1 5bbe 7317 113e 9324 883d dbb0 e33d
000000e0: 084f 6abd d9d8 26be da56 d5be 4743 843e
000000f0: ff0d 28be f9bc 30bc a840 073d 7559 8abe
00000100: 6c96 95bd 8e3c 14be d962 b73d ab7b 33be
00000110: d3fa babc 70a4 763e 6acc 6cbb 10ec fdbc
00000120: a86a 573e a692 043d 28d6 133e 16b7 423d
00000130: e5de 96bd 7056 62be f386 c33c f89a 963d
00000140: 5927 03bd ebda 4f3e cb97 7fbe f82f 3bbe
00000150: b6e8 33be d8b3 c0bc 1fc1 93be 423e c6bd
00000160: 7731 283e 6db7 a63e ec99 493d 9578 0aba
00000170: 239d 483e ea0c 473c 798b 4f3d f808 babd
00000180: ca3e 2c3e 16c5 8fbe 948a 963d e4dd 1fbd
00000190: 87b9 82bd 5351 b23e 961e fb3d 0739 18be
000001a0: 5731 c4bd 0354 d13a 496a dbbb b3af be3d
000001b0: 224a 2dbe 5719 e43d e6d2 fe3d 33f5 173d
000001c0: 5a18 043e 2895 0c3e 78fb 23bd d1a6 16be
000001d0: be50 a43d fc8d fdbd 5837 9cbd 1890 3ebc
000001e0: 8619 c03d 2028 453e 60b3 2a3d aa89 203e
000001f0: 1e2c ca3c a5f9 08bd 1695 923a 794b 163d
00000200: 3034 e73d edd2 913e 6109 69bd f0fd 6b3e
00000210: bd56 74bb 1cd9 14be b0a7 0b3e b0fa 9c3d
00000220: a933 8abd 4df7 583e bd24 05be c2b7 f53d
00000230: 24dc b83d 0497 05be 165a 98bb 70fa b1ba
00000240: 0d5e c8bd 59a3 b83e 91d5 0c3b 9803 8cbe
00000250: f76b 173e 393e 65bc 5b90 d3bd fc11 43bd
00000260: 96d1 1dbe e208 93bd e190 16be 566e a53d
00000270: 7e11 863d c260 bc3d d675 0abe 43e5 863c
00000280: a795 0bbe 6e38 ecbd 633a 2ebe 3c7e 813b
00000290: 4d66 23be e0d0 e6bd 41e5 1c3e 3e73 b8bd
000002a0: b384 373d 4691 59be 30b4 94be 6f82 c4bd
000002b0: 08d9 553c c103 75be 0dd3 debd 08a4 623e
000002c0: e3dd c83d b76f 633e 47c2 07bd 96dd fdbd
000002d0: e886 1bbe 5ef8 f33d e7e9 793e 33fa 01bd
000002e0: a64b 82be 5239 483e a710 993d d96a 253e
000002f0: cb23 0ebd 3358 133e fdd1 e03c 993b 053d
00000300: 8dd1 ab3d fd6d 5a3d 9ee0 1f3e fe92 9e3e
00000310: e89f 38be cacc 1cbe 9f99 5bbe d3a5 aebd
00000320: eef8 34be fa43 a9be 7db1 6d3d f56d bb3d
00000330: 0e33 a4bc 8953 4cbd 385d 96be 49f5 1d3e
00000340: 252a d53d a452 20bd d204 0bbe 09de 82bc
00000350: 7e79 5abc 9c66 c3bd c0d1 8dbe cd7c 053e
00000360: 10ef 00bd 0400 393e 8015 4bbd acec 223d
00000370: 9390 833e 5d97 82bd 3d86 a93c e79f 373e
00000380: 87f9 a13d a78f ce3e 0713 a03d ec48 3abe
00000390: d5d4 75bd b683 fb3e e0ef 153d be0f b03e
000003a0: 11bf a1be 1dc1 4dbc 30c6 9ebe 7799 033d
000003b0: 952c 02be a559 b63e cbab d83c 81a6 a2be
000003c0: 3441 35bd a4f5 fdbe b961 f6bc 9aea 68be
000003d0: fc11 e13c b416 9d3c 9979 ca3d 21c9 983d
000003e0: b60a 14be 68b2 053e 105c c5bd f0b6 92be
000003f0: feed 893e 8ae7 403e 980d 993d 0931 173e
0.21777864 0.03753329 0.004638803 0.34973866 0.29876184 0.051055998 0.04866007 -0.020250406
-0.29837415 -0.23282097 0.025439339 -0.17390913 -0.17790794 0.046331212 -0.16880947 -0.17296952
0.0708742 0.13800684 0.28770298 0.03930552 -0.15324382 -0.15660074 -0.05481828 0.007050072
-0.12983963 -0.2159322 0.13782072 -0.12147733 -0.11905854 -0.16199543 0.17216446 -0.089301616
0.039843354 0.026473507 -0.2881957 -0.1609168 -0.18372516 0.10663487 0.07788493 0.06298501
-0.09550957 0.13140027 0.05864527 0.12025178 0.020596743 -0.02141846 -0.09733905 -0.069588654
-0.40512323 -0.04865768 0.080817424 0.17380244 -0.21460615 0.14169101 0.06647601 0.11117717
-0.057204276 -0.16293658 -0.41667825 0.2583258 -0.16411589 -0.010787242 0.033020645 -0.27021375
-0.07304081 -0.14476225 0.089544006 -0.17527644 -0.02282468 0.24086165 -0.0036132582 -0.030996352
0.2103678 0.032366417 0.14437163 0.047537886 -0.073667325 -0.22103286 0.02386806 0.07353777
-0.032019947 0.20298354 -0.24960248 -0.18280017 -0.17569241 -0.023523256 -0.28858277 -0.096798435
0.1642512 0.32561818 0.049219057 -0.00052822503 0.19591193 0.012149075 0.05067012 -0.09083742
0.16820827 -0.28080052 0.073506504 -0.03902997 -0.06383043 0.3482767 0.12261693 -0.14865504
-0.09579723 0.0015970472 -0.00669602 0.09310856 -0.1692281 0.11137646 0.124425694 0.037099075
0.12899914 0.13728774 -0.04003474 -0.14712073 0.08023213 -0.12380597 -0.076277435 -0.011631034
0.09379868 0.19253588 0.04167497 0.15677515 0.02467924 -0.033441205 0.0011183347 0.03669307
0.11289251 0.28481236 -0.05689371 0.23046088 -0.0037283145 -0.14535946 0.13638186 0.07665002
-0.06748135 0.21188088 -0.13002296 0.1199794 0.090263635 -0.13045889 -0.004649411 -0.0013578665
-0.09783564 0.36062124 0.00214896 -0.27346492 0.14787279 -0.013991886 -0.10330268 -0.047624573
-0.15411982 -0.07179429 -0.14703704 0.080776855 0.06546305 0.091981426 -0.13521513 0.016466742
-0.13631307 -0.115342006 -0.1701446 0.003951816 -0.15956993 -0.112703085 0.15321828 -0.09006356
0.044804286 -0.21246824 -0.29043722 -0.09595191 0.013052233 -0.23927213 -0.108800985 0.22132885
0.098079465 0.22210585 -0.03314426 -0.1239578 -0.15188181 0.11912607 0.24405633 -0.03173275
-0.2544834 0.19553116 0.07473879 0.1615404 -0.034702104 0.14389114 0.02744388 0.03252754
0.08389578 0.05332755 0.15613028 0.3097152 -0.1802975 -0.15312496 -0.2144532 -0.08527722
-0.17673084 -0.33059675 0.058030594 0.09151832 -0.020043876 -0.049884353 -0.29367995 0.154256
0.10408429 -0.039141312 -0.13576058 -0.015975015 -0.01333463 -0.095410556 -0.2769909 0.13035889
-0.031477988 0.18066412 -0.04958105 0.03977649 0.2569624 -0.063765265 0.020693893 0.17932092
0.07908922 0.40343973 0.07816129 -0.1819188 -0.060017426 0.49123925 0.036605716 0.3438701
-0.31591085 -0.012558249 -0.3101058 0.032128777 -0.12712319 0.35615268 0.026449105 -0.31767657
-0.044251636 -0.4960147 -0.030075895 -0.22745743 0.027474396 0.019175865 0.09886474 0.07460237
-0.14457211 0.13056338 -0.096367 -0.28655195 0.26939386 0.18838325 0.07473296 0.14764799

linears.3.bias f4 [50]
00000000: f2ee 37bb 3dab b1bc 533b fa3c bc32 d03b
00000010: 29a9 bf3b 3558 b4bc 2d14 8a3d 8d3b 843c
00000020: f1e6 bc3c f869 693c 56c6 263c f63e 22bd
00000030: 998c c93c f12b 113b 6984 40bd 11d6 8dbd
00000040: 8477 243d 463b 573d 78c0 f03c 8967 e63c
00000050: b087 603d d5b6 213d 2874 153d d76d 883c
00000060: e228 2dbd f31b 2e3d 357d 6f3d 0468 c23b
00000070: 6ea3 4a3c 0fd2 1bbc 19f3 5d3a 4fc8 4a3c
00000080: 818c 7f3c 7bca 3fbb ca43 34bd 2c25 f63c
00000090: 7512 723d 463a 1d3d 790b 273d 27ad adbd
000000a0: 1bba 1ebd c80c 3e3b 400d 843d 5701 103d
000000b0: cfc0 2cbd eb4c 44b9 2783 c6bd 4273 8e3d
000000c0: 7bf1 3abd db58 083d
-0.0028066006 -0.021688098 0.030545866 0.0063537043 0.005849023 -0.022014717 0.067421295 0.016141677
0.02305934 0.014246456 0.010179123 -0.039610825 0.024603175 0.0022151435 -0.047001276 -0.069255956
0.04015304 0.052546762 0.029388651 0.028125541 0.0548169 0.039481003 0.03648773 0.016653938
-0.042275317 0.042507123 0.058469016 0.00593281 0.012368066 -0.009510531 0.00084667053 0.012376859
0.015597464 -0.0029264975 -0.04400996 0.030047022 0.059099633 0.038385652 0.040782426 -0.08480292
-0.038751703 0.0028999317 0.0644784 0.035157528 -0.042176064 -0.00018720671 -0.09692984 0.069555774
-0.04564045 0.033287864

linears.4.weight f4 [3, 50]
00000000: 4553 fdbd af15 9f3e 429a 853e 448b b13d
00000010: d871 b73e ad5c 87be 132a 323e 5beb 1f3e
00000020: e92c 253e ac65 d63e 44ec 6d3e 0b80 96be
00000030: db04 043f d3d0 083f d4af 063f dcda 7dbe
00000040: aab5 443e 3d37 893e 2f1f ce3e a2da 62bd
00000050: 168d 24be 02d4 c9be 1db9 bd3e 205e 1e3e
00000060: cf0c 8b3e 67ef 0d3f 89e2 053e d718 73be
00000070: a054 8cbe ef43 a93e 11bb b9be 2456 a23e
00000080: 6ed3 5dbe bd1d 9d3e d9b2 a43e dfed b9bd
00000090: d881 bb3e 4684 f5be 2a1e dabe 8765 74bc
000000a0: 1a61 a43e 06fd 07bf 617d 39be c600 76bf
000000b0: 2390 39bf f189 b1bd 6d28 a9be ef75 583e
000000c0: 74bf e63e ba55 b43e b82b 3b3e b2b5 37bd
000000d0: a9db 793e 6bc3 b63e e26b 24be 865f a1be
000000e0: bf0f 503e fc56 203f 78fb 2e3e 6e87 313e
000000f0: 55b7 9d3e 93b3 213e e829 debe b06d e73d
00000100: 4659 90bd 2fde 283e 1349 abbe 7704 6fbe
00000110: f799 533e 156b 763e 0f8f a9bd b4d8 c7bc
00000120: 6333 43be 3be8 b23d 0c49 a3be 8d55 a93d
00000130: 1d75 0fbe 886e 58be b41a 54be 3a2b 0b3e
00000140: 28e2 8d3e ce37 a53e 7406 a2bc abf6 e33e
00000150: 9e0b d13d 36b1 8abe ac8f ba3c 8fcc 023e
00000160: e840 9c3d 0e87 ea3d 8286 3dbd cacd 29bb
00000170: f721 6a3e a85c 45bc 7b41 a13e 4645 9b3e
00000180: 9c58 36bd 4349 083e 4767 443d 1e2f 213e
00000190: 9a56 c43c 77b5 543c 2340 cbbe e210 da3d
000001a0: 6fd2 113f ce4f a13e 9cad a5be 4650 a8be
000001b0: 33a3 99be f44e c3be 244d 913e 6f87 863e
000001c0: 30ae 89bc a060 11be 826d bd3d d462 103f
000001d0: c03a 70be eae9 85bf 0a51 1dbf 49af fe3d
000001e0: 9651 dbbe b177 afbe ad16 0dbd b452 bcbe
000001f0: 9d4e 653f 5fe8 13be b567 05bf 8441 6cbd
00000200: 5439 00be 67b4 30bc a616 463e 37d3 8ebe
00000210: 5d91 6abe 1012 a43e de53 a73e cb3f 03bd
00000220: 6a35 d2be 8521 8abe f1c4 19bf c8fd a43e
00000230: 6239 b23e 7c4d a0be e283 40bf ae13 0abf
00000240: c33b 88bd db63 d63d 4f11 bebd b4a0 6dbf
00000250: 3db1 ab3e 3f7b f5bd
-0.12369398 0.3107123 0.26094252 0.08669141 0.35829043 -0.26437894 0.17398863 0.15617125
0.16130413 0.41874444 0.2323466 -0.29394564 0.5156991 0.5344364 0.5261204 -0.2479052
0.19209924 0.26799956 0.40258166 -0.055384286 -0.16069445 -0.39419562 0.37055293 0.15465593
0.2715821 0.55443424 0.13074698 -0.23739944 -0.27408314 0.33059642 -0.36275533 0.31706345
-0.21662685 0.3068675 0.321677 -0.090785734 0.366225 -0.4795248 -0.42601138 -0.014916784
0.32105333 -0.5312046 -0.18114235 -0.9609493 -0.7248556 -0.08668888 -0.33038655 0.21138738
0.45067942 0.35221654 0.18278396 -0.044851013 0.244002 0.35695967 -0.16056779 -0.3151819
0.20318507 0.6263273 0.17088115 0.17336819 0.30803934 0.15791158 -0.43391347 0.11300218
-0.070482776 0.16491006 -0.3345419 -0.23341547 0.20664202 0.24064286 -0.082792394 -0.024395324
-0.19062571 0.08735701 -0.31891668 0.08268271 -0.14009519 -0.21135914 -0.20713311 0.13590708
0.27711606 0.32269138 -0.019778468 0.4452413 0.10207294 -0.27088326 0.022773586 0.12773345
0.076295674 0.11451541 -0.046270855 -0.0025910013 0.22864519 -0.012046017 0.3149527 0.3032629
-0.0445181 0.13309197 0.047950055 0.1574063 0.023967076 0.012982718 -0.3969737 0.106477514
0.5696172 0.315062 -0.32359016 -0.32873744 -0.30007324 -0.38146174 0.28379166 0.26275203
-0.016806692 -0.14197016 0.092494026 0.564008 -0.23459911 -1.046201 -0.6145178 0.12435777
-0.42835683 -0.34271005 -0.034445453 -0.36781847 0.8957308 -0.14444111 -0.5211137 -0.057679668
-0.12521869 -0.010785199 0.19344577 -0.2789552 -0.22907014 0.3204503 0.32681173 -0.03204326
-0.41056377 -0.26978698 -0.60066134 0.3222487 0.34809405 -0.31309116 -0.7520124 -0.5393628
-0.06652024 0.10468265 -0.09280645 -0.9282334 0.3353366 -0.11986398

linears.4.bias f4 [3]
00000000: 3215 013d c4c3 343b a1f7 37bf
0.031514354 0.0027582506 -0.71862227

exp_avg f4 [50, 3]
00000000: 143a fd38 ddeb 0f36 1ea7 c1bb 522f 553a
00000010: 307c 8a38 3876 a53a 9de4 27b9 0650 be38
00000020: 72fb 773a 3a02 7fb9 4d8a 9eb9 1e6a 3fbc
00000030: dda5 053a a436 3639 5327 97bb 0b49 1e39
00000040: 1599 d1b8 ce4b bcba 189c 2d37 379b 7db7
00000050: b222 c8b9 af09 123a 6efb c638 b558 59bc
00000060: daf5 20b7 39bd 8db5 4589 7eba 629c 9fb9
00000070: 2302 60b8 8310 c3bb 436b 04ba bcfd ee35
00000080: 85ea a43b 343f af33 4a5f d634 47e7 32b5
00000090: 2384 59b9 0e9b 5339 48c8 183b f3c4 a0b9
000000a0: d944 9738 a454 f53b 3c84 4739 b9bb 9d39
000000b0: 621f 9fbb 0867 74b8 2348 5ab8 d39e d53a
000000c0: f348 1dba ead4 0a3a 5f74 92bb 5f7d 40ba
000000d0: 9ffd 2239 01bf ca3b 224c 8b38 e0cf a537
000000e0: 76b2 fd39 d011 c5ba 98ee 8cb9 9452 94bb
000000f0: 587b 0a37 9406 a836 d573 2338 1660 f936
00000100: 3418 a9b3 58e1 0db7 b7f9 5c2d 9954 902d
00000110: 937e f9af 183a 9039 4c39 54b8 7da2 fbba
00000120: f105 91b8 af40 d038 2d9f 933a fc01 4fba
00000130: dbb9 20b8 3c83 a63a 7f78 1cba 26ce 0939
00000140: 79af 1bba 116e 34ba cfaa 17b9 5e8d 05bc
00000150: b3e9 34b9 a61f 9537 c00b d33a 4d04 d0b9
00000160: 5eef 9f39 b174 bcb9 c1cc 1039 576c 64b9
00000170: 7999 4f3b 4c82 14ba 2dc0 fbb8 cadc 453a
00000180: 0fc1 7139 6ed3 5cb9 4bf1 17bb 3978 7838
00000190: 1ece 2b39 4c32 3d3b 944c f3b9 fae3 033a
000001a0: 0944 43ba d5b7 8aaf 3e44 eb30 d71c 25b2
000001b0: f362 1cb1 45f1 57b2 c411 58b4 4d88 bfb9
000001c0: 744f 24b9 4f5c 583b 688f 0f39 0f6d cc38
000001d0: d561 59ba 2ce9 6539 d4c5 4537 e9bc 6338
000001e0: 690b 6639 e9a4 ca38 7d3e 933a b944 64b8
000001f0: 4e95 99b8 aecf 52ba 3881 ba37 a8f5 3637
00000200: abf7 c8b9 e7c2 43b9 ba0f 7db9 3736 613b
00000210: d7b7 9ab9 859c 7438 5100 59ba 46f3 a4b7
00000220: b828 9738 1364 8c3b ee54 9c37 f248 3fb8
00000230: 484b ebb9 8fe2 3eba b9dd a839 0df1 b3bb
00000240: 1690 c1ba d1fc 88b9 d327 a9bb c5f5 1e39
00000250: 919c 85b9 fc05 9638
0.00012074798 2.144595e-06 -0.0059098145 0.00081323565 6.6034845e-05 0.0012623733 -0.00016011526 9.0748115e-05
0.00094597705 -0.00024319525 -0.0003023915 -0.011683015 0.0005098263 0.00017377228 -0.004612842 0.00015095265
-9.99441e-05 -0.0014365853 1.0347947e-05 -1.5116114e-05 -0.00038172823 0.0005570901 9.488208e-05 -0.013265778
-9.593985e-06 -1.056039e-06 -0.0009709786 -0.00030443358 -5.340775e-05 -0.005952896 -0.00050513836 1.7806228e-06
0.0050328397 8.160569e-08 3.9929938e-07 -6.664672e-07 -0.00020743957 0.0002018029 0.0023312736 -0.00030664317
7.213065e-05 0.0074868966 0.0001902738 0.00030085238 -0.004856036 -5.827009e-05 -5.2042433e-05 0.0016297944
-0.0005999945 0.0005296009 -0.004469439 -0.00073429005 0.00015544005 0.00618732 6.642217e-05 1.9766332e-05
0.00048388884 -0.0015035216 -0.00026880647 -0.0045264456 8.254159e-06 5.007556e-06 3.8970105e-05 7.431964e-06
-7.874078e-08 -8.456722e-06 1.2561e-11 1.6408474e-11 -4.5382773e-10 0.00027509104 -5.05981e-05 -0.0019198206
-6.9152455e-05 9.930261e-05 0.0011262648 -0.0007896719 -3.8320064e-05 0.0012703906 -0.0005968883 0.00013142134
-0.0005938928 -0.0006882856 -0.00014464113 -0.00815138 -0.00017253197 1.7776922e-05 0.0016101524 -0.00039676056
0.00030505186 -0.00035945096 0.00013809187 -0.00021784134 0.003167717 -0.00056651677 -0.00012004408 0.0007547854
0.00023055471 -0.00021059599 -0.0023184593 5.9239774e-05 0.00016384615 0.002886909 -0.00046405627 0.00050312246
-0.00074487977 -2.5232674e-10 1.7117896e-09 -9.6108215e-09 -2.2757234e-09 -1.2569505e-08 -2.012303e-07 -0.0003653191
-0.00015669857 0.0033014005 0.00013690966 9.747792e-05 -0.0008292471 0.00021926005 1.17881755e-05 5.4296954e-05
0.0002193876 9.6628275e-05 0.0011233833 -5.442344e-05 -7.323419e-05 -0.0008041811 2.22331e-05 1.0905242e-05
-0.000383315 -0.00018669256 -0.00024133819 0.003436459 -0.0002951014 5.8319903e-05 -0.000827794 -1.9663607e-05
7.2078255e-05 0.0042843907 1.8636198e-05 -4.5605884e-05 -0.00044878782 -0.00072816847 0.00032208653 -0.005491382
-0.0014767672 -0.00026128304 -0.005162218 0.0001515961 -0.00025484388 7.153672e-05

exp_avg_sq f4 [50, 3]
00000000: 98ba 1238 f77e 7336 08c9 673d da74 da3b
00000010: 7961 303b 0996 6540 edd7 0639 d6c6 1139
00000020: 175c e93d d569 de39 2931 8e39 b00c 803e
00000030: 7f07 3e3a 8773 db39 3f83 773e 1177 f939
00000040: 2e62 8139 9596 903e 62d6 0f36 b850 1e38
00000050: ecf8 d13b 7f47 133b a36c 903a 7883 833f
00000060: 4dc3 9435 5324 6635 2daf 3f3a be10 133a
00000070: e76a 083a 2c14 f43e a3f0 ac3a 2789 b439
00000080: 7d82 9d3e 7271 662e 75e7 b52d 0869 5e32
00000090: 18a3 5539 c718 0c3a 8f2c e43d 6179 9339
000000a0: 4f0f e738 54f9 0a3e 3278 f539 30fd 3e3a
000000b0: 0df7 293e 8d43 a236 860b b937 b7b6 a93b
000000c0: a057 ba3a 24ec b63a b749 733f d2a6 983a
000000d0: 3548 163a 4654 e73e a2b7 4f37 a5ed a337
000000e0: 74f5 d23b 68af 643b 6780 413a ea08 953f
000000f0: 8ff4 9b34 5337 7435 408e 7739 9c3f df32
00000100: 8203 a030 f0f2 d736 1a51 2223 027e 8822
00000110: 83e1 2027 32ba a139 e66e 4c39 85f0 d23d
00000120: 8e62 af38 5842 5938 1e14 9a3c 25e7 f53a
00000130: 56c6 043a 42f9 623f cf67 a83a 0261 e339
00000140: 30b1 523f fb53 c73a 6634 de39 fe8f 123f
00000150: 9771 df37 823d ab38 a045 913c a083 b73a
00000160: 178a 643a b1a1 363f 869e a239 bfb9 b839
00000170: 9500 8a3e 735e e139 b692 5338 e75b db3c
00000180: 72bc e439 45c3 5539 a4f3 573d 5e13 e638
00000190: dc60 5d38 b0d8 3a3d 166f 513a 0c25 6f39
000001a0: f8c7 273d df89 9125 8c6e de25 99a3 242a
000001b0: 0e3a 4a2a f139 c52a 2226 292f dcc1 3739
000001c0: 8a04 7038 b7a4 bb3c 3259 c738 5f5e e638
000001d0: 5fa0 613d 4419 7b39 b9da b438 9f5c 9d3d
000001e0: 01ce df38 6f56 a438 e582 5f3d 47ff 0537
000001f0: 2551 1f38 e42d d03c cb2f 7d35 00c9 e434
00000200: b3a2 f038 fb18 713b 8ca7 dd3a f730 2340
00000210: a00f 423a 7938 353a 33d2 0d3f 7f45 d538
00000220: 3858 8437 d09a c73c 9b82 6437 d045 a837
00000230: 7ced 1c3b f057 a43b 20f9 793b 3498 5a40
00000240: 3af8 433b 5b6d e739 97d0 433f 697e 733a
00000250: 1eb3 ba39 baa7 dd3e
3.498289e-05 3.6283725e-06 0.056588203 0.006666762 0.0026913567 3.5872824 0.00012859674 0.0001390235
0.11394518 0.0004242199 0.00027120978 0.2500968 0.0007249042 0.0004185701 0.2417116 0.00047581692
0.00024677947 0.28239885 2.1433448e-06 3.774531e-05 0.0064078476 0.0022473035 0.0011018704 1.0274496
1.1083699e-06 8.5734536e-07 0.0007312175 0.00056101 0.0005203918 0.4767164 0.0013194274 0.00034434462
0.30763617 5.2396705e-11 2.0680105e-11 1.2945982e-08 0.0002037402 0.0005344268 0.111413114 0.0002812846
0.0001101779 0.13571674 0.00046819594 0.00072856527 0.16598149 4.83584e-06 2.2059085e-05 0.005179252
0.0014216788 0.0013955873 0.95034355 0.0011646396 0.00057328056 0.45181483 1.2380917e-05 1.9541776e-05
0.0064379517 0.003489459 0.0007381499 1.1643345 2.904894e-07 9.097759e-07 0.00023608748 2.5989543e-08
1.1642529e-09 6.435781e-06 8.7992115e-18 3.699629e-18 2.232671e-15 0.0003084704 0.00019496269 0.10299782
8.3630075e-05 5.179862e-05 0.01880842 0.0018760903 0.0005064955 0.8866159 0.001284832 0.0004336909
0.82301617 0.0015207523 0.0004238218 0.57250965 2.6636566e-05 8.165372e-05 0.017733395 0.0014001019
0.0008718087 0.7134047 0.00031017157 0.00035233606 0.2695357 0.00042985714 5.0442955e-05 0.02677722
0.00043627952 0.00020386007 0.05272259 0.00010970862 5.2780713e-05 0.045616806 0.00079892704 0.00022806617
0.04096219 2.5246915e-16 3.858577e-16 1.4622885e-13 1.7961346e-13 3.5034435e-13 1.5384008e-10 0.00017524458
5.7224686e-05 0.02290569 9.5056734e-05 0.000109848326 0.055084582 0.00023946638 8.623809e-05 0.07683682
0.0001067184 7.836229e-05 0.05456819 7.986854e-06 3.7984126e-05 0.025412507 9.431939e-07 4.2614556e-07
0.00011474397 0.003678857 0.0016910895 2.5498636 0.0007402841 0.0006913017 0.55398864 0.00010169576
1.5776706e-05 0.024365813 1.3620268e-05 2.005967e-05 0.0023945263 0.005015366 0.0038142875 3.4155397
0.0029902593 0.0004414123 0.7649016 0.0009288551 0.00035610137 0.43292028

exp_avg f4 [50]
00000000: c3fa acb9 7298 23b8 fe27 6738 b1ba 1fba
00000010: 9d61 85b9 55b9 9fb8 5618 24b8 31f1 3eba
00000020: c571 72b8 bd41 9ab9 92a4 4b39 1e1c 9eb3
00000030: d50b 0439 96d0 d339 a152 90b9 141a 8e38
00000040: 1ac5 5fb9 4c77 ad39 8385 1e38 d813 42b9
00000050: 12ff 8d36 cf49 98b5 24df 02ae b1e7 3fb8
00000060: 7bfc 4a38 cab3 c538 c360 e9b6 fff2 d2b9
00000070: 0887 8d38 144e ab37 3b58 3139 078c 4b38
00000080: 966b 00b9 a232 3239 9091 65b8 1e38 60b0
00000090: 46ea 74b2 ab06 3939 e5ff 48b8 0eeb 8737
000000a0: faa8 3f38 09c5 56b8 8d99 aab7 ebb4 cb38
000000b0: 8d75 87b8 3aab 7939 b753 f2b7 eaad 41b9
000000c0: 5575 6eb9 4561 7a38
-0.00032993229 -3.9004204e-05 5.5111937e-05 -0.0006093188 -0.00025440464 -7.6162316e-05 -3.912331e-05 -0.0007283865
-5.7803252e-05 -0.00029422148 0.00019420896 -7.362563e-08 0.00012592909 0.00040400465 -0.00027527384 6.775945e-05
-0.00021340363 0.00033086014 3.7794478e-05 -0.00018508674 4.2318215e-06 -1.1346364e-06 -2.9756766e-11 -4.5753728e-05
4.8395694e-05 9.42718e-05 -6.9552057e-06 -0.00040235367 6.7485555e-05 2.0421146e-05 0.00016912904 4.8529382e-05
-0.0001224711 0.00016994265 -5.473342e-05 -8.157047e-10 -1.4255937e-08 0.00017645459 -4.7922036e-05 1.620271e-05
4.569532e-05 -5.120508e-05 -2.0337082e-05 9.713493e-05 -6.459197e-05 0.00023810277 -2.888763e-05 -0.00018470702
-0.00022741158 5.9695234e-05

exp_avg_sq f4 [50]
00000000: 46f3 2d39 4284 1d3c f341 b539 38df 2f3a
00000010: c236 2b3a dbdd 4c3a 9302 b237 3954 393b
00000020: e7d9 2236 e4ae aa3a dd43 5d3a eb30 582e
00000030: 85ae a439 363b c739 3d0c ed39 5db4 8337
00000040: 37c9 253b f043 aa3a 6a97 a837 4a68 4b3b
00000050: 309d 5e35 4a3a b932 52d0 1e23 5936 9b39
00000060: 420c 6e38 ed31 1d3b fa44 173b 48f2 c23a
00000070: 37c7 7238 4062 003b fab5 453a 0b69 9a38
00000080: 18a1 2f39 8984 1339 3d69 e238 827b 2126
00000090: b229 252b 3f1e 8238 bb25 2f39 1000 5f39
000000a0: 881a 1e39 ddbb 9938 5c50 c734 8eb3 e63b
000000b0: 656b c63a 4feb 9a38 4e5c 0d37 bff7 173c
000000c0: 8e92 043b bdbf 993a
0.00016589192 0.009614052 0.00034572146 0.00067089824 0.0006531292 0.00078150415 2.1220452e-05 0.002827896
2.4266717e-06 0.0013022092 0.00084405934 4.9156162e-11 0.00031410545 0.00038000353 0.0004521328 1.5700405e-05
0.0025296935 0.0012990218 2.0097668e-05 0.0031037503 8.293018e-07 2.1563341e-08 8.609311e-18 0.00029604396
5.6755038e-05 0.0023986057 0.0023081885 0.0014873231 5.788283e-05 0.0019589812 0.000754207 7.362858e-05
0.00016749313 0.00014068386 0.00010796122 5.602548e-16 5.867764e-13 6.204517e-05 0.00016703356 0.0002126696
0.00015077938 7.330601e-05 3.7125108e-07 0.0070404476 0.0015138207 7.387122e-05 8.425746e-06 0.009275376
0.0020228955 0.0011730116

exp_avg f4 [50, 50]
00000000: b5bf 1eb9 9f24 77b7 cab3 41b9 f4c4 dab8
00000010: cbe6 53b7 df11 2f39 0a73 5939 2367 2439
00000020: a49b 5039 fa90 10b9 531c 1a38 4b02 5939
00000030: 26e9 8fb7 c72d 80b8 5c48 fc38 e3db 3239
00000040: c968 16b6 038e 40b8 c5a1 5539 b25a 1739
00000050: b44f 5639 61e0 5939 5cea 58b9 1e92 9ab8
00000060: d18c 17b9 2c06 d138 34bc f138 aa7d ac37
00000070: c57b 32b9 d82d 92b8 75b7 0139 abdc 3c39
00000080: 071c 45b9 9b81 05b9 3bd5 f1b5 8bea 5839
00000090: f9ea 58b9 ed51 3c39 50be 2d39 aecc 13b8
000000a0: c53d 3839 1927 bc38 4db8 57b9 940c a5b8
000000b0: 1221 a0b8 a2df 4039 8285 59b9 3628 0539
000000c0: 3d89 1e39 1c6b dbb8 2b20 fdb8 5a2d acb8
000000d0: 7271 08b9 1cfa a3b8 42b4 81b8 3f02 8638
000000e0: 79af 2939 5924 0838 5954 2039 af66 91b8
000000f0: d72d feb8 17ce 2d39 2081 23b9 b57e f8b8
00000100: d996 65b8 932a 8238 8f46 bbb7 ad53 11b9
00000110: 75b9 2239 ce7a 0038 a989 2b39 1c90 2b39
00000120: eae5 2db9 ff04 6337 68e4 e4b8 3578 97b7
00000130: 7249 ce38 6ab3 2ab7 984a 2db9 2d5e 07b8
00000140: a197 9038 4cce d438 bf5a 3cb9 4819 12b9
00000150: bbaf d1b8 c8e5 2d39 c6e5 2db9 60a9 5439
00000160: 9d55 1739 afa9 dcb7 c95d ff38 1037 42b8
00000170: ac9f 2bb9 c215 30b9 085d eeb8 46df 0639
00000180: f7e4 2bb9 c051 3539 e749 2638 d70a 1738
00000190: 2313 6fb8 f5b6 9739 3e9c ab37 8a21 8f37
000001a0: 5cee 8839 3d22 d7b8 1c67 4ab6 997d 89b8
000001b0: a53d 4238 e54b 62b7 9d4e 8339 bf20 d537
000001c0: 1f7f 28b8 d418 63b9 0b48 f1b8 a293 2039
000001d0: d261 4bb9 1f0c b3b8 de8a 7537 75b7 013a
000001e0: 6c85 c537 859d fe37 aa3a d5b7 5db9 bab8
000001f0: a67d afb7 fb69 173a a466 103a 9de2 89b9
00000200: d3da 11b6 cd9f 7fb8 751b 82b8 52f8 9c39
00000210: aec5 2c38 b2a4 e4b6 dcec 5bb9 3a3b d537
00000220: e434 d5b7 f2b1 8139 e2f0 fb37 e9b1 b137
00000230: 7185 01b8 162c 5eb9 d4e0 a1b8 1a6b e339
00000240: dd81 86b7 cf6e a4b6 3c72 bfb7 5c6c 86b9
00000250: d085 f339 92cc 85b8 2233 a239 392f 7db9
00000260: 61ee 1239 1373 f138 1031 8eb9 ae8c aa39
00000270: 65b8 6ab9 9d29 c339 2ccb 98b9 ca1f 0c38
00000280: 63de 8538 30c0 97b9 9673 513a a0f4 373a
00000290: 2ff1 4d3a 7952 fdb8 8adc 023a f946 353a
000002a0: d50b 82b9 0d16 e8b9 991a 9ab9 7564 95b9
000002b0: 21ed 9739 ec1c 82b8 8e30 6f39 3b29 0bba
000002c0: 10b3 61ba 04e3 233a a460 c639 d644 2839
000002d0: 3653 8738 b3ee c8b9 7083 7c39 e832 c939
000002e0: a47f 4d3a 00ed 97b9 aeec 9739 464a 1fba
000002f0: 8c86 adb9 f4e2 e436 3e4d c8b8 61e9 5f3a
00000300: 5074 a239 2d6e dcb9 dd28 d339 0894 29b9
00000310: 6b33 9339 07c5 3839 7f7c dab9 e57a 99b9
00000320: 6bf6 7eb9 69ed 1937 7760 92b9 c970 1fb9
00000330: 570b 2837 71a6 6939 137b ab39 2d4c 6039
00000340: 42c8 ab39 63fd 54b9 29f7 6935 7c41 bb39
00000350: 3d37 e5b8 6517 afb8 d711 ee38 b177 8939
00000360: 39ea d4b7 c5ae d5b8 d9b0 af39 f55b 0f39
00000370: 8c3d b639 2e8f ba39 c74e bbb9 0455 c2b8
00000380: fbea 6bb9 8df0 9c38 6e12 bc36 2cfe 76b6
00000390: 4404 89b9 8a4d bbb8 953e 2839 6119 6e39
000003a0: 6f05 83b9 153b 61b9 9e24 c4b7 ad4e bb39
000003b0: 434e bbb9 d103 3439 7fc6 9039 360c 48b8
000003c0: 44fd 8a39 100b 9738 998b adb9 aec5 3838
000003d0: 8700 12b9 2b03 9639 65a3 b0b9 7e6e a538
000003e0: d45a 2339 f864 06b9 2b5b b3b7 a1d8 14b8
000003f0: 6012 3fb7 3f33 1ab7 6090 edb7 d9fe 01b8
-0.0001513947 -1.4730874e-05 -0.00018472891 -0.000104317354 -1.2630316e-05 0.00016695958 0.00020737588 0.0001567868
0.00019894406 -0.00013786918 3.674284e-05 0.00020695587 -1.7155497e-05 -6.112042e-05 0.000120297744 0.00017057317
-2.2412735e-06 -4.5908626e-05 0.00020373527 0.00014434269 0.00020438322 0.0002077832 -0.00020686671 -7.370509e-05
-0.0001445294 9.967046e-05 0.00011526831 2.0562515e-05 -0.0001702151 -6.9703616e-05 0.00012370742 0.00018011282
-0.00018797825 -0.0001273215 -1.8017957e-06 0.0002068674 -0.000206869 0.00017959597 0.00016569463 -3.5238154e-05
0.00017570618 8.971821e-05 -0.00020572655 -7.870156e-05 -7.635554e-05 0.00018393857 -0.00020744468 0.00012698848
0.0001511918 -0.000104626844 -0.00012069972 -8.2100465e-05 -0.00013012232 -7.819032e-05 -6.184775e-05 6.390036e-05
0.00016182465 3.2458778e-05 0.00015290211 -6.933265e-05 -0.00012120202 0.0001657534 -0.00015592994 -0.000118491625
-5.4738342e-05 6.206813e-05 -2.2324994e-05 -0.00013859449 0.00015518612 3.063195e-05 0.00016359113 0.00016361516
-0.00016584215 1.3531418e-05 -0.00010914431 -1.8056578e-05 9.836526e-05 -1.0174563e-05 -0.00016526354 -3.2274216e-05
6.894698e-05 0.000101473735 -0.00017962883 -0.00013933063 -9.998629e-05 0.00016584166 -0.00016584163 0.00020280993
0.00014432376 -2.6305059e-05 0.000121768164 -4.6304485e-05 -0.00016367313 -0.00016792773 -0.00011366053 0.00012862412
-0.00016393127 0.0001729196 3.964631e-05 3.60113e-05 -5.6999863e-05 0.00028937278 2.0457544e-05 1.7062546e-05
0.00026117533 -0.00010258376 -3.0160363e-06 -6.5560635e-05 4.6310615e-05 -1.348832e-05 0.0002504484 2.5406827e-05
-4.0172712e-05 -0.00021657656 -0.000115051946 0.00015313787 -0.0001939603 -8.537643e-05 1.46354705e-05 0.00049482967
2.354636e-05 3.035251e-05 -2.5418896e-05 -8.903698e-05 -2.0920135e-05 0.0005775985 0.00055084587 -0.00026299516
-2.1734056e-06 -6.0945564e-05 -6.203997e-05 0.00029939652 4.11921e-05 -6.8141026e-06 -0.00020973705 2.5419158e-05
-2.5416208e-05 0.00024737377 3.0033701e-05 2.118289e-05 -3.0880274e-05 -0.00021187993 -7.718956e-05 0.0004337661
-1.6034517e-05 -4.9004807e-06 -2.2822169e-05 -0.00025639206 0.0004644827 -6.3800384e-05 0.00030937145 -0.00024145552
0.00014012448 0.0001151321 -0.00027120905 0.0003252974 -0.00022384671 0.00037224303 -0.00029143074 3.3408207e-05
6.383357e-05 -0.00028944155 0.0007989941 0.0007017348 0.00078560686 -0.00012079342 0.00049919693 0.0006915178
-0.00024804348 -0.00044266917 -0.00029392986 -0.0002849434 0.0002897764 -6.20427e-05 0.00022810904 -0.0005308573
-0.0008609751 0.00062517845 0.00037837506 0.00016047372 6.452801e-05 -0.00038324817 0.00024081557 0.00038375636
0.00078391493 -0.00028977543 0.00028977304 -0.0006076436 -0.00033097377 6.8213503e-06 -9.551131e-05 0.0008541551
0.00030985707 -0.00042043757 0.00040275502 -0.00016172242 0.00028076334 0.00017621006 -0.00041672957 -0.00029273998
-0.00024315125 9.174787e-06 -0.00027919162 -0.00015205437 1.0016221e-05 0.00022282616 0.0003270736 0.00021390682
0.00032764865 -0.0002031229 8.715893e-07 0.0003571621 -0.0001092986 -8.349008e-05 0.00011352047 0.00026219853
-2.5381438e-05 -0.00010189185 0.00033510363 0.000136718 0.000347596 0.00035583362 -0.00035726113 -9.266476e-05
-0.00022498883 7.483466e-05 5.604982e-06 -3.6804804e-06 -0.00026133854 -8.9312976e-05 0.00016045042 0.00022706903
-0.00024990315 -0.00021479682 -2.3382072e-05 0.00035726037 -0.0003572573 0.0001716756 0.0002761371 -4.7695088e-05
0.0002651011 7.202302e-05 -0.0003310114 4.4053122e-05 -0.00013923841 0.0002861259 -0.00033691074 7.888394e-05
0.00015578727 -0.0001281685 -2.1380916e-05 -3.54877e-05 -1.1388765e-05 -9.191047e-06 -2.8319831e-05 -3.0993342e-05
