finished_models/model_many_Re/model.ckpt-7000.pt (torch, 107709 bytes, 30 tensors)

linears.0.weight f4 [50, 3]
000000 06 73 22 3e ef 3d 4c 3e a5 95 48 3d 84 09 ca bc
       0.1586419 0.19945501 0.048970837 -0.02466274
000010 ab 27 2b bf da 04 41 3c 1c f1 1d be 54 78 0e be
       -0.66857404 0.011780942 -0.15424007 -0.13913089
000020 9d c3 8c 3d 61 de 75 bc 62 d6 8d bd 47 93 0d 3d
       0.06873248 -0.015006633 -0.06925656 0.034564283
000030 8b f8 a5 bd c2 c6 0e bf 57 d2 46 3c 50 78 14 3f
       -0.081040464 -0.5577203 0.01213511 0.5799608
000040 bd b9 1c 3d 9d f8 cd bc 02 fe e1 3e 31 6b 03 3f
       0.03826307 -0.025142962 0.44139105 0.51335436
000050 7a b0 fe bd 1a 57 22 3f 18 88 5f bd 6d b0 39 bc
       -0.12436004 0.63414156 -0.05457315 -0.011333567
000060 ec 78 36 be 1b a1 66 be f4 03 ca bd be ec 4d be
       -0.17819566 -0.22522394 -0.09864035 -0.20109841
000070 f1 a6 ac 3d f3 7e d7 3c 96 d2 dd 3e 98 21 63 bf
       0.08430279 0.026305651 0.43324727 -0.88723135
000080 ea c5 cb 3c 8d d9 3e 3e 55 ef 42 3c 43 bb 58 be
       0.024874646 0.18637677 0.0118978815 -0.21165185
000090 5e 40 ae 3f 67 79 c9 bd 5d 49 2b 3d d2 6d 38 3f
       1.3613393 -0.09837609 0.04181801 0.7204257
0000a0 b0 9c d7 3e c1 27 1c 3d 64 59 5b 3f c6 35 80 3d
       0.4211173 0.03812385 0.85683274 0.062602565
0000b0 fb d0 c1 3b bc a0 a6 3e 2e 40 04 bf 67 00 0f bd
       0.005914805 0.32544506 -0.5166043 -0.034912493
0000c0 8d ad be 3e 42 ac ac 3e 71 4b 7f 3c c7 dc 7e 3f
       0.37241784 0.33725172 0.0155819515 0.9955563
0000d0 65 83 d5 3c 41 93 90 3d 96 30 b2 3d bc 15 bd 3d
       0.02606363 0.070593365 0.08700673 0.09232661
0000e0 a8 43 bd bd a7 7a ec 3d d8 f8 ba bf 7c 90 5c bc
       -0.0924142 0.115468316 -1.4607191 -0.013462182
0000f0 09 58 f4 be 86 df 91 3e 26 8e 25 be 52 eb fd 3d
       -0.47723415 0.28490847 -0.16167507 0.123983994
000100 2b 35 91 bc ed b9 5d be 09 ed 2a 3e b9 2e 11 3f
       -0.017725548 -0.21652956 0.16691984 0.5671192
000110 20 06 d4 3e 76 19 7d be fc 98 72 3e cd 4d 1e 3c
       0.41410923 -0.24716744 0.23691171 0.009662104
000120 50 02 b4 3d 4c da 5b 3c c8 f4 6f 3d 6e c6 8d bd
       0.087895036 0.013418745 0.05858305 -0.06922613
000130 ff fe dc bf b9 82 a0 b9 6a fa 39 bf 54 43 d1 bf
       -1.7265319 -0.00030614974 -0.72647727 -1.6348672
000140 86 44 10 bd 74 b5 01 3f f4 36 f6 3e a5 6c ce 3b
       -0.0352216 0.506675 0.480888 0.0062995725
000150 e0 ac 41 3f 88 07 36 bf 98 f4 0c 3e af 30 03 3d
       0.7565441 -0.7110524 0.1376518 0.03202885
000160 a4 d7 03 3e ac 2f 0f 3d 6d d7 5e 3e ac 5f cf 3d
       0.12875229 0.034957573 0.21761866 0.1012567
000170 85 f3 29 bd 6a d3 91 3d e0 c3 8e bf 52 e9 06 bd
       -0.041492004 0.07120402 -1.1153526 -0.032937355
000180 85 9f 90 3e d3 e1 81 bf f5 0d e2 3d af d3 0f 3f
       0.28246704 -1.0147041 0.11037818 0.5618238
000190 30 60 84 be 15 07 b9 3d 7a 76 4e 3f 9d c4 bb 3e
       -0.25854635 0.09034554 0.8064953 0.36673442
0001a0 f5 88 e0 3c 63 35 6b 3e a1 e3 a4 be 3e 84 b9 be
       0.027409056 0.22969584 -0.32204917 -0.36233705
0001b0 e4 8e 81 ba 0f bd 9c be 43 cb 86 3e 10 8c 48 bf
       -0.0009884504 -0.3061299 0.2632695 -0.7833872
0001c0 c8 02 96 bf 05 c7 89 bd 82 7e c0 be fc ab 3d 3d
       -1.1719599 -0.06727413 -0.37596518 0.046306595
0001d0 63 d8 99 bd af db d1 bc d8 b9 43 bd 7c b5 27 3c
       -0.075119756 -0.025617449 -0.047784656 0.01023614
0001e0 ea f3 2b 3e cc d2 be 3d 01 fe 60 bd 88 fb 3f 3f
       0.16792265 0.0931755 -0.054929737 0.7499318
0001f0 10 b0 98 3e fe 34 4c 3c cc 45 23 bb f0 c7 27 3f
       0.29821825 0.012463806 -0.0024913428 0.65539455
000200 2f e7 33 3e a9 95 8e be e8 a1 ac bf d2 ce c3 3c
       0.17568658 -0.27848557 -1.348691 0.02390233
000210 ce 0d e8 3e 84 de f3 bd 31 60 31 3d b1 b0 03 3e
       0.45323032 -0.11907676 0.043304626 0.12860371
000220 79 0a 63 bc 1b be 6b bd 34 45 d6 3e a2 c0 67 bf
       -0.013857477 -0.057554346 0.41849673 -0.9052831
000230 cb 1a 40 3e e7 6f 0e 3e 9d 9f 71 3f b5 93 12 bd
       0.1876022 0.13909875 0.94384176 -0.035785396
000240 e5 75 11 3e e3 cb b0 bf b5 63 92 bc 92 98 03 bf
       0.1420513 -1.3812221 -0.01786981 -0.5140468
000250 ee d4 9f 3e 69 8c 2d 3b
       0.3121714 0.0026481396

linears.0.bias f4 [50]
000000 aa a3 3a 3d bc 08 e6 3d a8 7f 45 be be 57 5e bd
       0.04556624 0.11232135 -0.19286978 -0.054282896
000010 96 c6 a1 3d de 3c d4 3d b5 b6 0a 3e 6d e1 a6 3d
       0.078992054 0.10363172 0.1354626 0.08148465
000020 27 da 8d bc e7 f1 10 bd 84 00 86 3e 59 79 f1 bd
       -0.017315937 -0.035386946 0.26172268 -0.11790723
000030 e3 d9 ce 3e ce b8 2c bd 36 8b 1f 3e 90 c9 d7 3d
       0.4040061 -0.04216843 0.15580449 0.10536492
000040 1d d6 ef bc f1 a7 a6 be 34 89 59 bd 82 37 72 3d
       -0.029276902 -0.32550004 -0.053109363 0.059134968
000050 06 d5 c6 bd e3 ab 9e bd 1d fb 74 3e 03 c5 30 be
       -0.097086 -0.077476285 0.23923917 -0.17262654
000060 93 05 9b bd 00 c6 e8 3d fe b9 13 3e e6 1d ba bc
       -0.075694226 0.113658905 0.14426419 -0.022719335
000070 fb a5 02 be 99 7f c8 be 82 a6 77 3e fe de a7 3d
       -0.12758629 -0.3915985 0.24184611 0.08196829
000080 f8 4f f4 bc 98 06 82 be b7 c7 1d 3d 1a ba 50 be
       -0.029823288 -0.25395656 0.03852054 -0.20383492
000090 99 29 af 3d 0c 61 c0 bd 82 a1 b8 bc a2 2f 6d bb
       0.08552856 -0.0939351 -0.02253795 -0.0036191721
0000a0 32 68 68 bd 16 b4 e8 3d 0c 0d 54 be e8 0e 51 3e
       -0.056739993 0.11362474 -0.20708102 0.20415843
0000b0 25 4a b2 bb 64 02 71 3d 7a ef 09 bf 71 fa 31 be
       -0.0054409676 0.05884017 -0.5388104 -0.17380692
0000c0 17 88 31 3d 94 55 05 be
       0.043342676 -0.13020927

linears.1.weight f4 [50, 50]
000000 43 be 51 3e 60 f1 d2 be b6 db 40 be 93 16 b0 3d
       0.20482735 -0.4119978 -0.18833813 0.08598056
000010 4e 37 da bd cf 6a 06 3e fa b4 e8 3d 0c eb a8 bd
       -0.1065508 0.13126682 0.113626435 -0.08247957
000020 a1 8a cf 3d bf f3 91 3d fd 5f 2e be e1 52 2f 3e
       0.10133863 0.07126569 -0.17028804 0.1712146
000030 82 d0 03 bd 43 8f 67 3d cd a9 cd bd a5 fb 9b bd
       -0.03218127 0.05653311 -0.100421526 -0.07616357
000040 f1 12 0e 3d b4 60 80 bc e0 3f 3f 3e 51 9d 1a be
       0.034686033 -0.015671112 0.1867671 -0.15099074
000050 98 7e f3 bc 79 fb b7 3c 38 39 82 3c ee d6 e9 3e
       -0.02972345 0.022458779 0.015896425 0.4567179
000060 01 13 37 be a3 fc 9a be 9d 91 d0 be a0 bb 96 3e
       -0.17878343 -0.30270872 -0.40736094 0.29440022
000070 05 dc 92 bd 63 bc 61 bc fc 27 f6 3d 4f 28 97 bd
       -0.07170872 -0.013777825 0.12019345 -0.07380735
000080 05 81 9e 3d 69 c3 ad 3d 2e d2 d2 3e 40 71 ba bd
       0.07739452 0.08484537 0.4117598 -0.09103632
000090 62 24 9b 3d 40 d5 23 3d 2a 37 a0 be c4 48 74 3e
       0.07575299 0.039998293 -0.31292087 0.23855883
0000a0 f0 68 25 3e 0a c3 2a 3e 3d 76 d0 bd 2c 77 e2 be
       0.16153312 0.16675964 -0.10178802 -0.44231546
0000b0 8a 2b cc bd d2 33 d0 3d f5 76 05 be 16 45 71 3e
       -0.09969242 0.10166134 -0.1303366 0.2356151
0000c0 c2 d2 7b be c9 ff 60 3d bc a0 38 3e d9 d5 01 bf
       -0.24592116 0.054931436 0.18030065 -0.5071693
0000d0 0c 37 a2 be de 85 c1 3e 52 b6 3b 3e 5b b7 8e 3d
       -0.31682622 0.37797445 0.18331268 0.06968566
0000e0 8c 58 a6 bd 9d 1f 4b 3e ca 16 c6 bc 8d 90 a7 3d
       -0.08122358 0.19836278 -0.024180789 0.08181868
0000f0 1f 3a d1 bd af 80 f5 3c 52 58 64 3e 42 d6 7a bd
       -0.10216164 0.029968588 0.22299317 -0.06123949
000100 6e d1 6d 3e dc df 5f bd e2 bd a2 3d 44 fd 91 3d
       0.23224422 -0.05465685 0.079463735 0.07128385
000110 78 8a 9a 3d 62 36 8d 3c 82 54 4f be 82 ab 87 bd
       0.07545942 0.017237846 -0.20247081 -0.066245094
000120 c5 2f 2b 3e 0c 50 0b bd 12 2c c6 3e 00 f5 64 bd
       0.16717441 -0.034011886 0.38705498 -0.055897713
000130 a8 a4 6c be 47 2b e3 3d 76 9e e3 bd 8a 3f 24 3c
       -0.23109686 0.11092239 -0.111142084 0.0100249145
000140 d5 f2 f5 bc 42 e7 e5 3d a9 49 85 be 3b c9 22 bc
       -0.030023018 0.112257496 -0.2603276 -0.009935672
000150 15 48 be 3d 8a 0f 92 be 04 55 d8 bc 70 09 4a 3d
       0.09291092 -0.2852748 -0.026407726 0.049325407
000160 6a 65 00 be fd 6f 74 be cb 56 d6 3d c5 64 46 3e
       -0.12538686 -0.23870845 0.10465773 0.19374378
000170 0d 41 8f bc 1a dc ae 3c eb 59 17 3e 55 c4 ed bb
       -0.017487073 0.021345187 0.14780395 -0.0072560706
000180 c5 30 a9 be c4 42 13 bc bb a4 b6 3e cc 81 7c 3c
       -0.3304502 -0.008988086 0.35672554 0.015411805
000190 7f ca 45 be a3 ec 45 bc df 30 8c bc b5 bc ed 3d
       -0.19315527 -0.012080344 -0.017113147 0.11608259
0001a0 6f 8d 70 3d 84 8f b5 bd 08 9e 81 be 7d 2f d4 bd
       0.05872863 -0.08865264 -0.2531588 -0.1036062
0001b0 a1 30 37 bd 1c 1e f4 bd 17 87 3a 3e 9c 13 80 be
       -0.04472411 -0.119198054 0.18215595 -0.2501496
0001c0 1c 56 57 be 75 ed c7 3d c6 11 4d bd 4c 8b 23 3c
       -0.21028942 0.09762088 -0.05006578 0.009981941
0001d0 e4 47 05 bd 4d 65 1e bd 43 3d 11 3d 07 84 1f be
       -0.032539263 -0.038670827 0.035458814 -0.15577708
0001e0 fe d9 02 be 44 c5 76 bd ce a9 aa bd 6d 8e 59 bd
       -0.1277847 -0.06024672 -0.08333169 -0.053114343
0001f0 77 67 67 3e 28 95 c8 bb e5 84 3f bc fc e7 9f bd
       0.22598062 -0.0061212964 -0.011689399 -0.078079194
000200 83 45 a1 bd 72 5a 7b 3d b1 ad 97 3e 13 d8 b7 3d
       -0.078745864 0.061365552 0.29624704 0.0897676
000210 fd 04 33 be 75 b7 94 bd 7e ee 80 bd 64 e4 14 bd
       -0.17482372 -0.07261554 -0.06295489 -0.036350623
000220 95 31 53 be 62 26 ae bd 02 eb 56 be d2 65 b5 3d
       -0.20624383 -0.08503415 -0.20988086 0.08857311
000230 7f ce 05 3d 9a 88 0a 3e 51 06 f1 3a 10 2c ca 3d
       0.032667633 0.13528672 0.0018388723 0.098716855
000240 1d 3d 06 3c c2 b2 6c 3c ee ff 1a be 44 45 46 bd
       0.0081932815 0.014446916 -0.15136692 -0.0484059
000250 05 bc 05 be 55 73 a3 3c da 30 57 3c 70 8f b0 bd
       -0.13060005 0.019952456 0.013134206 -0.086211085
000260 cf 6e 90 bd 82 99 83 be f6 e8 47 3e 6a 85 80 bc
       -0.07052385 -0.25703055 0.19522461 -0.015688617
000270 0f 5e 72 be 2a 12 1f 3d c6 91 8a 3e 64 2e 96 bd
       -0.23668693 0.038835682 0.2706434 -0.07333067
000280 68 8c 40 3d 4c 6d fc ba a9 28 66 be b5 f6 92 3b
       0.0470089 -0.0019258647 -0.22476448 0.004484976
000290 65 6c cb bd 42 a2 56 be 4a f3 71 3b e5 ab 4a be
       -0.09932784 -0.20960334 0.0036918693 -0.19792135
0002a0 4f f3 f8 3d e6 ef a2 be 9f fe a8 3b fe f7 e5 3c
       0.121557824 -0.31823653 0.0051573063 0.028072353
0002b0 53 a9 2f be bb cc e2 3c a6 62 0f 3e 72 87 90 bc
       -0.17154436 0.027685514 0.14002475 -0.01764271
0002c0 4c ba 26 be 1d 89 7a be 41 64 d1 bd ef da f3 bc
       -0.16282004 -0.24466367 -0.102242 -0.029767482
0002d0 be 5f d8 bd 76 a1 8b be c3 03 12 3e 5c 42 69 3e
       -0.105651364 -0.27271622 0.14259247 0.2277922
0002e0 41 20 04 3c b2 a2 52 bd 08 89 b2 be cf e2 95 bd
       0.008064331 -0.05142469 -0.34870172 -0.07318651
0002f0 ab a5 21 3e 55 a3 b6 3c 4d cd 1e 3e 6a e8 c9 bd
       0.15785854 0.02229468 0.15508004 -0.098587826
000300 12 4d 3c bd a2 f5 cb 3d 79 fa 0b be 81 a4 73 bd
       -0.045971937 0.0995896 -0.13669766 -0.059483055
000310 f8 40 06 3c ec 8d 62 bd 26 d2 18 be 9c e2 f8 bc
       0.008194201 -0.05531113 -0.14923915 -0.030381493
000320 85 73 95 3d 4c 8b a4 3e 80 b8 13 bc f6 87 71 bd
       0.07297424 0.32137525 -0.009016156 -0.058967553
000330 d1 e4 6e 3d 62 ae 70 3d 98 d3 22 3e da b7 4b 3e
       0.058323685 0.058760054 0.15901029 0.19894353
000340 30 9d 5f bd 07 d6 ac 3d c1 f3 00 3e c4 d0 f4 3c
       -0.054593265 0.0843926 0.12592985 0.029884703
000350 27 11 3a 3d 73 90 47 3d e6 5c c3 3c ab 1f b0 bd
       0.045426514 0.048721742 0.023848008 -0.0859979
000360 ce db e0 bd 95 75 8a bd 39 d8 0f 3e 4e e8 14 be
       -0.109794244 -0.06760708 0.14047326 -0.14541742
000370 19 52 7b be 51 00 88 bd 93 79 b4 3d 36 38 23 be
       -0.24543037 -0.06640685 0.08812251 -0.15939412
000380 1b 29 11 be 21 eb 53 be da 8b 23 3e af ab 64 be
       -0.14175837 -0.20695163 0.15971318 -0.22331117
000390 3c a5 b3 bc ca 92 27 be 2a fb 38 3e 3a 39 15 bd
       -0.021929376 -0.1636459 0.18064561 -0.03643153
0003a0 3c 97 6a 3e 57 05 14 bd 15 b2 36 3d 46 a9 79 3c
       0.22909254 -0.036137905 0.044603426 0.015238112
0003b0 39 f2 c1 3d 47 82 03 3e b0 f4 e5 3c 91 10 22 3e
       0.094700284 0.12842666 0.028070778 0.15826632
0003c0 91 8c db bc f2 a3 58 3e 54 90 e4 bc c5 7c b7 3d
       -0.026800426 0.2115629 -0.027900852 0.08959345
0003d0 53 8f 20 bd ce 18 61 ba b1 d1 6b 3d 85 43 b2 be
       -0.039199185 -0.0008586765 0.057573024 -0.34817138
0003e0 67 6c 7e be 05 db 42 be c4 3d 51 be 9a 94 58 bd
       -0.2484604 -0.19028862 -0.20433718 -0.052876092
0003f0 43 9c 2e 3e 4b a6 81 bd a0 18 7a be f7 f4 6d be
       0.17051797 -0.06330546 -0.24423456 -0.23237978

linears.1.bias f4 [50]
000000 9d e9 4b bd bc 32 b8 bc 9b e9 95 3c 80 d7 62 bc
       -0.049783338 -0.02248513 0.018299868 -0.0138453245
000010 ee 20 f2 bb d6 36 92 bd eb a5 b5 3c a6 1c d8 bc
       -0.0073891794 -0.071393654 0.022173842 -0.026380848
000020 58 a2 85 3b 63 db 4d bd 2f 0b 8f bb 10 a9 22 3d
       0.004078191 -0.05025805 -0.004365347 0.03971201
000030 14 b7 eb bc b1 a7 56 3c 18 97 3a 3d 49 75 e7 bb
       -0.028773822 0.013101504 0.04555425 -0.007063542
000040 2a ce ae 3b 31 6f 22 3d 4e 6a 5e 3d 2d 3f 98 3b
       0.0053346353 0.03965682 0.0543006 0.004646203
000050 ec 7e 10 be d9 d9 fa bc 45 e4 de bc 48 18 d4 bc
       -0.14110917 -0.030621456 -0.027208457 -0.025890484
000060 4f 4f 2e bd 4b e4 33 3d cd 23 5d 3b 6e 3b 42 bd
       -0.042556103 0.04391889 0.0033743263 -0.047419958
000070 cb 3d 4d bc 8d 4c 21 3c 60 3c a3 3d 14 d2 c3 3c
       -0.01252694 0.009844911 0.079705 0.023903884
000080 8b 23 6e 3d f4 cc 69 3c 71 2c 83 3c 60 fc 06 3d
       0.058139365 0.014270056 0.016012402 0.032955527
000090 ec fe 4f bc fc 5c 88 3d 10 d3 1d bb ac b2 e7 bb
       -0.012695055 0.0665836 -0.0024082102 -0.00707086
0000a0 29 9a 1f 3d 3d 1c 82 bc 9e c7 6b 3c a7 0e c8 ba
       0.038965378 -0.015882606 0.014390854 -0.0015263156
0000b0 b6 bf 1d 3d 1f 4d 62 3a f9 84 47 bd 30 74 b0 3c
       0.038512908 0.0008632708 -0.048710797 0.021539778
0000c0 39 ac d9 bb 4d 0f 21 bb
       -0.006642845 -0.002457577

linears.2.weight f4 [50, 50]
000000 cf ba 8a 3e 3f 7a 5d 3c 1e d6 ad 3c bc 90 e7 bc
       0.2709565 0.013517915 0.021220263 -0.028267257
000010 e7 3e 20 bd b3 59 c5 bd 55 97 d0 bd dd d3 0e 3e
       -0.03912249 -0.096362494 -0.10185114 0.13948007
000020 a5 e8 77 3d 54 e3 02 be 6e a3 b2 3e 55 98 f8 bd
       0.0605246 -0.12782031 0.34890312 -0.1213843
000030 69 8c 40 be fc 13 82 3c b4 9e 23 3d ce e9 d0 bd
       -0.18803562 0.01587867 0.039946273 -0.10200845
000040 ff 09 8a 3c f2 b9 92 bc 14 2b d0 bb 41 18 2e be
       0.01685047 -0.017910931 -0.0063527916 -0.1700144
000050 74 31 54 be 13 df ba 3c bc d3 0f 3e 47 4a 10 bd
       -0.2072199 0.022811448 0.14045614 -0.035227086
000060 15 83 30 3e 00 bf 9d 3e 6b 98 11 bd 07 dd 6c be
       0.17237504 0.30809784 -0.035545748 -0.2313119
000070 09 04 74 bc ee c7 f6 3b 1f b4 06 be 19 be 0c 3e
       -0.01489354 0.0075311577 -0.13154648 0.13744392
000080 8b 95 33 bc 5c 53 a2 3c 53 c6 61 bd 48 56 98 be
       -0.010960947 0.01981514 -0.055120777 -0.29753327
000090 75 2d 3e 3e 50 d0 26 be 4a a8 89 be 21 2e b8 bd
       0.18572028 -0.16290402 -0.26886207 -0.089931734
0000a0 31 f6 64 be f5 eb a0 3e 9a 2f d7 3d 47 8e 46 3c
       -0.2235954 0.3143002 0.10507126 0.0121188825
0000b0 48 af aa bd d3 95 07 be 83 9c 21 be ec 94 2e ba
       -0.083342135 -0.13240747 -0.1578236 -0.00066597643
0000c0 e3 b4 54 3e eb 15 85 bd 34 ad 6d 3d 3a 2a 85 bd
       0.20772128 -0.06498321 0.058026507 -0.06502195
0000d0 78 0f c8 bd 28 b6 07 3e 65 ca c7 3d c8 cf 2c 3e
       -0.097685754 0.13253081 0.097554006 0.16876137
0000e0 8a 4f af be b1 5c 60 3e dc 47 d0 3c 65 32 08 3e
       -0.3424037 0.21910359 0.02542489 0.13300474
0000f0 0d a7 ec 3e ba 90 32 bc 41 e9 5d bd 8a d3 12 3e
       0.462212 -0.010898763 -0.054177526 0.14338508
000100 8d b2 56 3e da e7 00 3e d3 84 b4 bc d3 28 28 3e
       0.20966549 0.12588444 -0.022035992 0.16421823
000110 a9 23 3d bd b6 c8 bb bd 48 79 e1 bb 06 23 91 3e
       -0.046176586 -0.09169142 -0.006880913 0.28347033
000120 70 95 03 3e a1 6d b0 3e ea 0b c1 bd e2 ce 39 be
       0.12849975 0.3445864 -0.094261006 -0.18145326
000130 53 3b 20 be 7b 79 3e 3e 86 94 98 3e c1 6b 86 bd
       -0.1564763 0.18601029 0.29800814 -0.06563521
000140 a3 d5 a7 bd d8 e7 28 bd 41 2c 14 3d 5d 32 83 be
       -0.08195045 -0.04123673 0.036175016 -0.25624362
000150 c6 f2 62 3e cf 12 82 be d7 b7 b2 bd 47 95 48 be
       0.22162923 -0.25404975 -0.08726471 -0.19588195
000160 48 05 83 3d e4 b3 47 3e af 55 0c 3e 77 07 44 3e
       0.06397492 0.19502217 0.1370456 0.19143473
000170 0d ab a6 be 60 78 06 3e e7 17 d3 bd ff 93 87 be
       -0.32552376 0.13131857 -0.103072934 -0.264801
000180 ec e1 46 3d 77 29 5e 3e af 45 59 3d e1 13 76 3e
       0.0485553 0.21695505 0.05304497 0.2403102
000190 8d 9a 14 3e 69 eb 25 3e ea 8e ba 3d 87 08 f5 3b
       0.14512081 0.16203083 0.0910929 0.007477823
0001a0 27 e1 16 b9 9a 96 41 3e 9c 3d 0b bd be 63 8b be
       -0.0001438899 0.18905106 -0.033994302 -0.27224535
0001b0 0e 35 24 bd 7b b3 dc 3d dc f6 27 be 1e d6 ad bc
       -0.04008966 0.10776421 -0.16402763 -0.021220263
0001c0 d9 e1 18 3e 06 7b d0 3c f7 47 3d be 6c db d1 3c
       0.14929904 0.025449287 -0.18484484 0.025617324
0001d0 fd 62 18 bd fd d5 17 be d1 18 be be c5 a5 6e 3e
       -0.037203778 -0.14827724 -0.37128308 0.23305424
0001e0 64 b5 22 3e 31 22 50 bc 9b 06 20 be ef 42 9e bd
       0.15889508 -0.012703464 -0.1562752 -0.0772761
0001f0 04 04 95 3d 6f 7f b4 be 21 d9 50 bc 3e 59 c9 bd
       0.072761565 -0.35253474 -0.01274708 -0.09831475
000200 85 36 2b bd af 13 36 3e a3 03 21 be d5 f2 b5 bd
       -0.04180004 0.17780946 -0.15724044 -0.08884207
000210 47 db 01 3d 2a 50 c1 bd 45 92 f8 bd 54 17 34 3d
       0.03170326 -0.09439118 -0.12137274 0.04396756
000220 bc a4 92 3e c4 87 d8 bb 8e b8 f7 3b 2d ce 3a be
       0.28641307 -0.0066079814 0.0075598424 -0.18242712
000230 1d 81 14 be 88 a7 50 3d 45 22 f7 3d 4c 99 65 3e
       -0.14502378 0.05094102 0.12067083 0.2242176
000240 ad 4a 77 bd 3b e4 e5 3c 2b 65 8f bd 87 db ee 3d
       -0.06037395 0.02806293 -0.07001718 0.11662965
000250 3a 9f 9e be d2 bb c7 3d 51 b8 ea 3d 26 ed 97 3d
       -0.30980855 0.09752621 0.11460937 0.07418279
000260 46 4a 17 be 3c c0 ba bd e7 7b ad 3d 02 0c 64 3e
       -0.14774427 -0.09118697 0.08470898 0.22270206
000270 23 d6 fa 3d d6 d8 84 bd 4b 65 c8 3b b8 ce 4b be
       0.122478746 -0.06486671 0.0061155907 -0.19903076
000280 59 29 1c be af 12 44 3c dd 29 15 be f4 0c 3b 3e
       -0.15250148 0.011967345 -0.14566751 0.1826666
000290 7c 78 fb bd 83 c5 c6 be b4 4c 2d be 85 8f 7f be
       -0.1227884 -0.38822564 -0.16923791 -0.24957092
0002a0 77 5b f9 bd 22 23 88 bd 1d 70 a9 3c d0 9a ef bd
       -0.12175649 -0.06647326 0.020683343 -0.1169945
0002b0 e0 bc 06 be 1c 41 12 be 06 d8 56 3e 6d a8 b6 be
       -0.13157988 -0.1428265 0.20980844 -0.35675374
0002c0 33 01 57 3e 61 5f b9 3d 6a cd 12 be 77 01 b6 bd
       0.20996551 0.09051395 -0.14336172 -0.08886998
0002d0 4b 92 59 3d 18 61 b7 be 80 74 2d be 11 41 8c be
       0.05311803 -0.35816264 -0.16938972 -0.27393392
0002e0 80 ce 8f 3d e6 a9 d8 3d c7 6e 90 be fb 34 be be
       0.070218086 0.105792806 -0.28209516 -0.37149796
0002f0 a3 6c cc 3e a4 8f 5b bd f3 c8 08 be fa 9b 37 bb
       0.39926633 -0.053603783 -0.13357906 -0.0028016553
000300 ab 59 58 3e 90 41 a4 be 4a 24 c1 bd e1 62 a5 be
       0.21127956 -0.3208127 -0.0943075 -0.32302
000310 cd 05 73 be a6 85 c2 3d 38 ad f2 be 13 77 15 3d
       -0.23732682 0.09498148 -0.4739778 0.03649051
000320 41 fe 35 3e db c9 a2 3c 23 91 96 be 18 ba 4b 3e
       0.17772771 0.019871643 -0.29407606 0.19895208
000330 3e 9c 34 be f0 40 ce 3d ab 5e 72 3d 9b 44 be 3e
       -0.17637727 0.100709796 0.059172314 0.37161717
000340 bc ab 0c 3e 49 14 80 bd 8e 24 34 3e c7 6e 5a bd
       0.13737386 -0.06253869 0.1759207 -0.0533283
000350 f4 8c 29 3e 68 b4 58 be 68 6a 31 be cf 30 b8 bd
       0.16557676 -0.2116257 -0.17325747 -0.089936845
000360 17 ae 84 3d 1b f2 7e be 5f 14 cb 3d b7 04 09 3e
       0.064785175 -0.24897043 0.09915995 0.13380705
000370 04 9d 93 bc 04 e7 13 3e 3d 56 2a 3d 51 27 29 3e
       -0.018019207 0.14443594 0.04158615 0.16518904
000380 7c 94 be 3d 08 f2 78 3e ae e9 7d ba 1b ad 14 3d
       0.09305665 0.24311078 -0.0009686005 0.0362979
000390 40 9f 46 be 48 7b 8f bc a1 7c 47 be 44 5b 82 3e
       -0.19396687 -0.01751484 -0.19481136 0.25460255
0003a0 a8 c3 9b bd 02 31 e1 3d 55 f6 88 bd d9 48 3a be
       -0.07605678 0.109956756 -0.06687609 -0.18191852
0003b0 0c 5e 61 3c 64 c2 52 3d b6 28 db ba 19 4c f7 bd
       0.013755333 0.051454917 -0.0016720507 -0.12075061
0003c0 9d 45 e2 bc b6 a6 47 be 12 c4 88 3d 70 68 a9 3d
       -0.027621085 -0.19497189 0.066780224 0.08271873
0003d0 d2 db a0 bd 85 af 85 bb ef b9 8c 3e 5c 16 09 bd
       -0.078544274 -0.0040797614 0.27485606 -0.03346859
0003e0 5a 0d 57 be 95 2d 35 3e a0 1a 45 3d b3 c1 4e 3e
       -0.21001187 0.1769317 0.048121095 0.20191078
0003f0 df b9 a0 be 0c 21 9c bd b2 20 11 bd 24 9e ce bd
       -0.31391808 -0.07623491 -0.03543157 -0.10088757

linears.2.bias f4 [50]
000000 ba 9f aa 3a ee b0 5b bc 8b ea d6 3a 24 f2 8e 3c
       0.0013017573 -0.013408883 0.0016396804 0.017449446
000010 cb 8b 50 bd d7 1d 44 bd 8f 77 2b bd 8f dc ac 3d
       -0.050914567 -0.04788002 -0.041862067 0.08440506
000020 3a d6 01 bb 75 f0 1e 3d 02 97 a7 3c 8f 0d e9 3c
       -0.0019811527 0.038803536 0.020457748 0.028448848
000030 e8 ad a2 3c ce 26 5a 3c 5c a6 26 3d 66 01 99 bc
       0.019858316 0.013314916 0.040685996 -0.018677425
000040 63 44 ba bd 7c 37 7f bb ad b4 bd bc 24 1f 90 3b
       -0.09095075 -0.0038942983 -0.023157442 0.0043982435
000050 2b 59 73 3b c5 3e b9 bb d0 79 d1 3c ac c4 92 3b
       0.0037132006 -0.0056532347 0.02557078 0.0044790115
000060 b8 f4 6f 3d e9 c1 70 bc f1 32 25 3d 2b 2c 2c bd
       0.05858299 -0.014694669 0.040331785 -0.04203431
000070 d7 c2 e0 3d b8 ed 0d bd 9c e4 23 bc 7d b9 e1 3c
       0.10974663 -0.034650534 -0.010003235 0.027554268
000080 a9 5e 92 bb 71 63 8a bc 1a cd 28 3c 65 75 53 3c
       -0.004466851 -0.01689312 0.010302806 0.012906407
000090 ad c8 fa bb a1 6f 04 3c db b4 da bb bb d8 3f 3c
       -0.007653317 0.008083255 -0.0066743917 0.011709387
0000a0 81 3e 03 bc 32 61 7c 3c 42 48 09 bc 11 37 e6 bc
       -0.008010508 0.015404033 -0.008379044 -0.02810243
0000b0 0e 2f 0c bd fc e9 8d 3c 92 d2 0e 3c 11 f6 a6 3c
       -0.034224562 0.017323487 0.008717196 0.020381005
0000c0 e0 1f 0f 3d c6 af b4 3b
       0.034942508 0.005514118

linears.3.weight f4 [50, 50]
000000 ab 2c 5a 3e fa 0e 78 3c eb 74 5b 3a b2 9a ac 3e
       0.21306102 0.015140289 0.0008371609 0.33711773
000010 17 7b 9b 3e f6 51 6e 3d 87 ac 22 bc 56 ef a5 bc
       0.30367348 0.058183633 -0.009928829 -0.020255726
000020 77 4d 7c be dd d8 68 be da ae aa 3c 4d 57 4f be
       -0.24638925 -0.22738977 0.020835329 -0.20248146
000030 6e 83 51 be 8c 29 51 3d 8f 4d 2c be e5 ab 33 be
       -0.20460293 0.051065013 -0.16826461 -0.17546041
000040 b9 eb 21 3d c0 07 12 3e c5 e7 8d 3e 34 ee a6 3c
       0.039531443 0.14260769 0.2771589 0.020377256
000050 67 29 65 bd 16 1e 1a be 0a 88 69 bd 2b 12 29 bd
       -0.055947687 -0.1505054 -0.057014503 -0.041277092
000060 a4 64 28 be 3d a7 5c be 6b 00 23 3e 39 80 dc bd
       -0.16444641 -0.21548171 0.15918128 -0.10766644
000070 36 a8 09 be a3 77 3b be 02 4d 28 3e eb 9a c7 bd
       -0.13443074 -0.18307357 0.16435626 -0.09746345
000080 c7 66 cf 3c 23 3b a3 3c db 0b 93 be 83 b6 1c be
       0.025317563 0.01992566 -0.28719983 -0.15303998
000090 dd 07 43 be 45 51 df 3d 60 ed 6d 3d 63 06 8c 3d
       -0.19045968 0.10904173 0.058087707 0.06837156
0000a0 99 92 95 bd f1 ea 05 3e fc c2 7a 3d d0 12 f6 3d
       -0.07303352 0.13077904 0.061221108 0.12015307
0000b0 9a bb 37 3c 0f 49 66 bc 13 70 0e bd 8d 78 98 bd
       0.011214161 -0.014055504 -0.03477485 -0.07444868
0000c0 d6 57 be be 93 08 0c be 1b d6 af 3d 4d 93 29 3e
       -0.37176389 -0.13675146 0.08585759 0.16560097
0000d0 5a b9 60 be c7 b2 07 3e 46 c3 4b 3d e2 1f 95 3d
       -0.21945706 0.13251792 0.049746774 0.07281472
0000e0 68 63 5f bd 4d f9 16 be 22 df cb be ad 97 82 3e
       -0.05453816 -0.14743538 -0.39818674 0.25506344
0000f0 f6 fb fc bd 54 b3 ec 3c 18 ce 4b 3d 8a 39 6a be
       -0.12352745 0.028894104 0.049757093 -0.22873512
000100 37 3c 8c bd 3a da 16 be 7a ee b4 3d 1e 65 3d be
       -0.068474226 -0.14731684 0.08834548 -0.18495604
000110 cb 38 18 bd 3a 60 64 3e 8a 16 ed bc 6b a9 49 bd
       -0.037163537 0.22302333 -0.028941412 -0.049233835
000120 29 e0 4c 3e fc a8 e8 3c ef d2 3b 3e 1f 71 50 3d
       0.20007385 0.02840089 0.18342184 0.05088913
000130 bb 42 b5 bd d0 05 6b be 6c b7 7a 3c f8 e9 95 3d
       -0.088506185 -0.22951436 0.01530252 0.073200166
000140 fc 08 89 bc 0c a0 59 3e d4 f1 81 be 00 27 51 be
       -0.016727917 0.2125246 -0.25379813 -0.20425034
000150 fa 8a 17 be 90 d7 87 bb cc 0e a0 be 46 7c de bd
       -0.14799109 -0.00414557 -0.3126129 -0.10863547
000160 ca 11 20 3e 11 54 a5 3e 93 02 58 3d 75 89 26 3c
       0.15631786 0.322907 0.05273683 0.010164608
000170 6a ab 22 3e e8 9c 27 3c bb 6e 56 3d 6e 25 98 bd
       0.15885702 0.01023028 0.052351695 -0.07429014
000180 78 c2 35 3e 5b f1 82 be 4b 59 9b 3d 57 64 ae bc
       0.17749965 -0.25574765 0.07585391 -0.02128808
000190 ae 52 7d bd 30 3a b4 3e 5f 0a fb 3d 1f cc 08 be
       -0.061846428 0.35200644 0.122578375 -0.13359116
0001a0 52 43 b0 bd 07 07 b2 bb ec 5d 14 bd 3e 3d b9 3d
       -0.0860659 -0.0054329666 -0.036222383 0.09044884
0001b0 b0 8f 1f be 81 29 f0 3d b8 f2 e7 3d 9e 81 b9 3b
       -0.15582156 0.11726666 0.11325592 0.0056612035
0001c0 8e d4 a6 3d 12 6b 07 3e 9f 46 1d bd 70 ee 16 be
       0.0814601 0.13224438 -0.038397428 -0.14739394
0001d0 ee 8b 3a 3d 84 81 e4 bd a9 a9 9a bd c1 2b b1 bc
       0.045543604 -0.11157516 -0.07551891 -0.021627309
0001e0 a0 c3 60 3d 10 50 46 3e 80 6d 32 3d 55 8c 06 3e
       0.054874063 0.19366479 0.04356146 0.1313947
0001f0 32 43 a3 bc f1 3c 14 bd 98 eb 78 3b 23 7f 3f 3d
       -0.019929502 -0.03619093 0.0037982222 0.046752106
000200 41 c4 dc 3d b4 52 96 3e 20 69 60 bd a0 17 5f 3e
       0.1077962 0.29359972 -0.054787755 0.21786356
000210 8c 2b 13 bc 2c d7 19 be 2a b4 fb 3d 8a fe 8a 3d
       -0.00898255 -0.15023488 0.12290223 0.06786831
000220 75 c3 8c bd cc d3 51 3e 0a 2c fc bd b6 64 fd 3d
       -0.06873218 0.2049095 -0.12313087 0.12372725
000230 37 cd c6 3d 51 00 05 be 0e f1 65 bb 68 65 d4 3b
       0.097071104 -0.12988402 -0.0035086307 0.006481815
000240 6f f2 ac bd d2 b1 b7 3e 06 e3 81 bc fc 33 8e be
       -0.08444678 0.35877854 -0.015855324 -0.27774036
000250 01 fd fc 3d b4 d0 f9 bc 0b ae e3 bd bb 51 1b bd
       0.12352944 -0.030495025 -0.111171804 -0.03791974
000260 fc 0d 21 be 9e dc aa bd ca 1b 1a be f2 ca 9a 3d
       -0.15727991 -0.08342861 -0.15049663 0.0755824
000270 d5 2b 6e 3d e5 c1 ba 3d 41 20 e1 bd c8 a2 6c 3c
       0.05814727 0.09119014 -0.1099248 0.014443107
000280 b3 ba e6 bd c3 1b bc bd bb 70 12 be 92 f1 53 3c
       -0.11266079 -0.09184983 -0.14300816 0.012936013
000290 2b 6f 24 be 25 65 e2 bd 86 b7 27 3e cd 20 ca bd
       -0.16058032 -0.11054448 0.16378602 -0.098695375
0002a0 d4 94 35 3d ce 7e 66 be b2 28 8c be 82 eb b2 bd
       0.044331387 -0.2250931 -0.27374798 -0.08736326
0002b0 37 43 bf 3b 97 65 70 be 63 ec 5c bd 03 2f 62 3e
       0.00583687 -0.23476253 -0.053936373 0.22088246
0002c0 c6 2c d0 3d 1d 31 72 3e 21 19 d9 bc 05 59 11 be
       0.1016479 0.23651548 -0.02650124 -0.14194115
0002d0 0c 1f 2b be 56 83 da 3d 23 02 7f 3e 4d ca 08 bd
       -0.16711062 0.106695816 0.24903159 -0.033396054
0002e0 df 42 71 be ad f7 50 3e d7 67 a6 3d 8f 1f 25 3e
       -0.23560666 0.20406981 0.08125275 0.1612532
0002f0 05 74 0d bd 7b 1f 14 3e b2 42 df 3b 0a 19 05 3d
       -0.034534473 0.14465134 0.0068133706 0.032494582
000300 bd 14 c1 3d 10 63 5e 3d 36 e1 eb 3d 1e 12 a0 3e
       0.09427784 0.054293692 0.11517565 0.31263822
000310 da b4 27 be 26 f6 08 be 3f e4 56 be 9e e0 66 bd
       -0.16377583 -0.13375148 -0.20985506 -0.056366555
000320 b5 2f 17 be 3f 45 ae be 75 a0 90 3d e4 15 97 3d
       -0.14764293 -0.34037206 0.07061855 0.07377222
000330 86 89 55 bb 76 bb 3e bc aa 07 8d be d2 11 18 3e
       -0.003258319 -0.011641374 -0.2754491 0.14850548
000340 50 18 c8 3d 06 ea 48 bd 32 2c 18 be b4 d7 90 bc
       0.09770262 -0.049051307 -0.14860609 -0.01768098
000350 9a b1 71 bd 7b 28 c3 bd 0c 7c 95 be c7 95 97 3d
       -0.059007265 -0.095292054 -0.29196203 0.07401615
000360 af 4e 61 bb 10 a0 4a 3e da be 84 bd b7 74 08 3d
       -0.0034379174 0.19787621 -0.064817145 0.033314433
000370 7b bf 97 3e 1c 16 8c bd 69 f9 95 3c d3 7a 31 3e
       0.29638276 -0.068401545 0.018307405 0.1733201
000380 42 1b 39 3d 99 73 e4 3e 8b 48 94 3d a5 f6 22 be
       0.04519201 0.44619444 0.07240399 -0.159144
000390 cd d8 95 bd 95 59 f5 3e c8 ed b0 3d 0e 02 e7 3e
       -0.07316742 0.47919908 0.08639103 0.45118755
0003a0 df 2b 9f be 41 6a f8 3b 73 e0 a5 be df 47 3f 3c
       -0.31088158 0.007581026 -0.32397804 0.01167485
0003b0 44 70 03 be 86 bc ad 3e 00 05 c4 bb 52 77 a4 be
       -0.12835795 0.33932894 -0.0059820414 -0.32122284
0003c0 22 4e 30 bd 19 7d 00 bf df fb 21 bd c7 5f 69 be
       -0.043043263 -0.50190884 -0.039546844 -0.22790442
0003d0 56 6f 84 3c fa 7f ac 3b 52 9a e7 3d 76 e6 64 3d
       0.01616637 0.0052642794 0.11308731 0.055883847
0003e0 75 19 06 be c3 5c f3 3d 77 f5 d3 bd aa 0b 94 be
       -0.13095649 0.11882927 -0.10349553 -0.2891515
0003f0 c6 f5 87 3e 9e 97 36 3e 23 30 95 3d f9 da 11 3e
       0.26554698 0.17831275 0.07284572 0.14243688

linears.3.bias f4 [50]
000000 c4 4a 53 bb 20 9c bf bb 92 4f e3 3c 93 e7 be 3b
       -0.0032240609 -0.005847469 0.027747903 0.0058259456
000010 bb 8b 74 ba 34 4a ae bc 20 0b 77 3d db e4 7a 3c
       -0.0009328683 -0.021275617 0.060313344 0.015313352
000020 34 60 e2 3c d6 62 5c 3c c7 e9 a6 3b f2 f9 2b bd
       0.027633764 0.013451299 0.0050937864 -0.041986413
000030 a6 1e 90 3c db 27 da 3b be 5c 35 bd 24 2b 98 bd
       0.01759274 0.006657583 -0.0442779 -0.074301034
000040 ce 15 26 3d 3c 34 51 3d 7d be 0a 3d bb 67 0f 3c
       0.04054814 0.051075205 0.03387307 0.008752759
000050 5a c7 2f 3d d9 a2 ba 3c 91 db ca 3c a5 b0 b7 3a
       0.042914726 0.02278273 0.0247629 0.0014014436
000060 ac f4 0e bd d2 4e c2 3c 6c b5 59 3d ae 83 d9 3a
       -0.034901306 0.023719225 0.053151533 0.001659503
000070 0c f0 a4 ba f7 ac ae bb c4 91 78 bb 50 7a b5 3c
       -0.0012583747 -0.0053306776 -0.003792868 0.02215305
000080 c8 ac 48 3c 52 0c 81 ba 02 1c 07 bd 7b ed cb 3c
       0.0122482255 -0.0009845591 -0.032985695 0.024893513
000090 50 76 76 3d 7c ad cd 3c 05 8a 1e 3d 4b 7c 89 bd
       0.060171425 0.025107138 0.038705844 -0.0671316
0000a0 23 65 a0 bc e3 d7 17 3c 86 35 57 3d 20 20 01 3d
       -0.019579476 0.00926778 0.05254128 0.031524777
0000b0 d1 53 0b bd 7a 1d a8 bb 3b 43 94 bd e8 6b 75 3d
       -0.03401548 -0.005130467 -0.07239386 0.05991736
0000c0 d8 ae 24 bd d5 ad 18 3d
       -0.040205806 0.037275154

linears.4.weight f4 [3, 50]
000000 67 bf f1 bd 03 98 94 3e d8 5a 81 3e 36 59 e7 3d
       -0.11804085 0.29022226 0.2526462 0.112963125
000010 e0 66 b1 3e d4 e1 80 be b2 3e 30 3e f3 b0 37 3e
       0.346488 -0.25172293 0.17211416 0.17938595
000020 31 fe 27 3e b3 41 d8 3e 39 05 7f 3e d0 8c 90 be
       0.1640556 0.42237625 0.24904336 -0.2823243
000030 3d b0 01 3f 76 7a 04 3f f5 c0 03 3f a0 fa 79 be
       0.50659543 0.5174936 0.51466304 -0.24412012
000040 b3 f8 32 3e a0 0f 88 3e 5e 7f c6 3e 20 f0 80 bd
       0.17477684 0.2657442 0.38769048 -0.062958
000050 2c df 11 be 9d b0 c4 be 45 4b c0 3e c8 bd 1a 3e
       -0.1424529 -0.38415995 0.37557426 0.15111458
000060 a9 d4 93 3e a1 55 01 3f 71 1c fe 3d 1b b3 75 be
       0.28873184 0.50521284 0.124077685 -0.23994105
000070 8a 7a 8a be 09 03 a2 3e 61 d5 b6 be 13 c8 98 3e
       -0.27046615 0.3164294 -0.3570967 0.29840145
000080 fc 71 63 be c5 a5 9e 3e a1 33 9e 3e ae 9d 9e bd
       -0.2221145 0.30985847 0.30898765 -0.07744919
000090 9e be b9 3e 32 dd ed be bf fc d9 be 78 a5 94 3b
       0.36278242 -0.4645782 -0.42575642 0.004536327
0000a0 54 c3 a5 3e 93 cb 08 bf 94 9e 3f be 16 c0 74 bf
       0.32375586 -0.5343563 -0.18712837 -0.956056
0000b0 60 6e 2c bf 03 50 e2 bd 4a 0f 9f be 9c d6 60 3e
       -0.6735592 -0.11050417 -0.31066352 0.21956867
0000c0 cc 77 ea 3e fb 35 b8 3e 19 5f 33 3e 1d 9d 63 bd
       0.45794523 0.35978684 0.17516746 -0.055569757
0000d0 56 48 83 3e ce 6c bd 3e 05 11 31 be fa 9c a5 be
       0.25641125 0.36997074 -0.17291649 -0.32346326
0000e0 c9 15 4f 3e b2 eb 1d 3f dd 36 56 3e 67 88 33 3e
       0.20223154 0.6168777 0.20919366 0.17532502
0000f0 63 26 a3 3e e3 60 3b 3e 61 16 e0 be af 47 49 3e
       0.31865224 0.18298678 -0.43767074 0.19656251
000100 74 0f a5 bd e6 6e 2f 3e aa ea a9 be b8 6a 7e be
       -0.08059588 0.17132148 -0.33186847 -0.24845397
000110 0d f0 6b 3e 30 48 6d 3e 40 19 c3 bd 9f f0 b5 bc
       0.23040791 0.23172069 -0.095263004 -0.022209464
000120 17 6e 44 be eb 62 b0 3d fe b6 a5 be f3 ba 98 3d
       -0.19182621 0.08612617 -0.32366174 0.07457533
000130 04 88 18 be 1b 0c 56 be eb 6c 45 be 70 c7 07 3e
       -0.14895636 -0.20903055 -0.1927983 0.13259673
000140 5b 6b 93 3e ad 18 a7 3e ce 8c cd bc ea f9 e1 3e
       0.28792843 0.32636014 -0.025091555 0.44135982
000150 46 bd e9 3d fd 68 88 be 64 4c 90 3c 4f e8 f1 3d
       0.11413054 -0.266426 0.01761455 0.118118875
000160 80 e3 af 3d f7 ea e0 3d 1b cf 37 bd de 86 9e 3b
       0.08588314 0.10982316 -0.044875246 0.0048378548
000170 82 5d 70 3e 19 50 46 bc 55 1e a3 3e b5 bf 9e 3e
       0.2347317 -0.012104058 0.3185908 0.31005636
000180 a2 f9 0d bd 62 2c 0d 3e 91 97 28 3d db 2b 34 3e
       -0.034661897 0.13786462 0.04116017 0.17594855
000190 6c f5 c5 3c a9 5d 90 3d 41 c4 c5 be d8 69 da 3d
       0.024164878 0.07049114 -0.38626292 0.10664719
0001a0 7c 23 09 3f 0b f5 a7 3e 09 5d a2 be d9 2c a6 be
       0.5356977 0.3280414 -0.31711605 -0.3245609
0001b0 cf a1 71 be 6d 76 d1 be 57 92 81 3e 03 b0 65 3e
       -0.23596881 -0.40910664 0.2530696 0.22430424
0001c0 76 76 0a 3c a9 db fc bd c2 4d 84 3d 4e b4 ff 3e
       0.008451095 -0.12346584 0.064601436 0.4994225
0001d0 1c 63 62 be 5b 13 7f bf 4b ea 16 bf 7d 4d d3 3d
       -0.2210812 -0.9963891 -0.5895125 0.10317514
0001e0 19 8f d0 be d5 48 84 be 51 69 6a 3c ae a0 55 be
       -0.40734175 -0.25836816 0.014307336 -0.20862076
0001f0 c8 0c 61 3f a2 74 7a be cf b0 fd be 16 3b a1 bd
       0.8791013 -0.24458554 -0.49548957 -0.07872598
000200 57 c0 dc bd 93 e1 27 bd 5e 9a 2b 3e 68 dc 7d be
       -0.107788734 -0.04098661 0.16758105 -0.2479111
000210 0b 28 63 be 57 ad a5 3e ab fb a3 3e 22 9a cf bc
       -0.22183244 0.3235881 0.32027945 -0.025342051
000220 6b e8 da be a0 9b a7 be 9e 9c 13 bf fe bf 86 3e
       -0.42755446 -0.3273592 -0.57660854 0.26318353
000230 7f b7 9e 3e 8a d7 a6 be 58 c4 38 bf 2f 0c 05 bf
       0.3099937 -0.32586318 -0.72174597 -0.51971716
000240 42 24 f5 bd 56 c7 00 3e c7 51 c6 bd d3 5f 40 bf
       -0.11969806 0.1257604 -0.096835665 -0.75146216
000250 09 f1 ae 3e 5f b0 fa bd
       0.3416827 -0.12240671

linears.4.bias f4 [3]
000000 78 74 23 3d ba c7 1e 3b 5a 8f d2 be
       0.039905995 0.0024227933 -0.41124994

exp_avg f4 [50, 3]
000000 73 dd 21 ba 60 2f 0c b9 aa 33 ac 3c c5 35 a6 ba
       -0.0006174661 -0.00013369089 0.02102073 -0.001268082
000010 21 5d 04 bb 19 5d 79 bd 85 29 cf 38 d2 59 be 37
       -0.002019711 -0.0608798 9.878263e-05 2.269159e-05
000020 5b 77 0e 3c ca e0 fc 39 8f 45 8c 3a f2 f5 3a 3d
       0.008695449 0.00048232666 0.0010701882 0.045644708
000030 de cd 9c ba 9b 52 45 ba 59 23 84 3c 7c 2b 92 b9
       -0.0011963209 -0.0007527263 0.016130136 -0.00027879688
000040 7f ab 52 ba 73 9f 89 bc b4 69 d4 b7 26 75 bd 38
       -0.0008036419 -0.016799664 -2.5321591e-05 9.034043e-05
000050 b8 77 f9 3a 19 ae f3 b9 7e d9 bd ba ac 38 a4 3c
       0.0019032871 -0.00046478285 -0.0014484373 0.020046555
000060 f5 96 44 38 e4 de 53 b8 ea 3a 3b 3a 24 66 44 3a
       4.687063e-05 -5.0513903e-05 0.0007142263 0.0007492027
000070 b8 84 03 3a f8 8b 0f 3d 66 5f e4 3a 95 d4 c0 b9
       0.000501703 0.035045594 0.001742345 -0.0003677948
000080 31 26 e9 bc e9 b9 84 b6 49 ff fd b5 c3 74 c8 b7
       -0.028460594 -3.9555493e-06 -1.8924267e-06 -2.389623e-05
000090 1c 9a bf 35 f5 18 ff b9 98 2b c5 bb ca 17 87 3a
       1.4275461e-06 -0.00048655985 -0.0060171597 0.0010306772
0000a0 5c f2 4a 39 a3 80 0c bd eb c4 5a ba 56 9b 9c ba
       0.00019354507 -0.034302365 -0.0008345383 -0.0011948149
0000b0 47 56 a7 39 05 4b f1 b8 2c f2 98 39 01 9a 8d 3b
       0.00031917004 -0.00011505749 0.0002917213 0.004321337
0000c0 0c 5c bc 39 65 16 cf b9 7f e5 6b 3d b8 10 db 3a
       0.00035926735 -0.00039498802 0.05759191 0.0016713357
0000d0 af 73 d4 39 a0 03 0c bb cc a4 ce b8 73 68 87 b9
       0.00040521982 -0.0021364465 -9.853541e-05 -0.00025827027
0000e0 93 d4 c5 bb 1d d3 80 3b f0 1d bc 3a 4d b5 03 3d
       -0.0060373037 0.0039314167 0.0014352184 0.032155324
0000f0 d1 51 a5 b6 eb dc 14 b8 7b c4 a7 b9 9c 5f 08 b6
       -4.926908e-06 -3.5491696e-05 -0.00031999112 -2.0321231e-06
000100 e2 53 44 36 88 cf 47 38 c8 2c 12 b1 1f 20 15 32
       2.9255102e-06 4.7638576e-05 -2.1271251e-09 8.680245e-09
000110 aa 1d ad b3 41 1f 58 ba ba f9 1a 38 79 88 a2 3c
       -8.061336e-08 -0.0008244403 3.6949037e-05 0.019840466
000120 33 63 a9 b9 38 59 ef 37 28 73 73 3b 29 6a dc 3a
       -0.000323081 2.8532566e-05 0.0037147496 0.0016816306
000130 90 49 91 3a b1 43 ed 3b 84 2b 88 3a e1 a3 9a 39
       0.0011084545 0.0072407355 0.0010388945 0.00029495268
000140 f0 a2 8a 3c bf 6c 14 3b e6 71 96 3a 4a b4 2b 3d
       0.016923398 0.0022647826 0.0011478036 0.041919984
000150 5b 52 7f 39 7a dc 14 b7 b6 8a 1a bb cb b5 34 3a
       0.00024349375 -8.872821e-06 -0.0023581213 0.00068935443
000160 d3 ed 60 b7 23 e9 10 3d 6e cc 9d b7 9d ff 54 3a
       -1.3406813e-05 0.035378587 -1.8811053e-05 0.00081252476
000170 b7 a4 a8 bc 63 ce ed 3a ba a8 33 3a a6 09 41 3b
       -0.020586355 0.0018143173 0.00068534503 0.0029455214
000180 bb 9a 8a b8 08 ab 07 39 03 a2 79 bb fc 24 b9 b9
       -6.6091736e-05 0.00012938317 -0.0038090951 -0.00035313505
000190 9d 8b 0f ba 45 b5 c1 bb 89 b8 bb 3a bf 1c a1 ba
       -0.0005475821 -0.0059115016 0.0014321964 -0.0012291892
0001a0 a5 5f 31 39 0d 07 0b b3 ed fd 82 b0 9a cb 8e 34
       0.00016915666 -3.2369872e-08 -9.530915e-10 2.65977e-07
0001b0 cf f3 31 b5 56 4c b6 32 55 b3 d8 34 d4 db 8a 3a
       -6.6292426e-07 2.1222302e-08 4.0363616e-07 0.0010594078
0001c0 e9 96 2d 3a 26 c2 a2 bb 53 8b 9d b9 be 41 0c ba
       0.00066219136 -0.004966992 -0.00030049178 -0.00053503725
0001d0 ec 98 22 3a 79 7d 91 ba 42 b8 7f 39 9d 58 d1 bb
       0.00062025967 -0.0011100016 0.00024387336 -0.0063887374
0001e0 3d 1b 09 ba 2f ee 1f ba 4a ed da bb c9 66 c2 37
       -0.0005230194 -0.0006100861 -0.006681119 2.3174465e-05
0001f0 1f de c9 39 d5 33 d3 bb 19 0f f0 b6 09 ab 49 b7
       0.000385032 -0.006445388 -7.154315e-06 -1.2020356e-05
000200 ca 35 86 b7 ee dd dc 3a cc f7 50 ba 3e 5b 5c bd
       -1.5999092e-05 0.0016850808 -0.0007971495 -0.053797953
000210 1c 2f 48 b9 7c 17 9b 3a 61 9e f1 3c f1 54 92 b9
       -0.00019091036 0.001183256 0.029494466 -0.00027910576
000220 32 30 66 b9 2b 26 42 bc 93 78 0e b9 20 bd 30 39
       -0.00021952463 -0.01184992 -0.00013587093 0.00016855123
000230 8d e9 09 3b 71 03 14 b9 fc 00 6b 3a b3 ff 92 3d
       0.0021043748 -0.00014115662 0.0008964685 0.07177677
000240 5b 91 8b 3b 60 61 a7 3a f9 40 0c 3d ae 55 99 b9
       0.004259271 0.0012770109 0.03424165 -0.0002924627
000250 88 e7 d1 3a 17 96 83 3c
       0.0016014436 0.01606278

exp_avg_sq f4 [50, 3]
000000 ff 48 3a 39 be d3 5b 38 51 79 ab 3e e5 af 3e 3d
       0.00017765535 5.241087e-05 0.33490995 0.046554465
000010 4f 3e eb 3c cd 28 20 42 26 fb 9d 3a 3e 0a 1d 3a
       0.028716234 40.039845 0.0012052997 0.0005990601
000020 6a f3 52 3f 5e e1 26 3a 32 f7 85 3a 5d a4 9c 3f
       0.8240267 0.000636598 0.0010220765 1.223766
000030 03 1f 98 3a 54 eb f0 3a 40 9e e7 3f 3f 4e 47 3b
       0.0011605922 0.001838068 1.8095169 0.0030411629
000040 6c ca 16 3b d6 94 28 40 42 af 03 37 13 f1 af 37
       0.0023008836 2.6340842 7.849014e-06 2.0973885e-05
000050 b8 36 a6 3b 06 74 b5 3c 9b 92 1b 3c e1 c6 4f 41
       0.005072441 0.02215005 0.009495403 12.986054
000060 85 6c b1 35 4a e9 d3 35 aa ed 63 3a 9d eb 7b 3b
       1.3219111e-06 1.5788621e-06 0.00086947775 0.0038439997
000070 10 22 49 3b 73 a1 72 40 a0 e7 c7 3b b8 50 00 3b
       0.003069047 3.791104 0.00610061 0.0019579362
000080 e8 77 27 40 d8 8e 7c 32 15 2c a0 32 7d 5d 91 37
       2.6166935 1.47008095e-08 1.8646498e-08 1.732888e-05
000090 04 af b5 39 6f 10 95 3a 06 cc 8e 3e dd 3c b8 39
       0.00034653407 0.0011372695 0.27890033 0.00035140562
0000a0 30 c1 5d 39 1f 10 df 3e e7 c3 0e 3b 92 0e 3b 3b
       0.0002114817 0.43566987 0.0021784247 0.002854262
0000b0 7a d0 ff 3f 6a 17 bb 37 c6 ac a4 38 dc 14 3c 3d
       1.9985497 2.230304e-05 7.852311e-05 0.04591833
0000c0 50 6c 38 3c d6 8d da 3b 1d da 0c 41 25 cb be 3b
       0.011256292 0.00666974 8.80325 0.0058225566
0000d0 fc 0c a0 3b 29 c2 bd 40 13 1a b7 38 d0 e3 aa 38
       0.0048843604 5.929951 8.730977e-05 8.148665e-05
0000e0 75 eb 71 3d 0d e1 a4 3c 57 de 08 3c d2 75 4c 41
       0.05906244 0.020126844 0.008353791 12.778765
0000f0 d7 0c 0f 34 6e e1 43 34 f3 89 e4 38 48 a0 0f 32
       1.3322584e-07 1.8242801e-07 0.00010897582 8.360139e-09
000100 90 50 29 31 57 e6 a1 36 d2 60 4d 2a f0 33 a2 29
       2.4638531e-09 4.824989e-06 1.8241249e-13 7.203255e-14
000110 67 ae 4c 2e 91 1c a5 3a 33 94 3a 3a b1 a9 40 3f
       4.653913e-11 0.0012597014 0.00071174203 0.7525893
000120 00 6f 2f 3a c4 0b a7 39 b4 73 8e 3e 93 9f 70 3c
       0.00066922605 0.00031861488 0.2782265 0.014686483
000130 ce ce d5 3b 8b 60 25 41 be 3d 0a 3c 4c 7f 83 3b
       0.006524897 10.33607 0.008437572 0.0040129777
000140 4f 0a d7 40 f1 42 4c 3b 47 d6 6b 3b 4d b3 a6 40
       6.7200084 0.003116783 0.0035985874 5.2093873
000150 0c eb 29 37 a0 ad 0d 38 25 be e8 3b e8 cc eb 3b
       1.0127911e-05 3.377872e-05 0.007102745 0.0071960576
000160 2f 78 a5 3b e6 70 c3 40 ae 15 43 3a 2c 37 0b 3a
       0.0050497274 6.1075315 0.000744189 0.00053106504
000170 e4 5f 1e 3f 93 8f a8 3a 51 cf 05 3a a8 d7 17 3f
       0.6186507 0.0012860171 0.000510444 0.5931344
000180 da ac 6d 3a 29 aa 59 3a e5 8e 06 3f d8 db 84 38
       0.00090665894 0.0008303249 0.5256179 6.3351996e-05
000190 0a 5b d1 38 63 47 5a 3d 6a 9b 5e 3a c3 ac e7 39
       9.982854e-05 0.053290736 0.00084917864 0.0004418847
0001a0 7c 7e ee 3e af e5 1d 2c 66 9d 7c 2b f5 af 2b 31
       0.46580875 2.2438542e-12 8.974682e-13 2.4983795e-09
0001b0 63 b4 a4 30 c1 80 ef 30 f0 97 4e 35 59 9d f1 39
       1.198384e-09 1.7426133e-09 7.696208e-07 0.00046084335
0001c0 bc 80 86 39 48 b9 7b 3e 4e 84 3e 39 38 77 70 39
       0.00025654386 0.24582398 0.000181691 0.00022932596
0001d0 2e 6c 2b 3e 82 0b e7 3a 3e 59 f5 3a bd 8a ac 3f
       0.16740486 0.0017627331 0.0018718613 1.347984
0001e0 af 76 91 39 92 51 6f 39 64 de 3c 3e 0a 17 4a 37
       0.0002774498 0.00022823203 0.1844421 1.2045502e-05
0001f0 c7 45 fb 38 84 c6 9f 3d 06 66 85 33 21 95 2c 33
       0.0001198161 0.07801536 6.211853e-08 4.0182503e-08
000200 15 70 03 38 66 16 f7 3c bc 57 59 3c 08 8d a7 41
       3.133722e-05 0.030162048 0.013265546 20.943863
000210 90 7b ff 3b 7e 4f bb 3b 84 5f c0 40 bf fb 26 3a
       0.007796712 0.0057162633 6.0116596 0.00063699106
000220 c0 6e 0b 39 c3 62 3c 3e 40 40 9b 37 66 86 83 37
       0.0001329733 0.1839705 1.8507359e-05 1.5679001e-05
000230 95 ee 8c 3a 8b 40 ea 3c 25 d5 ac 3c d1 60 cf 41
       0.0010752255 0.02859523 0.021097729 25.922274
000240 c7 7c 51 3c 71 fc a6 3b 1f 56 06 41 32 fe 8b 3b
       0.012786097 0.0050960113 8.396026 0.004272246
000250 ca ce 0f 3b af 31 61 40
       0.0021943324 3.5186574

exp_avg f4 [50]
000000 22 b2 92 3a 4c da 6d bb 9e a7 0e 3a 19 23 20 3b
       0.0011192004 -0.0036293445 0.0005441847 0.0024434982
000010 bc 87 46 3a 8a e8 7e ba 58 89 f6 38 ab f7 65 3a
       0.00075733266 -0.0009723982 0.00011755776 0.0008772562
000020 39 da 0b 38 2c 19 04 3b 3e 63 eb ba be ad a6 b5
       3.334342e-05 0.0020156605 -0.0017958654 -1.2418529e-06
000030 f7 1f 8f b9 03 66 e4 ba 7a 13 8e b6 c9 f5 35 39
       -0.000272989 -0.0017425421 -4.234197e-06 0.00017353067
000040 e1 c1 51 3b 37 59 44 39 35 a1 bc b9 4b 3e 01 3b
       0.003200643 0.00018725252 -0.00035978263 0.0019720967
000050 2b 82 a2 b7 51 e0 4d 36 1d cf b5 b1 70 90 aa 3a
       -1.937252e-05 3.067795e-06 -5.2913394e-09 0.0013013016
000060 0d 80 8d 39 6c c1 1d 3a d0 86 8c 3a 9b 32 17 3b
       0.0002698902 0.0006017897 0.001072133 0.0023070935
000070 1c a3 3f b9 91 42 09 3b 5d 86 9f ba 71 95 1d 39
       -0.00018275942 0.0020944218 -0.0012170781 0.00015028358
000080 9e a5 a0 b9 53 e9 84 b9 28 00 11 38 92 54 a3 32
       -0.00030640973 -0.00025350842 3.457084e-05 1.9014156e-08
000090 fe 9a ac b3 96 d8 94 b9 4a 70 0e 37 3d 36 26 b9
       -8.037567e-08 -0.0002839013 8.490004e-06 -0.00015851199
0000a0 9e 15 c8 b9 c1 50 9a b9 a8 36 8d b5 ed 6e 70 bb
       -0.0003816308 -0.00029433335 -1.0521226e-06 -0.003668721
0000b0 a5 e5 eb 3a 8f a6 10 ba 42 ff ed 38 41 55 8c 3b
       0.0017997517 -0.0005517983 0.00011348586 0.004282624
0000c0 11 a4 03 3b d8 9a 8e 3a
       0.0020086805 0.0010879887

exp_avg_sq f4 [50]
000000 5c 24 7d 3a d5 89 dc 3d e1 1f 20 3b cb a3 55 3b
       0.0009656602 0.10768477 0.0024433064 0.003259885
000010 cd d9 a1 3b b4 af eb 3b 38 bd 8a 37 da 08 11 3d
       0.004939294 0.0071925763 1.6538994e-05 0.035408832
000020 5e ab 42 36 27 c4 28 3c 44 d9 e8 3b 53 d7 7e 33
       2.9008002e-06 0.010300673 0.007105978 5.933482e-08
000030 94 08 50 3a 57 c3 a0 3a 8f f6 ae 3b 59 83 09 39
       0.00079358486 0.0012265247 0.0053394507 0.00013114269
000040 fb 6b bf 3c 3d fa 88 3c f6 30 3f 39 64 42 0d 3d
       0.023366919 0.016720885 0.00018233419 0.034487143
000050 03 58 cb 34 1c e1 89 32 e3 5a 49 2a dd fe 0a 3b
       3.7875733e-07 1.6051267e-08 1.7883919e-13 0.002120904
000060 76 c2 58 3a ed cc e3 3c 24 a4 99 3c 6b ef 5e 3c
       0.0008268723 0.027807677 0.018755026 0.013606886
000070 60 0b cc 37 8c c9 88 3c c6 11 de 3a eb af d4 3a
       2.4323992e-05 0.016697668 0.0016942553 0.0016226744
000080 0b aa d5 3a ab d4 32 39 b9 19 a0 3a c1 35 25 2d
       0.0016301287 0.00017054628 0.0012214697 9.3911e-12
000090 bb 73 43 31 92 57 3b 3a f3 69 02 3a 8e 70 6b 3b
       2.844202e-09 0.0007146533 0.0004974894 0.0035925242
0000a0 00 91 08 3a 87 b2 5c 39 67 8b e7 33 9c fd 6b 3d
       0.0005209595 0.00021047342 1.0782133e-07 0.057614908
0000b0 8c aa 86 3c 25 1b 10 3a e6 aa 69 36 64 a7 90 3d
       0.016438745 0.0005497209 3.4819182e-06 0.07063177
0000c0 0c 4e b9 3c dc ca 1b 3c
       0.022620223 0.009508815
