finished_models/model_many_Re/model.ckpt-30000.pt (torch, 107751 bytes, 30 tensors)

linears.0.weight f4 [50, 3]
00000000: 932e 533e 08da 8b3d 762f 123d 5fa8 ddbc
00000010: 534f 33bf aa03 0b3c e92e 18be 56b3 14be
00000020: 04dd 803d 5970 043c cf00 5dbd f3fd f83c
00000030: a5f5 b0bd 07fb 13bf 0925 e83a 90ca 183f
00000040: 3bb3 2b3d cb01 c1bc 9140 8d3d 0b6a 073f
00000050: 9020 fabd c846 193f 0537 86bd abe7 81bc
00000060: 0d48 a3bd a966 d5be b147 a4bd 0322 4ebe
00000070: f97a c93d 21df e03c 4a0c e83e 0066 78bf
00000080: 496e b53c a4cf c73e 7e16 0bbf 8dbf 30be
00000090: 7fa3 b83f 0b99 13be b33f 6a3d 021f 3b3f
000000a0: 25e5 e73e 1387 363d 3cf1 5a3f 4f50 533d
000000b0: fee5 163c 12e4 b23e ae5e 15bf e289 2abd
000000c0: 6883 c13e c42b ac3e d82c 393c 0ca5 803f
000000d0: 9126 153d 9eee 953d c9cf c93d a765 7b3d
000000e0: 417b d8bd b779 023e fc4e c9bf 6219 73bc
000000f0: 26f3 1bbf 2496 a23e 79cf 16be 60db 073e
00000100: 1c1e 5dbf e846 10be 7429 1e3e 9c48 e93e
00000110: 4499 133f 055b 6abe c8ff 903e 38ee 4b3c
00000120: 9b89 813d 9714 773c 6239 da3c 82ac 94bd
00000130: 139f e9bf dd8c 67b8 cfee 36bf 87c9 dcbf
00000140: 2259 dabc d39a 013f ecc5 e93e fbef 693c
00000150: ac69 673f 3711 3ebf d377 e83d 248a c83c
00000160: 56c2 0b3e e67b 073d fc4a 423e 40cd b13d
00000170: f5f1 08bd dde0 9f3d 5869 9fbf 3cbd 44bd
00000180: a5af 943e d0e4 88bf 18ab e73d 5114 153f
00000190: 2e6d 52be 812b a93d 202a 4f3f 7d7d a23e
000001a0: 0195 fd3c 06d4 f33d 3f62 28bf f5bd 8ebe
000001b0: f0c3 973d b94e 803d dcaf 133f 323a 46bf
000001c0: eece a5bf b51a 82bd 2ff7 c7be 3cad e53c
000001d0: d0b0 a1bd ab9a 6dbc 0368 5bbd 0d1f 0b3c
000001e0: 2a86 553e 4b1c 1b3e e6fd 4abd 4e21 623f
000001f0: 6247 a93e 243f 3f3c eb33 323e a4d4 8a3f
00000200: 2c65 dd3d 5a2c 85be 2469 b1bf 27d9 c13c
00000210: c079 ec3e 9eea e3bd c740 373d d44b 383e
00000220: 086d 143e 988f 6fbd 3d22 003f 738a 6abf
00000230: 88bb 4c3e 3e98 1e3e da73 7c3f 0240 15bd
00000240: b96b 1a3e 5aac c0bf 2ce5 72bc 5840 fabe
00000250: c763 a63e 4c57 45b9
0.20623235 0.068286955 0.035689794 -0.027057825 -0.70042914 0.00848476 -0.14861645 -0.14521536
0.062921554 0.008083426 -0.05395585 0.03039453 -0.08640603 -0.5780491 0.0017711233 0.59684086
0.041918974 -0.023560425 0.06897081 0.52896184 -0.12213242 0.5987363 -0.06553463 -0.015857538
-0.07972727 -0.41679886 -0.080214866 -0.20130162 0.09837908 0.027450146 0.45321876 -0.9703064
0.022147315 0.39025605 -0.54331195 -0.17260571 1.4424895 -0.1441385 0.057189655 0.7309419
0.4529201 0.04456241 0.85524344 0.05159026 0.009210108 0.3493963 -0.58347595 -0.0416354
0.37795568 0.3362714 0.0113021955 1.0050368 0.036413733 0.07320903 0.09854085 0.06137624
-0.10570384 0.12741743 -1.5727229 -0.014837595 -0.6091789 0.31755173 -0.14727582 0.13267279
-0.8637407 -0.14089549 0.154455 0.4556321 0.5765574 -0.22886284 0.28320146 0.0124469325
0.06325074 0.015080593 0.02663869 -0.07259466 -1.8251671 -5.520588e-05 -0.71458143 -1.7249001
-0.02665383 0.5062687 0.45658815 0.014278407 0.9039562 -0.7424502 0.1135098 0.024479933
0.13648352 0.033077143 0.18973917 0.086817265 -0.033433873 0.07806561 -1.2454023 -0.04803203
0.29040256 -1.0694828 0.113119304 0.58234125 -0.20549461 0.08260251 0.8092365 0.31736365
0.03095484 0.11905675 -0.6577491 -0.278793 0.07410419 0.06265015 0.57690215 -0.7743255
-1.2953775 -0.0635275 -0.39055774 0.028036706 -0.078950524 -0.014502208 -0.05356599 0.00849129
0.20851961 0.15147512 -0.049558543 0.8833207 0.33062273 0.011672769 0.17402618 1.0846143
0.10810313 -0.260104 -1.3860211 0.023663117 0.46186638 -0.11128734 0.04473951 0.17997676
0.14494717 -0.05848655 0.50052243 -0.91617507 0.19993412 0.15487763 0.98614275 -0.036437996
0.15080155 -1.5052598 -0.014825147 -0.48877215 0.32498 -0.00018819905

linears.0.bias f4 [50]
00000000: 224c 3f3d de5a 133e 1d2d 59be 00da aebd
00000010: 9f1c d83d 1978 ee3d c924 4c3e 604b c13d
00000020: cec6 1a3d aecf 72bd f235 ae3e a6a4 e43c
00000030: cb44 ca3e 97a4 a2bd 37a9 3a3e 7b06 613e
00000040: cdf9 53bd 236d b5be 7c75 ccbd b7dc ef3c
00000050: 0838 ffbd 5a99 763d 55b9 b03e 1541 83be
00000060: 2e9d 9dbd e40b ae3d 48e7 043e d254 48bd
00000070: b2dd a9bd 2c10 dabe 6251 8e3e 613c 6d3d
00000080: 0def 1dbc 92c8 95be 7f7a 81bc c40d a73d
00000090: 1edd c23e 22db b0bd a547 14bc a7bc 9dbd
000000a0: 52a8 c6bc 395f 043e 106e b4be 05d1 803e
000000b0: cc31 49bc bf0c 373d 4c91 02bf 7a0c 61be
000000c0: 36a7 603c b75b 2dbe
0.046703465 0.14390132 -0.21208616 -0.08537674 0.10552334 0.116440006 0.19935907 0.09438205
0.03778725 -0.05928009 0.34025532 0.027910542 0.3950561 -0.07941549 0.18228613 0.21975128
-0.0517519 -0.35434827 -0.09983346 0.02928005 -0.12461859 0.06020484 0.34516397 -0.2563559
-0.07695995 0.08498362 0.12978852 -0.048909016 -0.08294238 -0.42590463 0.27796465 0.05791891
-0.009639514 -0.29254586 -0.015805481 0.081569225 0.38059324 -0.08635546 -0.0090502845 -0.07701998
-0.024250183 0.1292695 -0.3524022 0.2515947 -0.012279939 0.04468989 -0.51002955 -0.21977416
0.013711741 -0.16929518

linears.1.weight f4 [50, 50]
00000000: 8189 553e 3de7 36bf b680 34be ad4d de3d
00000010: ddca e4be 6315 0e3e 52d6 023e 7927 a0bd
00000020: 6474 dd3d fccd ae3d e72e 2dbf e928 483e
00000030: e67c 26be 4e05 f43d c7b1 17be e16b 88bd
00000040: b83f df3e aa9e 9cbc 3a21 4c3e 6e3b 0bbe
00000050: 9b70 39bc 368a 373d 1a4e 10bc b7ec 013f
00000060: a52d 21be e07e abbe 7c8c f4be af36 0b3f
00000070: d5ea 9fbd e004 f43d 4478 b43d e174 92bd
00000080: 6d11 7d3d 86b7 b63d 49b4 ed3e 95e3 87bd
00000090: 2528 513d 83fd 3b3d e839 9ebe 1c2e 923e
000000a0: 1a1d 213e a4cf 373e a36e f0bd b047 11bf
000000b0: 6046 babd 9d82 cc3d dacd 13be 3581 8d3e
000000c0: 18dd 69be e380 a83d 2c49 3d3e 3ce0 12bf
000000d0: cede a0be 30f9 c33e 3a9d cd3d 3641 903d
000000e0: 5dfa a6bd 564a 4c3e 14f5 0abd f206 be3d
000000f0: b35c 35be c479 b03c 8a51 683e 527f 04bd
00000100: 4570 933e 7ad3 5fbd 3b47 233e 55ea 993d
00000110: 2e59 8d3d a166 073d 96b6 55be 308c 98bd
00000120: 83fe 333e 0118 cabc 137d c93e 1c0f 86bd
00000130: b1f3 86be db01 3e3e 13aa f2bd 02f2 183d
00000140: 1413 0fbd 961f d63d a4d1 8cbe 82fc 6cbc
00000150: acf6 053e 5c76 96be 89cb 91bc 2fc0 133d
00000160: eaff 03be 8d84 4ebe 2a4a cd3d f591 8f3e
00000170: ffde 04bc 9707 a2bd c319 243e 1640 03bc
00000180: 0f73 a8be 7403 853d 9de1 bd3e 1ce2 1f3c
00000190: c426 4dbe 8452 8dbc 302d afbc 92be c63d
000001a0: 4401 6d3d 1aaa a8bd e48a 81be 42f4 dcbd
000001b0: 01ff 34bd 9439 01be d469 4f3e 71b6 82be
000001c0: 47b3 59be e98b b93d 7dec e5bd 4def f43b
000001d0: 0bd1 46bd e21e 16bd b259 0a3d 30ab 23be
000001e0: 96b1 07be 9681 85bd 4c1e a0bd c689 f1bc
000001f0: 4565 5d3e f5e4 b1bb 09d3 f93b 96e8 d2bd
00000200: 1f2a 93bd 46df d23c ce4b 9e3e fc74 c83d
00000210: 785d 4abe 79f5 92bd 5fa5 7fbd a107 2abd
00000220: b6f4 4dbe 0869 bcbd 2278 54be c2e2 b53d
00000230: bb75 223d 0c31 8b3d 9e3f af3b e450 e73d
00000240: 878a b2ba 12b0 b13c 140f 12be 533c 85bd
00000250: 6505 0bbe 0536 fa3c 5595 edba d5b9 8ebd
00000260: 727a 93bd 8756 87be fe9d 563e a33e ecbc
00000270: 1b2b 71be aa19 d93c 6d29 8c3e 1424 9abd
00000280: 94ad 933d 5b72 143b 6801 81be c637 a1ba
00000290: 29f3 01be f79a 4dbe 6713 eabb f088 5dbe
000002a0: 4b59 fd3d 3d6a a4be 3417 203c 6328 003d
000002b0: f120 34be 7c36 633c e54b 033e 23eb cabc
000002c0: ad73 32be 071b 81be 92fd eebd 7a3a 4cbd
000002d0: c7a9 cbbd c063 8bbe 8c20 0e3e 4fe1 573e
000002e0: 2dbf 5fbb 64c8 40bd afc3 b4be adb0 95bd
000002f0: 1319 293e a236 403d 332c 1f3e 5ab4 e4bd
00000300: ce90 38bd b277 f83d 2171 16be 0f63 59bd
00000310: 6dc9 043c c24d 97bd 5556 1abe c75f 1bbc
00000320: 75a7 6e3d 5d25 b33e 816a 67bc 6900 9fbd
00000330: cf21 983d ffb5 9d3d 1519 373e 0cfd 5d3e
00000340: 85bb 5cbd cec3 863d d338 2c3e cc0d 033d
00000350: e377 d53d 71a1 593d c080 6f3d def0 9bbd
00000360: 8210 b7bd 6611 3ebd 7589 163e 8155 1dbe
00000370: c0fc 7abe 6043 87bd 9f7b b03d 55e9 51be
00000380: 5d36 13be 9b73 4ebe aec7 193e 02fa 49be
00000390: b983 83bb 3a87 3cbe 1bcd 463e 1e6a 62bd
000003a0: 2f0d 663e 27c5 0cbd fb99 863d dae3 8c3c
000003b0: 18e9 bd3d aadb 033e 9b32 033d 4354 233e
000003c0: 9236 a2bc 5f41 7d3e 879f a8bc f236 df3d
000003d0: 124c 18bd 0a85 223c 3997 713d 3e1b c0be
000003e0: 5ae9 83be 4fbf 61be 6002 4dbe 9611 7fbd
000003f0: 7362 253e ef26 5abd 7d77 7bbe 482b 59be
0.20853235 -0.7144659 -0.17627224 0.10854659 -0.44686022 0.13875346 0.12777069 -0.07820029
0.108132154 0.08535382 -0.6764969 0.19546856 -0.16258582 0.11915074 -0.1481391 -0.06661201
0.436033 -0.019118626 0.1993455 -0.1359689 -0.011318351 0.044809543 -0.008807683 0.50751823
-0.15740068 -0.33495235 -0.4776343 0.54380316 -0.078084625 0.11914992 0.08812001 -0.07151199
0.061784197 0.08921723 0.4642661 -0.06635205 0.051063675 0.045896064 -0.30903554 0.28550804
0.15733758 0.17950302 -0.11739852 -0.5675001 -0.09095454 0.0998585 -0.14433995 0.2763764
-0.22838247 0.08227708 0.18484944 -0.57373405 -0.31419986 0.38276052 0.10039754 0.07043688
-0.08153222 0.19950232 -0.03392513 0.092786685 -0.17711143 0.021542437 0.22687355 -0.032347985
0.28796592 -0.05464504 0.15945141 0.075153984 0.06901775 0.03305686 -0.20870432 -0.07448614
0.17577557 -0.02466965 0.39353237 -0.06545851 -0.26357797 0.18555395 -0.11848845 0.03734017
-0.034930304 0.10455243 -0.27503693 -0.014464499 0.13082379 -0.29387176 -0.017797248 0.036071952
-0.12890592 -0.20167752 0.10023911 0.28041044 -0.008109807 -0.07911604 0.16025452 -0.008010885
-0.32900283 0.06494799 0.37086192 0.0097584985 -0.20034319 -0.01725126 -0.021383852 0.09704317
0.057862535 -0.08235569 -0.25301278 -0.10788776 -0.044188503 -0.1261962 0.20255214 -0.25529817
-0.21259795 0.09059889 -0.11226747 0.007474816 -0.048539203 -0.036650546 0.033776946 -0.15983272
-0.13251337 -0.06518857 -0.07818279 -0.02948464 0.21620663 -0.005428905 0.0076240343 -0.102982685
-0.07185768 0.02574123 0.3091721 0.09787938 -0.19762218 -0.071757264 -0.06241357 -0.04151118
-0.20112881 -0.091997206 -0.20748952 0.08881141 0.039663058 0.06796464 0.00534816 0.112947255
-0.0013621607 0.021690402 -0.14263564 -0.065056466 -0.13576277 0.030543337 -0.001812617 -0.069690384
-0.07201089 -0.26433203 0.20958707 -0.028838461 -0.235516 0.026501495 0.27375355 -0.075264126
0.07210842 0.002265117 -0.25196385 -0.0012299947 -0.12690414 -0.20078646 -0.007143426 -0.21634269
0.12370547 -0.32112303 0.009771157 0.031288516 -0.17590691 0.013867971 0.1282192 -0.024770325
-0.1742694 -0.25215933 -0.116694584 -0.049860455 -0.09944492 -0.2722454 0.13879603 0.21082042
-0.003414105 -0.047066107 -0.35305545 -0.07309089 0.16513471 0.046927102 0.15544204 -0.11167212
-0.04505997 0.12132205 -0.14691593 -0.053072985 0.008104664 -0.07387878 -0.15071996 -0.009483284
0.05826517 0.34989443 -0.014124514 -0.0776375 0.074283235 0.077007286 0.17880662 0.21678561
-0.05388977 0.065803155 0.16818552 0.03199558 0.10423257 0.05313248 0.058472395 -0.07614301
-0.089386955 -0.04640331 0.14700873 -0.15364648 -0.24510479 -0.06604648 0.08617329 -0.20499165
-0.14376207 -0.20161287 0.15017578 -0.19724277 -0.0040135053 -0.1841096 0.19414179 -0.055276982
0.22465967 -0.034367707 0.06572338 0.017198492 0.09272975 0.12876764 0.032030683 0.15950112
-0.019801412 0.24731968 -0.020583881 0.10899152 -0.03718192 0.009919414 0.058982108 -0.37520784
-0.2576397 -0.22045635 -0.20020437 -0.06227263 0.16150837 -0.053259786 -0.245573 -0.21207917

linears.1.bias f4 [50]
00000000: d78c 98bd cd76 63bc 0718 c03c 8427 95bc
00000010: edfd 18bc c5df bfbd a633 0d3d e460 07bd
00000020: 6448 3a3c a122 7fbd 9d94 0ebc 1443 353c
00000030: 8e78 83bd ecea bcbc 8daa 043d dbd8 023c
00000040: 9db9 b73c 8fcb 213d 8bc8 383d 261f 28ba
00000050: 5edd 1abe 38f1 38bd 8bfb 82bd 437a 89bc
00000060: c080 2ebd 712f 363d 7565 85ba 5a70 59bd
00000070: db15 bcbc 4bdb a33c 9684 293e 2278 c53c
00000080: 79d2 a53d 7ae2 fd3c d0c7 2b3c 2e68 833c
00000090: 2e7a 1c3c ff0d d63d 5c4e aebb 467a bebb
000000a0: 29ed 9a3d 4957 96bc 943d 463c 0dc5 f4bb
000000b0: e761 413d c856 5a3b cb49 96bd d87f 353c
000000c0: 8333 c6bb bc2a e33c
-0.07448738 -0.013883305 0.023448957 -0.01820732 -0.009337884 -0.093688525 0.034473084 -0.033051386
0.011369798 -0.062288884 -0.008702424 0.011063356 -0.06419478 -0.023061238 0.032389212 0.007986273
0.022427374 0.03950077 0.045113128 -0.0006413333 -0.15123507 -0.04515192 -0.06395634 -0.016781932
-0.042603254 0.044478837 -0.0010177331 -0.053085662 -0.02295964 0.020002028 0.16554484 0.024105135
0.08096785 0.030991782 0.010484651 0.016040888 0.009550614 0.10451888 -0.0053193998 -0.005812916
0.07564766 -0.018352168 0.012099642 -0.0074697793 0.047212508 0.0033315886 -0.07338294 0.011077844
-0.006048621 0.027730338

linears.2.weight f4 [50, 50]
00000000: 6aa5 913e 706f 423d cb11 fc3b c1b9 5fbc
00000010: 8593 72bd 744c 9dbd eb55 e2bd ebe3 213e
00000020: b7dd 2c3d 416d fabd 37e9 a63e f71c e8bd
00000030: 3774 3fbe 7fb9 673c 8203 4b3d bb79 ddbd
00000040: 6faa 0ebc f1c1 66b9 62de 8cbb 986b 2fbe
00000050: 5a2d 6bbe 56dd ce3c 65a5 6f3d a676 99bc
00000060: d3a7 5b3e 558b a33e 2205 90bd 1761 6bbe
00000070: 66fd ddbb 10f9 273c 4e39 09be 5f50 043e
00000080: 310b 253b 66cc 173c f962 97bd e807 88be
00000090: 7880 463e de0b 34be 292e dcbe a972 bdbd
000000a0: 943c 6bbe fd84 b23e fcff 043e bfa1 863d
000000b0: 4a1b d4bd baf3 06be a5e8 05be d829 903d
000000c0: 8080 703e 1b45 95bd 32a6 033e 2280 c5bd
000000d0: 0ccc c4bd 3b28 593e b8f5 b43d 0954 1c3e
000000e0: e3ee c9be 637a b73e 88fd e6bc 4d65 0c3e
000000f0: 5494 d73e 6ebf 74bc dd9b 2dbd 4a28 013e
00000100: fad6 743e b371 163e faeb 1abd c768 6f3e
00000110: 954c 2cbd f6c9 b2bd 8737 5b3b 58c4 973e
00000120: 9216 143e e5ef c53e d3aa 10be 221e 3ebe
00000130: 6008 23be 89ce 483e eca5 c13e 3271 74bd
00000140: fbbe bcbd 2738 d0bc 34ab e9bc 07ba 96be
00000150: b97a 733e bc6d 8fbe 77be b3bd 0259 50be
00000160: 32b6 74bc 704f 263e 76aa 8d3d a156 b43e
00000170: 4b6f c7be 69b0 fa3d 2e5d f9bd 6e9d 82be
00000180: c994 d93c 5336 663e 72b5 9a3d 6c92 7c3e
00000190: cae2 033e a25e 2d3e 68dd 003e 4d83 0ebd
000001a0: 5860 fbbc e717 533e c1b0 21bc c962 92be
000001b0: 2233 13bd 51f7 e13d 4201 37be a5c6 d7bc
000001c0: 9e2f 0d3e d879 c73c 5d63 51be 57a6 133c
000001d0: 7c8c 55bd c8b8 17be 8434 cebe 7504 413e
000001e0: ab75 463e bca0 a5bc 9f6e 18be 547f bdbd
000001f0: 85d5 cb3d f200 bebe d1fa 4bbc be3c debd
00000200: cfdb a2bd 5fc4 413e b361 16be fa70 a5bd
00000210: c9fb 0f3d 9be3 70bd 072b f7bd 933c 603d
00000220: 5a14 a63e 867b 59bb 6bf5 513e e28b 26be
00000230: 27a9 21be 9134 833c fbf0 163e 27a4 5f3e
00000240: 348e 9bbd 13f4 9a3c 5e8a d7bd 1135 cd3d
00000250: 70f1 d1be 5b34 d53d 4e2c 0a3e 003a d83d
00000260: 9f5e f9bd 71ce f4bd e00b a53d 0def 673e
00000270: 81ff 0c3e f65d acbd 8748 013d 23a9 3cbe
00000280: 985a 02be 931a 1dbc 92f0 14be 6ebd 2e3e
00000290: 907b 24be c498 cdbe d24b 1fbe eed8 92be
000002a0: 6206 1dbe c7ce bcbd c806 0a3d 4ae1 dfbd
000002b0: 30fa f2bd 0c2e 04be ce9a 463e 473c bcbe
000002c0: 540f 583e 19a6 bc3d 27d5 1fbe b2f0 ccbd
000002d0: 9764 553d 415d bebe 3c0f 4ebe 0c8e 86be
000002e0: 2cf8 0c3d 3ba1 eb3d a589 84be 1571 c9be
000002f0: 333a b73e 0adb 01be 73e0 20be 14d7 4abc
00000300: aad0 7d3e 0e3c a7be e938 d8bd 39c4 a3be
00000310: 2a89 97be 4115 9f3d 4ba4 f9be 6b96 413d
00000320: 5c46 423e 32a9 893d 49d8 80be dc60 373e
00000330: dea6 24be 9c8f 6f3d 3f03 3b3d 25f4 bd3e
00000340: 2349 0b3e 34b9 81bd 7500 b33e 85f5 29bd
00000350: 2fa2 163e fad0 63be 1de9 11be 50d1 e6bd
00000360: 4f26 c63d ed99 37be 1552 40bd e20e 033e
00000370: 2655 08bd 061f 273e 90fe 873d ab39 433e
00000380: 01f6 463d 99aa 763e 378b a5bb fc36 a23c
00000390: f23f 41be feeb e6bc 3944 36be 180e 803e
000003a0: f679 8cbd 7e88 9e3d 9c08 aebd 2e10 3fbe
000003b0: 6aaf 8f3d 2e9e 103d a86f 58bd 9b7b 5dbd
000003c0: b42e 6c3a 498c 87be d4bf 7b3d 26b7 0a3e
000003d0: d162 bebd 3439 a4bc 3def 593e c455 82bd
000003e0: eb33 4cbe 263d 353e 11db 853d 1fed 5b3e
000003f0: 1887 a6be c1ed 6cbd c082 b2bd 2b65 22be
0.28446513 0.047469556 0.007692551 -0.013655127 -0.059222717 -0.07680598 -0.11051544 0.158096
0.04220363 -0.1222787 0.32599804 -0.113336496 -0.18696676 0.014143347 0.049563892 -0.10814234
-0.008707627 -0.00022006758 -0.004298971 -0.17130888 -0.22966519 0.025252026 0.058507342 -0.018733334
0.21450739 0.3194224 -0.07032229 -0.22986256 -0.006774592 0.010252252 -0.13400766 0.12921284
0.0025183673 0.009265041 -0.073919244 -0.26568532 0.19384944 -0.17582652 -0.43003967 -0.09250385
-0.22972327 0.34867087 0.12988275 0.06573819 -0.103567675 -0.13178912 -0.13077028 0.07039231
0.23486519 -0.072885714 0.12856367 -0.0964358 -0.09609231 0.21206753 0.0883593 0.15266432
-0.3944007 0.3583556 -0.028197065 0.13710518 0.42105353 -0.0149382185 -0.04238497 0.12613025
0.23910132 0.1469181 -0.0378227 0.23379813 -0.04206522 -0.08729927 0.0033449845 0.29641986
0.14461735 0.38659588 -0.14127664 -0.18566182 -0.15921164 0.19610037 0.378219 -0.059678264
-0.09216114 -0.0254174 -0.028524019 -0.29438803 0.23777284 -0.28013408 -0.08776563 -0.20346454
-0.014936017 0.1624124 0.069172785 0.35222343 -0.38952097 0.12240679 -0.12175976 -0.25510734
0.026560204 0.2248166 0.07554139 0.2466523 0.12879482 0.16930631 0.1258446 -0.034793187
-0.030685589 0.20614587 -0.009868802 -0.28590992 -0.035937436 0.110335 -0.17871574 -0.026339838
0.13787696 0.024350092 -0.2044806 0.0090118265 -0.05213593 -0.14816582 -0.4027444 0.18849356
0.19380824 -0.020218246 -0.14885949 -0.092528015 0.09952835 -0.37110096 -0.012449936 -0.108514294
-0.079520814 0.18922566 -0.14685707 -0.08078189 0.03515223 -0.05881081 -0.12068754 0.054745268
0.32437402 -0.0033185198 0.20503776 -0.16264299 -0.15787183 0.016016277 0.14740364 0.21839963
-0.075954825 0.018915212 -0.10524438 0.10019887 -0.41004515 0.10410377 0.13493463 0.105579376
-0.12176251 -0.11953438 0.080589056 0.22649784 0.13769342 -0.08416359 0.031563308 -0.18423896
-0.12729871 -0.009588855 -0.14544895 0.17064449 -0.1606276 -0.40155613 -0.15556267 -0.2868113
-0.15334466 -0.09219127 0.033697873 -0.10931642 -0.11864126 -0.1290819 0.19394991 -0.36764738
0.21099597 0.09211368 -0.15608655 -0.100068465 0.052097883 -0.37180522 -0.20122999 -0.26280248
0.034416363 0.11505362 -0.25886264 -0.39344087 0.3578659 -0.12681213 -0.1571062 -0.01238038
0.2478663 -0.32663006 -0.1055773 -0.31985644 -0.29596835 0.07767726 -0.48758158 0.04726259
0.18972152 0.067217246 -0.25165012 0.17908043 -0.1607928 0.058486566 0.045657393 0.3710033
0.13602118 -0.06334153 0.34961286 -0.04149391 0.14710306 -0.22247687 -0.14249082 -0.11270392
0.096752755 -0.17929812 -0.04695328 0.12798646 -0.03328433 0.16320428 0.06640351 0.19064967
0.04857445 0.24088515 -0.005051996 0.01980161 -0.1887205 -0.028188702 -0.17799462 0.25010753
-0.068592 0.077408776 -0.08497736 -0.18658516 0.070158795 0.035307102 -0.05284086 -0.054072957
0.0009009645 -0.26474217 0.06146224 0.13546428 -0.092961915 -0.020046808 0.21282668 -0.06364015
-0.1994168 0.17699108 0.06535924 0.21477173 -0.32524943 -0.057843927 -0.08716345 -0.15858905

linears.2.bias f4 [50]
00000000: 6400 b9ba 3260 bfbc 1934 473c 0f49 843c
00000010: e49d 02bd 1835 2cbd 2aa6 81bd 2efd 333e
00000020: 3c7c dbbc 5b97 1a3d a347 d3ba 0285 fe3c
00000030: bd76 343c 04c5 03bc 5825 633d d772 b2bc
00000040: d4d4 c9bd d398 24ba 084c dfbc 72c5 963c
00000050: 1e1f 963c 8cac 30bb 03b9 a6b8 ce0c a43b
00000060: 77b5 743d 6040 b3bc ffb2 303d f487 35bd
00000070: 3506 013e 9289 2abd 0e08 023c 2cef 043d
00000080: e68f 80bc 9bfe d5bc 6956 fc3b 6e22 653b
00000090: 3b31 8abc c8b0 0d3d be07 92bb 8ae6 b63c
000000a0: 101b 56bc 16c2 233d 4454 8dbc 0300 d8bc
000000b0: d778 13bd 26f8 a03b 3165 303c b649 ae3c
000000c0: 1691 053d c887 e1bb
-0.0014114496 -0.0233613 0.012158417 0.016148118 -0.031888857 -0.04204282 -0.063305214 0.17577049
-0.026792638 0.037742 -0.0016119372 0.031069282 0.011014638 -0.008042578 0.055455536 -0.021783276
-0.09855047 -0.0006278876 -0.027257934 0.018404696 0.018325385 -0.0026958315 -7.949958e-05 0.0050064093
0.05974337 -0.021881282 0.043139454 -0.044319108 0.12600024 -0.041635104 0.007936491 0.032454655
-0.015693616 -0.026122382 0.0077007306 0.0034963149 -0.016869178 0.03459242 -0.0044564893 0.022326726
-0.013067976 0.039980017 -0.017252095 -0.026367193 -0.036003914 0.004912394 0.010766313 0.021275382
0.032609068 -0.0068826415

linears.3.weight f4 [50, 50]
00000000: df74 653e 2f01 4b3d 18ed 033c aa94 ba3e
00000010: 4179 973e d940 473d 2061 a33d 604f aebc
00000020: f597 7ebe 7c01 72be 96b3 ce3c 2617 13be
00000030: 4383 5cbe 6d00 2b3d 1018 2ebe d1b9 2cbe
00000040: 96a2 a23d a7f4 223e 20d3 953e cae1 603d
00000050: d40f 6dbe b142 25be 7f5c 60bd 05f5 c93c
00000060: 9a98 f3bd 449d 5bbe ca64 033e b55a 07be
00000070: 333f edbd 472a 15be 9a6b 343e 45c3 a6bd
00000080: 0139 2d3d 7fb6 fa3c 94ba 9dbe 49e4 22be
00000090: 0095 37be 2d58 d83d 6d9d c33d cb82 733d
000000a0: 8616 b8bd 6d09 063e e0d6 6a3d d909 f43d
000000b0: aac5 b03c 5d14 12bd e97e 25be 9642 65bd
000000c0: 9a18 e0be 6e31 bcbb 9f2a e83d 1e25 373e
000000d0: 325c 58be 83de 1b3e fa43 a53d e58a 153e
000000e0: c112 48bd 896c 2dbe 7c61 dcbe 92e5 843e
000000f0: f11e 54be d8dc 14bd 1714 603c 5c32 9fbe
00000100: 88ae 9cbd 4265 0dbe dd2e c43d 9e5b 26be
00000110: 1338 7bbc d8fa 853e 59c9 fa39 cba8 e1bc
00000120: a05e 5e3e df2b 033d aced d43d bd59 373d
00000130: 972c 8abd 828f 5cbe c4e1 053d 1eaa bd3d
00000140: 08ab 2bbd f159 3a3e 6c71 81be b6ea 2fbe
00000150: 0f22 69be 3b94 2fbd fefa 8ebe bf8a aabd
00000160: ba43 333e 86fd a33e 9adc 5c3d cef6 20bc
00000170: c008 5e3e 5c95 303c 2531 773d fd7b d6bd
00000180: fcb5 183e 99c8 a1be c397 783d fbbc 4dbd
00000190: 45be 88bd c9ee b13e d650 f63d 3204 24be
000001a0: b67e d0bd 73fe 6bbc 579a da3c 0a0a c43d
000001b0: ad4d 39be ee12 dd3d f675 093e a99e 5e3d
000001c0: a049 3e3e 852e 103e d8d7 24bd 28e1 19be
000001d0: db0a cf3d 995a 04be 09f6 9bbd 6f2e a0ba
000001e0: 576f eb3d 5ddc 453e 46c2 393d 4ae4 303e
000001f0: 93a5 113d bbf4 12bd 0970 87bb efbb 033d
00000200: 8baa f03d 9d52 803e 0f59 6dbd cd70 6d3e
00000210: 3c0a 1dba 2d6a 13be 2656 0e3e 20e3 923d
00000220: f8f6 81bd 7099 5c3e 4202 0abe 44b5 f63d
00000230: 9653 873d ff96 04be a922 94bb 3c19 ecba
00000240: 0b25 fabd 2105 b93e ac97 983c ed51 8dbe
00000250: 8dff 283e 93c5 4cbb 2060 c6bd 50cb 5bbd
00000260: 5950 19be 9fc3 83bd 7cc8 0ebe ae21 b93d
00000270: dcc8 a83d a220 b93d bde6 1ebe b0b6 9c3c
00000280: 7582 16be ee02 06be 41ad 41be b054 2ebc
00000290: 2800 25be ebfc e7bd 706a 1c3e 0dc2 92bd
000002a0: c44c 3b3d 6cb8 4dbe 5b76 9cbe 8861 cebd
000002b0: 782e 953c 49d0 79be a379 21be 1a21 623e
000002c0: a4a8 be3d bbd2 5a3e 9c60 22bd 9e4a 08be
000002d0: 6639 0fbe 67b5 f83d 2c04 783e d641 f0bc
000002e0: b593 87be 64a5 433e ac6c 973d deec 223e
000002f0: e4b3 07bd 94e8 103e 26c8 2e3d eeeb 003d
00000300: 10f1 953d 5e13 593d 236d 2b3e 5c53 9c3e
00000310: d59b 47be 6f4e 26be dd25 63be 22fc d5bd
00000320: 5414 57be 6291 a0be 12a6 443d 018b e73d
00000330: 606f f8bc 31e2 a8bd 8460 9fbe a4e4 233e
00000340: 7c21 d93d cb70 1abd 9263 04be 12d8 acbc
00000350: 160b 533c 4971 bebd 6146 85be 7d03 283e
00000360: 819e 8dbc 0096 2a3e 4ea3 21bd daa8 343d
00000370: 0109 6c3e 22e0 5bbd a03e 053c 6a4f 353e
00000380: cefa 8b3d 50db be3e 17fd b93d 6f43 52be
00000390: 4341 59bd 57b9 fc3e 7847 de3c 166c 9b3e
000003a0: 06c9 a5be 4a09 9fbc d1bc 8fbe 3d42 153d
000003b0: 1091 f8bd 658d c23e d618 033d 5c30 a6be
000003c0: 6be6 31bd db72 fdbe adf8 eebc f7d1 6fbe
000003d0: c12b 123d cf67 043d fa6b 9e3d de7e b33d
000003e0: 8369 1cbe 5282 073e 6f4a c1bd aa4e 90be
000003f0: f387 8b3e 45c2 3a3e c487 a13d f7ca 243e
0.22407864 0.049561676 0.008052133 0.36441547 0.29584697 0.048645828 0.079775095 -0.021278083
-0.24862655 -0.23633379 0.025232118 -0.14364299 -0.21534447 0.041748453 -0.17001367 -0.16867758
0.07941167 0.1591364 0.29262638 0.05490283 -0.23150569 -0.16138722 -0.05477571 0.024652967
-0.11894341 -0.21446711 0.12831417 -0.13218196 -0.1158432 -0.14566909 0.17619172 -0.081427135
0.04229069 0.030604599 -0.3080641 -0.15907396 -0.17927933 0.10563693 0.09551511 0.059450906
-0.08988671 0.13089533 0.057333827 0.11915941 0.021578629 -0.03566395 -0.16161694 -0.055971704
-0.4376877 -0.005743197 0.11336254 0.17885253 -0.2112892 0.152216 0.08069606 0.14603765
-0.04884601 -0.16935934 -0.43043125 0.25956398 -0.20714928 -0.036343426 0.013676665 -0.3109311
-0.07650477 -0.13808158 0.09579251 -0.16245887 -0.015333193 0.2616794 0.00047833732 -0.027546307
0.21715784 0.03202426 0.10396895 0.044763315 -0.06746786 -0.21539119 0.03268601 0.09260963
-0.041911155 0.18198372 -0.25281847 -0.17179379 -0.22766899 -0.042865973 -0.27925867 -0.08327245
0.17506304 0.3202936 0.05392132 -0.009824468 0.21683025 0.010777798 0.060349602 -0.10472868
0.14913172 -0.31598356 0.060691606 -0.050229054 -0.06676916 0.3475249 0.12027137 -0.16017225
-0.10180418 -0.014403927 0.026684923 0.09572227 -0.18096037 0.10794626 0.13423905 0.05435053
0.18582773 0.14080246 -0.040244907 -0.15027297 0.101094924 -0.12925185 -0.07615287 -0.001222087
0.11495846 0.19322343 0.04535129 0.17274585 0.035558295 -0.035877924 -0.0041332287 0.03216165
0.117512785 0.2506303 -0.05794626 0.23187561 -0.00059906 -0.14395972 0.1390005 0.07172227
-0.06345934 0.21542907 -0.13477424 0.120462924 0.066077396 -0.12948225 -0.0045207334 -0.0018012892
-0.12214097 0.36136726 0.01862701 -0.27601567 0.16503735 -0.0031245693 -0.09686303 -0.05366069
-0.14972056 -0.06433796 -0.13943666 0.09039627 0.08241436 0.09039427 -0.15517707 0.019130081
-0.14698203 -0.13087055 -0.18913747 -0.010640308 -0.16113341 -0.11327537 0.15274978 -0.071659185
0.045727506 -0.20089883 -0.30559048 -0.10077196 0.018210635 -0.2439586 -0.15769057 0.2208294
0.093095094 0.2136945 -0.039642915 -0.13309714 -0.1398674 0.12143975 0.24220341 -0.029328268
-0.2647988 0.1910606 0.073937744 0.1591067 -0.03313054 0.14151222 0.042671345 0.031475
0.0732137 0.052996986 0.16740851 0.30532348 -0.19493039 -0.16240858 -0.22182412 -0.10448481
-0.21003848 -0.31360918 0.04800994 0.1130581 -0.030326545 -0.082462676 -0.31128323 0.16005188
0.1060209 -0.037705224 -0.12928608 -0.021099124 0.012881061 -0.09298951 -0.26030257 0.1640758
-0.017287495 0.16658783 -0.03946238 0.044106342 0.2305031 -0.053680547 0.008132607 0.17706075
0.068349466 0.37276697 0.09081476 -0.20533536 -0.053040754 0.49360153 0.027133688 0.303559
-0.3237993 -0.019413609 -0.28073743 0.036440123 -0.121370435 0.379985 0.032006107 -0.3245877
-0.043432634 -0.4950169 -0.029171312 -0.23419939 0.03568626 0.032325562 0.07735439 0.08764432
-0.15274625 0.13233307 -0.09438025 -0.28185016 0.2725216 0.1823817 0.07887223 0.1609305

linears.3.bias f4 [50]
00000000: 080d 7cbb 2172 e6bc 4beb 073d 69cb 953b
00000010: 53cf 413c d592 cabc b275 923d 5fc4 823c
00000020: db2f 983c 9756 463c 897f 8a3c 0e09 15bd
00000030: e737 e03c 5f82 73b9 63ff 2fbd f828 6fbd
00000040: f733 2f3d 9981 533d 603e e43c 18a3 0c3d
00000050: a08b 883d 7596 613d 7d96 5a3d eadf c33c
00000060: fa17 45bd 4747 833d c1ee 6c3d 6923 543c
00000070: 6560 1a3c b065 85bc 5cc1 9a3b d98d 413b
00000080: bd26 c93c eefb 0239 7a33 60bd 2db2 213d
00000090: 1e0f 793d da3f 3f3d 9c10 363d 7a76 c9bd
000000a0: 2c92 60bd a123 52bb 086e 853d 2df6 073d
000000b0: 3cb6 5abd ab72 0c3b ab06 d6bd a38b a93d
000000c0: 4614 50bd 8405 083d
-0.0038459916 -0.028130593 0.033183377 0.0045713675 0.011829215 -0.024728218 0.07151355 0.015962778
0.018577507 0.012105606 0.016906517 -0.03638559 0.027370406 -0.00023222853 -0.042968165 -0.05838868
0.042774167 0.051637266 0.027861774 0.034335226 0.06667256 0.055075128 0.053366173 0.023910481
-0.04811857 0.064100794 0.05784488 0.012947896 0.009422396 -0.01628384 0.0047227573 0.002953401
0.024554605 0.00012491617 -0.054736592 0.039476562 0.060805432 0.046691753 0.044449434 -0.09837051
-0.0548269 -0.0032064694 0.065151274 0.033193756 -0.05339645 0.0021430652 -0.104504906 0.08278587
-0.050800584 0.033208385

linears.4.weight f4 [3, 50]
00000000: 5740 ffbd a3eb a63e 168a 853e e65f 923d
00000010: be78 b83e 4c3a 8dbe e7b0 343e ca11 073e
00000020: f8db 243e bc97 d33e 59a1 633e 3657 91be
00000030: 3a22 fc3e 819f 083f c270 053f f26c 7fbe
00000040: 9a02 573e ffc1 853e 33ec d23e 82fb 7bbd
00000050: ad3c 31be 5c42 cdbe 2819 bb3e a808 1c3e
00000060: e36e 843e 6488 123f 5ecd 003e 6b77 68be
00000070: c8bf 8bbe 235f ab3e 0eea b9be 6d93 a83e
00000080: 3926 50be ab69 9c3e fdbb a73e d759 c3bd
00000090: b353 b23e 76d5 fbbe 3feb d7be 6c18 85bc
000000a0: 2deb a03e 4c72 05bf e30d 34be c882 6fbf
000000b0: 6ab0 3dbf 3264 94bd 5d8a adbe d9f5 513e
000000c0: 325d e33e be49 ab3e a551 3a3e 1f77 0ebd
000000d0: a645 6c3e 3b5d ad3e 88d7 16be 1ac0 a2be
000000e0: 87ee 503e bb4d 213f 0a58 0e3e 110a 2b3e
000000f0: 40f0 9a3e f0ce 063e 0cd2 dcbe 2a7e 863d
00000100: d486 78bd 7c4f 243e f4af aabe cac9 55be
00000110: 0a59 423e 0477 7e3e 1a79 9abd 33b5 c4bc
00000120: a835 42be 1893 b33d 19e7 9bbe 1f68 ba3d
00000130: 153f f4bd c9ac 5bbe cb31 5ebe 4829 0b3e
00000140: b2ef 8c3e 80cc a33e c4da 7cbc 07a0 e43e
00000150: f58c bf3d 67cf 88be 615c d33c 5564 013e
00000160: 7bf7 8e3d 42c0 ed3d a924 1dbd fe96 1cbc
00000170: 198a 653e be56 6dbc 7441 a03e f6f1 903e
00000180: 60b8 69bd 2b4a 053e e2a2 4d3d ac35 133e
00000190: 72e2 a83c 8d13 00bd 0ead cdbe d658 cd3d
000001a0: fe25 103f 897c 983e a5bb a2be 4eed 97be
000001b0: 2569 a8be 3180 b4be 77b0 933e 2004 8c3e
000001c0: 16bf e1bc 5de8 1bbe 4569 cd3d 8dd0 153f
000001d0: 6c6d 6dbe ffc5 87bf 4556 20bf 6388 eb3d
000001e0: 5c12 ddbe 7825 cbbe cecd 75bd 0caf f4be
000001f0: bbbf 633f 8441 dabd c086 09bf f0d6 81bd
00000200: 9182 00be 1310 b53b 17c2 463e d8ce 91be
00000210: ac26 6cbe 606e a13e d128 a63e d898 4dbc
00000220: 2ec6 cbbe 556c 6bbe 88a7 20bf 7896 b63e
00000230: e1b4 b43e ca25 9fbe ff4e 44bf e057 0fbf
00000240: 1257 60bd b3fb ca3d 37c6 95bd ce90 7abf
00000250: e8f7 a63e de64 09be
-0.12463444 0.32601652 0.26081914 0.071471974 0.3602962 -0.2758354 0.17645608 0.1319038
0.16099536 0.41326702 0.22229518 -0.2838685 0.49244863 0.53368384 0.5212518 -0.24943903
0.20997086 0.2612457 0.4119583 -0.061519153 -0.17308302 -0.4008969 0.3654263 0.15237677
0.2586585 0.57239366 0.12578341 -0.22701804 -0.27294755 0.3347102 -0.36311382 0.32924977
-0.20327081 0.30549368 0.3276061 -0.0953862 0.34829482 -0.49186295 -0.42171666 -0.016246997
0.31429425 -0.5212753 -0.17583422 -0.9355893 -0.7409731 -0.07245673 -0.33894625 0.2050394
0.4440704 0.33454698 0.18195207 -0.03478157 0.23073444 0.33860192 -0.14730656 -0.31787187
0.20403491 0.6300923 0.13900772 0.16703059 0.3026142 0.13164878 -0.43129003 0.06567033
-0.060675457 0.16045946 -0.33337367 -0.20877758 0.18979278 0.24850088 -0.075426295 -0.024012184
-0.1896578 0.0876829 -0.3044975 0.09101891 -0.119260944 -0.21452631 -0.21698682 0.13589966
0.27526623 0.3199196 -0.015433017 0.4465334 0.09353057 -0.26720735 0.025800886 0.1263593
0.06980797 0.11608936 -0.03836504 -0.009557484 0.22415961 -0.014486013 0.31299937 0.28309602
-0.0570606 0.13016574 0.050204165 0.14375943 0.02061579 -0.031268645 -0.40171093 0.1002671
0.5630797 0.29782513 -0.31783786 -0.29673237 -0.3289272 -0.35254052 0.2884557 0.27346897
-0.027556937 -0.15225358 0.10029844 0.5852135 -0.23186272 -1.0607299 -0.62631637 0.11500623
-0.4317807 -0.39677024 -0.060010724 -0.477898 0.8896443 -0.10657027 -0.5372124 -0.06339824
-0.12549807 0.005525598 0.19409977 -0.28478122 -0.23061627 0.31529522 0.32453015 -0.012548648
-0.39799637 -0.22990544 -0.6275563 0.35661674 0.3529425 -0.31083518 -0.7668304 -0.5599346
-0.054770537 0.09911289 -0.07313197 -0.97877204 0.32611012 -0.13417384

linears.4.bias f4 [3]
00000000: 8f55 dd3c ab29 2c3b 3d96 56bf
0.027018337 0.0026269953 -0.83822995

exp_avg f4 [50, 3]
00000000: 2010 29b8 dc8e bfb8 eeb1 8b3a 40eb 753a
00000010: 6500 493a a42a cf3c 9580 4e37 357f 82b9
00000020: 8d6c d0bb a070 c9b9 09cd 9fb9 3fc5 b8bb
00000030: 91ca 0e3a 1ca2 8639 be29 bc3b ad6f 2fb8
00000040: ab97 6837 d150 613b bfda 2436 cf40 2cb9
00000050: ae7f 0cbb 1caa 5939 5270 2639 4985 5f3c
00000060: 1c7a ccb7 7e6c 2836 ef38 1237 4bff a1b9
00000070: 44c3 07ba ea10 3dbc 00cd c139 fd2a bb39
00000080: 5e44 e13b 9948 cb35 cdfc c635 0d32 4d38
00000090: 9a7a 0b39 1376 dfb9 1417 9dbb 9a12 39b9
000000a0: e822 ed38 5e6c 6a3a 12bf 0e39 8794 abb9
000000b0: e053 a739 6c2b 0738 1e56 7db7 9267 783a
000000c0: d333 fdb9 9435 2bba 147c 3abc e997 cbb9
000000d0: 2b3d 80b8 f4fe ffba 15e5 6636 c7d4 5c38
000000e0: 1dcd 503a 62d1 4c39 45ab 16b9 ee1c 38bc
000000f0: 3f48 3a36 5fe7 5db7 20bb 58b8 172e e035
00000100: 7481 65b5 3d21 9438 24a4 082d 3ddc a5ac
00000110: 1025 fd2c 8a4b a5b9 423e 7cb9 0217 bfbb
00000120: b98f 97b7 ef03 9db8 9027 2abb 75c9 b639
00000130: e0f6 1eb9 a9ab fcbb b360 c739 dde7 53b9
00000140: a560 30bc 5333 2bba 6899 a6b8 7756 0ebb
00000150: 6fba a9b7 a87c 49b9 447b 25bb 2959 00ba
00000160: c8f7 2bba 511d 6fbc 2d92 df39 089a de39
00000170: 1afe 163c 7d51 6637 da02 01b8 0a89 61ba
00000180: 38c1 c439 eb3b 5239 fcba 733b 19f1 e938
00000190: 7704 8fb8 d03e c1b9 6d16 fdb9 9498 bfb8
000001a0: f14f e13a e0bd 6f33 d0e7 1032 3877 c233
000001b0: 4275 9e2b c4b4 372c e2a8 ecae 9e7a 1d38
000001c0: ad90 2fb8 e5b6 b5ba b937 ce38 9650 d8b8
000001d0: fd53 73ba 7b70 ad38 0f4f 0238 9ba9 043a
000001e0: 286d 4f37 4a5e a238 9bf4 283b fc04 38b8
000001f0: 5c9e 6ab8 c12e d839 182d 2ab6 24d7 4336
00000200: 4f79 4eb9 c0a7 7639 d50e 0d3a 10ed 813c
00000210: 17bd 1d38 281f 90b9 a627 cabb e236 eb38
00000220: ec5a 85b7 ca45 243a 5aef 8238 9176 a0b8
00000230: 0fe5 70ba b0b3 8aba c771 bcba ac99 01bd
00000240: 8018 0d39 5add cdb8 170f 13bc 8ac4 9fb8
00000250: 025c 20b7 bafe 15bc
-4.0307757e-05 -9.134199e-05 0.0010657886 0.0009381063 0.00076676003 0.025288887 1.2308495e-05 -0.0002489031
-0.0063605965 -0.0003842162 -0.00030479606 -0.005638748 0.0005447055 0.00025679253 0.0057422807 -4.1827258e-05
1.38635905e-05 0.0034380446 2.4565231e-06 -0.00016427341 -0.0021438408 0.00020758103 0.00015872836 0.0136426175
-2.4375557e-05 2.5097102e-06 8.715534e-06 -0.0003089852 -0.0005178938 -0.011539677 0.00036964566 0.00035699448
0.006874605 1.5145807e-06 1.4825724e-06 4.8922422e-05 0.00013301746 -0.00042621847 -0.004794011 -0.00017649904
0.000113075424 0.00089425396 0.00013613355 -0.00032726323 0.00031915214 3.2226948e-05 -1.5100026e-05 0.00094758824
-0.00048294532 -0.0006531116 -0.011382122 -0.0003883236 -6.114909e-05 -0.0019530938 3.4406014e-06 5.265025e-05
0.00079651346 0.00019532957 -0.00014368918 -0.011237366 2.7758213e-06 -1.3226497e-05 -5.1672687e-05 1.6702714e-06
-8.5497527e-07 7.063381e-05 7.7671515e-12 -4.7140334e-12 7.1948072e-12 -0.00031527533 -0.00024055786 -0.0058316
-1.8067529e-05 -7.487076e-05 -0.0025963522 0.00034863842 -0.00015160022 -0.007710893 0.00038028284 -0.00020208904
-0.010765229 -0.000653078 -7.944071e-05 -0.0021719018 -2.0233185e-05 -0.00019215292 -0.0025250474 -0.00048960984
-0.00065600546 -0.014594392 0.00042642784 0.00042457902 0.009215856 1.3728041e-05 -3.0758652e-05 -0.0008603489
0.00037527992 0.00020049482 0.0037190309 0.00011155214 -6.819603e-05 -0.00036858628 -0.0004827263 -9.1360096e-05
0.0017189962 5.5819214e-08 8.434611e-09 9.055515e-08 1.1259121e-12 2.610621e-12 -1.0762037e-10 3.7545913e-05
-4.185799e-05 -0.0013863711 9.8332246e-05 -0.00010314693 -0.00092822296 8.270234e-05 3.1068044e-05 0.00050606736
1.2363576e-05 7.742325e-05 0.0025780562 -4.387366e-05 -5.593743e-05 0.00041233565 -2.5358222e-06 2.9182493e-06
-0.00019690882 0.0002352288 0.0005380933 0.01586011 3.760782e-05 -0.00027489034 -0.0061692772 0.00011215896
-1.5897174e-05 0.0006266503 6.243466e-05 -7.651479e-05 -0.0009189406 -0.0010582116 -0.001437717 -0.031640694
0.00013455935 -9.816392e-05 -0.008975766 -7.618319e-05 -9.558165e-06 -0.00915497

exp_avg_sq f4 [50, 3]
00000000: e417 5737 20cf a737 1b3f 9d3c 388e 813b
00000010: fde6 5e3a 582d 593f d00f a738 6f87 9638
00000020: cf3b 323d 3568 a939 a0cf c538 7ef0 833d
00000030: 35d9 063a b86f 4639 23e5 693d e89b 4939
00000040: 542f ef38 76b6 793d 0630 eb35 9cef e037
00000050: bedf 8f3b 5125 553a 8524 fc39 6bfe 7d3e
00000060: c70f 1835 abeb f734 8d5a 0f3a a8af b539
00000070: 15e6 2d39 0206 003e 4cf1 7f3a f1c7 7b39
00000080: 1196 d73d 9c6d b631 7cb6 0931 bc99 8635
00000090: 4235 2539 4e76 a639 24c6 913d 4b51 0939
000000a0: d36b 9e38 67e0 5b3d 87d2 6039 54d5 e739
000000b0: f55c 563d cd3d 1b37 25ee f336 ec0e 073c
000000c0: 1bdd 8a3a 1c34 1c3a fd60 4b3e f69f 343a
000000d0: f322 8739 609c 1e3e 58db 2236 4320 0836
000000e0: f2ee ba39 5622 b13a 6118 1c39 0ac3 653e
000000f0: 0694 8b33 12d2 b534 1482 5938 6b8d e032
00000100: 486c d131 0b58 a336 4e79 cc1b 34d1 cf1c
00000110: 9aea 6f21 6c62 a139 fb69 2739 6544 343d
00000120: dddf 9338 cfe8 c337 9b3c ab3b e7f0 073a
00000130: fa0c 9938 b047 1f3e a628 db39 3df0 b638
00000140: bde4 5b3e 98dc 6b3a 97ef ed38 7b7a e93d
00000150: ed09 c237 ba24 5d38 b49b 5e3c eb16 983a
00000160: 70e6 dd39 fc65 813e eaa0 9d39 3bb1 8039
00000170: 5380 063e f560 1739 9cc7 5e37 1e7f 103b
00000180: c0da ba39 76e6 0739 042a aa3c bd79 5638
00000190: 8e9f 8f37 45e9 7d3c 0284 0f3a 7332 3839
000001a0: 6f45 063d 05a0 812b f78b 8d2c fdde 5330
000001b0: cbb5 1e21 5db2 8d21 88c3 f725 fd56 e738
000001c0: 4294 0738 90a4 543c b3f2 0c38 5d27 2b38
000001d0: 4717 803c f2ac 8338 e7fc 1238 6ef7 123b
000001e0: 40b2 5d38 5537 6a37 c8b2 1b3c cb63 1f37
000001f0: 6f0b 7937 b617 bd3b 3b91 e635 d1f4 0335
00000200: db61 bd39 aa09 e03a b3b9 0e3a ce59 2f3f
00000210: e0b2 1b39 091c b238 8c00 a63d 200f e037
00000220: 5f83 2036 10bc c03b 1266 0837 292e 7537
00000230: c5f1 fa3a eac6 693b a7b5 cf3a 935f 6c3f
00000240: 67fa a63a 3d31 dc38 497e 203e bc72 093a
00000250: d443 5a39 0944 bc3d
1.2820561e-05 2.0004401e-05 0.01919513 0.0039537214 0.0008503048 0.84834814 7.966126e-05 7.177784e-05
0.04351407 0.00032311832 9.432365e-05 0.064423546 0.00051440607 0.0001892437 0.057103287 0.00019226933
0.000114052236 0.060965024 1.7522841e-06 2.6814458e-05 0.004390686 0.0008130866 0.00048092395 0.24804084
5.664737e-07 4.6178806e-07 0.000546851 0.00034653884 0.00016584278 0.12502292 0.0009763434 0.0002401171
0.1052667 5.3093583e-09 2.0039854e-09 1.0028521e-06 0.00015755466 0.0003175013 0.071178705 0.00013095622
7.554111e-05 0.053680804 0.00021440732 0.00044218695 0.052334744 9.253109e-06 7.269688e-06 0.008243304
0.0010594459 0.00059586926 0.19861217 0.0006890291 0.00025775246 0.1548934 2.4267556e-06 2.0284358e-06
0.00035654713 0.0013514261 0.00014886401 0.22437683 6.499617e-08 3.3866723e-07 5.1857976e-05 2.6141342e-08
6.0950107e-09 4.868028e-06 3.382736e-22 1.3752189e-21 8.128684e-19 0.00030781643 0.00015965842 0.04401054
7.051204e-05 2.3354221e-05 0.0052257306 0.00051857386 7.2980256e-05 0.1555469 0.0004180122 8.723184e-05
0.21473975 0.00089974096 0.00011345668 0.114003144 2.3131224e-05 5.272471e-05 0.013586927 0.001160351
0.00042324094 0.2527312 0.00030065264 0.0002454611 0.1313489 0.00014436601 1.3278706e-05 0.0022048424
0.00035639666 0.00012960457 0.020771988 5.1134954e-05 1.7121227e-05 0.01549751 0.0005474688 0.00017566401
0.03278106 9.210416e-13 4.0230002e-12 7.707824e-10 5.3773083e-19 9.601744e-19 4.2980167e-16 0.00011031141
3.2324584e-05 0.012978688 3.3604632e-05 4.0806237e-05 0.0156361 6.27878e-05 3.5044646e-05 0.0022425312
5.2856514e-05 1.396037e-05 0.009503074 9.500373e-06 1.4844219e-05 0.005770649 1.7178603e-06 4.915756e-07
0.00036121797 0.0017092724 0.00054445415 0.68496406 0.00014848588 8.4929234e-05 0.08105573 2.6709924e-05
2.3918326e-06 0.005881794 8.129997e-06 1.46138855e-05 0.0019145539 0.003567154 0.0015846983 0.92333335
0.0012739421 0.00010499589 0.15673174 0.0005243232 0.00020815368 0.09192664

exp_avg f4 [50]
00000000: 567b 4638 acbd 9a3a e838 b9b9 d506 96b9
00000010: 0ae0 8539 ed89 4139 7f76 0db9 f906 2c3a
00000020: 39ac beb6 dc91 16ba 8977 9139 0610 3336
00000030: 92bf 83b9 d7fb 9638 19cf 41b7 e78b d237
00000040: 2fde 15ba 1a1f ebb8 021d 4b38 61ff 0eba
00000050: 9572 5eb6 b1af 8d36 7ceb 112b 5633 75b9
00000060: 7f6e 15b9 06df c7b9 8af2 15ba 0505 78b8
00000070: 91d1 20b9 256f 40ba a3ce f339 04d6 4ab8
00000080: 2075 6139 9954 06b7 6926 c638 c531 2eb2
00000090: df6f fcac 3da1 93b8 bc01 87b8 6645 3a38
000000a0: 52f4 0a39 0c07 1338 09fe 1bb7 8324 3c3a
000000b0: 0b65 a3b9 12ad 1038 11ce 62b8 9bc7 c7ba
000000c0: 6895 dcb9 001a ddb9
4.7321744e-05 0.0011805794 -0.00035328348 -0.0002861532 0.0002553466 0.00018457296 -0.00013490951 0.00065623183
-5.6824906e-06 -0.00057437806 0.00027745616 2.6682405e-06 -0.00025128998 7.199466e-05 -1.1551915e-05 2.5099098e-05
-0.0005717007 -0.00011211466 4.8425987e-05 -0.00054549245 -3.3147273e-06 4.2225806e-06 5.184115e-13 -0.00023384145
-0.0001425091 -0.00038122403 -0.000572004 -5.9132482e-05 -0.00015336859 -0.00073407806 0.00046502528 -4.835987e-05
0.00021501305 -8.006719e-06 9.44853e-05 -1.0139449e-08 -7.174691e-12 -7.039539e-05 -6.437625e-05 4.4410488e-05
0.00013251722 3.5054094e-05 -9.297867e-06 0.00071770715 -0.00031165066 3.449346e-05 -5.4074513e-05 -0.0015241982
-0.00042072986 -0.00042171776

exp_avg_sq f4 [50]
00000000: 63fd 6e38 04e3 123b 062f 0939 b1a8 3739
00000010: 80b9 2039 78ec 3539 941d 7737 8434 343a
00000020: 5733 ee35 bfa6 b339 e52d 9739 8697 6c31
00000030: fc3e 5239 ee6b 2239 4d62 1a39 67bc c937
00000040: cec7 093a 3650 e939 94c8 9a35 4617 1a3a
00000050: 98bc 4d34 f17c 8432 894e 861d 7594 0339
00000060: a488 7637 439f db39 e633 1c3a e2c3 9e39
00000070: 12ec 3438 be66 363a 28d7 c339 895c cb36
00000080: e8d6 8938 a7b2 4938 71da b338 97f4 442c
00000090: 8b9e f521 338e 0938 e4ba 4c38 57c8 f536
000000a0: 9e28 de37 c18e 9737 c727 9835 d2f5 f53a
000000b0: 0216 6839 b8b9 9837 0813 e836 f7c7 213b
000000c0: 0539 d639 200c 8339
5.6979607e-05 0.0022413144 0.00013082856 0.00017515082 0.00015327893 0.00017349597 1.4729234e-05 0.00068742805
1.7747324e-06 0.00034265776 0.00028835158 3.442865e-09 0.00020050624 0.00015489731 0.00014723204 2.4048799e-05
0.00052559085 0.00044500985 1.153227e-06 0.0005878102 1.9160723e-07 1.542364e-08 3.555071e-21 0.00012548438
1.4694557e-05 0.00041889594 0.0005958661 0.00030282052 4.3135202e-05 0.0006958059 0.00037353602 6.060644e-06
6.5726985e-05 4.8088517e-05 8.576073e-05 2.798905e-12 1.6643812e-18 3.279578e-05 4.8811446e-05 7.3248916e-06
2.6483376e-05 1.8067078e-05 1.1336459e-06 0.0018765277 0.00022133443 1.8206294e-05 6.9163543e-06 0.0024685839
0.00040859744 0.000249953

exp_avg f4 [50, 50]
00000000: b6ca db38 5efc 9c37 4474 1c39 d686 a538
00000010: 49db ac36 5e78 0bb9 53b2 56b9 6f58 03b9
00000020: 25fa 4fb9 6dc4 eb38 f150 6137 3c67 6fb9
00000030: 3dde b138 2dac 9a38 4635 73b8 a339 28b9
00000040: 04e4 3cb7 8493 4d38 270e 61b9 1295 27b9
00000050: 5fa5 66b9 1c7f 6db9 bb93 7039 c421 3838
00000060: 2533 8838 a9a7 d8b8 0de3 d8b8 bb33 1fb7
00000070: b53f 2d39 8f6b d337 a950 9db8 2c70 4bb9
00000080: 1d34 4339 68c2 fc38 cbc4 2e37 cf7f 70b9
00000090: bb93 7039 bb11 48b9 c855 37b9 82f6 3837
000000a0: 609e 26b9 1ab7 36b8 5daa 6039 4c50 aa38
000000b0: 096f a238 662c 2cb9 ca2e 6539 5fa7 f0b8
000000c0: 9e55 28b9 bed7 8838 21ef 0739 ae76 60b7
000000d0: fada 3739 5264 ce38 2493 e2b7 054c 13b9
000000e0: b553 66b9 d35d 0bb9 fc5c 62b9 a75a 0b39
000000f0: f8a7 69b7 ad9f 74b9 2fa3 ca38 5d64 df38
00000100: 2d12 4db8 341b 44b9 d562 a337 195c ad38
00000110: 8663 6db9 04cf 44b9 d557 6fb9 b637 74b9
00000120: 9f98 7439 8e60 8c38 98a0 b338 596d 0fb9
00000130: c4be 06b9 2080 e737 ce5e 3839 b0a5 7438
00000140: ac82 c4b8 5194 5bb9 f162 4539 d8c9 1b39
00000150: ab5c 2d38 9c9a 74b9 9f98 7439 b3fd 50b9
00000160: 85f6 4cb9 777c 6b37 7d26 3ab9 7152 94b7
00000170: a992 6c39 e76f 0b38 7e85 cf38 7ffc 42b9
00000180: 73fb 6d39 8477 beb8 634c 45b9 ed9e a538
00000190: e13d 81b8 cd03 82b6 2337 82b8 85dc 2cb8
000001a0: fc63 f636 145d 85b7 a086 b838 9bee c6b7
000001b0: e82e 9f38 ac78 d4b7 1d0e 78b8 4a02 a238
000001c0: 2d71 a8b8 db50 9db8 66b4 46b8 7290 0e38
000001d0: b52c 14b8 7221 c1b8 c5f6 a238 7df4 1038
000001e0: 2adf a938 7809 a438 92e4 a1b8 4bc2 3537
000001f0: 8c54 28b8 05bd 0538 fa5d 3538 5f58 30b8
00000200: ef0b e3b8 b401 d8b7 b8e8 a237 ad3a 5c38
00000210: cb16 01b9 730d c3b8 0045 89b8 f9fa a138
00000220: 8ce4 a1b8 33ea 9f38 e114 ad38 7ccc 08b7
00000230: d483 6338 6cd5 32b8 ad62 a7b8 4de3 d637
00000240: 15c6 9fb8 78c2 8038 8d72 c7b8 28e8 1338
00000250: 70ee 1238 8aa0 3338 e24e 1c3a 0188 81b9
00000260: 09ff 153a 9358 c039 2d0b 9cb9 0297 1db9
00000270: 21eb 4aba 7976 0ab9 c7d8 54ba 0cda d539
00000280: 5591 66b8 6a7e 61ba 2296 753a 6870 383a
00000290: 7949 fe39 f017 2eba 1df6 d539 5462 4a3a
000002a0: 806b 58ba cc58 34ba f5eb 60ba e49a 60ba
000002b0: 9e16 623a 3713 2b39 c946 c239 a712 24ba
000002c0: 0f8d 2cba 689a 023a 8e30 683a 4734 9339
000002d0: 3cc5 5ab9 74c5 4cba 825d 3c3a ecd5 433a
000002e0: 1f25 293a 1211 62ba 9e16 623a cf7d 52ba
000002f0: e320 4fba 73f8 1038 2d22 12ba 58a0 183a
00000300: 3303 5b3a 6c37 c4b9 0ffe 1f3a daef 1fba
00000310: b7f6 5f3a 1972 e237 2eee 34ba b05e 9137
00000320: 092a 2c39 26bc 28b8 cb60 f638 35f0 b638
00000330: ebe2 89b8 3571 a538 7a42 3db9 f909 b738
00000340: 3d2f 43b9 11cf 7638 3328 bc38 e10d 4bb9
00000350: c3b8 ba39 8e5d 6339 8b63 9439 632f f9b8
00000360: d2d0 1f39 b8a3 9939 231c 45b9 300e 02b9
00000370: 8319 51b9 2907 4ab9 9881 4b39 0aba 94b7
00000380: 6a04 c838 6766 f4b8 dcb3 21b9 fc98 3e39
00000390: 5b5d 9339 3158 8838 9607 35b7 e6cc 28b9
000003a0: 4386 5439 8070 7639 8399 8239 2c86 4bb9
000003b0: 9681 4b39 e36a 40b9 9841 53b9 6144 ba36
000003c0: 6b87 ddb8 f945 8f39 c717 4539 cb86 bfb8
000003d0: 75c3 5e39 aed8 02b9 1b8e 5539 bdd0 3237
000003e0: 846e 02b9 19ed deb8 a48d 8db7 3cb1 4638
000003f0: f65e 7c37 89f1 4e36 ba55 3438 7124 3fb8
0.000104804916 1.8714167e-05 0.00014920632 7.892928e-05 5.1515276e-06 -0.00013300913 -0.00020475061 -0.00012526078
-0.00019834244 0.000112422604 1.3429891e-05 -0.00022831274 8.481413e-05 7.3753625e-05 -5.798533e-05 -0.000160432
-1.1258762e-05 4.9013193e-05 -0.00021462944 -0.00015981894 -0.00021996115 -0.00022649433 0.00022943217 4.3900465e-05
6.494512e-05 -0.00010330912 -0.00010341974 -9.489183e-06 0.00016522298 2.5203246e-05 -7.5013675e-05 -0.00019401376
0.00018616063 0.000120525074 1.0417028e-05 -0.00022935796 0.00022943217 -0.00019080091 -0.00017484196 1.1024649e-05
-0.00015889993 -4.3562708e-05 0.0002142577 8.121188e-05 7.745444e-05 -0.00016419738 0.00021856572 -0.00011475267
-0.00016053623 6.5251705e-05 0.00012963686 -1.3379073e-05 0.00017533815 9.8415316e-05 -2.7009817e-05 -0.00014047332
-0.00021965693 -0.00013291025 -0.00021587679 0.00013289844 -1.39269905e-05 -0.00023329137 9.662506e-05 0.00010652163
-4.8892736e-05 -0.0001870215 1.9477136e-05 8.266437e-05 -0.00022639157 -0.00018769136 -0.00022825536 -0.00023290407
0.00023326509 6.693705e-05 8.565298e-05 -0.00013678278 -0.00012850302 2.7597009e-05 0.00017582925 5.832844e-05
-9.370348e-05 -0.0002094072 0.00018824243 0.00014857145 4.1332718e-05 -0.0002332725 0.00023326509 -0.00019930936
-0.00019546792 1.4036071e-05 -0.0001775268 -1.7681365e-05 0.00022561349 3.32444e-05 9.895394e-05 -0.00018595344
0.00022695753 -9.0821675e-05 -0.0001881584 7.897415e-05 -6.162725e-05 -3.8747444e-06 -6.209153e-05 -4.121337e-05
7.343011e-06 -1.5898178e-05 8.7988796e-05 -2.3714549e-05 7.590448e-05 -2.5328562e-05 -5.914095e-05 7.725188e-05
-8.031945e-05 -7.501404e-05 -4.7374888e-05 3.3989963e-05 -3.5327586e-05 -9.209187e-05 7.7707264e-05 3.4559973e-05
8.1001155e-05 7.821893e-05 -7.719653e-05 1.0833678e-05 -4.013306e-05 3.188571e-05 4.3241285e-05 -4.2043972e-05
-0.00010826426 -2.575e-05 1.9420273e-05 5.2506733e-05 -0.0001231089 -9.30083e-05 -6.545521e-05 7.7238255e-05
-7.7196484e-05 7.625334e-05 8.253172e-05 -8.153842e-06 5.4243792e-05 -4.263727e-05 -7.98156e-05 2.5616633e-05
-7.6186065e-05 6.139738e-05 -9.510396e-05 3.5263743e-05 3.5031175e-05 4.282644e-05 0.0005962682 -0.00024706128
0.0005721902 0.00036687087 -0.00029762965 -0.00015028942 -0.00077407254 -0.0001320484 -0.00081194605 0.00040788983
-5.4971624e-05 -0.0008601906 0.000936838 0.0007035793 0.00048501397 -0.000664114 0.00040809895 0.00077203405
-0.0008255765 -0.0006879687 -0.0008580082 -0.00085680024 0.0008624586 0.00016314989 0.00037055303 -0.0006258883
-0.00065822987 0.0004982115 0.0008857333 0.00028076975 -0.00020863576 -0.0007811405 0.00071855646 0.00074705365
0.000645237 -0.00086237595 0.0008624586 -0.0008029611 -0.0007901324 3.456366e-05 -0.00055745506 0.0005822233
0.0008354664 -0.00037425326 0.00061032263 -0.00061011093 0.0008543538 2.699443e-05 -0.00069019466 1.732944e-05
0.00016418858 -4.0229548e-05 0.00011748223 8.723178e-05 -6.574936e-05 7.8888996e-05 -0.00018049209 8.7279775e-05
-0.00018614247 5.8843816e-05 8.972026e-05 -0.00019364759 0.00035614343 0.00021683259 0.00028302925 -0.00011882072
0.00015241213 0.00029304414 -0.00018797866 -0.00012403051 -0.00019941297 -0.00019266889 0.00019407866 -1.7729606e-05
9.537565e-05 -0.000116539006 -0.0001542116 0.00018176803 0.0002810758 6.501412e-05 -1.0790207e-05 -0.00016098059
0.00020267912 0.00023502298 0.00024909907 -0.00019409572 0.00019407863 -0.00018350365 -0.00020146964 5.5511923e-06
-0.00010563325 0.0002732722 0.00018796242 -9.132697e-05 0.00021244383 -0.00012478486 0.00020366201 1.0658227e-05
-0.00012438936 -0.00010629948 -1.6874466e-05 4.737194e-05 1.504248e-05 3.0836984e-06 4.2995183e-05 -4.5571887e-05
